SLIC_GAT/best4.pt (torch, 80373 bytes, 12 tensors)

GAT_layers.0.f.weight f4 [32, 124]
000000 ef f3 f7 3d 53 25 b0 3c f5 d8 2b 3e f9 7d 2a bd
       0.121070735 0.021502173 0.16781981 -0.041624043
000010 00 00 3c 3e 7c 9c 27 3e 4b 5c 7a bd 27 70 1e 3e
       0.18359375 0.16368288 -0.061123174 0.1547247
000020 1f 37 3e be 27 85 8f bd a7 b7 5d 3d 32 eb a2 3b
       -0.18575715 -0.07007819 0.054130223 0.004971885
000030 75 2b cd 3d ca 9d ff 3d f1 04 16 3d 96 f4 01 3d
       0.100180544 0.12481268 0.036625806 0.031727396
000040 9e d9 42 bd 98 79 ac 3d 32 77 30 3e fe 01 37 be
       -0.047570817 0.0842163 0.1723297 -0.17871854
000050 67 8e 82 3d d2 8f 0a 3d fa b0 ef 3b 77 b5 22 3e
       0.06374817 0.033828564 0.0073147984 0.15889536
000060 49 a0 2f be 69 db 3c 3e 8d d8 20 3e 13 e8 2c be
       -0.17150988 0.18443073 0.15707608 -0.16885404
000070 5a 6e 38 be da 8d a9 bd 1a 73 a2 3d 61 b0 09 be
       -0.18010846 -0.08279009 0.0793211 -0.1344619
000080 c3 f9 09 be 5e ed be 3d c9 96 1e 3e 86 71 17 be
       -0.13474183 0.09322618 0.15487207 -0.147894
000090 49 5f 22 3e f0 5c 0c 3e 94 18 13 bd d0 bb fb 3c
       0.15856661 0.13707328 -0.03591211 0.030729204
0000a0 04 a4 d1 3d 84 6d d8 bd 80 be 84 3d 84 a9 27 be
       0.102363616 -0.105677634 0.064816475 -0.16373259
0000b0 08 83 03 3e 35 8e 92 3d f6 88 86 3d 56 07 16 bd
       0.12842953 0.0715603 0.06569092 -0.03662809
0000c0 f9 49 f5 bd 24 ff cb bd 53 5e b5 3d 32 7d ee bd
       -0.11977 -0.099607736 0.088558815 -0.11644973
0000d0 ac 0d d5 3d 4c d7 04 3e c6 9d af 3d 24 fd 2c be
       0.10402998 0.12972754 0.08575015 -0.1689344
0000e0 e2 77 1a 3e 87 b2 86 3d 2d 4a a6 3d 4b 26 3f 3e
       0.15084794 0.0657702 0.08119617 0.18666951
0000f0 11 48 ac bd d2 f8 94 bd af 04 1d 3c 4f 6e 0d 3e
       -0.08412183 -0.07274021 0.009583636 0.1381161
000100 07 01 fb 3c c6 b4 40 be 6e 78 4d 3d 7c e9 4d be
       0.030640138 -0.1881896 0.05016368 -0.20108598
000110 1c 43 78 3d 94 d8 b2 3d bf 1d 0d 3e 9b 2b a2 3c
       0.060610875 0.08732715 0.13780878 0.019796183
000120 d3 59 52 3b 91 53 ee 3d 12 22 11 3e 7c ea 9e 3d
       0.0032096996 0.11637033 0.14173153 0.07759568
000130 59 6c 19 be 75 72 23 3e ba 1b 01 3e dc cc 1c be
       -0.14982738 0.1596163 0.12608233 -0.15312523
000140 35 7b 3e bd 58 09 0d 3e e5 76 8f 3d 3a 48 18 3e
       -0.046504218 0.13773096 0.07005099 0.14871302
000150 60 72 09 3e d2 69 18 3e 37 69 29 3d 77 6e f1 3c
       0.13422537 0.14884117 0.041360106 0.029471619
000160 ab 0a 3a 3c bc 0a 3f be d3 41 15 be 1a 74 0b be
       0.0113550825 -0.18656439 -0.14575891 -0.13618508
000170 29 ec ea bd f5 45 88 3c ad 05 cb bd cd 79 a4 3d
       -0.11470825 0.01663492 -0.09913192 0.08031044
000180 b1 b4 90 3d 1d 3a 42 3b da 21 1d 3e 3c 2b 3a 3d
       0.07065714 0.002963669 0.15344945 0.045451388
000190 c5 47 7d bd 56 56 17 3e aa 05 19 3e e9 1b 6e bd
       -0.061836023 0.14779028 0.14943567 -0.058132086
0001a0 8b d9 c5 bb d3 4c 0c 3e 47 a3 15 be a0 17 cd bd
       -0.006037896 0.13701181 -0.14613067 -0.10014272
0001b0 07 e6 1f be fd 26 9c 3d d5 be 4d 3d 60 f3 42 be
       -0.15615092 0.07624624 0.05023082 -0.19038153
0001c0 ce 14 1d be 57 e9 22 3e 02 f9 09 3d de 4b f4 bd
       -0.15339968 0.15909325 0.033684738 -0.11928533
0001d0 37 39 27 be f7 cb db bd e0 02 04 3e d4 47 3f 3e
       -0.1633042 -0.107322626 0.12891722 0.18679744
0001e0 b6 bd 62 bd f1 52 a9 bc 54 e4 3a bc 6c 73 34 3d
       -0.055356704 -0.020669432 -0.011406977 0.044055387
0001f0 2b 27 1f 3e db 05 c9 bd 56 ec 65 bd 82 49 c8 3d
       0.15542285 -0.0981557 -0.05613359 0.097796455
000200 e5 b6 18 be 1d ec 78 3c 87 bd e3 bd 60 03 7d 3d
       -0.14913519 0.015193013 -0.11120134 0.061770797
000210 00 8c 41 3e b8 ca e8 3d 65 9b 97 3d c3 7b cc 3d
       0.18901062 0.113667905 0.07402686 0.09984543
000220 b5 4c b7 bb b0 00 ab 3d a5 be 1e 3d 9f 37 41 be
       -0.005593861 0.083497405 0.03875603 -0.18868874
000230 a0 15 87 bd 8b c6 39 3e cb 2f 9d bd c9 b2 4f bd
       -0.065959215 0.18142144 -0.076751314 -0.050707612
000240 a3 9e 9f bd 6b 3d b4 3b 47 4e f6 3d cc ca 15 be
       -0.077939294 0.0055004857 0.12026649 -0.14628142
000250 24 68 2b be 9f b2 5a 3d ec 82 9f bd 59 ed 36 be
       -0.16738945 0.053393003 -0.07788643 -0.17863978
000260 9a 43 1e be ed 8c 0a 3e 73 c4 0b 3e e1 d0 f1 3d
       -0.15455475 0.13530321 0.13649158 0.118074186
000270 e3 bf 27 3e c1 35 27 3d b9 e1 3a 3d 36 80 34 be
       0.16381793 0.040822748 0.045625422 -0.17627034
000280 79 2b 99 3d ce e3 9d bd 03 90 2b bc e0 cd 01 be
       0.07478995 -0.07709466 -0.010471347 -0.12676191
000290 0b dc f5 bc ef a1 a2 3c d2 0c 0b bd 46 ab e0 3d
       -0.030012151 0.019852607 -0.033947773 0.10970168
0002a0 66 57 f6 bc 77 d3 07 3e ed 73 c0 3d 6c 14 c5 bd
       -0.030070972 0.13264261 0.09397111 -0.09623036
0002b0 ca 9e 02 3e 63 56 90 3d 60 b7 25 bd a1 60 5c bd
       0.12755886 0.07047727 -0.040458083 -0.05380309
0002c0 e0 19 8e bd 49 3a 08 3e 1c 3d c4 3a 26 e9 bc bd
       -0.06938529 0.13303484 0.0014971825 -0.09224157
0002d0 f2 3e a7 bd 01 1f 79 bb 51 b9 95 3d 8f 71 83 3d
       -0.08166303 -0.0038012865 0.07310737 0.06418144
0002e0 56 6a 03 be e4 fe 43 bd 5a 9c 3c 3e 08 f4 d6 bb
       -0.12833533 -0.047850505 0.18419018 -0.0065598525
0002f0 d6 1b a8 bd 66 55 4d 39 86 a8 56 3b 3c fc 3b 3e
       -0.08208434 0.00019582137 0.0032754256 0.18357939
000300 6d 91 16 3d 72 d9 93 3d a9 ff dd 3d b0 8b 40 be
       0.036759783 0.07219209 0.10839779 -0.18803287
000310 89 f9 06 be 06 90 02 3d 3b 8d 1e 3e 65 5b 2a 3e
       -0.13181128 0.031875633 0.15483563 0.16636427
000320 51 43 45 3d e8 24 0e 3e 82 1e a3 3d 4b 05 eb bc
       0.0481599 0.13881266 0.07964803 -0.028689047
000330 74 45 71 bd 6f 6c 04 3e 8f a2 5e 3d ea 72 37 be
       -0.058904126 0.12931989 0.054354247 -0.1791493
000340 a6 cc 07 be ba ad d2 3d 50 c6 f3 3c a0 d2 a5 bd
       -0.13261661 0.10287042 0.029757649 -0.08096814
000350 b4 4d 2f 3e d8 53 a9 bd 45 e2 ee 3d 13 08 0d be
       0.17119485 -0.08267945 0.11664251 -0.13772611
000360 13 37 25 3e f1 b6 0e bd 99 62 6c bd 08 cd 46 3e
       0.1613429 -0.034842435 -0.057711218 0.1941415
000370 8a 63 aa 3d c1 30 1b 3e 2d e0 ab 3c 71 b3 19 3d
       0.08319767 0.15155317 0.020980919 0.037524644
000380 00 81 e3 3b da e8 ab bd b7 53 a8 3d c1 b9 09 be
       0.006942868 -0.08394022 0.08219092 -0.13449766
000390 bd 31 04 be dd 86 43 be a8 7e be 3d be e4 a8 bd
       -0.12909599 -0.19094415 0.093015015 -0.08246754
0003a0 89 62 40 be ae 15 41 3e ab 0c 74 3d ff 69 fe 3d
       -0.18787588 0.18855926 0.059582394 0.12422561
0003b0 f2 46 02 3d a5 4d 14 3e 72 3d 56 bd 5e 4f 13 3c
       0.03180594 0.14482744 -0.052304693 0.008991091
0003c0 4e 27 ce bd fc 58 1d be b7 0e 55 3d 7d 83 40 be
       -0.100660905 -0.15365976 0.052015986 -0.18800159
0003d0 66 12 45 3e 9e 50 19 be 53 b9 ac 3d c8 26 02 3e
       0.192453 -0.1497216 0.08433785 0.12710106
0003e0 5a 6a f3 bd b8 68 3f bc 90 2b 27 3e 70 0b 2c be
       -0.11885519 -0.011682682 0.16325212 -0.16801238
0003f0 dd 4a 24 3e 4e 78 26 be 6e 9f 24 3e d1 45 86 bd
       0.16044183 -0.1625683 0.16076443 -0.06556285

GAT_layers.0.f.bias f4 [32]
000000 59 30 92 3d a8 5f 8f bd 73 9d b1 bd 3a 93 66 bd
       0.07138128 -0.07000667 -0.08672609 -0.05629275
000010 3a f4 16 3d 8e a2 c7 3c bb 6f 80 bd 77 ff ac bd
       0.036854006 0.024369504 -0.06271311 -0.084471636
000020 f6 c5 51 3c cb 77 24 3c 55 e1 73 3d 11 ce a1 3d
       0.012803545 0.0100383265 0.059541065 0.07900632
000030 17 2d 57 3d 5c 0b 53 3d 58 78 a4 3c 40 4a 3c bd
       0.052533235 0.051524505 0.020076916 -0.045969248
000040 ca 01 2c bd 78 d7 32 3d 29 fb 28 3d 82 9b 0b bd
       -0.041993894 0.04366252 0.04125515 -0.03408385
000050 cf 8e f7 3a 9a 21 21 3d 47 f9 5b bd f4 aa 29 bd
       0.0018887165 0.039338686 -0.053704526 -0.0414228
000060 c0 dc 25 bd 67 be 3b 3d 7a f1 48 3d d2 28 1d 3d
       -0.040493727 0.04583588 0.049058415 0.038369007
000070 1f a5 94 bd c3 83 62 3d f3 a0 20 3c d6 1c 8d bd
       -0.07258057 0.05530144 0.009803998 -0.06890266

GAT_layers.0.w.weight f4 [1, 124]
000000 96 bc 94 bc 02 b3 4f be c0 2c 5b 3d 2e 73 91 bd
       -0.018156331 -0.2028313 0.053509474 -0.07102047
000010 cc 39 a0 3d 71 b2 97 bc c1 3d 2e be dd 0a eb bc
       0.07823524 -0.018517705 -0.17015745 -0.028691703
000020 e0 ac d6 bc bf 42 27 3e c5 02 e4 3d 15 d6 d2 bd
       -0.02620548 0.16334055 0.11133341 -0.10294739
000030 ba 44 b2 bd 69 31 1f 3e a9 26 0c 3e 9e 6e da 3c
       -0.08704515 0.15546192 0.13686623 0.026664075
000040 93 b7 28 3e f6 0f 0d 3e 97 b6 3e be f0 ff 11 be
       0.16476278 0.1377562 -0.1862434 -0.14257789
000050 8c 89 8f bd 07 95 df bb 49 e1 f7 3c e6 f4 57 be
       -0.07008657 -0.0068231854 0.030258792 -0.21089515
000060 84 53 61 3c 3d ef fc 3d 46 41 f1 3c fe 09 bd bc
       0.013752822 0.123503186 0.02945007 -0.023076054
000070 5c 32 48 3c 41 7c bd bc e2 d4 d7 bc 21 27 ae bd
       0.012219038 -0.023130538 -0.026346628 -0.08503557
000080 b9 d4 09 3e c5 7f e3 bd 28 b8 d4 3d 0d 89 44 3e
       0.13460054 -0.111083545 0.103866875 0.19192906
000090 4a 35 43 3e 30 fd 65 bd 92 7a ef bd 99 38 a7 bd
       0.19063297 -0.05614966 -0.116933 -0.08165092
0000a0 d5 e9 d2 bd 61 b3 8b bc a4 bb 2a be be 04 01 3e
       -0.10298506 -0.017053308 -0.16673142 0.12599465
0000b0 de 05 d4 bd 5a 50 a4 bd cb 32 50 3e e7 f7 0e be
       -0.103526816 -0.08023138 0.20331876 -0.13961755
0000c0 30 20 2f 3e 08 67 10 bd 41 9f 07 be 32 4f 27 3e
       0.17102122 -0.03525451 -0.13244344 0.16338804
0000d0 db d0 e6 3c 14 e3 ad bd d6 96 97 3d 94 aa a7 bd
       0.028175762 -0.08490577 0.074018165 -0.08186832
0000e0 3e ba 0f be f1 a8 d0 3d ba b8 11 bd 54 8b d3 3c
       -0.1403589 0.10188473 -0.03557656 0.025823273
0000f0 eb 5f 31 3d 7c b8 7f bc da 60 c2 3d b1 00 40 3d
       0.043304365 -0.015607949 0.09491129 0.04687566
000100 dd 91 01 be 2a 54 2a 3e c0 9f 0c be 58 48 1c 3e
       -0.12653299 0.16633669 -0.13732815 0.15261972
000110 2a ec 15 be fb 78 8b 3d 57 2b 8a 3d 1e 54 16 3e
       -0.1464087 0.068101846 0.06746548 0.14680526
000120 94 92 cf bd a1 93 35 be 6c 71 2e 3d 92 55 32 3d
       -0.101353794 -0.17732097 0.042588636 0.043538637
000130 d8 66 5b 3e 84 66 4b 3e 73 f5 f7 3d 45 2e 15 3c
       0.2142595 0.19863325 0.121073626 0.00910527
000140 71 21 6f bd d9 58 47 be 7d c1 15 bd ef f8 10 3e
       -0.0583815 -0.19467486 -0.036561478 0.1415746
000150 75 b2 b2 ba bd c2 b3 3d c5 a6 b1 3d 50 80 50 be
       -0.0013633507 0.08777378 0.08674387 -0.20361447
000160 bb 32 01 be 48 a0 14 3e 62 7d 45 be e1 45 f3 bd
       -0.12617008 0.14514267 -0.19286111 -0.11878563
000170 e5 d7 96 bb 2f 9e 53 be 64 fe 9c 3d b6 7d 61 3e
       -0.0046033734 -0.20665811 0.07665709 0.22020611
000180 76 3d 30 3e 08 c3 39 3d b6 87 58 bd 8e c8 10 be
       0.17210945 0.045352012 -0.0528638 -0.14139006
000190 c0 94 ec bc fc 05 44 3d 0a 07 14 be d3 ad 59 3e
       -0.028879523 0.04785727 -0.1445581 0.21257715
0001a0 df 72 3f bd 54 d5 22 bd b0 c2 05 3e 11 9d 25 3d
       -0.04674041 -0.039754227 0.13062549 0.040432993
0001b0 13 73 08 be 5e 49 1a 3d a7 49 97 bd 75 b5 10 bd
       -0.13325147 0.037667625 -0.07387095 -0.0353293
0001c0 ef 6b 4a 3e cc e1 9f 3d e4 c2 5c be c0 d3 be 3d
       0.19767736 0.07806739 -0.2155872 0.09317732
0001d0 b4 e7 c8 3d 40 28 1e 3e c2 a4 5e be 49 17 1a 3e
       0.09809819 0.15445042 -0.21742538 0.15047945
0001e0 7e 84 2c be 77 88 b2 3d b4 c2 c2 bd 2b 0b c2 bc
       -0.16847417 0.08717435 -0.09509793 -0.023686966

GAT_layers.1.f.weight f4 [64, 64]
000000 c8 bc 10 be 4a 15 2e 3e 50 05 c5 3c 04 83 4b bd
       -0.14134514 0.17000309 0.024050385 -0.049685493
000010 0a 55 15 be d6 15 b2 bd 5a 37 2f bd 55 86 e7 bd
       -0.14583221 -0.08695571 -0.042777397 -0.11304919
000020 b5 83 6f bd ed 80 2d 3c eb e3 0a 3d 28 c1 e8 bd
       -0.058475215 0.01058982 0.033908766 -0.11364967
000030 35 7d 38 3d 5f 54 19 3e a0 17 2d 3e 33 25 2b 3e
       0.04504128 0.14973591 0.16903543 0.16713409
000040 89 09 5a be 57 83 8c bc 70 84 d5 bc 84 61 a2 bd
       -0.212927 -0.017152471 -0.026064128 -0.07928756
000050 89 28 1a 3d 59 9a 80 3d be d2 8d 3d 0e fc 35 3e
       0.037636314 0.062794395 0.069249615 0.17771932
000060 60 59 0e 3c 10 e3 5e be cb da 9f bd c5 ce 23 3e
       0.008688301 -0.21766305 -0.07805403 0.15996845
000070 b6 c5 37 3e e2 0e 29 be 6d 08 98 3d 8f 8f 26 be
       0.17946514 -0.16509584 0.07423482 -0.16265701
000080 4b 86 39 3e 91 54 5b 3e 51 7b f2 3c dd 16 4e be
       0.18117635 0.21418978 0.029599817 -0.20125909
000090 37 6b 55 3d 77 ea f1 bd d3 11 b1 bd cf e7 13 3e
       0.0521042 -0.11812299 -0.08645978 0.14443897
0000a0 be 74 a7 3c d8 a3 33 3e e7 2f cd ba e1 c2 63 be
       0.02044141 0.1754297 -0.0015654535 -0.22242309
0000b0 99 c4 2e be 4d 3e 51 3e d4 2c 89 bd 9a c4 47 bd
       -0.17067184 0.20433922 -0.066980034 -0.04877148
0000c0 cf 07 ab 3c 76 20 4a be c2 9e 05 3d 85 f0 e2 bd
       0.020877747 -0.19738945 0.032622106 -0.11081032
0000d0 14 5f 36 be c7 21 27 be 65 4e 22 3d 9c 3d ce bd
       -0.17809707 -0.16321479 0.039625544 -0.10070345
0000e0 b8 88 29 3e 28 11 c9 3d 98 51 92 3b de f6 57 be
       0.1655606 0.098177254 0.004465293 -0.21090266
0000f0 c8 06 0b be 4c 51 2d 3c bf 95 29 bd 91 3f 50 be
       -0.13576806 0.010578465 -0.041402575 -0.20336749
000100 5c 0a 8c 3c d8 d1 49 3e 8a 93 a0 bd 47 92 14 bd
       0.017094783 0.19708955 -0.07840641 -0.036272313
000110 7f e0 b1 bd e1 42 c3 3c c0 46 3c be c4 7b 54 be
       -0.08685397 0.023835601 -0.18386364 -0.20750338
000120 b0 05 e0 3c 6a 00 2f 3d 58 0b 9a bc e5 6a 43 be
       0.027346462 0.042725004 -0.018804237 -0.19083746
000130 d8 46 54 3e ae eb 29 3e c4 c0 c7 bc 9b b0 55 be
       0.2073015 0.16593811 -0.02438391 -0.20868151
000140 d6 a2 90 bd c7 f1 03 3e cf 96 1d be 5e 7b a3 3d
       -0.070623085 0.128852 -0.1538956 0.07982515
000150 b4 68 18 3e 6e b7 40 bd 5c b5 c3 bd 0e 52 58 3e
       0.14883691 -0.047049932 -0.09556076 0.21125051
000160 9c b8 bf 3d 73 02 37 be cf 3e ba bd 28 55 85 bd
       0.09361383 -0.17872028 -0.09094011 -0.06510383
000170 05 1d 3c 3e ad 1b cd bd dc 1b f8 bd 0e 14 0e be
       0.18370445 -0.10015044 -0.12114689 -0.13874838
000180 40 46 f4 3d 72 a2 4f bd b4 ac 64 bd 75 08 3e bd
       0.119274616 -0.05069203 -0.055828765 -0.046394784
000190 b4 7d ce 3c a4 cc 1e 3d bc 22 4b 3e 66 62 10 bb
       0.025206424 0.03876938 0.19837469 -0.0022031306
0001a0 eb 5a 57 bc 7b f5 29 be 18 c3 0e bd 48 17 e4 3d
       -0.013144235 -0.1659755 -0.034854025 0.11137253
0001b0 15 8f 96 3d 03 43 13 3e 44 b2 27 3e 41 c0 0b 3e
       0.073515095 0.14381032 0.16376597 0.13647558
0001c0 ac 3e d3 bd 64 fa 57 bd 70 45 60 be fa ea 3e 3e
       -0.10314688 -0.052729025 -0.21901488 0.18644324
0001d0 07 c6 13 be e5 6b 8b 3d 3b e2 f2 bd 75 7b eb 3d
       -0.1443101 0.068076886 -0.11859556 0.11498157
0001e0 53 1f 3e 3e b3 84 54 3e 22 3c 5a be c9 31 8c bd
       0.18566637 0.20753746 -0.21312001 -0.06845433
0001f0 5c 15 22 be 31 87 09 3e 49 02 1b 3e 38 81 40 be
       -0.1582846 0.13430478 0.1513759 -0.18799293
000200 20 25 21 3e 96 25 d1 3c 56 44 91 b9 38 a4 b4 3d
       0.15736818 0.025530618 -0.0002770747 0.08820385
000210 ed 7e e1 bd 54 69 47 be 16 ea 8a bc c5 d6 4e be
       -0.11010537 -0.19473773 -0.016957324 -0.20199116
000220 43 3a 71 3d 4d 5c 38 bd fb b3 5a 3e 4d 2d ec bd
       0.058893453 -0.0450099 0.2135772 -0.11532078
000230 4a 3b f4 bd 54 d1 7f bd 0d 95 21 3e f3 60 0c be
       -0.11925371 -0.06245549 0.15779515 -0.13708858
000240 33 69 09 be 24 0a b4 bd 7d 90 8a 3d 3b 7e 21 be
       -0.13419037 -0.08790997 0.0676584 -0.1577081
000250 6c 97 56 be 9c a2 33 3e f5 01 40 3d ec 1d fc 3d
       -0.209562 0.175425 0.046876866 0.12310395
000260 a1 7f 8e bd c8 b9 ed 3c 04 27 50 3d 04 15 0a bd
       -0.06957937 0.029019251 0.05081846 -0.03371145
000270 5e 3a 09 3e 1f 32 c0 3d cf a4 1a bd 45 55 27 bc
       0.13401172 0.0938456 -0.03775483 -0.010213201
000280 2c 56 08 3e 2e 12 5b 3c bb 90 33 be 21 80 4f 3e
       0.13314122 0.013371034 -0.17535679 0.20263721
000290 84 19 d6 3d 6f 25 39 bd 8d 96 2c be e8 1a 5c be
       0.104540855 -0.045201715 -0.16854306 -0.21494639
0002a0 71 cf b1 3d af 65 63 3d 4d 8b e3 3d 3e 3e 51 3e
       0.086821444 0.055516895 0.11110554 0.204339
0002b0 74 2f 2c 3e 46 f4 de 3d 5d f9 c5 bd 8f 30 50 be
       0.16814977 0.10886435 -0.09666703 -0.20331024
0002c0 df ba bd bc 00 05 9d bb 21 1e f3 3d 7d ff 25 3a
       -0.023160396 -0.004791856 0.11870981 0.0006332321
0002d0 7f 1b 08 be 31 41 35 3c 3c 25 2b 3d 8e ec a2 bc
       -0.13291739 0.011062906 0.041783556 -0.019888189
0002e0 42 7c 98 bc bf 26 65 3c 3b 5b 48 be 70 90 56 3e
       -0.018613938 0.013986289 -0.19566052 0.20953536
0002f0 46 2e 2a 3d e1 b9 a2 bd 10 f2 ed 3c 4b d5 9a bb
       0.041548036 -0.0794561 0.029046088 -0.0047251335
000300 ca a3 45 3e e5 8e 23 3e a6 43 55 bd 77 12 ce bd
       0.19300762 0.15972479 -0.052066468 -0.10062116
000310 c4 c0 34 bd 72 3b e7 bd bf 24 ed 3d ad f1 ca 3d
       -0.044129148 -0.11290635 0.115792744 0.09909377
000320 00 a9 4b 3d 5d 24 ef 3c 7a 52 8c 3d e0 90 0a 3e
       0.049721718 0.029192144 0.06851669 0.13531828
000330 ba bf de bd c0 f9 66 bd fa ff 28 bd 99 7b 9e 3d
       -0.10876413 -0.056390524 -0.041259743 0.07738418
000340 ea fd 2f 3e ef 2c 0b 3d b5 bd fa 3d 2d ee 59 3e
       0.17186704 0.0339784 0.12243215 0.21282263
000350 bd fa 25 3e e9 7e 16 3e b1 5f 32 3e 68 0d cc 3d
       0.1620893 0.1469685 0.17419316 0.099634945
000360 a8 88 d2 bd 6e b2 cd bd f3 c2 fe 3d 21 ec e7 bd
       -0.10279971 -0.100437984 0.12439527 -0.11324335
000370 73 7a b3 3d c4 ba 87 bd 39 a3 d5 bd e4 3d 86 3d
       0.0876359 -0.066274196 -0.10431523 0.065547734
000380 80 d9 4b bc f8 da 19 be 12 58 6a bd 6e 27 e9 3d
       -0.012441993 -0.15024936 -0.057212897 0.11384474
000390 c2 4a 21 3e 51 86 da bc 45 e1 5e bd 37 bc 8f 3d
       0.15751174 -0.026675375 -0.054414053 0.07018321
0003a0 bc ff 87 3b cc db 24 bc e4 5a 20 be fc e8 20 be
       0.004150359 -0.010062169 -0.15659672 -0.15713876
0003b0 c2 36 59 bd 79 78 4f 3c 6e 26 f9 3d 63 60 1e be
       -0.053030737 0.012663 0.12165533 -0.15466456
0003c0 93 79 52 be 23 4c d1 3d 23 e2 aa bd 31 cd 84 bd
       -0.2055419 0.102196 -0.083439134 -0.0648445
0003d0 0a 37 dd 3d 88 80 fa bd a6 bd 6c bd 06 fe 3d be
       0.108015135 -0.12231547 -0.05779805 -0.18553934
0003e0 5c f5 ef bd ee 68 1f 3e 43 dc e8 3c 61 aa 10 3e
       -0.117167205 0.15567371 0.028425341 0.14127494
0003f0 23 eb 2e 3e 0a 4a 4e bd 42 ef 62 bd c8 21 09 3e
       0.17081885 -0.050363578 -0.055403955 0.13391793

GAT_layers.1.f.bias f4 [64]
000000 ab dd fa bd 32 8a 10 3c 3b c4 fa bd 34 0f 21 3c
       -0.12249311 0.008822011 -0.12244459 0.009830285
000010 97 94 97 bd 86 de 01 3d 64 bf 56 bd 94 c3 ec 3c
       -0.07401388 0.031706356 -0.052428618 0.028901853
000020 a8 1b c7 3d cb 9f a2 3d e8 9f d3 bc bc 9c 1d 3c
       0.09722072 0.07940634 -0.025833085 0.009619888
000030 6f c2 7b 3d c2 91 81 bd 1f d6 90 3d 0a 9b 95 bd
       0.061464723 -0.06326629 0.0707209 -0.07304962
000040 a2 b6 75 bb e0 ee 5b bc b3 57 b6 3d c9 b1 31 3d
       -0.003749289 -0.013423651 0.08903446 0.04338244
000050 21 4f f9 3c d3 ef 80 3b 21 4e 42 3c 74 05 c1 bd
       0.03043324 0.0039348393 0.011859448 -0.09424868
000060 b0 22 cc 3d b5 36 53 3c 50 f3 34 3d 15 a0 87 3d
       0.099675536 0.012891461 0.044177353 0.0662233
000070 4c 2e c8 bd 2e 66 35 3d 92 41 85 bd e6 48 c3 3d
       -0.097744554 0.0442869 -0.06506647 0.09535389
000080 6f 26 f5 3c 48 f8 94 3b a2 91 c0 3d c7 ec e7 3d
       0.029925553 0.004546199 0.09402777 0.113244586
000090 9b 91 c9 bd 85 e5 ab bd 80 70 dc bd 3d 34 eb 3b
       -0.09842225 -0.08393387 -0.10763645 0.007177858
0000a0 80 43 61 3a 9c 3c 1b 3c 48 d8 48 bd 12 e9 01 bc
       0.0008593127 0.0094749 -0.049034387 -0.007929103
0000b0 1d 00 d4 bc da 36 ea bd 2f 2e eb bd 9a 4a fa 3d
       -0.02587896 -0.11436243 -0.11483418 0.1222126
0000c0 b6 d5 b5 bd de aa e4 3d 01 a0 c5 3c 74 ab 25 3d
       -0.08878653 0.11165403 0.024124147 0.040446714
0000d0 0e bd 6b bd a9 f4 5c bd bc ac e6 bd a0 54 90 bc
       -0.057553343 -0.053944264 -0.11263415 -0.017618477
0000e0 ce 47 ec bc cc e4 fb bd cc ed 88 3c c0 3e 58 bb
       -0.028842833 -0.12299499 0.016714953 -0.0032996386
0000f0 26 74 c9 3c ed c6 dd 3d ec fc 6d bc 2c d1 d9 3d
       0.024591517 0.10828958 -0.014525633 0.106355995

GAT_layers.1.w.weight f4 [1, 64]
000000 1b 95 93 be 89 5b 60 3c 6b b9 b7 3d 64 9a 58 be
       -0.28824696 0.013693699 0.089709125 -0.21152645
000010 86 bd 6f 3e d7 d6 d0 bd ee 4a 44 3e 54 59 bb bd
       0.23412141 -0.101972274 0.19169208 -0.09147897
000020 f7 fa 63 be 0b 47 01 be 03 94 f4 3c 10 60 1b 3d
       -0.22263704 -0.12624757 0.029855734 0.03793341
000030 3d 2a 74 be 50 0c 5e 3d 61 82 9a be 48 6d d4 bd
       -0.23844238 0.05421096 -0.30177596 -0.10372406
000040 c1 67 6d be 2d be 25 3e 93 46 01 be 72 9e a9 3a
       -0.2318411 0.16185828 -0.12624578 0.0012940897
000050 0e e7 8f 3e 7d 36 83 be be 64 f7 3d c8 60 93 3d
       0.28105968 -0.2562751 0.12079762 0.07196194
000060 ea 89 81 3e 8c 84 65 be 9e b3 99 be 1d b0 bf 3d
       0.25300533 -0.22413844 -0.3001985 0.09359763
000070 bc c6 1e 3e 13 1c 87 3e 41 77 03 be 8e 5c 3b be
       0.15505499 0.26388606 -0.1283846 -0.18297026
000080 7e 14 98 3e 39 60 94 be a7 35 e1 bd ce 3b e5 bd
       0.29703134 -0.28979662 -0.109965615 -0.111930475
000090 98 d5 9a be b2 96 ae 3d 94 75 91 be b8 f7 cf 3d
       -0.30241084 0.085248366 -0.28410017 0.101546705
0000a0 2e f5 6b be 06 c8 93 be 7b b6 85 be 21 fb 4f 3e
       -0.23042747 -0.28863543 -0.26115784 0.20310642
0000b0 c7 2d 47 be d2 17 2a 3e 4f a7 05 3d ac c3 4e 3e
       -0.19451056 0.16610649 0.03263026 0.2019183
0000c0 bc 33 1b be 56 87 30 be c7 df 5d 3d 93 5b 1e 3e
       -0.15156454 -0.17239127 0.05416849 0.1546462
0000d0 18 19 67 3e 25 cd fb 3d f1 d9 73 be 95 44 92 3d
       0.22568166 0.122949876 -0.23813607 0.07141987
0000e0 44 e7 66 be d6 dd db 3c c9 f2 29 3d 08 b0 19 3e
       -0.22549158 0.026839178 0.041491304 0.15008557
0000f0 9e c9 8c be e3 c1 80 be 20 98 a3 3d 31 dd 94 3e
       -0.27497572 -0.25147924 0.07988 0.29075006

GAT_layers.2.f.weight f4 [64, 128]
000000 20 9a 2d be e8 8f a3 3c 5b 78 bf 3d 28 06 ef bd
       -0.16953325 0.01996608 0.09349128 -0.11671096
000010 c0 62 39 be b6 ab 59 bd 84 41 85 bd 9a dd 0d be
       -0.18104076 -0.053142272 -0.06506637 -0.13854066
000020 3a dd 11 be 0d 7e 91 3d 9a 26 ee bd 38 a0 fd bd
       -0.14244547 0.071041204 -0.116284564 -0.12384075
000030 9f f2 30 be af 73 e0 3d 89 2d 09 3d fd 2c 0c be
       -0.17280053 0.10959565 0.03349069 -0.13689037
000040 1a f0 cd bc 38 3a ac bd f5 a2 e9 3d 1d 6a 1e 3c
       -0.025138903 -0.08409542 0.11408035 0.009668854
000050 0e 35 bd 3c 36 fd 94 3d 34 00 18 3e 57 3a c6 bb
       0.023096588 0.07274859 0.14843827 -0.006049435
000060 cd 18 80 3b 87 e8 23 be ae d2 54 bd 42 97 27 be
       0.0039092065 -0.16006671 -0.051958732 -0.16366294
000070 0d d5 a6 bd 75 45 04 be 88 1b 91 3c e2 48 21 3e
       -0.08146105 -0.12917121 0.017713323 0.15750459
000080 92 ca 31 be 7c 8d 2e bd 40 15 fb 3d 96 f0 be bd
       -0.1736243 -0.0426154 0.122599125 -0.09323232
000090 12 b9 c8 bd 6f 4b 8b 3d 83 86 e6 bd b8 36 ff 3d
       -0.09800924 0.06801497 -0.11256125 0.12461609
0000a0 ee 48 13 3d 9f 3c 23 3e 90 e8 19 bd c8 e6 21 3d
       0.035958223 0.15941094 -0.037575305 0.03952673
0000b0 19 c7 4e bd c2 5c 98 bd 8d 02 97 bd 44 c2 9a bd
       -0.050482843 -0.07439567 -0.073735334 -0.075565845
0000c0 bc 93 33 be 6e 0f 9e 3d e9 d2 1d be 42 55 16 3e
       -0.17536825 0.07717787 -0.15412487 0.14680961
0000d0 72 21 03 be a8 c7 1d 3e fa e1 15 be 00 4a fd 3d
       -0.12805727 0.15408194 -0.14636984 0.1236763
0000e0 de 13 ae bd 40 0b 86 3d 2f 6d 5c bd 49 67 9f 3d
       -0.08499883 0.065451145 -0.053815063 0.07783372
0000f0 e7 86 16 bd 96 c7 70 bd 96 f1 24 bc 52 c6 4a 3d
       -0.036749747 -0.05878409 -0.010067364 0.04950554
000100 0e 9c de bd 64 25 0f be a9 e9 da 3c 6c ab 94 bd
       -0.10869609 -0.13979107 0.026722746 -0.07259259
000110 50 18 62 3c bf 0e b7 3d 23 83 2e 3e ae 8c 99 bd
       0.013799742 0.089383595 0.17042212 -0.07497536
000120 81 9a 29 3d d5 e5 87 3c 40 69 06 3d e0 c3 c2 bd
       0.041407112 0.016589085 0.032815218 -0.095100164
000130 39 1f 0b 3e 57 6f eb 3d 19 2b b0 bc 73 dc ad 3d
       0.13586129 0.11495846 -0.021504926 0.08489313
000140 7d 7a f0 39 93 c6 5d 3d 01 7d f6 bd a2 f7 9a 3d
       0.00045867628 0.054144453 -0.12035561 0.075667635
000150 1c df 0d be 60 c9 17 be a4 7b 19 bd 76 27 34 3e
       -0.1385464 -0.14822912 -0.03747143 0.17593178
000160 c1 00 75 3b 1d 41 a6 3c 08 02 0e 3e b9 da 87 bd
       0.0037384483 0.02029472 0.13867962 -0.06633515
000170 0f fa d5 bc c8 41 c0 3d e0 8b bb bd 0d ce 05 3e
       -0.026120214 0.09387547 -0.091575384 0.13066883
000180 22 e7 d8 bd 33 f6 23 3e ec 5f 1e 3e 5b bd ee bd
       -0.1059096 0.16011886 0.15466279 -0.116572104
000190 4f 8d db 3c 5f 5a 24 3e cb 44 07 be d7 60 1a 3e
       0.02680078 0.16050099 -0.13209836 0.15076004
0001a0 0a 67 a6 bd 38 58 07 be 5c 68 a1 bc 90 fe 2c be
       -0.08125122 -0.13217247 -0.019703083 -0.16893983
0001b0 8f 18 7f 3d 55 9f 27 3e d7 c1 2c bd 82 3e 3b be
       0.06227928 0.16369374 -0.042177048 -0.18285564
0001c0 9d 9e 10 be 95 22 02 be ff b9 ad bd 9e 11 9d 3d
       -0.14123006 -0.12708504 -0.084827416 0.07669376
0001d0 f6 03 3c bc ed b9 ac bd 0b 15 2b 3d 04 5d 7b 3d
       -0.011475554 -0.084339 0.041768115 0.061368003
0001e0 be b4 cc 3b 8d 88 bf 3c 3f 42 3c bd ff 2b 28 bd
       0.006247132 0.023380542 -0.045961615 -0.041057583
0001f0 6d 1f 3b 3c 5a ec 93 3d aa f9 fa 3b 97 da 23 3d
       0.011421067 0.07222815 0.007659157 0.040003385
000200 80 86 14 bd d5 40 15 be 9a 92 6c bc 46 89 e0 bd
       -0.03626108 -0.14575513 -0.014439249 -0.10963683
000210 f1 72 2c 3e 99 e9 db 3d ab 8d 82 bd 32 39 81 3d
       0.16840722 0.107379146 -0.06374677 0.06309737
000220 97 2f cb bd fe da c2 3d e6 af 0c be b4 43 29 be
       -0.099211864 0.09514426 -0.13738975 -0.16529733
000230 10 3e c5 bd f6 df 00 3e bc 30 38 3c 59 12 29 3e
       -0.09630978 0.12585434 0.011242088 0.16510905
000240 1c 18 d2 bd af 90 69 bd 3b 80 02 bd cb c9 05 3b
       -0.10258505 -0.057022747 -0.03186057 0.0020414467
000250 f5 4a b8 bd 47 08 d2 3d 78 68 dd bc 29 b6 72 bc
       -0.08998672 0.10255485 -0.027027354 -0.014813938
000260 e0 ef aa bd 7c eb 0d bd 5e fc 0f 3e 2e e5 f2 3b
       -0.08346534 -0.034648404 0.14061114 0.0074125743
000270 17 1a 8c bd 6f 95 a1 3c 89 97 67 3c 44 ba 79 3d
       -0.06840914 0.019724576 0.01413525 0.060968652
000280 c1 1b 6b 3c 8a c8 e6 bc 72 1a c0 bd bf 3a 7a 3c
       0.014349879 -0.028171796 -0.09380044 0.015272795
000290 8b 90 21 3e 2a b6 a6 3c 29 cf 78 bd 3a ff 02 bc
       0.15777795 0.020350534 -0.06074444 -0.007995421
0002a0 a9 fe 65 bb 1c 0a 67 bd 2a 57 e1 3d 4c 2e 1f be
       -0.0035094416 -0.056406125 0.11002953 -0.15545005
0002b0 e4 9e b5 3d f1 86 33 bd b0 f3 78 3d 7a 27 1e be
       0.088681966 -0.043829862 0.060779274 -0.15444747
0002c0 35 98 2c be 1e 48 9d 3c d8 ed 14 3e db 21 16 be
       -0.16854937 0.019199427 0.14543855 -0.14661352
0002d0 ec fc 8f 3d cb cd 89 bd f2 f8 a6 bd 97 2b 21 bd
       0.07030663 -0.06728705 -0.08152951 -0.03934821
0002e0 fa 4e d4 bd e5 f4 20 3e 12 f7 c9 bc dc 92 84 3d
       -0.10366626 0.1571842 -0.024653945 0.06473324
0002f0 4b 2d 0d 3e 63 65 30 3d ff 95 d3 3d b8 f8 de bd
       0.13786809 0.04306544 0.10331344 -0.10887283
000300 82 8f fd bd 1a cd c0 3d 31 3b 10 3d 67 00 19 3e
       -0.123808876 0.0941412 0.0352127 0.1494156
000310 06 01 a3 bb f1 01 15 be 4c a3 e1 3d ba fd 16 bd
       -0.0049744872 -0.14551522 0.110174745 -0.036863066
000320 39 a8 7d bd d8 6e 6f ba 05 7f ba 3d 51 96 20 3e
       -0.061928008 -0.00091336435 0.09106258 0.15682341
000330 82 1b 5b 3c 64 27 fe 3d f6 00 14 be 3c 8d 8d bd
       0.013373258 0.12409857 -0.14453492 -0.06911704
000340 15 a4 fa 3d c1 83 20 be 80 0f 1a bd 4d c6 ce bd
       0.122383274 -0.1567526 -0.03761244 -0.100964166
000350 0a b6 07 3e 15 fc c4 3d 73 a3 d3 bc 21 8d 79 bd
       0.13253036 0.09618393 -0.025834775 -0.060925607
000360 7e e9 ae bc ee ce 43 bd f8 91 f3 3d 01 70 1d bd
       -0.021351572 -0.047804765 0.11893076 -0.038436893
000370 1b 26 44 bd 27 5b 18 be 1d ff 17 3d e2 2c dc 3d
       -0.047887903 -0.14878522 0.03710853 0.10750748
000380 4e d3 37 bd 19 b7 e7 bc b3 3d 1c 3e 8a 67 0c be
       -0.04487925 -0.02828555 0.15257911 -0.13711372
000390 be 27 50 3c f4 3c ea bb a4 9a 1c 3e 8a fe d4 bd
       0.012704788 -0.0071483795 0.15293366 -0.10400112
0003a0 4f 00 d7 3c 72 2c 85 3a 9b 58 af bd 9a 91 b4 bd
       0.026245264 0.001016034 -0.08561822 -0.08816834
0003b0 a0 81 c5 3d 82 6f e8 bd 2d 1f 2a be 56 a7 9f bd
       0.09643865 -0.113493934 -0.16613455 -0.07795589
0003c0 70 5e b6 bd e2 69 f1 3d 3a c6 0c be 96 7b 25 3d
       -0.08904731 0.11787774 -0.13747492 0.040401064
0003d0 cd 62 de bc c1 af 9d bd 99 88 58 bd 20 06 23 bd
       -0.027146721 -0.07699538 -0.052864645 -0.039800763
0003e0 15 3f f1 3d 09 20 14 be db c7 b1 bd 18 67 db bd
       0.1177961 -0.14465345 -0.086806975 -0.10713023
0003f0 ac f1 27 be 98 31 09 bd a6 e4 ad 3d 34 b7 a7 3d
       -0.16400784 -0.033494562 0.08490877 0.0818924

GAT_layers.2.f.bias f4 [64]
000000 08 84 27 3d dc a4 4b bd 15 96 a4 bd 4a 0e 02 bc
       0.0408974 -0.04971777 -0.080364384 -0.007937977
000010 f3 39 94 bd 5e 5c 67 bd ea bf 05 3d 16 77 b7 bc
       -0.072376154 -0.056484573 0.032653727 -0.022395652
000020 1a 8a 07 3d b8 a9 86 bd b4 e9 cd bc fc 89 0c bd
       0.03309069 -0.0657534 -0.025135852 -0.03431128
000030 7c 43 ac bd 0f 0d 54 3d e6 e1 87 3d 48 ec 9e 3d
       -0.08411309 0.051770266 0.066348836 0.07759911
000040 dc 61 ac 3d 86 0d a5 3d 8b 07 3d 3d 03 4f 51 bc
       0.08417103 0.0805922 0.04614977 -0.0127751855
000050 d8 72 47 3d 4f d6 3e 3d 99 b9 a4 3d e0 93 13 3c
       0.048693508 0.0465911 0.080432124 0.009007424
000060 c8 98 b2 bc b5 12 23 3d b8 74 68 3d 69 b4 7c bd
       -0.021801367 0.039812762 0.056751937 -0.06169549
000070 0d 36 0e 3d 0b 76 a5 3d b0 52 b3 bd 2b 41 93 3d
       0.034719516 0.080791555 -0.08756006 0.07190164
000080 c8 0e 89 ba 8e 06 13 3d 90 27 95 bd b7 87 1f bd
       -0.0010456676 0.035894923 -0.072829366 -0.038947787
000090 5a 6f c5 bc bd 36 e2 3c d6 f7 a9 bd a3 10 3c 3d
       -0.024100948 0.027613992 -0.08299224 0.045914304
0000a0 0a 9f c4 3a 2f 46 85 3d f2 94 a8 3a bf 8a 8f bd
       0.0015001011 0.06507527 0.0012861772 -0.070088856
0000b0 80 ed 85 3d c4 d6 f5 3c cf 53 5f 3d a1 8c 7a 3d
       0.0653944 0.030009635 0.054523285 0.06116927
0000c0 6c 32 32 3d 01 f3 94 3d 0e 7e 8b 3c 85 32 b6 bd
       0.043505117 0.07272912 0.017027881 -0.088963546
0000d0 ba 99 b3 bd 3b 1d 7b bd d3 21 4b bd b7 a4 52 bd
       -0.087695554 -0.061307173 -0.049592804 -0.051426616
0000e0 19 49 8b bb 48 d1 41 3d 66 ff 84 3d 9f 47 c2 3c
       -0.0042506573 0.047318727 0.06494026 0.023715792
0000f0 b7 c7 90 bb 15 7b e5 3c da 8c 77 bc 8a 30 2e bd
       -0.004418339 0.028012792 -0.015109265 -0.04252676

GAT_layers.2.w.weight f4 [1, 128]
000000 99 56 b8 bd 49 98 4e be 99 e8 53 3e 57 c1 bd bd
       -0.09000892 -0.2017528 0.20694198 -0.09265392
000010 78 e5 14 3d 4a 6c d0 3d 9d 38 9c bd a4 f7 c1 3d
       0.03635165 0.101769045 -0.076279856 0.09471062
000020 a6 7d 8f bd b2 a7 01 be 08 6b 23 be 6e 24 40 be
       -0.070063874 -0.12661627 -0.15958798 -0.18763897
000030 1a 24 e1 3d 11 a1 7a 3d ae 53 ae bd 35 f7 20 bd
       0.10993214 0.06118876 -0.085120544 -0.039298255
000040 6b c8 53 3e 8a e9 63 bd 32 d9 68 bd 6f 67 d2 3c
       0.20681922 -0.055642642 -0.05684776 0.025684087
000050 80 03 33 bd 3d 68 d8 bd ea 28 34 3e fd 05 4c be
       -0.04370451 -0.10566757 0.17593732 -0.1992416
000060 4c 42 28 be b7 89 1c be ea 6f d0 3d 3a 1d 1f be
       -0.1643154 -0.15286909 0.10177596 -0.15538493
000070 b7 73 10 3e ef 46 dd 3d 3d 82 45 be 3a 9f c9 3d
       0.14106642 0.10804545 -0.19287963 0.09844823
000080 b2 80 e2 3d c7 f4 dc bd 61 1f 3c 3e e7 66 de 3d
       0.11059703 -0.10788875 0.18371345 0.10859471
000090 5e 6a 69 3d f6 3d 11 3e 31 14 e0 3d 1a a9 43 3d
       0.056986205 0.14183792 0.10941351 0.04776869
0000a0 a3 ae 04 be ca e4 2c bd 07 b3 d3 bc f4 e7 f7 bd
       -0.12957244 -0.042210378 -0.025842203 -0.121047884
0000b0 7a 7c 32 3e 2b a1 46 3d 0a 2b 57 be ff 29 15 be
       0.17430297 0.048493546 -0.21012512 -0.14566801
0000c0 d1 15 a6 3c 4d e8 8b bc 8f e3 c1 bd 4a 9a 86 bd
       0.020274075 -0.017078543 -0.094672315 -0.06572397
0000d0 a4 a9 12 3e ac cb 49 3d 61 39 3d 3e d2 e6 fa 3d
       0.14322525 0.049266502 0.1847892 0.12251057
0000e0 c0 a9 39 be b9 b9 52 be f6 e0 53 3e 3b 94 af bd
       -0.1813116 -0.2057866 0.20691285 -0.085731946
0000f0 43 e2 1f bd b2 fc 07 be 5f ad d4 3d 08 0d 0f be
       -0.03903414 -0.1327999 0.103846304 -0.13969815
000100 31 31 4c 3e 18 8e ce 3d 8c 75 52 3d fb b3 e6 bc
       0.1994064 0.10085696 0.051381633 -0.028161993
000110 39 aa 38 3e 53 af 05 be 56 ae 33 3e 7f f3 31 be
       0.18033685 -0.13055162 0.17546973 -0.17378043
000120 0c 43 1a bd e0 59 43 be 3e 05 9d 3d b8 64 fc bc
       -0.037661597 -0.19077253 0.076670155 -0.030809745
000130 4c f1 13 3d 47 5e 11 bd 9c ba bc 3d 74 11 2d 3e
       0.03611879 -0.0354903 0.092152804 0.16901189
000140 c1 98 f6 bb c1 a2 54 be 68 cd 83 3d b1 ca 93 bd
       -0.007525534 -0.2076521 0.064356625 -0.07216395
000150 8f 9e bf bc 14 d0 40 be 87 9c 28 3e 3f a3 25 bd
       -0.023391036 -0.18829376 0.1646596 -0.040438887
000160 1b 1f ef bd 53 5d d1 bd 7e e5 3a be eb 0c 04 be
       -0.11675855 -0.10222878 -0.18251607 -0.12895553
000170 f7 fe 1b be 31 83 14 3d 40 38 8f bd bb 61 bc 3d
       -0.1523398 0.036257926 -0.06993151 0.09198328
000180 f1 db 4f 3d 3f e5 c3 3d 31 f8 4a be 8f 54 07 be
       0.05074686 0.095652096 -0.1982124 -0.1321585
000190 c8 84 2c be 4b 9c 3f 3d b7 67 06 bd 1c 10 9f 3d
       -0.16847527 0.046779912 -0.032813754 0.077667445
0001a0 0a 09 0e be 4f 6d 41 be 08 83 ca 3c 29 2d 16 3d
       -0.13870636 -0.18889354 0.024720684 0.03666416
0001b0 38 26 5c be a2 17 80 3d 40 ce 24 be 79 6f 0f 3e
       -0.21498954 0.062545076 -0.16094303 0.14007367
0001c0 5e f7 ee 3d 4c 45 76 bd 1a 3e ee 3c cd 35 35 bd
       0.11668275 -0.06012468 0.029082347 -0.04424076
0001d0 e5 30 46 be 14 00 0c be 48 84 12 3e 13 59 6d 3d
       -0.1935459 -0.13671905 0.14308274 0.057946276
0001e0 b1 dd 45 bc 0c 84 16 3d 3b f3 07 3e d4 15 19 3e
       -0.012076781 0.036747023 0.13276379 0.14949733
0001f0 0d fa 3d 3e 76 34 80 3d 51 e5 76 bd fd 3d 34 3e
       0.18552418 0.06260006 -0.060277287 0.17601772

MLP_layers.0.weight f4 [32, 64]
000000 03 7b 1f 3d ea a9 ab 3c 40 02 34 3b 84 94 e3 bc
       0.038935672 0.020955045 0.0027467161 -0.027780779
000010 13 11 30 bd 5c 7e ff bd d3 1e 71 3d 73 be ac 3d
       -0.042985033 -0.12475273 0.058867287 0.08434763
000020 8a f0 77 bc 1a 1c f1 bd 58 0e 86 3c d0 10 bf bb
       -0.015133033 -0.11772938 0.016364262 -0.0058308616
000030 e4 08 ea bc a3 91 59 bd 8c cf d5 3d e9 72 bd 3d
       -0.028568693 -0.053117406 0.10439977 0.09250433
000040 8a c2 14 3c 71 9e cb 3d c5 38 94 3c 7c 79 89 3d
       0.009079585 0.0994233 0.018093476 0.067126244
000050 d7 49 56 3d bb c8 6e 3d f4 de ec 3d 1c b3 d5 3d
       0.052316513 0.0582969 0.115659624 0.10434553
000060 97 a4 21 3c 52 57 89 bd 74 f4 53 3d f5 ea a2 3d
       0.009865901 -0.06706108 0.0517468 0.07954971
000070 2d 74 1f 3d ab a5 b2 3d 09 2c c4 bd f6 79 c9 3d
       0.038929153 0.08723005 -0.095787115 0.09837715
000080 35 e2 a8 bd 46 37 56 bc 00 e0 89 b9 54 12 86 bd
       -0.082462706 -0.013074702 -0.0002629757 -0.065464646
000090 5a 0f 90 bc 1f c0 df bb 61 b6 3b 3d 3c 47 1e 3d
       -0.017585445 -0.0068283225 0.045828227 0.038642153
0000a0 13 61 f1 3d c4 44 79 bd c4 e8 17 3d f0 28 12 bd
       0.117860936 -0.060856596 0.037087217 -0.035683572
0000b0 63 48 cc 3d 37 fa ba 3c 08 15 df 3d 29 de ab 3d
       0.09974744 0.02282439 0.10892683 0.08391983
0000c0 9c c1 61 bd 7e a0 47 bd 07 82 d8 3d 84 b5 6c bc
       -0.05511628 -0.04873704 0.10571676 -0.014447574
0000d0 9c 76 3a bd 6e ec d6 bd 6c ba 18 bd 1f d7 9d b9
       -0.04552327 -0.10494314 -0.03728716 -0.0003010565
0000e0 58 d1 c9 bd 96 9a 00 3c c6 b3 cb 3d b3 96 c3 bc
       -0.09854382 0.007849356 0.099463984 -0.02387557
0000f0 bd b4 c8 3d e4 4e b8 bc e0 3e b5 bb 68 d5 b4 3c
       0.09800098 -0.022498555 -0.005531177 0.022074416
000100 16 a8 ae 3d e8 5e c3 ba 78 f9 a8 bc 2c b5 98 3d
       0.085281536 -0.0014905604 -0.020626768 0.07456431
000110 78 71 5a 3d c8 a8 44 3d f0 b8 bf bd 05 2e 56 bd
       0.05333087 0.048012525 -0.09361446 -0.05228998
000120 82 e2 07 bd 9c ab 5e bc cc 66 20 3d 72 dc 0b 3d
       -0.033175 -0.01359072 0.039160535 0.03414578
000130 fd 5b 69 3d 88 fd 9d 3d 2f 4d d1 3d 57 81 2d 3d
       0.056972492 0.07714373 0.102198 0.042359676
000140 5a 8e 3b 3d 5e db d9 3d 93 a2 22 3d 04 22 f6 bd
       0.045790054 0.10637544 0.039705824 -0.12018207
000150 b2 e8 9b 3d 8f 80 a3 3d 8e 71 2c bb d6 05 2f bd
       0.076127425 0.07983505 -0.00263128 -0.042730175
000160 84 3c d1 bd 29 7a bc 3d 72 8b 26 bd df 01 cb bd
       -0.102166206 0.09202988 -0.04066033 -0.09912466
000170 e4 10 bf 3d db 5e 46 3c 82 83 84 3d 05 08 5f 3d
       0.093293935 0.012107576 0.064703956 0.054451007
000180 c5 d4 8c 3d 1e 71 e2 3d 1e 20 ff bd 7e 9e de 3d
       0.0687652 0.11056732 -0.12457298 0.10870074
000190 2f fe e4 3c be fc d4 bd ed 4c e1 3b 7c 1d ca bd
       0.027953235 -0.10399769 0.0068756253 -0.09868905
0001a0 ef 97 cf 3d a6 4e 44 bd 54 ae 4a 3d 34 89 16 3d
       0.10136401 -0.047926567 0.04948266 0.03675194
0001b0 66 d4 4a 3d 7a 55 b6 bb dc 5e b7 bd e7 54 68 3d
       0.049518965 -0.005564389 -0.0895364 0.056721594
0001c0 9e e2 1a bc 52 ff 23 3d e7 5a 94 3d 06 4c 5a bd
       -0.009453444 0.040038414 0.07243901 -0.053295158
0001d0 c6 25 f2 3d 44 c5 55 bd 28 e3 ca bc 19 83 50 3d
       0.11823611 -0.05219008 -0.02476652 0.050906274
0001e0 fc 58 5f 3d 9d 14 4d bd ac 15 cf bd 26 46 d2 bc
       0.05452822 -0.050068486 -0.101115555 -0.025668215
0001f0 47 f7 85 bd 1b 79 29 3d 8c 1c ca bd 98 2e bd bc
       -0.06541305 0.04137526 -0.09868726 -0.023093507
000200 da 51 2e 3d 7b 7c cf bc fc d0 35 bd e3 ba d4 3c
       0.04255853 -0.025327912 -0.044388756 0.02596802
000210 7b 01 c3 3d a0 ac ff 3b 25 b6 94 3d 3f 4c 6b bd
       0.09521767 0.007802561 0.07261304 -0.05744576
000220 5d cf 2e bc 12 66 f9 bd 5e 2b d4 bd cb e0 77 bd
       -0.010669556 -0.121776715 -0.10359834 -0.060517114
000230 1a 2f fa 3d a3 3d d7 bd dc 6c dc bd 2a b8 aa bd
       0.12216015 -0.10509803 -0.10762951 -0.08335908
000240 ba 82 a4 bc c4 d7 c3 3c 39 80 af bd fd b6 98 bd
       -0.020081867 0.023906596 -0.085693784 -0.07456777
000250 d3 f5 e5 3d 9a 04 23 3d f0 30 df bd 73 a6 d2 bc
       0.11228528 0.03979931 -0.10898006 -0.025714135
000260 c3 40 c6 bd d3 c6 01 bd 38 04 92 3d 37 14 df 3d
       -0.09680321 -0.031683754 0.07129711 0.108925276
000270 4a 5f 45 bd 6a 35 61 3c c3 6b d6 3c 28 f1 87 3d
       -0.048186578 0.013745645 0.026174432 0.06637794
000280 1d be b2 bd 67 7a ec 3d 1c 46 be 3d c8 59 af 3d
       -0.087276675 0.11546784 0.09290716 0.08562046
000290 6f 82 aa bd a5 b4 76 bc 81 7d 06 bc 7b 68 6d bd
       -0.083256595 -0.015057717 -0.008208633 -0.05796097
0002a0 73 a9 ba bd 20 51 ba 3d a6 32 45 3d d4 3c 83 bd
       -0.09114351 0.090975046 0.048144005 -0.064080864
0002b0 dc 7b bb bd 13 24 2d bd ad d6 77 bc da 85 3d 3d
       -0.09154484 -0.04227073 -0.015126866 0.04627023
0002c0 19 5e ba 3d bf 68 0e bd c9 79 0b bd 18 43 19 3d
       0.09099979 -0.034767862 -0.03405169 0.0374175
0002d0 18 84 16 3d 26 6c e1 3d f0 6d 82 3c 52 df e8 bd
       0.03674707 0.11006956 0.015921563 -0.1137072
0002e0 30 a1 5b bc c1 4d 7d bd 78 b8 ee 3d a8 0f 7a bc
       -0.013405129 -0.06184173 0.11656278 -0.015262522
0002f0 e4 36 a1 3d d6 ee 9d 3d 3a 21 b2 bd 6a 7e b7 bd
       0.07871798 0.0771157 -0.08697744 -0.089596584
000300 28 90 a7 bd 40 99 da 3c 30 ff c0 3c 20 70 ad bb
       -0.081817925 0.026684403 0.023559183 -0.0052929074
000310 ea cc 8e 3d bc 81 30 3d 8c 16 0c 3d 88 f9 3a bd
       0.06972678 0.043092474 0.03420119 -0.045648128
000320 94 59 73 bd 10 32 e3 bd 2c 4b 20 3d 80 a6 8e 3d
       -0.0594116 -0.11093533 0.03913419 0.06965351
000330 80 47 b7 3b 68 b7 4d bd 88 da dd bc 74 75 66 bd
       0.0055932403 -0.050223738 -0.027081743 -0.056264356
000340 00 d7 04 bb a0 8c 9f bc de 4f c1 3d a6 f5 be bd
       -0.0020269752 -0.019476235 0.094390616 -0.093241975
000350 ec ed 71 bd 18 42 a7 3c 5c e5 38 bd 9c c9 04 3d
       -0.05906479 0.020417258 -0.04514061 0.032418832
000360 14 ec c5 3d 00 0f be 3d 80 85 c0 3a 5c 78 cb bd
       0.09664169 0.09280205 0.0014688224 -0.09935066
000370 a8 75 de bd 30 68 f2 bc 3e 89 c4 3d c0 52 3b 3b
       -0.10862285 -0.029590696 0.09596489 0.0028583258
000380 e4 1a 06 3d 9e 44 fa bd 58 f7 68 3d ba f7 ab bd
       0.03274049 -0.12220119 0.05687651 -0.083968595
000390 68 f5 cb bc aa 89 f5 bd 78 72 d6 3c b4 5c f5 3d
       -0.024897292 -0.11989148 0.02617763 0.11980572
0003a0 e4 4e 97 bd d4 58 a8 bd 68 37 e1 bd b0 e5 41 3d
       -0.07388094 -0.082200676 -0.10996896 0.047338188
0003b0 ac e7 0a 3d f4 a0 f9 3d c0 a6 4d 3b fc 2a 80 bd
       0.033912346 0.121889025 0.0031379908 -0.062581986
0003c0 28 fa 7f 3d 78 0b a1 3c 00 d0 74 3c 68 9b ec 3c
       0.062494427 0.019658789 0.014942169 0.028882697
0003d0 fc 96 87 bd d0 53 24 bc 84 57 61 3d ae f5 e2 bd
       -0.06620595 -0.010029748 0.055015102 -0.11082016
0003e0 6e 25 88 3d 48 c9 c6 3d 90 16 a1 3d e8 8e 2c 3d
       0.06647764 0.0970636 0.078656316 0.042128474
0003f0 98 3b df 3c 36 dd 90 bd 5c 24 2a bd 10 b3 28 3c
       0.027250096 -0.07073443 -0.04153858 0.010296598

MLP_layers.0.bias f4 [32]
000000 6e e3 e5 3c 56 33 9f bd 10 b5 c9 3d 7c 74 c4 bd
       0.028062548 -0.077734634 0.09848988 -0.0959253
000010 b1 d9 bf bd a0 98 65 bd 7f 66 99 3d 50 49 1b bc
       -0.09367693 -0.056053758 0.07490253 -0.009477928
000020 98 a2 a6 bc 12 42 87 3d 5a b1 aa bd 9e 6f ac bd
       -0.020341203 0.06604399 -0.083346084 -0.08419727
000030 81 a6 0b ba d6 99 7a 3d 6c cd a0 bd 20 bc e0 3c
       -0.000532724 0.061181866 -0.07851681 0.027433455
000040 cc c8 a7 bd 2b 38 e5 bd c5 32 84 bd 0e e4 86 3d
       -0.08192596 -0.11192354 -0.06454996 0.06586467
000050 3c 34 9a 3d f5 69 0a 3e 8d 64 f6 3d c1 fb d5 bd
       0.07529494 0.13516982 0.12030897 -0.10448409
000060 0f 38 03 3e c2 06 50 bc 00 d2 00 bc 22 2e 03 3c
       0.12814353 -0.012696924 -0.007862568 0.008006604
000070 46 56 a6 b8 86 4b 0e 3d 41 a0 93 3c a3 22 ff 3b
       -7.9315665e-05 0.034739994 0.018020751 0.0077861114

MLP_layers.1.weight f4 [1, 32]
000000 a6 3e 23 3e c0 9f 0d be 33 c6 f7 bc 16 7f e2 bd
       0.15941867 -0.13830471 -0.030245876 -0.11059396
000010 da a5 9a 3d f7 b7 ba bd 20 a6 a7 3d 1a a5 0b 3e
       0.07551165 -0.0911712 0.08185983 0.136372
000020 4b 42 2b 3e fa 94 5e bc 40 44 3e 3c f3 24 7c 3d
       0.16724508 -0.0135853235 0.011612952 0.061558675
000030 b4 04 05 3e 91 61 e6 bd 21 87 aa 3d 51 02 66 3c
       0.12990075 -0.11249078 0.08326555 0.014038638
000040 99 13 fd 3d fc bf 00 be cf 94 9c 3d 45 4b 16 be
       0.123572536 -0.12573236 0.076455705 -0.1467715
000050 a9 dd 0f 3e 05 96 1e 3e 64 f5 c0 3d d9 93 71 bd
       0.140494 0.15486915 0.094218045 -0.05897889
000060 5c ec dc 3c d5 03 81 bc f2 82 5f 3d df ec 29 bd
       0.026968174 -0.015748898 0.05456824 -0.041485664
000070 30 2d 17 be de 2b d4 3d 39 25 4f bb c8 8b 9a 3d
       -0.14763331 0.103599295 -0.003160788 0.075461924
