SLIC_GAT/best2.pt (torch, 74869 bytes, 12 tensors)

GAT_layers.0.f.weight f4 [32, 82]
00000000: 3c96 f3bc 5947 5abe fa6b 3abd 1388 4c3e
00000010: 831f 083e 8e38 18bd d6d8 bbbd a151 2b3e
00000020: bff8 ebbd e734 a93c 32d2 003d 03aa 9f3d
00000030: beae 293e 9722 4b3e dafc 333e 641a cdbd
00000040: b09d d1bd 334b 64be 38d7 de3d be4d 1e3e
00000050: fb2d 68be 3d4a 77bd 5a20 fcbd caa3 2a3e
00000060: 783e 22be c7ae d43c 660a 2d3d f535 143e
00000070: d262 f13d db47 81bc 53fa c4bc 64b3 d8bd
00000080: 54d4 c23d 59a6 a9bc 2e21 893d 7b1f 2abd
00000090: 8eaf 813d 90da eb3d 37d5 edbc d8e0 b13d
000000a0: d254 47be bc09 a33d 83eb c53d 4415 3cbe
000000b0: 19c4 17bd 7bc3 06bd a902 643e d69d a3bd
000000c0: 3a23 103d 5c05 713c 1706 8ebc 692a cc39
000000d0: 4c26 1ebe a8d5 df3d acd9 5abd e7f7 fe3d
000000e0: 5887 873c a0d5 0e3d d99d 133e 3f22 663e
000000f0: 0a38 97bd 6b31 093e 9811 313e 4ef5 ea3c
00000100: 2016 8b3c 8b11 e7bd a9cb babd 3f5b 13be
00000110: 98ee 003e 4974 0abe bece 5f3e 5235 3b3d
00000120: 9da2 3a3e 96b5 ebbd 419d 563d 67da 0ebe
00000130: 4387 e73d 47cd e6bd df11 65be b5d9 85bc
00000140: 8133 b53d 172d 803d 668c 5f3e 60ad 783c
00000150: 1785 1e3e 4025 2c3e 9a2f 903d aad2 25be
00000160: 8c38 4bbe 12a7 4bbc d326 cfba 7eef 173e
00000170: cfd1 bd3d 9b58 263d a3dd 27be 63cd 3a3e
00000180: fb24 57be a430 0ebe b893 fe3d d4a1 1abd
00000190: 8e15 05bd f46e 1dbd 53f9 49be 19ab 56be
000001a0: 78a5 9cbd 432a 323e c6c9 6a3c c1f1 e2bc
000001b0: 6677 5a3e bc4b 463c 3589 7d3d 5fc1 9c3d
000001c0: cdeb 53be 1078 e6bd 07b0 63be 789f 233e
000001d0: b2f3 35be 3e9d 3cbe b501 a0bd 3afd 623e
000001e0: 40e6 55be 4d83 ebbd 320b 48be da87 11be
000001f0: a5c9 053d 4983 59be d9db 11bd e23c 1f3d
00000200: 1e6e b63d b9cf febc a0dd 94ba a52c 4dbe
00000210: d649 7a3d 1b15 48bd a2dc 00be 6b6e 48be
00000220: 4be5 01bd 186f d93d f2e0 acbd 3439 3b3e
00000230: 2d3c 23be 188a 323e 0aba 8e3d e2f6 b03d
00000240: ab59 cc3d 9d23 a63c e395 21be f30c 00be
00000250: 9013 d33d ce6b e53d 9acc 533d f676 3abd
00000260: 11d0 af3d 00ca c9bc f6c4 aabd aac5 65be
00000270: 2736 0e3d 32ec c9bd cb72 18be 4750 2dbe
00000280: 7578 673e c093 5c3e b5c6 523e 4826 ef3d
00000290: 83ff 49bd 9b2f 1a3e 4d43 23be 354b ff3c
000002a0: fa6d a0bd ed45 f13d 8052 df3d 5ca4 5d3c
000002b0: 646a 593e ec08 69bc 51d3 2ebe d73c 883d
000002c0: 4d70 463d a4f7 ff3d 8e77 093e 5155 993c
000002d0: aa3f c3bd 78fc 493e e4b7 35bc b4d2 14be
000002e0: d4b5 9a3d d131 233e 62fe 123e 274b 0ebe
000002f0: 6e4c 05be d5c6 ec3d 4413 91bd e4bf 52be
00000300: 7dec 563d cac4 123d 1e4f 183e 437c 05be
00000310: 1974 48be be07 223d 3aae 48be 4a41 36be
00000320: dbc0 553e 13ac 0b3d 527e 483d 68c5 f8bc
00000330: 717b 14be 65b2 913d dece 32be f6e4 403d
00000340: bba7 1ebd 9d07 273e 684d 633e 59a7 5f3e
00000350: a168 0bbd e45b cebd 2aa9 653e 748d c03d
00000360: 32ac d33d d566 613e 60ac 5e3e 0904 d4bc
00000370: 1469 19bd 48f3 0bbc 46b4 05be a287 52be
00000380: b178 afbc d2f8 2d3d 7acd 63bd 0226 3a3d
00000390: 400d 633e 5025 1cbe 5d4e d83c 1cc8 473c
000003a0: ebcb 1cbe 1467 0e3b 5c4d 993d e695 1a3d
000003b0: 5fda a5bc ebeb 48be 03fd 413e 736d 9b3d
000003c0: d4a4 fabc 5999 dfbc 5848 2bbc 50d9 dabd
000003d0: d7b2 393d e28b 07be 5718 d0bc 4100 b8bd
000003e0: 5250 f3bd e7f5 a23d fa41 16be 7868 47be
000003f0: b808 15be 1cdd f23d 16d8 3dbe bb3b b83d
-0.029734723 -0.2131628 -0.04551313 0.19973783 0.13293271 -0.03716331 -0.091722175 0.16730358
-0.11522054 0.020655109 0.031450458 0.07796099 0.16570565 0.19837414 0.17576924 -0.10014799
-0.10235155 -0.22294311 0.108808935 0.15459344 -0.2267379 -0.060373534 -0.12310858 0.16664043
-0.15844142 0.025962247 0.042246245 0.14473708 0.117864266 -0.015781334 -0.024045145 -0.10581091
0.095131546 -0.020709204 0.06695782 -0.04153393 0.063323125 0.11516297 -0.029032333 0.08685464
-0.1946595 0.07960841 0.09664061 -0.18367487 -0.037052248 -0.03290127 0.2226664 -0.07989089
0.035189845 0.01471075 -0.017336888 0.0003894151 -0.15444297 0.109294236 -0.053430244 0.12449627
0.01654403 0.034871697 0.14415683 0.22474001 -0.073837355 0.13397758 0.17291868 0.028681424
0.016978323 -0.11282643 -0.09120876 -0.14390276 0.12591016 -0.13520922 0.2185621 0.045705147
0.18226095 -0.11509244 0.052396063 -0.13950501 0.11305096 -0.11269622 -0.22370099 -0.016339162
0.08847714 0.062586 0.21830902 0.015178055 0.15480457 0.16811085 0.07040329 -0.16193643
-0.1984579 -0.012429969 -0.0015804417 0.14837453 0.092685334 0.040611845 -0.16393141 0.18242411
-0.210102 -0.13885742 0.12430519 -0.037751988 -0.03249126 -0.03843589 -0.19724016 -0.20963706
-0.07648748 0.17398934 0.014330333 -0.027703168 0.2133461 0.012103017 0.06189843 0.0765407
-0.2069542 -0.11253369 -0.22235118 0.15978801 -0.17768744 -0.18419358 -0.078128256 0.22166911
-0.20888615 -0.11499653 -0.1953552 -0.1421198 0.032663006 -0.21241488 -0.035610054 0.03887642
0.08907722 -0.03110491 -0.0011357553 -0.20036562 0.06110557 -0.048848253 -0.12584165 -0.19573371
-0.03171281 0.106168926 -0.084413424 0.1828354 -0.15940924 0.17435491 0.06969078 0.08640839
0.0997804 0.020280654 -0.15779833 -0.1250494 0.103064656 0.11202203 0.051708795 -0.045523606
0.085846074 -0.024632454 -0.083383486 -0.22438684 0.034719612 -0.09859504 -0.1488754 -0.16925155
0.22604544 0.21540737 0.20583613 0.116772234 -0.04931594 0.15057223 -0.15943642 0.031163791
-0.07833476 0.117809154 0.109044075 0.013527956 0.21231991 -0.014223319 -0.17072798 0.06652229
0.048446942 0.124984056 0.13424513 0.01871744 -0.09533627 0.19725215 -0.011091206 -0.14533502
0.07554212 0.15936972 0.14354852 -0.13895856 -0.13017437 0.11561362 -0.07083753 -0.20581013
0.052471627 0.035832204 0.14873931 -0.13035683 -0.19575538 0.039558165 -0.19597712 -0.17798343
0.2087435 0.03409965 0.048948593 -0.030367568 -0.14500214 0.07114104 -0.17461726 0.047093354
-0.03873418 0.16311498 0.22197497 0.21841182 -0.03403533 -0.100761205 0.22427812 0.0940198
0.10335578 0.22011884 0.21745443 -0.02588083 -0.037453726 -0.0085418895 -0.1305705 -0.20559552
-0.021419855 0.04247362 -0.05561588 0.045446403 0.22173023 -0.15248609 0.026404554 0.012193706
-0.15312164 0.002172892 0.07485458 0.03774061 -0.020245729 -0.19621246 0.18944173 0.07589235
-0.030596174 -0.027294802 -0.01045426 -0.1068598 0.04533657 -0.13236955 -0.025402231 -0.089844234
-0.11880554 0.079570584 -0.14673606 -0.19473445 -0.14554107 0.118585795 -0.18539461 0.08995768

GAT_layers.0.f.bias f4 [32]
00000000: 7a67 623d 158f 64bd f26d 5abc b0e8 2ebd
00000010: dae8 5dbc 2300 573d 18f9 bf3c 5fbb 293d
00000020: 8379 6f3d 4787 893d 2263 b5ba d3b3 cbbd
00000030: bc30 c33d b375 40bc e965 d5bd 5c34 df3d
00000040: 60fc 383c 75d5 563d 5fd8 d43d 18ae c2bd
00000050: 686e 53bd 6097 a83c 9bb8 023c 556e 76bc
00000060: ff43 b43d c042 7d3d 34c5 8bbd 5cfb 82bd
00000070: e5a0 2ebd 7e0f ac3d 71f2 b83d bc30 ebbd
0.055274464 -0.055800516 -0.013331877 -0.042702377 -0.013544286 0.052490365 0.023434207 0.041438457
0.058465492 0.06715255 -0.0013838748 -0.09946408 0.0953078 -0.011746812 -0.104198284 0.10898659
0.01129064 0.052449662 0.10392832 -0.09505862 -0.051618963 0.020579994 0.007978584 -0.015040954
0.08802032 0.061831236 -0.06824723 -0.06395599 -0.04263391 0.084013924 0.09030617 -0.11483905

GAT_layers.0.w.weight f4 [1, 82]
00000000: 3f4b 16bd 6a0d 84be 8f69 48be 8c4b dbbd
00000010: d12b 2bbe 15a1 9a3d 6dbd 43be 1c98 6f3e
00000020: f766 683e 6ca0 3a3e 28a1 ebbd 618d 1fbd
00000030: daa1 933c 36ff d43d 981f c7bd f6b7 96bc
00000040: 256b 73be 8729 8dbc d49e 2b3e 29d7 d3bb
00000050: b035 3dbe 74e6 81be 1d35 a6bd 61fc 283e
00000060: 60b5 e83d 2f5d 1ebd f790 a23d 2e1b 1f3d
00000070: e7a9 2d3e f7ec 55be aea1 883d 24f2 733e
00000080: d827 ab3c 8b67 a63d 7cc5 5c3e aa1b 1dbe
00000090: 04e4 763e b7d9 32bd 221c 3a3e c7c8 01be
000000a0: 627f 49be 5739 f2bc 8857 d23d cbc0 1f3d
000000b0: 1fb0 683e fdfb 523e 21cd 3bbe 1618 19bd
000000c0: 23ea 743e 8de8 6a3d 5caf e13d 6bc0 1d3e
000000d0: b07d 893e 3643 a73d cb72 d9bd 5e80 fb3d
000000e0: 08d8 f53d 04cf 7bbd cc8f d3bd 2f0c 1abe
000000f0: d4b4 acbd 7fe7 d63d 4e47 983d f200 6dbe
00000100: d89c 863d 4f06 57be 7c0e e6bc a81d 333e
00000110: 4828 3bbe db28 903d 959f 373d cf85 613d
00000120: 6442 22be c4f4 07be acb1 883e 0ef8 503e
00000130: 91b3 283e 82b7 883a 2ef1 06be 2913 fa3d
00000140: ce5a 49be 57f3 373e
-0.036692854 -0.25791484 -0.19571517 -0.10707769 -0.16715933 0.07550255 -0.19115229 0.23397869
0.22695528 0.18225259 -0.115053475 -0.03895319 0.018021513 0.1040024 -0.09722823 -0.018398266
-0.23771341 -0.017231716 0.16759807 -0.006464858 -0.18477511 -0.25371134 -0.08115599 0.16502525
0.113627195 -0.038663086 0.07937806 0.03884428 0.16959344 -0.20891176 0.06671463 0.23822838
0.020893022 0.08125218 0.2155971 -0.15342584 0.24110419 -0.04366466 0.18174794 -0.12674247
-0.19677499 -0.029568357 0.102706015 0.03900222 0.22723435 0.20603938 -0.18339969 -0.037376486
0.23917441 0.057350684 0.11019775 0.15405433 0.26853704 0.08167116 -0.10617598 0.122803435
0.12004095 -0.061476722 -0.103301615 -0.1504371 -0.08432928 0.10493373 0.07435475 -0.23144892
0.06572884 -0.209985 -0.028083079 0.17491782 -0.18277085 0.070390426 0.044829924 0.05505925
-0.15845639 -0.13276964 0.26698053 0.20407125 0.16474749 0.0010430666 -0.1317794 0.12210686
-0.19663545 0.1796392

GAT_layers.1.f.weight f4 [64, 64]
00000000: 617d 32be a215 f53d 8fae 5a3e 373b b03c
00000010: 2802 1abd 8254 243e 9132 163e 3fb4 0e3e
00000020: b3e3 45be 7c08 ca3d b54e 563b 621e 9fbc
00000030: e819 f53d d5e5 283e 2b6e 2abe 8531 c63d
00000040: 95a0 5e3e ed8c 153e 54ed 0b3c f28d 20bd
00000050: 2449 213e 8ab3 ea3d a7a2 3bbe 3fa3 043e
00000060: 4fe2 eabb fb8e b13d c69f 4a3e 29a3 ca3a
00000070: ec9f 213c 9a5f b7bd ce0b c6bd 6cb0 563e
00000080: 3ae7 54be 8366 20bd fcfe a53d 4843 67bd
00000090: 8028 e4bd 7921 9dbd 0c75 573d 90c7 4b3d
000000a0: a00b e73d 8f74 e53d 2306 15be 151b 253e
000000b0: 2b98 9a3d f878 ed3d 055f 11be 4e08 1dbd
000000c0: 4972 15be ee81 7e3d 0867 c63d 0e3c df3d
000000d0: 1b90 8dbd 70cb 123e e53c 46be 1ab0 64bd
000000e0: c86d c2bc e464 a8bd 90e6 b2bd 9459 dc3d
000000f0: 15cb babd 5f68 9dbd b8c2 4fbe 853b 543b
00000100: 61e6 a9bd b60e 0abe 1f4d 8fbd 9f9b 1e3e
00000110: 5b3d 07be d62c 003b 08e1 eebc d2af b23c
00000120: 3c56 35be a432 c9bd 0459 a9bd bcca 4d3e
00000130: 5f30 f5bd d557 613e 2852 3a3e 2340 6bbd
00000140: f967 873d bf0b 573e c8b9 01be e9cb 9e3d
00000150: 48de 293e 4209 06be ec98 443e 876e 67bc
00000160: 360f 513e 00ea 59be 41d1 7b3d 4706 58bb
00000170: 648f 603e cbe9 37be 3261 043e 0720 22be
00000180: d8bd 383e 5476 883d be2c 5b3e 05f6 113d
00000190: a22b 2c3e 2ecd abbd 7c94 5abe 35e1 3abe
000001a0: 0b99 bdbc 414b a93d 892f 12be 9f63 8cbd
000001b0: 488e 73bd b975 04be 7298 6bbd 98a4 443d
000001c0: 2cc1 043e 1717 1a3e b835 3cbd c603 b53c
000001d0: f6d1 f33d 2707 cabd 0338 29bd 38fd 2ebd
000001e0: 18e5 563e 43f7 bd3d 6a6d d43b 4b86 17be
000001f0: 8431 e4b9 7903 ba3d 88e2 ba3d 1aff ab3d
00000200: 5430 033e 07d7 63bc 5bfc 1c3e c134 2b3e
00000210: 3a17 003e 2f5a 133e 1983 26be 5db1 d23b
00000220: c3c6 bf3d b839 3abe 8452 e13d adae 2cbe
00000230: 8b07 4bbe 7c9c fa3d 6767 2a3e f181 313e
00000240: 9cc1 3b3e 9893 093e 090b 2bbe 88ea 07be
00000250: 129d 523e 1992 49be c996 0abe 8d4e a83c
00000260: b790 30be bec3 3c3e 58d0 c73d c6bc c53d
00000270: 3e54 ebbd 4cda 9abc fb5d aebd 8b08 f93d
00000280: 67ae 19be 43e4 babd b111 a73c 327e 89bd
00000290: be7e 543e c37d 54be 43c4 2dba f336 f83d
000002a0: 05ad 74bc d19f 3ebe 79ee b13d f11a 193e
000002b0: 3a7c afbd faf2 4e3c 0f82 fabd ab6c bfbd
000002c0: 08db 54be 98cf 4a3e bb4b 9ebd 0314 113e
000002d0: 99f9 06be 0905 443e 3c09 0a3e fc25 26be
000002e0: 0d23 05be 4f49 bcbd b0fe 403e c43b 5bbc
000002f0: 52c0 5f3d 130a 1b3e af2e 41be f168 283e
00000300: 6090 42be e54c 98bb 6638 3ebe 7060 ee3d
00000310: a53c c43d 6c42 a53d 43fc 093e 6a07 f23c
00000320: 8264 29be 2559 053e 1bd3 23be 73a5 cd3d
00000330: caa2 443e 7fdd 8c3d 3cd5 433e 4219 603d
00000340: 3a2b 02be 641f 4c3e 1e89 13bc 957e fa3a
00000350: 9920 d6bd 73fb f8bd 6835 a73d 9fee 06be
00000360: 01f0 afbd 23ef b63d 1d84 d03d 080b 2f3e
00000370: 728f 383e 0785 2dbd eb69 173d 9c39 3c3c
00000380: 78aa 133e f3e1 a03c 170c d3bd e02d c03c
00000390: 97d8 b6bd 99ba a03d 66c8 113e ef72 0b3b
000003a0: 5b37 debd cafc 293e 6a4d 45bc bab4 83bd
000003b0: 5ae3 b1bd c29d bd3d b274 593e 5cdb bfbd
000003c0: 6215 f63d 4724 e6bd ad20 c3bc bce6 a73c
000003d0: b062 823d 3ca9 163d 3d17 5abe a45b fcbd
000003e0: b3d9 643d f682 673d 25b0 aebc 0645 3dbc
000003f0: 20a0 39be b5fd e93c 12f2 b33d 1342 b5bd
-0.17430641 0.11967017 0.21355651 0.02151261 -0.037599713 0.16047862 0.14667727 0.13935946
-0.19325142 0.098648995 0.0032700722 -0.019423667 0.11967832 0.16493924 -0.16643588 0.09677414
0.21740945 0.1460454 0.00854047 -0.03919787 0.15750557 0.114600256 -0.18323766 0.12952898
-0.0071680914 0.086698495 0.19787511 0.0015460002 0.0098647885 -0.089537814 -0.0967022 0.20965737
-0.20791331 -0.039160263 0.08105275 -0.05646065 -0.11140537 -0.076724 0.05260186 0.049750865
0.11281514 0.112038724 -0.14553122 0.16123612 0.07548555 0.115953386 -0.14196403 -0.038337998
-0.14594378 0.06213563 0.096876204 0.109001264 -0.069122516 0.14335418 -0.19359167 -0.055832006
-0.023733988 -0.08222368 -0.087353826 0.10759273 -0.09120766 -0.07685923 -0.20289123 0.003238411
-0.082958944 -0.13482174 -0.069971316 0.15489052 -0.13206999 0.0019557974 -0.029160038 0.021812353
-0.17708677 -0.09824112 -0.082689315 0.20096868 -0.11972117 0.22006162 0.18195403 -0.057434212
0.06611628 0.21000575 -0.12668526 0.077537365 0.165887 -0.13089469 0.1919896 -0.014125473
0.20415959 -0.2128067 0.061478857 -0.0032962726 0.21929699 -0.17960279 0.12927702 -0.1583253
0.1804117 0.06663194 0.21403787 0.035635013 0.1681352 -0.08388744 -0.21345705 -0.18249972
-0.023144266 0.08266307 -0.14275946 -0.06854939 -0.05946186 -0.12935533 -0.05751843 0.04800853
0.12964314 0.1504787 -0.045949668 0.022096526 0.11905281 -0.098646455 -0.041313183 -0.042721957
0.2098583 0.09275677 0.0064827697 -0.14797322 -0.0004352444 0.090826936 0.09125239 0.08398266
0.12811404 -0.013906247 0.15330641 0.16719343 0.1250886 0.14389871 -0.16260947 0.0064298348
0.09364083 -0.1818608 0.11002067 -0.16863509 -0.19827096 0.12236878 0.16641007 0.17334725
0.18335575 0.13435209 -0.16703428 -0.1327306 0.2056773 -0.19684638 -0.13534082 0.020545268
-0.17242704 0.18434045 0.09756535 0.09655146 -0.11490677 -0.01890292 -0.08514019 0.121598326
-0.15007935 -0.09125569 0.020394178 -0.06713523 0.20751473 -0.207511 -0.00066286715 0.12119856
-0.014933829 -0.18615653 0.08688063 0.14951684 -0.08568616 0.012631172 -0.12231838 -0.09346899
-0.20786679 0.19805753 -0.07729288 0.1416779 -0.13181151 0.19142546 0.13480085 -0.16225427
-0.13001652 -0.0919367 0.18847156 -0.013380948 0.05462677 0.15140562 -0.18865465 0.16446282
-0.19000387 -0.0046478384 -0.18576202 0.11639488 0.095818795 0.080693096 0.13475136 0.02954455
-0.16542247 0.13022287 -0.15998499 0.100413226 0.19202724 0.068781845 0.19124311 0.054711588
-0.12711802 0.1993385 -0.009004859 0.0019111211 -0.10455436 -0.12157335 0.08164483 -0.13176964
-0.08590699 0.089323305 0.101814486 0.17094052 0.1802347 -0.042363193 0.036966246 0.0114883445
0.14420497 0.019638991 -0.1030504 0.023459375 -0.0892803 0.07848091 0.14236602 0.0021278223
-0.10850402 0.16600338 -0.012042383 -0.06430955 -0.08685942 0.092586055 0.21235922 -0.09368011
0.12015797 -0.11237388 -0.023819292 0.020495765 0.063664794 0.03678249 -0.21297927 -0.123221666
0.055871677 0.05652138 -0.021324227 -0.011552101 -0.18127489 0.02856336 0.087864056 -0.08850493

GAT_layers.1.f.bias f4 [64]
00000000: c86f 983d 0807 0d3d cb94 86bd e9eb cc3d
00000010: 6744 683d 6024 593c d4b0 8f3d ea19 9e3d
00000020: 914c bc3c 1495 cc3d 94b9 e33d 183e f9bc
00000030: 21f6 ae3d 5cb7 6a3d 30a3 1c3d 02a8 87bd
00000040: 534f 973c 6b78 fbbd 7cca aebd b9ca 2837
00000050: f4cb 80bd 4228 e2bd 9078 f9bd 9514 b33b
00000060: b257 8c3d 0c26 08bd 7e8a ef3d d0ab 0e3d
00000070: 3893 babd 321f fbbd 6eb1 aebd 9094 f8bc
00000080: 9ebc 9b3d 00bf cbba a39b 953d 7865 c63c
00000090: aecd 98bd 1b82 ac3d 8490 6bbd 6633 903b
000000a0: 757c a13d 4ab7 993d 7220 d43d c815 f53d
000000b0: d043 c0bc 7875 fdbc 937e a83d b387 833c
000000c0: f089 6c3c 8e5c fe3c 7269 023a 146e c83d
000000d0: d22f 1a3d b807 743d 40f9 943d 3bdd 5ebc
000000e0: 80d9 dfbd f6f5 f53d 4881 36bd 34da 233d
000000f0: 1038 16bd f474 84bd ecfd c7bd 3250 63bb
0.074431956 0.034430534 -0.06571349 0.10005934 0.05670586 0.013253301 0.07016149 0.077197865
0.022985728 0.09989372 0.111193806 -0.030425116 0.08543039 0.05730377 0.038241565 -0.06623842
0.018470442 -0.12278827 -0.085347146 1.006078e-05 -0.06288901 -0.11042835 -0.121811986 0.0054651
0.06852664 -0.03323941 0.11696337 0.034831822 -0.09110111 -0.122618094 -0.08529936 -0.030344278
0.07604335 -0.0015544593 0.07305076 0.024218306 -0.07461105 0.08423253 -0.057510868 0.0044006584
0.078850664 0.07505663 0.10357751 0.11967045 -0.023469836 -0.030939803 0.08227267 0.016055917
0.014437184 0.031049993 0.0004974819 0.09786621 0.03764326 0.059577674 0.07274103 -0.01360255
-0.10930157 0.12009804 -0.044556886 0.040003017 -0.03667456 -0.064676195 -0.09765229 -0.0034685251

GAT_layers.1.w.weight f4 [1, 64]
00000000: 1068 0dbd ccef 51bc 86ee 993e 26cb 853e
00000010: dc0b 8c3e 7645 773d 5c1f 453e 91a7 4cbe
00000020: eee8 763e 4479 f23d c329 81be 30ce eabd
00000030: 4896 143e 80b9 773e 74f3 d23d 13be 8e3e
00000040: a9f9 74bd 03ff 7ebe 4587 123d 69e0 913d
00000050: 11a1 513e 7116 1d3d 6aa3 95be 34ad 3b3d
00000060: 6321 47be 1236 4fbc 0af0 49be 3c9d 03be
00000070: 7e55 103e 7e3b 3abc 895f 4f3e 3d67 563e
00000080: 57b4 823e 3016 17be 2c53 38be aed1 14be
00000090: fefa 6dbe ef99 5b3e ffc3 993e 0aff 043c
000000a0: ca5f 8a3e 6066 1ebe 4750 15bd dd84 163e
000000b0: e08e bd3d 79d9 983d adff 84bd e484 12be
000000c0: 48de 5f3c 9ef3 9a3e 388d cebd 5f4a abbd
000000d0: aeb3 923d 7060 56be 93df 923e 41fa 90be
000000e0: bd31 17be 1492 863e 4dfd b93d 9836 10be
000000f0: 5a6f 72be 4a45 673e 97b9 313e a59a 8cbc
-0.03452307 -0.01281352 0.3006479 0.26131552 0.27352798 0.060368977 0.19250244 -0.19985797
0.24112293 0.11839536 -0.25227174 -0.114651084 0.14510453 0.24191856 0.10300341 0.2787939
-0.059808407 -0.24901967 0.035773534 0.07122881 0.20471598 0.03835148 -0.29226238 0.045819476
-0.1944633 -0.012647169 -0.19720474 -0.12852949 0.14095113 -0.011366723 0.20251288 0.2093782
0.25528213 -0.14754558 -0.18000478 -0.14533111 -0.23240277 0.2144544 0.30032346 0.008117447
0.27026206 -0.1546874 -0.03645351 0.14699121 0.09255767 0.074633546 -0.06494079 -0.14308506
0.013663836 0.3026399 -0.10085529 -0.083637945 0.071631774 -0.20935225 0.286862 -0.2831593
-0.14765067 0.26283324 0.090815164 -0.14083326 -0.2367529 0.22585025 0.17355953 -0.017163584

GAT_layers.2.f.weight f4 [64, 128]
00000000: ca99 033e 4db0 633c a56d 923d 4f25 4d3d
00000010: 0a51 883d 781f efbb edf9 253e daf9 f4bd
00000020: e745 83bb ba06 813b 6303 d83d d94e 5a3d
00000030: fcaa 123e b0d4 103e cd2a f13d 4605 d93d
00000040: e69a cbbd 1b97 e53d b958 a5bd 8375 b5bd
00000050: a031 d93d af9a 763d b261 173d e076 593d
00000060: f2c2 24bd 70ee 10be 65b6 babd c112 cbbd
00000070: cc7b 183e f588 4ebd 9ad2 1dbd 6eeb adbd
00000080: 58f0 543a 612f d6bd 28ce c23d e23e 92bd
00000090: 6b4f 123e c02c 6f3d de1e ee3d 273e b63d
000000a0: cdba 01be c580 f63d 87d0 533d 55f3 2bbe
000000b0: 1141 15be b800 b3bd ad01 223e 33af 1abe
000000c0: 5507 a5bc a0c3 d23d 7fed 04bc bfb3 3dbc
000000d0: 1a67 1c3d 264f 25be 00ea c8bd c0fb 2bbe
000000e0: e56c cc3d 437d 08bd e993 fe3a 943d 193e
000000f0: 6198 293d 1a30 4b3c abde 423d 1514 013e
00000100: 5341 293e dca5 6d3d 7fba 0f3d fcfb 553d
00000110: c49c 9cbd 9a84 fdbc daf2 083e 6785 2abe
00000120: e683 cd3d 7948 e2bd 95b4 c837 e184 ee3c
00000130: f601 adbc 3d45 14be 23c3 1b3e 087a 50bd
00000140: c49f 5a3d 1648 ddbc ebb8 5fbd ae86 063e
00000150: 3f94 f9bd 5239 16be fe4d dbbd 5cc3 2ebd
00000160: 07bf c4bd bac9 91bd 7f98 8abd 9814 0bbc
00000170: 83a1 c13d fabb 25bd 98c0 f3bd b3a3 1d3e
00000180: 2c4b 273d 2c4c 1b3e 8495 223e 2602 6b3c
00000190: bcec 98bd 3e2b 56bd cd9d e6bc af6f a13c
000001a0: f53a b93d d06c 243e 41d8 c83c 11db 21be
000001b0: e4e4 eebd cb03 c53d fc81 1cbe 794e 1dbd
000001c0: 9e91 123e 1392 db3d b7cd fa3d fc18 0d3e
000001d0: 6ddb e53d 28c4 28bd 5f6c 093e f731 1fbe
000001e0: b00a f53d 6d29 c93d 30ac 233d 51e3 db3d
000001f0: 2675 69bd deae d6bd 1d15 ccbb afdf 973a
00000200: ab59 1cbe 48bb d9bc af09 bcbd 80fd 953d
00000210: 8063 a9bd eed8 b2bd 9d1a ffbc b6ff 213e
00000220: def7 41ba cf82 86bd d1a0 e2bd 53f3 1dbe
00000230: 6a3a 0c3e 15fe 20be f1ea 9d3d 96d5 263e
00000240: ddc4 023e 0542 febc 6b5c 87bd 0af6 61bd
00000250: 883e d3bd 06fd 133e bcbe 88bc 3495 073e
00000260: d628 20bd 4b82 d53c 74e7 c0bc 8a23 1a3d
00000270: d844 22bc eaee 1f3e e981 6bbd 2762 043e
00000280: c993 463d 6efa eb3d 58be 393d 47c7 01be
00000290: 9e10 4ebd bce1 17be 79d6 2fbe 7715 1c3e
000002a0: d4c9 693d 2c4c d63a 8236 dc3d f654 2d3e
000002b0: 95ff b83d dae2 933c 92bb 8fbd 700e 113e
000002c0: d632 ebbd 187c 053e aea3 55bd 761e 31be
000002d0: b465 103e 0039 213e 6d09 43bc df90 d83d
000002e0: b00e 3f3d a7bb 38bd 4f87 853d d377 bb3c
000002f0: 278d 11be c688 713c d95f d63d 8a53 febd
00000300: 9b3f 6e3d 2c7a 2bbe fded 1bbd 4b34 c6bd
00000310: f543 e4bd fa68 dc3d 2b41 67bd a2f5 2cbe
00000320: 831b d2bd 7b8f 343c 09ed 333e 7296 153e
00000330: f91c 30bd 397c 09be be38 003e 55f8 06bd
00000340: 3f1c 49bd 1f65 cdbd 35f1 dc3d 4324 153e
00000350: 6fd6 fa3d eaa7 ecbd dd97 27be 7f95 443d
00000360: 5160 fdbd 03a4 7f3d e3f8 123d 9f3f f3bc
00000370: c51f 0a3e e7a0 f83d 1bec ab3d 06a3 7a3d
00000380: dc68 ffbd 169e d83d 72b4 0d3e f977 623d
00000390: 887b bc3d 7f92 003c 6690 8e3d a8f8 89bd
000003a0: c653 56bd 1c9c 08be e23f 203e aae6 bf3d
000003b0: 698c f13d 2a7d 9fbd 7668 f7bd 33ed 33bd
000003c0: 0b9a eb3c 066c bb3c 2ea2 593d 1d54 b53d
000003d0: ac17 27be f987 813d dd0f 09be f14f 71bd
000003e0: dda2 17be 03f2 cb3d e820 b43d a760 91bd
000003f0: e344 5d3d 9846 1dbe 9d7b 183e 8ca1 0dbe
0.12851635 0.013897014 0.07149819 0.05008441 0.06656082 -0.0072974525 0.1620862 -0.11961718
-0.0040061357 0.0039375694 0.10547521 0.05329785 0.14323038 0.14143634 0.11775742 0.10596709
-0.09941654 0.11210462 -0.08073563 -0.08860304 0.10605168 0.06020611 0.036958404 0.053091884
-0.040224977 -0.14153457 -0.0911682 -0.099156864 0.14890975 -0.05042358 -0.038530923 -0.0849217
0.0008122972 -0.104582556 0.095119774 -0.071409 0.14288108 0.058392286 0.11626981 0.08898573
-0.12668915 0.120362796 0.05171254 -0.16792043 -0.14575602 -0.087403715 0.15820952 -0.15105896
-0.020145098 0.10291219 -0.008113264 -0.011578499 0.038184263 -0.16143474 -0.09810257 -0.16795254
0.099817075 -0.033322584 0.0019422743 0.14964896 0.041405085 0.012401605 0.047575634 0.12605317
0.16528825 0.058019504 0.035089966 0.052242264 -0.07647088 -0.030947018 0.1337389 -0.16652451
0.10034923 -0.11048979 2.3925948e-05 0.029116096 -0.0211191 -0.14479537 0.15211158 -0.050897628
0.05337502 -0.027011912 -0.05461971 0.13137314 -0.12186479 -0.14670303 -0.10708235 -0.042666778
-0.09606748 -0.071185544 -0.067673676 -0.008488797 0.09454634 -0.04046247 -0.11901969 0.15394478
0.040843174 0.15165776 0.15877348 0.014343774 -0.074670285 -0.052287333 -0.028151417 0.019706575
0.09044448 0.16057134 0.02451718 -0.15806223 -0.11664751 0.09619864 -0.1528396 -0.038404915
0.14313361 0.10721221 0.12246268 0.13779062 0.11223493 -0.041202694 0.13420247 -0.15546404
0.11964929 0.098223545 0.039959133 0.107367165 -0.056996487 -0.10482572 -0.006228103 0.0011587049
-0.1526858 -0.02657856 -0.091815345 0.07323742 -0.08270931 -0.08732782 -0.03114062 0.15820202
-0.0007399301 -0.065679185 -0.110658295 -0.15424852 0.13694158 -0.15721925 0.07710827 0.16292414
0.1277041 -0.03103734 -0.06609424 -0.05516628 -0.10314661 0.1445199 -0.016692512 0.1324051
-0.039101444 0.026063105 -0.023547865 0.03763155 -0.009904109 0.15618482 -0.05749694 0.12928067
0.048480783 0.11522375 0.04534754 -0.12673675 -0.050308816 -0.14832205 -0.17171659 0.15242563
0.057077244 0.0016349605 0.10752584 0.16926941 0.090331234 0.018052507 -0.07018198 0.14165664
-0.114843056 0.1303562 -0.05215805 -0.17296776 0.14101297 0.157444 -0.011904103 0.10574507
0.046644866 -0.045100834 0.06519949 0.022884285 -0.14214002 0.014742082 0.104675 -0.124182776
0.058166128 -0.16745824 -0.03806876 -0.09677943 -0.11145774 0.1076221 -0.056458633 -0.16890576
-0.10259154 0.011020537 0.1757089 0.14608172 -0.04299638 -0.13426293 0.12521645 -0.03295167
-0.049099203 -0.10029053 0.10788194 0.14564614 0.12247931 -0.115554646 -0.16366525 0.047994133
-0.123718865 0.062412273 0.035881888 -0.029693423 0.13488682 0.12140065 0.08394643 0.061190628
-0.12471172 0.105770275 0.13838366 0.055290196 0.09203249 0.007847427 0.069611356 -0.067368805
-0.052325986 -0.13340801 0.1564937 0.093701676 0.11794359 -0.07787545 -0.12080471 -0.043927383
0.028759977 0.022878658 0.053133182 0.08853934 -0.16317624 0.06324763 -0.13384958 -0.05891413
-0.14808221 0.099582694 0.08795339 -0.07098513 0.054020774 -0.1535896 0.14890905 -0.13831156

GAT_layers.2.f.bias f4 [64]
00000000: 5f57 30bd c290 f83c d330 58bd 66bf b3bd
00000010: faff 31bc 76ba 7abc deae 9cbd ce55 693d
00000020: e822 6fbd fc66 443d a147 61bb 9a71 82bc
00000030: af0b 213b 2e44 253d 5ba9 453d 97e1 67bc
00000040: be18 08bd e08b 5bbd b7ba a7bc a5f7 1b3d
00000050: 1afb cfbb d7d2 23bd 7904 bfbb c073 18bd
00000060: 1860 88bd 6e4f 893d cb4b f03c e39f 6cbd
00000070: a15d 193b 2a81 eabc 39de 7abd 7805 a6bc
00000080: a67c ab3d b69f 33bd bfaf 653b ceef a2bd
00000090: c7cc 313d 8fdf ddbc 0b2d b03d 3b2d 53bd
000000a0: f5e8 f9bb 2848 6fbd ed9d 673c 1342 383d
000000b0: bf20 33bd 91b7 f8bb a28c 1abd 6475 47bc
000000c0: 18b4 933d 3c4d 273d a7cf 94bd e7a3 c83c
000000d0: a805 a73d 14f3 253d 6675 15bd 9c28 5d3d
000000e0: 4e9c bbbd 7def 0b3c 3e28 8ebc dd01 fa3c
000000f0: c210 fbbc b6ad 603d 9e46 9dbd 7164 59bd
-0.043052074 0.030342463 -0.052780937 -0.08776741 -0.010864252 -0.015303245 -0.07650541 0.056966595
-0.0583829 0.047949776 -0.003437497 -0.01592331 0.0024573614 0.040348224 0.048257213 -0.014152906
-0.03322672 -0.053600192 -0.020474775 0.03807797 -0.0063470723 -0.039995994 -0.0058293906 -0.037219763
-0.066589534 0.06704603 0.029333016 -0.057769667 0.0023401754 -0.028626043 -0.061247084 -0.02026628
0.08373384 -0.043853484 0.003504738 -0.07955895 0.04340818 -0.02708414 0.08602341 -0.051556807
-0.0076266476 -0.058418423 0.0141367735 0.04498489 -0.0437324 -0.007590242 -0.037731774 -0.012173984
0.072120845 0.04084514 -0.07266169 0.024492217 0.08155376 0.04051502 -0.036488913 0.053993806
-0.09160672 0.008540985 -0.017353173 0.030518467 -0.03064764 0.054853164 -0.07679485 -0.053074304

GAT_layers.2.w.weight f4 [1, 128]
00000000: efda 30be 8aa0 2fbe b00c b23d 1f9b 813d
00000010: 5754 cc3d f295 4cbe 32fd 4e3d dbb1 1a3e
00000020: 9094 ef3d 3a30 06be b472 34be dfcf f4bd
00000030: 6444 893d 29f2 3dbe 25df 4bbe 0607 cc3a
00000040: 8447 503e 9853 1abe 4f09 933c d7e0 9abd
00000050: b08b 52be 36f4 4c3e 5162 22be 991b 35be
00000060: dcc0 133e a155 0c3e b4e5 54bb f4b7 093d
00000070: 0dcd 45be a746 433d c7a6 e8bd f7e4 153d
00000080: 1e63 1f3e ecd4 c1bc 0b44 e03d 4b3a 303e
00000090: 4443 373d cf11 cebd e1dc 1dbe 59c1 463e
000000a0: b063 c63d d7a3 07be 8b3e f83c cf7c 0c3d
000000b0: f873 0cbe 8cf6 50be dcd4 f5bd 8618 533e
000000c0: 7a3d 123e 6ae3 8fbd 8893 22be 176b 8e3c
000000d0: d908 723d 178f 2ebc 1116 63bd 975a 9ebd
000000e0: 3e67 ee3c 698c 953d 346c bebd da8e 4ebe
000000f0: 43b3 14be 6ca0 1f3e 081d 9238 c6a8 54be
00000100: 647b 0fbe 477a 483e f326 22be e1bd 1f3e
00000110: 17b8 b03d f9ba 203e b6c2 bebc c20b 53be
00000120: 01c9 d63d 2767 403e 5dab 12bc c02f 223e
00000130: 4023 3dbe d7e6 df3c 1231 0a3e 7bf3 51be
00000140: aa9c 19bb 5f25 34be 4040 363e aa04 86bd
00000150: e830 e33d 451a b43c a1d8 16be 20b5 3f3e
00000160: ee98 d0bd f4ab 2ebe 5210 a03d 8e58 c03d
00000170: 494f 6d3d 07c5 5abe ebd4 0c3d 4f9a db3d
00000180: f371 6fbd 6828 d33d c8f5 1e3d 47a0 4a3e
00000190: d8bf 56bc 18a9 113c 716a 403d 1a6d 153e
000001a0: f736 0e3d 1907 07be d5a3 ffbd eff5 073e
000001b0: a2e1 fa3b 3313 06be a5ae 17be c535 503e
000001c0: 1a97 b2bd a343 003e a488 073e 0a64 3f3c
000001d0: 9f98 35be b012 dcbc b6be 31be ddaa 333e
000001e0: af8f 053e e68f 133e 0a70 8fbd db6f b6bd
000001f0: 8a66 253e 0ae9 0a3d 6cc3 47be 20ad deba
-0.17271017 -0.17151085 0.08693826 0.06328415 0.09977024 -0.19979075 0.050534435 0.15106909
0.11698258 -0.13104334 -0.17621881 -0.11953711 0.067024976 -0.18549408 -0.19909342 0.0015566058
0.20339781 -0.15070951 0.017948775 -0.07562416 -0.20561099 0.20015034 -0.15857817 -0.17686309
0.14429039 0.1370454 -0.0032485547 0.033622697 -0.19316502 0.0476748 -0.11359935 0.03659531
0.15565154 -0.0236611 0.10950478 0.17209737 0.044741884 -0.100619905 -0.1541629 0.19409694
0.09686983 -0.13246094 0.03030326 0.034298714 -0.13716114 -0.2040655 -0.1200349 0.20614824
0.14281264 -0.07025798 -0.15876591 0.017385049 0.05909047 -0.010654232 -0.055440966 -0.077321224
0.029101964 0.07302172 -0.09297982 -0.20171681 -0.14521508 0.1558854 6.96723e-05 -0.20767507
-0.14011914 0.19577895 -0.1583517 0.15599777 0.08628862 0.15696324 -0.023286205 -0.20609954
0.10487557 0.1878935 -0.008951989 0.15838528 -0.18470478 0.027331753 0.13495281 -0.20503037
-0.0023439326 -0.17592381 0.17797947 -0.06543858 0.110933125 0.021985183 -0.14731075 0.18721437
-0.10185419 -0.17057782 0.07815613 0.093918905 0.05793694 -0.21364222 0.034382742 0.107227914
-0.05845828 0.10310441 0.038808614 0.19787703 -0.013107263 0.008890413 0.04697651 0.145924
0.034720387 -0.13186301 -0.1248242 0.1327741 0.007656292 -0.13093261 -0.14812715 0.20333011
-0.087202266 0.12525801 0.13235718 0.011681566 -0.17734002 -0.02686438 -0.17357907 0.17545648
0.13043092 0.14410362 -0.07003792 -0.089080535 0.16152397 0.03391365 -0.19508141 -0.0016988851

MLP_layers.0.weight f4 [32, 64]
00000000: ed0f fbbd 3c03 43bd e739 cf3d 6410 81bd
00000010: 0d94 353d c679 10bd 4ef0 863d eef3 8a3d
00000020: 7be8 853c c330 ea3d d0b1 443d 1c6a ab3d
00000030: 9af4 c8bd 9f89 dd3d d6d0 e8bd ed95 8bbc
00000040: 8e31 cabd 50fe 1abd 334c 953d d1f9 d43d
00000050: e94e fa3d f7ca 323d 87b3 0b3d d40f dfbd
00000060: 4029 00be 30ab 73bd 8aae b03d 166a ab3d
00000070: be6a fbbd 1457 a73d aece 183d 6482 ecbd
00000080: 061d ca3d 34c4 653d 42a0 bebd ac6d 46bd
00000090: c6c6 4fbd 9c3c 2dbd 1570 07bd 648e 9ebd
000000a0: 92a6 3c3d aad5 e43d 002e 113d 72f3 b73d
000000b0: 8815 a2bd 523c 9abd 5084 3c3c 3841 adbd
000000c0: 71f7 a8bd a018 7c3d a707 873d b1e6 5f3d
000000d0: 5796 1d3d 956c a9bd 61f8 bfbd 3962 a6bd
000000e0: 9257 053d f029 92bc 9ca0 a43d 9a97 74bd
000000f0: b897 8ebc b0a4 c73c 071b c83d c44f 4f3d
00000100: 42a7 cfbd bec1 8bbd fc64 2d3d 003b babd
00000110: 486d 0d3d d8d6 7f3d 6466 3dbd 20ea ffbb
00000120: 9c72 963d e068 473d 3884 ebbd 08b5 bfbc
00000130: 808d eaba 1a88 863d 8e56 b43d 5e3c c0bd
00000140: 26d8 e6bd 066e bebd f89a ef3c fa01 b83d
00000150: 9234 b5bd be38 84bd 1a57 a53d 80ec b4bd
00000160: ac5c 353d 90d3 c1bd d0a4 2a3d d012 b73c
00000170: 003a 7dba f83a 0b3d bee3 a73d 9033 7ebc
00000180: 8cca 17bd d019 3fbd c8f5 a0bc 56e1 bd3d
00000190: fcb2 bdbd 84d2 20bd 747a ec3d c0b2 ea3d
000001a0: d01b 3fbd b2e9 a73d 1a6b 94bd 408f a2bb
000001b0: ae8e a5bd d085 8ebc e0cd 8f3d 58f4 03bd
000001c0: c45b e23d a420 d7bd ecfe 413d f0e8 163c
000001d0: 824f 933d 4891 833c f40c 643d ac58 be3d
000001e0: 9a95 a23d 083f c7bc 380b 0fbd 18eb d93c
000001f0: 30a5 e23d 5cdc 28bd c026 5e3b dae9 df3d
00000200: 8f2c 913b c021 0a3d 7324 67bd c96e 62bd
00000210: f6f1 963d 5d11 883d f88e be3c 00f7 dbbd
00000220: 236c cf3c 2e3d 99bd f0b6 f4bd bc69 d8bd
00000230: 9871 0fbd 9320 e1bd d0d6 b0bc dfe3 c93d
00000240: 2c3a fe3d 1860 23bd f9cc 293d 4163 8ebd
00000250: dda6 703c dc7d bebd 1041 8fbd 417a 833d
00000260: 7578 d63d 2194 fcbd fa45 d8bd b45d 863d
00000270: 50f4 273d 86da d2bd b2d2 aebd 3ccb b5bd
00000280: 8125 cdbc bdce e83d 6732 e83c ffbd 83bd
00000290: b108 a73d 3943 9dbd a915 af3d e053 65bc
000002a0: bda9 1f3d 8d91 cf3c 5fe4 9e3d d33b 8a3d
000002b0: bc67 9dbd d99d 7cbb 9ca8 31bd b423 823d
000002c0: 8fcd b93d 3aa9 eabd 361a adbd ce19 933d
000002d0: 7781 c33d 839a c2bb b9cb ed3d cc8a 133d
000002e0: 37fa cfbd 6091 48bd db83 b7bd b1c6 b13d
000002f0: 1a0e b0bd 674a ca3d 9a48 9cbd ced1 83bd
00000300: 62b7 d1bd 38a5 95bc c080 363b ec57 f0bd
00000310: 261e 8b3d 44e1 7b3d e89b fa3c 4040 15bd
00000320: d4a3 6cbd f022 1abd 1413 d33d b2ec dc3d
00000330: 0c48 39bd fc17 fcbd 66ad b3bd 7ec4 b93d
00000340: 168d d93d fcc5 28bd 18b9 e33c 7af6 dd3d
00000350: f0f3 5fbc 7c1a debd 8cc1 eabd ce8d 88bd
00000360: 6c2c 27bd d8f7 92bc 8e30 f5bd d6da 9fbd
00000370: fab0 e4bd 5a5e ca3d 9010 b9bd b06d c9bd
00000380: e2cc f8bd 74e8 42bd 684b ea3d e8d6 96bc
00000390: 4895 913c 4a07 ecbd 74e1 babd b2a4 f9bd
000003a0: 1ab1 ecbd 2eb5 d03d 46d6 acbd 704b f63d
000003b0: b46f fc3d 60e7 65bc 54e0 b4bd 8ca5 3bbd
000003c0: 48bd b9bc 285f 233d 42d0 b63d fcd2 a3bd
000003d0: c21c b2bd 0863 dcbd dca1 f2bd a045 b0bd
000003e0: 7cb9 a73d a2c2 d1bd e8a6 8cbc d089 a33c
000003f0: c03e 263b c8fd ab3d b830 9d3d cc0e 06bd
-0.12258897 -0.047610506 0.10118466 -0.063019544 0.044330645 -0.035272382 0.06588803 0.06784807
0.016346207 0.11435082 0.048021138 0.08369848 -0.09812279 0.10817265 -0.11367957 -0.017039264
-0.09872733 -0.037840188 0.072899245 0.10399211 0.12222082 0.043650594 0.034106757 -0.10891691
-0.12515736 -0.05948943 0.08627041 0.08369844 -0.12276219 0.08170906 0.03730648 -0.115483075
0.09868817 0.056095317 -0.093079105 -0.048444435 -0.050726674 -0.04229413 -0.033065874 -0.077420026
0.04605729 0.11173566 0.03544426 0.089819804 -0.07914263 -0.075310364 0.011506155 -0.08459705
-0.08250321 0.06154692 0.065932564 0.054663364 0.038473453 -0.082726635 -0.093735464 -0.08124203
0.032554217 -0.017842263 0.08038446 -0.05971489 -0.01740633 0.024370521 0.0977078 0.05061318
-0.10139324 -0.06824063 0.042332634 -0.090932846 0.034528047 0.06246075 -0.046240225 -0.0078098923
0.07346079 0.048684 -0.11499828 -0.023401752 -0.0017894953 0.06568928 0.088055715 -0.09386514
-0.11271696 -0.09298329 0.0292487 0.08984752 -0.088479176 -0.06456135 0.08073254 -0.08834171
0.044277832 -0.094641805 0.041661084 0.022347838 -0.0009659827 0.033991784 0.08197735 -0.015515223
-0.037058398 -0.046655476 -0.019648448 0.09271495 -0.09262654 -0.039263263 0.115467936 0.11459875
-0.046657383 0.08198871 -0.072469905 -0.0049609244 -0.080838546 -0.017397791 0.070216894 -0.032215446
0.11052659 -0.105042726 0.047362253 0.00921081 0.07192899 0.016060486 0.055676416 0.092942566
0.079386905 -0.024322048 -0.03492281 0.02660136 0.11066663 -0.041225776 0.0033897609 0.109332755
0.0044303606 0.033723593 -0.056431245 -0.055281434 0.07370369 0.06643937 0.023261532 -0.10740471
0.025320118 -0.07482372 -0.11948955 -0.10567042 -0.03502044 -0.10992541 -0.021586806 0.09857916
0.12413439 -0.039886564 0.041455243 -0.06952525 0.014688221 -0.093013495 -0.069948316 0.064198025
0.10472194 -0.12332941 -0.10560222 0.06560841 0.04100448 -0.10295586 -0.08536281 -0.088766545
-0.025042297 0.11367557 0.028344346 -0.06432723 0.08155955 -0.07678837 0.08549053 -0.013997048
0.038980234 0.025337959 0.07758402 0.06749692 -0.076858014 -0.0038546233 -0.04337369 0.06354466
0.0907241 -0.11458059 -0.08452265 0.07182656 0.09546178 -0.0059388294 0.11611123 0.03602104
-0.101551466 -0.048966765 -0.08960696 0.086804755 -0.0859644 0.09877472 -0.07631035 -0.064365014
-0.102400556 -0.018267259 0.0027847737 -0.1173552 0.0679286 0.061494127 0.03059192 -0.036438227
-0.057773426 -0.037630975 0.10306373 0.107873335 -0.045234725 -0.12309262 -0.087733075 0.09070681
0.10622613 -0.041204438 0.02779822 0.10838027 -0.013668999 -0.10844895 -0.114626974 -0.06667672
-0.04081385 -0.017940447 -0.11972152 -0.078054115 -0.11166568 0.098812774 -0.09036362 -0.09835374
-0.12148453 -0.047584966 0.11440164 -0.018413022 0.017771378 -0.11524828 -0.09125033 -0.12189616
-0.11557217 0.10190807 -0.08439307 0.12026107 0.12325993 -0.014032215 -0.0883185 -0.045812175
-0.022673264 0.03988567 0.08926441 -0.079992265 -0.08696891 -0.10761076 -0.118472785 -0.0860703
0.08189675 -0.102422014 -0.01716943 0.019963175 0.0025366992 0.08398014 0.07675308 -0.032728955

MLP_layers.0.bias f4 [32]
00000000: c7f3 c43c 8802 4f3d a79f 9ebc b713 9d3d
00000010: 6d08 0e3e 683e 63bd dee3 f9bd 6ca7 a93d
00000020: e7c6 f1bc e809 75bd 9094 cdbd ee96 893d
00000030: aefe 2e3d 27fe 70bd 5e51 99bc b00b 16bd
00000040: 169c fabd 188a 793d a08e 3cbd d0fb 97bd
00000050: cf06 4dbc 06e5 dbbd e2f2 d33b e02c c63d
00000060: 4d08 963d 9c57 13bd 0c78 dbbd 303f 57bd
00000070: 0a60 a03c 8795 c73d 5732 8b3d b003 0b3e
0.024042023 0.050539523 -0.019363238 0.07669776 0.13870402 -0.055479437 -0.12201665 0.08283886
-0.02951379 -0.0598239 -0.10038102 0.06718241 0.04272335 -0.05883613 -0.018715557 -0.03663224
-0.12236802 0.060922712 -0.046034455 -0.07421076 -0.01251383 -0.10737042 0.006468163 0.09676528
0.07325802 -0.035972223 -0.107162565 -0.052550495 0.019577045 0.09745317 0.06796711 0.13575625

MLP_layers.1.weight f4 [1, 32]
00000000: 5a18 b93d b385 2b3e 031e 05be 9fc6 873d
00000010: 5939 0b3d 06ba cebd 0ead ea3d e579 fdbd
00000020: fc9d 133d a4ff 20bd 7156 d4bc 0903 b03d
00000030: 1e54 0c3e a770 1ebe bfa2 cabc 0376 a43d
00000040: 8afe 9a3d 37ff 3b3e f603 163e 46de 83bd
00000050: a4ef c1bd bbc7 8f3d cca9 08be b26c b7bd
00000060: 7807 53bd d298 983a 819a 17be 993a 17be
00000070: 65b5 063e 139e 513d 2361 0dbe 1118 0f3e
0.09037848 0.16750221 -0.1299973 0.06629681 0.033990238 -0.10094075 0.11458789 -0.12376765
0.036039338 -0.039306298 -0.025920125 0.08594329 0.13703963 -0.15472661 -0.024735807 0.080303214
0.07568081 0.18359075 0.14649948 -0.0643888 -0.09469536 0.070205174 -0.13346022 -0.08956279
-0.051520795 0.0011642224 -0.14805032 -0.14768447 0.13155134 0.051176142 -0.13806586 0.13974024
