SLIC_GAT/best1.pt (torch, 74869 bytes, 12 tensors)

GAT_layers.0.f.weight f4 [32, 82]
00000000: b851 503e 38a6 313c ad50 313e 84dd ff3d
00000010: 01dd e13d e895 893c 077b 063e 1de0 a3bc
00000020: 9f02 613a 02d6 72be fab4 213e cdc7 2b3e
00000030: 2168 61be d3eb 7f3d 3175 4ebe 2555 543e
00000040: 2b7d 5dbd 01b7 603e 41f3 2d3e 2184 20bd
00000050: 9f3f b43d fba8 e2bd f633 56bd e2a9 29be
00000060: c696 ce3d 43bb 1e3e 55dd 273d 0218 693e
00000070: 9316 313e 82cc 203e cbe7 56be 6559 333e
00000080: d9f7 4ebe 5467 87bc 8ea2 f2bc c173 22be
00000090: 3a84 c13b fef9 b73d dc8c 503e 8871 513e
000000a0: 509f 493e 52f8 9d3d fb88 03be d38a 24be
000000b0: e560 f73d 97d5 e53d 57f9 0dbe b9d3 26be
000000c0: dc52 1e3e d726 30be ba28 5abe eb8f 70be
000000d0: c3db 45bc 705e 723c f157 c0bd 9a99 0f3d
000000e0: c706 41be abce 67be b52c 713c bd39 f4bd
000000f0: f3c2 673d acae 383e 6d15 6c3d 234c 3fbb
00000100: 461f 1a3e fad7 31bc 4c1a 4dbe feb4 07be
00000110: d0cc 9e3d 688b f3bd b068 943c 2ffa 0c3e
00000120: 3236 66be 211b 51be 1b9e 5bbd ff82 583e
00000130: e2a9 9bbc 4f24 f3bc a775 30be fc7c 4e3d
00000140: 315e 50be af21 203e 4309 9c3d 831c b13d
00000150: 85b9 d5bd c169 d6bd 44c8 62be 5ec0 743d
00000160: be8a 5b3e 246d 60bd c50a f53d ae2d c83c
00000170: bcd5 0b3e ae8e 7abd 8acf 563e 814b 89bd
00000180: dd42 c93d a153 9ebd 799e 4ebe c0c9 20be
00000190: 9585 3b3d 11b3 a03c e968 5ebe 2d80 b4bc
000001a0: 3be2 afbd d992 36be 360c dcbd c895 5cbe
000001b0: dfa3 07bd 8d37 673c a0f3 4d3e 9307 193e
000001c0: f270 013e 1774 1bbe b5df f0bd bc49 8fbd
000001d0: 9d11 42be 52bf 103e 44b0 c63d 02e4 21bd
000001e0: 8572 fd3d 6757 c0bd a248 5f3e e3da 373d
000001f0: 25b5 5f3e d046 aebc 3325 8fbd 1bb2 c53d
00000200: 7b5b a7bd 5d87 6e3c 8257 d6bc a63b fb3c
00000210: 2cf5 643d 6968 14be b717 233d baef 583e
00000220: d2e8 f43d f30c 89bd ccff b0bd 58ec 173e
00000230: a346 05be be96 263e 3ec0 16be b2fc 19be
00000240: ca3e e8bd eea7 993d 5f71 353e 7a5f 5f3d
00000250: 6565 2a3e f4b1 633e 76e9 493e 6c88 c83d
00000260: 4afc 163e da37 3abe afd3 09be 429e 2e3c
00000270: 7c53 08bd 19d7 423d f82d 8c3d e9b9 0d3e
00000280: 663b bfbd 6b7e 0a3e e6cc ca3d fb08 67be
00000290: 0074 9bbd e5b3 193c 6e46 c9bd 5fb0 57be
000002a0: 94aa 1fbe 5e58 223e 3dc8 263e 5e9a 503e
000002b0: f6dd 583e 1da7 db3c a56e 623d e5d3 89bd
000002c0: fa2e 05be d455 1abe 0fd0 cfbd 01d5 bd3d
000002d0: fdd7 083e b99c 23be 697d 993a 3601 bfbc
000002e0: b927 0fbe 1665 47bd 97fd 3dbe 0787 563d
000002f0: 00e7 013e 8fcc e8bd df5a 4e3c 72c1 3ebe
00000300: 1ac3 a43d 03b3 3bbd 0796 30bd 7dcc 31be
00000310: 7454 efbb ece0 443e 1c81 97bd 370a 663e
00000320: 4a96 14be 459c 953d 0cef 68be ef5f d03d
00000330: 112a 493d 1802 52be b2fc 77bd d55b cd3d
00000340: 21bc 3a3e a4d3 41bd 3cc6 4b3e abc7 7d3c
00000350: 8f4c 043d 7dd0 013e 446b 333e 3c5f cabc
00000360: 8169 1cbd 89bd 063e c67d 263d 0e08 8e3d
00000370: f79a 90bd baef b13d 641b 98bd 74d3 54bd
00000380: df30 d5bd fd5d 133e d7a2 49be 259a e63d
00000390: 2a49 3a3e 712d c13d 7825 27be b57a c9bd
000003a0: 60d8 44be 94f2 473d 032d 87bc 3a72 543e
000003b0: d63c 33be 2a5d 02be 8eca 563e 3151 3bbe
000003c0: 35e8 26be f23e 59be e91e a63c e3b1 193d
000003d0: b97d 103e 75c3 dfbd b734 183e 5f78 59bc
000003e0: 0704 a43d 18f1 d0bc dc0c 403d 30c3 cebc
000003f0: 2459 f4bd c5c1 553e 0d09 853d 1ee0 c53d
0.20343673 0.010842852 0.17315932 0.124934226 0.11028481 0.016795114 0.13132869 -0.020004326
0.00085834594 -0.2371445 0.15791693 0.16775437 -0.22012378 0.06248076 -0.20161892 0.20735605
-0.054074448 0.2194481 0.16987325 -0.039188508 0.08801197 -0.11067387 -0.052295648 -0.16568711
0.100873515 0.15501122 0.040982563 0.22763065 0.17293768 0.15703014 -0.2098686 0.1751457
-0.20211734 -0.016528763 -0.029618528 -0.15864469 0.005905655 0.08983229 0.20366234 0.20453465
0.19689679 0.07713379 -0.12845223 -0.16068582 0.12079028 0.1122238 -0.13864647 -0.16291703
0.15461296 -0.17202316 -0.21304598 -0.234924 -0.012076321 0.0147930235 -0.093917735 0.035058595
-0.18850242 -0.22637431 0.014720132 -0.11925075 0.056582402 0.18035382 0.05763762 -0.0029189668
0.15050992 -0.0108547155 -0.20029563 -0.13252637 0.07753909 -0.11891824 0.018116325 0.13767312
-0.22481611 -0.20420505 -0.053617578 0.21143721 -0.019001905 -0.0296804 -0.17232381 0.050412163
-0.20348431 0.1563785 0.07618954 0.08648016 -0.10435776 -0.1046939 -0.22146708 0.05975377
0.21439645 -0.054791585 0.11964945 0.024435844 0.13655752 -0.061171226 0.20977607 -0.06703854
0.09827206 -0.07730795 -0.2017764 -0.15701962 0.04578169 0.019616636 -0.21719708 -0.022033775
-0.08588072 -0.17829455 -0.107445166 -0.21541512 -0.033115264 0.014112365 0.20112467 0.14944296
0.12640741 -0.15181004 -0.11761419 -0.069964856 -0.18952031 0.14135483 0.09701589 -0.039524086
0.123753585 -0.09391671 0.21805051 0.04488648 0.21846445 -0.021274 -0.06989517 0.096531115
-0.081717454 0.01455864 -0.026164774 0.030668091 0.055897877 -0.14492954 0.039817538 0.21185198
0.119584695 -0.06691923 -0.086425394 0.14836252 -0.13015227 0.16268441 -0.14721772 -0.15037802
-0.11340101 0.07502733 0.17719029 0.054534413 0.16640241 0.22235852 0.19717965 0.097916454
0.14744678 -0.18185368 -0.13459657 0.010657849 -0.033282742 0.047568414 0.06844705 0.1384045
-0.09337501 0.13524787 0.099023625 -0.2256202 -0.075904846 0.009381269 -0.098278865 -0.21063374
-0.15592414 0.15854022 0.16287322 0.20371386 0.21178421 0.026813084 0.0552813 -0.06729869
-0.13006201 -0.15071803 -0.10147106 0.09269143 0.13363643 -0.15977754 0.0011710349 -0.023316007
-0.13979997 -0.048680387 -0.18553768 0.052374866 0.12685776 -0.113671415 0.012594908 -0.18628481
0.08045025 -0.045825016 -0.043111827 -0.17363162 -0.007303769 0.19226426 -0.073976725 0.22464834
-0.14510456 0.07305197 -0.22747439 0.10174548 0.049112383 -0.20508611 -0.060543723 0.10027281
0.18235828 -0.047320977 0.19899839 0.015489499 0.032299574 0.12677188 0.17521387 -0.024703614
-0.038186554 0.1315824 0.04064729 0.0693513 -0.07060807 0.08688302 -0.07427099 -0.05195947
-0.10409712 0.14391322 -0.19691025 0.112598695 0.18191972 0.094324954 -0.16322887 -0.09837858
-0.19223166 0.048815325 -0.016500955 0.20746699 -0.17503676 -0.12730852 0.20975706 -0.18292691
-0.16299517 -0.21215418 0.020278411 0.03752316 0.1411046 -0.10925952 0.14863859 -0.013273328
0.08008581 -0.025505587 0.046887264 -0.025239557 -0.11931065 0.20874698 0.06495867 0.096618876

GAT_layers.0.f.bias f4 [32]
00000000: 6715 26bd 9a30 e13d c4a0 103c 9f81 873d
00000010: 3022 70bd adf9 723d 9b0a 0e3a 879e 1e3d
00000020: 5921 bdbc 88f4 373c cf65 893d c601 c63b
00000030: 0613 313d 71a3 d1bd e726 d6bd 398b eabc
00000040: 708f d1bd f8e4 63bd 8106 a1bd 9496 a63d
00000050: d039 933d 8f21 94bd 9b47 0ebd e1d9 343d
00000060: f569 42bd 3a17 9bbd ce1e b53c 545b c53d
00000070: ee30 c43c f89d 753d dc92 d63d 60ec 873d
-0.040547755 0.10995598 0.008827392 0.0661652 -0.058626354 0.05932014 0.00054184505 0.038725402
-0.02308719 0.011227734 0.067088716 0.006042692 0.043231033 -0.10236252 -0.10456639 -0.02863084
-0.10232437 -0.055638283 -0.07862569 0.08134189 0.07188761 -0.07232963 -0.034736257 0.044153098
-0.04746433 -0.075727895 0.022109415 0.0963656 0.023949113 0.059965104 0.1047723 0.06636882

GAT_layers.0.w.weight f4 [1, 82]
00000000: 4389 323e e350 9d3d 543b 6ebe 1d4e d53d
00000010: 6f73 30be 5506 23bd 66ff f4bd 17bf c7bd
00000020: 6233 3ebe be82 15bd ba58 68be e8aa 04be
00000030: 5ac4 d0bb 0461 cebd 3a04 603e 5b68 273d
00000040: 7aba 82bd 99f4 6e3e 1052 7d3e e68f 74be
00000050: 891a ff3d 463b 9bbc d93a 01bd c4b7 3c3c
00000060: 69fd 85be 5689 fbbd e80d 45be 0273 2abd
00000070: b8d7 6b3e 3585 843e 3d75 7b3d 696c 05be
00000080: 4fab 733e 7d56 543e 78a6 e33c 8ae3 f0bd
00000090: 7728 40bd 6a31 aabd 429f 0dbe 52f5 17bd
000000a0: 3b1b 3ebe 3b7c 71be b245 3fbe 98b1 3a3e
000000b0: ac62 4ebe faa8 23be 2a0a 453e 9067 96bd
000000c0: daf6 ae3d 9925 a3bd a8f8 583d 4729 933d
000000d0: 8248 c1bc c3f7 b53b 2aef 8ebd 6b34 123e
000000e0: 6cb9 64be 2d9c 18b9 527f 39bc c2a0 2a3e
000000f0: 57b3 963d 3f13 d5bc 94ff 19be 8ba6 8abe
00000100: 81e4 fabd 44f4 a5bc a91a cc3d f543 f7bd
00000110: 7bae 0b3d 24cd 30be 935a 263c e2ed fe3d
00000120: e39e 85be 64ca 1cbe 88f0 493e f17d 923d
00000130: e661 293e 5bb6 093d c834 0dbe 3ac1 2fbe
00000140: aa57 873d d5df 053e
0.17435174 0.076814435 -0.2326482 0.104152896 -0.17231534 -0.03980096 -0.11962776 -0.09753244
-0.18574288 -0.03650164 -0.22690096 -0.1295582 -0.006371063 -0.10077098 0.21876612 0.040871006
-0.06383224 0.23335494 0.24738336 -0.23883018 0.12456233 -0.018949162 -0.031550262 0.0115184225
-0.261699 -0.12282054 -0.19243586 -0.041613586 0.23031509 0.2588288 0.061391104 -0.13029636
0.23795818 0.20736118 0.02778934 -0.1176215 -0.04691359 -0.08310206 -0.13830283 -0.03709919
-0.18565075 -0.23582546 -0.1867893 0.18231809 -0.20154828 -0.15982428 0.19242159 -0.07343972
0.08543177 -0.079661556 0.052971512 0.071856074 -0.023594145 0.005553217 -0.06979211 0.14277808
-0.22336358 -0.0001455403 -0.011321859 0.16662887 0.07358425 -0.026010154 -0.15038902 -0.27080187
-0.12250615 -0.020258076 0.099660225 -0.12073509 0.034101944 -0.17265755 0.0101534305 0.12447716
-0.26097783 -0.15311581 0.19720662 0.07152928 0.16541252 0.033621173 -0.13789666 -0.17163554
0.066085175 0.13073666

GAT_layers.1.f.weight f4 [64, 64]
00000000: 3ba2 fc3d f8cf 4dbe e5b5 d03d 2cb5 e8bd
00000010: 4a3a be3d e100 733d 2f3a 6ebd 8ea8 d03c
00000020: 547b 9abd df23 2bbe b995 8abd 18a9 c8bd
00000030: 4cf6 503e 54dd 25be f16a 2c3e ac40 4b3e
00000040: 8d4c fb3c c238 93bd 2f70 1a3e d2e8 5ebd
00000050: 556c 87bd 8c08 1abe 7d97 03be 7c81 41be
00000060: 6400 05be 0b61 653e 90d0 013d 726e 89bd
00000070: d228 c63d 7077 40be 6d7f 36be 249c 1c3d
00000080: 7a8c 39bd 3150 e5bd 186f 473d eda7 8f3c
00000090: a57f 383e b99c 47be fcf3 4fbe 4eaa eb3c
000000a0: ee09 f03a a7ee 55be 2a89 26be c72d 463e
000000b0: 2b57 58bc 8867 3f3e 1979 6e3d 6dfd 30be
000000c0: 475d 693e a810 1d3d fe9a f6bd 0612 12be
000000d0: 635a 5c3e 0a70 4d3e fde7 cd3d bfcd 1bbe
000000e0: 1a0a d63d f41d 233e 561f 2d3e 8805 c2bd
000000f0: c6bc 99bd e822 0fbd fae1 31be ae1e b7bd
00000100: 759b fabd 78cd 243e 1c59 82bd 2764 08be
00000110: fa2f c33d e7b7 0d3d 8af8 3c3e 939c b8bd
00000120: 8851 1abe 93f8 363e 1b0a 20be 19ff d3bd
00000130: 002f 0f3e 01f3 653d 5cd1 663d d9fc 5e3d
00000140: f454 2b3e 3de7 003d 1957 603d 718b 54be
00000150: 8994 9dbd 535b 9bbd 63b3 bf3d f664 18be
00000160: 53ff 483e 637c 10be 9467 c93d c676 853d
00000170: ce4d 3d3e bde2 103e 8690 95bd f326 4d3e
00000180: 1c62 b23d be96 a53d b251 55be cce5 46be
00000190: f79b 623d dc29 9a3d c3af 543d c886 1b3e
000001a0: 96ab b6bc 0a71 4dbe 2138 083e 0331 663d
000001b0: ca76 09be 804c 52bc 3e27 2bbe aebd 5b3d
000001c0: 0189 013e 9539 31bb bcf0 00be 9eea 163e
000001d0: 0ffb cb3d ba3c 603c 05a4 793d 346a aa3d
000001e0: 3142 b2bd 5f67 32be 3fe8 873c 36ae 583e
000001f0: 3b2d 59be 31ec e53b 8eb7 12be 9a0c 143e
00000200: 4029 373e 7c82 b8bd 8d83 063e b6b3 c23b
00000210: ed61 62be 2f8c 283e 08ba 9b3d 46af 8e3d
00000220: 4733 913d 2831 0e3d 0c76 dbbc d7f1 433e
00000230: 96c3 efbd dced 1cbe cd00 df3d b6ab fa3d
00000240: 1c89 34bd 0708 4fbe cb0d bbbd 99dd 5a3d
00000250: 2c08 e33d 8e6c 1a3d 7496 90bd 8cf2 c1bd
00000260: 4964 f93d 6df4 453e 11af 26be ab39 863c
00000270: a00d 4b3e 4403 ba3d bb04 2a3e 8d28 a33d
00000280: ea80 133c 39b1 473e 57e7 87bd ba05 863d
00000290: 0a7e f3bc 6aed 2fbe 3d7e 0d3d 3f56 a0bc
000002a0: d981 a63d 8639 b3bd e950 1d3e e105 d63d
000002b0: 3692 01be 6574 abbd 8930 b83d 7877 dc3c
000002c0: 9292 50bc 30e2 06be 47b6 83bd b6c4 5bbe
000002d0: 60d6 033d 7d3e d6bd a266 20be 955e b2bd
000002e0: 3f65 873d d366 63be deec 13be 53fa 0b3e
000002f0: ff49 0abe fb6a 1d3e a1dc 07be daa7 c3bd
00000300: 6757 523b 8cf2 5bbe 1353 f7bd 8949 463e
00000310: 9863 1abd 58e2 413d 14c0 ab3d e2ec 2d3d
00000320: 76cf aa3c bbf3 093e a69c f53d 85bc 1b3e
00000330: e2a8 343e 0a02 2d3e bbd9 c9bc 2405 54bd
00000340: 4612 efbd fe94 753c 0991 f73c 57f4 693d
00000350: dac5 f13d 9c29 3cbe 823e 163e 1dad 173a
00000360: 7796 4e3e f3d0 133e 8499 893d 0425 09be
00000370: ff1f 4dbb bd21 193d c9a2 dcbd 0989 143e
00000380: 751e 3ebd 8e3e 873d 6ef3 513e cb61 013e
00000390: b3bf 343e c423 47be 3c0e 133e 9457 ecbd
000003a0: 15e2 283e 0639 a1bd 44ec 94bd 1fac d3bd
000003b0: 739d 343e cb9a dd3d dff5 413e d29d 143e
000003c0: 8f1c a33d e759 48be 8c63 7d3d bc0d f1bd
000003d0: 6ea6 743d 8259 50be 5092 c4bd 3bce 18be
000003e0: a295 2bbe ef14 e2bc 2152 08be 8d35 e5bb
000003f0: ddee 1a3d 3a53 b3bd 56ff bc3d a81c 44bd
0.123356305 -0.20098865 0.10190944 -0.11362681 0.092884615 0.05932701 -0.058160957 0.025470998
-0.07543054 -0.16712902 -0.067668386 -0.09797877 0.20406455 -0.16197711 0.1683767 0.19848889
0.03067615 -0.0718856 0.15081857 -0.054421254 -0.066124596 -0.15042323 -0.12850757 -0.1889705
-0.1298843 0.224003 0.03169304 -0.06710519 0.096757546 -0.18795562 -0.17822047 0.038234845
-0.045299985 -0.11196936 0.04868993 0.017536128 0.18017443 -0.19493379 -0.20307916 0.028767731
0.0018313506 -0.2089182 -0.16263261 0.193534 -0.013204376 0.18691838 0.058220956 -0.17284174
0.22789489 0.038345963 -0.12041281 -0.14264688 0.21518855 0.20062271 0.10054014 -0.15215205
0.104511455 0.15929395 0.16906485 -0.09473711 -0.07506709 -0.0349454 -0.1737136 -0.089413986
-0.12236682 0.16094005 -0.063646525 -0.13319455 0.09530635 0.03459921 0.18454185 -0.09014239
-0.15070164 0.17868261 -0.15628855 -0.103513904 0.13982773 0.05613995 0.056352004 0.054440353
0.16731626 0.031470526 0.054770563 -0.20756318 -0.076943465 -0.07585778 0.09360387 -0.14882264
0.19628648 -0.1410995 0.09834209 0.06516795 0.18486711 0.14148994 -0.07302956 0.20034389
0.08710119 0.080853924 -0.20831946 -0.19423598 0.05532452 0.07527515 0.051925432 0.15188134
-0.022298615 -0.20062652 0.13302661 0.056199085 -0.1342422 -0.012835622 -0.16714188 0.05364769
0.12649919 -0.0027042378 -0.12591833 0.14737937 0.09959995 0.013686353 0.060947437 0.08321038
-0.08704031 -0.17422245 0.016590236 0.21160206 -0.2120866 0.0070166816 -0.14327833 0.14457932
0.1788683 -0.09009263 0.1313612 0.0059418334 -0.22107668 0.16459726 0.07603842 0.069670245
0.070898585 0.034714848 -0.026789688 0.19135223 -0.11707227 -0.15325111 0.108888246 0.122397825
-0.04407607 -0.20217906 -0.0913349 0.05343399 0.11085543 0.037701182 -0.07059947 -0.0947009
0.12177331 0.19331522 -0.1627772 0.01638492 0.19829416 0.09082654 0.16603367 0.07966719
0.0090029035 0.19501199 -0.066359214 0.06544061 -0.029723186 -0.1718041 0.03454422 -0.019572375
0.08130235 -0.08751206 0.15362896 0.1045034 -0.12653431 -0.0837181 0.08993632 0.026912436
-0.012730258 -0.13172221 -0.06431251 -0.21461758 0.032186866 -0.104611374 -0.15664151 -0.08709446
0.06611108 -0.22207193 -0.14445826 0.1366971 -0.1350479 0.15372841 -0.13267757 -0.095534995
0.0032095553 -0.21479243 -0.12076392 0.19363989 -0.037692636 0.047335 0.08386245 0.042462237
0.020850878 0.13471882 0.11992769 0.15208633 0.17642549 0.16895309 -0.024639955 -0.051762715
-0.11673407 0.014989136 0.030220525 0.057117786 0.11805315 -0.18375248 0.14672282 0.0005785989
0.20174585 0.14435177 0.06718734 -0.13393027 -0.0031299589 0.03738569 -0.10773236 0.145054
-0.046415765 0.06603728 0.20503017 0.12634961 0.17651252 -0.19447237 0.14360899 -0.11540142
0.16492493 -0.078722045 -0.072716266 -0.10335564 0.17638187 0.1082054 0.18941449 0.14513329
0.079644315 -0.19565545 0.061862513 -0.11770198 0.059729032 -0.20346645 -0.095982194 -0.1492242
-0.16756299 -0.027597873 -0.1331258 -0.006994909 0.037825454 -0.087561086 0.09228389 -0.04787889

GAT_layers.1.f.bias f4 [64]
00000000: d58e e93c 54ba e73d 9c3d 333d 0215 debd
00000010: f497 4dbd 68df 843d 1ffa 623c 8587 35bc
00000020: e214 fbbd 5f11 013e d2a4 91bd 0b48 183d
00000030: 2aad dd3d 4fd5 043d ff16 0dbd 7345 85bd
00000040: c553 1b3d 23d6 973d 5b52 143d 9024 c63d
00000050: c133 543d 32a5 863d 78a4 c13d 36e0 d03c
00000060: 5221 763d 3494 f93d 4f0d 033d 8e85 92bd
00000070: fea1 54bd d76b 98bd 279b a2bd 63db 463d
00000080: e6df 93bd 8a22 c8bd c5fb bd3c 68db afbd
00000090: 9640 a8bb d14c f13d f184 233c 8537 e5bd
000000a0: 906c edbd b19a 2abd 1b47 f33d 1f65 133d
000000b0: 48f9 df3d f000 9fbc 2542 803d 6152 863d
000000c0: ff35 663d 992f e43d 386b f4bd 772f 22ba
000000d0: 0463 93bb c4ff 583d 940a 1cbd fcac 173d
000000e0: 2180 c8bc c4d6 e83d 63b0 7f3d 5eab c5bd
000000f0: 8657 103e 44d1 edbd 58bd c53d fc41 963d
0.02851049 0.11314836 0.043759927 -0.10843851 -0.050193742 0.06487924 0.013853579 -0.011079674
-0.122598425 0.12604283 -0.07111515 0.03717808 0.10824044 0.03242999 -0.03444576 -0.06507387
0.037921686 0.0741389 0.036211353 0.096749425 0.05180717 0.06574477 0.09455198 0.025497537
0.06009037 0.12186471 0.031995114 -0.0715438 -0.0519123 -0.07442444 -0.07939749 0.048549067
-0.072204396 -0.09772213 0.023191342 -0.0858677 -0.0051346524 0.1178223 0.009980426 -0.1119223
-0.11592972 -0.04165143 0.11878797 0.03598511 0.109362185 -0.019409627 0.06262616 0.06558681
0.05620384 0.11141891 -0.11934513 -0.00061868824 -0.0044978876 0.052978292 -0.038096026 0.037030205
-0.02447516 0.11369088 0.062424075 -0.09651826 0.14095888 -0.1161218 0.09655255 0.07336804

GAT_layers.1.w.weight f4 [1, 64]
00000000: a883 423e 6812 0bbe 2cc3 90be 0255 363c
00000010: 268e 1b3e 35ab 66be d72a 6abe d51e 1fbe
00000020: adb7 b9bd d247 0ebe 3939 103e 761c f1bc
00000030: 5640 d7bb 35d4 8cbe c105 353e 10d4 d23d
00000040: 8847 5bbd 4cd3 9f3d bd49 46be 83c1 353d
00000050: 440f 3e3e 5191 973e 24a3 06be ba37 fb3d
00000060: 3174 ae3d 16cb 4d3e d755 2d3e aa51 823e
00000070: b7a9 193e 03dd 91be a5cb 79be 3d20 403e
00000080: 2da7 8a3c 4ca9 50bd 3223 2c3e 989e 8bbe
00000090: f6c6 74be 2c6e 503e 449c 823e a5c6 83bd
000000a0: d37c 113e 645a ccbc 01f5 8ebb ea6c 3f3e
000000b0: a6a3 94be e13d 113e 3fac 323d 8413 1f3c
000000c0: eb03 10be 0556 45be 9824 4f3e a837 f73d
000000d0: b20d 5a3e 6d26 95bc 5dc0 63be c2ea 51be
000000e0: f43b 1e3e 3048 d1bc e95f 503e 4774 61be
000000f0: ed82 88be 373c 63be 22dc 873e 458a 15be
0.18995535 -0.1358124 -0.28273904 0.011128666 0.15190944 -0.22526248 -0.22867905 -0.15539105
-0.090682365 -0.13894585 0.14084329 -0.029432517 -0.0065689487 -0.2750565 0.17677976 0.10294354
-0.053535014 0.078039736 -0.19364066 0.044374 0.18560511 0.29603055 -0.1314817 0.122664884
0.085182555 0.20097002 0.16927277 0.2545293 0.15006147 -0.2848893 -0.2439409 0.18762298
0.016925419 -0.050942704 0.16810301 -0.27269435 -0.23904023 0.20354527 0.25509846 -0.06434373
0.14207773 -0.024945445 -0.004362703 0.18693891 -0.29031104 0.14183761 0.043621298 0.009709243
-0.14063995 -0.19271095 0.20228803 0.120711625 0.21294287 -0.0182068 -0.2224135 -0.20499709
0.15452558 -0.025547117 0.20349087 -0.22017013 -0.26662388 -0.22190939 0.26535136 -0.14603527

GAT_layers.2.f.weight f4 [64, 128]
00000000: ae3d c7bc 5db1 30be 3e05 91bd 67ac 4abc
00000010: 54ad dfbd daf8 35bd 9077 9f3d b536 083d
00000020: de2f 923d 395b 1ebd 9ea6 dabc 84f1 1ebc
00000030: d3c5 983d 15f6 39bd 4c0a 4ebd b3df c2bd
00000040: db2c 9b3d f1ae 00be 2e11 463c 05b0 543d
00000050: cde9 24be 48b1 3dbe b4f4 a53d 548a f73d
00000060: 017f d53d 7494 003e 716f 883d 2afd 87bd
00000070: 3d0a 90bd 6bcd d23c 8c35 fb3c eb32 1d3e
00000080: e583 db3d 25c8 ccbc 8d4d 263e cf77 a03d
00000090: 6dfd 00bd ec22 1c3e cff2 e6bd 9710 23be
000000a0: 46c5 843d 3eff b13c ac0b 1a3d 9946 26be
000000b0: 5e42 11be 1479 e43d cf35 b63d 604a b3bd
000000c0: 0d84 ecbd 7912 9d3d 70d7 843d 3c84 20be
000000d0: d2c7 013e 4f3f 99bd 4009 433c 1264 8b3c
000000e0: 97cf 40bb 0852 77bd 5c3f eabd daa4 cd3c
000000f0: 5905 833d 1130 51bd d910 123e 5fb3 e23c
00000100: a3a3 2ebe 9a23 243e 626c bb3b c1c7 e4bd
00000110: c4ff 00be c99e 07be 1798 7b3d 78e2 19be
00000120: 832d 0bbe 7c03 933d 98f3 173e e026 ab3d
00000130: 433c e9bd eebf abbc e762 fdbd 1236 0fb9
00000140: 26a5 95bd 50a6 3ebe e1d2 843b 21a9 81bd
00000150: 1a3b 843d 8871 30be 6998 06be 25ad af3d
00000160: b7e8 d4bd ec85 2f3d dfda a73d 640f ddbd
00000170: 8d76 cebd 37aa e5bd 75e1 b33d 0b10 013d
00000180: e13c ae3d 5995 1abe d932 23be bbf4 923c
00000190: 1d32 21bc 168d af3c 3dc8 8a3d e40c e8bd
000001a0: 3b7a d43c 93c9 1e3e eee2 9dbd 51d0 0b3e
000001b0: f777 26bd 4fb4 03bd d409 d6bd 1223 f0bd
000001c0: 867f 893d 36cd 733d 72cb 33be 56d0 0e3e
000001d0: 2ea5 06be 947b 1bbe bf56 1d3d df83 6fbc
000001e0: 3343 273e a633 93bc 543c e53d 17bd 223e
000001f0: b2e6 17be dd6a fcbd f5ff c6bd e0ed b3bd
00000200: a62c 1e3d 96bb 1cbe 565d f8bd 2c58 18be
00000210: b59e a53d 4a64 f53c fdd3 a13d aa26 313e
00000220: 9aa5 4e3d a848 003e 9717 b5bd 3f8f 5cbd
00000230: 2e10 e5bd 53ec d3bc 82aa efbb e209 3abc
00000240: b347 b03d 7c14 373d e5f8 0f3e 3ba3 92bd
00000250: 6d63 bb3d 5e82 4abd 2646 3abd 6376 253e
00000260: 68ba cf3c bee5 9abd 3867 aa3d ea0b a83d
00000270: a072 243c 9a25 0e3e af78 4a3b b051 0bbe
00000280: 1b3e cc3d 5af4 6b3d e3b5 0b3e 6fda 2dbe
00000290: e981 663d 3431 293e c9af 1dbc 3d85 e6bd
000002a0: b510 603d 9d8d 1a3e 778d 3d3e fb52 553d
000002b0: c0da a8bc 958f c43d 32ef c43d c05a 343e
000002c0: b4a9 d03d 2ad7 0a3e d479 cdbd 1c99 2b3e
000002d0: 8460 b2bc 6f21 023d bd12 f93d 267e fc3d
000002e0: 0bc0 793d 254e f03d 60bb 4a3c 646d f63d
000002f0: 5761 783c 8374 ed3c 0893 68bd 8dea 833d
00000300: bfce 1cbe bb47 05be 5938 11bd 577a ad3d
00000310: 0b79 12be d76c c83d 3606 b5bd 26d9 953d
00000320: f540 25be 3219 2b3e db6f 21be 7783 133e
00000330: 0cff 02bc 439b 84bd 9217 04be 8b98 6dbc
00000340: 57e8 ebbd 8231 db3d b5ba 253e 7c0e 04be
00000350: a436 11be 1a87 a73d ef80 1fbd 90b3 e63d
00000360: 27b3 9bbb 1056 863d 6c6d 073d bb44 c23d
00000370: 8227 b8bd 0357 453d 54ff 16be 5e90 373e
00000380: dd2b 223e 6c3e 9cbc b0fd 7a3d b9e0 713b
00000390: 25f9 1dbe 6f81 d2bd d807 253b c858 a53d
000003a0: 0d80 7fbd 34be 19be 055e b93d 329d 24bd
000003b0: ca27 b2bd cd66 cb3d 0d0e 683c 686e 3e3e
000003c0: ea01 5bbd 0e93 a13d beb5 1dbd 6952 17bd
000003d0: 672c ccbc 91ee 383c 2649 003e 50bb 2ebd
000003e0: 368e 843d 69ac 48bd f32e 26bd 5ae2 1e3d
000003f0: e904 17be 1831 10bd 7ea4 6c3d 2d3d ef3d
-0.024321403 -0.17255159 -0.07081078 -0.0123702055 -0.109217316 -0.044426776 0.077864766 0.033255298
0.07138036 -0.038661215 -0.026690777 -0.0097011365 0.07459607 -0.045400698 -0.05030279 -0.095153235
0.07576915 -0.12566735 0.012089057 0.051925678 -0.16104813 -0.18524659 0.08103314 0.12086931
0.10424615 0.1255663 0.06661881 -0.06640084 -0.07033203 0.025732717 0.030665182 0.15351455
0.10718516 -0.02499778 0.16240521 0.07835352 -0.031491686 0.15247697 -0.11276781 -0.15924297
0.064829394 0.021728154 0.037608787 -0.16237868 -0.14185473 0.11155906 0.08896982 -0.0875442
-0.11548624 0.07669539 0.06486404 -0.15675443 0.12673882 -0.07482778 0.011904061 0.01701549
-0.0029420608 -0.060380965 -0.11437866 0.025103021 0.06397504 -0.05107123 0.1426424 0.027673421
-0.1705461 0.16029206 0.0057197073 -0.111709125 -0.12597567 -0.13244165 0.06142434 -0.15027797
-0.1359158 0.07178399 0.14839017 0.08357024 -0.11388447 -0.020965543 -0.1237238 -0.00013657685
-0.0730689 -0.1861813 0.004053459 -0.06331087 0.06456585 -0.17230809 -0.13144077 0.085779466
-0.10395949 0.042852327 0.08196043 -0.10793951 -0.100812055 -0.112141065 0.08783237 0.03150944
0.085077055 -0.15096034 -0.15937366 0.017938962 -0.009838608 0.02142958 0.06776474 -0.11330584
0.02593719 0.15506582 -0.07709299 0.13653685 -0.04064175 -0.032154378 -0.10451093 -0.11725439
0.06713776 0.059521876 -0.17558077 0.13946661 -0.13148949 -0.1518386 0.038412806 -0.014618843
0.16334228 -0.017968964 0.11193147 0.15892445 -0.14834097 -0.1232507 -0.09716789 -0.087856054
0.0386168 -0.15305933 -0.121271774 -0.14877385 0.080869116 0.029955048 0.07901762 0.17299905
0.0504509 0.12527716 -0.0884239 -0.053847548 -0.11184727 -0.025869524 -0.0073140273 -0.011354895
0.086074255 0.04469727 0.1405979 -0.0716004 0.09149823 -0.049440734 -0.045477055 0.16158442
0.02535744 -0.07563351 0.08320469 0.082053974 0.010037094 0.13881531 0.0030894687 -0.1360538
0.09972783 0.05760608 0.13643603 -0.16977857 0.056276236 0.16522676 -0.00962443 -0.11255882
0.054703433 0.15093084 0.18510996 0.05208109 -0.02061212 0.095976986 0.096159354 0.17612743
0.10188618 0.13558641 -0.100330025 0.16757625 -0.021774538 0.031770166 0.12161777 0.123287484
0.060974162 0.11733655 0.012373775 0.12032583 0.015159926 0.028986221 -0.056780845 0.064412214
-0.15313242 -0.13015644 -0.035454128 0.084706 -0.14303987 0.097863846 -0.08839075 0.073168084
-0.1613806 0.1670883 -0.15765326 0.14405619 -0.007995378 -0.06474926 -0.12899616 -0.014501701
-0.11518925 0.10702802 0.16184504 -0.1289615 -0.14181 0.081800655 -0.03894132 0.112647176
-0.0047515812 0.06559384 0.033063337 0.094857655 -0.089919105 0.048178684 -0.14745837 0.17926165
0.15837045 -0.019072734 0.06127709 0.0036907627 -0.15427072 -0.10278594 0.0025181677 0.08073574
-0.062377978 -0.15013963 0.09051136 -0.040188976 -0.086989954 0.09931717 0.014163506 0.18596804
-0.053468622 0.078893766 -0.0385034 -0.036943827 -0.024923516 0.011287347 0.12527904 -0.042659104
0.06472437 -0.04899255 -0.040572118 0.038790084 -0.14747967 -0.03520307 0.05777406 0.1168159

GAT_layers.2.f.bias f4 [64]
00000000: 4ca5 083d be6c 943d f017 5ebd 937a 9b3d
00000010: 9051 8ebd 6fa0 5fbd acf5 9c3d e508 b63d
00000020: 27f8 843d d7db 94bd 3914 833d e0c3 0ebd
00000030: 5a2a 9cbd e479 a7bd b8a3 333d 6afd 08bd
00000040: 65ae cc3d 14db 1c3d 0dd2 323d a9f2 d23c
00000050: ef5c 9b3d 5768 913c 07e9 43bb 87f3 043d
00000060: 48c3 483d 1847 a13b 0e6b ad3d c92c 773d
00000070: 0afa 4cbd 16de 883d 3bc8 7b3d 44ca a03d
00000080: 33aa bc3d 3953 b3bd b7f0 8e3d 2e1c 9fba
00000090: 2b73 70bd 26f5 d2bc f061 bebc 777f 0f3d
000000a0: a127 f63c e13a e2bc e149 20bd b130 073d
000000b0: 263b 0abd 380b 4bbd b345 133d 75ce fa3c
000000c0: 4078 3bbd 9305 08bd 4add 9ebd 3095 a23d
000000d0: abae e5bb 3038 253d 910b 8bbd 11e8 e03b
000000e0: 0ad4 8dbd f278 40bd 6969 9bbc 428e a0bc
000000f0: a550 963d d92a a5bd 00ef e23c 7e01 c03d
0.033360764 0.072473034 -0.054222047 0.075917386 -0.069491506 -0.05459636 0.07664046 0.08888415
0.06492644 -0.072684936 0.064003415 -0.03485477 -0.076252654 -0.08177546 0.043857306 -0.0334448
0.099942006 0.038294867 0.04365735 0.025750475 0.07586085 0.017749948 -0.0029893534 0.03245881
0.04901436 0.004921805 0.08467685 0.060345445 -0.050043143 0.066829845 0.06147025 0.07851079
0.092121504 -0.08756108 0.069795065 -0.0012139136 -0.058703583 -0.025751662 -0.02324006 0.03503367
0.030048193 -0.027615966 -0.039132956 0.03300542 -0.033747815 -0.049571246 0.035955142 0.030616025
-0.045768976 -0.03320844 -0.07757051 0.079386115 -0.0070093474 0.040336788 -0.067893155 0.006863602
-0.06925209 -0.046990342 -0.018971162 -0.019599084 0.073396005 -0.08064813 0.027701855 0.093752846

GAT_layers.2.w.weight f4 [1, 128]
00000000: 94bd 7bbb f8cd 3bbe f9c6 0cbd 3caf 973c
00000010: 2668 563d d71b 733d 8b44 363e dd90 74bd
00000020: 79b2 083d aec9 9f3c beb5 8cbd 41c5 37bc
00000030: 5799 eb3d bfae 203d d805 423d 9767 48bd
00000040: 55bd 35bd c923 583e ad46 06be 433d 0f3e
00000050: 4e1b 1cbe c1cf b8bd a353 2bbe face 20be
00000060: 2379 493e d27e e03c 5258 523c f4a6 b03d
00000070: 4c51 0a3e 2cd6 4abe 41d2 e93d 7c0b 153e
00000080: 71b8 13be ad6d ab3c 17bb ca3c c11d 043e
00000090: cacd 253e 64cf 5d3e 0bbe 87bd 0b17 80bd
000000a0: 9f04 573e e54c dfbd bb5c e33d c6ea 3dbe
000000b0: 34be 3b3e 4133 be3d 7257 3a3e 2941 2a3e
000000c0: a238 013e 0482 03be 67af 4cbe 0391 0a3e
000000d0: c73b bcbd 070d cf3c a678 d03d e375 fb3c
000000e0: 4e8d 13be 1015 30be 39ac 0fbe f3de 8bbb
000000f0: acc5 26be 20b1 debd 47f2 403e 2663 583d
00000100: 0973 133b 2d16 39be 3b5b 923d 22d7 57be
00000110: 31cf cc3d 815a 293c 8e2d f0bb cfe2 3c3e
00000120: 109f 93bd 3ed5 373e a9f4 8cbd 7bfa 01bc
00000130: d032 27be a5bd 943d 7c44 68bd 5439 5a3e
00000140: 401d 3ebe 64b8 013d 214c 713c c577 8cbc
00000150: 708f f9bd 92fd 48be 9884 5a3e 91bc 1cbe
00000160: fbaa 89bd ab81 d9bd c130 ad3d 4ab7 23bd
00000170: 0b5b 2cbe 9474 45be d838 dc3d fd50 22be
00000180: c086 1d3e 1bd5 173d cf6e 3cbe a981 2bbd
00000190: b3f8 263d b342 41be 28a1 b23d 2ba6 16be
000001a0: dcbc 2c3e 62f6 493e f1c1 093e 63c8 083e
000001b0: 2873 563e a599 16be e7df ec3d ed52 d3bb
000001c0: c23d e53d 2240 3b3e c3cd 2b3e 387a 1d3e
000001d0: d0c6 febd 728c 49bc 1c4a 3cbc 196a 313e
000001e0: a53a 18be ae86 223d 4ca4 00be 019c d6bd
000001f0: d02a 843c 63cf 533e f6e6 3fbe 0b8e aabc
-0.0038412558 -0.1834029 -0.034369443 0.018516175 0.052345417 0.059352722 0.17799585 -0.059708465
0.03337333 0.019505348 -0.06870602 -0.011216463 0.11503857 0.03922915 0.047368854 -0.048926916
-0.044370014 0.21107401 -0.13112898 0.13988213 -0.15244791 -0.09024001 -0.16731124 -0.15703955
0.19675116 0.027404223 0.01283844 0.08625594 0.13507575 -0.19808263 0.11417056 0.14555162
-0.14425828 0.02092632 0.024747415 0.12901975 0.16191784 0.21661144 -0.06628045 -0.06254395
0.20997857 -0.10903338 0.11101671 -0.1854659 0.18334275 0.0928712 0.1819742 0.16626419
0.1261926 -0.12842566 -0.19988786 0.1353188 -0.09191089 0.025274767 0.10179262 0.030695861
-0.14409372 -0.17195535 -0.14030541 -0.004268521 -0.16286343 -0.10873628 0.18842421 0.05282893
0.0022498986 -0.18074866 0.07146307 -0.2107816 0.10000456 0.010336519 -0.0073296493 0.18445896
-0.07208073 0.17952439 -0.06882603 -0.007933254 -0.16327977 0.07262734 -0.056705937 0.21310931
-0.18565845 0.03166999 0.014727623 -0.017146954 -0.12185562 -0.1962798 0.21339643 -0.15306307
-0.06722065 -0.10620435 0.08456565 -0.03996972 -0.16831605 -0.19282752 0.107530296 -0.15851207
0.15383434 0.037068468 -0.18401645 -0.0418717 0.04076452 -0.188731 0.08722144 -0.14711826
0.16868919 0.19722894 0.13452889 0.13357691 0.20942366 -0.14707048 0.115661435 -0.0064490945
0.1119342 0.18286183 0.1677771 0.15378654 -0.12440264 -0.012301551 -0.011492278 0.1732563
-0.14866121 0.03967922 -0.12562674 -0.10478974 0.016133696 0.2068458 -0.18740448 -0.020819684

MLP_layers.0.weight f4 [32, 64]
00000000: 92f8 023d 0250 45bd 7421 c53d dc87 d43d
00000010: 98d1 10bd 5207 f9bd d0de 97bd 4c97 9c3d
00000020: 6ed6 30bd a854 ff3c 5a9e 433d 688f 5c3d
00000030: 0016 a1bd 008e 393a 8e89 ea3d eced d83d
00000040: 3d07 7cbd 740e 883c 8eec d63d 4bfb a7bd
00000050: d28d 83bc b8d7 c63d a6d8 81bb bce0 dcbd
00000060: b412 b3bd d340 75bc 4ec0 c8bd cc34 ae3c
00000070: 9441 f2bd 895f 633d cea3 803d 8a71 b03d
00000080: 80a6 bcbd 909e 683c 13ae 04be 90a6 84bc
00000090: 24eb 4f3d 865d cf3d ecf9 a13d 90d6 c4bd
000000a0: 0de6 643c fa1b d5bd 08af 1cbd bd8f 03be
000000b0: 8cfa 23bd 0899 c33c 849f b63c d60f 343d
000000c0: e213 8f3d 60fd 42bd 3ca2 9ebd de2e 7cbd
000000d0: a6da 9b3d e5ed b83d 3035 e3bd be91 183d
000000e0: 50cf 25bd d42e b1bc 5e16 fdbd ad81 85bd
000000f0: e281 33bc 2828 af3c 4690 093d 0684 00bd
00000100: 4f3e 9e3d a580 d53d 486a 103d 3ad7 173d
00000110: 70f6 25bd 7076 eabc 7b88 66bd 8ae8 813b
00000120: aed4 4d3d c69a c53d 3e8a 99bc 461e c2bd
00000130: ac4e d03d 6ca2 52bd 6699 c03c ec9d 72bd
00000140: b48f 913c 8d91 dabd 2c67 08be 97fe 96bd
00000150: f7f5 eabd 9b0a 383c 6ca0 fbbc 24e8 663d
00000160: d0e1 09be 6ef4 67bb 3e9f e2bd 4bdd b63d
00000170: 18ce 3d3d 0d5b 00be bf71 43bd 4cc3 49bd
00000180: 7387 c6bd 3800 493d f36e 2c3a 7c3a 03bd
00000190: e03b 933b a0ac a53d 9709 ddbc 020a 19bd
000001a0: 2f72 6cbd f0fc 413c 803e a8ba e9c6 803c
000001b0: 36b1 92bd fce3 9cbd 6a29 d63d d9f8 b9bd
000001c0: e56b e03d 7465 95bd 8c97 45bd 0310 723d
000001d0: 647e 87bd f1f4 aabd 3046 4abc 7068 9d3c
000001e0: a099 193c 8da6 2dbc e02f ff3d daea aabc
000001f0: 4a00 fabd e689 f93d 31e6 313d 1ec3 08bd
00000200: 2c32 5dbd ea3f 23bd c08a ec3c 02da ea3d
00000210: 155f 38bd 8cb5 aa3b 4793 813d 2780 f23d
00000220: 0a35 8ebc cd39 aa3c d221 5ebd 48fd cebc
00000230: b670 9dbd 6a3f be3d d047 673c 99dc ecbc
00000240: f4be 343d f64c ed3d c99e 77bd e414 253d
00000250: db05 3fbd ee20 d7bd ec5f 2fbb bda9 96bd
00000260: 0fb6 e03d f3b1 ec3b da53 d4bb 4340 e4bd
00000270: f377 f8bd bf9e 873d af08 7ebd 1783 d0bd
00000280: 8741 8d3d 5c74 4f3d 3a38 83bd 0005 b1bb
00000290: 0663 9f3d 1003 8dbc 50da 33bc 8dfa cdbd
000002a0: b473 cdbd 524e bcbd 25c9 ecbc 1d0f c0bd
000002b0: 56e5 9dbd f877 f8bc ad70 9fbb a417 abbd
000002c0: c48c 5e3d ed5f 14bb 22c8 a73d 4915 833b
000002d0: f861 473d 4059 d63b 2133 71bd 572d 85bb
000002e0: 746d 9cbd c61c dcbd 2104 a63c 78b6 563d
000002f0: e746 9b3c ffed b5bd aad3 36bd 711f f13d
00000300: 4b33 76bd 589f 2a3d f051 c53c 2bed b33d
00000310: c60b 3f3c 8ed2 71bd 5ab7 8e3d 19a4 a23d
00000320: c2aa f53d 608c ebbd cddd a43c 80cb c1bd
00000330: 6099 24bd 58f2 ea3d 48ac c4bd 0d66 c93d
00000340: bc4b b43d 089b 51bd 4c2d a63c 89ad b0bd
00000350: 7235 3ebd fffb 45bd 49ae 2bbc 23b7 9abd
00000360: 4882 f93d f960 103e af83 993d ae86 303d
00000370: 3d5a 73bb 5d16 d33c e47a 39bd 71f1 cbbc
00000380: faf3 883d 88ea fe3d 62d5 3dbd 302e 6bbc
00000390: 0615 75bd 60af a63c 9cf4 36bd 5bd6 613d
000003a0: 1d3a 1abc 5787 fdbc 7519 2fbd 819a a63d
000003b0: 749c f03d 589d 94bd 69bc 93bd 5682 883d
000003c0: 15e2 72bc 4926 4b3d 12a7 f73d c060 bc3d
000003d0: b04d 073d 6924 033e 861c 2a3d ce9e 93bd
000003e0: 6812 84bd fea5 803b b1b2 7dbd 2631 473d
000003f0: dc66 63bb f8ef e53d 32ba febc 5bd5 013d
0.031975336 -0.048172005 0.09625521 0.103774756 -0.035356134 -0.12159599 -0.07415545 0.07646045
-0.043173246 0.031168297 0.047758438 0.0538477 -0.07865524 0.00070783496 0.11452018 0.10592255
-0.06153034 0.016608454 0.10494338 -0.08202227 -0.016058836 0.09709114 -0.003962594 -0.10785052
-0.08743802 -0.014969069 -0.09802304 0.02126541 -0.11828914 0.05551103 0.06281243 0.08615406
-0.09211445 0.0141979605 -0.12957029 -0.016192704 0.050761357 0.1012526 0.07908997 -0.09611237
0.013970864 -0.10405727 -0.03825286 -0.128478 -0.040033862 0.023876682 0.02229286 0.043960415
0.06986214 -0.04760492 -0.077457875 -0.061568134 0.07610063 0.0902975 -0.11094129 0.037248366
-0.04048091 -0.021628775 -0.12357782 -0.06518874 -0.010956259 0.021381453 0.033584855 -0.031375907
0.07726728 0.104249276 0.035257608 0.03707049 -0.040518224 -0.028620929 -0.0562825 0.0039644884
0.050251655 0.09648661 -0.018742677 -0.094784304 0.101712555 -0.05142443 0.023510646 -0.059232637
0.017768718 -0.10672293 -0.13320607 -0.07372778 -0.11472695 0.011232997 -0.030716144 0.05637373
-0.13465047 -0.0035393494 -0.11065529 0.08928927 0.046339124 -0.12534733 -0.0477159 -0.049258515
-0.09693804 0.049072474 0.0006577812 -0.032038197 0.0044932216 0.08089566 -0.026982112 -0.03736306
-0.05772608 0.01184009 -0.0012836009 0.015719848 -0.071627066 -0.07660672 0.10457118 -0.09080667
0.10958079 -0.07294741 -0.04824023 0.0590973 -0.06615904 -0.083475 -0.012345836 0.019214839
0.009375006 -0.010598791 0.12460303 -0.02086394 -0.122070864 0.12184505 0.04343242 -0.033389203
-0.054002926 -0.039855875 0.028874755 0.11467363 -0.045012552 0.0052096304 0.06326919 0.11840849
-0.017359275 0.020779515 -0.054231472 -0.025267258 -0.076875135 0.09289439 0.0141162425 -0.028913783
0.04412742 0.11586945 -0.060454164 0.040303126 -0.046636444 -0.10504328 -0.0026760055 -0.07356594
0.10972225 0.0072233616 -0.0064797224 -0.111450695 -0.121322535 0.06622075 -0.06202 -0.101812534
0.06897264 0.05064808 -0.06407209 -0.0054022074 0.07782559 -0.017213374 -0.010977343 -0.100575544
-0.10031834 -0.09194626 -0.028904507 -0.09377883 -0.07709758 -0.030330643 -0.004865727 -0.083541185
0.054333463 -0.0022640184 0.08192469 0.00400034 0.048677415 0.006541401 -0.05888665 -0.004064243
-0.07638064 -0.107476756 0.02026564 0.05242011 0.018954707 -0.08883285 -0.044635452 0.11773575
-0.06010751 0.04165587 0.024086922 0.087854706 0.011660522 -0.05903869 0.06968565 0.079414554
0.1199546 -0.11501384 0.020125294 -0.09462643 -0.040185332 0.11472005 -0.096031725 0.09833918
0.08803508 -0.05117324 0.020285271 -0.08626849 -0.04643769 -0.048336025 -0.010478565 -0.07554462
0.12183052 0.14099492 0.0749582 0.04309719 -0.0037132644 0.0257675 -0.045283213 -0.024895402
0.0668716 0.12447077 -0.046346076 -0.014354274 -0.059834503 0.020347297 -0.04466687 0.055136066
-0.009413269 -0.030948324 -0.042748887 0.08134938 0.11748591 -0.072565734 -0.07213671 0.066654846
-0.01482441 0.04959706 0.12092413 0.09198141 0.033033073 0.12806858 0.04153111 -0.07208024
-0.06448823 0.003926038 -0.06193799 0.048630856 -0.003469876 0.11227411 -0.031094644 0.031697612

MLP_layers.0.bias f4 [32]
00000000: daaf 97bd fe9d e63d d439 aebd c317 3fbd
00000010: 68ec 45bd f4a5 4f3d 5765 093e b4d0 efbc
00000020: e244 fc3c 384d 06be d423 083d 929d c8bd
00000030: 48fd 8dbb 6a15 b83d e905 1cbc d430 d43d
00000040: 91f5 243d b865 bb3c f407 3a3d 887f a5bd
00000050: 5073 58bc bf7a 40bc cc15 fdbd e92c ed3d
00000060: 4405 1dbd 4c52 44bd b68f a53d ab02 83bd
00000070: 14f8 873d dc36 b63d f2b2 9cbd 8b88 87bd
-0.07406588 0.11260603 -0.085071236 -0.04665352 -0.048321158 0.050695375 0.13417564 -0.029274322
0.030794565 -0.13115394 0.033237293 -0.09795679 -0.004333172 0.089884594 -0.0095228935 0.10360876
0.040273253 0.022875652 0.04541774 -0.08080965 -0.013211086 -0.011748015 -0.12357673 0.115808316
-0.0383351 -0.047930047 0.08084051 -0.06396993 0.06639114 0.08897182 -0.076513186 -0.066178404

MLP_layers.1.weight f4 [1, 32]
00000000: 40ed 02be de7b 24bd ee42 c5bd 5cd4 283e
00000010: 7ee6 96bd 0200 813d f736 103d 7714 d2bd
00000020: 621a 0abe 1707 98bc 03b4 643d 1422 dcbd
00000030: 830f b93d a424 273e 989b 843d e0b9 11be
00000040: 1aee 0e3e fffa b8bd 8ce2 0d3e aef7 d8bc
00000050: 171f 0fbc e5cd aebc 36cc 0dbc 84c9 953d
00000060: dfe9 27be b87f 783d 9653 95bd a45d 333d
00000070: f002 dbbd 96aa efbd 1aa0 81bd d342 32bd
-0.12785816 -0.04015719 -0.096319064 0.16487259 -0.07368182 0.062988296 0.03520867 -0.102578096
-0.13486627 -0.018558068 0.055835735 -0.107486874 0.09036162 0.16322571 0.0647499 -0.14231062
0.13958016 -0.09032249 0.13855952 -0.02648529 -0.00873544 -0.021338413 -0.008654645 0.07313827
-0.16397808 0.060668677 -0.072913334 0.043790475 -0.1069392 -0.117024586 -0.06329365 -0.04352076
