SLIC_GAT/best4.pt (torch, 74869 bytes, 12 tensors)

GAT_layers.0.f.weight f4 [32, 82]
00000000: 5824 4cbe a6f6 b5bd 2576 00be 34e5 c73d
00000010: b82d 613e cfe7 57bd cc2d 1f3e a6da 503e
00000020: 7d8a 763d b9c2 0fbe 3c4c 7bbd cb26 02be
00000030: 02c1 67be ed91 e33c e7db 953d 080f 523d
00000040: 28f8 71bd b279 2e3e 64ab 47bd a721 44bd
00000050: 09fa 313e d586 3b3d 9ba9 393e 76e5 1a3d
00000060: 339f b73d d9c1 783c b73d 8c3d 54aa 2f3d
00000070: 548f d4bc 723d 10be fdeb 05be d3c3 68be
00000080: 463d ebbb 9b4e 2ebe be78 26bd d41e 3dbe
00000090: 48a4 23be f314 a6bc 2a27 643e 33e2 f0bd
000000a0: 3a09 14be 00e6 b4bd 6116 29bd 799a 663d
000000b0: 9f9b cfbd cf9e 12bd 65ea 55be b9dd 59be
000000c0: 35c3 5fbe 5143 0ebe 8731 523d bad7 e3bd
000000d0: 3dad 37be 0581 e8bd bd5b 163e ea9b 20be
000000e0: 9c16 243e 0655 30be a9ef 3ebc 5a87 5c3d
000000f0: e912 a43d ce60 633d d177 07be fc17 38be
00000100: a4e1 8bbd 1da9 19be bd40 cb3d 53b8 073e
00000110: a11c 4dbe 28a7 3fbe 31ff 2ebe 1cf6 993a
00000120: 21e2 5ebe dbc8 b8bc 7bba a0bd e279 18be
00000130: 64dc e73d d9d1 af3d b4bd 873d 2f60 3b3e
00000140: 79b7 4b3e 4f58 cd3d e94c bd3c 1ae2 0f3d
00000150: 03d6 ab3d 7996 18bd 93d5 8a3d f6aa 2a3e
00000160: 7245 1d3e 8120 9cbd a096 263e 2ec3 d93d
00000170: 81a5 4a3e 388b 21be 76cc 243e 9851 033e
00000180: d2e6 553e d19a 90bc f829 0abd 5be6 28be
00000190: d03e a83d 83da 0fbe 93be 4d3e a04c f43d
000001a0: e1cd 53be 198b 443e 26c5 f2bd 4a85 b63d
000001b0: 7301 9f3d 8ab6 aebd 1a4e 603e 54a8 3f3e
000001c0: a54b df3d 3b47 48bd 713e e13d f730 353d
000001d0: d7be 40be 318e 483e c4c0 243d 4e4e 573d
000001e0: 45fe 143e 245c f2bb dd1d 933d 0046 713d
000001f0: c342 eabd caf9 05bc 403c 60be 17e7 3f3e
00000200: e012 fbbd 138c a13c 75ac fb3d 8ac7 863d
00000210: 1c6a 10be 9c3e 183d 1e96 963d 9c0f 51be
00000220: 4369 c43d 6152 97bd d2fb 603e d2fc 143e
00000230: f2e7 983c c893 2d3e 7da8 a83d 1448 9bbd
00000240: 09b2 a4bd f806 adbc d99a 9b3d f174 513e
00000250: e7dc 0b3c 6c10 57be cd4d b93d fdb7 403e
00000260: 75eb 1dbe 8ef4 b93d b8ac 09be 066d 433e
00000270: 34a6 4d3d ec82 a53d a5b1 593e 14f2 de3d
00000280: 502c 383e d15a 6ebd 5f21 ac3d 5ef1 e1bd
00000290: 4ffa 043e 7930 1d3e 69be df3d 4dc7 243e
000002a0: dac8 9e3d 79fd 0a3d 7915 353d a13b cb3d
000002b0: b601 5dbe 9bb1 1dbe 3cd2 69be f167 0bbe
000002c0: 8f63 b5bc d404 c4bc 8dcb 47be 9d8d aabd
000002d0: 56a9 21be b122 513d 6850 14be 83ca ddbd
000002e0: 704d 483d 9592 283e ea87 01be 7bfe 37bd
000002f0: 1c82 373e 17f9 543e 0c0f 24be d4a0 743d
00000300: f95a be3d b472 f53d 3a54 263e 618c 363e
00000310: 9244 ae3d 092d aa3c 69e7 dabd efb6 2fbe
00000320: 2e81 21bd 8f4e 693d d64e 0e3e a4e7 2e3e
00000330: 5a46 6a3e eb9b c7bd 3ab8 763d 1d15 e03d
00000340: f8c0 6b3e 202f cfbd fe5a d1bc 4073 143e
00000350: 814f 3abe a3e5 acbc 2c79 523e a69a 573e
00000360: e5ae 40be e0fc 1cbe 94de 16be 5677 cebd
00000370: c806 2cbe f433 54be 2f30 34be cab5 473e
00000380: 607f e23d 24f9 2e3e d498 0abe 0588 22be
00000390: 7f7f 11bd 34ab 03be ffbb 08be 52ab 41be
000003a0: a139 3e3d 4b1c 65be 3518 1f3e bd9e 5a3e
000003b0: 2fb4 fdbd 0aef 043e dbff 1d3e 60ce 3ebe
000003c0: fac2 62be 2cb2 52be 47bd 383e 40a4 1fbd
000003d0: 4980 3d3e 8b07 08bc 1997 4abd 2db1 05be
000003e0: 023d dcbd 9e97 d93d e800 7bbd dbc7 08be
000003f0: 8270 e53c 9e24 02bd 0307 b2bd 78b8 a73c
-0.19935739 -0.08884935 -0.12545069 0.09760514 0.21990097 -0.052711304 0.15544814 0.20395908
0.060190666 -0.14039125 -0.061352 -0.12710111 -0.2263222 0.027779544 0.07317334 0.051283866
-0.05907455 0.1703861 -0.048747435 -0.047883656 0.17380537 0.045782883 0.18131106 0.037816487
0.08965912 0.015182936 0.06847709 0.042887047 -0.02594725 -0.1408594 -0.13078304 -0.22730951
-0.007178935 -0.17022173 -0.040642492 -0.18468791 -0.15980637 -0.020273661 0.22280565 -0.11761894
-0.14456645 -0.088329315 -0.041281108 0.05629966 -0.10137104 -0.035795983 -0.20890196 -0.21275987
-0.2185181 -0.13892867 0.051316764 -0.11125131 -0.17937179 -0.113527335 0.14683433 -0.15684476
0.1602425 -0.17219934 -0.011653819 0.05384002 0.08011419 0.055512242 -0.132293 -0.179779
-0.06830147 -0.15005918 0.09924457 0.13253908 -0.20030452 -0.18716109 -0.17089535 0.001174632
-0.21765949 -0.022556713 -0.07848068 -0.14890245 0.11321333 0.08584947 0.0662798 0.1829841
0.19894208 0.10026609 0.023107963 0.035127737 0.08390429 -0.037252877 0.06779017 0.16666779
0.15358523 -0.07623387 0.16268396 0.10632931 0.19789697 -0.15775764 0.1609362 0.12824094
0.20888832 -0.017651947 -0.03373143 -0.16494124 0.082151055 -0.140482 0.2009223 0.119286776
-0.20684005 0.19193687 -0.11854009 0.089121416 0.07763948 -0.0853091 0.21904793 0.18716556
0.109031 -0.048896056 0.10998238 0.04423615 -0.188228 0.19585492 0.040222898 0.05256491
0.14550121 -0.007396238 0.0718343 0.058904648 -0.11438515 -0.00817723 -0.21897984 0.18740498
-0.122594595 0.019720113 0.12288753 0.06581028 -0.14102978 0.037169084 0.07352851 -0.20416111
0.095903896 -0.073887594 0.21971062 0.14549568 0.018665288 0.16950905 0.082352616 -0.07582107
-0.0804177 -0.021121487 0.07597894 0.20454766 0.008536554 -0.21002358 0.090480424 0.18820186
-0.15421851 0.09079848 -0.13444793 0.19084558 0.05020733 0.08081612 0.21259172 0.108860165
0.17985654 -0.058192078 0.084048025 -0.11032365 0.1298611 0.15350522 0.1092499 0.16091652
0.07753153 0.033933137 0.04420993 0.09923483 -0.21582684 -0.15399782 -0.22834104 -0.13613869
-0.0221422 -0.023928083 -0.19511242 -0.08327792 -0.15787253 0.051058475 -0.14483798 -0.10829642
0.048901975 0.16462167 -0.12649503 -0.044920426 0.17920727 0.20798145 -0.16021365 0.05972369
0.092946954 0.119847685 0.16243067 0.17826988 0.085091725 0.020773428 -0.10688669 -0.17159627
-0.039429836 0.056959685 0.13897261 0.17080551 0.228784 -0.09746536 0.060234286 0.10941527
0.2302283 -0.1011641 -0.025556084 0.1449709 -0.18194391 -0.021105593 0.20554036 0.21055087
-0.18816717 -0.15330839 -0.14733344 -0.10081355 -0.16799462 -0.20722944 -0.17596506 0.19502941
0.11059451 0.17087227 -0.13534862 -0.158722 -0.03552198 -0.12858278 -0.13352965 -0.1891301
0.046441678 -0.22374074 0.15536578 0.21349616 -0.12387883 0.12981811 0.15429632 -0.18633413
-0.2214469 -0.2057578 0.18040954 -0.038975 0.18505968 -0.00830258 -0.049460504 -0.13055868
-0.10753824 0.10624622 -0.06128016 -0.13357489 0.02800775 -0.031773202 -0.08692744 0.020473704

GAT_layers.0.f.bias f4 [32]
00000000: c225 d0bc a046 80bd 2a1d 353d 48a2 123c
00000010: 2ce9 c0bc 123e 583d fa8c 61bd ec5c a03d
00000020: e875 bbbd 4dfb 93bd 358a a43d 7a52 9cbd
00000030: 1c14 613d 1924 c4bd e47b 953c 0cfb 063d
00000040: ebd9 303d f59d 7f3d 07c7 bbbd 1173 2b3c
00000050: ab71 a53a c7c7 abbc b950 e13c f754 ddbd
00000060: e0fb 853d 723e a5bd 6b08 d5bc 3378 a9bd
00000070: 5262 dabd 93c2 8bbd 8ba1 9a3d 052c 883d
-0.02540863 -0.06263471 0.044217266 0.008949824 -0.023548685 0.05279357 -0.055066086 0.078302234
-0.09153348 -0.07225666 0.080341734 -0.07632919 0.05495082 -0.095771976 0.018247552 0.03295426
0.043176573 0.0624065 -0.09168821 0.010464446 0.0012622377 -0.020969285 0.027504312 -0.108072214
0.06542182 -0.08068551 -0.02600499 -0.08274879 -0.10663284 -0.068242215 0.07550343 0.06649021

GAT_layers.0.w.weight f4 [1, 82]
00000000: dd3c 0cbe 0c77 6dbe db00 e73c 7bb7 7c3e
00000010: 4158 353e 0077 b53d 4c61 413d 39c0 1abe
00000020: f066 893e d7e3 70bd 0407 b73c 23ab bdbc
00000030: 55c1 86be 09fb bc3d f3af 293e 32b4 cbbc
00000040: 6789 d33d 182e 1d3e 456f a5bd 965f 2bbe
00000050: 76e9 80be 4882 013d 7044 32be 001b 3c3e
00000060: 2f13 48be 7ae7 5fbe 53d9 6ebd c32d f5bd
00000070: c77e 3ebe 9808 d639 f626 a0bc 56d9 603d
00000080: 130c 5fbe 8a1e 1e3e c013 14be 72db 16be
00000090: 44e9 903d fc8e 0b3e afcd bbbb 9259 853e
000000a0: afe4 833d 42d0 7abd a6cd 893e 46d6 cebc
000000b0: a49e 6abe 9b2c 02be 2c20 68bd e428 373d
000000c0: 943f ae3d 7890 be3d b598 163e bdea 1a3e
000000d0: c5b5 163e 2652 63be c44d 883e a71f 73bd
000000e0: f54b 113e 749c 6bbe 8e7b db3d 2461 f1bc
000000f0: 97e8 793d 5d48 3c3e 05bf d7bd 27da edbd
00000100: a1fd 0abe 7cbc babd 6844 f53d 2daf 3bbd
00000110: ca24 263e 71c2 81be de4c 91bc 040c 873e
00000120: c9c6 36be caf5 9f3d fdee a7bd deb8 743e
00000130: 3dfd 61be 7fcd 2c3d b9a5 d03c e9e7 883e
00000140: 762c e53c d3fa 3cbe
-0.13695092 -0.23189944 0.02819865 0.24679367 0.17709447 0.08860588 0.04721193 -0.1511239
0.26836348 -0.058811035 0.022342212 -0.023152893 -0.26319376 0.09227569 0.16571026 -0.024866197
0.10328942 0.15349615 -0.080778636 -0.16735682 -0.25178117 0.031618387 -0.1740892 0.18369675
-0.19538568 -0.21865645 -0.058312725 -0.11971619 -0.18603049 0.00040823664 -0.019549828 0.054894768
-0.2178195 0.15441337 -0.14460659 -0.14732149 0.07075742 0.13628763 -0.0057313065 0.260449
0.06440102 -0.061233766 0.2691471 -0.025248658 -0.22912079 -0.12712328 -0.056671306 0.04471673
0.0850822 0.09304899 0.1470669 0.15128608 0.14717777 -0.22199306 0.2662183 -0.059356358
0.14189132 -0.23008901 0.107169256 -0.029465266 0.06101283 0.1838698 -0.10534481 -0.11613875
-0.13573314 -0.09117982 0.11975938 -0.045821358 0.16224971 -0.2534366 -0.017736848 0.26376355
-0.17849268 0.078105524 -0.0819988 0.23898646 -0.22069259 0.042188164 0.025469648 0.26739433
0.027975302 -0.18455057

GAT_layers.1.f.weight f4 [64, 64]
00000000: 210c b9bd 51a2 54be d7aa 0abe bb3c 9ebd
00000010: 44c9 52be 4aa8 29be 071b 1a3e dc5c 8abd
00000020: 8de6 5c3e 29e8 76bd e4ff bc3d c57a 323e
00000030: 794b 9f3d 7509 8e3d 4b09 c7bd cf23 0fbe
00000040: f088 3b3e 1c78 0f3e 983c d4bd bae0 3cbe
00000050: ce96 a53d c8b5 363e 6dfe f73c 5d96 4f3e
00000060: d86c aa3c de36 7dbc 713b f33c c57e 9f3c
00000070: 9d6c 18bd 6ac2 04be 5edd 313d 3d21 053e
00000080: 63fb 0bbe 64a1 e63d 3b43 4cbe 5366 cabd
00000090: 37e0 f83d e68f 293e ce5a d3bd 3ae8 323e
000000a0: ed9a bbbd 1ec2 7fbc 8f2d b53c 0319 92bd
000000b0: 879f 263e d3e2 463d f9d0 bebd 5582 95bd
000000c0: 789a a73c d863 1e3e 91f1 543e 6279 d83d
000000d0: f510 fc3c 4b87 05be 4d14 4d3d a5d1 243e
000000e0: 8811 b73d d15b 30be 87f8 4c3e 58b0 4abc
000000f0: 5051 ae3c e850 b3bd 9a6b 273e e62f 063e
00000100: 9ef6 31bd 6d70 16be b98c a7bd 0bf9 88bd
00000110: 7b45 01be f850 3fbe 4d9b 573e bd72 01be
00000120: 98c2 3fbe 5d83 11be 329c 1b3c 2062 40be
00000130: 530f 1fbe a068 203e 12ec 6b3d 3a65 a0bd
00000140: a0c4 d6bd 8fe9 f43d 79cc 253d c786 43be
00000150: 9526 d83c 73fa a43d e89a aabc 3d1f 393d
00000160: c366 cdbd 15e9 8e3c 5919 0a3d 0cf9 c2bd
00000170: b844 293d e337 143e e680 43be 09ba 82bd
00000180: 63e0 ed3d 3ce0 483d aa2a f13d 7c3e 0b3e
00000190: 3904 99bc b1ec 4c3e 8a1a 243e ebb7 b73d
000001a0: 558f 243e a710 95bd 15d3 383d dc63 403e
000001b0: 598f 00be 7200 8e3d e55f cc3c 3c34 323e
000001c0: c0e1 cdbd 6e86 493e b528 a13d 0b23 443d
000001d0: d512 1d3e 13d0 ca3d 8e31 a6bd 7f58 3dbe
000001e0: 8d28 213e 237d 753d 616f 38be f45a 0c3e
000001f0: 6dfc 45be 07f0 14be 0202 853c fa5b febd
00000200: 75f0 4e3e c305 09bd 72c4 2fbe cdc4 bc3d
00000210: ac0c 2f3d e532 3b3d 88f9 7dbd 036b 37be
00000220: 45de 6ebd 06b1 8abd e6dd c3b9 2438 3b3e
00000230: b00d 583e 5528 633d b5f1 6cbc 882b 173d
00000240: 4a82 35be deec fd3d 8920 1e3c 47e8 1fbe
00000250: ef31 ab3d 8e69 0bbe b6fd 13be 20ef 403d
00000260: 5f92 2bbe 05ad c63c ae29 50be 030d 513c
00000270: 997d b83d aee0 c03d 09f0 e6bd e6fe d93d
00000280: e771 5cbe 3f79 0ebe 91c4 5d3d 0085 58be
00000290: 1d9c d73d 962c 393e d8fc 343e 42ee 053e
000002a0: 0fe4 f53d c38f 3c3e 772a 8cbb 1219 21be
000002b0: f955 0e3e 9cc8 1bbe 7643 57be 7292 2c3c
000002c0: 7850 333e d568 143e 2f40 8fbd 471f 45be
000002d0: de24 c6bd f1f2 aa3d 8e1d c53d f2ad 063e
000002e0: 1354 d03d d8ea 17be ceef 16bd df83 00bb
000002f0: 15a8 58bd 96cd 2fbe 32ed 423d 6518 fb3d
00000300: edf1 e03b 5cf1 223d f0c4 a33c ef02 44be
00000310: 26b7 25be f6fa c33c b3da 0c3c a274 3e3d
00000320: 0dc0 37be c646 ef3d 1225 52be e50f 903d
00000330: 8fbf 2d3e aebd 0d3d 2945 f93d 9ec2 fabc
00000340: aa7e debd 2787 0a3e 4260 193e 6525 68bd
00000350: 9d4b 09be e0ad 1d3b 5b2d 42be b179 4a3e
00000360: 164a 96bd d70f 533d 5f45 fd3c 9a85 313e
00000370: 1413 113e 1c83 153e 559b 4d3e 8656 b33d
00000380: d642 8a3d f016 41be 988d 6ebd df9a b33d
00000390: 2df3 24be f3c0 07bc aa9c 98bd 18e0 a83d
000003a0: 510f 30bc b604 0b3e 8b78 b3bc 4364 303e
000003b0: 800a 0cbd 247f ebbd 87f5 a53c 881e b63d
000003c0: 04a3 d2bd fe59 263e 1bb3 cd3c a208 303d
000003d0: aea9 833d 089e 32bc 271e 50bd 2b9b 5cbe
000003e0: 1358 0b3e a7e7 3e3c 90d1 b53d 31d4 f93b
000003f0: 9d14 58bd 465e 39be 1c3f 1abe 842a 4e3e
-0.090355165 -0.20765044 -0.13541733 -0.07726427 -0.20584589 -0.16568103 0.15049373 -0.06755993
0.21572323 -0.06028 0.09228495 0.17429645 0.07778067 0.069353975 -0.09718569 -0.13978504
0.18313956 0.14010662 -0.1036312 -0.18445101 0.08085404 0.17842782 0.030272687 0.20272203
0.020803854 -0.015454976 0.02969143 0.019469628 -0.037212957 -0.12964788 0.043424003 0.1300096
-0.13670115 0.112612516 -0.19947521 -0.09882798 0.121521406 0.16558799 -0.10320054 0.174714
-0.09160409 -0.015610246 0.02211645 -0.07133677 0.16271792 0.04855616 -0.09317202 -0.073002495
0.020459399 0.15467775 0.20795275 0.10570027 0.030769804 -0.13039891 0.05006819 0.16095598
0.08938891 -0.17222525 0.2001668 -0.012371145 0.021279007 -0.08755666 0.1634964 0.1310421
-0.043448083 -0.14691325 -0.081811376 -0.06688126 -0.12624161 -0.18683231 0.21055336 -0.12641425
-0.18726575 -0.14210267 0.009497689 -0.18787432 -0.1553319 0.15664911 0.05759818 -0.078318074
-0.10486722 0.1195861 0.040478203 -0.19094382 0.026385585 0.08055582 -0.020825818 0.045195807
-0.10029366 0.017445127 0.03371558 -0.09520158 0.0413253 0.14474444 -0.1909214 -0.0638314
0.11615064 0.04904197 0.11775716 0.13598055 -0.018678771 0.20012166 0.16025749 0.089706264
0.16070302 -0.07278567 0.04512318 0.18788093 -0.12554683 0.06933679 0.02494807 0.17402738
-0.10052824 0.19680187 0.078690924 0.047884982 0.15339215 0.09902968 -0.081149206 -0.1849079
0.15738125 0.059933793 -0.18011238 0.13706571 -0.19334574 -0.14544688 0.016236309 -0.12419887
0.20208915 -0.03345276 -0.17164782 0.09217224 0.042736694 0.045702834 -0.06200555 -0.17911915
-0.05831744 -0.06772046 -0.00037358626 0.18283135 0.21098971 0.055458385 -0.014461924 0.03690675
-0.17725483 0.123986945 0.009651312 -0.1561595 0.083591335 -0.13614485 -0.14452252 0.047103047
-0.16755055 0.024252424 -0.203284 0.01275945 0.09008331 0.09417854 -0.11276252 0.10644321
-0.21527825 -0.13913439 0.05414254 -0.21144485 0.10527823 0.18083414 0.17674577 0.1307917
0.12006389 0.18414216 -0.004277523 -0.1573222 0.13899983 -0.15213245 -0.21021828 0.010532962
0.17511165 0.14493115 -0.06994664 -0.19250213 -0.096750006 0.08347119 0.09624778 0.13152292
0.10172286 -0.1483568 -0.03684979 -0.0019609851 -0.05289467 -0.17168269 0.04758949 0.12260512
0.0068647773 0.03978096 0.019991368 -0.19141744 -0.16183147 0.023923378 0.008597064 0.04649795
-0.17944355 0.11683421 -0.20521954 0.07034282 0.16967605 0.03460472 0.121713944 -0.030610379
-0.10864003 0.13528119 0.14978126 -0.056676287 -0.1340775 0.0024059936 -0.18962614 0.19772984
-0.073383495 0.051528778 0.030916868 0.17336121 0.14167434 0.14600796 0.20078786 0.087567374
0.06751029 -0.18856406 -0.058240503 0.08769774 -0.16108389 -0.008285749 -0.07451756 0.082458675
-0.010745839 0.13576016 -0.021908065 0.17225747 -0.0341897 -0.114988595 0.020258678 0.08892542
-0.10284999 0.16245267 0.025109818 0.042976983 0.06428848 -0.010901935 -0.050810006 -0.21543567
0.13607816 0.01165191 0.088778615 0.007624172 -0.052754033 -0.18102369 -0.15063137 0.20133406

GAT_layers.1.f.bias f4 [64]
00000000: a2a2 ae3d ce3e d2bd 6987 e03d 10e0 913c
00000010: cefd d13c 0401 6f3d 3fc6 88bc 00ef 783a
00000020: 87e3 f8bd c2fb 323c d194 37bc c84c d43d
00000030: cf45 abbd c727 d13b 80df 5f3d b025 e63d
00000040: cc40 a23d 1a34 07bd 24a8 bfbd 5ee8 fbbd
00000050: 6ca1 b33d faf4 f93c 4291 9ebd 18a1 92bd
00000060: b7c7 b33c 5470 94bd 0045 bebb 924e a23d
00000070: 4492 863c d0c1 bfbc e8d0 7bbd 48f5 813d
00000080: 0028 89bc bb25 a7bd ceaf cdbc 1d7e d1bd
00000090: 38e5 cfbc 3a39 e73d b4d9 92bd 18b0 d2bd
000000a0: f05b 40bc 8cb6 e9bd fc5b 98bd fae3 c63d
000000b0: 17a4 15bd 1a7c 063c 682f 433d 1914 91bd
000000c0: 646f e03d b06f e93c 0c16 ebbd ee71 39bc
000000d0: 0293 6fbd e0ed a7bd 52ee 813d d084 7abd
000000e0: d833 b9bd 7626 e03d 6420 6d3c 785b 99bd
000000f0: f0e4 4abd 44b0 69bd 647b 0a3d aa39 e2bd
0.085271135 -0.10265885 0.109633274 0.017807037 0.025633719 0.058350578 -0.016696094 0.0009496063
-0.121527724 0.010924282 -0.011204914 0.10366207 -0.08362924 0.0063829157 0.054656506 0.11237657
0.07922515 -0.033008672 -0.09358242 -0.1230018 0.08771023 0.030512322 -0.077425495 -0.071596324
0.021945817 -0.072479874 -0.0058065653 0.07925142 0.016427167 -0.023407847 -0.061478525 0.06345612
-0.016742706 -0.081614934 -0.025108244 -0.10229132 -0.025377855 0.11290212 -0.0717043 -0.102874935
-0.01174067 -0.11411771 -0.074394196 0.09711452 -0.03653344 0.008208299 0.047652632 -0.070839114
0.10958746 0.02849564 -0.114788145 -0.011318667 -0.058489807 -0.08199668 0.06344284 -0.061161816
-0.090430915 0.10944836 0.014473055 -0.074881494 -0.049534738 -0.057052866 0.03380908 -0.11046155

GAT_layers.1.w.weight f4 [1, 64]
00000000: e96d d13d 7477 653e 56a1 eabd c972 d9bc
00000010: b1a0 4bbe 4e5c 773e 592d c23d a7aa 7ebe
00000020: 4e39 c13c 2dca 953e 99cf c0bd f847 c6bd
00000030: aafb 84be 89b8 dfbc 7162 18bd 8090 633e
00000040: 9bab 5a3e 7676 173d 383c 3f3e a63d 38be
00000050: c895 923d 198a ee3d 2797 88be cb09 88bd
00000060: 0355 68be 7950 17bd 36a6 27be b0c7 b43d
00000070: 7ad7 8f3a 519e 12be 7483 8c3e e8a5 203c
00000080: 1f9a 1c3d a2e6 0fbe 17e8 3ebe 6d06 d13d
00000090: 81e9 63be bbe8 88bd 0dc4 16be 4ddb f23d
000000a0: 167c 5abe f29e 613e aa58 4cbe bc5e 823e
000000b0: 129b 8bbe 406c b7bd c4b2 1f3e 9b12 793e
000000c0: ddc4 e23d f64f 4bbe 236a c53d 35a1 c3bd
000000d0: 5a93 6dbd 2606 4bbe 11b7 82bd 1399 58bd
000000e0: d87c 0ebe d57b 7f3d 43fa 8b3d 0b9b 6dbe
000000f0: faf7 443d 308a 9ebc b119 82be 26cf 3a3d
0.10226042 0.22408849 -0.11456554 -0.026543992 -0.19885518 0.24156305 0.09481306 -0.24869786
0.023586895 0.2925581 -0.09414596 -0.09681696 -0.25973254 -0.027309673 -0.037203256 0.22223091
0.21354525 0.036978208 0.18675315 -0.17992267 0.07157475 0.11647434 -0.2667782 -0.06642493
-0.2268868 -0.03694198 -0.16371998 0.0882715 0.0010974251 -0.14318205 0.2744404 0.00980518
0.03823292 -0.14052823 -0.18643223 0.10206304 -0.22257043 -0.06685015 -0.14723225 0.118582346
-0.21336398 0.22033289 -0.19955698 0.25462902 -0.27266747 -0.08956194 0.15595537 0.24323504
0.11072705 -0.19854721 0.096393846 -0.09552232 -0.058001854 -0.19826564 -0.063825734 -0.052880358
-0.13914812 0.062373955 0.06834843 -0.23203675 0.04808805 -0.019353002 -0.25410226 0.04560771

GAT_layers.2.f.weight f4 [64, 128]
00000000: e11c 013e e1d8 013e f1ac 38bc 6e8b ad3d
00000010: 07c5 a33b a8de 123e b9df 94bd 7e90 46bc
00000020: 12dd 3d3d 8be5 273d bf21 3b3c 1736 3e3d
00000030: 3a94 3cbd e4b8 8d3c 026f 933d 1954 913d
00000040: 29cb 13be cad5 3d3d 9ff6 a13d 1e92 f8bc
00000050: 797c f2bd 95ae 15bd 9bc6 07bd b655 143e
00000060: 27c3 203e 9a21 bcbb a159 0abe e8e0 1dbe
00000070: f1dd 3bbd 0012 17be 3823 2bbe 763c 2d3e
00000080: b97f f63d d544 173e 33a7 843d cca8 c6bd
00000090: baf2 11bd a5b7 e8bd a840 d2bb e9f5 15be
000000a0: e1af 443d 8e9d a63d 9301 61bd 9984 b9bc
000000b0: c91b 53bd 7f36 d63d 5ead c1bd 45a6 36be
000000c0: 1284 cbbd 60eb 163e e642 0dbe 6325 03be
000000d0: e5dd e23d a6b6 ba3d 91c4 6dbd 33d0 8f3d
000000e0: 7ff6 67bd 9fe7 19be aadf 1b3e 647e 223e
000000f0: 7783 eebd ba5a f3bd 8691 803b 780f 0e3e
00000100: a439 76bd 1541 bebd 6b97 ccbd 7c80 65bd
00000110: d54d 09bd 3b2d 0bbc 3821 003e c839 683d
00000120: ad0a cfbd 96c8 a83d 618c 1d3e b63b 123d
00000130: 503d 63bd ab68 ca3d 7d0c 823c a38e 213e
00000140: 427c 123e 6031 4b3d 2513 283e 68d9 203e
00000150: 0673 81bd 7187 223e 32d2 093e c605 27bc
00000160: 2845 d0bd 5888 233c 5bf8 cdbd 7dd9 c0ba
00000170: 8c7d f0bd 27ee 803d ca88 043e 3bfa 67bd
00000180: a29e 18bd d700 43bd 401f 6d3d 6f29 e1bc
00000190: f7c2 13bd 0000 8f3d fda2 1bbe 3b42 b93d
000001a0: 96cc 5d3c 2381 c33d 43f0 0d3e 6cfd 06be
000001b0: fc36 203d 63cb e8bd 11c5 a03d b323 153e
000001c0: 60c7 0abe 8114 253c 23ba d63d 0104 8bbc
000001d0: 8991 80bd f376 673d 16c9 1d3e 0da7 fdbd
000001e0: c238 993c b6e1 0bbe 6455 32bd 7d38 ff3c
000001f0: d98a ccbd a4f4 9bbd 4722 9b3d d2b5 123e
00000200: 71b1 393d e4bb 1c3c 3260 253e 534a 8f3d
00000210: ebc1 08bb a567 abbc a37f 82bd 4f4c a7bc
00000220: 6cfd 03be ce79 e2bc 8bb6 b13d 064b 82bc
00000230: a591 9f3d 9ce4 ebbd ca23 f13d 7fe1 cd3d
00000240: 1308 7f3d 9875 82bd cc8c 9fbd 3f4a 0b3e
00000250: ef4c 1d3d 1372 2cbe 0d17 0abe 3cf9 023c
00000260: 5ac3 28be 59bc 973d 1c67 063d fa85 e3bc
00000270: 1677 1fbd 1eb5 ffbb 6180 e43c d6e3 973d
00000280: 1b8b 62bd cb46 f13c 0524 ca3c 9d01 013e
00000290: d2e9 db3d 8c1e 2a3e 87a8 34be 7e7f 973d
000002a0: c2ea ddbd 3782 68bd b1fd e23d c3a0 0dbe
000002b0: b4b9 cebd 5a18 21be adc3 6fbd 8e6e 29be
000002c0: 9cd5 adbd 0ee6 04be fdc5 b5bc b798 0fbb
000002d0: 17d9 16bd 608e 9f3c 9533 773d a3ad b53d
000002e0: b07b 2dbe 66af 2abc b4e6 eabd c446 1dbe
000002f0: f138 89bd 4501 1f3e 11f3 abbd 9f49 ae3d
00000300: ed2c 6fbd 8608 dc3d 48cc 1ebe cb1f 293c
00000310: 76fa 043e e549 2b3e 9c9f f8bc 1c88 03be
00000320: 938c 32be 371b 1bbe cea5 243e 1562 1f3e
00000330: 4678 c23d 2a10 32be 0cf3 df3d d9e1 c33c
00000340: e89b 1e3d 463c 33be d9ef 16bc fae2 16be
00000350: 6fe4 f9bd 145c 783d 7293 ebbd 8460 2dbe
00000360: b879 ec3d 3019 873d 26c5 2dbc 4636 da3d
00000370: ac30 d4bd a258 a4bd c5fe 173e a715 7d3d
00000380: 69f1 46bd a731 21be 8723 033d 53cd 07be
00000390: cf08 d0bd 6676 ae3d 20ec 02be 8911 e93d
000003a0: 54f3 123e fd86 bebd cfb5 b8bd 6511 d6bd
000003b0: 1220 553d 18c4 043e 1914 aa3d 4d65 fb3d
000003c0: 0ff5 15be 1f0b 17be 842c e7bd 6972 d63d
000003d0: 7cdd b6bd 1d41 1fbe 9b34 863d 56aa a8bd
000003e0: 3217 b83d 8ef2 2b3e bc80 27be d688 fabc
000003f0: 3753 033e ea38 acbd 035b 1c3e a27c cdbd
0.12608673 0.12680389 -0.011271701 0.0847386 0.0049978527 0.14342749 -0.07269234 -0.012119411
0.046353407 0.040990394 0.01142162 0.046438303 -0.046039797 0.017300077 0.071989074 0.070961185
-0.14432968 0.046346463 0.07908367 -0.030343112 -0.118401475 -0.036543448 -0.03314839 0.14485821
0.15699445 -0.0057413103 -0.13510753 -0.15417826 -0.045865957 -0.1475296 -0.16712654 0.16917595
0.1203608 0.14772351 0.06477203 -0.09700164 -0.035631873 -0.113631524 -0.006416399 -0.14644589
0.048019294 0.0813552 -0.054933142 -0.022646235 -0.05154017 0.10459613 -0.09456895 -0.17836864
-0.099373 0.14738226 -0.13795051 -0.1280723 0.11077479 0.09116869 -0.05804879 0.07022133
-0.05663156 -0.15029763 0.1522204 0.15868527 -0.11646169 -0.11882539 0.0039235977 0.13873088
-0.060113564 -0.09289757 -0.09989818 -0.056030735 -0.033521492 -0.0084946705 0.12512672 0.05669573
-0.10109458 0.08241384 0.15385582 0.035701476 -0.055478394 0.09883245 0.015875096 0.15777068
0.14305213 0.049607635 0.16413553 0.15707934 -0.06320767 0.1587198 0.1345909 -0.010194248
-0.101694405 0.009981237 -0.10057136 -0.0014713254 -0.11742696 0.06295424 0.12942806 -0.056635123
-0.03726066 -0.047608223 0.05789113 -0.027485577 -0.036074605 0.06982422 -0.15198894 0.090458356
0.013537547 0.09546115 0.13861184 -0.1318261 0.039114937 -0.11366918 0.078500874 0.145644
-0.13552618 0.010075689 0.104847215 -0.016969683 -0.06277759 0.056509923 0.1540874 -0.12385378
0.018703822 -0.1366032 -0.043538466 0.031154865 -0.099874206 -0.07615021 0.07574897 0.14327171
0.045335237 0.009566281 0.16149977 0.06996598 -0.0020867537 -0.020923445 -0.06372001 -0.020422129
-0.12889642 -0.027645972 0.086773954 -0.015904915 0.07791451 -0.11518213 0.11774404 0.100527756
0.06226356 -0.063700855 -0.07790527 0.13602541 0.038403448 -0.16840391 -0.13485356 0.007993992
-0.1648077 0.07408971 0.032813177 -0.027773846 -0.03893193 -0.0078035733 0.027893247 0.07416503
-0.055308443 0.029452702 0.024675379 0.12598272 0.10737957 0.16613215 -0.17642413 0.07397364
-0.10835792 -0.056764808 0.11083544 -0.13830857 -0.10094014 -0.15731946 -0.05853622 -0.1654608
-0.084880084 -0.12978384 -0.022189135 -0.0021911093 -0.036828127 0.01947707 0.060351927 0.08871009
-0.16941714 -0.010417795 -0.114697844 -0.15359026 -0.06700314 0.15527828 -0.083959706 0.08510136
-0.058392454 0.10743813 -0.15507615 0.010322521 0.12986168 0.16727407 -0.030349545 -0.1284489
-0.17436437 -0.151471 0.16078874 0.15564759 0.094955966 -0.17388979 0.109350294 0.023911403
0.038722903 -0.17503461 -0.009212458 -0.14735022 -0.122017734 0.060634688 -0.11502732 -0.16931349
0.115466535 0.06596601 -0.010606086 0.10654883 -0.10360846 -0.08024718 0.1484328 0.061788227
-0.04857007 -0.15741597 0.032016303 -0.13261919 -0.1015793 0.085186765 -0.12785387 0.11380298
0.14350635 -0.09303091 -0.09019052 -0.104525365 0.052032538 0.12965429 0.083046146 0.12275181
-0.14644264 -0.14750336 -0.112877876 0.10471041 -0.089289635 -0.15552182 0.065530024 -0.08235614
0.08988799 0.16791746 -0.16357702 -0.030582827 0.12824713 -0.08409293 0.15269093 -0.100335374

GAT_layers.2.f.bias f4 [64]
00000000: 800b d73c 6f6b 98bd 1c52 963d f840 023d
00000010: 7499 7a3d 6603 a13d 0666 72bd 0f66 7a3d
00000020: 6d32 3bbc 9926 8f3c b8e0 aeba a864 c63c
00000030: f080 8ebd a9e4 9dbd 0437 3e3d 1b98 4c3b
00000040: d440 163b 70df 1a3d 84e0 0abd 562a 83bc
00000050: 5365 2fbd 0796 05bd 3721 893d cac3 7abd
00000060: e1e5 523d 1002 cb3c 259a 36bd 0abd 97bb
00000070: d9a1 573d 9fb4 8b3d 590e 7abc f247 6a3d
00000080: 8f20 a6bd 0162 89bd 494f 72bd ebc1 b83c
00000090: 530d b23d ff6e f9bc 0281 1d3d ecf3 463d
000000a0: d09f fc3c e30b a4bc 74eb 443d e4e3 6e3d
000000b0: 8d07 14bd 36f7 9bbd 9461 c0bc 7e00 233b
000000c0: c6c8 0fbd 7c91 8cbd 86ab e8bc 8abc b1bd
000000d0: 7ff1 983d 305b 23bc 2bb0 d93c 242e 1bbc
000000e0: 5d42 1cbd 8afa 9b3d 9754 263d b631 303d
000000f0: 0fdd 43bd 0b68 a5bd c180 d1bc bf45 643d
0.0262506 -0.07442366 0.0733988 0.03180024 0.0611815 0.07861976 -0.05917933 0.061132487
-0.011425597 0.01747446 -0.0013342118 0.024217919 -0.069581866 -0.07709629 0.046439186 0.0031218592
0.0022926824 0.037810743 -0.03390552 -0.016011398 -0.04282124 -0.03261378 0.06695788 -0.061221875
0.05148876 0.024781257 -0.044580597 -0.0046306895 0.052644584 0.0682156 -0.01526221 0.05719752
-0.08111679 -0.06708146 -0.059157643 0.022553405 0.08693948 -0.030448435 0.03845311 0.048572466
0.030837923 -0.0200252 0.048076108 0.058322802 -0.036140013 -0.07615511 -0.023484029 0.002487212
-0.03510358 -0.068636864 -0.028402101 -0.08678539 0.07467937 -0.009970471 0.026573261 -0.00947145
-0.038149226 0.07616146 0.040608015 0.043016158 -0.04781824 -0.08076485 -0.02557409 0.055730578

GAT_layers.2.w.weight f4 [1, 128]
00000000: de84 27be 37d8 24be dd3c c3bd db42 e33c
00000010: db16 073d 2843 443c 8d2c 893c c883 c6bd
00000020: be2c 973d 4cd4 1dbe 18bf 233e 3d46 d3bd
00000030: 78f5 d6bd 81af bc3d ca05 a93d cfba bb3d
00000040: fa9d 58bd 9bdd b8bc bba7 8abd ad3d 35bd
00000050: 624f 4fbd a368 303e e60f 033e 316d 3f3e
00000060: 4e3b c3bd 0e33 513e 4d88 54be be6e 3fbe
00000070: 7cce a53c 2764 1b3e 5152 55be b4e3 d0bd
00000080: 5dfb 25be 9b0d 12bd 3876 a63d 2ba0 983b
00000090: 8cf6 7b3b 7561 f3bd 85aa b8bd ff12 c93d
000000a0: fe17 a2bc ba79 983d e2e8 043e 1746 803d
000000b0: 5da4 443d 9376 97bd 29b5 1d3e 6a7f 8e3d
000000c0: 9262 f9bd 600c 16be 5e10 e23d 405f cdbd
000000d0: 993f f53d e1a0 2a3e 0405 4abe dc5d 5f3d
000000e0: b3b1 283e d424 b2bd df7c 493e 35fb 20be
000000f0: f504 20be 8fe2 d53d cae6 92bd 70b2 ffbc
00000100: de6b 17be 5634 c63c 843e 54bc 97aa d8ba
00000110: 8148 5ebd 7106 253d 0b81 21be f3a3 55bd
00000120: 96d6 6bbd de45 493c 7581 0cbd 28e8 a63d
00000130: 95ae 893b aba5 0bbe 97cd 213c f039 273e
00000140: eff2 fb3c df23 603e 4b99 333e 6870 823d
00000150: 801b 68bd d45c f63d 9eab 073d 252a f1bb
00000160: eb52 0a3c d21c 34bc 80f1 36bb 2c22 e83d
00000170: 8fdf 71bc 89d6 a73d e93c 9a3b 9e3a cbbd
00000180: 2668 fcbd a095 fcbd 0433 4b3e 5e33 4d3e
00000190: f016 333c 75a9 663d 83d1 cebd 761f 27be
000001a0: 74fa f63d 270e 443e 96ad 8dbd 5fb5 28be
000001b0: eef1 f2bd 9a65 e8bc d533 2cbe c47e fb3d
000001c0: c526 cabd 2c89 2a3e 2bf1 2d3e 859c 3d3e
000001d0: adf6 efbd 9477 4fbe 05b9 4fbe c4b6 703c
000001e0: f4d8 00be cf6e 4a3c 5373 333e ea41 3dbc
000001f0: 70f3 cfbd 2883 0e3e 0b6b 403e b5cc 953c
-0.16359279 -0.16098104 -0.09533093 0.02774184 0.03298078 0.011978902 0.016744876 -0.09693104
0.07381581 -0.15413016 0.15990865 -0.10316131 -0.10496038 0.09213162 0.08253057 0.0916649
-0.052885033 -0.022566607 -0.06770273 -0.04424827 -0.050612815 0.17227416 0.12799034 0.18693997
-0.09532796 0.20429632 -0.2075512 -0.18694589 0.020240061 0.15174924 -0.20832182 -0.10199681
-0.16209169 -0.035657506 0.08128017 0.0046577654 0.0038446514 -0.11883823 -0.09016899 0.09818076
-0.019786831 0.074450925 0.12979463 0.062633686 0.04800831 -0.07395663 0.15401138 0.06957896
-0.12177004 -0.14653158 0.11038278 -0.10027933 0.11975021 0.16662933 -0.19728476 0.05453287
0.16474037 -0.08698431 0.19676541 -0.15720828 -0.15626891 0.10443603 -0.07172926 -0.031213015
-0.14787242 0.024194878 -0.012954358 -0.0016530332 -0.054268364 0.040289346 -0.15771882 -0.052158307
-0.057577692 0.012284724 -0.034303147 0.08149749 0.00420172 -0.13637416 0.009875677 0.16330695
0.030755488 0.21888684 0.17538945 0.06369096 -0.05666685 0.12029424 0.03312265 -0.0073597603
0.008442621 -0.010993199 -0.0027914941 0.11334643 -0.014762773 0.08195216 0.004706968 -0.0992329
-0.12324552 -0.12333226 0.1984368 0.20039126 0.010930762 0.05631395 -0.10098555 -0.16320595
0.12059489 0.19146024 -0.069178745 -0.16475438 -0.11862551 -0.02836876 -0.16816647 0.12280038
-0.09870676 0.1665389 0.1698653 0.18516739 -0.117169715 -0.20260459 -0.20285423 0.014692012
-0.12582761 0.01235552 0.17524461 -0.01155136 -0.10153854 0.1391722 0.18790834 0.018286088

MLP_layers.0.weight f4 [32, 64]
00000000: ee84 c83d 48d0 b4bd fd65 4fbc a1ac fa3d
00000010: a0b9 82bc a83e f03c 7d60 4b3d 8f6b 8abd
00000020: 5a54 313d 6c07 f73c 306d c5bc d76f ca3d
00000030: f44b 743d 0023 f6bb 93b9 f4bd ae73 fb3d
00000040: c55d f43d 4506 8a3d 2976 083d f834 7cbd
00000050: 0ac6 22bd 409e df3b 1439 0a3d 79ca 80bd
00000060: 0766 b1bd 4240 033e 2340 dabd 8b21 323b
00000070: 34ef cdbd 6dcb c63d 6b74 89bd 0037 ab3b
00000080: b3f8 46bd c8ab eebd 266d da3d fcd4 ebbd
00000090: 591e dc3d 0a95 b3bd 64d6 c83d f160 9b3d
000000a0: 537b e7bd 966d b8bd 94e0 96bd 475d 59bd
000000b0: 3b9c b5bd ebe5 8d3c 576d 4cbd 6a0e d5bd
000000c0: ba05 f23d 005a a7bd b9cc 0b3d c54c d9ba
000000d0: 78b6 f73d 9a94 aebd 3129 ebbc 90c4 793d
000000e0: f98e 733c 1fda e43d 90f4 f73c dcad 683d
000000f0: 64b8 b83c b6f8 89bd c3fc 973d f4df 73bd
00000100: 39f7 d4bd f6bb c13d 9bda d4bd e8f2 e43c
00000110: 08d7 193d 1ae4 ca3d 4617 d63b bcd3 d7bd
00000120: 6174 f83d 2427 563d 5706 103d 71cb d63d
00000130: e89b 2d3d 586a eb3c 5ea2 dcbc aa47 963d
00000140: ebfb 123d 125e 8a3d 2415 273d 000f 5b3b
00000150: e4ee c4bc 3c05 1e3d 2a12 febc ed37 6e3c
00000160: 3400 17bc 1e9b 923d 90d3 8dbd 1724 efbd
00000170: eec3 88bd b84a 4c3d e1d9 8ebd f87a a03c
00000180: ed6f bb3d 8aab f3bd 3abe f2bd 2138 cabd
00000190: 8210 5f3d f7fb 94bd 001a 893c 4844 e53c
000001a0: 2d96 ab3d 10ce e8bc 502c 14bc dc02 df3c
000001b0: 0a03 d83d 6315 89bc 91ba d2bd 528c 843d
000001c0: 6890 de3c dd71 203d 0053 d23d 8161 de3c
000001d0: 70b0 443c 49a2 393d 0a6a f83a 3485 933d
000001e0: 4933 833d 873a 643d afe2 00bc c6a5 873d
000001f0: 3991 be3d 5e54 5e3d 3774 0b3b 4a21 c03d
00000200: 8e05 18bd c889 b33d 9833 df3b 110b 02bd
00000210: ac6a db3c ca5c d0bd 84e3 983c aab5 debb
00000220: c699 92bd 045f bcbc 5428 dcbd c6a0 b6bd
00000230: 162e c73b 4875 3e3d 6f4e 99b9 f4bb 213d
00000240: ea2c db3d f2d8 8bbd d54c ba3b 0818 ce3c
00000250: 126e ed3d ca3d e93d ea7d 0b3d f2d9 ebbd
00000260: 7506 213b 5a10 15bd fee3 e63d 93d5 0abc
00000270: fe80 e73d 40e3 bd3d 4d43 6bbb b8d0 67bd
00000280: aa57 943d f008 aa3c 08b5 713d 2a60 653d
00000290: ac87 b8bd 2443 a93c aa13 d73d 1c3d d83d
000002a0: bd68 3e3c f033 9c3c 6e66 cbbd 22c8 24bd
000002b0: fea4 4c3d d211 e4bd 4ddd 103c c0c5 bfbb
000002c0: 9e1e f43d d457 cd3d 5a79 5cbd ec9f cbbc
000002d0: a0cd ae3b 296d c5bb faea c3bd d04a 25bd
000002e0: b616 22bd ee17 30bd af51 0cbd 03da 48bc
000002f0: 9253 8d3d 2a77 5b3d 1ab6 c53d 08b3 433d
00000300: ea54 ca3d 1032 103c 2947 493d 46d0 47bd
00000310: 2db1 333d 46c5 8e3d 717d 813c e074 adbd
00000320: 3593 b33d 2188 b6bd 634e ba3d 6130 1ebb
00000330: 13e6 733d dce9 ccbd cdf1 153d 5cfb d1bd
00000340: 8651 943c 1cd4 4cbd a1d7 f5bc 90bb bdbc
00000350: 7962 d33d 822f ae3d e674 4ebd 0669 4e3d
00000360: 6453 c53d 8cd5 673d 9228 8ebc 5b05 ea3d
00000370: 8fd5 173d 9c4c 5bba 7042 f0bd a811 a93c
00000380: 8009 e5bc 8c6c 613d 8059 99bc 7ed9 963b
00000390: 5e93 c9bd fc5e 68bd 00ca 84bb 288d 763d
000003a0: 5c08 e8bb 9255 cdbd 5830 d73d 4974 6e3d
000003b0: a168 8abc 39e3 ebbb 81b6 733d d88f e0bc
000003c0: 04be 2bbd 380a 45bd 915f a23d 1d21 22bd
000003d0: 6edc 98bd 5ac9 9cbd da36 e33c a0f3 8f3b
000003e0: 1100 0d3d a08c adbc 938f 873b be92 41bb
000003f0: 1299 4dbd 443c 0cbd 96bc d03d 882c a53c
0.09790979 -0.08828789 -0.012658593 0.122399576 -0.015957654 0.029326752 0.049652565 -0.067587964
0.043293335 0.030154906 -0.024099916 0.09884613 0.059642747 -0.0075114965 -0.11949458 0.122779235
0.119319476 0.06739477 0.03331581 -0.061573952 -0.039739646 0.006824285 0.03374584 -0.062886186
-0.08662038 0.12817481 -0.10656764 0.0027180638 -0.1005539 0.09706769 -0.06711658 0.0052250624
-0.04857702 -0.116538584 0.1066535 -0.11515233 0.10747976 -0.08768661 0.09806517 0.075868495
-0.11302819 -0.09005277 -0.07367054 -0.05306747 -0.08867689 0.017321547 -0.049908962 -0.1040314
0.118174985 -0.08171463 0.034130786 -0.0016578665 0.1209535 -0.08524437 -0.028706165 0.060978472
0.01486563 0.11174416 0.030267984 0.05680643 0.022548862 -0.06736891 0.07421257 -0.05953975
-0.103987165 0.09459679 -0.10393258 0.027947858 0.037558585 0.09906788 0.006533536 -0.10538432
0.121315725 0.05228342 0.035162296 0.10488022 0.042385012 0.028737232 -0.026932891 0.073378876
0.03588478 0.06756224 0.040791646 0.0033425689 -0.024039693 0.03857921 -0.03101452 0.014539701
-0.009216357 0.071584925 -0.06925118 -0.116768055 -0.066779956 0.049875945 -0.06975151 0.019589886
0.091522075 -0.11897953 -0.11852689 -0.09873987 0.054459102 -0.07274621 0.01673603 0.02798666
0.08378253 -0.02841857 -0.009043768 0.027223043 0.10547455 -0.01673383 -0.10289491 0.064720765
0.027168468 0.03917109 0.10269737 0.027146103 0.012004957 0.045320783 0.00189525 0.07203141
0.06406266 0.05571988 -0.007866546 0.06623416 0.09305043 0.054279678 0.0021278986 0.093813494
-0.037114672 0.08766514 0.0068115704 -0.031748835 0.026784264 -0.10173948 0.018663175 -0.0067965584
-0.07158236 -0.022994526 -0.107498795 -0.08917384 0.006078492 0.046498567 -0.00029240872 0.039485887
0.10701926 -0.068284884 0.0056854286 0.025157943 0.1159326 0.113887385 0.034055628 -0.11516179
0.00245705 -0.036392547 0.11273955 -0.008473772 0.113039 0.0927186 -0.0035898269 -0.056595534
0.07243283 0.020756215 0.059010535 0.055999912 -0.09010252 0.020661898 0.105017975 0.10558531
0.011621651 0.019067734 -0.09931646 -0.040229924 0.049962036 -0.111362115 0.008841825 -0.005852431
0.11919902 0.100265175 -0.053826667 -0.02485653 0.005334571 -0.006024976 -0.095663026 -0.04035455
-0.03957244 -0.04299157 -0.034257587 -0.012259009 0.069007054 0.05358044 0.09653874 0.04777816
0.09879477 0.008800998 0.04914013 -0.04878261 0.04387014 0.06971221 0.015806885 -0.08469558
0.08768312 -0.08912683 0.09096982 -0.0024137723 0.059545588 -0.10005543 0.036607552 -0.10253021
0.01810528 -0.05000697 -0.030010046 -0.023160726 0.103215165 0.08505155 -0.05040445 0.050393127
0.09635046 0.05660014 -0.01735333 0.11426803 0.0370689 -0.00083656027 -0.11731422 0.020638302
-0.027958632 0.05503516 -0.018719435 0.004603564 -0.09842561 -0.05673121 -0.0040524006 0.06019321
-0.0070810746 -0.10026087 0.10507268 0.058216367 -0.016895594 -0.007198718 0.05950022 -0.02741234
-0.04192926 -0.04810545 0.07928384 -0.03958236 -0.074639186 -0.07655592 0.027736116 0.004393056
0.03442389 -0.02118522 0.0041369884 -0.0029536928 -0.050194807 -0.03423716 0.1019222 0.020162836

MLP_layers.0.bias f4 [32]
00000000: b236 9cbd df7e 6fbb baea c4bd 22ac 47bd
00000010: b9c2 a93a d991 8abb 8771 dc3d e9bb bb3c
00000020: 06c4 8fbd defb be3c 0872 67bd 1496 e83c
00000030: f49a f7bd 37fb d33d 6522 a73d 5a74 efbd
00000040: 67cd be3d 92f0 d53d dc90 0f3e 0ed9 92bc
00000050: f007 3a3d dbe2 07bd 85ce d33c 0df1 313c
00000060: 6a42 673d f859 ab3d d083 373d 58f2 80bd
00000070: 9fae afbd e0dd 073e 82a5 5e3d dcc9 86bd
-0.0762762 -0.0036544127 -0.09615083 -0.048748143 0.0012951709 -0.004228812 0.10763841 0.022916751
-0.070198104 0.023313459 -0.056505233 0.028391875 -0.12090102 0.1035065 0.08160857 -0.11692114
0.09316521 0.10446276 0.14020103 -0.017925765 0.045417726 -0.03317533 0.025855312 0.010860694
0.05645982 0.083667696 0.04480344 -0.062962234 -0.08578228 0.13268232 0.05435706 -0.0658147

MLP_layers.1.weight f4 [1, 32]
00000000: 18df 0e3d b623 77bd 52c0 b23d a2d1 c03d
00000010: 1d5a aebd 3ede 8bbc 7f6e 913d f0c3 2bbd
00000020: 5ae0 1d3d 885b a73d ffb3 16be 3830 283e
00000030: 2716 fabb 5d60 35be f4b2 a73d 590f 50bc
00000040: 1d95 afbd 09c7 ff3d 462a 0c3d 44ad 1abd
00000050: ad11 06be dc02 c73d a00f 8f3d f1dd 1dbe
00000060: c5fc 133d 5171 213d 81f2 293e 4186 12be
00000070: eb85 a53d 772d 343d f16a 1dbe 070f a23d
0.034880728 -0.06033679 0.087280884 0.09414984 -0.085132815 -0.017073747 0.071011536 -0.041934907
0.038544036 0.08171755 -0.147171 0.16424644 -0.0076320353 -0.17712541 0.081884295 -0.012698972
-0.08573363 0.12489135 0.034220003 -0.037762895 -0.1309268 0.09717342 0.06985402 -0.15416695
0.03612973 0.039414708 0.16596414 -0.14309026 0.080821835 0.04398867 -0.15372826 0.079130225
