SLIC_GAT/best5.pt (torch, 80373 bytes, 12 tensors)

GAT_layers.0.f.weight f4 [32, 124]
0	0x3e319170	0.17340636
1	0xbe0e5559	-0.13899745
2	0xbe33d2b6	-0.17560849
3	0xbe1c03de	-0.1523585
4	0xbdd97a68	-0.1061905
5	0xbe14891f	-0.14505433
6	0x3d2534c8	0.04033354
7	0x3e2ffbce	0.171859
8	0x3dfee228	0.1244548
9	0xbb0ec3bf	-0.0021784154
10	0x3de7e43c	0.11322829
11	0x3cae8530	0.021303743
12	0x3ce409da	0.027836729
13	0x3d9f86ff	0.0778942
14	0xbe069efd	-0.13146587
15	0x3c9ddfb8	0.019271716
16	0xbccc4c0f	-0.024938611
17	0xbd6e3d2c	-0.058163807
18	0x3e03c199	0.1286682
19	0xbd8f2c29	-0.06990845
20	0xbdd74015	-0.105102696
21	0xbd009e4c	-0.031400964
22	0xbe1b0c94	-0.15141517
23	0xbdd6eb69	-0.1049412
24	0x3d0ed825	0.0348741
25	0xbc0220ab	-0.007942359
26	0xbd8134a7	-0.06308871
27	0xbd3f4e51	-0.046705548
28	0xbde17b3c	-0.11009833
29	0x3c5d1b33	0.013495254
30	0x3d0c6ec7	0.034285333
31	0x3ce19eca	0.027541537
32	0xbda5c457	-0.080940895
33	0x3e02de25	0.12780054
34	0xbdd97520	-0.10618043
35	0x3e2a5f93	0.16638021
36	0xbc81a141	-0.015823962
37	0x3e267f4c	0.16259497
38	0x3cd6b3c1	0.02620876
39	0xbe0efe8f	-0.13964294
40	0xbe22300f	-0.15838645
41	0x3cd75d0d	0.026289487
42	0x3a6c9d37	0.00090261124
43	0x3d91b73a	0.07115026
44	0xbe473b4f	-0.19456218
45	0xbe42fcbb	-0.19041722
46	0xbddbbcba	-0.10729356
47	0xbe26c1b1	-0.16284825
48	0x3c9f8e20	0.01947695
49	0x3daa541c	0.08316824
50	0xbda6f8b3	-0.08152904
51	0xbdc32396	-0.09528272
52	0x3e35bddc	0.17748207
53	0xbda23ad0	-0.07921374
54	0x3e1f65b6	0.15566143
55	0x3e366e4b	0.17815511
56	0xbd89cdcc	-0.06728706
57	0xbdb9587e	-0.09050082
58	0xbdfa1470	-0.122109294
59	0xbe44840c	-0.19190997
60	0x3bad73b1	0.0052933325
61	0x3d643ce2	0.055722125
62	0xbc94369f	-0.018092452
63	0xbdb4cfd3	-0.08828702
64	0xbaa978a5	-0.0012929632
65	0x3d09ce54	0.033644035
66	0xbe012d30	-0.12614894
67	0x3ce93e3a	0.028472055
68	0x3da9b4ba	0.08286424
69	0xbdf9d128	-0.121980965
70	0x3d98c126	0.07458715
71	0x3dfe947b	0.12430664
72	0xbd551676	-0.052023374
73	0xbe18984b	-0.14901845
74	0xbd70c11c	-0.058777913
75	0xbe3bae69	-0.18328251
76	0x3db7f07d	0.089814164
77	0xbe40e9b0	-0.18839145
78	0x3e2690d3	0.16266184
79	0xbd7a165c	-0.06105648
80	0x3d94a2f1	0.07257641
81	0xbdadb345	-0.084814586
82	0xbd6425a8	-0.055699974
83	0xbd014213	-0.031557154
84	0x3dd10cfd	0.102075554
85	0xbcdc6186	-0.026901972
86	0x3df6ba36	0.12047236
87	0x3daad2ba	0.08340974
88	0x3dea558f	0.114421
89	0xbe41d829	-0.18930115
90	0x3d7d8342	0.061892755
91	0x3e016050	0.12634397
92	0xbe3c8644	-0.18410593
93	0x3d3fcd9f	0.046826955
94	0xbe3d360b	-0.18477647
95	0x3d9f8293	0.07788577
96	0xbe433aa8	-0.19065344
97	0x3cd85bd8	0.026410982
98	0xbd4b8d0a	-0.049695052
99	0xbc8a5610	-0.01688674
100	0xbc47e418	-0.012200378
101	0xbe3f169a	-0.18660966
102	0xbd4e61aa	-0.05038611
103	0xbdd908b8	-0.10597366
104	0xbe2786f7	-0.16360079
105	0x3e0ecf7e	0.1394634
106	0xbe2dfc2e	-0.1699073
107	0x3e243718	0.16036642
108	0xbe158284	-0.14600569
109	0x3dd15ec9	0.10223157
110	0x3de826a4	0.11335495
111	0x3d7e0ae2	0.062022097
112	0xbcd18052	-0.025573883
113	0xbdadeef1	-0.0849284
114	0x3e02098a	0.12698951
115	0x3dee6e1b	0.11642095
116	0xbd4d7c3f	-0.05016732
117	0x3e2c6d26	0.16838512
118	0xbe01758d	-0.12642498
119	0xbde303bd	-0.110846974
120	0xbd881534	-0.06644669
121	0xbdf80682	-0.12110616
122	0x3e239a59	0.15976848
123	0x3e15047f	0.14552496
124	0xbcae8601	-0.021304132
125	0xbdd36cc6	-0.10323481
126	0x3e372b14	0.17887527
127	0xbdf16e48	-0.117886126
128	0xbdde0cad	-0.108422615
129	0x3e16987f	0.1470661
130	0xbd97827c	-0.07397935
131	0xbdcd3257	-0.10019367
132	0x3df9e610	0.12202084
133	0x3e30babb	0.17258732
134	0x3dddfd84	0.1083937
135	0x3d4a1669	0.04933778
136	0x3dea9dd8	0.114558876
137	0x3d59d73e	0.053183787
138	0x3da98608	0.082775176
139	0xbc1db9ab	-0.009626786
140	0x3e31956f	0.1734216
141	0x3d898dc9	0.067164965
142	0xbe0a6c60	-0.13517904
143	0xbe36aa4c	-0.178384
144	0xbe10504d	-0.14093132
145	0x3e29edd6	0.16594633
146	0xbca55359	-0.020181345
147	0x3c1039d5	0.008802851
148	0xbdd81c33	-0.105522536
149	0x3cf2a3aa	0.029619057
150	0x3e25262e	0.16127846
151	0x3dd5c931	0.10438765
152	0xbe398bc7	-0.18119727
153	0x3dd3b334	0.10336915
154	0xbe34a89e	-0.17642447
155	0xbd09c577	-0.033635583
156	0xbe0c68b2	-0.13711813
157	0x3dbe9645	0.093060054
158	0xbdc5eddd	-0.096645094
159	0xbd4f3443	-0.05058695
160	0x3d436c84	0.04771091
161	0x3e2d9e47	0.1695491
162	0x3e44d53d	0.19221969
163	0x3d74d93e	0.05977749
164	0x3e3e0574	0.18556768
165	0xbe110723	-0.14162879
166	0x3cf4ad24	0.029867716
167	0xbe0604c1	-0.13087751
168	0xbda1841f	-0.07886528
169	0xbc22d336	-0.009938052
170	0xbe1db8fc	-0.15402597
171	0x3dda0a99	0.106465526
172	0xbcfbc5b4	-0.03073392
173	0xbdaea4ef	-0.08527552
174	0x3e456d7b	0.19280045
175	0xbced28a0	-0.028950036
176	0x3d8b0d62	0.06789662
177	0xbe162d41	-0.146657
178	0x3cb048a2	0.021519009
179	0xbdc3bbe0	-0.09557319
180	0x3d68f86c	0.05687754
181	0x3dcc8ad9	0.099874206
182	0x3dbc0b1d	0.09181807
183	0x3e118e5b	0.1421446
184	0xbcbd0036	-0.02307139
185	0x3db29448	0.08719689
186	0xbd4584bd	-0.048222292
187	0xbdb47db5	-0.08813039
188	0xbe093827	-0.13400327
189	0xbcc62e01	-0.024191858
190	0xbd0b4b00	-0.034007072
191	0x3d28d016	0.04121407
192	0xbdb45951	-0.08806098
193	0x3e3b4b64	0.18290478
194	0xbda7fc8d	-0.08202467
195	0xbbadc75f	-0.005303308
196	0x3c8bf13f	0.017082809
197	0xbe339c7b	-0.17540161
198	0x3dae2208	0.08502585
199	0xbde92eb5	-0.11385862
200	0xbd29718c	-0.041368052
201	0x3d840737	0.064466886
202	0xbe04458b	-0.12917154
203	0x3e17bc60	0.14817953
204	0xbda2c4f6	-0.079477236
205	0x3e07372a	0.13204637
206	0x3c613d49	0.013747522
207	0xbc04fb95	-0.008116622
208	0xbd246fcb	-0.040145677
209	0x3e2f8846	0.17141828
210	0xbca5a672	-0.020220969
211	0xbd702740	-0.05863118
212	0xbdcdc21e	-0.100467905
213	0x3e0419d0	0.12900472
214	0x3e27485f	0.16336201
215	0x3e339176	0.17535958
216	0x3e24d299	0.16095962
217	0x3de6c19f	0.11267399
218	0xbd722993	-0.05912168
219	0xbe2e6f14	-0.1703456
220	0x3d01215b	0.03152595
221	0x3e1fc9b8	0.15604293
222	0xbde351d9	-0.110995956
223	0x3a9486ff	0.0011331736
224	0x3e185497	0.14876018
225	0x3e0eaa93	0.13932256
226	0x3d892467	0.06696396
227	0x3e22d72d	0.15902396
228	0x3dd23dac	0.10265669
229	0x3d47ad08	0.048749
230	0xbdcd6c26	-0.10030393
231	0x3e0007ac	0.12502927
232	0xbe3f1684	-0.18660933
233	0xbc8a7f0d	-0.016906286
234	0xbdcbab9a	-0.0994484
235	0x3cebf389	0.02880265
236	0xbe21ab2f	-0.15787958
237	0x3e0e2787	0.13882266
238	0x3d08883c	0.03333305
239	0xbdd4f3b4	-0.10398045
240	0x3cd0918f	0.025460033
241	0xbd3cd9cc	-0.046106145
242	0x3be67cf5	0.007033939
243	0x3d998885	0.07496742
244	0x3e43fe81	0.19140054
245	0xbc0fc1cc	-0.008774232
246	0x3d2d4f73	0.042312097
247	0xbe3285b3	-0.17433815
248	0xbe324257	-0.17408119
249	0xbe0d8267	-0.13819276
250	0xbe2a2585	-0.16615875
251	0xbe363fb6	-0.17797741
252	0xbe086337	-0.13319097
253	0xbd7bfb38	-0.061518878
254	0x3da0cfa7	0.078521065
255	0xbe38132e	-0.17976066

GAT_layers.0.f.bias f4 [32]
0	0xbc68b5e0	-0.014203519
1	0xbc9f2269	-0.019425588
2	0xbd093bf8	-0.033504456
3	0x3d48d2ee	0.049029283
4	0xbd81729f	-0.0632069
5	0x3ccec380	0.025239706
6	0x3d1ab919	0.03777418
7	0x3d9803f9	0.07422633
8	0xbda925d9	-0.08259172
9	0x3d8a9248	0.06766182
10	0xbdb3e812	-0.08784498
11	0xbb827d55	-0.003982226
12	0xbdb30add	-0.087423064
13	0xbd2e3774	-0.042533353
14	0x3d01d3b4	0.031696036
15	0x3c9572c3	0.0182432
16	0xbd457233	-0.048204612
17	0xbd9dd548	-0.07706696
18	0x3d0ad54f	0.033894833
19	0x3d91f113	0.071260594
20	0xbb840ebf	-0.004030078
21	0x3d88562f	0.06657063
22	0x3c320da0	0.010867506
23	0x3d784cec	0.060620233
24	0x3d4a9c96	0.04946574
25	0xbc569390	-0.013096705
26	0xbdae1c01	-0.08501435
27	0xbd92f6a6	-0.07175951
28	0x3cfcaeb8	0.030845031
29	0x3d063b14	0.032771185
30	0xbcbcce51	-0.023047598
31	0x3db27f20	0.087156534

GAT_layers.0.w.weight f4 [1, 124]
0	0xbc829113	-0.015938317
1	0xbd584143	-0.052796613
2	0x3cdd2ac1	0.026997926
3	0xbd039028	-0.0321199
4	0xbc11607d	-0.008873102
5	0xbd75916a	-0.05995313
6	0x3e326e96	0.17424998
7	0xbe550f23	-0.20806555
8	0x3de4b853	0.111679696
9	0xbe1ad7a8	-0.15121329
10	0x3d15095a	0.03638587
11	0xbe1adf2c	-0.15124196
12	0xbe39697d	-0.18106647
13	0x3e082017	0.13293491
14	0x3e48bac7	0.196025
15	0xbdb6b858	-0.089218795
16	0xbda12911	-0.07869161
17	0xbd1ec99f	-0.0387665
18	0x3d5ade70	0.05343479
19	0x3e2151ec	0.15753907
20	0xbdfcc586	-0.12342362
21	0xbdf0db1f	-0.11760544
22	0xbd6ab3e2	-0.057300456
23	0xbe3721e9	-0.1788403
24	0xbdb00fd2	-0.085967675
25	0xbbdb95c4	-0.006701203
26	0x3dd6c509	0.104868
27	0xbe5e7f90	-0.21728349
28	0x3d30645d	0.043064464
29	0x3de8e460	0.11371684
30	0xbe16eba4	-0.14738327
31	0x3e40c5ee	0.18825504
32	0xbe275cd5	-0.16344006
33	0x3dcb1b5c	0.09917328
34	0xbda05b9f	-0.07829975
35	0xbe349ce6	-0.17637977
36	0x3db09ad3	0.086232804
37	0xbe05a547	-0.1305133
38	0xbe0f4902	-0.13992694
39	0xbe1ca58a	-0.15297523
40	0x3e4a0902	0.19729999
41	0xbade0413	-0.001693847
42	0xbdbf4ec3	-0.093411945
43	0x3e2e2dc0	0.1700964
44	0xbe0b46cf	-0.1360123
45	0x3e0a66f2	0.13515833
46	0x3e4f9680	0.20272255
47	0x3e1674a6	0.14692935
48	0x3e39fb21	0.18162204
49	0x3dd8a5e9	0.1057852
50	0x3c8f9ac1	0.017529847
51	0x3d001302	0.031268127
52	0x3e465f7a	0.19372359
53	0x3e070773	0.13186435
54	0xbe1d7184	-0.15375334
55	0xbdae50b6	-0.08511488
56	0x3de2a593	0.11066737
57	0x3dc7a3bc	0.09748027
58	0x3d0b9d73	0.034085702
59	0xbe0895b7	-0.13338362
60	0xbd1062bf	-0.03525042
61	0x3e14a0ae	0.1451442
62	0x3d5a3265	0.053270716
63	0x3daef3ac	0.085425705
64	0x3defb02f	0.11703526
65	0xbd930f21	-0.0718062
66	0x3bf14b8c	0.007363742
67	0xbd347d81	-0.044065002
68	0xbce4dafa	-0.027936447
69	0x3e36500c	0.17803973
70	0x3e59ef94	0.21282798
71	0xbd80ea97	-0.062947445
72	0x3e0f023f	0.139657
73	0x3b159797	0.002282595
74	0x3e145d14	0.14488631
75	0x3ccc31f7	0.024926169
76	0xbddf207b	-0.10894867
77	0x3dbd978a	0.092574194
78	0xbc60d0a4	-0.013721619
79	0x3d1d8042	0.038452394
80	0x3e0a494e	0.13504526
81	0x3c8e2c9e	0.01735526
82	0x3da3d4f9	0.07999606
83	0xbd10a329	-0.03531185
84	0xbd81c6ad	-0.063367225
85	0xbc918702	-0.017764572
86	0xbe08b5f6	-0.13350663
87	0xbdb684ae	-0.089120254
88	0xbd148797	-0.03626212
89	0x3dbc5f67	0.09197884
90	0x3e49f889	0.19723715
91	0x3e42d790	0.19027543
92	0xbdd8340f	-0.105568044
93	0xbe578b27	-0.21049176
94	0x3db7bba1	0.08971334
95	0x3e077fb8	0.13232315
96	0xbdf86c1b	-0.121299945
97	0xbdd4d352	-0.10391869
98	0xbe300383	-0.1718884
99	0x3ca64f3d	0.020301456
100	0xbe09145a	-0.1338667
101	0x3d9b841e	0.07593559
102	0x3dd2c2a8	0.10291034
103	0x3c90aa18	0.017659232
104	0x3dc9c1d3	0.09851422
105	0x3e185e64	0.14879757
106	0x3e225766	0.15853652
107	0x3e2b7d3e	0.16746995
108	0x3d67b1e3	0.05656613
109	0xbe4851e1	-0.19562484
110	0x3d63ebf8	0.05564496
111	0x3e5528a4	0.20816284
112	0x3d9aeca1	0.07564665
113	0x3d1616cd	0.03664284
114	0x3e5da00c	0.21643084
115	0x3dad4ef9	0.084623285
116	0x3e4d4565	0.20046003
117	0xbcf97169	-0.030449586
118	0x3d563189	0.052293334
119	0x3e3beea3	0.18352751
120	0x3e161974	0.14658147
121	0x3e21daf8	0.15806186
122	0x3c9d0388	0.019166723
123	0xbe2e541f	-0.17024277

GAT_layers.1.f.weight f4 [64, 64]
0	0xbdf7b527	-0.12095099
1	0xbcd3d56f	-0.025858609
2	0x3cf5ed13	0.030020272
3	0x3dd6be08	0.10485464
4	0xbe0d6e18	-0.13811529
5	0xbdc64ebc	-0.09682986
6	0xbd807f1c	-0.06274244
7	0x3cf6dbd2	0.030134115
8	0x3e465494	0.19368201
9	0xbdd5db22	-0.10442187
10	0xbdbcb714	-0.09214607
11	0xbcbd9352	-0.023141537
12	0xbe3d6441	-0.18495275
13	0xbdfd58b5	-0.12370435
14	0x3dad826a	0.0847214
15	0x3e1ff5a1	0.15621044
16	0xbd0f2ea2	-0.034956582
17	0xbe598c6f	-0.21244977
18	0xbe30b324	-0.17255837
19	0x3c6d6399	0.014489078
20	0x3dc93341	0.09824229
21	0xbba6c6d6	-0.005089621
22	0xbdbee0e3	-0.093202375
23	0x3d09c8b3	0.033638667
24	0xbcb13e89	-0.021636264
25	0x3dfeb9ca	0.1243778
26	0xbcac3efb	-0.021026125
27	0x3ddc257d	0.10749338
28	0xbd41d558	-0.0473226
29	0x3e18cb6f	0.14921354
30	0xbd9c6ea7	-0.07638293
31	0x3da68bb0	0.08132112
32	0xbb4dcdf4	-0.0031403275
33	0xbe5b9a0a	-0.2144548
34	0xbe177053	-0.14788942
35	0xbd950854	-0.07276979
36	0xbd63b82d	-0.055595566
37	0x3de8c808	0.11366278
38	0xbccd85db	-0.025088241
39	0xbe21cf8d	-0.1580183
40	0x3e06e725	0.13174112
41	0xbe3640f8	-0.17798221
42	0xbe3905e3	-0.18068652
43	0xbcd56751	-0.026050242
44	0x3e134eb8	0.14385498
45	0x3e49c21d	0.19702955
46	0x3d35a064	0.044342414
47	0x3e0ca062	0.13733056
48	0xbdfa86a2	-0.122327104
49	0xbe2f0ef6	-0.17095551
50	0x3e4ac584	0.19801909
51	0x3c1b9258	0.00949534
52	0x3e3353d8	0.17512453
53	0x3e115452	0.14192322
54	0xbe54ad5c	-0.20769256
55	0xbdc622b3	-0.09674587
56	0xbd955d86	-0.07293229
57	0xbd77479d	-0.06037103
58	0x3c5ed54f	0.013600661
59	0xbe1ec8ba	-0.15506259
60	0xbd86244d	-0.065498926
61	0x3d1bbcb2	0.03802175
62	0x3dca99e5	0.09892634
63	0x3ca42511	0.020037206
64	0xbe320b92	-0.17387226
65	0x3e1afbb6	0.15135083
66	0xbdfbaefa	-0.122892335
67	0x3d778396	0.060428225
68	0x3e1882b9	0.14893617
69	0x3d930226	0.07178144
70	0xbe146739	-0.14492501
71	0x3dfcbf92	0.12341227
72	0xbe43f213	-0.19135313
73	0xbe39918a	-0.18121925
74	0x3dea2a7e	0.11433886
75	0xbe261992	-0.16220692
76	0xbb296e73	-0.0025853186
77	0xbe59cc23	-0.21269278
78	0x3e1de409	0.1541902
79	0x3d8da771	0.069167025
80	0x3e15a217	0.14612614
81	0x3d96ee45	0.07369665
82	0xbe107dab	-0.14110439
83	0x3cb83fcd	0.02249136
84	0x3de2bdbb	0.110713445
85	0x3d16d13a	0.036820628
86	0xbe589e93	-0.21154241
87	0xbd228cdf	-0.039685126
88	0xbdb33c6f	-0.08751761
89	0xbd32804a	-0.043579377
90	0x3e182854	0.14859134
91	0xbdcc4499	-0.099740215
92	0xbd302137	-0.043000426
93	0xbe3bc08b	-0.18335168
94	0x3d9af780	0.07566738
95	0x3c08aa0f	0.008341326
96	0x3c31926e	0.010838134
97	0x3d9f5583	0.07779982
98	0x3e14af26	0.14519939
99	0xbdb829cd	-0.08992348
100	0x3d5b3d0c	0.053525016
101	0xbe1b6580	-0.15175438
102	0x3dad13e7	0.08451062
103	0xbdb61d5b	-0.08892318
104	0x3e3eee80	0.18645668
105	0xbe52f981	-0.2060299
106	0x3e520521	0.20509769
107	0xbd9f3447	-0.07773643
108	0x3d70c431	0.058780853
109	0x3d02a671	0.031897012
110	0xbdd2ae5f	-0.10287165
111	0x3df239a7	0.118274026
112	0x3cdf9908	0.02729465
113	0x3e315b5b	0.17320006
114	0x3e0a2180	0.13489342
115	0x3d8f8142	0.07007076
116	0xbda06757	-0.078322105
117	0xbe4ea365	-0.20179518
118	0x3aa84cc3	0.001284026
119	0xbdbc0d33	-0.09182205
120	0xbe5a1406	-0.21296701
121	0x3e3ad0f9	0.18243779
122	0xbc8363fe	-0.01603889
123	0xbe595919	-0.21225394
124	0xbe38104e	-0.1797497
125	0x3dc67af8	0.09691423
126	0xbe31176c	-0.17294091
127	0xbc8ed1a5	-0.01743395
128	0xbbe47436	-0.0069718612
129	0x3d303b06	0.04302504
130	0xbd1e795e	-0.038689964
131	0x3e02ed8f	0.12785934
132	0xbe4987cc	-0.19680709
133	0xbe15ed87	-0.1464139
134	0x3e537c8d	0.20652981
135	0xbbe1e084	-0.0068932194
136	0xbd0e248c	-0.034702823
137	0xbe440699	-0.19143142
138	0x3c1f801f	0.009735136
139	0xbddeda39	-0.108814664
140	0x3d995bdb	0.07488223
141	0x3e3aca6e	0.18241283
142	0x3e546884	0.20742995
143	0xbd0d130b	-0.03444199
144	0x3e12bc0a	0.14329544
145	0x3d973987	0.07384019
146	0xbe2b4985	-0.16727264
147	0xbdaa7ba6	-0.08324365
148	0xbd38bb1a	-0.04510031
149	0xbe0b8404	-0.13624579
150	0xbd49091a	-0.049080946
151	0xbdf622f0	-0.120183825
152	0xbe350edb	-0.17681448
153	0x3d8e5a10	0.06950772
154	0xbd03c4b1	-0.03217
155	0xbe4ef14f	-0.2020924
156	0x3e5c7424	0.21528679
157	0xbdc27e05	-0.094966926
158	0x3e2cf0c6	0.16888723
159	0x3e4c23b0	0.19935489
160	0x3e05bf72	0.13061312
161	0xbe26710b	-0.1625406
162	0x3d2e4ad2	0.042551823
163	0x3df6ec7b	0.12056824
164	0xbdf43d04	-0.119257
165	0x3d8075da	0.062724784
166	0xbd884a11	-0.06654752
167	0x3db4b44d	0.08823452
168	0x3e52d85c	0.20590347
169	0xbdf85fbf	-0.12127637
170	0xbdd6572a	-0.10465844
171	0xbdba5a4f	-0.09099256
172	0xbd9930b4	-0.074799925
173	0x3d27927d	0.040911186
174	0xbcd2848b	-0.025697967
175	0x3c942394	0.018083371
176	0xbd70a534	-0.0587513
177	0xbb900322	-0.0043949047
178	0x3e380655	0.17971165
179	0xbcffe523	-0.03123719
180	0xbcc31000	-0.02381134
181	0xbd918f15	-0.07107369
182	0x3d65221e	0.05594074
183	0x3e2c44e2	0.16823152
184	0xbe427fe3	-0.18994097
185	0xbc609e3f	-0.013709604
186	0xbe3945b5	-0.18092997
187	0x3d2d201f	0.04226696
188	0x3e48c658	0.19606912
189	0xbd1a29c0	-0.037637472
190	0xbe53dc11	-0.20689417
191	0x3e0f7e33	0.14012985
192	0x3e5478c4	0.20749193
193	0x3dc5a32a	0.09650262
194	0xbe0b5bf4	-0.13609296
195	0x3e0ca771	0.13735749
196	0xbc510b1e	-0.012758998
197	0x3e0e827d	0.13916965
198	0xbdf560b4	-0.11981335
199	0x3d202e7e	0.03910684
200	0x3db3c58d	0.08777914
201	0x3e1969c7	0.14981757
202	0x3e1cd0bb	0.15314
203	0x3d98febf	0.07470464
204	0xbd4f91b2	-0.050676055
205	0xbd069ece	-0.03286629
206	0xb981dcfc	-0.00024769444
207	0x3dcc9f55	0.09991328
208	0xbd770140	-0.060303926
209	0x3dee5300	0.11636925
210	0x3e54dd4a	0.2078754
211	0x3c6fece7	0.014643884
212	0x3e07e1b7	0.13269697
213	0xbdeed801	-0.11662293
214	0x3d384a70	0.044992864
215	0x3d8bddac	0.0682939
216	0xbe0a7c89	-0.13524069
217	0x3b07ef80	0.0020742118
218	0x3de50070	0.11181724
219	0x3e397332	0.1811035
220	0x3c1b1d98	0.009467505
221	0xbe02c2cb	-0.1276962
222	0x3e4279ec	0.18991822
223	0xbe482ad6	-0.1954759
224	0x3e42534b	0.18977086
225	0xbca94e5a	-0.020667244
226	0xbdb949b6	-0.09047262
227	0xbc829fd7	-0.015945358
228	0xbd7ab338	-0.061206073
229	0x3e52b68d	0.2057745
230	0xbcfe6337	-0.031053169
231	0xbd40fc65	-0.047115702
232	0xbd0f8b3e	-0.0350449
233	0xbe1ca466	-0.15297088
234	0x3d9e38f1	0.077257045
235	0xbe53071a	-0.20608178
236	0xbdd8c418	-0.10584277
237	0x3cca59a2	0.024700943
238	0x3d3ae510	0.045628607
239	0xbd8ee5a1	-0.06977392
240	0x3d9b64a2	0.075875536
241	0xbe2ac24a	-0.16675678
242	0xbd7cad4e	-0.061688714
243	0xbdb483a8	-0.08814174
244	0x3d6c6796	0.057715975
245	0x3e0da69f	0.13833092
246	0xbe2dc374	-0.1696909
247	0x3e419861	0.18905784
248	0xbd94ab99	-0.07259292
249	0xbd15a3d2	-0.036533184
250	0xbd0906cb	-0.033453744
251	0xbdac57ef	-0.084152095
252	0xbd85c406	-0.06531529
253	0x3b242704	0.002504767
254	0xbe38ef16	-0.18059954
255	0x3a1c1825	0.00059545255

GAT_layers.1.f.bias f4 [64]
0	0xbde25a54	-0.11052385
1	0x3dc59912	0.096483365
2	0x3dcf8178	0.10132116
3	0x3c576578	0.013146751
4	0xbd2392de	-0.039934985
5	0x3da2f9dc	0.07957813
6	0xbd8b2e1c	-0.06795904
7	0x3db68922	0.08912875
8	0xbdf2f69f	-0.118634455
9	0xbd50eda8	-0.051007897
10	0xbcef3b8d	-0.0292032
11	0x3dbe8198	0.09302062
12	0x3d44159f	0.047872182
13	0x3a01e700	0.0004955381
14	0x3dcfb103	0.10141184
15	0x3dcf723a	0.10129209
16	0xbdd0750b	-0.10178574
17	0x3d5941ad	0.05304115
18	0x3d6c3bb0	0.05767411
19	0x3dbc4010	0.091919065
20	0xbdfa3f76	-0.122191355
21	0xbd813740	-0.06309366
22	0xbbd42145	-0.0064736926
23	0xbda1e8ae	-0.07905708
24	0xbd81c67c	-0.06336686
25	0x3d9df179	0.07712073
26	0x3c9a46b0	0.018832535
27	0xbdfc5e94	-0.12322727
28	0xbd87abf8	-0.06624597
29	0xbdd72bd6	-0.10506408
30	0xbd9a08dd	-0.07521222
31	0x3dd0b631	0.10191
32	0xbdd9e7f9	-0.106399484
33	0x3de0cbf8	0.10976404
34	0xbddaf6b8	-0.10691589
35	0x3d125b68	0.035731703
36	0x3d9e169c	0.07719156
37	0x3db46aa5	0.08809403
38	0x3d8e4e60	0.069485426
39	0x3dfda9de	0.12385915
40	0xbdadba34	-0.08482781
41	0xbda70620	-0.08155465
42	0xbd871ab2	-0.065968886
43	0xbd63bfcc	-0.055602834
44	0xbddd17c8	-0.107955515
45	0x3d6581a1	0.056031827
46	0x3d0cc1ad	0.03436439
47	0x3d3f5a58	0.046717018
48	0xbd8f379c	-0.069930285
49	0xbd71bb30	-0.059016407
50	0xbdcff9b6	-0.101550505
51	0x3db3ffd2	0.08789028
52	0xbda3dfc4	-0.08001664
53	0xbde30c7a	-0.11086364
54	0xbd2c12ec	-0.042010233
55	0xbdf08aaf	-0.11745202
56	0x3df5e136	0.12005846
57	0xbdd3cce8	-0.10341817
58	0xbd0fde14	-0.0351239
59	0xbddcddbf	-0.10784482
60	0x3d4d9d44	0.05019881
61	0xbd52ef13	-0.05149753
62	0x3c1ea530	0.009682938
63	0x3dc4e7fa	0.096145585

GAT_layers.1.w.weight f4 [1, 64]
0	0xbd4fcb88	-0.050731212
1	0xbe044d80	-0.12920189
2	0x3de90c55	0.11379305
3	0xbd821c62	-0.0635307
4	0xbe953968	-0.2914536
5	0x3c96baa9	0.018399553
6	0xbdf11e34	-0.11773339
7	0x3e4e1c7c	0.20128053
8	0x3e3b273e	0.18276688
9	0xbdd22920	-0.1026175
10	0xbe7caba2	-0.24674848
11	0xbe6cde6f	-0.23131727
12	0x3e632859	0.2218336
13	0xbe10e389	-0.14149298
14	0x3e9b67ed	0.30352727
15	0x3e8da3b9	0.27663973
16	0xbe7d35cc	-0.24727553
17	0xbe109477	-0.14119135
18	0x3ded3734	0.11582795
19	0x3d53a6b5	0.051672656
20	0xbd9edd57	-0.07757061
21	0x39d5bd17	0.0004076741
22	0xbe818db1	-0.25303414
23	0x3df7f0e0	0.1210649
24	0xbe51fbb7	-0.20506178
25	0x3dfcb6a8	0.123395264
26	0x3e0f1088	0.1397115
27	0x3d1c8298	0.03821048
28	0x3d47ef0c	0.048811957
29	0x3e99c30e	0.30031627
30	0xbe3600b5	-0.17773707
31	0x3e4bd0ef	0.1990392
32	0x3c302e0b	0.010753165
33	0xbe58a7b9	-0.21157731
34	0x3e202f22	0.1564298
35	0x3e5d2fc1	0.21600248
36	0xbc1e7e57	-0.009673676
37	0xbe11dbe4	-0.14244038
38	0xbe0e434a	-0.13892856
39	0x3e2d76a2	0.16939786
40	0xbe0dca77	-0.13846765
41	0xbdbd8924	-0.09254673
42	0x3df783a2	0.12085654
43	0x3e8460f4	0.2585522
44	0x3ddfaab6	0.109212324
45	0x3bccf398	0.0062546246
46	0x3e4dd6d3	0.2010148
47	0xbe89cc84	-0.26913846
48	0xbe97deae	-0.2966208
49	0x3e98f7da	0.29876596
50	0x3df6e23a	0.12054868
51	0x3e310435	0.17286761
52	0x3db10821	0.086441286
53	0xbde60936	-0.112322256
54	0xbdbf1a03	-0.09331133
55	0x3e245baa	0.16050592
56	0xbe63dea2	-0.22252896
57	0xbd76e0dc	-0.060273036
58	0x3e7f4081	0.2492695
59	0xbd71c76a	-0.059028067
60	0xbe015c3a	-0.12632838
61	0xbe405065	-0.18780668
62	0xbe39c8c9	-0.18143
63	0x3d3543ce	0.044254117

GAT_layers.2.f.weight f4 [64, 128]
0	0xbd8def06	-0.06930356
1	0x3e16b6d1	0.14718176
2	0xbe2f32fe	-0.17109296
3	0x3cc38f6d	0.023872102
4	0xbd8ea893	-0.06965747
5	0x3d845ef4	0.06463423
6	0xbdef143c	-0.11673781
7	0xbcb037bc	-0.021510951
8	0x3e189a0d	0.14902516
9	0xbcce6f64	-0.0251996
10	0xbd366051	-0.04452545
11	0xbe2d5583	-0.16927151
12	0x3def7327	0.116918854
13	0xbdce21e6	-0.10065059
14	0x3e1283c0	0.14308071
15	0xbd1045ab	-0.03522269
16	0x3d89cbfd	0.06728361
17	0x3e2d1a3b	0.16904537
18	0xbd172a95	-0.036905844
19	0xbcc0984d	-0.023510123
20	0x3db44cbd	0.08803699
21	0x3d93e852	0.07222046
22	0xbcdce29f	-0.02696353
23	0xbddc11d9	-0.10745592
24	0xbe0341ec	-0.12818116
25	0xbdc1f69e	-0.094708666
26	0x3d78aa37	0.060709205
27	0xbe1fa059	-0.15588512
28	0x3e2a672a	0.16640916
29	0xbe274634	-0.16335374
30	0xbd10a65d	-0.035314906
31	0x3d35aaa2	0.04435218
32	0xbbf175af	-0.0073687653
33	0xbe2d0dd6	-0.16899809
34	0x3c9e72c8	0.019341841
35	0x3d5296e1	0.05141342
36	0xbd8740ee	-0.06604181
37	0x3e2e1ef7	0.17004
38	0xbd591ee1	-0.053007964
39	0xbdeadba4	-0.114676744
40	0x3d926596	0.07148282
41	0x3e113a82	0.14182475
42	0xbe07193a	-0.13193217
43	0x3dd3a8cf	0.10334932
44	0xbdffdfbe	-0.12493847
45	0x3de30307	0.11084562
46	0x3d9f8510	0.077890515
47	0xbe08f8c2	-0.13376144
48	0x3d5f8572	0.054570623
49	0xbda433e5	-0.080177106
50	0xbe1fb67e	-0.15596959
51	0xbddfaf1c	-0.10922071
52	0x3e032523	0.12807135
53	0xbdbf9515	-0.09354607
54	0xbd005f84	-0.03134109
55	0x3dd04ad0	0.10170519
56	0x3ddc84eb	0.107675396
57	0x3e2173f7	0.15766893
58	0x3d919a3d	0.07109497
59	0xbdb1625d	-0.086613394
60	0x396e07a2	0.00022700292
61	0x3df7bcb7	0.120965414
62	0x3e01a0aa	0.12658945
63	0x3e1a8fce	0.1509392
64	0xbe1ec7dc	-0.15505928
65	0x386e174b	5.6765315e-05
66	0x3d17eb83	0.037089836
67	0x3dd75b16	0.1051542
68	0x3e298920	0.16556215
69	0x3e281037	0.16412435
70	0x3e073f99	0.13207854
71	0xbcc821ff	-0.024430273
72	0xbd90c705	-0.0706921
73	0x3d9d0edd	0.076688506
74	0xbe18cbe0	-0.14921522
75	0x3d9d6472	0.07685174
76	0xbe025b40	-0.12730122
77	0x3c8e7404	0.017389305
78	0xbdb5a6a2	-0.08869673
79	0xbd6e935c	-0.058246
80	0x3d2e7322	0.042590268
81	0xbdda8899	-0.10670585
82	0xb80a6a89	-3.3000983e-05
83	0x3e2a9403	0.16658024
84	0xbd54ed7e	-0.051984303
85	0xbcdf3815	-0.027248422
86	0xbcde98d9	-0.027172493
87	0xbdc33f99	-0.09533615
88	0xbcfe744c	-0.031061314
89	0x3d08fd93	0.033444952
90	0xbd94b7d0	-0.07261622
91	0x3dbfedec	0.09371552
92	0x3e281619	0.1641468
93	0xbd5e51f1	-0.054277364
94	0x3d408ef5	0.047011334
95	0xbe1a54e6	-0.15071449
96	0x3e124223	0.14283042
97	0x3e2f106c	0.17096108
98	0x3d920098	0.071290195
99	0x3d0050de	0.03132712
100	0x3d629e44	0.055326715
101	0x3e276ef6	0.16350922
102	0xbd86c9ce	-0.0658146
103	0x3d35e27f	0.044405457
104	0x3d6ec4b2	0.058293052
105	0x3d4040f9	0.046936963
106	0xbe08879f	-0.13332985
107	0x3e336c98	0.17521894
108	0x3e07b5da	0.13252965
109	0xbdd91c6d	-0.10601125
110	0x3d805376	0.06265919
111	0xbc81924a	-0.015816826
112	0xbd9f05dc	-0.077647895
113	0x3e15fabd	0.1464643
114	0x3dbd5e23	0.09246471
115	0xbe1554d0	-0.14583135
116	0xbde007e5	-0.10939006
117	0x3e0c1051	0.13678099
118	0xbce53a87	-0.02798201
119	0xbde4b946	-0.111681506
120	0xbdfced2e	-0.12349926
121	0xbde76dc2	-0.113002315
122	0x3e150b54	0.14555103
123	0x3d95fa59	0.07323141
124	0x3dba99db	0.09111377
125	0xbe31e6f4	-0.17373258
126	0xbdbf7f67	-0.09350472
127	0x3c848adf	0.0161795
128	0x3db70f5e	0.08938478
129	0xbd866675	-0.06562511
130	0xbca1a11b	-0.019730141
131	0x3e1e3353	0.15449266
132	0xbe1529a3	-0.14566664
133	0x3e0accce	0.1355469
134	0x3c188fa1	0.009311588
135	0xbd38d8ab	-0.045128506
136	0xbda162de	-0.078801855
137	0x3e0bae7a	0.13640776
138	0x3d792ec1	0.060835604
139	0x3dfe0214	0.1240274
140	0xbd79de67	-0.061003115
141	0x3d196691	0.03745133
142	0xbc376252	-0.011192875
143	0xbd397364	-0.04527606
144	0xbdd3c498	-0.10340232
145	0xbd2e6407	-0.042575862
146	0x3d1486be	0.036261313
147	0x3ba07e9e	0.0048979064
148	0x3e055d74	0.13023931
149	0x3b2b31c5	0.0026122194
150	0x3de84647	0.11341529
151	0xbd9a4b70	-0.0753392
152	0xbcb6a3ef	-0.022294967
153	0x3dd400e3	0.10351732
154	0x3dc6c132	0.09704818
155	0x3de3ac91	0.11116899
156	0xbdd5bedf	-0.104367964
157	0x3e0ff22b	0.14057223
158	0xbe11045c	-0.14161819
159	0xbdc5092f	-0.09620892
160	0xbd1e59f2	-0.038659997
161	0x3ded3e2c	0.11584124
162	0xbdee2ed0	-0.116300225
163	0x3da74af3	0.08168592
164	0x3dd2415d	0.10266373
165	0x3dc4dda2	0.096125856
166	0x3e101404	0.14070135
167	0xbdbc4c19	-0.09194202
168	0xbda2c773	-0.07948198
169	0xbdbc54e7	-0.09195881
170	0x3d212606	0.039342903
171	0x3c900d4c	0.017584465
172	0xbe33c9e4	-0.17557484
173	0x3e1b1dc6	0.15148076
174	0x3dea0aef	0.11427867
175	0x3ddf1021	0.10891748
176	0xbe2631bc	-0.1622991
177	0xbc57df0c	-0.013175737
178	0x3a448f22	0.0007498135
179	0x3df677a2	0.12034537
180	0x3dd07318	0.101782024
181	0x3df7945b	0.120888434
182	0x3e2715d4	0.1631692
183	0x3dc219b2	0.09477557
184	0x3e23551e	0.15950438
185	0x3e1516c4	0.14559466
186	0x3a789906	0.00094832515
187	0xbe1d8038	-0.15380943
188	0xbe02f049	-0.12786974
189	0xbd54f621	-0.05199254
190	0xbe2af74a	-0.16695896
191	0x3d4addec	0.049528047
192	0x3e1a210e	0.15051672
193	0x3ba03610	0.0048892573
194	0x3e3243e3	0.17408709
195	0xbd2dc558	-0.04242453
196	0x3de4a60d	0.11164484
197	0xbc17942a	-0.009251634
198	0xbe05a6c9	-0.13051905
199	0x3d4387de	0.047736995
200	0xbc9ddbaf	-0.019269792
201	0xbdfb4db3	-0.12270679
202	0xbd9fe1c8	-0.07806736
203	0x3da61aa4	0.0811055
204	0xbe2a2dcc	-0.16619033
205	0x3e2eaa21	0.17057087
206	0x3e10d194	0.14142448
207	0x3d072204	0.032991424
208	0x3e1e819d	0.15479131
209	0xbd5733bf	-0.052539583
210	0x3e093aa9	0.13401283
211	0x3d522345	0.051303167
212	0xbe23274d	-0.15932961
213	0xbd0fa0ef	-0.035065588
214	0x3e115da2	0.14195874
215	0x3d1122ba	0.03543351
216	0x3dafd5ab	0.08585676
217	0xbe2ecbf9	-0.17069997
218	0x3af1dc64	0.0018452522
219	0xbc6cf99f	-0.014463811
220	0xbe0be83d	-0.1366281
221	0xbe24be1b	-0.16088144
222	0xbd44011c	-0.04785262
223	0x3b08c887	0.0020871477
224	0xbd8f6b0a	-0.07002838
225	0x3dfbedaf	0.12301194
226	0x3dba1ea2	0.09087874
227	0x3dad61ec	0.08465943
228	0x3e1869df	0.14884137
229	0x3bbd5266	0.005777645
230	0x3c190dc2	0.009341659
231	0x3ca52ac6	0.020161998
232	0xbd130d26	-0.03590121
233	0x3bb2e5e4	0.005459534
234	0xbba174b0	-0.0049272403
235	0x3deeb69c	0.11655924
236	0x3e184f96	0.1487411
237	0x3dd1a990	0.102374196
238	0x3cbcaebd	0.02303254
239	0x3d6619ba	0.05617688
240	0x3d703283	0.05864192
241	0x3d939ab4	0.07207242
242	0xbe1d21e5	-0.15344961
243	0xbde2b419	-0.11069507
244	0xbd091f7f	-0.033477303
245	0x3e2d712b	0.16937701
246	0xbda0f637	-0.07859462
247	0x3d5ce815	0.05393227
248	0x3dcf4d40	0.10122156
249	0xbd6e035e	-0.05810868
250	0xbe1dce2a	-0.15410677
251	0xbdb57b60	-0.088614225
252	0x3d33ea76	0.04392477
253	0xbda544c7	-0.08069759
254	0xbdbbfca3	-0.09179046
255	0x3dace03e	0.08441208

GAT_layers.2.f.bias f4 [64]
0	0x3ca107c8	0.01965703
1	0xbd817d17	-0.06322687
2	0x3d1fea81	0.039042
3	0x3dc53728	0.09629661
4	0xbdac3cbd	-0.084100224
5	0x3d2feba5	0.042949338
6	0x3d0efa05	0.034906406
7	0xbcce10a0	-0.025154412
8	0xbc96bc46	-0.018400323
9	0x3cdefec4	0.027221091
10	0x3d5e9954	0.054345444
11	0xbd3995d9	-0.04530892
12	0xbd8ae6ff	-0.0678234
13	0x3d1bad5c	0.038007125
14	0xbd5a7027	-0.053329613
15	0xbce13a81	-0.027493717
16	0x3d4b18f8	0.04958436
17	0x3db326c7	0.087476306
18	0x3c39583d	0.011312542
19	0xbbc8246d	-0.006107858
20	0xbc9c76c6	-0.019099604
21	0xbdaae195	-0.083438076
22	0xbc97ecf9	-0.018545615
23	0x3d173d32	0.036923595
24	0x3dbbf5d6	0.09177749
25	0x3d258eaf	0.040419277
26	0x3da2b4b7	0.07944625
27	0x3d09ca9c	0.03364049
28	0x3ccdac31	0.025106521
29	0x3cc67ab1	0.024228426
30	0xbda28e80	-0.07937336
31	0x3d826c46	0.06368308
32	0x3dc2c39f	0.09509968
33	0xba1cabce	-0.00059765286
34	0x3c8ad15d	0.016945535
35	0xbda1d487	-0.079018645
36	0xbd37dc9e	-0.04488813
37	0xbc9ec32f	-0.01938018
38	0xbd8191dd	-0.06326649
39	0x3cc22dc7	0.023703469
40	0xbd0077e1	-0.031364325
41	0x3d7be20a	0.061494865
42	0x3d925616	0.07145326
43	0xbbc975f6	-0.0061480952
44	0x3d5373db	0.05162416
45	0xbc0342e5	-0.008011554
46	0xbc1ea46a	-0.009682754
47	0x3d9f2d54	0.077723175
48	0x3c8b3f6d	0.016998017
49	0x3d01561f	0.031576272
50	0xbd6ba219	-0.057527635
51	0x3d6e1141	0.058121923
52	0x3cb241de	0.021759924
53	0xbbc89cc3	-0.006122203
54	0x3cdb2562	0.026751224
55	0xbce43555	-0.027857462
56	0x3d8c31cb	0.06845435
57	0xbc9451ce	-0.018105414
58	0x3d56fcc4	0.05248715
59	0x3d81315e	0.06308244
60	0xbd9e3111	-0.077242024
61	0x3cf6f89c	0.030147843
62	0xbd4dea20	-0.050272107
63	0x3d0daa0c	0.034585997

GAT_layers.2.w.weight f4 [1, 128]
0	0xbd395275	-0.045244653
1	0x3d958b09	0.073019095
2	0x3d3a4fb4	0.045486167
3	0x3e1df925	0.15427072
4	0xbd7e5c39	-0.06209967
5	0xbd825b5f	-0.06365084
6	0xbdc12d15	-0.09432427
7	0x3c9ae720	0.018909037
8	0xbe195730	-0.14974666
9	0xbe269b9e	-0.16270301
10	0xbe51682b	-0.20449893
11	0x3e2c00b8	0.16797149
12	0xbe29be2f	-0.16576456
13	0x3d718c1d	0.058971513
14	0xbe53e5c8	-0.20693123
15	0x3e000184	0.12500578
16	0x3db4fa4c	0.08836803
17	0x3da4727b	0.08029648
18	0x3dd70a1d	0.10499976
19	0xbe45d96e	-0.19321224
20	0xbc734f56	-0.014850458
21	0x3e04d240	0.12970829
22	0x3e098215	0.13428529
23	0x3e4e5901	0.2015114
24	0xbe502ee5	-0.20330389
25	0x3dcc55ae	0.099772796
26	0x3e244c4a	0.16044727
27	0x3cfe16d5	0.031016747
28	0xbe160f61	-0.14654304
29	0xbe1bbbc6	-0.15208349
30	0x3d460c69	0.04835168
31	0xbe1dc773	-0.15408115
32	0xbe436b45	-0.19083889
33	0x3d98de78	0.074643075
34	0xbdaaf15b	-0.08346816
35	0xbd33e058	-0.043915123
36	0x3d07849b	0.033085447
37	0x3dd80714	0.10548225
38	0xbe3ddba6	-0.1854082
39	0x3cd81133	0.026375389
40	0xbe4ee3ae	-0.2020404
41	0xbe50fbb0	-0.20408511
42	0x3e49c25b	0.19703047
43	0x3df1b9ff	0.11803054
44	0x3d8a18f3	0.0674304
45	0xbda69d7f	-0.08135509
46	0xbe326eaa	-0.17425027
47	0x3db5736f	0.08859908
48	0x3d154c24	0.036449566
49	0x3e1666b7	0.1468762
50	0x3da44576	0.08021061
51	0xbe4af075	-0.1981829
52	0x3d795ae6	0.060877703
53	0x3e5725d0	0.21010518
54	0xbe497f5f	-0.19677494
55	0x3e44ca5a	0.19217816
56	0x3d8a7e31	0.0676235
57	0xbc997413	-0.018732106
58	0xbd3bd187	-0.045854118
59	0x3e207601	0.15670015
60	0x3cf1017e	0.029419657
61	0xbd6af702	-0.05736447
62	0x3e1c925c	0.15290207
63	0x3e36d1d8	0.17853487
64	0xbe0e2012	-0.13879421
65	0xbe31ef8c	-0.17376536
66	0x3e08a04f	0.13342403
67	0x3d95063d	0.072765805
68	0x3e19d613	0.15023069
69	0xbe3a112b	-0.18170612
70	0x3dbdbf89	0.09265048
71	0x3e570540	0.20998096
72	0x3da4b16e	0.080416545
73	0x3e547817	0.20748936
74	0x3daece97	0.08535498
75	0x3e332519	0.1749462
76	0xbd983cda	-0.074334815
77	0xbe495846	-0.1966258
78	0x3b7a4e52	0.0038193655
79	0x3dac3ee3	0.08410432
80	0xbd68bb85	-0.056819458
81	0xbdd903e8	-0.10596448
82	0x3db3ff70	0.08788955
83	0xbe20b4c0	-0.1569395
84	0xbdcbf359	-0.09958524
85	0xbddc3a77	-0.10753339
86	0x3e22369a	0.15841141
87	0x3c8cd827	0.017192913
88	0x3c6b74a4	0.014371071
89	0x3d111061	0.03541601
90	0xbdf0ea9b	-0.117634974
91	0xbe095441	-0.13411047
92	0xbe26fa23	-0.16306357
93	0xbe09d32e	-0.13459465
94	0x3bd1d6a0	0.006403759
95	0x3e1ef37d	0.15522571
96	0xbe3b6486	-0.18300065
97	0xbd9375a4	-0.072001725
98	0xbe53d62b	-0.20687167
99	0xbe58d651	-0.21175505
100	0x3de74fb8	0.11294502
101	0xbe5f09a1	-0.21781017
102	0xbe1e5fff	-0.15466307
103	0xbe1f10ee	-0.15533802
104	0x3a4dc754	0.00078498316
105	0x3c55ea03	0.013056281
106	0xbe0a488b	-0.13504235
107	0xbdb97a3f	-0.0905652
108	0x3a8d4a90	0.0010779668
109	0x3cc9df58	0.024642631
110	0xbdfb3f6b	-0.122679554
111	0xbd2b6261	-0.04184187
112	0x3e5b4db6	0.21416363
113	0x3d2d7232	0.042345233
114	0x3dd1f9e2	0.102527395
115	0x3d2693ab	0.04066817
116	0x3e138348	0.14405549
117	0x3d62371e	0.055228345
118	0x3c69b0c3	0.014263335
119	0xba5af208	-0.00083521055
120	0x3dcd54ef	0.100259654
121	0x3d8dee3a	0.06930204
122	0x3dfc5f6d	0.123228885
123	0xbca8333d	-0.020532245
124	0x3cc912bb	0.024545064
125	0xbe150681	-0.14553262
126	0x3e2eebc0	0.17082119
127	0x3d76c57b	0.060246926

MLP_layers.0.weight f4 [32, 64]
0	0x3dce2118	0.10064906
1	0x3d89640c	0.067085356
2	0xbd9125f2	-0.070873156
3	0xbdff44c0	-0.12464285
4	0x3d885796	0.06657331
5	0x3d1cbb16	0.038264357
6	0x3d33abcc	0.04386501
7	0xbc51192a	-0.012762347
8	0x3c23cbd1	0.009997324
9	0xbd097cbe	-0.03356623
10	0xbd8b729f	-0.068089716
11	0x3dcbc45d	0.09949563
12	0xbc00de03	-0.007865432
13	0x3dfbe252	0.122990265
14	0x3d657d15	0.05602749
15	0x3ced95d8	0.029002115
16	0x3bd3a88b	0.006459301
17	0xbda5667f	-0.0807619
18	0x3dda1be5	0.10649852
19	0x3d99480c	0.07484445
20	0xbcdcb43b	-0.02694141
21	0xbd99562f	-0.07487141
22	0x3b3a7ed9	0.0028456955
23	0xbd6579c8	-0.056024343
24	0xbd68afd8	-0.056808323
25	0xbdc373cd	-0.095435716
26	0xbd9e9ac7	-0.07744365
27	0x3cd47dca	0.025938887
28	0x3d60fa72	0.054926343
29	0xbd953a14	-0.07286468
30	0xbdc0001e	-0.09375022
31	0xbd3750c5	-0.044754762
32	0x3dccf395	0.10007397
33	0x3d53cfa8	0.05171171
34	0x3c970828	0.018436506
35	0x3d998e91	0.074978955
36	0xbd02b670	-0.031912267
37	0xbdfc4919	-0.1231863
38	0xbd8499b6	-0.064746305
39	0x3caba73a	0.020953763
40	0xbdfee82c	-0.12446627
41	0x3d009372	0.031390615
42	0x3d3ec52c	0.046574757
43	0xbda3b21a	-0.079929546
44	0xbda48eab	-0.08035024
45	0xbde1fea4	-0.11034897
46	0x3da4a984	0.08040145
47	0x3c20c7bd	0.009813246
48	0x3ddd6243	0.108097576
49	0xbdbf8584	-0.09351638
50	0xbd14a690	-0.03629166
51	0x3d1b280b	0.037879985
52	0x3d0d66fa	0.034522034
53	0xbdbae260	-0.09125209
54	0xbd31b729	-0.043387566
55	0xbc3471f7	-0.011013499
56	0x3d4d0d58	0.050061554
57	0xbd3d707b	-0.046249848
58	0x3ddbac01	0.107261665
59	0x3d0bc0fe	0.0341196
60	0x3da8dc3c	0.082451314
61	0x3de6b4e8	0.11264974
62	0xbb2f0540	-0.002670601
63	0x3da3627b	0.07977768
64	0xbd6b5d20	-0.057461858
65	0x3daea5d9	0.08527727
66	0xbd055bff	-0.032558437
67	0x3de5451a	0.11194821
68	0xbde9e5ee	-0.11420809
69	0xbdbe07ba	-0.092788175
70	0x3ca1a211	0.0197306
71	0x3d59698f	0.053079184
72	0x3ddff404	0.10935214
73	0x3de90b69	0.113791294
74	0x3db52945	0.08845762
75	0x3d02422c	0.031801388
76	0x3c45fdfd	0.012084481
77	0x3dd390cf	0.103303544
78	0xbd5707bd	-0.052497614
79	0xbd068258	-0.03283915
80	0xbc77f1d4	-0.01513334
81	0xbdf2c7f5	-0.11854545
82	0x3c803fce	0.015655424
83	0xbde02212	-0.109439984
84	0x3b712b4f	0.0036799496
85	0xbdbf0d5c	-0.0932872
86	0xbd98d158	-0.07461804
87	0x3bbc1890	0.0057402328
88	0x3d6d1f88	0.0578914
89	0x3ced25c3	0.02894867
90	0x3d9152e7	0.070958905
91	0x3d029b78	0.031886548
92	0xbcbf6ced	-0.02336737
93	0xbdaf61a5	-0.08563546
94	0x3d00ab75	0.031413514
95	0xbd468e99	-0.048475835
96	0xbd80ffdb	-0.062988006
97	0x3d859742	0.06522991
98	0x3d1ea811	0.0387345
99	0xbcd425a5	-0.025896857
100	0x3c9b8a70	0.01898691
101	0x3d0dc567	0.034612086
102	0x3d504224	0.050844327
103	0x3dacfb22	0.08446337
104	0xbdb8bce9	-0.09020407
105	0xbc8cfd15	-0.017210523
106	0xbd76c482	-0.060246
107	0xbcd234c8	-0.025659934
108	0x3d8f4620	0.06995797
109	0x3c97c167	0.018524839
110	0x3db4e144	0.088320285
111	0x3d225adb	0.039637428
112	0xbcb2cd29	-0.021826344
113	0xbdd60ecb	-0.1045204
114	0x3dc7d5ca	0.09757574
115	0xbbd2cef2	-0.006433361
116	0x3de521ac	0.11188063
117	0xbdbc717c	-0.09201333
118	0xbc0b69b8	-0.008509092
119	0x3dbf45f4	0.093395144
120	0xbd8ce034	-0.06878701
121	0xbdc7070b	-0.0971814
122	0xbdaab980	-0.083361626
123	0x3d3b9a2e	0.045801334
124	0x3d71f238	0.05906889
125	0x3d620176	0.055177175
126	0xbccea3b8	-0.025224552
127	0xbdef4701	-0.11683465
128	0x3ceaccc9	0.028662102
129	0xbc1b8c6e	-0.00949393
130	0xbc8e7772	-0.01739094
131	0x3d8ac7bc	0.067763776
132	0xbc8d5a60	-0.017255008
133	0xba7b6b6a	-0.0009590896
134	0x3bd505db	0.006500942
135	0x3dccc56a	0.09998591
136	0x3da13f54	0.07873407
137	0xbe02d696	-0.1277717
138	0x3dcb5a0d	0.09929285
139	0x3cf65ee3	0.030074542
140	0x3d8ab9b9	0.06773705
141	0x3d2e3d1c	0.042538747
142	0xbdca878e	-0.09889136
143	0x3c9dbdf8	0.019255623
144	0xbde45004	-0.11148074
145	0x3d07b253	0.033129048
146	0x3d0241df	0.0318011
147	0x3d3b1b70	0.045680463
148	0x3d32791c	0.04357253
149	0xbdbba61a	-0.09162541
150	0x3c6a01f5	0.014282693
151	0xbca19fbc	-0.019729488
152	0xbd95a335	-0.0730652
153	0x3d6e6ca9	0.058209095
154	0x3cc79542	0.024363164
155	0xbdf85646	-0.1212583
156	0x3d95e476	0.07318966
157	0xbe000aee	-0.1250417
158	0x3d85d15c	0.06534073
159	0xbd87351d	-0.066019274
160	0xbd80f9bf	-0.06297635
161	0xbd2e5274	-0.042559102
162	0x3dc53292	0.09628786
163	0x3b8bee97	0.0042703855
164	0x3d80ac28	0.06282836
165	0xbd333775	-0.04375406
166	0xbcb770d0	-0.02239266
167	0xbdaaf1da	-0.08346911
168	0x3de9e781	0.11421109
169	0xbdaa5ad7	-0.083181076
170	0xbde3efda	-0.111297324
171	0xbdc79730	-0.097456336
172	0xbd8da726	-0.06916647
173	0x3dd84467	0.10559922
174	0xbd71b880	-0.059013844
175	0x3afd5d85	0.0019330239
176	0x3deb96a6	0.11503343
177	0x3d82124e	0.063511476
178	0x3dccd54e	0.10001622
179	0xbd5afebb	-0.053465586
180	0xbd81dc96	-0.063409016
181	0x3d805432	0.06266059
182	0x3da81acb	0.08208235
183	0x3b31c2cb	0.0027124162
184	0x3d39f03b	0.045395117
185	0x3dc04429	0.093880005
186	0x3dc5a2da	0.09650202
187	0xbdf71e62	-0.12066342
188	0x3c1de7d0	0.009637788
189	0xbdc17fcc	-0.094482034
190	0x3cefc588	0.029268995
191	0x3c9e5f96	0.019332688
192	0xbdae9da8	-0.08526164
193	0xbdbd3bb8	-0.09239906
194	0xbd7d26a4	-0.06180443
195	0xbd711ca3	-0.0588652
196	0x3d6bdb40	0.05758214
197	0xbde7657a	-0.11298652
198	0xbceddc70	-0.029035777
199	0x3de8b03c	0.11361739
200	0xbdbf7cd0	-0.09349978
201	0x3dc122e2	0.094304815
202	0xbd8db63e	-0.069195256
203	0xbdeda960	-0.11604571
204	0xbd669dc0	-0.056302786
205	0x3dcff992	0.10155024
206	0x3d758125	0.059937615
207	0x3ba727e0	0.005101189
208	0xbd16e520	-0.036839604
209	0xbd9f44f0	-0.07776821
210	0x3d30ed51	0.043195073
211	0xbd0d0284	-0.034426227
212	0x3df763f6	0.12079613
213	0xbcf7a0bf	-0.030228017
214	0x3dc78dc4	0.097438365
215	0x3dc01314	0.09378639
216	0x3b9550a0	0.0045567304
217	0xbd96621a	-0.0734293
218	0x3db70d1c	0.08938047
219	0x3c04d490	0.0081073195
220	0x3d8528de	0.065019354
221	0xbdbe8e5e	-0.09304498
222	0x3dbff75a	0.093733504
223	0xbde48b6e	-0.111594066
224	0xbcc7e0df	-0.02439922
225	0xbb987000	-0.0046520233
226	0xbc524b0c	-0.012835275
227	0xbdf29dac	-0.1184648
228	0xbd8e35a8	-0.06943828
229	0x3d9bf7b8	0.07615608
230	0xbd91000c	-0.07080087
231	0xbd7a637f	-0.061130043
232	0x3dc4ee1e	0.0961573
233	0x3cc899c0	0.024487376
234	0xbb0d05f6	-0.0021518446
235	0xbdeedd56	-0.1166331
236	0xbd2a3973	-0.041558694
237	0x3da1ae66	0.07894592
238	0x3def3012	0.116790906
239	0xbdfaad70	-0.12240112
240	0x3d843904	0.06456187
241	0xbda17ee6	-0.07885532
242	0xbc9ca7f8	-0.019123062
243	0xbc3130e0	-0.010814875
244	0xbd5a560b	-0.053304713
245	0xbd695120	-0.056962132
246	0xbdebd640	-0.11515474
247	0xbd21f077	-0.039535966
248	0x3cda0ff9	0.026618944
249	0x3caaf6d1	0.020869644
250	0xbd2d26d0	-0.042273343
251	0x3d1adcd9	0.037808273
252	0x3daa7b12	0.08324255
253	0xbb4b47c0	-0.0031018108
254	0xbd7cab00	-0.061686516
255	0xbdfae9c6	-0.1225162

MLP_layers.0.bias f4 [32]
0	0xbd5cd48c	-0.053913638
1	0xbdc95545	-0.09830717
2	0xbe030eef	-0.12798665
3	0xbcd38715	-0.025821248
4	0x3dfad361	0.122473486
5	0x3b29e377	0.0025922933
6	0xbdc6ba55	-0.09703509
7	0x3d5e42a1	0.05426276
8	0x3d5d906d	0.054092813
9	0x3e055b96	0.13023219
10	0x3d76cb49	0.06025246
11	0x3dfdc2f2	0.123906985
12	0x3cabdee2	0.020980302
13	0xbd84e0a6	-0.06488161
14	0x3d8ba87c	0.06819245
15	0xbdce844d	-0.10083828
16	0x3cebff9d	0.02880841
17	0x3d23e0b0	0.0400092
18	0xbdb58932	-0.088640586
19	0xbd63bd4e	-0.055600457
20	0xbd63b834	-0.05559559
21	0x3db05d6e	0.0861157
22	0xbdc1dde6	-0.09466152
23	0xbd19d738	-0.037558764
24	0xbc216f60	-0.009853214
25	0x3cd750a8	0.026283577
26	0xbdcbe1f4	-0.099552065
27	0xbe022173	-0.12708072
28	0x3dd40cae	0.10353981
29	0x3e05c9f9	0.13065328
30	0xbd804dbc	-0.06264827
31	0xbdf75a51	-0.12077773

MLP_layers.1.weight f4 [1, 32]
0	0x3dfe5e81	0.12420369
1	0x3d967a09	0.07347495
2	0xba51dd1f	-0.0008005667
3	0x3e27258f	0.16322921
4	0x3d133f64	0.035949126
5	0xbe06faa4	-0.1318155
6	0xbc887914	-0.016659297
7	0xbdbdc1f6	-0.09265511
8	0xbe1c064e	-0.1523678
9	0x3e0719f4	0.13193494
10	0xbdd73377	-0.10507863
11	0x3de03109	0.10946853
12	0xbdb9bf91	-0.090697415
13	0xbd30ce10	-0.043165267
14	0x3c9b8d20	0.018988192
15	0xbe19871e	-0.1499295
16	0x3dac471c	0.084120005
17	0xbb6dfe05	-0.0036314738
18	0xbd568ede	-0.052382343
19	0x3d720d4c	0.059094712
20	0x3d91907c	0.07107636
21	0xbd8f3b3b	-0.06993719
22	0xbdb81cf4	-0.08989897
23	0x3de85e76	0.11346142
24	0x3e16e55d	0.14735933
25	0xbdc12480	-0.0943079
26	0x3db455d5	0.08805434
27	0x3dc9c1ea	0.09851439
28	0x3bc0a04b	0.0058784834
29	0x3dd46e4d	0.10372601
30	0x3e2eb683	0.1706181
31	0x3e24239d	0.1602921
