SLIC_GAT/best0.pt (torch, 80373 bytes, 12 tensors)

GAT_layers.0.f.weight f4 [32, 124]
000000 b4 77 1d be 4b 0a e6 bc 95 e9 d0 bd 72 f2 8b bd
       -0.15377694 -0.02808108 -0.10200802 -0.06833352
000010 3e 2f 0d be 8a b1 22 be a9 66 02 3e 87 ab 14 3e
       -0.13787553 -0.15888038 0.12734474 0.14518557
000020 26 2e 1c 3e 55 7c 8a 3d 3f 3b b3 3d 11 3a b5 bc
       0.15251979 0.06761996 0.08751535 -0.022122415
000030 70 a4 a0 bd 9e 94 34 3e 60 02 36 3e cc 89 7f bd
       -0.07843864 0.17634818 0.17774343 -0.062387273
000040 f8 a8 00 3e fc 3d 34 be 43 82 c8 bb 44 8b 2e 3e
       0.12564456 -0.1760177 -0.006119044 0.17045313
000050 27 f2 36 bd a1 c1 82 bd 64 4a 07 3e 07 ed f0 3d
       -0.04466453 -0.06384588 0.13211972 0.117639594
000060 fd a9 50 bd a1 22 0e 3d 78 fd 56 3d 13 54 03 3e
       -0.050943363 0.034700993 0.05248782 0.1282504
000070 e1 13 48 be 1a f8 ab 3c 82 28 39 be b2 1f 42 be
       -0.19538833 0.020992327 -0.18081859 -0.18957403
000080 5a 42 db 3d 47 65 2a 3e 2b 32 21 3e d5 a3 e0 bd
       0.10706015 0.16640197 0.15741794 -0.109687485
000090 59 0a ab 3d df ca 8c 3d 8c 28 04 be c2 79 2e be
       0.08351583 0.06874632 -0.12906092 -0.17038634
0000a0 46 1e f7 3d ff 9d 43 3e ba c4 c7 3d b5 fb 6a bd
       0.12066321 0.1910324 0.097543195 -0.057368953
0000b0 1e bf e5 bd 39 ca 76 bd 81 1b 46 be 76 ef 41 bd
       -0.11218093 -0.06025145 -0.1934643 -0.04734751
0000c0 96 38 31 3e 87 a1 8e 3d 9c 4b ae bd 73 c1 2d be
       0.17306742 0.06964403 -0.08510515 -0.16968326
0000d0 bf f4 45 be 93 3d 74 bd 63 c6 96 bd 00 d8 41 be
       -0.19331644 -0.059629034 -0.07362058 -0.18930054
0000e0 2c cb 92 3d 4c 33 c5 3d ef 63 a1 3d 2f 7f 8e 3d
       0.07167658 0.09628925 0.07880389 0.06957852
0000f0 b0 6b eb 3d 58 d9 27 3e 0f 72 96 bd c7 64 4e 3d
       0.11495149 0.16391504 -0.07345974 0.050389078
000100 a3 69 2f be 80 09 9c 3d ad cb f2 3c 69 5d 2f be
       -0.17130141 0.076189995 0.029638136 -0.17125477
000110 b3 00 db 3b af 38 02 be a0 d6 38 be c3 92 2c bd
       0.006683433 -0.12716936 -0.18050623 -0.04213215
000120 6e a8 d4 3d 3f c9 fb 3d 57 a8 1d 3e 11 0d 93 3d
       0.10383688 0.12294244 0.15396248 0.071802266
000130 a5 63 5c bd 90 6e 41 3e 40 01 ee bd e5 11 c5 3c
       -0.053805966 0.18889832 -0.11621332 0.024056384
000140 5b 5c 2a 3d 3f d1 3e 3d 54 cd 7e bd 3c 37 fb 3d
       0.041591983 0.04658627 -0.062207535 0.122663945
000150 85 62 5c bd 6c 9e 77 3c df 43 2a 3e 05 96 fd bc
       -0.053804893 0.015113454 0.16627453 -0.030955324
000160 a1 bd 7c bd 18 a8 28 be 0f 4c 35 bb 08 2d ad bd
       -0.06170428 -0.16470373 -0.0027663743 -0.08455855
000170 87 e2 e7 3d 64 11 d1 3d e1 00 2c 3d 9a 00 18 3d
       0.113225035 0.10208395 0.041993026 0.03710995
000180 21 47 33 3e c0 06 77 bd 34 73 f7 bd ac 35 2f 3d
       0.17507602 -0.06030917 -0.1208252 0.042775795
000190 72 81 17 be 22 5d 87 bb b4 27 06 be 3d d9 05 be
       -0.14795473 -0.0041309753 -0.13101083 -0.13071151
0001a0 73 d8 42 bd e6 d3 bf bd b0 03 48 be 4c 5d 66 bb
       -0.047569703 -0.09366588 -0.19532657 -0.0035150824
0001b0 bb bf 41 3d d9 b8 38 bd 51 a2 bf bd 3e 2c fb bd
       0.04730199 -0.04509816 -0.09357131 -0.12264298
0001c0 c9 4e 06 3e 6e 3b 40 be 65 27 21 be ce eb 89 bd
       0.13115992 -0.1877267 -0.15737684 -0.06734429
0001d0 ac ca 33 3e a0 c5 30 3d 59 0f 32 be 30 18 2d 3e
       0.17557782 0.04315722 -0.17388667 0.16903758
0001e0 ec b2 cd 3d 80 8b a6 3d 8c 48 e6 3d de 94 b0 bc
       0.10043892 0.08132076 0.11244306 -0.02155536
0001f0 52 1c 27 be 22 f9 6f bd 7d 5c c4 39 cd a5 2a bd
       -0.16319397 -0.0585872 0.00037452942 -0.041662026
000200 13 a3 18 3e 51 87 3c 3e 9c 8f 28 3e 7e 31 97 bd
       0.14905958 0.18410994 0.16461033 -0.07382487
000210 08 16 91 bd 2e 7b 9b bd ba dc 05 be c5 c2 f8 3d
       -0.0708428 -0.07591854 -0.13072482 0.12146524
000220 b3 4c d7 bd 15 b6 82 bd 45 9a 02 bb a4 82 30 be
       -0.10512676 -0.06382386 -0.0019928378 -0.17237335
000230 a6 8f b8 3d 39 86 46 be f4 68 cb bb e7 78 f2 bd
       0.09011774 -0.1938714 -0.0062075797 -0.118394665
000240 ca d5 dd bc e6 02 2d 3e 58 34 1c 3e e3 80 24 3e
       -0.027079482 0.16895637 0.15254343 0.16064791
000250 25 12 b3 3d 11 ab 71 3d 3d 98 2e 3e 83 b1 b7 3c
       0.08743695 0.059001032 0.17050262 0.022423511
000260 0b 50 a2 3d 66 d2 08 3e 02 61 45 be 20 75 dc 3d
       0.07925423 0.1336151 -0.19275287 0.10764527
000270 3d 72 3c 3e 87 d6 5d ba 25 76 0d be 32 5b 00 be
       0.18402953 -0.0008462448 -0.138146 -0.12534788
000280 70 28 bc 3d 5c 51 92 3d 0c bf 85 3d 74 be 26 3e
       0.091874 0.07144424 0.0653058 0.1628359
000290 40 a1 a2 3d df cf 02 3e 84 ff 07 3e ca 19 67 bd
       0.07940912 0.12774609 0.13281065 -0.05642108
0002a0 83 d8 f0 3d a6 20 08 3e 93 9e 41 3e 18 a2 c1 3d
       0.11760046 0.13293704 0.18908148 0.09454745
0002b0 82 60 22 3d f0 d8 12 be 6e ed 14 3e 0f 72 f1 bd
       0.03964282 -0.14340568 0.14543697 -0.11789333
0002c0 86 d2 0a bd 6e 9b b8 bd 5d 03 1c be bc 05 90 bd
       -0.033892177 -0.09014021 -0.15235658 -0.07032344
0002d0 77 96 5c 3c 24 e4 c2 bb 0b 6e 41 be c5 47 85 3d
       0.013463608 -0.0059476066 -0.18889634 0.065078296
0002e0 5e 89 4c bd 47 a6 0f be 66 ce e4 3c 55 cd 22 be
       -0.04993569 -0.14028274 0.02793045 -0.1589864
0002f0 4a b1 95 3d 16 42 81 bb ce 5f c3 3d f9 80 62 bc
       0.07309206 -0.0039446456 0.09539758 -0.013824695
000300 fb 76 3e bc 41 5c 43 3e be a7 b0 bd 4a 9c 81 bd
       -0.011625047 0.19078161 -0.08625744 -0.06328638
000310 fd c1 59 bd dc 1f cd 3c 2e 79 b3 3d 0a 2b 16 be
       -0.053163517 0.025039606 0.087633476 -0.14664856
000320 81 39 e3 3d c2 74 14 3d 26 a8 34 be bd a7 18 be
       0.110949524 0.03624416 -0.17642269 -0.14907737
000330 e8 41 1b 3e 57 59 3b 3e bf 22 08 3e 2a 77 20 3e
       0.1516186 0.18295799 0.13294505 0.15670457
000340 9d cb 83 3d 70 5e aa bd cf 0b cd bd 43 bf 0b 3d
       0.064353205 -0.08318794 -0.10012018 0.03411795
000350 4e 63 36 bd 1e f9 31 be 26 8f 0e 3e bf 49 44 3e
       -0.044528298 -0.17380187 0.13921794 0.19168757
000360 27 e6 1c 3e e8 5e 28 be 49 b8 69 bc e4 3f 38 bc
       0.15322171 -0.16442454 -0.014265128 -0.011245701
000370 f9 91 60 bd 73 52 33 3d 9b b4 30 3e b1 3b 9e bc
       -0.05482671 0.0437798 0.17256396 -0.019315572
000380 cf 7c 15 3e 9d 82 43 3e 41 61 59 3d 2e 32 e9 bd
       0.14598392 0.19092794 0.053071264 -0.11386524
000390 81 5e e9 bd ce 10 69 bc 8a 60 9f 3d ee 83 16 3e
       -0.11394978 -0.014225198 0.07782085 0.14698765
0003a0 85 3c 2c 3e 2f 04 65 3d 6f 37 c4 bd 2a 75 46 3e
       0.16819961 0.055912193 -0.095808856 0.19380632
0003b0 1f 61 0a bd 97 e4 bc 3d 90 0f 0d 3e fc cc ed 3d
       -0.03378403 0.092232876 0.13775468 0.11611363
0003c0 ca 2b de 3d ba 09 0f bd 4d 19 3e 3e c4 b7 ba 3d
       0.10848196 -0.034921385 0.18564339 0.09117082
0003d0 d1 30 42 3e c5 5d 08 3e 08 f6 91 3d 40 47 fc 3c
       0.18963934 0.1331702 0.07127005 0.030795693
0003e0 62 35 35 bd b0 d5 ef bb 42 8b ba 3d 8c b7 0e be
       -0.044240363 -0.0073191747 0.091085926 -0.13937205
0003f0 88 9d 9f bd b3 fd dd bd 96 96 1d 3e c2 19 52 3d
       -0.077937186 -0.10839405 0.15389475 0.051294096

GAT_layers.0.f.bias f4 [32]
000000 06 c0 75 bd 54 06 54 bd 86 46 90 bd df dd 9e 3d
       -0.05999758 -0.051763847 -0.07044701 0.07757162
000010 69 db 77 bc 04 bd 94 3d e0 68 34 3d 00 61 60 bd
       -0.015127995 0.07262614 0.04404533 -0.054780006
000020 47 9e c9 bc b3 bf 4c 3d b6 c4 84 3d a0 c8 4f 3a
       -0.024611605 0.049987506 0.06482832 0.0007926319
000030 93 8d 90 3d ac b7 63 bd fa a3 16 bd d6 35 b0 bd
       0.07058253 -0.055595085 -0.036777474 -0.086040184
000040 ad e3 35 3d b5 0d 35 3d 60 38 84 bd 79 7c aa 3d
       0.04440658 0.044202525 -0.06456065 0.083245225
000050 b6 93 4d 3d 3f 56 27 bc 51 1c aa bd 83 82 68 bd
       0.050189696 -0.010213434 -0.08306182 -0.05676509
000060 75 52 66 3d 26 4a 11 3d e3 21 74 3d ca 66 82 3d
       0.05623098 0.035471104 0.05960263 0.06367262
000070 5d be b4 3d ef 02 23 ba aa 12 9f 3d 44 82 3f bd
       0.088253714 -0.00062183937 0.07767232 -0.04675509

GAT_layers.0.w.weight f4 [1, 124]
000000 4e 52 66 3d 60 e4 1f be e2 84 0c 3d 2b d3 25 3e
       0.056230836 -0.15614462 0.034306414 0.16193835
000010 b1 07 5a 3e 1e e1 51 bd d8 84 28 3d d2 18 43 be
       0.21291997 -0.05124008 0.041142315 -0.19052437
000020 31 43 c9 3d f1 a2 77 3c e4 f2 2e be a5 2a d1 bd
       0.09827269 0.015114532 -0.17084843 -0.10213212
000030 35 d0 2c be 2c da f1 bc b4 45 39 bc 0a 49 81 bd
       -0.168763 -0.029522978 -0.011308122 -0.06312759
000040 57 2e b8 3d e9 66 05 3e a7 1d e8 bc 0a 2d 67 bd
       0.089932136 0.13027538 -0.028334452 -0.056439437
000050 5a 95 51 3e 30 0b 54 3e 4f bb 5c be 3b f5 01 3e
       0.2046713 0.20707393 -0.21555828 0.12691204
000060 7c 70 1e be 4e 86 ef 3c c5 ea 43 3e 81 25 5a 3e
       -0.15472597 0.029238846 0.19132526 0.21303369
000070 69 17 eb 3d 25 85 0f 3d 40 dc 41 be 2d f8 d1 bc
       0.114790745 0.035039086 -0.18931675 -0.025631035
000080 16 f3 2f 3d 27 08 3f be 5c f1 11 bd 43 5e 3a be
       0.042956434 -0.18655454 -0.03563057 -0.1820002
000090 27 f8 3e 3e 26 ad 44 bd c8 0e c5 bc 81 5a d2 3d
       0.1864935 -0.04801669 -0.0240549 0.102711685
0000a0 7f 8f 52 3e 44 dd 5f 3e 68 0b c9 3c f1 09 ae bc
       0.20562552 0.2186175 0.024541572 -0.021244975
0000b0 99 c8 5d 3e b6 9b e3 3d ac 3f fd bd c1 3c 81 3d
       0.21658553 0.11113684 -0.1236566 0.06310416
0000c0 28 f1 c3 3d 23 f7 36 be b6 8c 19 be ea 28 9a bd
       0.09567481 -0.17867713 -0.14995083 -0.07527335
0000d0 6f 43 03 3e bb a8 1b 3e 84 fd 46 be 59 ea 6a 3d
       0.12818693 0.15201084 -0.19432646 0.057352398
0000e0 4c 24 92 bd 1e f5 26 be 3b fc 32 3e 5c 96 66 bd
       -0.07135829 -0.16304442 0.17479031 -0.056295738
0000f0 9b 78 4b 3d 53 c8 10 3e cf aa e2 3d 35 b3 59 bc
       0.049675565 0.14138918 0.110677354 -0.013287355
000100 57 2b 3c 3e 43 e9 49 3d c1 49 d1 3d 23 f9 3f 3e
       0.18375908 0.04929472 0.102191456 0.18747382
000110 34 0e 37 be 50 20 e1 3d 0d 9f f9 3d a5 a5 30 3e
       -0.17876512 0.10992491 0.1218854 0.17250688
000120 e0 d4 ea bc 51 f9 4d be a3 9d 4c 3d 1d 69 f9 bb
       -0.02866596 -0.20114638 0.04995502 -0.0076114074
000130 30 1f 05 bc 9e 3d bf bd 7e 9b 49 3e 35 9b cb bd
       -0.008125111 -0.093379244 0.19688222 -0.09941713
000140 ed 55 e5 3d 5c 02 02 bd 24 cc bb bd 17 21 48 bd
       0.1119803 -0.03174053 -0.09169796 -0.048859682
000150 9c 0a 4f 3e 55 fc e9 3d e6 77 5b 3d 93 82 ee bc
       0.20218891 0.11425082 0.05358114 -0.029114997
000160 e0 1e ff bb 4c 15 13 be 24 c3 d6 bd fa 57 d3 bc
       -0.007785663 -0.14363593 -0.10486439 -0.025798786
000170 1a a3 c0 3d a1 a3 88 3d 79 10 49 bd 7a 7f 85 3c
       0.09406109 0.06671835 -0.049087975 0.016296137
000180 76 4d 90 bd 0e 6b 36 be c2 97 45 be 19 9e b0 bd
       -0.070460245 -0.17814276 -0.19296172 -0.08623905
000190 eb f8 25 3d 4e f9 3e be 3b 85 e4 3d 40 bd 03 bc
       0.04052059 -0.1864979 0.11158224 -0.008040726
0001a0 d6 16 23 3d 1a a8 be bc e6 8b 99 3d c1 c5 15 3e
       0.0398167 -0.023273516 0.07497387 0.14626218
0001b0 42 49 19 be 9d 02 8d bd 9c a3 2a 3c 2e 48 4c 3e
       -0.14969352 -0.06885264 0.010414984 0.1994941
0001c0 3e 58 47 3d 5e a6 69 bb b2 27 40 3e f5 d6 36 be
       0.04866814 -0.003565214 0.18765143 -0.17855437
0001d0 54 0a 4a 3e c5 99 ad 3a a5 85 bf 3d 34 04 76 bc
       0.19730502 0.001324468 0.093516625 -0.015015651
0001e0 f4 18 a2 3d 60 d4 f0 3d a1 55 16 3e 9c 9b 42 be
       0.07914916 0.11759257 0.14681102 -0.19004673

GAT_layers.1.f.weight f4 [64, 64]
000000 f2 ec 31 3e 0d c3 15 bd 07 46 49 3e 45 10 c3 3c
       0.17375544 -0.036562968 0.1965562 0.023811469
000010 70 87 b0 bd 83 af 03 be 28 63 3a be 5b 78 2c be
       -0.08619583 -0.12859921 -0.18201888 -0.16842787
000020 d9 28 eb bd 93 c4 0c 3e 06 e3 4d 3e f4 7a 01 be
       -0.114824004 0.13746862 0.20106134 -0.12644559
000030 ec 7f 44 bd 76 a5 eb bd a2 bd e9 bd 68 7a fe bd
       -0.04797356 -0.115061685 -0.11413123 -0.12425691
000040 bf ea 34 3e 8f cc 4a be 9b f6 04 be 54 64 be bd
       0.17667674 -0.19804595 -0.12984698 -0.0929648
000050 a9 dd 4c 3d df 91 5c 3e 61 d2 87 3c be 44 40 bd
       0.05001608 0.2154002 0.016579809 -0.046940558
000060 31 cd 4c be 48 6a 8a bd 28 98 c6 bd 6d ad 20 be
       -0.2000015 -0.06758553 -0.0969699 -0.15691157
000070 5b ff 2a 3e e4 e5 4a 3e e0 5d 12 be 50 69 29 be
       0.16698973 0.19814259 -0.14293623 -0.1654408
000080 33 b6 5b be 75 07 1c be 30 11 02 3e f0 38 e1 bd
       -0.21456222 -0.1523722 0.12701869 -0.10997188
000090 96 83 d8 3d f2 9c ef 3d 1c d3 48 bd ba 84 bc 3d
       0.10571973 0.11699857 -0.049029455 0.09205003
0000a0 f1 48 92 bd 3c d1 95 bb 59 34 5a be e3 b9 87 bd
       -0.07142819 -0.004572062 -0.21309032 -0.06627252
0000b0 d8 9c 12 be 7f 3d 8b bd e9 b8 dc bb 58 2e 09 3e
       -0.14317644 -0.06798839 -0.00673591 0.13396585
0000c0 ae cb 4d bd 90 00 46 3e b2 55 05 3e 2f df ff 3c
       -0.050243072 0.19336152 0.13020971 0.031234352
0000d0 7e 30 4a be 03 4b b4 bd a1 32 1e be 6f a5 af 3d
       -0.19745061 -0.0880337 -0.15449001 0.08576476
0000e0 80 17 25 3e 7f 44 3d 3e fa dd 40 3e 07 13 9c 3d
       0.16122246 0.1848316 0.18834677 0.07620817
0000f0 2a 1c 80 bd c9 5b ca 3d d4 53 10 be e1 5b d4 bd
       -0.06255372 0.09880788 -0.14094478 -0.10369087
000100 30 85 4d 3e c1 43 07 be 99 56 db 3c 7a a0 1a 3e
       0.20070338 -0.1320944 0.026774691 0.1510028
000110 67 3e 68 3d a8 e1 fe 3c 95 29 a8 3d 59 07 cf bd
       0.056700137 0.03111346 0.08211056 -0.10108823
000120 18 b3 dd 3d 1b ca 20 bd f3 18 47 be 0b cb f6 3d
       0.10825175 -0.039255243 -0.19443111 0.12050446
000130 48 dd 4a be 31 1f c8 3d 12 c0 33 3e 38 1e 3b be
       -0.19810975 0.09771574 0.17553738 -0.18273246
000140 59 e2 72 bc 4b bc 1e 3c 92 71 81 bd 51 fc 38 3e
       -0.014824473 0.009688447 -0.0632049 0.18065001
000150 0a c8 87 bd 27 3f b5 bd 4a de ed bd 04 a8 ed bb
       -0.06629951 -0.08849936 -0.11614664 -0.007252695
000160 99 1e 45 3d 5e 9d 7f bd 6b d5 2d bd 4f 27 d4 bd
       0.048124883 -0.062405936 -0.04243986 -0.1035906
000170 33 f8 48 3e 35 19 09 3e a3 ae b5 3d 9c 09 38 3e
       0.1962593 0.13388522 0.088712 0.17972416
000180 4c 79 bd bd 00 04 3b be 19 20 b3 bd fd a4 d9 bd
       -0.09251651 -0.18263245 -0.087463565 -0.10627172
000190 2f a9 42 3e 2a f5 32 3e 7e 6e db bd 6c 75 45 be
       0.19009851 0.17476335 -0.10714434 -0.19283074
0001a0 53 69 0d be 3f 5d 45 3d a8 f5 c0 3b d9 90 08 3d
       -0.13809709 0.04818463 0.0058886595 0.033341262
0001b0 38 71 30 3e 66 7e bd 3d 0b 84 15 be 75 bf 28 be
       0.1723069 0.09252624 -0.14601152 -0.16479285
0001c0 85 43 eb bc 23 fa 32 be 8b d9 45 3e 28 d4 c9 3b
       -0.02871872 -0.17478232 0.19321267 0.006159324
0001d0 0d 7f 17 3d 06 b7 b2 3d 2a 2e 3b be d6 40 af 3d
       0.0369864 0.08726315 -0.18279329 0.08557288
0001e0 91 57 7c bd a0 fd 1e be 73 84 1e 3e 44 de 41 3d
       -0.061606947 -0.15526438 0.15480213 0.04733111
0001f0 e5 d3 87 3d bb fd cc bc 67 aa 3f 3b fd 5a 91 3d
       0.066322125 -0.025023332 0.0029245855 0.07097433
000200 2d a3 48 3e 38 ca 48 be c6 8d a4 bd a7 d0 03 3e
       0.19593497 -0.1960839 -0.08034854 0.12872563
000210 88 f8 10 be 6b b4 ab bb f2 27 4a 3a c8 7a 10 3d
       -0.14157307 -0.0052400134 0.0007711641 0.035273343
000220 4d 86 11 3e f7 0d 3c be 5b 9e 4a 3e b2 a0 d3 3d
       0.14211388 -0.18364702 0.1978697 0.103333846
000230 93 e9 4f 3e d7 1a fa bd 31 b8 09 bd 3a 1b 23 3e
       0.20303945 -0.122121505 -0.033622924 0.15928355
000240 45 b3 8f 3d 4f 31 ba 3d a6 b1 88 bd 27 ef 5e bd
       0.07016615 0.09091436 -0.06674509 -0.054427292
000250 d5 23 33 bd 75 60 ef 3d 06 31 93 3d c3 0d 39 be
       -0.043735344 0.116883196 0.07187085 -0.18071656
000260 f9 12 ae 3d 5f c4 23 bd 48 5b 17 3e 72 62 07 bc
       0.084997125 -0.039982196 0.14780915 -0.008263217
000270 66 a7 2b 3e a8 fe be 3c d9 4a 12 3e e5 38 e3 bd
       0.16763076 0.023314789 0.14286365 -0.11094836
000280 81 c6 02 be e3 e3 08 be 91 ef 45 be a7 0c 56 3e
       -0.12771036 -0.13368182 -0.19329669 0.20903264
000290 5b 4c 28 3e 39 0c 43 3e b8 08 1f bd 7c b2 06 be
       0.16435377 0.19047631 -0.038826674 -0.13154024
0002a0 a6 be 1e 3d b6 cc 0d be 09 49 1b 3e 2a f0 36 3c
       0.038756035 -0.13847622 0.1516458 0.011165658
0002b0 63 49 8a bc 9a 69 26 bd 98 8f d9 bd f9 b7 f8 3d
       -0.016880697 -0.040628053 -0.106230915 0.12144465
0002c0 1a 8d 15 be 45 03 21 be 49 40 66 3c cc 8c 91 bd
       -0.14604607 -0.15723903 0.014053413 -0.07106933
0002d0 88 cb ae 3b fc 14 02 3e 0d ae af bc e9 0e 81 3d
       0.0053343214 0.12703317 -0.021445299 0.06301672
0002e0 0b 7a 9e 3c c3 2e 07 be ed 3b 08 3c 20 8d 12 be
       0.019345304 -0.13201432 0.008315069 -0.14311647
0002f0 ee 92 47 be cf b0 67 3d 64 5d e8 3c d7 99 e9 bd
       -0.19489643 0.056565102 0.028364845 -0.11406296
000300 7b 12 de 3d 36 03 12 3e 07 fe 16 be bf 91 0b bd
       0.108433686 0.14259037 -0.14745341 -0.03407454
000310 20 7e 4b be e9 90 1a be 90 a2 9a bd 11 9f 3b bc
       -0.19872332 -0.15094341 -0.075505376 -0.011451499
000320 88 2a 87 3d 86 b0 6f 3d a2 b4 41 3e d4 08 39 3e
       0.06599909 0.058517955 0.18916562 0.18069774
000330 d7 aa 6c bd 27 cb 6c 3d a4 f8 0a 3e f1 b0 2b be
       -0.057780113 0.05781093 0.13571411 -0.16766717
000340 66 f2 0d 3d cb 72 2e 3d 8e c9 4a be 4c 40 2f 3e
       0.034654997 0.042589944 -0.1980345 0.17114371
000350 82 c1 88 bc ea b8 35 be 57 af ba 3c c4 7c a9 bd
       -0.016693834 -0.1774632 0.022788687 -0.0827575
000360 43 eb c0 bd 45 e5 55 bd e3 61 4e 3e a6 cb b2 3d
       -0.094198726 -0.0522206 0.20154528 0.08730249
000370 01 d5 14 bc e6 8f 9c 3d 48 b4 22 be c2 02 2d 3d
       -0.009083987 0.07644634 -0.15889084 0.04223896
000380 4e a7 d2 3d ff 11 ee bd dd a3 1c be 3b c3 1d 3d
       0.10285817 -0.11624526 -0.15296884 0.038516264
000390 0b 0e 32 be 1e 7c 24 3e 31 e0 6e 3d 43 e9 0e be
       -0.1738817 0.16062972 0.058319274 -0.1395617
0003a0 b7 3d 05 3e 71 25 b8 bc b0 f8 49 3e 96 59 d3 bc
       0.13011824 -0.022478791 0.19723773 -0.025799554
0003b0 83 1c 9e 3d 5b 5f 1c be b8 dd bb bd 84 a9 12 be
       0.07720282 -0.1527075 -0.09173149 -0.14322478
0003c0 51 03 f9 bd f0 82 77 3d 88 6d 05 3e 48 99 0b be
       -0.12158836 0.060427606 0.13030064 -0.13632691
0003d0 02 e9 d6 bd b8 cc 00 3e cb b9 f4 bb c5 45 49 be
       -0.104936615 0.12578094 -0.0074684373 -0.19655521
0003e0 13 c0 2b be b0 9c 09 3e ec d4 44 be a3 93 0d be
       -0.16772489 0.13438678 -0.19221848 -0.1382585
0003f0 e8 ee f2 bc 6b 24 1a 3e 79 d9 8a 3d 8d 75 1e 3d
       -0.029654935 0.15052955 0.06779761 0.038686324

GAT_layers.1.f.bias f4 [64]
000000 80 00 f0 3d b8 e8 c2 bc 4e d3 db 3d 5c d4 a0 bd
       0.11718845 -0.02379261 0.107336625 -0.07853004
000010 a2 48 f5 3d 30 7f 12 3c 6c 09 1e 3d 20 0d 30 bc
       0.11976744 0.008941457 0.038583204 -0.010745317
000020 20 b1 68 bc 3c 20 74 3d 98 4b 5a 3d b2 05 85 3d
       -0.014202386 0.059601054 0.053294748 0.06495227
000030 3a 96 9e bd 64 ba 82 3d a4 d1 1d 3d f6 2f 9d bd
       -0.07743497 0.063832074 0.038530007 -0.076751634
000040 4a 1e e1 bd 3c 56 10 3d 0c b6 e9 bd 18 cf a7 3d
       -0.10992105 0.03523849 -0.11411676 0.08193797
000050 30 ae 35 3c 80 ee eb ba 68 d3 ee bd e0 fb 58 bc
       0.011088893 -0.0018000156 -0.11661416 -0.013243645
000060 d2 b0 ef 3d 70 97 0f bc ac cd 19 bd c8 50 db bd
       0.11703648 -0.008764133 -0.03754966 -0.10708767
000070 36 2c b0 bd 40 23 d1 bc 12 ec ae 3d e0 d2 22 3c
       -0.086021826 -0.025529504 0.085411206 0.009937972
000080 2c da 50 3d 88 44 a6 bc 2e 78 f8 bd 28 88 74 3d
       0.050989315 -0.02029635 -0.121322975 0.05970016
000090 9c 25 b0 3d 80 9e 57 bb bc 08 54 3d 52 85 9c 3d
       0.086009234 -0.003290087 0.051766142 0.07642616
0000a0 0c ac 49 3d c4 21 27 3d 00 ae b6 3c 44 25 04 bd
       0.049236342 0.040803686 0.022299767 -0.0322621
0000b0 18 95 ab 3d 40 a8 7c 3d 28 f6 d8 bc 7c 98 b5 3d
       0.08378047 0.061683893 -0.026484564 0.08866975
0000c0 1e b6 ac 3d ec ba 2d 3d 60 1b f9 3b 58 1d 40 bd
       0.084331736 0.04241459 0.0076021403 -0.046902984
0000d0 3e 7c ee 3d ba 20 a7 3d b0 e1 3e 3c 34 0a ef bd
       0.11644791 0.08160539 0.011650488 -0.11671868
0000e0 08 6e dd 3c 60 fc 1b 3c 00 8e b0 3b 28 82 23 3d
       0.027030006 0.00952062 0.0053880215 0.03991905
0000f0 8e a5 f0 3d ae e4 cc bd fa 55 8d 3d 70 b7 91 bd
       0.11750327 -0.10004555 0.06901164 -0.07115066

GAT_layers.1.w.weight f4 [1, 64]
000000 6c f4 8c be 44 6a 86 be 6b 31 6d be ce 8e a8 3d
       -0.2753023 -0.2625295 -0.23163383 0.08230363
000010 ad 9c 5c 3d 4b b6 dc 3d 54 d1 24 bd a9 21 54 3e
       0.053860355 0.10776957 -0.040238693 0.20715965
000020 de 0c 36 3e 9d 5c 58 3d 9f 28 07 be e1 c4 4e be
       0.17778346 0.052822698 -0.1319909 -0.20192291
000030 54 f7 5c bd 5e 98 e1 bd 75 95 85 3e 15 21 7c be
       -0.053946808 -0.1101539 0.2609059 -0.24621995
000040 fc ec 19 3e 7f 63 59 be f2 d3 38 be da 3f 0e bd
       0.15031809 -0.21229361 -0.180496 -0.034728862
000050 a2 a3 0d 3e 64 ed 32 3e 7c 63 e6 bc 6d 56 50 3e
       0.13831952 0.1747337 -0.02812361 0.20345469
000060 bb 0c 8b 3e eb 8e 9a 3e c3 5b ca 3d db 9a 72 3e
       0.2715815 0.30187163 0.098807834 0.23691885
000070 54 db 07 3e 4d c9 c9 3d a9 6d 67 be 0d 6b 15 3d
       0.13267261 0.09852848 -0.22600426 0.036479045
000080 10 1a 5b 3e 09 6c 85 be 3d 41 9f 3c 7f 0c f7 3d
       0.21396661 -0.26058987 0.019440288 0.1206293
000090 04 be 6a 3e 1b ca 57 be 95 c7 7d 3e b0 43 a6 3c
       0.22924048 -0.21073191 0.24783166 0.020295948
0000a0 f5 34 3a 3d 81 98 70 3e 82 c5 0c be f5 3d 92 3e
       0.04546066 0.23495676 -0.13747218 0.28562894
0000b0 a0 62 68 3d 0f 57 24 be 68 2e 28 be e2 cd 69 3e
       0.05673468 -0.16048835 -0.16423953 0.22832444
0000c0 2f d3 6c bd 1f ef 84 be 84 62 8d 3e f7 ec 8c 3e
       -0.057818588 -0.25963685 0.27614224 0.2752454
0000d0 fd 25 fd 3d 1e 65 27 3d c2 c8 51 3b 97 83 46 3d
       0.12360761 0.040867917 0.003201053 0.048465338
0000e0 60 3f 62 3d bf e7 cc bc a5 4b de bb 74 b0 f3 3d
       0.05523622 -0.025012849 -0.00678392 0.1189889
0000f0 14 33 01 3e 48 8d 31 be ea 47 86 3e 07 6c 7e 3d
       0.12617141 -0.17339051 0.2622674 0.06211474

GAT_layers.2.f.weight f4 [64, 128]
000000 9e ef 1c 3e 22 70 27 be bf e1 78 3d 07 a5 cf bd
       0.15325782 -0.16351369 0.060762163 -0.10138898
000010 1a e6 04 be 60 8c aa 3d c3 a1 bb bb 2a 51 78 bd
       -0.12978402 0.08327556 -0.0057260706 -0.06062428
000020 cc 7b 6a 3d ba 14 32 be 0f 42 5d 3d a0 4a 30 bd
       0.05724697 -0.17390719 0.054018077 -0.043039918
000030 e3 b4 13 bd 5b 6d 92 3d 2b a4 48 bd cd 63 c6 3d
       -0.03606118 0.07149764 -0.048984688 0.09687004
000040 04 8e fd 3d 84 ee 46 bd 52 e8 c7 bd eb 70 b7 3d
       0.12380603 -0.04856731 -0.097611085 0.08957084
000050 48 c2 fe bd 3d 78 1d be e0 3f fa 39 a1 90 5e bd
       -0.124394 -0.15377899 0.00047731306 -0.054337148
000060 fb 76 ca 3d 42 a0 98 bd 85 33 22 bc 28 58 e3 bd
       0.09885975 -0.07452442 -0.0098999785 -0.11100799
000070 dc 55 e5 3d 45 27 2a be e8 1b 08 be 1e b5 37 3d
       0.11198017 -0.16616543 -0.13291895 0.04485046
000080 c0 cd 9f bd 2d 22 08 3e ee ef 0e be 8d a8 22 be
       -0.078029156 0.13294287 -0.13958713 -0.1588461
000090 5a f6 fc 3d 01 a3 1a 3e ad ba 91 3d b9 7e ff 3d
       0.12351675 0.15101244 0.07115684 0.12475342
0000a0 9f 54 0d 3c d5 19 f2 bd 88 63 32 be 18 d3 24 3c
       0.008626132 -0.11821333 -0.1742078 0.010060094
0000b0 01 d6 9b bd 7d 6a 15 be 08 c7 88 bd 41 c1 b2 bc
       -0.076091774 -0.14591403 -0.06678587 -0.021820666
0000c0 35 a4 1a 3e 97 8e b1 3b 98 e5 e2 bc aa b9 30 bd
       0.15101703 0.0054186094 -0.02769737 -0.043145813
0000d0 eb d9 a5 3d 5c 4e 06 3e a4 16 13 be 35 30 95 3d
       0.08098205 0.13115829 -0.14364105 0.072845854
0000e0 0f 3b a1 3b 71 6e a2 bd 72 7c 32 3e 23 bf 14 3e
       0.0049203704 -0.07931221 0.17430285 0.14526038
0000f0 61 2b 93 bd 59 38 4a bd e8 bb 03 be e5 5a 20 be
       -0.07186008 -0.049370144 -0.1286465 -0.15659674
000100 d4 82 14 be d8 3b 24 be c9 b7 bf 3d 26 42 04 3d
       -0.14503032 -0.16038454 0.09361226 0.032289647
000110 44 40 22 3e 98 ab db 3d 04 c1 29 3d cd 5c dc 3c
       0.15844828 0.10726088 0.04144384 0.02689972
000120 b5 93 89 bd 40 52 0e 3d 41 92 c5 3d 54 32 61 bd
       -0.06717626 0.03474641 0.09647036 -0.054979637
000130 b2 92 7e 3d 01 1a 10 be a8 7e a9 3d 8b 97 b7 bd
       0.06215162 -0.1407242 0.08276111 -0.089644514
000140 c0 2c 17 3c e4 70 68 3c 02 bf fc 3d e9 f2 92 bd
       0.009226978 0.0141870715 0.12341119 -0.07175238
000150 bc 0d ce bd 5e 45 2d 3e f6 4a d5 bd d6 c8 19 3e
       -0.100612134 0.16920993 -0.10414688 0.15018019
000160 e2 97 e8 bd b8 a0 2c 3e 30 5f 2e bd c3 02 0a be
       -0.11357094 0.16858184 -0.042571247 -0.13477616
000170 fa 79 ca bc 50 85 17 be 68 b6 25 bd fc d2 24 bd
       -0.024716366 -0.14796948 -0.04045716 -0.040240273
000180 a4 0d 21 be 33 09 f7 bc 59 02 14 be a5 1a b4 3d
       -0.1572786 -0.030155754 -0.1445402 0.087941445
000190 d2 ab 1e 3e 14 44 ec bd 6c 3f 95 3d 46 ac cb bd
       0.15495232 -0.11536422 0.072874874 -0.09944968
0001a0 b4 bf 1e 3d 17 7f c0 bd 76 04 ab 3d c9 1b f4 bd
       0.03875704 -0.093992405 0.0835046 -0.11919362
0001b0 06 37 39 3d 78 04 30 be e1 ca 25 be 40 82 85 3d
       0.04521849 -0.17189205 -0.16190673 0.06518984
0001c0 7b 41 8c 3d cc 2d 93 bd c1 1e 2a 3e 85 96 12 3e
       0.06848427 -0.071864694 0.16613294 0.14315231
0001d0 6e d8 8f bd 86 c3 33 3e c3 24 17 be 64 a7 b2 3d
       -0.070237026 0.17555055 -0.14760117 0.087233335
0001e0 df b2 36 3d 0b 32 c3 bd fe a7 a6 3b d1 77 f7 3b
       0.04460418 -0.09531029 0.005085944 0.007552125
0001f0 a0 45 e8 bc 2d ad 93 bd ff 8b e1 bd 5d 3e 51 bd
       -0.028353512 -0.07210765 -0.1101303 -0.051084865
000200 a0 24 61 3c 75 fc c6 bd 47 08 c5 bd cc 38 1a 3d
       0.013741642 -0.09716121 -0.096207194 0.037651822
000210 f0 74 a0 3d 6b e1 bc bc 1a 5f 90 3c b0 eb 3d bd
       0.07834804 -0.023056706 0.017623473 -0.046367347
000220 92 60 a5 bd 96 87 03 be b9 93 1d 3e e0 91 c1 3d
       -0.0807506 -0.1284469 0.15388383 0.094516516
000230 cb ca db bd ee 82 62 3d 92 3a 17 be 07 a5 ba 3d
       -0.10732039 0.055300646 -0.14768437 0.09113508
000240 5a 8b be 3d a7 00 a8 bd 1a e2 d8 bd ed 1f cd bd
       0.09303923 -0.082032494 -0.105900005 -0.10015855
000250 72 94 83 3c 72 e3 4a bd 92 77 01 3e a1 22 93 3d
       0.016061995 -0.049533315 0.12643269 0.07184339
000260 f6 06 f8 3d 08 6c 34 3e ee 03 ec bd a2 4a e1 3c
       0.12110703 0.17619336 -0.11524187 0.027501408
000270 ce b5 e7 3d fa 29 3f 3d d0 a7 c0 bc 2c 59 8f bd
       0.11313973 0.04667089 -0.02351752 -0.0699943
000280 41 44 10 bd d0 38 c1 bc 62 46 c9 3d b6 d6 23 3e
       -0.035221342 -0.02358666 0.098278776 0.15999874
000290 61 f5 84 3d f5 cd f2 3d 4f 40 01 be eb be f6 3d
       0.06492115 0.118556894 -0.12622188 0.120481335
0002a0 c9 b8 0c 3e 24 4d f0 bc 36 64 02 bc ef c4 5e 3d
       0.13742365 -0.029333659 -0.007958462 0.05438703
0002b0 19 5b 99 bb 76 a0 16 be 4b cf 0f bd 2e 59 b6 bd
       -0.004680049 -0.14709648 -0.0351098 -0.089037284
0002c0 af 00 02 3e d7 94 9d 3d b6 7b f8 3d ec 5e d8 3d
       0.12695573 0.076944046 0.12132971 0.1056498
0002d0 3b b8 94 bd 42 ca ed bd d3 0a a7 3d b0 67 ff 3b
       -0.07261702 -0.11610843 0.081563614 0.007794343
0002e0 7c f5 77 3d 36 3e e8 3d 2c 38 bb bd c7 c6 95 3c
       0.060536847 0.11339991 -0.09141573 0.018283261
0002f0 3f 2c 2a be f2 09 02 be 98 ea 00 be 19 4c 14 3d
       -0.16618441 -0.12699106 -0.1258949 0.036205385
000300 49 98 28 be 4a 20 86 bd bc d0 8c 3d 94 ef 02 bd
       -0.16464342 -0.065491274 0.068757504 -0.03196676
000310 73 7e df bd 80 6e 80 bd 7f 77 96 bd 54 1d e0 3d
       -0.1091279 -0.06271076 -0.07347011 0.10943094
000320 98 09 01 be 78 fb 0a 3d d5 0f b1 3d 1c 87 cd 3c
       -0.12601316 0.033931226 0.08645598 0.02508884
000330 8c e4 94 bc 48 bb ab bd c6 bb c7 3c 77 37 74 3d
       -0.018175386 -0.083853304 0.02438153 0.059623208
000340 b0 11 87 bd 71 2a 84 bc 2b 08 e5 3d 34 67 89 3c
       -0.065951705 -0.016133519 0.111831985 0.016772844
000350 37 b5 07 be c5 b0 a3 bd a7 0b ad bd ae 95 11 3e
       -0.13252722 -0.079927005 -0.08449488 0.14217255
000360 ca 7f bb 3d 31 9a 0b be 21 cb a6 3d 4e 09 aa bd
       0.09155233 -0.13633038 0.081442125 -0.08302556
000370 7a 0c ed bd 37 aa b9 bd 4b 5e b4 bc e2 9b 5d 3c
       -0.11574645 -0.09065669 -0.022017619 0.013525935
000380 f2 7e 07 3d bc d2 94 bb ca ff e9 3d ee 02 13 be
       0.03308005 -0.004541723 0.11425741 -0.14356586
000390 5f 86 07 bd c5 09 1b 3e 57 09 c9 bd 05 29 af 3d
       -0.03308713 0.15140446 -0.098162346 0.08552746
0003a0 39 20 1a 3e 0d 70 05 3e fe 11 30 bc 24 c1 00 be
       0.15051354 0.13031025 -0.010746477 -0.12573677
0003b0 09 d2 17 3c 82 68 d9 bc 4b 86 04 be 13 d4 a9 bd
       0.009266385 -0.026539091 -0.12941854 -0.08292403
0003c0 ae 79 2e 3d 2c 2a 5d 3d 99 1e ae bb 6c b7 43 3d
       0.04259651 0.053995296 -0.005313706 0.047782347
0003d0 b3 0a 1b 3e f6 90 34 bd 5c 61 13 be 4a 84 e0 bc
       0.151408 -0.044083558 -0.14392608 -0.02740683
0003e0 a6 32 d2 bc 51 bf 28 bd b0 09 22 bd 9a 01 48 ba
       -0.025658917 -0.04119808 -0.03956002 -0.0007629633
0003f0 3c 7b 20 3d 0a 65 1e 3d 4f a2 34 bb 6d 3a c1 bd
       0.039180025 0.038670577 -0.0027562564 -0.09434972

GAT_layers.2.f.bias f4 [64]
000000 4a 1b 86 bd bf dd 88 3d fd d8 16 bd aa 1e be 3b
       -0.06548174 0.0668292 -0.03682803 0.0058019953
000010 d0 76 04 3d cb 73 85 3d 6c b9 34 bd f8 48 87 bd
       0.03233987 0.065162264 -0.044122145 -0.066057146
000020 b7 76 bb 3c c6 c9 9e bd e6 eb 90 bd 72 bf 25 3d
       0.022883756 -0.07753329 -0.07076244 0.04046578
000030 54 40 7c 3d 6f f9 e2 3c 6b 98 65 3d ce 65 86 bc
       0.061584786 0.02770683 0.05605356 -0.016405966
000040 39 c4 3a 3d d3 6b c3 bc a3 41 94 bd 10 1b 86 bd
       0.04559729 -0.023855126 -0.07239082 -0.065481305
000050 90 bc 25 bd f2 4b 31 bc 2f 87 cd bb 12 8e 15 3d
       -0.04046303 -0.010821329 -0.0062722187 0.036512442
000060 81 ee a5 3d 4d 04 a8 3d a7 d7 68 bd 61 e6 8f ba
       0.08102132 0.08203945 -0.056846287 -0.0010978692
000070 28 b2 5e 3d d7 8e c1 bc 3e f9 ad bd 24 cf 2a bd
       0.05436912 -0.023627682 -0.08494805 -0.04170145
000080 0b cc bc 3c 36 24 36 bc 44 8c af bd 94 b7 21 bd
       0.023046514 -0.011117032 -0.085716754 -0.039481714
000090 4b 1f 2e bd 90 73 71 bb 4e 01 0c 3d 97 06 34 bd
       -0.042510312 -0.0036842562 0.03418093 -0.043951597
0000a0 89 62 c4 3d c4 8d 70 3d 50 ee 35 3d 44 06 54 bc
       0.095891066 0.05872895 0.044416726 -0.012940947
0000b0 32 fe 02 bd 8f c6 58 bd 2f e8 98 3d ec c7 f2 bc
       -0.0319807 -0.052923735 0.074661605 -0.029636346
0000c0 ba e2 a7 bd 4b f7 4c 3d 2e a3 88 3d 31 e5 7a 3d
       -0.081975415 0.050040524 0.06671749 0.06125373
0000d0 72 5e 93 bb ef 4f 6f 3c d8 c2 9b bd 20 46 bb bc
       -0.0044973427 0.01460646 -0.07605523 -0.022860587
0000e0 2c 78 0e 3d 2f 4b b2 bd 55 1a 58 bb 69 69 a3 bb
       0.034782574 -0.087057464 -0.003297468 -0.004986931
0000f0 4b 1b 08 bd 09 f3 39 3d 79 21 08 3c e2 58 21 3d
       -0.033229154 0.045397792 0.008308762 0.039391406

GAT_layers.2.w.weight f4 [1, 128]
000000 6a 86 0c bc 9e 22 91 bd 28 f1 70 bd c7 16 d3 bd
       -0.008576969 -0.07086681 -0.058823735 -0.10307079
000010 d0 89 56 be 45 f0 b4 bd 74 05 b6 bc ad 6c 3a be
       -0.20951009 -0.0883489 -0.022219397 -0.18205519
000020 39 86 30 be 7b f7 33 be 0c 8f 77 3c cf ed 61 bd
       -0.17238702 -0.17574875 0.015109789 -0.055158433
000030 51 ab 4b 3e 0c 53 5a 3d d7 12 d6 bd 6d 68 c2 3d
       0.19889571 0.053301856 -0.10452812 0.09492574
000040 5f d8 11 be 81 87 fe bd d4 b5 2e be ad 39 5c be
       -0.14242695 -0.12428189 -0.1706155 -0.21506377
000050 6b 7f d5 3d 83 b2 b9 3b 8a d1 dc bd 52 64 ce 3d
       0.10424694 0.005667032 -0.10782154 0.10077728
000060 ff 50 f3 3d 75 ae 0a 3e a2 73 cb bd a0 5a f2 3d
       0.11880683 0.13543113 -0.099341646 0.118336916
000070 b0 ea 10 3e 12 58 01 be ff 90 4d be 4f 90 d2 3b
       0.14152026 -0.12631252 -0.20074843 0.0064258943
000080 38 a9 8f 3d 30 f5 1f 3e c1 89 38 3e c8 cc ef 3d
       0.07014698 0.15620875 0.18021299 0.11708981
000090 d0 20 28 3e d9 6c 96 bd 5a 03 2b 3d a1 ca c3 3d
       0.16418767 -0.0734498 0.041751243 0.09560133
0000a0 ec 81 40 bd a7 f5 ab 3a f2 7d db bd 85 b5 95 bd
       -0.046998903 0.0013119475 -0.107173815 -0.07310013
0000b0 e2 51 4c 3e d2 c1 a4 bc 85 2e f5 bd 1a 7f 90 bd
       0.19953111 -0.020111952 -0.119717635 -0.07055493
0000c0 01 5f 42 3e a0 f4 a1 3c fb b3 e4 bd 49 94 4e 3e
       0.18981554 0.019769967 -0.11167141 0.20173754
0000d0 d9 90 10 3e 9f 7f 22 3c 95 8f f5 bd 60 ed 88 3d
       0.14117755 0.009918123 -0.11990277 0.06685901
0000e0 3d 62 cd 3c fa 5f 16 3d 48 79 34 3e 30 67 ef 3b
       0.025071258 0.036712624 0.1762439 0.007306002
0000f0 23 9e 5c be 2c 99 0d 3d 11 bc 5c bd bd f2 41 be
       -0.215447 0.034569904 -0.05389029 -0.18940254
000100 b0 07 37 be 07 71 0d 3e d2 dd 10 be f2 05 b5 3d
       -0.17874026 0.13812648 -0.14147118 0.088390246
000110 c5 08 36 3d 37 1a c3 bd 4f 02 1d 3e 88 a5 b3 3d
       0.044441957 -0.095264845 0.15332912 0.08771807
000120 0e 40 5d bd af 0f 69 bd 42 5f d5 3d 77 29 ac 3d
       -0.054016165 -0.056899723 0.104185596 0.08406346
000130 1b 67 19 3d fc 0b ca 3c fa b7 1b 3e 01 29 e3 bd
       0.037451845 0.024663918 0.152069 -0.11091805
000140 ee 09 3e be 58 a7 c5 3c 84 7d d3 bd 03 63 08 3d
       -0.18558475 0.024127647 -0.103266746 0.03329755
000150 1c 4f 23 be 60 59 d1 3c ae 16 93 bd c5 7f 87 3d
       -0.15948147 0.025555313 -0.0718206 0.06616167
000160 35 58 51 3e 48 b4 0a 3d 15 24 03 be 81 30 83 3d
       0.20443805 0.033863336 -0.12806733 0.06405736
000170 62 63 17 be 88 c1 50 3e c3 87 0c bd a4 29 30 be
       -0.14784005 0.20386326 -0.03430916 -0.17203385
000180 ee 8c 83 bd a4 74 4d 3e 02 b9 74 3d 73 e3 c2 3d
       -0.064233646 0.20064026 0.05974675 0.09516039
000190 68 b8 30 be dc ca 58 bd 2c 6b aa 3d bd 6d 1d be
       -0.17257845 -0.052927837 0.08321223 -0.15373893
0001a0 72 6c 19 3e 94 c0 36 3e 36 e3 7c 3d 88 a4 1d be
       0.14982775 0.178469 0.061740123 -0.15394795
0001b0 d1 38 28 3e 0a 31 f8 3d 08 a0 e7 bd ac fc 13 3b
       0.16427924 0.121187285 -0.113098204 0.0022581024
0001c0 bd c3 4d be e0 73 46 3d e5 9f 8b bd 2c e8 37 be
       -0.200942 0.04845035 -0.06817607 -0.1795966
0001d0 cf 9d f9 3d 9c 98 fb bd 3f 6e fe 3d cf c2 52 3e
       0.12188303 -0.12284967 0.124233715 0.20582126
0001e0 06 34 ce 39 91 fa 08 be 02 41 0a 3e e2 14 81 bd
       0.00039330142 -0.13376833 0.13501361 -0.06302811
0001f0 f6 75 29 3d 0e cc 7c bc 66 1d 41 be 59 14 03 3d
       0.041372262 -0.01542951 -0.18858871 0.032001827

MLP_layers.0.weight f4 [32, 64]
000000 16 91 ed bd 98 2e 20 bd 00 d6 de 3d de cf bd 3d
       -0.115999386 -0.039106935 0.10880661 0.09268163
000010 b7 3b fc 3d a2 35 d0 bc 30 40 df 3c e0 43 2d 3c
       0.12316077 -0.0254162 0.027252287 0.010575265
000020 88 23 f0 3d 50 7c 18 3d 7c 65 a9 3d 1e 68 fd 3d
       0.11725527 0.03722793 0.0827131 0.123733744
000030 0f 9f 03 bd ad 30 b0 3d ff 4f 10 3e 08 a8 95 bd
       -0.032134112 0.08603034 0.14093016 -0.0730744
000040 2c 8d 4f bd 98 07 d0 3d 24 ad 35 bd c4 61 ad bd
       -0.05067174 0.101576984 -0.044354573 -0.08465913
000050 8c 34 51 bd 2e 2f bd 3d 69 5b 17 bc 5e 3d 92 3d
       -0.051075503 0.092375144 -0.0092381025 0.07140611
000060 9e b4 d9 3d cd 15 dd 3d 50 50 43 3c 45 62 bc 3c
       0.10630153 0.10795174 0.011921003 0.022996077
000070 7f a8 e5 3d 80 cf 4f 3d bc 18 6c 3d ac 46 67 3d
       0.11213779 0.050734997 0.057640776 0.056463882
000080 ac 04 ec 3d 58 62 c2 bc 74 d1 39 3d 3a 10 87 bd
       0.115243286 -0.023728535 0.045365766 -0.06594892
000090 e2 88 f2 bd 78 13 9a bd 33 88 36 3d a4 81 f9 bd
       -0.118425146 -0.075232446 0.044563483 -0.1218293
0000a0 bf 47 87 3d c5 43 b3 3b a5 3e 4e bd 7e bb f2 3d
       0.06605481 0.0054707252 -0.05035271 0.118521675
0000b0 10 f5 2b bc d8 97 9e bd dc 1c 93 bc 80 3f 28 bd
       -0.010495439 -0.07743806 -0.017958097 -0.041076183
0000c0 be ed d3 3d 5a 85 64 3c 47 d5 df 3d eb c3 2b bb
       0.1034808 0.013947809 0.10929351 -0.0026209306
0000d0 5c 8c e8 3d a3 5f d5 3a 60 59 f3 bc 40 7f 0c bd
       0.113548964 0.0016279112 -0.029705703 -0.034301043
0000e0 66 35 95 bc e0 ae 2c 3c ff 77 f5 bc 5e 49 a5 bd
       -0.018213939 0.01053974 -0.029964445 -0.08070634
0000f0 60 6f 8b bc 86 85 8e bd 24 5e 85 3d be 60 bb bd
       -0.017020881 -0.06959061 0.065120965 -0.091493115
000100 a8 92 09 3d 20 07 ef 3b 70 89 89 3d 72 31 df bd
       0.033587128 0.0072945505 0.06715667 -0.10898103
000110 de 80 ae bd 5c ab dd bd c8 9f c3 bd 4c 7b ea bd
       -0.08520673 -0.108237 -0.0955196 -0.11449298
000120 76 2d e7 3d 60 50 b5 bb 60 74 a5 3c c8 46 e3 3c
       0.11287968 -0.005533263 0.020197093 0.027743712
000130 12 6b c6 bd f0 51 0e bd 80 30 62 3c 7a f2 c7 bd
       -0.09688391 -0.03474611 0.013805509 -0.097630456
000140 90 4b 30 3d 00 41 23 3d 40 9a e9 3c 0a c5 ef bd
       0.043040812 0.03985691 0.028515935 -0.11707504
000150 b8 c3 79 bd f2 b1 ef 3d 20 79 a2 bc 44 68 e1 bd
       -0.060977668 0.11703862 -0.019833148 -0.11006215
000160 38 5b 05 bd 16 70 a4 3d b2 2f ef 3d 00 2e 71 bb
       -0.032557696 0.08029191 0.11679019 -0.00368011
000170 58 df 60 bd d6 d3 af bd 0a 40 e5 bd f8 09 cc 3d
       -0.054900497 -0.085853264 -0.11193855 0.09962839
000180 8e 37 d7 3d 40 64 b6 bc d0 51 dd 3c ce ba 85 bd
       0.10508643 -0.0222646 0.02701655 -0.06529771
000190 a0 1f 3d bd 44 a6 8e bd a8 5e 7c bd 9c c8 bb bd
       -0.046172738 -0.069653064 -0.06161371 -0.091691226
0001a0 b8 46 5c 3d 58 59 52 3d c2 0f c0 bd d0 f8 e0 3d
       0.05377838 0.051354736 -0.093780056 0.10984957
0001b0 82 8d 9d 3d b0 a3 91 3c e0 be 7e bc 90 d1 44 3d
       0.07693006 0.017778248 -0.015548438 0.048051417
0001c0 b8 f0 5a bd 4a 37 82 3d ea 56 d1 bd c8 86 b5 3d
       -0.053452224 0.06358202 -0.10221656 0.08863598
0001d0 d0 bf 75 3c 20 e8 c5 bb 98 10 fb bd aa 6b eb bd
       0.014999345 -0.0060396343 -0.122590244 -0.11495145
0001e0 c8 df bd bc da 27 94 3d d0 b7 d0 bc f0 a5 42 bd
       -0.023177996 0.072341636 -0.025478274 -0.04752153
0001f0 ca 4d 97 bd 08 d5 d4 3d ae b6 be bd d4 ef e7 bd
       -0.07387884 0.10392195 -0.09312187 -0.113250405
000200 12 d8 cb bd 7c a6 9a 3d 58 3e 47 bd 4c ce 55 3d
       -0.099533215 0.075512856 -0.04864344 0.052198693
000210 dc e3 bf bd 48 e7 94 3c 00 e6 8e b9 00 1c ec bb
       -0.093696326 0.01817669 -0.00027255714 -0.0072054863
000220 50 55 d8 3d e2 31 d7 3d c0 65 1d 3d c0 0f 99 bd
       0.10563147 0.10507561 0.038427114 -0.07473707
000230 e4 15 e2 bd b8 e7 42 bd 00 90 2b bd d0 c8 18 bc
       -0.110393316 -0.047584265 -0.041885376 -0.009325221
000240 22 05 e6 bd 68 59 97 3c 10 fa 0d bd 1e 26 8f bd
       -0.11231448 0.01847525 -0.034662306 -0.06989692
000250 60 6b 10 3c e8 96 7e bd 98 c0 97 3d 94 12 cb 3d
       0.008814663 -0.062155634 0.07409781 0.09915653
000260 52 0d d6 bd e8 48 c5 bc 04 fa 52 3d 40 17 10 bb
       -0.104517594 -0.024082616 0.051507965 -0.0021986514
000270 7c 43 d2 bd 34 15 4b 3d fa f2 ce bd 10 ec 90 bc
       -0.10266778 0.049580768 -0.10104938 -0.017690688
000280 0e a1 be 3d 36 9b e5 bd 70 16 48 bd e8 11 dd bc
       0.093080625 -0.11211245 -0.048849523 -0.026986077
000290 9c 6f 9f bd 50 0a 13 bd 80 6e a8 3c d8 30 88 3c
       -0.0778496 -0.035898507 0.020560503 0.016624853
0002a0 10 e8 a0 bd fc 2a 56 3d 3a 50 fb bd c0 40 f5 3b
       -0.078567624 0.052287087 -0.122711614 0.0074845254
0002b0 b0 b9 09 bc 60 52 f6 3c 20 5a c1 bd e2 10 a9 bd
       -0.008406088 0.030068576 -0.09441018 -0.08255173
0002c0 3e d7 c1 3d 9c b3 12 bd 24 b7 51 bd 8e cd ac bd
       0.09464882 -0.03581582 -0.051200047 -0.08437644
0002d0 d2 6e 9a bd 38 98 bf bc a4 c6 dd 3d 00 e1 94 3b
       -0.075406685 -0.023388013 0.10828903 0.0045434237
0002e0 00 43 5a 3d 80 1b 9c 3b 80 c7 7d bd 4e 15 d1 bd
       0.053286552 0.0047640204 -0.061957836 -0.10209142
0002f0 24 58 f7 3d 88 1e 58 bd b8 3e 16 3d 08 5b 49 3d
       0.12077358 -0.052763492 0.036680907 0.04915908
000300 b4 e6 ea bd df c5 fa bd 1a b6 e9 bd 18 fe ed bd
       -0.114697844 -0.12244772 -0.11411686 -0.1162073
000310 7a 22 d3 3d fa 6b ad 3c ae 95 c7 bd 00 82 16 3b
       0.1030931 0.021169651 -0.09745346 0.002296567
000320 f8 46 86 bc d8 99 b0 3d c2 11 95 bd a8 65 04 be
       -0.016391262 0.08623093 -0.07278778 -0.12929404
000330 3b a2 ed bd 88 74 b6 3d ee a4 70 bd 78 2b d6 3c
       -0.11603209 0.08908945 -0.05875104 0.026143774
000340 bf 1b 8f 3c 60 da 74 bc 40 67 93 3c ec 21 3f 3d
       0.017469285 -0.014944643 0.01799357 0.04666321
000350 40 60 21 3c ec fb 18 bd af 85 93 bc c1 13 af 3d
       0.009849608 -0.037349626 -0.018008081 0.0854869
000360 c8 d8 93 3c 5a 5a 10 bd e4 c6 ae bd 55 17 fe bd
       0.018047705 -0.035242416 -0.08534029 -0.12406794
000370 21 f5 4c 3c 24 d0 a7 bd aa 5c d7 bd e0 07 9a bb
       0.012509615 -0.081939965 -0.10515721 -0.004700646
000380 b9 c9 d3 3c 28 49 8e bd 14 84 b5 3d d2 4d 91 bd
       0.025853025 -0.06947547 0.088630825 -0.07094921
000390 dc e9 39 bd 2a bc b4 bd 6d f8 8a 3d 40 86 4b 3b
       -0.04538904 -0.08824952 0.06785665 0.003105536
0003a0 d0 1c b0 bc 7e 1b 48 3d 85 90 ea 3c 4e ac fc 3d
       -0.021498114 0.048854344 0.028633365 0.12337552
0003b0 7c 22 52 3d ee 5a 91 3d 0a 1b 73 bd d0 6f 4f bc
       0.051302418 0.070974216 -0.05935196 -0.0126609355
0003c0 26 78 d2 3d ee 0c 2a 3d ed 17 87 bc 09 07 e7 3d
       0.10276823 0.041516237 -0.0164909 0.11280639
0003d0 c0 50 f1 bc 0e aa 8d 3d a6 7f ea bd ec 8d 5b bd
       -0.02945745 0.06917201 -0.11450128 -0.053602144
0003e0 05 85 f2 bd f0 38 00 bc 45 3c a1 bd 98 71 7c bd
       -0.11841778 -0.007826075 -0.078728236 -0.06163177
0003f0 ec d1 32 bd fd 27 de bd fb 9b 89 3d d9 1c 69 3d
       -0.04365723 -0.10847471 0.06719204 0.056912277

MLP_layers.0.bias f4 [32]
000000 d7 1c 56 3d 5c 26 6b 3d 20 5c 9a 3d dc 25 7e 3d
       0.052273598 0.05740963 0.07537103 0.062047824
000010 17 71 07 3e c0 9c 70 bd 84 15 6f bd 5f 61 ab bd
       0.13226734 -0.05874324 -0.05837013 -0.083681814
000020 a0 28 f6 bb e7 a2 9f bd cf b0 f5 bd 04 2e 71 3d
       -0.007512167 -0.07794743 -0.11996614 0.058881775
000030 a0 5e 1f bd c0 01 95 3b c0 cd 08 3c a0 76 28 3d
       -0.0389086 0.0045473278 0.008349836 0.041128755
000040 90 6e 7b bd 7c eb 43 3d be 18 d6 3d d0 02 06 3d
       -0.061384737 0.047831997 0.10453938 0.032717526
000050 f0 1a 93 3d 98 c7 e3 bd 4e 65 98 bd d4 7e f4 bd
       0.07182872 -0.11122054 -0.07441197 -0.11938253
000060 c9 0b a3 3d ab e6 ca bc d6 22 fe bc 4e ea 9b bd
       0.07961232 -0.024768194 -0.03102247 -0.076130494
000070 42 ed ab bc fc ff c7 3d 26 36 eb 3d de c8 8b 3d
       -0.020987157 0.09765622 0.11484937 0.06825422

MLP_layers.1.weight f4 [1, 32]
000000 0e 1c 50 3d 9f 49 ba bc ae b9 31 be a7 61 a9 bd
       0.050808005 -0.022740183 -0.17355987 -0.08270579
000010 f6 64 c7 3d 6d 6a 0d be 3f b9 83 3d c1 35 23 3e
       0.09736054 -0.1381013 0.06431817 0.15938474
000020 f1 eb 5d bd f8 42 0f be 78 6e 9b bd de f5 33 3e
       -0.05418009 -0.1399039 -0.075894296 0.1757426
000030 c6 4c c0 39 a5 bd d5 bd 74 70 f8 3c 98 56 fd 3b
       0.00036678294 -0.104365624 0.03032706 0.00773127
000040 29 9f af bd ac da 17 3d 73 d2 a7 3d 86 a7 5e bb
       -0.08575279 0.037073776 0.08194437 -0.0033974363
000050 56 2f 17 bd 0b 36 fe bd 1b f1 16 3d 3a 0b 10 be
       -0.036910377 -0.12412652 0.03685103 -0.14066783
000060 78 af b3 3c f0 07 3e 3e 92 21 af 3a 1c 2d aa bd
       0.021934256 0.18557715 0.0013361445 -0.08309385
000070 2a 87 f5 3d 99 02 37 3c e1 da 55 3d 9d 12 c0 bb
       0.11988671 0.011170053 0.052210692 -0.005861594
