SLIC_GAT/best9.pt (torch, 80373 bytes, 12 tensors)

GAT_layers.0.f.weight f4 [32, 124]
000000 30 56 70 bd ee c7 29 be d2 d9 20 3e 96 97 96 bc
       -0.058675945 -0.16580173 0.15708092 -0.018382829
000010 11 47 6f 3d bf 9b e4 3d 03 d2 f7 3d 2a 6b db bd
       0.058417384 0.11162519 0.121006034 -0.10713799
000020 7a ca 02 3e 99 db 3b bc d9 56 c1 3d 7f 2d cc bd
       0.12772551 -0.01146593 0.09440393 -0.09969615
000030 9a 97 20 3d 6f f9 6b 3d 35 8f 3d 3d 6f 1a e4 bd
       0.03920708 0.057610925 0.04627915 -0.11137854
000040 dc 24 2f 3e e8 6a 42 be a7 44 5d bd 64 94 31 be
       0.17103904 -0.18986094 -0.05402055 -0.17341763
000050 fa 0b 23 be 21 cf 3c 3e 10 54 2b be 4b 7b 04 3e
       -0.15922537 0.18438388 -0.16731286 0.12937658
000060 c6 28 1e 3e 3f 6b 3a be 7c 87 41 bd 34 14 32 be
       0.15445241 -0.18204974 -0.04724835 -0.1739052
000070 1c 86 2f 3e 41 dd 91 bb 0b ee fb ba ab 98 c8 bc
       0.17141002 -0.0044514243 -0.0019220723 -0.02448686
000080 39 22 43 bd 47 3a d0 bd 61 4d 13 3e ff d6 9f 3d
       -0.04764006 -0.101673655 0.14384986 0.07804679
000090 00 04 b5 3d 44 38 1b 3c 72 cb dd bd 44 fb 3b 3e
       0.088386536 0.009473864 -0.1082982 0.18357569
0000a0 2d fd 41 3e 37 b1 58 3d 21 64 3f 3e e4 b7 9b bc
       0.18944235 0.05290338 0.1869054 -0.019008584
0000b0 7f 34 48 3e bc 1b 0b 3e 41 b6 dd 3d a0 06 4b bd
       0.19551276 0.13584799 0.10825778 -0.049566865
0000c0 9b c2 ff bd 28 26 c7 bd e7 69 08 3e 16 83 c4 3d
       -0.1248829 -0.097240746 0.13321649 0.09595315
0000d0 54 47 96 3d 03 49 1d 3e 44 58 3e be 5a ad db bb
       0.073378235 0.15359883 -0.18588358 -0.0067040147
0000e0 6c 4a 99 3d 21 8d 25 3e ac f3 95 bd 86 2d 54 3d
       0.07484898 0.16167118 -0.07321867 0.051801227
0000f0 44 95 34 3d 86 27 43 be 20 77 44 be 5d c3 ef 3c
       0.044087663 -0.19058046 -0.19186068 0.029267961
000100 6e 0d 91 bc 69 4e 04 bd 22 69 05 be 07 80 20 be
       -0.0177066 -0.03230134 -0.13028386 -0.15673839
000110 db 01 3d be 23 07 bd 3d a1 e7 6f bd e2 bd 9f bc
       -0.18457739 0.09229877 -0.058570508 -0.019499723
000120 b3 f7 18 3e 29 e9 1e be 57 a1 6b 3c 12 c0 90 bd
       0.1493824 -0.15518631 0.014381728 -0.070678845
000130 07 6a 73 bd bf a7 ac 3d a6 5a 59 bd 58 ea a0 3d
       -0.059427287 0.084304325 -0.053064965 0.078571975
000140 0f f6 87 3d 9e ad a0 bd a9 f8 c2 bc fb be a6 3c
       0.06638729 -0.07845615 -0.023800211 0.020354738
000150 2e b6 08 be c7 3f 02 3e 41 5f 6f bd 3a 6c 0c be
       -0.13350746 0.12719642 -0.05844045 -0.1371316
000160 80 53 da 3c 20 d3 15 bd b0 73 7a bb 94 25 1a be
       0.026651144 -0.036578298 -0.0038215928 -0.15053397
000170 e6 cc 08 be ad 3e 87 bb 02 23 ff bd 2a ce 01 be
       -0.13359413 -0.0041273446 -0.12457849 -0.12676302
000180 09 dc ad bc 49 27 63 bd 45 db 84 bd 3b 2d 06 3e
       -0.021223085 -0.055457387 -0.06487135 0.13103192
000190 0d 38 28 be 23 de 29 be 0a ab 6c 3c 0e ff 23 3e
       -0.16427632 -0.16588645 0.014445076 0.16015264
0001a0 c4 b2 fb bd 92 32 24 be 85 97 4e bc d0 de 26 be
       -0.12289956 -0.16034916 -0.012609367 -0.16295934
0001b0 97 be 18 3e 36 af 0e be ce e1 9a 3d 47 92 3f be
       0.14916454 -0.13934025 0.075626 -0.18708144
0001c0 40 a1 de bd 59 d2 bc bd dd 63 d3 bd 11 7d 85 3d
       -0.108706 -0.09219808 -0.10321782 0.06517995
0001d0 43 41 bf 3d f7 73 30 3e ab db 00 be 56 48 c4 3d
       0.093386196 0.17231737 -0.12583797 0.095841095
0001e0 6c ac ea 3d 4d c7 04 be 0f 69 d5 bd e0 b0 39 3e
       0.11458668 -0.12966652 -0.10420429 0.18133879
0001f0 0c e3 17 be f1 60 0e 3e 0d 41 8c bd d4 5f 13 3e
       -0.14832705 0.13904168 -0.06848345 0.14392024
000200 a0 85 10 3e 09 d6 a0 bb 8f 3f 4f bd c4 c7 3f 3b
       0.14113474 -0.0049083275 -0.050597724 0.0029263357
000210 eb 15 34 be 7c 81 60 bd 94 78 14 3e f9 49 39 bd
       -0.17586486 -0.054810986 0.14499122 -0.04523656
000220 4c 4f be 3c 61 b4 16 3e 2a b5 12 be 05 82 6b 3d
       0.023231171 0.14717247 -0.14326921 0.057497043
000230 17 9e 73 bc 0c 7c 3b 3e 2f c8 c5 bd b3 b5 30 3e
       -0.0148692345 0.18309039 -0.096573226 0.17256813
000240 31 b4 cb 3d 77 a1 47 bd fe 59 1a be 19 55 24 be
       0.09946478 -0.04873797 -0.15073392 -0.16048087
000250 86 1a bd bd fa 0c 9a 3c d3 ab 8e 3d 33 6f 2f be
       -0.092335746 0.018805016 0.069663666 -0.17132263
000260 55 f3 d1 3d 6c 2b 1e 3e 62 93 97 bd 21 a3 cc 3d
       0.1025149 0.15446252 -0.07401158 0.09992052
000270 80 9d 6a bd 01 11 24 3d 8f 27 3d 3d b4 5c 48 bc
       -0.05727911 0.04005528 0.046180304 -0.012229133
000280 2d b2 b0 bd d0 24 10 be 00 08 1d 3e f0 18 27 3e
       -0.08627734 -0.14076543 0.15335083 0.16318107
000290 97 f4 37 3e f9 a2 2d 3d 21 0c 45 be fe 5a 01 3b
       0.17964397 0.04239175 -0.19242908 0.0019738073
0002a0 3f b8 43 3e b1 ef fa 3d 3e ea b8 bd 81 5a f7 3d
       0.19113253 0.12252749 -0.09029053 0.12077809
0002b0 7e b2 3a 3e ba 5c 0b 3e 64 bc 94 3c d1 b2 17 bd
       0.18232152 0.13609591 0.018156238 -0.037035767
0002c0 e9 16 32 be f7 5f 2b be 57 95 0b 3e 9d 4c 40 3e
       -0.17391552 -0.16735826 0.13631187 0.18779226
0002d0 c6 52 a0 3d 64 89 e0 bd 8a ce 11 3e 09 b9 cc bd
       0.07828288 -0.10963705 0.14238945 -0.0999623
0002e0 39 54 29 3e a5 0f 4a bd 9d d6 41 3d 8e 29 41 bc
       0.16536035 -0.049331326 0.04732381 -0.011789693
0002f0 c3 10 86 bd f4 ad 9e bc 38 db 1c 3e 4c 7a 92 3c
       -0.06546166 -0.019370057 0.15318 0.017880581
000300 8e 07 03 be e8 f5 38 3d 6f ea b4 bd dc 80 c3 bb
       -0.1279585 0.04515639 -0.08833777 -0.005966289
000310 68 57 ca bd 9d e5 20 be a6 6c b2 bd 1e 7f 2f 3e
       -0.09879953 -0.1571259 -0.08712129 0.17138335
000320 49 ff e6 bd a8 64 0a 3e 6d 24 0a be 5f 50 15 3e
       -0.112791605 0.1351496 -0.13490458 0.1458144
000330 6b 95 27 3e 50 f7 ab bd 94 e9 13 be 60 7b 9a bd
       0.16365592 -0.083967805 -0.14444572 -0.07543063
000340 9d d4 35 be b2 69 19 be e6 86 28 3e c3 81 ab bd
       -0.17756887 -0.14981726 0.1645771 -0.083743595
000350 f1 87 25 3d f0 84 36 bd 12 21 e1 bd 47 67 9c 3c
       0.040412847 -0.044560373 -0.10992636 0.019092215
000360 69 e6 e5 bd 57 fc f8 3d b1 8f 26 3d 28 18 38 3e
       -0.11225588 0.12157505 0.04066438 0.17977965
000370 b3 d2 b8 3d 62 f4 03 3e 02 56 64 bd 31 0c 00 3e
       0.09024563 0.12886193 -0.055746086 0.1250465
000380 31 b6 cc bd 68 79 ad bd a4 0c 80 3d 70 cb 16 3e
       -0.09995688 -0.08470422 0.06252411 0.14726043
000390 1d 8c 07 be b4 d2 24 3d 79 09 17 3e 69 ee 55 bd
       -0.13237043 0.040240005 0.14749707 -0.05222932
0003a0 8b 5a 34 bc d8 4d ad bd 61 c7 1d 3e da a3 41 bc
       -0.011007915 -0.08462113 0.15408088 -0.01181885
0003b0 83 49 83 3d 29 48 ed bd 80 b9 99 bd be e7 3b 3e
       0.064105056 -0.11586029 -0.075060844 0.18350121
0003c0 77 1b 3f be 28 de e1 bd 53 c3 21 3e 26 34 0f 3e
       -0.18662821 -0.11028701 0.15797167 0.13984737
0003d0 1d 33 45 3e bd ca 13 3e 4d bd 99 bc a1 8e ef 3b
       0.1925778 0.14432807 -0.018767023 0.007310704
0003e0 ca bc 85 bd 37 39 a5 bd 3b c6 02 3e 67 5c 05 3e
       -0.06530149 -0.080675535 0.12770931 0.1302353
0003f0 76 91 e4 bd 19 81 d4 3c 52 31 8b 3c 9b b9 a6 3d
       -0.11160557 0.025940465 0.016991291 0.0814087

GAT_layers.0.f.bias f4 [32]
000000 a5 a2 a0 3c bf 49 f1 bc eb 65 80 3d 8e 23 25 3d
       0.019608805 -0.02945411 0.06269439 0.04031711
000010 fa bf 5e 3d b5 7f 6f bd 42 2a 8a bd 01 47 55 bd
       0.054382302 -0.0584714 -0.06746341 -0.052069668
000020 6c dc 97 3d fc 00 5f 3c a9 82 3c 3b 9f 88 0e 3c
       0.07415089 0.013611075 0.0028764403 0.008699565
000030 17 1d a3 bd f0 c2 15 3d ac 34 16 3d 51 07 56 3d
       -0.07964533 0.03656286 0.036671326 0.05225307
000040 49 85 a2 3d bf 1a 93 bd 86 9a ad 3c 06 15 82 bd
       0.079355784 -0.07182836 0.021191847 -0.06351666
000050 90 8e b7 3d b0 32 93 bd f4 d6 a9 bc 1c b7 7c 3d
       0.089627385 -0.07187402 -0.02073238 0.061698064
000060 71 0b 47 bd 7c 77 fd 3c 12 cb f8 bc db 5c 29 bc
       -0.048594896 0.030940764 -0.030370269 -0.01033708
000070 32 c6 87 3d 39 55 87 bd ce 5e a9 3c a3 14 81 bc
       0.066296 -0.06608052 0.02067509 -0.01575691

GAT_layers.0.w.weight f4 [1, 124]
000000 1a 14 2a 3d 38 43 03 3e b5 3e aa bd 1b 87 00 be
       0.041523077 0.1281861 -0.08312742 -0.12551539
000010 4d 47 1c be 88 0b 35 be 58 dc ba bd 82 67 47 3e
       -0.15261574 -0.1768018 -0.091240585 0.19473079
000020 53 bd de 3c d8 5d cc bd cc bd e8 bb 97 6b 40 3a
       0.027189886 -0.09978837 -0.0071027037 0.0007340251
000030 33 77 cf 3b 2d 39 46 be 67 70 47 3e 91 05 46 3e
       0.0063313483 -0.19357748 0.19476472 0.19338061
000040 05 da 01 be ae ea 18 3d 51 ce 25 3d e4 12 4a 3e
       -0.12680824 0.037333183 0.04047996 0.19733769
000050 86 16 8f 3d 96 57 19 be 7a 76 08 3e 45 23 b8 bd
       0.06986718 -0.14974818 0.13326445 -0.08991102
000060 90 06 1d bd 73 82 d5 3d da 01 1d be 83 e1 60 be
       -0.038336337 0.10425272 -0.15332738 -0.21961026
000070 44 7b 2b 3e 9b 20 bc 3d 6c 5e 6e 3c ab 31 d2 3d
       0.16746241 0.091859065 0.014548879 0.1026338
000080 59 21 f7 bd 15 73 12 3e 44 c1 41 3e c3 6b e0 3d
       -0.120669074 0.14301713 0.18921381 0.10958054
000090 cc 67 5b bd 26 cb f8 bb cf 23 37 3e c0 f0 92 bd
       -0.053565785 -0.0075925766 0.17884754 -0.07174826
0000a0 b5 ca 4b bd 2c 6e fd bb ee ab 86 3d 12 8e 4a 3d
       -0.049753863 -0.007734081 0.06575762 0.049451895
0000b0 7b fc 48 3d 6e 67 00 be b3 ce 13 3d 2e ff 9e 3c
       0.04906891 -0.12539455 0.036085796 0.019408789
0000c0 ff 2f 48 3e f3 9f 1f 3c 35 63 33 3e 51 24 2f 3e
       0.19549559 0.009742725 0.17518313 0.17103697
0000d0 18 77 2a bd 49 77 a7 3d 02 4b 2f be f3 62 57 be
       -0.041617483 0.08177049 -0.17118457 -0.2103384
0000e0 de 9a 27 3e b2 af f4 3d f1 b6 8b 3d 85 fb 9f bd
       0.16367671 0.11947574 0.06822003 -0.078116454
0000f0 ee cb 06 be 97 a0 52 be e8 cc 2d be c3 7e 33 3e
       -0.1316373 -0.20569073 -0.16972697 0.17528825
000100 19 37 9a bd 97 66 0a 3e 54 89 4a bd 5f c8 45 be
       -0.0753004 0.13515697 -0.049447373 -0.19314717
000110 19 48 f8 bd 14 f0 03 bc 1c 89 25 be ba 46 26 3e
       -0.121231265 -0.008052845 -0.16165584 0.16237918
000120 bb f5 ae bd 2a 7b d6 bd ee bf 57 be cd 1c 4a 3e
       -0.08542963 -0.104727104 -0.21069309 0.19737549
000130 ca 6f 1b be b7 6b f2 bd 37 cb 22 3d 24 4c 50 be
       -0.15179363 -0.11836951 0.039744582 -0.20341545
000140 9d 62 4b 3e 5d 55 0e 3e 54 5d 8a 3c 87 f1 a1 3a
       0.19861837 0.13899751 0.016890205 0.0012355306
000150 5d 78 a4 bb d9 35 5b 3d 68 b0 c7 bd 76 fe d3 3d
       -0.0050192312 0.05351815 -0.09750444 0.10351269
000160 85 94 c3 3d 79 9e 1a be d0 40 38 be cb ed 8e bd
       0.09549812 -0.15099515 -0.17993474 -0.06978949
000170 13 59 60 be 21 4e 44 3e 92 64 f0 3d 6a af 52 bd
       -0.21908979 0.19170429 0.11737932 -0.05143682
000180 89 e4 32 3e 75 7a 4e be b1 aa 0f 3d 43 a1 dd 3c
       0.17469992 -0.20163901 0.035074893 0.027054435
000190 89 59 38 be 69 67 57 be 8a 62 cc 3d a4 b3 24 be
       -0.18002905 -0.21035542 0.09979732 -0.16084152
0001a0 41 0c d8 3c 6d 05 37 3e fe 6e a3 3b c9 68 b4 bc
       0.02637303 0.17873164 0.0049875965 -0.022022622
0001b0 ba 2a 51 3e 28 68 3e be 82 5c 5e 3d 77 1b 26 3e
       0.20426455 -0.1859442 0.05428744 0.16221415
0001c0 ba 80 50 3e 85 2c 0c 3e 53 1f 3d 3e 1f 05 f8 ba
       0.20361605 0.13688858 0.1846898 -0.0018922425
0001d0 e9 9e 53 3e 05 ff 32 3e 83 56 09 be 79 88 b8 bd
       0.20666088 0.17480095 -0.13411908 -0.09010405
0001e0 bd 27 9c 3d 7d 73 22 3e 3c ab 91 3a 3e 46 44 be
       0.07624767 0.15864368 0.0011113654 -0.1916742

GAT_layers.1.f.weight f4 [64, 64]
000000 aa 58 67 bd d6 3b f9 3d 06 38 39 be 74 a0 08 bd
       -0.05648104 0.12169616 -0.18087777 -0.033356145
000010 a4 62 6b 3d 03 f2 5c bd e6 8a 28 3c 6c ea 7f bd
       0.057467118 -0.053941738 0.010287022 -0.06247942
000020 5c 89 28 be 47 ea 55 bd 9f 26 39 be 62 43 34 3e
       -0.16458648 -0.052225377 -0.18081139 0.1760383
000030 9f 17 ec 3b b2 aa fe 3d bb 04 3e bd 07 b9 78 3d
       0.0072049643 0.12434901 -0.04639123 0.06072333
000040 ad 00 ed bc b8 68 a5 bd 4e fc 00 bd 87 51 23 bd
       -0.028930986 -0.08076614 -0.031490617 -0.039872672
000050 2b e5 52 be 2c 0d d0 39 63 70 1b be cf e5 ac bd
       -0.20595233 0.00039682665 -0.15179591 -0.0844227
000060 5a 2a 84 bd 5e cc 07 be 34 3d e1 bc b7 e9 f3 bd
       -0.064533904 -0.13261554 -0.027495004 -0.11909812
000070 15 61 41 3e 02 92 ec 3d e7 fe 19 be 54 ae cf 3c
       0.1888469 0.11551286 -0.15038644 0.02535168
000080 39 e9 c2 bd be ce 48 3e 11 5c 10 3e 0e 56 1d be
       -0.0951714 0.19610116 0.1409762 -0.15364859
000090 c7 79 5d 3e 57 48 09 3e 4f 51 59 3d 4a 9a 90 bd
       0.21628486 0.13406502 0.053056058 -0.07060678
0000a0 c8 bc 55 3b 3d bc 1e bd 90 34 b3 bd d8 7f 2d bd
       0.0032613743 -0.038753737 -0.0875026 -0.04235825
0000b0 1e b3 cf bc ab 8f a5 3d 15 f1 e0 bc 27 e3 43 be
       -0.025353964 0.08084043 -0.027458707 -0.1912962
0000c0 dd ee d5 3d 8a d5 8e bd 33 8f 34 be e5 23 17 3e
       0.1044595 -0.06974323 -0.17632751 0.14759786
0000d0 73 3e b8 bd 0f 0b a8 3d 65 67 5b bd 5a 0c 2f 3d
       -0.08996286 0.08205234 -0.0535654 0.04273639
0000e0 48 fb 43 be bc 3a 1f 3e 2c ed 35 be 35 1c 19 3e
       -0.19138825 0.15549749 -0.17766255 0.14952166
0000f0 e4 0f 56 3e 38 15 1e 3e 75 27 34 be 94 e3 1c bd
       0.209045 0.15437782 -0.17593177 -0.038302973
000100 5e f4 d7 bd f6 53 fe bd 73 7a 53 3e a2 db 8a bd
       -0.10544656 -0.12418358 0.2065218 -0.06780173
000110 27 53 6c 3d 36 a5 44 3e 46 6e 17 be ee 27 30 3e
       0.057696488 0.19203648 -0.1478816 0.17202732
000120 ae 68 71 3d 3a 8d 32 3e 7b 0c ef bc cc 1f 57 3e
       0.05893772 0.17436686 -0.029180756 0.21008223
000130 51 6f 8a 3d fd 1e b6 bd c2 84 4a 3e 71 16 0d be
       0.06759513 -0.08892629 0.19777206 -0.13778092
000140 a8 ae 30 3e d4 b2 68 bd 9f a0 37 be f9 8b 04 3e
       0.17254126 -0.05681117 -0.17932366 0.1294402
000150 75 5b 56 be 95 e8 d7 bb 5b 51 90 bd 52 62 cb 3d
       -0.20933326 -0.0065890052 -0.07046767 0.099308625
000160 05 37 7e bd 32 b3 c5 bc aa ad 8c 37 1b 26 09 3d
       -0.06206419 -0.024133299 1.677017e-05 0.033483606
000170 7f d8 7d bd 08 74 4c 3d 9b be 4c bd f1 5b 2f bd
       -0.061974045 0.049915344 -0.049986463 -0.04281229
000180 58 30 2b bc 7f 3e 38 3e 20 5b 61 be f6 91 9a bd
       -0.010448538 0.1799259 -0.22007418 -0.07547371
000190 d0 09 40 3e 64 40 ce bd e0 6b 38 3e d5 63 a6 3d
       0.18753743 -0.10070875 0.18009901 0.0812451
0001a0 58 41 10 3e 2f 47 2f bd 80 33 58 be 29 91 04 3e
       0.14087427 -0.042792495 -0.21113396 0.12945999
0001b0 12 b6 94 bd 23 21 d5 bd ab 00 c5 3d a2 8e cc bd
       -0.0726129 -0.10406711 0.09619268 -0.099881425
0001c0 c7 cf e6 bd eb 36 12 bb 1b 50 57 bd 78 a6 1f 3d
       -0.11270099 -0.0022310566 -0.05256663 0.038977116
0001d0 18 2c c9 bc 1f 46 25 be 43 d4 f0 3d 76 1e a4 3d
       -0.024557158 -0.1614003 0.11759236 0.080136225
0001e0 05 75 7b 3d 17 81 05 be bb d0 33 be b3 2a 27 be
       0.061390895 -0.13037525 -0.17560093 -0.16324882
0001f0 dd b0 be bd b7 a0 3e be 14 71 29 3e 8d 45 54 3d
       -0.09311078 -0.18615995 0.16547042 0.05182414
000200 23 76 54 be 89 60 a3 3c 97 8f 39 be 60 e7 86 bd
       -0.2074819 0.019943492 -0.18121181 -0.065871
000210 ba 9d 0b be 6a 8c 56 bc 91 5a 12 3e 73 3e ca bd
       -0.13634387 -0.013095001 0.14292361 -0.098751925
000220 34 fc 19 be a6 06 00 3e c3 08 4e bd 3f 5f 31 be
       -0.15037614 0.12502536 -0.050301325 -0.1732149
000230 89 b2 09 bd dd 76 4a bd af 91 2a 3e a3 bd 36 3d
       -0.03361753 -0.049429763 0.16657136 0.044614445
000240 d3 bd 40 3d 6e 31 17 be 95 e7 10 3e 5e 2e 08 be
       0.04705603 -0.1476495 0.14150842 -0.13298938
000250 fa fc 50 be 4e e8 ac bd 1d c9 cb bd ea b6 d8 bd
       -0.20409003 -0.08442746 -0.09950469 -0.10581763
000260 c0 a9 2f 3d ba 2f 38 be 9b 97 20 3d ba c9 3a 3e
       0.042886496 -0.17986956 0.039207082 0.18241015
000270 9d f2 36 be 65 89 ff 3d 84 a3 53 be eb b2 74 3d
       -0.17865987 0.12477378 -0.20667845 0.059740942
000280 4e 0b 46 3e ae db ce bd ac 35 e0 bd ed 4b 1f be
       0.1934025 -0.10100494 -0.10947737 -0.15556307
000290 85 82 37 3d 2b b5 16 be 40 91 a9 bd 30 a9 c8 3d
       0.044802207 -0.14717548 -0.08279657 0.09797895
0002a0 89 e1 4b 3d 6c d4 20 3e fc 56 4c be 99 f5 2d be
       0.049775634 0.15706033 -0.19955057 -0.1698822
0002b0 fd 10 9a bd 15 f2 41 be 35 02 b3 3d 11 77 3b 3d
       -0.075227715 -0.18940003 0.08740655 0.045767847
0002c0 b0 dc 1d be 41 f3 22 bc 62 b5 1f bd fa 03 3a 3d
       -0.15416217 -0.009945692 -0.03899134 0.04541395
0002d0 b9 25 13 3e d0 1f 9e bc 9d 5d 8c bd 52 61 2e be
       0.14369859 -0.019302279 -0.06853793 -0.17029312
0002e0 7a 44 1f bb 07 66 b0 38 f6 cc 58 be f0 3a 34 bd
       -0.002430229 8.411338e-05 -0.21171936 -0.04400152
0002f0 82 d5 95 3c ef cf 9a bd 34 54 3c 3d 1f 9b b2 bd
       0.018290285 -0.075591914 0.04597874 -0.08720993
000300 ff 16 c1 3a b0 f2 59 bd 62 c4 cc bd a1 c4 c5 bd
       0.0014731585 -0.05320996 -0.099983945 -0.096566446
000310 32 e0 cd bd ef 4c 16 be 15 46 21 3d 71 d0 1d be
       -0.100525275 -0.14677785 0.039373476 -0.15411545
000320 21 67 1a 3d ea 44 3a be 3f 1b 09 be 3f ab 43 3e
       0.037696008 -0.18190351 -0.133893 0.19108294
000330 d9 bb 7e bd 44 55 82 bd 30 87 e0 bd c8 ac 40 3e
       -0.062190864 -0.063639194 -0.10963285 0.18815911
000340 85 b4 39 bd 01 91 24 be 62 85 62 3d d7 c2 66 3d
       -0.045338172 -0.1607094 0.055302985 0.056338158
000350 10 60 91 bd f9 45 33 be 8f a1 12 be 92 f9 a7 3d
       -0.070984006 -0.17507161 -0.14319442 0.08201899
000360 5d 99 0b 3e a4 78 e0 bd 13 be fa bd 4c cf 41 bd
       0.13632722 -0.109605104 -0.12243285 -0.047316834
000370 67 d0 11 3c 41 94 87 bd 6e 79 4d be 5b f9 25 be
       0.008899785 -0.06620074 -0.20065853 -0.16208403
000380 1a 3e 3a 3e 3f 1d d5 3d 10 a9 28 3e 74 30 ad 3d
       0.18187752 0.10405969 0.16470742 0.08456507
000390 22 02 29 be 9c 56 2f bd 3a 71 1a bd aa 31 85 bd
       -0.1650472 -0.042807207 -0.037705638 -0.06503613
0003a0 f0 a3 56 be 5d 33 f3 bd 71 5d 0e 3e 39 a7 00 be
       -0.20960975 -0.11875031 0.13902833 -0.1256379
0003b0 6f 8c 03 be da d8 b7 bd 12 42 52 be 3c 06 98 3d
       -0.1284654 -0.08976908 -0.20533016 0.07423064
0003c0 57 5f 0f be 73 ce 35 3e 5e ba 40 3e 0d c8 12 be
       -0.14001213 0.17754535 0.18821093 -0.14334126
0003d0 71 93 2e be 0c 2b 43 be 26 33 47 3e d1 fe f4 bd
       -0.17048432 -0.1905939 0.19453105 -0.11962665
0003e0 f1 47 4a be e0 8e f0 3d cd d1 ed bb a8 56 39 3e
       -0.19754006 0.11746001 -0.007257676 0.18099463
0003f0 eb 88 9a bd 0b 26 be 3c 61 f1 c5 bd f0 9a 6e bd
       -0.07545646 0.0232115 -0.0966518 -0.05825323

GAT_layers.1.f.bias f4 [64]
000000 c3 56 9f 3d ef 77 c2 bb f2 cc 8c bd 00 61 c3 ba
       0.0778022 -0.0059347074 -0.06875028 -0.0014906228
000010 27 ff 1b bd c9 6e 04 bd aa f3 cd 3d 4e a9 d8 bd
       -0.03808513 -0.032332215 0.10056241 -0.10579167
000020 f1 8a b1 bd 4c 04 b6 3d 22 11 d7 3d a6 ee 9e bd
       -0.08669079 0.08887538 0.10501315 -0.07760362
000030 30 80 3b bd c5 e9 e5 3c c5 a2 5b bd 4d a5 8c 3d
       -0.045776546 0.028065572 -0.053622026 0.06867466
000040 0d 71 0c bd d3 09 98 bc f4 1e b1 bd 55 bb 9b 3c
       -0.0342875 -0.018559372 -0.08648482 0.019010225
000050 b4 d1 56 bd ac 1a 07 3d 5f 31 a1 3c 67 1e a9 3d
       -0.052446082 0.03298442 0.019676862 0.08257752
000060 f1 68 1a bb 62 91 cd bd b7 2d fe 3c 33 5d 8e 3d
       -0.0023561085 -0.10037495 0.031027658 0.0695137
000070 ef b1 f4 3c ab 69 6c bd 76 af dd bd 1b 1e db bc
       0.029870002 -0.05771796 -0.10824482 -0.026747754
000080 cf ca 17 3c b8 e3 1a bd 66 9b eb 3b 2b 23 92 3c
       0.009264662 -0.037814826 0.007190156 0.017839035
000090 09 02 4e 3d d0 70 64 bd 06 1b c1 bb ec 11 c3 bd
       0.05029491 -0.05577165 -0.005893114 -0.09524903
0000a0 44 ce dd 3d 1b fe a2 3c fb cb 4f bc bb 16 5f 3c
       0.10830358 0.019896558 -0.01268291 0.013616259
0000b0 bf 52 aa 3c f5 de 48 bd b5 a5 81 bd 60 85 95 bd
       0.02079141 -0.049040753 -0.06330434 -0.0730083
0000c0 7d c0 2f 3c 0e 2e e1 bd 05 aa f2 bd 94 85 cb bc
       0.010727045 -0.10995112 -0.11848835 -0.024843968
0000d0 77 e2 6d 3d f2 ae 8b 3d 95 c8 b4 bd 3a 2e c8 3d
       0.0580773 0.068204775 -0.088273205 0.09774442
0000e0 b4 d3 f3 3d 34 50 c9 3d c6 fb f7 bd 88 00 00 bd
       0.119056135 0.09829751 -0.12108569 -0.031250507
0000f0 0b 33 b6 3d b7 5a 9e bd 0e d0 ba bc 3c ae 35 3d
       0.088964544 -0.07732146 -0.022804286 0.044355616

GAT_layers.1.w.weight f4 [1, 64]
000000 30 49 8e 3e c6 6d 86 3d 58 86 43 3e 25 45 a1 bd
       0.27790213 0.06563906 0.19094217 -0.078745164
000010 01 69 91 be 9c ff fe bd 58 a9 1b be d4 cf 84 be
       -0.28400424 -0.12451097 -0.15201318 -0.2593981
000020 ea 85 d3 bd 6b 93 29 3e fb 7e 83 3e 2f 7e ab 3d
       -0.103282765 0.16560142 0.25682816 0.08373677
000030 a7 c0 93 3e 93 46 79 bd d3 97 c0 bd 61 f4 83 be
       0.2885792 -0.06085832 -0.09403958 -0.25772384
000040 e3 4d 0e 3e 4b 0b 46 3e 0f ab 0b 3e df bc 14 be
       0.13896899 0.19340245 0.13639472 -0.14525174
000050 67 f4 a4 bd 23 28 10 3e 04 19 dc 3d 22 be c8 bd
       -0.080544285 0.14077811 0.10746959 -0.0980189
000060 0e f0 46 bd 65 30 8e 3e 92 5d 90 3e 48 ae 6b be
       -0.048568778 0.27771297 0.28196388 -0.23015702
000070 c1 d6 59 be eb 2e 9a 3e e2 4e c0 bd 00 7b ec bc
       -0.21273328 0.3011392 -0.09390046 -0.028867245
000080 16 c2 bf 3b d0 de 14 bc d0 4a 9c 3e ab dd 39 be
       0.0058519943 -0.009086326 0.30525827 -0.18150966
000090 eb 26 4f be 97 1e 79 be 88 9a 2e 3e be 34 f6 3b
       -0.2022969 -0.24328075 0.17051136 0.0075136116
0000a0 7b da 24 3e 9b 04 e0 3d 4c 5f e6 3d 12 b0 21 3e
       0.16098969 0.109383784 0.11248645 0.15789822
0000b0 66 39 0d be 1d 13 1a 3c 0e 41 b6 3d 05 ea 72 3e
       -0.13791427 0.009403971 0.08899127 0.23722084
0000c0 37 88 0b be 17 01 0b bd 79 65 19 3e 73 0c 8e 3e
       -0.1362618 -0.033936586 0.14980115 0.27743873
0000d0 0e 55 83 bd 5f 7c fc bd 43 b4 71 be 64 b8 9c 3d
       -0.06412707 -0.123284094 -0.2360392 0.07652357
0000e0 7b 0b 86 3e 62 06 1b 3e 6c ce 35 bd eb fd 61 be
       0.26180634 0.15139154 -0.044386312 -0.22069518
0000f0 52 66 38 3e a8 11 74 3e 73 7b d7 bd 3a 82 8d be
       0.18007782 0.2383486 -0.10521593 -0.27638417

GAT_layers.2.f.weight f4 [64, 128]
000000 7c f6 c8 3d 78 ea b9 3d 2f 64 ba bc 5a 49 01 be
       0.09812638 0.090779245 -0.02275285 -0.12625638
000010 0c c8 b4 bd 56 8d 36 be e2 b3 17 be 27 75 7a 3b
       -0.088272184 -0.17827353 -0.14814714 0.00382168
000020 33 b8 62 3d 13 62 33 bd 00 fa 37 be 45 ac e4 3c
       0.055351447 -0.043794703 -0.17966461 0.027914176
000030 07 e9 19 be 19 04 93 bd e6 a0 b3 bd 78 c8 1e 3d
       -0.15030299 -0.07178516 -0.08770923 0.0387654
000040 92 d8 22 be 19 4e 47 3d 0a bd 6b 3d 1f 02 1d 3e
       -0.15902928 0.048658464 0.05755333 0.1533284
000050 04 5c c9 bd b2 9e 08 3c 1a 6a 1e be 32 66 9c bd
       -0.09832004 0.008338617 -0.15470162 -0.0763668
000060 2c 20 8a 3c c2 2f 4a 3b af 41 c5 3d 17 d5 25 3e
       0.016861044 0.003085122 0.09631669 0.16194569
000070 c6 e0 c1 3d c2 1f 41 3d fc ba 05 be 09 b2 b5 bd
       0.094667 0.047149427 -0.1305961 -0.08871848
000080 2d 7d 8b 3b 7a 10 47 3b e0 41 f3 bd bd b3 b2 3d
       0.0042568655 0.003037481 -0.11877799 0.087256886
000090 fc 55 57 3d e4 5f a2 bd fa 14 c6 bd 3b f9 1c bc
       0.052572235 -0.07928446 -0.0967197 -0.009580906
0000a0 9c 16 ce 3d 8d d9 72 3d 44 fd e0 bc 76 19 f3 3d
       0.10062906 0.059289504 -0.027464516 0.11870091
0000b0 09 da 0a 3e 0b ec 8b bd 43 67 f6 bc e0 08 48 3d
       0.13559736 -0.06832131 -0.030078536 0.04883659
0000c0 0c e3 d0 bd d6 42 86 bd 77 34 0c be 54 bb 24 be
       -0.10199556 -0.06555717 -0.13691889 -0.16087085
0000d0 1f a8 70 3d 3c c3 63 3d df 70 5d 3d 08 22 89 bd
       0.058754083 0.055606112 0.05406272 -0.06695944
0000e0 7b 54 79 3d 9b b4 22 be 4a 5c 11 3e b0 d9 18 3e
       0.060871582 -0.15889208 0.14195362 0.14926791
0000f0 03 6c ab bd 78 09 ca 3a 1e ee 08 3e e2 b4 f6 3d
       -0.08370211 0.0015414199 0.13372084 0.120462194
000100 a6 2b 58 bc 9e 09 25 3c ab de 4b 3c cc 02 d8 bc
       -0.013194 0.010073094 0.012443225 -0.026368521
000110 58 ad dc 3d 92 1c 32 3e 15 49 aa 3b 0c 58 2c be
       0.1077525 0.17393711 0.0051967003 -0.16830462
000120 89 21 f3 bd b1 08 94 3c 02 ca 16 3e 2d d4 1b bd
       -0.11871631 0.01807055 0.14725497 -0.038044143
000130 64 24 17 be 78 9f 8e 3d fd 1f 10 3e 29 f9 12 be
       -0.14759976 0.0696401 0.14074703 -0.1435286
000140 3b 43 6c 3d fe 61 28 be b6 de cb 3c be 56 04 bd
       0.057681303 -0.16443631 0.02488647 -0.032309286
000150 25 4a c2 bd d6 25 f9 b9 98 7e b9 3c 6c 81 08 bd
       -0.09486798 -0.0004752117 0.022643372 -0.03332655
000160 82 d1 20 be 28 0f 74 bd 3a f6 79 3c 03 32 2c bc
       -0.15704921 -0.059584767 0.015256459 -0.010509971
000170 88 17 12 be 14 de fa 3c 61 55 2a 3d 78 eb 4a bd
       -0.14266789 0.030623473 0.04158533 -0.049540967
000180 6d b2 aa bd 00 19 01 bd d6 f9 ae bd 71 1e 02 3e
       -0.08334813 -0.031517982 -0.08543746 0.12706925
000190 a8 8b ea bd b0 f1 03 3e 92 20 a6 3c d0 cf 4c bd
       -0.114524186 0.12885165 0.020279203 -0.050002873
0001a0 c8 5a dd 3b a4 bb 2c 3e 20 d4 83 3d 62 ce 5b bd
       0.0067552067 0.16868454 0.06436944 -0.05366362
0001b0 17 0d 27 3e 80 6f ea 3c 8c eb dc bd 33 4c f9 3d
       0.16313587 0.02861762 -0.107871145 0.12172737
0001c0 d2 77 17 3d de d1 6c bb f1 6c 99 bc 14 1f 34 bc
       0.036979504 -0.0036135833 -0.018728705 -0.010993738
0001d0 d9 51 1f 3e d3 d6 e4 bd f6 d2 00 be 03 09 97 3a
       0.15558566 -0.11173787 -0.12580475 0.0011523071
0001e0 e3 c6 0b 3e 88 b1 a7 3d ca a3 72 3d 54 0a 17 bd
       0.13650088 0.08188158 0.059238233 -0.036875084
0001f0 c4 f8 14 3e 33 cf 21 3e b0 75 e9 bb fc 71 08 bd
       0.14548022 0.15801696 -0.007124625 -0.03331183
000200 6a 7a 2d be aa 0b 46 bd 9e 07 b2 bd db 33 5c bd
       -0.16941229 -0.048350967 -0.08692859 -0.05376039
000210 ad b4 1d 3e 3f ab 88 3c 20 8b 28 3e 3a 29 99 3d
       0.15400954 0.016683219 0.16459322 0.074785665
000220 07 60 2e be a1 40 a9 3d 02 45 0b bd 7d ab e0 3d
       -0.17028819 0.0826428 -0.034001358 0.10970209
000230 0c 12 cd bd 26 25 fc bd 56 2a c0 bd 85 e9 18 bd
       -0.10013208 -0.12311773 -0.09383075 -0.037332077
000240 16 04 29 bd 88 98 cb 3d c7 85 06 bc 7b 00 26 3e
       -0.041263662 0.099412024 -0.008210606 0.16211121
000250 2a c9 0d 3e 6b e2 48 bd ae 19 fc 3c af 91 8b 3d
       0.13846269 -0.049044054 0.030773964 0.06814896
000260 b6 8d e1 bd bb 51 b0 3d 5f ca 62 3d ad 24 88 bd
       -0.11013357 0.08609339 0.055368777 -0.0664762
000270 32 52 12 be 36 fa 23 3e aa 28 30 bd 11 c1 21 3e
       -0.14289168 0.16013417 -0.04300753 0.15796305
000280 f0 12 b1 3c 9a a9 c0 3d 98 ff be bc 5a 43 bb 3d
       0.021615475 0.09407349 -0.023315236 0.09143706
000290 fe ea 15 3e c5 e7 cb bd 97 14 10 3e 34 67 9c bd
       0.14640424 -0.09956316 0.14070354 -0.07636872
0002a0 4c b9 fe 3d 1f 86 6d 3d a8 ad e0 3d 66 88 21 3e
       0.12437686 0.057989236 0.10970622 0.15774688
0002b0 eb 99 14 be 4a 6f 83 bd 49 90 e1 bb 7d d7 ec 3c
       -0.1451184 -0.06417711 -0.006883655 0.028911347
0002c0 ee f1 a8 bd 9b 78 b9 3d 15 14 75 3d bc 2f 12 be
       -0.082492694 0.09056207 0.059833605 -0.14276022
0002d0 2e 55 d1 bd 76 6e 6c 3d 92 e5 8a 3b 6a 69 32 be
       -0.10221325 0.05772253 0.0042387927 -0.17423025
0002e0 09 e1 a2 bd de 38 27 3e d3 7a 30 3e 1a f7 15 bd
       -0.07953078 0.16330287 0.17234354 -0.036612608
0002f0 57 47 f0 bd 52 fe 1b 3e 79 78 d7 bd d6 1d 23 bb
       -0.11732357 0.15233734 -0.10521025 -0.002488961
000300 e1 fe 13 3e 04 c4 c9 bd c0 75 cd bd e1 75 29 3e
       0.14452697 -0.0985184 -0.10032225 0.16548873
000310 8a 35 d5 bd 08 eb 05 3d a5 a4 24 bd 48 03 9c 3d
       -0.104106024 0.032694846 -0.04019608 0.07617813
000320 7e a1 d3 3d d7 5f f5 bd 99 fc 9f bd 8c 73 20 3d
       0.103335366 -0.119811706 -0.07811851 0.039172694
000330 06 41 08 bd 8c f3 9d bd 6e 71 51 bd 2b a5 20 be
       -0.033265136 -0.077124685 -0.051133566 -0.15688007
000340 9d 0d e7 3d 01 20 8e 3b e1 3d d5 bd 59 9b 4d bc
       0.112818934 0.0043373113 -0.10412193 -0.012549245
000350 b7 95 73 bd a4 ec 2d 3e c6 70 cc 3c c0 4e 16 be
       -0.05946895 0.16984802 0.024956118 -0.14678478
000360 42 aa f6 3d e9 98 fd bd 5d 29 0c be de 5f 22 bd
       0.12044193 -0.12382681 -0.13687654 -0.039642207
000370 12 c7 d5 3d f6 bc b1 bd a7 b9 de bd 98 c0 16 3e
       0.1043836 -0.086786196 -0.10875254 0.14721906
000380 a6 cb 78 bd 43 94 05 3e c8 49 2d 3e 73 9b 15 be
       -0.06074109 0.13044839 0.16922677 -0.1461008
000390 72 94 18 3d 9e 4b f6 bd aa 08 fc 3a 96 ad 24 be
       0.037250943 -0.120261416 0.0019228656 -0.16081843
0003a0 1e f0 8f 3d 3f 9a e6 3d 9f b5 07 be 5c 3e 18 be
       0.070282206 0.11259889 -0.13252877 -0.14867538
0003b0 1c 9a fe bd 5b 29 93 3d 01 ef fe 3d a6 b3 2d 3d
       -0.12431738 0.07185622 0.1244793 0.042407654
0003c0 af 1b 2f be 23 7e d1 3d 0d fd 0a be 9f 5a 2b be
       -0.17100404 0.10229137 -0.13573094 -0.16733788
0003d0 e4 36 23 be 84 f7 29 be 25 69 4d 3d 5d 46 9f 3d
       -0.15938908 -0.16598326 0.0501491 0.077770926
0003e0 97 52 fe bd 8a c2 d3 bd 00 86 b2 3d 15 16 be 3d
       -0.124180965 -0.1033984 0.08716965 0.092815556
0003f0 51 a2 05 3e 5e d8 d4 bc 71 18 cc 3d 8c c0 da bd
       0.130502 -0.025982078 0.09965599 -0.10681257

GAT_layers.2.f.bias f4 [64]
000000 57 67 37 bc 71 a5 17 bc ed a6 ad bd b7 b7 95 bc
       -0.011194072 -0.009255753 -0.08479104 -0.018276079
000010 08 03 53 3d 1e 14 8a 3d e5 a9 5f bd 05 df 54 bc
       0.051516563 0.06742118 -0.054605383 -0.012992625
000020 94 52 8e bd 49 4b a7 bd 6b 05 9b bd b3 66 cd bc
       -0.06949344 -0.081686564 -0.07569393 -0.025073385
000030 98 e7 96 bd 45 e2 89 3c c8 d4 a4 bd 92 fd 83 3c
       -0.07368392 0.016831527 -0.08048397 0.016112123
000040 22 9e ad bd ae ad aa bd f8 23 b1 bd b9 5a a1 bd
       -0.08477427 -0.08333908 -0.086494386 -0.07878632
000050 bb 19 87 3d ce 33 5b 3c c2 f7 a2 bd 9d 86 15 bd
       0.065967046 0.01337905 -0.07957412 -0.03650533
000060 39 6f 8f 3d 27 75 18 3c 2b b1 8b bc 3c 7d 4c bd
       0.07003636 0.009305275 -0.017052254 -0.04992412
000070 8b 9d 77 bb a7 ab 34 bd 0e c5 9e bd 5f 64 ac bd
       -0.0037783112 -0.044109013 -0.07752429 -0.08417582
000080 8c 6f 5f bd 2b 52 5d bd 97 bf 87 3d 8e 46 03 bd
       -0.05454974 -0.05403344 0.0662834 -0.032049708
000090 3a 52 4b 3d 0e 8c 41 bd 81 b1 bf bb 71 a1 33 bd
       0.049638964 -0.047252707 -0.0058500175 -0.043855134
0000a0 d5 a9 57 bd f7 c2 9c 3d 7c 5b 89 bd 5e 2e d9 3c
       -0.0526522 0.07654374 -0.067069024 0.026511367
0000b0 11 c7 b5 3d ad d4 2a bd df 1e 86 bd 48 46 84 bd
       0.088758595 -0.04170673 -0.06548857 -0.064587176
0000c0 a6 bb b4 bd 39 25 65 bc c7 e6 15 bd db 88 98 3c
       -0.088248536 -0.013985925 -0.03659704 0.018619945
0000d0 15 6f 58 bd 20 99 93 b8 cd 9a 91 bd 17 b3 13 3d
       -0.05284031 -7.038028e-05 -0.07109604 0.036059465
0000e0 17 7b 2c 3d 1d 51 a6 bd b5 6f 53 3d 52 9d a3 3d
       0.042109575 -0.0812094 0.051620204 0.07988991
0000f0 7e 2e c2 3d 56 1d b9 bc 29 15 36 3d 21 30 eb bc
       0.09481524 -0.022596996 0.044453774 -0.028709473

GAT_layers.2.w.weight f4 [1, 128]
000000 87 c9 b6 3d 19 89 58 be 55 33 48 be f5 82 88 3d
       0.08925157 -0.21146049 -0.19550832 0.06665603
000010 94 39 bf bd 7a 93 69 3c 9b f0 1a be 96 4c 47 be
       -0.09337154 0.014256353 -0.15130846 -0.19462809
000020 01 e2 b0 bc cc 8b 0f bd 65 c8 e2 bd 0c 6c c4 bd
       -0.021592142 -0.03504543 -0.110733785 -0.09590921
000030 50 ef 11 3e 1e 69 4b 3e 5e b1 cd bd 2d 8b 05 be
       0.14251447 0.19864318 -0.10043596 -0.13041373
000040 e1 1e e4 3c 04 c8 3b be f4 2c 20 3e 4c 9d 2d 3e
       0.027846755 -0.18338019 0.15642148 0.16954535
000050 be bb bc 3d 27 14 b5 bd a9 2c 28 3e 15 15 40 be
       0.092154965 -0.088417344 0.16423286 -0.18758042
000060 0d 4e e1 bd c8 c8 d1 3d fb 33 5d 3e 1f 4a 5a be
       -0.11001215 0.10243374 0.2160186 -0.21317337
000070 98 b4 3c be 71 ae be 3d f5 86 c4 bd 79 90 36 bc
       -0.18428266 0.09310616 -0.095960535 -0.011142843
000080 44 7f 86 bc 02 b1 32 be d6 2a 31 be 8a 20 4c 3e
       -0.016418107 -0.17450336 -0.17301497 0.19934288
000090 d9 d6 33 bc f9 bc 2e 3e 90 9d 87 bb ef 2f 2b be
       -0.010976517 0.17064275 -0.004138656 -0.16717504
0000a0 6c c2 0f be 52 71 80 3d 12 c2 60 3d 48 72 36 be
       -0.1403901 0.06271614 0.05487258 -0.17817032
0000b0 f8 10 4d 3e 2c ad 4b bd 87 ed 34 3e 2b 0b 00 3e
       0.20026004 -0.049725696 0.17668734 0.1250426
0000c0 e9 6c e7 3d 8c e3 5a ba 34 e6 76 bd a6 5d 5e be
       0.1130007 -0.0008349947 -0.060278133 -0.21715412
0000d0 7b db ab 3d 33 b4 96 3c a3 7b fd 3c 47 8c fe bc
       0.08391472 0.018396473 0.030942744 -0.031072749
0000e0 ac 54 54 be f7 22 12 3e ed 42 49 bd ef ba a9 3d
       -0.20735425 0.1427115 -0.04913609 0.08287608
0000f0 f3 4e 37 3e 1d 29 8d bd 10 da 1f be b8 67 36 3e
       0.1790121 -0.06892607 -0.15610528 0.17813003
000100 8d a0 88 bd a2 d9 11 be 7e 4b 66 3d c4 f6 94 bd
       -0.06671248 -0.14243177 0.05622434 -0.07273629
000110 a0 45 97 bd 5b e8 b6 3d 1e 93 0a be 78 c1 06 bb
       -0.07386327 0.08931037 -0.13532683 -0.0020562094
000120 2b 40 1c bd e9 a4 22 be ba df b3 3d e9 90 40 3e
       -0.038147133 -0.1588322 0.08782907 0.18805279
000130 79 46 38 be 73 6e c1 3d 57 11 70 3d a7 00 2a 3d
       -0.17995633 0.09444895 0.058610287 0.04150453
000140 5a 77 1f bd f0 6c f7 bd fe 21 c7 ba 42 d1 03 be
       -0.038932182 -0.12081325 -0.0015192626 -0.12872794
000150 9c 98 15 be 1c 11 45 3d 19 12 5e bd 1c 76 2a be
       -0.14608997 0.04811202 -0.054216478 -0.16646618
000160 d9 97 32 3e a1 e5 af 3d bd 78 e9 3d 61 a4 59 bd
       0.17440738 0.0858872 0.11399982 -0.05313528
000170 b1 75 43 3d 3c a5 b3 3d 1c 1c 2e 3e e1 45 52 3e
       0.04771966 0.0877175 0.1700291 0.20534469
000180 54 3f 05 be 53 85 d2 bd b0 f2 52 be 92 1e 31 3e
       -0.13012439 -0.10279336 -0.2060039 0.17296818
000190 7b c8 3d bd 1a 77 1a be 5f f1 4b 3e e3 b3 6f bd
       -0.04633377 -0.15084496 0.19916295 -0.058521163
0001a0 1e 1c a1 bd 95 ed b8 bd 14 d8 17 3d 2e 2b 32 3d
       -0.07866691 -0.0902969 0.037071303 0.04349821
0001b0 01 ff a5 bd 53 48 36 3d e3 b2 5c be bf 9e d5 bd
       -0.08105279 0.044502567 -0.21552615 -0.10430669
0001c0 21 00 ee 3d f4 d4 4f be 87 d5 96 3c b6 9f fd bc
       0.11621118 -0.20296079 0.018412365 -0.030959945
0001d0 96 f9 4d bd 65 e8 3a 3e 9b 56 32 be e4 b3 6d 3c
       -0.05028685 0.18252714 -0.1741585 0.014508221
0001e0 b0 a9 30 3e 3f c8 f8 3d 0f 16 a4 bd f9 7a 7b 3d
       0.1725223 0.12147569 -0.0801202 0.061396573
0001f0 1b 30 20 3d f7 02 eb 3d e0 7f 2e 3e 8f 55 fe bd
       0.039108377 0.11475175 0.17040968 -0.12418663

MLP_layers.0.weight f4 [32, 64]
000000 34 75 4e 3d b2 f6 b4 3d ce fd 8a bd 28 8e b5 bd
       0.050404742 0.08836116 -0.06786691 -0.08865005
000010 33 60 84 bd d1 2f fb bd 02 7e e4 3d 28 76 ee 3d
       -0.06463661 -0.1226498 0.111568466 0.1164363
000020 0f 96 02 bd 60 ce b9 3d 0b 68 2c 3d 26 f6 d7 bd
       -0.03188139 0.09072566 0.04209141 -0.10544996
000030 5b 36 57 bc e0 42 87 3c 9e bf 2e 3d 67 7f a9 3d
       -0.013135518 0.01651138 0.04266321 0.08276253
000040 3c 88 b1 bd 40 cf b3 3d 05 f6 ec 3d 1f 10 d9 bd
       -0.08668563 0.08779764 0.11570362 -0.10598778
000050 5e ee f1 bd bc 4b 8e 3d 92 6c a9 3d 29 04 af bd
       -0.11813043 0.06948039 0.08272661 -0.08545715
000060 4d 47 f5 bd f6 60 de bd c1 e4 20 3d 11 c7 a5 bd
       -0.1197649 -0.108583376 0.039280657 -0.080946095
000070 70 c4 15 3d e6 ef 8c 3d c4 ea aa bd 66 f0 5c bd
       0.03656429 0.068816945 -0.08345559 -0.0539402
000080 68 19 2b 3d dd 6f fb bd 17 74 2c 3d 54 36 0a bd
       0.041772276 -0.122771956 0.0421029 -0.033743218
000090 bb be d1 bc e2 49 92 bd 2c 4a c4 bd a8 d4 91 bd
       -0.025603643 -0.07142998 -0.0958446 -0.07120639
0000a0 82 24 1c 3b cf b7 80 3d 34 18 7f bd 9a 84 8b bd
       0.0023825471 0.06285059 -0.06227894 -0.06812401
0000b0 1b 5d 7d 3c f0 9a dc bc d4 4a b5 3c 70 8f d6 bd
       0.015464093 -0.026929349 0.022130407 -0.10476577
0000c0 10 36 1d 3d e0 a1 72 3c b1 93 ba 3d d3 86 56 bd
       0.038381636 0.014809102 0.09110201 -0.052374672
0000d0 ce 7f bb 3d ee 13 60 3d 40 02 9d 3d ca da 06 bd
       0.09155236 0.054706506 0.07666445 -0.032923497
0000e0 3c de 6c 3d 1e 08 ac bd 8f 0e 99 bd 20 8a 4c 3d
       0.057829127 -0.08399986 -0.0747348 0.049936414
0000f0 75 19 a3 3d 93 62 a3 3c 51 5c 43 bc 00 98 1d 39
       0.0796384 0.019944465 -0.011923865 0.00015029311
000100 50 43 94 3d b4 b4 88 3d 45 a8 d3 3d aa 70 21 3d
       0.07239401 0.066750914 0.10334829 0.039414085
000110 38 34 c0 bd 21 9b 8a bd 3a 23 d0 bd 49 7c 06 be
       -0.0938496 -0.0676787 -0.10162969 -0.13133349
000120 c3 b7 89 3d 91 61 7e 3c ff 93 3a bd be a8 2b 3c
       0.06724503 0.015526191 -0.045551296 0.010477243
000130 bc 04 bb bd f0 5a 3b 3c 75 67 94 3d 5a 0f df 3c
       -0.091317624 0.011435255 0.07246295 0.027229
000140 50 2e 11 bd c0 18 35 3d 0b cf e3 bd 54 68 12 3d
       -0.035444558 0.044213057 -0.11123475 0.035744026
000150 fa ad 83 bb eb c7 b9 3c 56 74 f2 3d 00 39 f7 bd
       -0.0040185424 0.022678336 0.118385956 -0.12071419
000160 8c 02 f5 3c f9 ce 80 3d fa 0f f0 3d 84 97 bd bd
       0.029908441 0.06289477 0.11721797 -0.09257415
000170 8b c5 ea bd 38 48 ca 3c 12 cb b3 3d a2 97 33 bd
       -0.114634596 0.02469264 0.08778967 -0.04384578
000180 b0 10 cc 3d ac 67 66 bd 4b a5 b7 3d a0 54 a8 bb
       0.099641204 -0.056251213 0.08967074 -0.005137041
000190 c4 fe d8 bd 8b 77 a0 3c 48 d5 d8 3d 90 31 cc 3d
       -0.10595468 0.019588253 0.10587555 0.09970391
0001a0 57 93 c8 3d ba f9 7d bd ad d5 03 be 63 a7 19 3d
       0.09793728 -0.062005736 -0.1287448 0.037513148
0001b0 d4 36 77 3d 88 59 82 bc 37 e1 b9 bd b9 c4 10 3d
       0.060355023 -0.015911832 -0.090761594 0.03534386
0001c0 28 ca 5a bd 00 4d 45 bb 73 11 02 be cb ea e5 bd
       -0.053415447 -0.003010571 -0.12701969 -0.11226424
0001d0 3b e4 7b 3d 53 b5 82 3d 21 7f bf 3d e6 86 e0 bd
       0.061496954 0.06382241 0.0935042 -0.1096323
0001e0 e3 43 30 bd 1c 0c 68 3d 30 20 6b bd eb 2f dd bc
       -0.04303349 0.056652173 -0.057403743 -0.027000388
0001f0 c4 57 de bc 6e 61 81 bd ea e8 6b 3b 48 1f 9a 3c
       -0.02714146 -0.06317411 0.0035996982 0.018813744
000200 f7 c2 e9 bd 68 d0 b9 bd 55 17 39 bd 4c 4e 07 bd
       -0.1141414 -0.090729535 -0.045188267 -0.033033654
000210 ee cc 39 3c 6a 49 14 bd b0 6e 28 3d a1 db 9a bd
       0.011340363 -0.036202826 0.041121185 -0.07561422
000220 1b 03 f0 3c 02 c7 38 bc 75 47 f1 3d 36 a0 43 3d
       0.029298356 -0.011277916 0.117812075 0.04776021
000230 88 c2 3f 3d bf 0c 98 3c ed e4 f3 bd b1 e2 6f bd
       0.04681638 0.018560765 -0.119088985 -0.0585658
000240 43 b0 f0 3d 08 ba b3 3d 9a 5c 79 3d f8 c5 6c bc
       0.11752369 0.08775717 0.060879327 -0.014451496
000250 1e fc 55 3d e0 5e be bd 40 74 8a 3d e4 12 b9 3d
       0.05224239 -0.0929544 0.06760454 0.09036806
000260 98 2e 42 bc c1 db 90 bc cc 34 c5 3c cb 9a c2 3d
       -0.011851929 -0.017682912 0.024073027 0.09502181
000270 4e 18 c0 3d ca 7c 9e bd a0 0a 61 3d f2 dd e2 bd
       0.09379636 -0.077386454 0.054941773 -0.11077489
000280 9c 58 a4 3d 2e 97 e5 bd 91 fd b7 3d 92 41 e9 bd
       0.080247134 -0.11210476 0.08983911 -0.1138946
000290 53 6a 87 bd 04 65 2f bd 7a 17 f5 3d 24 19 77 bd
       -0.066120766 -0.042820945 0.119673684 -0.06032671
0002a0 07 67 a2 bd 4a c6 01 3d a1 ad 3e bd 20 cc ca 3d
       -0.07929807 0.031683244 -0.046552304 0.09902215
0002b0 5a 0d 0e 3d 52 81 a7 bd 9c 36 87 bd 9d f3 7c 3d
       0.0346807 -0.08178963 -0.06602213 0.061755765
0002c0 b4 82 68 bd 34 e6 3b bd 25 cf c5 bd 97 60 da 3d
       -0.056765273 -0.045873836 -0.0965865 0.10662954
0002d0 02 06 ef 3d 5a 4e b7 3c 08 11 fc 3c 5c a2 cf 3d
       0.11671068 0.022376228 0.03076984 0.101383895
0002e0 b3 65 9f 3d ea 88 83 3d a1 1e 90 3d 8b c1 6e bd
       0.077830695 0.06422599 0.07037092 -0.058290046
0002f0 52 de 20 3d 62 8d 1f 3c 35 0d 29 bd 44 25 dd bd
       0.03927452 0.009738298 -0.04127236 -0.107981235
000300 32 13 ce bd bc c4 16 3d 20 88 c6 bc dc ff c6 3d
       -0.10062255 0.036808714 -0.024234831 0.0971677
000310 88 1b e8 3d 0a 4e a1 3d 80 1d fa bd ea 01 a5 3d
       0.11333376 0.07876213 -0.12212658 0.08057006
000320 84 18 0e bd 50 26 14 3d 18 86 21 3d 40 ba aa bc
       -0.03469135 0.03616935 0.039434522 -0.020840764
000330 5c 1a 53 bd 74 7b b0 3d f0 90 9c 3c 24 cc cf 3d
       -0.05153881 0.08617297 0.01911208 0.101463586
000340 a0 d0 5b 3d 50 27 b2 3d e4 c5 5e bd f8 2b 89 3c
       0.053665757 0.086989045 -0.054387942 0.016744599
000350 a8 a1 d5 bd c0 e8 82 3d 3c 9f 5f 3d 70 3b c8 bd
       -0.10431224 0.0639205 0.054595217 -0.09776962
000360 60 b5 a9 3d e4 bc 8f 3d 80 f2 69 bb 78 42 49 bd
       0.08286548 0.0701845 -0.003569752 -0.049135655
000370 e8 f2 67 3d de 9d 9c 3d 30 fb 96 bc 30 f6 84 3d
       0.056628138 0.07647298 -0.018430322 0.06492269
000380 26 12 ac 3d ae 4c 9a 3d dc 7d bd 3d 2a 46 c3 3d
       0.08401899 0.07534157 0.092525214 0.09534867
000390 66 99 cc bd 14 6e 3d 3d 68 12 1f bd 4e 87 e6 3d
       -0.09990196 0.046247557 -0.038835913 0.11256276
0003a0 a0 c9 51 3d 2e 17 a7 bd b4 7c 0c 3d 30 b0 d8 3c
       0.051217675 -0.08158718 0.034298614 0.0264512
0003b0 18 19 b1 bd 88 3e 64 bd 2a fe c1 3d ec ea 93 bd
       -0.086473644 -0.055723697 0.09472306 -0.07222542
0003c0 f0 ae 18 bc 3c e6 eb 3d d0 3d fe bd c0 2a ea 3b
       -0.009319052 0.11518523 -0.124141335 0.0071462095
0003d0 e0 04 87 bb 00 30 d6 3b d8 ac c1 bc 00 6d 59 ba
       -0.004120454 0.0065364838 -0.023641989 -0.00082941353
0003e0 02 3e 89 3d b8 5f 6f bd 22 d2 a5 bd 24 9c 95 bd
       0.0670128 -0.058440894 -0.0809672 -0.07305172
0003f0 f4 52 8e bd 3c eb bd bd e4 e5 f1 bd 68 59 c8 bc
       -0.06949416 -0.09273383 -0.11811426 -0.024456695

MLP_layers.0.bias f4 [32]
000000 05 75 65 bd 22 ca 1b 3c 93 a2 01 bd 50 fa 06 bc
       -0.0560198 0.009508641 -0.031649183 -0.00823839
000010 e3 58 af 3d 5b dc de bd 86 7a 31 3d 6a de eb 3d
       0.08561876 -0.10881873 0.043329738 0.115170315
000020 7b 7c 41 3d c8 e2 96 3d b9 ce 20 3d 6f 90 67 bd
       0.047237854 0.07367474 0.039259646 -0.056534227
000030 0c 18 f6 bd 9d c0 f4 bd 20 32 9e bc ef 8a 84 bd
       -0.12016305 -0.119508006 -0.01931101 -0.06471812
000040 87 49 19 3d aa 4b 8c 3d 81 6d c2 3c dd ea aa 3d
       0.037423637 0.06850369 0.023733856 0.08345578
000050 bb b3 d9 3d 10 ad ea 3d 0b 84 54 bc ff c8 4c 3d
       0.10629984 0.1145879 -0.012970935 0.049996372
000060 a7 23 4c bd c8 06 02 be e3 35 93 3d f2 9e f0 bc
       -0.04983869 -0.126979 0.071880125 -0.029372666
000070 5c ca d7 3d f0 65 19 3d a0 cf b6 3d 48 85 e9 3c
       0.10536644 0.03745073 0.0892632 0.028505936

MLP_layers.1.weight f4 [1, 32]
000000 b3 73 1a be b3 d4 18 be 72 d1 23 3e 81 a3 05 bd
       -0.15083198 -0.14924888 0.15997866 -0.032626633
000010 a1 42 cd bd 49 9b b3 bd 10 b0 b1 3d 83 7c 86 3d
       -0.10022474 -0.08769853 0.086761594 0.065667175
000020 5c 78 1f be 59 3f 16 3e 59 75 73 bc c0 3e a3 bd
       -0.15573257 0.14672603 -0.014859521 -0.07970953
000030 67 8b 31 3e 52 03 65 bd 1d e6 bc 3d b2 74 3d 3d
       0.17338334 -0.05591137 0.09223578 0.046253867
000040 fe 42 17 3e a2 a7 d6 3d 54 06 e9 bc ad 88 cb bd
       0.14771649 0.10481192 -0.0284454 -0.09938178
000050 b6 24 fa bd 25 48 ce 3d d4 0c c0 bd 21 b8 06 be
       -0.12214033 0.10072354 -0.09377447 -0.13156177
000060 93 4d 7c bd 95 4e dd bd 65 87 00 38 ae 13 04 be
       -0.061597418 -0.10806004 3.0643674e-05 -0.12898132
000070 56 c8 82 bd 1f c7 ec 3d e0 5e 03 bc 83 99 25 3e
       -0.06385867 0.11561417 -0.008018225 0.16171841
