SLIC_GAT/best3.pt (torch, 80373 bytes, 12 tensors)

GAT_layers.0.f.weight f4 [32, 124]
-0.068612434 0.04946652 -0.1303957 0.034126434 0.13599205 -0.1448459 -0.021096995 0.12619734
0.021485785 -0.15599555 -0.09811626 -0.18699291 0.18997782 -0.038030844 0.11114808 0.01528751
-0.16001791 0.07553726 -0.18518142 0.124682434 -0.17675607 0.038496014 -0.15802586 -0.1369893
0.08930219 -0.10546101 0.0028658046 0.024634052 0.078161836 0.12684685 0.11088107 0.099146865
0.05700784 -0.08972657 -0.121945776 0.05016029 0.18329877 0.04600706 0.099798135 -0.06915197
-0.10347682 0.14633958 -0.14070317 0.10372326 -0.03287688 0.19007464 -0.047630906 -0.11055596
-0.09240973 0.10011419 -0.14955384 -0.11474536 0.1516431 -0.055133864 -0.06551768 0.1925859
0.06667397 0.16573955 0.17608774 0.16444041 -0.018908218 -0.19245888 0.1160124 0.120243
0.14613809 0.0246496 -0.076980524 0.06841299 0.16150744 0.14499149 0.008111975 0.069036596
-0.08338624 0.07029976 0.13704109 0.11269399 -0.19213654 -0.03908883 -0.06863438 -0.058550615
-0.028987829 -0.07393456 -0.19556865 0.17460538 -0.03466651 0.11955669 -0.008911766 0.11531728
-0.07570507 0.13766131 0.09913679 0.12968555 -0.039511826 -0.12917641 0.16965716 0.18332775
-0.071029454 -0.11500992 -0.0017612 0.17835793 0.11361308 -0.17311163 -0.02728725 -0.08105964
0.12758571 0.027627554 0.08412817 -0.14631163 -0.19201735 0.17293595 -0.047056537 0.15512295
0.1904462 0.12281259 -0.1072869 0.00811969 -0.015178003 -0.06313643 0.1635457 -0.15245049
0.07125801 -0.13650435 0.19417028 0.044341195 -0.13972048 0.16412395 -0.04752168 -0.060278967
0.17575674 -0.1882134 0.17330872 -0.03861064 -0.16258848 0.0547227 0.11397066 -0.06297888
-0.09421004 0.19075732 -0.025440507 0.14219585 0.074142165 -0.10569043 0.18919218 0.11004871
-0.048820868 0.16895711 0.18239866 0.09298733 -0.12743838 -0.029676711 -0.122099206 0.18850704
0.01834502 0.025778051 0.026237048 0.1684735 0.097695835 -0.06230068 -0.033301745 -0.04485586
-0.05962431 -0.17348689 0.08705499 0.029193727 0.16202131 -0.09677172 -0.19328295 0.057079032
0.123535305 -0.022302875 -0.003139805 -0.17470507 -0.16584286 0.114699334 -0.02023843 0.16864769
0.117523074 0.027851311 0.19342375 -0.08112974 0.17323002 -0.06330366 0.15654296 0.19127648
-0.12263325 -0.144181 -0.16087033 -0.100032456 0.10274455 -0.15521593 -0.14361164 -0.025886202
-0.17549159 0.044891957 -0.1432882 0.04146319 -0.09827259 0.12183774 0.067473225 -0.09689142
0.03597409 0.07587893 -0.02822549 0.07476491 0.0052205008 0.102637686 -0.13379523 0.084618986
0.17626965 -0.1776797 -0.1364204 0.07248044 0.047303114 -0.08312402 -0.03460895 -0.029733334
-0.12762226 0.101207554 0.12976941 -0.14053637 0.16457318 -0.049743094 0.13375603 0.11782525
-0.1785085 -0.16537386 0.16787697 -0.07093508 0.14616485 -0.035836574 0.012594779 0.19503893
0.11055914 0.17515303 0.04001134 0.1429855 -0.049936205 -0.0018295365 -0.04855465 -0.09958698
-0.15322192 0.06825041 -0.04989611 0.010469196 -0.13525358 0.06929566 -0.08090186 0.11236523
0.006341938 -0.15388736 -0.11591101 -0.11822077 -0.05401481 -0.111205496 -0.19405021 -0.022966508
00000000: ad84 8cbd 689d 4a3d 7386 05be 29c8 0b3d
00000010: 8041 0b3e 7c52 14be 9bd3 acbc e039 013e
00000020: f502 b03c 4cbd 1fbe 2df1 c8bd 127b 3fbe
00000030: 8c89 423e 3bc6 1bbd 9ba1 e33d 7778 7a3c
00000040: bcdb 23be 47b3 9a3d 33a0 3dbe 8159 ff3d
00000050: 8bff 34be ffad 1d3d 88d1 21be ec46 0cbe
00000060: 11e4 b63d f1fb d7bd 39d0 3b3b 5acd c93c
00000070: 5013 a03d 24e4 013e 9d15 e33d 830d cb3d
00000080: 0e81 693d 90c2 b7bd b5be f9bd e074 4d3d
00000090: acb2 3b3e e671 3c3d f762 cc3d 8c9f 8dbd
000000a0: a8eb d3bd 0bda 153e 7e14 10be dc6c d43d
000000b0: e8a9 06bd eda2 423e a018 43bd 2a6b e2bd
000000c0: 5041 bdbd ab08 cd3d a424 19be 9eff eabd
000000d0: 5448 1b3e 0cd4 61bd 222e 86bd 3d35 453e
000000e0: 5d8c 883d a1b7 293e 5850 343e 1163 283e
000000f0: 68e5 9abc f113 45be e997 ed3d f641 f63d
00000100: 39a5 153e f5ed c93c f7a7 9dbd 1c1c 8c3d
00000110: 3562 253e a678 143e 17e8 043c 0f63 8d3d
00000120: 68c6 aabd 52f9 8f3d 8054 0c3e 1bcc e63d
00000130: 71bf 44be 9c1b 20bd 2f90 8cbd c5d2 6fbd
00000140: e277 edbc 016b 97bd 2643 48be c1cb 323e
00000150: 78fe 0dbd 23da f43d a802 12bc 772b ec3d
00000160: 420b 9bbd 16f7 0c3e 3b08 cb3d 4acc 043e
00000170: 27d7 21bd d246 04be 9bba 2d3e 45ba 3b3e
00000180: e477 91bd 528a ebbd 11d8 e6ba 76a3 363e
00000190: f9ad e83d 2d44 31be 8389 dfbc 9902 a6bd
000001a0: d4a5 023e 2e53 e23c 644b ac3d b7d2 15be
000001b0: 32a0 44be 1f16 313e 5bbe 40bd 8dd8 1e3e
000001c0: 5404 433e 2b85 fb3d 3cb9 dbbd 7308 053c
000001d0: 29ad 78bc ac4d 81bd 8678 273e fb1b 1cbe
000001e0: b8ef 913d ccc7 0bbe 93d4 463e 1d9f 353d
000001f0: e312 0fbe 1c10 283e 18a6 42bd 14e7 76bd
00000200: 93f9 333e 03bb 40be d777 313e 3126 1ebd
00000210: 987d 26be e924 603d 7369 e93d 12fb 80bd
00000220: 32f1 c0bd e355 433e 9c68 d0bc ca9b 113e
00000230: d9d7 973d 3974 d8bd 98bb 413e 3861 e13d
00000240: 64f8 47bd 1803 2d3e b7c6 3a3e 2470 be3d
00000250: 357f 02be 931c f3bc 260f fabd fd07 413e
00000260: 4c48 963c 7e2c d33c 14ef d63c 5184 2c3e
00000270: c114 c83d ff2e 7fbd 6967 08bd c7ba 37bd
00000280: 9f38 74bd 8ca6 31be e349 b23d af27 ef3c
00000290: eae8 253e 4030 c6bd f7eb 45be b4cb 693d
000002a0: 1400 fd3d 85b4 b6bc 30c5 4dbb e3e5 32be
000002b0: b6d2 29be 7ce7 ea3d 10cb a5bc fbb1 2c3e
000002c0: f0af f03d 6f28 e43c e010 463e 5927 a6bd
000002d0: 3663 313e 59a5 81bd cc4c 203e fbdd 433e
000002e0: 2427 fbbd 2fa4 13be 31bb 24be d1dd ccbd
000002f0: bc6b d23d edf0 1ebe ee0e 13be 4d0f d4bc
00000300: 11b4 33be a1e0 373d 24ba 12be 4ed5 293d
00000310: 2443 c9bd 1186 f93d 672f 8a3d 026f c6bd
00000320: 9159 133d 6a66 9b3d 2539 e7bc 581e 993d
00000330: bc10 ab3b b533 d23d 9e01 09be b84c ad3d
00000340: 0880 343e abf1 35be cab1 0bbe a070 943d
00000350: e9c0 413d ed3c aabd 1dc2 0dbd 5293 f3bc
00000360: 69af 02be e845 cf3d 46e2 043e c4e8 0fbe
00000370: df85 283e 6abf 4bbd 57f7 083e 5d4e f13d
00000380: efca 36be c457 29be f1e7 2b3e 6946 91bd
00000390: 3dac 153e 5fc9 12bd 555a 4e3c 49b8 473e
000003a0: d56c e23d 515b 333e eee2 233d ca6a 123e
000003b0: e889 4cbd 0fcd efba 3ee1 46bd 42f4 cbbd
000003c0: 35e6 1cbe dfc6 8b3d dd5f 4cbd fe86 2b3c
000003d0: ea7f 0abe e2ea 8d3d e0af a5bd be1f e63d
000003e0: 08d0 cf3b a694 1dbe c062 edbd bb1d f2bd
000003f0: a23e 5dbd b5bf e3bd 19b5 46be 4224 bcbc

GAT_layers.0.f.bias f4 [32]
-0.0846352 -0.03381469 -0.08666016 0.014312529 -0.03267873 -0.016592393 -0.023738634 0.05522959
0.019384919 0.045143265 -0.025952015 0.04637057 0.015129259 -0.07796282 -0.07736514 0.061399184
0.04796543 0.038593106 -0.07418694 -0.010703722 0.08586663 -0.07368902 0.0005157069 -0.037471775
0.07621722 0.0698251 -0.019448414 0.079885624 -0.078863144 0.027494835 -0.0875769 0.05445984
00000000: 3855 adbd 4681 0abd e27a b1bd 197f 6a3c
00000010: 22da 05bd c5ec 87bc 8677 c2bc 6c38 623d
00000020: 1fcd 9e3c 25e8 383d 5299 d4bc 11ef 3d3d
00000030: b6e0 773c f9aa 9fbd 9d71 9ebd b67d 7b3d
00000040: 6677 443d ce13 1e3d 53ef 97bd aa5e 2fbc
00000050: d8da af3d 45ea 96bd 8130 073a 017c 19bd
00000060: c617 9c3d 7600 8f3d 4852 9fbc 139b a33d
00000070: 0083 a1bd d93c e13c 855b b3bd 4811 5f3d

GAT_layers.0.w.weight f4 [1, 124]
-0.18478991 0.09585014 -0.21358015 0.09579756 0.028989425 0.09852772 -0.046061564 -0.14043878
0.17763948 0.1337209 0.035018846 0.13334137 -0.1731768 -0.1411978 -0.055626087 -0.003494018
-0.1789144 0.1754407 0.14675273 0.06889978 0.07547385 0.14220583 0.039142895 0.087350376
0.20857115 0.01661678 0.011847161 -0.07977605 0.07639667 0.040242493 0.21514873 -0.028724177
-0.04801076 0.08024818 0.13953549 0.19524382 0.018066665 -0.00043861638 0.14845511 -0.20053968
0.054538243 -0.13250302 0.09163144 0.10456545 -0.10406883 0.02212145 -0.19552547 0.20602676
0.17729536 0.12662148 -0.18692157 0.16448371 0.04482028 0.18546404 -0.08621233 -0.15270975
0.21545751 0.104359515 -0.064403035 0.13878907 0.01713221 0.15974854 0.0068310443 0.0038900892
-0.035301514 0.047147214 0.044549886 -0.14031202 -0.032956116 0.1897036 -0.19530216 0.06805603
0.15076552 -0.15045194 0.088413484 0.1571037 -0.11155419 0.06978501 -0.1760843 -0.19442861
0.09118128 0.07413168 -0.033548042 0.09300877 -0.014982691 -0.19497503 0.09041437 0.10169797
0.1666876 -0.20554595 0.0769204 -0.1481088 -0.18076381 -0.11871873 0.17328103 0.08298764
-0.002241817 -0.1304376 0.1800082 -0.074373975 -0.021529552 -0.12367964 0.13487676 -0.022655604
-0.11235498 0.03582598 -0.20372091 0.06688393 -0.18617941 -0.123650305 0.06328085 0.04143321
0.17317954 -0.21285956 0.17174289 0.135033 0.11085168 0.13652174 -0.027376411 0.053610444
0.02040112 0.08144151 -0.02297779 0.09702428
00000000: 9139 3dbe 144d c43d c1b4 5abe 8331 c43d
00000010: 3b7b ed3c e7c8 c93d 0dab 3cbd 2fcf 0fbe
00000020: 20e7 353e 22ee 083e ec6f 0f3d a48a 083e
00000030: 4255 31be 2896 10be 2ed8 63bd e5fb 64bb
00000040: 5635 37be baa6 333e 5946 163e 541b 8d3d
00000050: 0992 9a3d 689e 113e 4d54 203d c1e4 b23d
00000060: ad93 553e ea1f 883c 981a 423c a061 a3bd
00000070: db75 9c3d 50d5 243d f34f 5c3e f74e ebbc
00000080: eea6 44bd 2859 a43d 64e2 0e3e ffed 473e
00000090: 8b00 943c 18f6 e5b9 9e04 183e 465a 4dbe
000000a0: 7e63 5f3d dfae 07be 44a9 bb3d 6926 d63d
000000b0: 0a22 d5bd 0b38 b53c d437 48be aef8 523e
000000c0: ea8c 353e 10a9 013e 5e68 3fbe 6b6e 283e
000000d0: 7895 373d 49ea 3d3e 1790 b0bd f25f 1cbe
000000e0: e5a0 5c3e 71ba d53d bde5 83bd b91e 0e3e
000000f0: d958 8c3c 1f95 233e f4d6 df3b def0 7e3b
00000100: 5298 10bd 701d 413d f179 363d f4ad 0fbe
00000110: fefc 06bd a941 423e 4afd 47be f660 8b3d
00000120: 4762 1a3e 1310 1abe 2112 b53d cbdf 203e
00000130: 8676 e4bd 71eb 8e3d 714f 34be 4b18 47be
00000140: 40bd ba3d 5ad2 973d ac69 09bd 627b be3d
00000150: f679 75bc 89a7 47be 2b2b b93d 0647 d03d
00000160: 27b0 2a3e a37a 52be 7188 9d3d d5a9 17be
00000170: 261a 39be ce22 f3bd 9570 313e 6cf5 a93d
00000180: 73eb 12bb 6f91 05be 1254 383e 6251 98bd
00000190: be5e b0bc c04b fdbd 221d 0a3e 3f98 b9bc
000001a0: 5e1a e6bd 43be 123d 379c 50be 71fa 883d
000001b0: d1a5 3ebe 5f3c fdbd 6499 813d dfb5 293d
000001c0: fa55 313e dbf7 59be 5edd 2f3e 1746 0a3e
000001d0: 3506 e33d 5bcc 0b3e 7f44 e0bc a096 5b3d
000001e0: 4020 a73c ceca a63d eb3b bcbc aab4 c63d

GAT_layers.1.f.weight f4 [64, 64]
-0.18622266 -0.15764716 0.008781241 -0.10573238 -0.050427042 0.03524751 -0.115298904 0.19269007
-0.19622767 -0.18153128 -0.0037516272 -0.15188949 -0.055409502 0.105338626 -0.03028967 0.1807824
-0.04686091 -0.124445066 0.18125804 -0.012653786 0.07735907 0.07739278 0.010400275 -0.12261596
0.16395935 0.17751893 0.115123294 0.027295245 -0.08507172 -0.15795034 -0.026628634 -0.003339216
-0.119327284 -0.09968378 -0.1382304 0.118961096 -0.088266835 -0.19920981 -0.023153737 -0.09161511
0.19949462 0.022842888 -0.1382181 0.17501312 -0.14464985 0.012048861 -0.1399042 -0.17338124
0.101429306 -0.17009135 0.10530587 -0.1591108 -0.05377235 0.06593674 0.15679243 0.017915169
0.07952524 0.09262974 -0.08319363 -0.16742595 0.026255505 -0.1376518 -0.083572775 0.18022047
0.14569943 -0.016500805 -0.013171448 0.0120863365 -0.1466703 0.00887596 -0.20979398 0.022271937
-0.07213857 -0.05719542 0.17040391 -0.17713352 0.07831049 0.09881907 -0.065052144 0.0935888
-0.12425866 -0.0092395125 -0.035551954 0.1942656 0.090007 -0.21892147 -0.11686513 0.1576869
-0.035136282 0.18078744 0.10229017 -0.0045856377 0.16703185 -0.19988014 -0.050314203 0.1255175
-0.1782429 0.05834565 -0.17825411 -0.0601947 -0.12319438 -0.16309406 -0.036231317 0.024759721
-0.20907825 -0.17318945 -0.16417281 0.050489083 0.20864506 -0.029243136 0.0879692 0.17919314
0.11482902 0.015116693 0.20748526 0.0041802344 -0.19960588 -0.074263275 -0.21363717 0.120979175
-0.17013262 -0.12686825 -0.037847478 0.06796462 0.13663383 0.007344706 -0.15598115 0.19368653
0.16925266 -0.002745596 -0.0852569 -0.20201182 0.10604511 0.15764959 0.03205899 -0.20096336
-0.0853707 0.020577762 -0.13260192 -0.138304 -0.18059683 -0.073585555 -0.08129621 -0.028339395
-0.14689118 -0.20257992 0.14589253 -0.09769961 -0.013838987 -0.18351889 0.16900404 -0.017227732
0.013480286 0.097664565 0.19605505 0.055581577 -0.027187334 -0.042190023 0.08565295 0.18753095
0.0006643383 0.0993188 0.12928346 -0.0838996 -0.009328378 -0.12869972 -0.15242836 -0.0670235
-0.057271484 -0.021098211 0.046040088 -0.16919939 -0.10769607 -0.123676196 -0.00033784725 -0.1470984
-0.21345739 0.21489167 0.017714215 0.01801913 -0.03549804 0.11373789 -0.15715675 0.07169601
0.094448 -0.21369597 0.048921134 0.022795063 -0.20720264 0.048363723 -0.14025761 0.13399018
-0.1484611 -0.02550197 -0.08386383 -0.046455417 -0.11734821 -0.19852161 -0.09714369 0.20479627
0.07579896 -0.1952875 -0.0710496 0.12041546 0.20676386 0.025779799 0.095055155 -0.20230086
-0.107254624 0.073357396 -0.0010041244 0.18444583 0.04258878 0.21189833 -0.028862711 0.1139406
-0.1102712 -0.024589712 -0.18778215 -0.13315174 0.09331262 0.05369843 0.20003925 -0.08420312
0.12951288 -0.20705919 0.06309009 0.21562426 0.18558323 0.1359958 0.2064864 0.13896276
-0.050179943 0.07044843 0.15057382 -0.17458357 -0.031116618 0.16810206 -0.1540039 -0.04913605
0.15660436 -0.09015326 0.16771284 -0.060558587 0.19458662 -0.13144056 -0.0549958 -0.10725483
0.1747595 0.14828165 0.06759951 0.061498187 0.14551897 -0.016046092 0.11767929 -0.19423667
00000000: 27b1 3ebe 426e 21be 32df 0f3c 388a d8bd
00000010: 968c 4ebd b15f 103d d521 ecbd 8c50 453e
00000020: e8ef 48be 56e3 39be dcdd 75bb eb88 1bbe
00000030: 13f5 62bd c7bb d73d 0b22 f8bc 051f 393e
00000040: 3af1 3fbd 0edd febd b59b 393e d351 4fbc
00000050: 6f6e 9e3d 1b80 9e3d ea65 2a3c 141e fbbd
00000060: f6e4 273e 86c7 353e c3c5 eb3d 479a df3c
00000070: 153a aebd bcbd 21be 4b24 dabc c0d6 5abb
00000080: dd61 f4bd 0227 ccbd 458c 0dbe e0a1 f33d
00000090: 3ec5 b4bd a8fd 4bbe e8ac bdbc b4a0 bbbd
000000a0: 5148 4c3e 0221 bb3c 0c89 0dbe a436 333e
000000b0: 171f 14be 9668 453c 0c43 0fbe da8a 31be
000000c0: 2bba cf3d 6d2c 2ebe 9baa d73d f1ed 22be
000000d0: 6540 5cbd d709 873d 328e 203e d5c2 923c
000000e0: 21de a23d a9b4 bd3d 6c61 aabd b571 2bbe
000000f0: c915 d73c 98f4 0cbe 3428 abbd b78b 383e
00000100: 3b32 153e b22c 87bc 0fcd 57bc c505 463c
00000110: bd30 16be 796c 113c 3cd4 56be a373 b63c
00000120: 63bd 93bd bf45 6abd 5d7e 2e3e 7d62 35be
00000130: 4061 a03d a761 ca3d 0f3a 85bd 7cab bf3d
00000140: 537b febd 5361 17bc ed9e 11bd 90ed 463e
00000150: 9755 b83d f32c 60be fc56 efbd ad78 213e
00000160: 10eb 0fbd 5820 393e 827d d13d 1e43 96bb
00000170: 660a 2b3e 61ad 4cbe 4416 4ebd a987 003e
00000180: 4f85 36be d9fb 6e3d 3f88 36be b88e 76bd
00000190: 564d fcbd 2102 27be 4a67 14bd e6d4 ca3c
000001a0: 9c18 56be 9358 31be eb1c 28be a4cd 4e3d
000001b0: 0da7 553e 4d8f efbc 3229 b43d 687e 373e
000001c0: 7a2b eb3d 02ac 773c 0477 543e 59fa 883b
000001d0: 7c65 4cbe 5817 98bd b4c3 5abe eec3 f73d
000001e0: 3f37 2ebe c0e9 01be f505 1bbd 0931 8b3d
000001f0: bde9 0b3e dcab f03b 86b9 1fbe c355 463e
00000200: 9250 2d3e 75ef 33bb 2b9b aebd 30dc 4ebe
00000210: 2e2e d93d e56e 213e 4a50 033d 57c9 4dbe
00000220: d5d6 aebd b292 a83c ccc8 07be 909f 0dbe
00000230: 60ee 38be 06b4 96bd a17e a6bd 0528 e8bc
00000240: a46a 16be 1c71 4fbe da64 153e bc16 c8bd
00000250: ebbc 62bc 60ec 3bbe 650f 2d3e 2c21 8dbc
00000260: 6bdc 5c3c 5c04 c83d a8c2 483e 82a9 633d
00000270: f9b7 debc 72cf 2cbd d06a af3d 1d08 403e
00000280: fd26 2e3a a867 cb3d e262 043e 8ed3 abbd
00000290: 0ed6 18bc dcc9 03be 2e16 1cbe 9e43 89bd
000002a0: 8195 6abd 28d6 acbc 8894 3c3d 9b42 2dbe
000002b0: c28f dcbd f249 fdbd 1721 b1b9 f7a0 16be
000002c0: 9394 5abe 900c 5c3e 671d 913c db9c 933c
000002d0: 6566 11bd 69ef e83d b3ed 20be 5cd5 923d
000002e0: f46d c13d 1ed3 5abe 8761 483d b6bc ba3c
000002f0: ee2c 54be 0a19 463d b19f 0fbe b934 093e
00000300: 3006 18be 82e9 d0bc cdc0 abbd 0948 3ebd
00000310: 4254 f0bd 4049 4bbe 45f3 c6bd 1db6 513e
00000320: 7c3c 9b3d 72f9 47be 7482 91bd 619c f63d
00000330: e8b9 533e 2830 d33c 47ac c23d f527 4fbe
00000340: 50a8 dbbd 673c 963d d39c 83ba 5edf 3c3e
00000350: 9371 2e3d e0fb 583e 7e71 ecbc b059 e93d
00000360: ded5 e1bd 5d70 c9bc f749 40be ee58 08be
00000370: b01a bf3d e3f2 5b3d 17d7 4c3e af72 acbd
00000380: 069f 043e 5307 54be 6135 813d 9bcc 5c3e
00000390: 8809 3e3e 7c42 0b3e 2c71 533e 414c 0e3e
000003a0: 7c89 4dbd 4447 903d 0630 1a3e 09c6 32be
000003b0: 47e8 febc f222 2c3e 33b3 1dbe e242 49bd
000003c0: e55c 203e 46a2 b8bd eabc 2b3e 480c 78bd
000003d0: b741 473e 5b98 06be 4743 61bd 6ca8 dbbd
000003e0: 28f4 323e 25d7 173e 9d71 8a3d 86e5 7b3d
000003f0: ed02 153e 1873 83bc d701 f13d fae5 46be

GAT_layers.1.f.bias f4 [64]
0.02223827 -0.092711896 -0.11250375 0.080870874 0.05302327 -0.026872933 0.10545479 0.010072646
0.118382156 0.053864494 -0.055800334 -0.053645775 -0.009613588 0.11381027 -0.07519969 0.045592707
0.111071505 0.021596558 -0.07268697 0.0054528564 0.014026627 -0.019310307 0.021649122 -0.037988767
0.11545952 0.022574224 0.104442015 -0.054719612 0.12120349 0.02298583 -0.10229945 -0.06750105
0.0063795745 -0.083365455 0.11718961 0.098146185 0.05134773 -0.049236745 -0.06320618 -0.060703605
0.093491845 0.12436128 0.012165755 -0.048682936 0.10470304 -0.0502124 -0.113813326 -0.03286983
0.1244259 -0.015186176 -0.028930932 0.08766231 0.1065326 0.07751093 0.11973093 -0.094145015
0.0676318 -0.026747918 0.119182974 0.010429785 0.005658213 -0.062629625 -0.03654635 -0.024842544
00000000: 082d b63c bcdf bdbd 5e68 e6bd a19f a53d
00000010: ee2e 593d a024 dcbc aef8 d73d bd07 253c
00000020: 5872 f23d 04a1 5c3d e48e 64bd acbb 5bbd
00000030: 5082 1dbc 5c15 e93d 4c02 9abd 6bbf 3a3d
00000040: 7579 e33d 44eb b03c e8dc 94bd e0ad b23b
00000050: f0cf 653c a630 9ebc 8059 b13c 1c9a 1bbd
00000060: 0a76 ec3d 94ed b83c b2e5 d53d ac21 60bd
00000070: 8939 f83d c84c bc3c 6082 d1bd fe3d 8abd
00000080: c00b d13b 82bb aabd 1b01 f03d de00 c93d
00000090: ff51 523d 78ac 49bd 3e72 81bd 58a4 78bd
000000a0: a778 bf3d 20b1 fe3d e052 473c c267 47bd
000000b0: 8c6e d63d 84ab 4dbd f616 e9bd 84a2 06bd
000000c0: 02d3 fe3d 70cf 78bc 9000 edbc 4c88 b33d
000000d0: c42d da3d 0dbe 9e3d 7d35 f53d 1acf c0bd
000000e0: 8b82 8a3d 731e dbbc 3416 f43d b0e1 2a3c
000000f0: 8868 b93b f643 80bd a0b1 15bd 9782 cbbc

GAT_layers.1.w.weight f4 [1, 64]
0.20187384 -0.25730798 -0.3008621 -0.2191051 -0.08272814 -0.05640379 0.29484943 0.26320583
0.2966966 -0.14313519 0.1540324 0.23762293 -0.0010034957 -0.1978988 0.15116252 -0.30230218
0.016714849 0.27070814 -0.19922218 0.044618003 -0.14242317 0.08256414 -0.016684033 0.032056417
-0.28219765 -0.00364959 -0.15311095 -0.17937845 0.103917316 -0.049026832 0.08152794 0.19389279
-0.1860443 -0.20678979 -0.1171907 -0.17208153 -0.13145976 0.19060123 0.19563468 -0.1598299
0.21813947 0.046358768 0.123913884 0.06635724 -0.200131 0.21233 0.20875356 -0.024177724
0.044010032 0.027177688 -0.23770007 0.21708113 -0.17680238 0.17157386 0.20762129 -0.16120493
0.23032087 0.120527335 -0.007307997 0.1396637 -0.18839759 0.24458875 0.097149074 0.117972754
00000000: 04b8 4e3e dfbd 83be 990a 9abe 165d 60be
00000010: 5f6d a9bd a907 67bd 81f6 963e eac2 863e
00000020: 9ee8 973e 0892 12be abba 1d3e 6d53 733e
00000030: ba87 83ba fca5 4abe 59ca 1a3e 5ac7 9abe
00000040: 94ed 883c 429a 8a3e e600 4cbe 5ec1 363d
00000050: 61d7 11be 6317 a93d f4ac 88bc 974d 033d
00000060: 367c 90be f62d 6fbb 1ec9 1cbe fcae 37be
00000070: 9ad2 d43d 5cd0 48bd 1ff8 a63d d58b 463e
00000080: 6682 3ebe b4c0 53be ad01 f0bd 2436 30be
00000090: 639d 06be f82c 433e 7554 483e 73aa 23be
000000a0: f45f 5f3e b1e2 3d3d 90c6 fd3d 4ee6 873d
000000b0: 24ef 4cbe 096d 593e 7ec3 553e 5d10 c6bc
000000c0: dd43 343d bea3 de3c a667 73be 844a 5e3e
000000d0: af0b 35be 0fb1 2f3e ad9a 543e e812 25be
000000e0: 3cd9 6b3e 09d7 f63d ec77 efbb 0004 0f3e
000000f0: 4ceb 40be 7975 7a3e 18f6 c63d b39b f13d

GAT_layers.2.f.weight f4 [64, 128]
-0.113323666 -0.044435125 -0.14138491 -0.072740905 -0.10546471 -0.067126565 -0.05412334 -0.10625537
0.005677117 0.06619304 -0.12006145 0.15148553 0.104403496 -0.15489762 0.12446246 0.10511894
-0.107165754 -0.1083013 0.17521028 0.16603884 0.13406695 -0.1274794 -0.1416053 -0.1464424
0.08718411 -0.09119661 -0.09876189 0.13719416 -0.0038164814 0.05901486 -0.16988938 -0.015252628
0.101451695 0.09194588 -0.07627724 0.17383714 0.013345462 -0.04364068 0.08227825 0.023357762
0.07371288 -0.091880426 0.026091449 -0.16795808 0.13544305 -0.026383631 0.15164006 0.056240775
0.098380946 -0.06478034 0.0939943 -0.10998698 0.13045695 0.04586346 -0.03211084 0.03360819
-0.06139982 -0.14539516 -0.1221714 -0.10968534 -0.13239667 -0.06258961 -0.120647 -0.080655456
0.13590206 0.058884226 -0.12569153 0.14876772 -0.12902567 0.0079840245 0.14091383 -0.10746152
-0.10105887 0.16794308 -0.055851635 0.015753586 -0.12614143 0.04492597 0.14284487 -0.15174048
-0.15138909 -0.15137824 -0.011308779 -0.05549098 0.02679431 0.1536102 -0.078999564 0.15254626
-0.10347169 -0.009320818 0.13461752 -0.04463796 -0.08155238 -0.10329731 -0.06926862 -0.14851321
0.09795606 0.10985616 -0.11864352 -0.11990247 0.0488318 -0.00063194986 0.016058791 -0.064150326
0.13378835 0.10677731 -0.11157761 -0.05566583 0.025934093 0.1469908 0.13168786 -0.031728104
0.06734506 0.08020124 -0.12965274 -0.00759581 -0.026468558 0.15206328 0.07438716 0.1493223
0.09387524 -0.0071011116 0.06197521 -0.062104836 -0.115393706 0.11125333 0.081885 0.031651206
0.013374227 -0.02266689 0.112233706 0.08752326 -0.11543777 -0.03852639 -0.047304653 -0.072565116
-0.16471924 -0.11706167 0.15637779 -0.10768109 -0.09024211 0.116261065 -0.028724404 -0.09891543
0.05876377 0.16781476 0.033556394 -0.16892144 -0.07262096 0.13505355 0.03628287 0.11453332
0.029933238 -0.046144728 -0.13735135 0.042746283 0.050304454 -0.17255355 0.15793304 -0.11104154
0.13783887 0.057902392 -0.06395194 0.14221522 -0.10385289 0.08738759 -0.012975708 0.0638251
-0.045287568 0.026155617 0.060883082 0.057233777 0.06728384 0.10887416 -0.122674234 -0.016841395
-0.052899774 -0.06835523 -0.12721294 -0.008509112 -0.10212666 -0.013470512 -0.14144291 0.13253075
-0.16885284 0.08455357 -0.13777961 -0.01579883 -0.087459765 0.06256546 -0.00038558044 -0.15295075
0.05556695 -0.0068332474 -0.003071009 0.0535653 -0.0013420185 0.01131841 0.12248018 0.021597326
-0.105880566 -0.010551316 -0.06894188 0.16901657 -0.04043594 0.1555913 0.002556691 -0.07772771
0.0010707916 0.10911075 0.011902165 -0.114270575 0.020301588 0.15108849 -0.020294908 0.020249559
-0.15514047 -0.095146984 0.04564544 -0.06463027 0.097381294 -0.07685122 0.054208305 -0.14095058
-0.034377687 -0.05955219 0.111124106 0.17153007 -0.12151526 0.034017984 0.1258557 0.16828117
0.111343 -0.03548107 -0.12487869 -0.046375193 -0.10224461 0.16179886 0.15412684 0.06628454
0.024251148 -0.058670223 -0.11708212 0.10196724 -0.023161167 -0.15191345 0.033159412 -0.06984999
0.16868985 0.1697481 -0.006895456 0.03027958 0.03264801 -0.10549702 0.06029516 -0.10785836
00000000: 3d16 e8bd 9b01 36bd 35c7 10be 2ff9 94bd
00000010: e2fd d7bd a779 89bd 6fb0 5dbd 6a9c d9bd
00000020: 1c07 ba3b 3790 873d c7e2 f5bd 061f 1b3e
00000030: 80d1 d53d 7b9d 1ebe 2de6 fe3d 9948 d73d
00000040: b879 dbbd 12cd ddbd 536a 333e 1606 2a3e
00000050: d948 093e f689 02be fb00 11be fff4 15be
00000060: 958d b23d 4ac5 babd ac43 cabd a07c 0c3e
00000070: ef1d 7abb 91b9 713d 7bf7 2dbe 29e6 79bc
00000080: e8c5 cf3d 1f4e bc3d 3e37 9cbd 5d02 323e
00000090: eda6 5a3c 92c0 32bd 8081 a83d c758 bf3c
000000a0: c7f6 963d ce2b bcbd bcbd d53c 34fd 2bbe
000000b0: 95b1 0a3e 7c22 d8bc 8847 1b3e ba5c 663d
000000c0: f37b c93d 8eab 84bd 1580 c03d db40 e1bd
000000d0: 8296 053e 53db 3b3d a886 03bd bea8 093d
000000e0: 617e 7bbd 78e2 14be 0035 fabd b5a2 e0bd
000000f0: fe92 07be fb2e 80bd c615 f7bd b02e a5bd
00000100: e929 0b3e 9630 713d 48b5 00be 9156 183e
00000110: 4e1f 04be 6dcf 023c b74b 103e c914 dcbd
00000120: f4f7 cebd 45f9 2b3e afc4 64bd aa0d 813c
00000130: 382b 01be 4b04 383d ed45 123e db61 1bbe
00000140: be05 1bbe e602 1bbe 7548 39bc 834a 63bd
00000150: be7f db3c fe4b 1d3e 86ca a1bd 1635 1c3e
00000160: f7e8 d3bd 58b6 18bc 2dd9 093e 4bd6 36bd
00000170: ef04 a7bd 8a8d d3bd b5dc 8dbd d913 18be
00000180: 309d c83d 44fc e03d 60fb f2bd 6d8f f5bd
00000190: db03 483d 70a9 25ba ba8d 833c 3f61 83bd
000001a0: d0ff 083e 10ae da3d cd82 e4bd da01 64bd
000001b0: bc73 d43c c284 163e 2fd9 063e 54f5 01bd
000001c0: 35ec 893d 8c40 a43d b0c3 04be 46e6 f8bb
000001d0: 97d4 d8bc 7ab6 1b3e 4c58 983d f2e7 183e
000001e0: a941 c03d 71b0 e8bb b8d9 7d3d a461 7ebd
000001f0: 8953 ecbd c9d8 e33d 53b3 a73d b2a4 013d
00000200: 931f 5b3c eaaf b9bc c9da e53d 653f b33d
00000210: a36a ecbd d9cd 1dbd 86c2 41bd 059d 94bd
00000220: 29ac 28be 07be efbd 8021 203e e787 dcbd
00000230: dbd0 b8bd 481a ee3d 714f ebbc 2c94 cabd
00000240: 47b2 703d a2d7 2b3e 6e72 093d bef9 2cbe
00000250: 4cba 94bd 7a4b 0a3e 599d 143d 7290 ea3d
00000260: 8d36 f53c 4102 3dbd d5a5 0cbe ba16 2f3d
00000270: 0b0c 4e3d e1b1 30be 33b9 213e bf69 e3bd
00000280: a225 0d3e 0f2b 6d3d 3cf9 82bd dea0 113e
00000290: d3b0 d4bd 44f8 b23d 1098 54bc bcb6 823d
000002a0: 757f 39bd 4e44 d63c 8a60 793d f76d 6a3d
000002b0: 1ccc 893d 6af9 de3d a13c fbbd f7f6 89bc
000002c0: 6fad 58bd d4fd 8bbd 1c44 02be cd69 0bbc
000002d0: c827 d1bd 6cb3 5cbc 69d6 10be 24b6 073e
000002e0: c2e7 2cbe 6c2a ad3d 1916 0dbe 8c6c 81bc
000002f0: 1b1e b3bd 5222 803d bb27 cab9 1f9f 1cbe
00000300: 2c9a 633d 6fe9 dfbb fb42 49bb 4a67 5b3d
00000310: abe6 afba da70 393c e3d6 fa3d e0ec b03c
00000320: e9d7 d8bd 6ddf 2cbc 6631 8dbd ae12 2d3e
00000330: 28a0 25bd 5353 1f3e 288e 273b b52f 9fbd
00000340: ce59 8c3a 7575 df3d 4c01 433c b106 eabd
00000350: 844f a63c f1b6 1a3e 8241 a6bc 67e2 a53c
00000360: 25dd 1ebe 6cdc c2bd b7f6 3a3d e05c 84bd
00000370: d86f c73d 2c64 9dbd 8709 5e3d 5955 10be
00000380: 9ecf 0cbd ffec 73bd 0995 e33d 94a5 2f3e
00000390: fedc f8bd 7156 0b3d 51e0 003e e651 2c3e
000003a0: cc07 e43d 9954 11bd 66c0 ffbd eaf3 3dbd
000003b0: 9f65 d1bd 9aae 253e 6dd3 1d3e 30c0 873d
000003c0: 58aa c63c 3050 70bd c0c8 efbd 33d4 d03d
000003d0: 7dbc bdbc 338f 1bbe 2ad2 073d 830d 8fbd
000003e0: 08bd 2c3e 72d2 2d3e 47f3 e1bb e20c f83c
000003f0: ebb9 053d d20e d8bd 0ff8 763d d8e4 dcbd

GAT_layers.2.f.bias f4 [64]
-0.050099958 -0.032054987 -0.028221834 -0.030414836 -0.020103067 0.072649345 0.05472358 0.036571942
0.034421556 -0.010677804 -0.017316634 -0.05360467 0.052542087 0.059885934 -0.074437596 -0.038876586
0.016053513 -0.0060208566 0.08893982 0.03942865 -0.037058935 0.066326715 -0.08094947 0.06376421
-0.07833062 -0.034240965 -0.049295552 -0.08178638 -0.03987664 0.008234806 0.047512736 -0.005404352
0.082063094 0.038835198 0.005145214 -0.022396762 0.048387095 0.050942045 -0.07038051 -0.05127728
0.05158192 0.063471355 -0.023011234 0.007340447 0.06141034 0.07619125 0.04223337 -0.06786646
-0.0709703 -0.06255258 -0.05342493 -0.010265494 -0.08635453 0.009606268 0.033140313 0.081909075
-0.00025063677 -0.021609237 -0.007767154 0.044845004 0.06862471 -0.07001933 0.06548755 -0.0028941398
00000000: 9d35 4dbd 174c 03bd 7a31 e7bc 8928 f9bc
00000010: 30af a4bc 2ec9 943d d525 603d 76cc 153d
00000020: 9efd 0c3d f5f1 2ebc 9ddb 8dbc 9290 5bbd
00000030: 5f36 573d f44a 753d bd72 98bd 0e3d 1fbd
00000040: a882 833c 9b4a c5bb 1526 b63d f07f 213d
00000050: 1ccb 17bd 4dd6 873d d6c8 a5bd cf96 823d
00000060: ce6b a0bd 4140 0cbd 22ea 49bd 9e7f a7bd
00000070: b055 23bd 48eb 063c b79c 423d fe16 b1bb
00000080: b210 a83d a811 1f3d 2f99 a83b 6a79 b7bc
00000090: 8c31 463d 9ba8 503d a823 90bd 2008 52bd
000000a0: 9047 533d 45fd 813d 0e82 bcbc 2288 f03b
000000b0: 6989 7b3d 280a 9c3d e6fc 2c3d 92fd 8abd
000000c0: e058 91bd 911b 80bd 19d4 5abd 9a30 28bc
000000d0: a5da b0bd 9c63 1d3c 23be 073d f2bf a73d
000000e0: e667 83b9 db05 b1bc 9c83 febb 65af 373d
000000f0: 1d8b 8c3d 4b66 8fbd 561e 863d 9cab 3dbb

GAT_layers.2.w.weight f4 [1, 128]
0.0871572 0.20324308 -0.05728084 -0.14973846 -0.03957883 0.12184521 0.13674256 0.037961997
-0.04195589 0.081501834 0.18753959 -0.16931038 0.003570487 -0.2153175 0.094863236 0.20464496
0.1979944 -0.13854934 -0.19165239 0.17324468 0.17953838 -0.06047399 0.045049828 0.16262253
0.052092876 -0.090869114 -0.18900517 -0.20349215 0.12572616 -0.19212785 -0.14106022 -0.15441878
-0.08893657 0.20918097 0.08515526 0.054058097 -0.08256592 0.06926723 -0.1723961 -0.12544802
0.03807743 0.1641322 0.026193546 0.020789033 0.10814579 -0.13920218 -0.004412648 0.05297131
0.10895602 0.024077976 0.087984964 -0.03417473 -0.052825797 -0.21550499 -0.0117633585 0.04480973
-0.015713546 -0.11292636 0.025876705 -0.1490096 0.19701463 0.201901 -0.1288892 -0.0732177
0.114730105 0.19703887 -0.074269414 0.15583293 -0.15885317 -0.11722324 0.07929086 0.11422501
0.1054784 -0.11278694 -0.02646658 0.026412565 0.063751854 0.08493226 0.0061971587 0.18014623
-0.16204196 -0.1654646 -0.030892802 -0.1682584 0.02865668 -0.0015151033 -0.20816657 0.039072897
0.060186125 -0.18931706 0.017155997 0.09761161 -0.05884461 -0.027489116 -0.21315648 0.13820784
0.0684562 -0.03573279 0.04565709 0.019977594 0.21187134 -0.092185944 0.07723833 0.028681234
-0.19460236 0.17601007 0.14461818 -0.20452195 0.1189305 -0.19420905 -0.0002526223 -0.14827944
-0.056514986 0.037178967 0.0835423 -0.052989848 -0.11155667 0.019611184 -0.14108962 -0.037330806
0.1332545 -0.11753581 0.01165687 -0.19566078 -0.17537832 -0.0015023508 0.04434879 0.20529385
00000000: 797f b23d f41e 503e 509f 6abd 0a55 19be
00000010: 691d 22bd fb89 f93d 3e06 0c3e 0a7e 1b3d
00000020: f0d9 2bbd 6fea a63d 610a 403e b35f 2dbe
00000030: d5fe 693b 317c 5cbe a847 c23d 738e 513e
00000040: 0bbf 4a3e e1df 0dbe 8640 44be 0e67 313e
00000050: e9d8 373e 93b3 77bd 2b86 383d 8586 263e
00000060: 575f 553d 9619 babd 928a 41be 3f60 50be
00000070: 5cbe 003e 2abd 44be 1772 10be f51f 1ebe
00000080: 6024 b6bd 8933 563e e265 ae3d 066c 5d3d
00000090: 5218 a9bd fadb 8d3d 9a88 30be 7275 00be
000000a0: 14f7 1b3d 4512 283e d993 d63c c34d aa3c
000000b0: 8a7b dd3d 048b 0ebe f997 90bb 72f8 583d
000000c0: 5524 df3d 2d3f c53c 7631 b43d cdfa 0bbd
000000d0: dd5f 58bd 57ad 5cbe 1abb 40bc 688a 373d
000000e0: b2b9 80bc ef45 e7bd 62fb d33c f995 18be
000000f0: 34be 493e 23bf 4e3e 88fb 03be 29f3 95bd
00000100: 9ef7 ea3d 8fc4 493e 901a 98bd ab92 1f3e
00000110: 68aa 22be bd12 f0bd 3f63 a23d cdee e93d
00000120: 0f05 d83d d7fc e6bd 71d0 d8bc 2a5f d83c
00000130: 5590 823d f7f0 ad3d 8911 cb3b 4178 383e
00000140: 54ee 25be 8d6f 29be e712 fdbc ee4b 2cbe
00000150: 6ac1 ea3c 6e96 c6ba 9e29 55be e70a 203d
00000160: ba85 763d 55dc 41be bc8a 8c3c 99e8 c73d
00000170: 0c07 71bd db30 e1bc b145 5abe 5b86 0d3e
00000180: c432 8c3d 8c5c 12bd ee02 3b3d 0da8 a33c
00000190: cdf4 583e fccb bcbd 212f 9e3d e8f4 ea3c
000001a0: d745 47be fc3b 343e ca16 143e 346e 51be
000001b0: d591 f33d bdde 46be 6472 84b9 91d6 17be
000001c0: 427c 67bd f948 183d 3a18 ab3d e20b 59bd
000001d0: d377 e4bd a2a7 a03c cc79 10be 30e8 18bd
000001e0: de73 083e 9db6 f0bd 75fc 3e3c 4d5b 48be
000001f0: 6096 33be 87ea c4ba 14a7 353d 8d38 523e

MLP_layers.0.weight f4 [32, 64]
0.05455847 0.005553633 -0.0066109896 0.012082547 -0.071985066 -0.078852355 -0.04506713 0.09645799
-0.0433774 0.11267568 0.014672458 0.055183932 -0.10310529 -0.027110562 0.09078637 -0.023189157
0.01821214 0.04232268 0.06472911 -0.006626442 -0.10769828 0.100583136 0.09936419 -0.061312467
-0.084700555 -0.029211164 0.04927157 -0.014625564 -0.039071456 0.03348504 0.07649653 0.058257043
-0.010995895 0.01692602 0.06573312 0.010839626 -0.09825458 -0.0178556 0.05268213 -0.09021577
-0.07468411 0.0015051514 0.12114741 -0.026706219 0.04832968 -0.07727596 0.006571561 -0.12098606
-0.007870734 -0.068376705 -0.06821215 0.036297217 -0.12461737 0.007675752 -0.054110467 -0.10440768
-0.10296248 0.100879 -0.11282848 -0.105189696 0.083072886 0.066841334 -0.1207958 0.08615878
0.1240278 0.041589618 -0.079530045 -0.09142059 -0.11708914 -0.09610516 0.11972578 0.021132603
-0.06783241 0.08505744 0.014950931 0.050373852 -0.010806575 0.05435276 -0.11741336 0.11396018
0.12261939 0.11473879 -0.028638095 -0.079377696 0.03488654 0.06434724 -0.031449527 0.040597975
-0.1023013 -0.007186681 0.11783348 -0.09493092 -0.07942474 0.12492362 -0.07842967 0.08030209
-0.0104898065 -0.1223432 -0.0070066005 -0.03050153 -0.058573723 0.103869796 -0.0070767254 -0.11328302
-0.08968982 -0.110880524 0.011144906 -0.0020873547 0.0017035156 -0.115124315 -0.011211619 -0.118835956
-0.07019605 0.016159445 0.035477906 -0.11242773 0.103624836 -0.077852786 -0.06951743 -0.027924031
-0.06265125 -0.030587345 -0.09645416 -0.05541961 -0.10857366 0.03470981 0.057664394 -0.0317806
-0.03416431 -0.00993602 0.041107923 0.04114656 -0.10254566 -0.022190824 0.06291169 0.10876483
0.07434507 -0.024202168 -0.012671486 0.10537396 -0.052007645 -0.026367694 0.056556836 -0.10802941
0.028018504 -0.007979825 -0.03000559 0.03388782 -0.0061692297 0.123647854 0.06994185 -0.06885184
-0.0001231134 0.10068698 -0.0682337 -0.117469594 -0.11527754 0.05850227 0.0474523 -0.004625365
-0.11952753 -0.019729376 0.04751818 -0.04703203 0.07807809 -0.006866887 -0.06890854 0.08083838
-0.025878131 -0.019807532 -0.017501593 0.07458682 -0.08890495 -0.000473395 0.052840114 0.030596659
-0.033628106 -0.1209735 -0.019010723 0.10810971 -0.08327231 0.023862168 -0.065933704 -0.10233329
0.11205347 0.060771987 0.123172194 -0.030549124 -0.07879129 -0.10969177 0.06081672 0.06888154
0.059921533 -0.101300105 -0.016616568 0.02529049 0.06024362 -0.070774764 0.061804846 -0.07523921
0.060452983 -0.046478257 0.08461009 0.10999547 0.11012238 -0.0037599504 0.051016122 0.009495571
-0.1002419 0.068371385 0.00088742375 -0.04061991 0.040764675 0.124366775 -0.027121112 0.08346844
0.004219979 0.06359053 -0.036700755 0.07611933 0.028992847 -0.0025775582 -0.054380104 -0.11726615
0.030729681 0.008299664 -0.03432092 0.098039076 -0.064598024 -0.00094236434 0.07523371 0.066591635
0.06575099 0.07294442 0.01292862 0.028365329 -0.09343496 0.056443363 -0.04478994 0.04382974
0.11980921 0.07937454 -0.06740622 -0.058684915 0.0897672 -0.12244736 0.11523172 -0.06838597
0.05080071 0.1233926 -0.036076874 0.06677458 0.09161897 -0.08242263 -0.036150485 -0.014162183
00000000: b478 5f3d 40fb b53b 00a1 d8bb e0f5 453c
00000010: e86c 93bd 587d a1bd 5098 38bd c48b c53d
00000020: 80ac 31bd 82c2 e63d c064 703c 8c08 623d
00000030: de28 d3bd f816 debc 34ee b93d 30f7 bdbc
00000040: a031 953c 8c5a 2d3d b290 843d a022 d9bb
00000050: ea90 dcbd 88fe cd3d 747f cb3d c822 7bbd
00000060: 7c77 adbd 404c efbc fcd0 493d 10a0 6fbc
00000070: 6409 20bd 9c27 093d 36aa 9c3d f09e 6e3d
00000080: 2028 34bc 70a8 8a3c 169f 863d b098 313c
00000090: b239 c9bd e845 92bc 38c9 573d 0cc3 b8bd
000000a0: fcf3 98bd 8048 c53a 221c f83d 00c7 dabc
000000b0: 58f5 453d dc42 9ebd 4056 d73b 8ac7 f7bd
000000c0: 40f4 00bc 1609 8cbd d0b2 8bbd 64ac 143d
000000d0: 6437 ffbd e084 fb3b f0a2 5dbd b2d3 d5bd
000000e0: fedd d2bd a699 ce3d 9e12 e7bd b26d d7bd
000000f0: 1e22 aa3d 1ce4 883d ca63 f7bd 0474 b03d
00000100: 4a02 fe3d e059 2a3d a6e0 a2bd b83a bbbd
00000110: 6ecc efbd c8d2 c4bd ca32 f53d 481e ad3c
00000120: b8eb 8abd 9832 ae3d c0f4 743c d054 4e3d
00000130: 100e 31bc 00a1 5e3d 6a76 f0bd f463 e93d
00000140: e01f fb3d 2cfc ea3d 709a eabc c690 a2bd
00000150: 30e5 0e3d 7cc8 833d 38d1 00bd 104a 263d
00000160: 5883 d1bd 407e ebbb ae52 f13d 246b c2bd
00000170: 70a9 a2bd f4d7 ff3d bc9f a0bd 6c75 a43d
00000180: 70dd 2bbc 128f fabd a097 e5bb 58de f9bc
00000190: 00eb 6fbd b0b9 d43d e0e3 e7bb ee00 e8bd
000001a0: 4caf b7bd 5415 e3bd 2099 363c 00cc 08bb
000001b0: 8048 df3a 4cc6 ebbd f0b0 37bc 4460 f3bd
000001c0: f2c2 8fbd d060 843c 4851 113d 8240 e6bd
000001d0: 4239 d43d 4871 9fbd 285f 8ebd f0c0 e4bc
000001e0: 4c4f 80bd 5092 fabc c289 c5bd acff 62bd
000001f0: de5b debd e02b 0e3d 8031 6c3d 602c 02bd
00000200: e0ef 0bbd b0ca 22bc c860 283d 4c89 283d
00000210: 7603 d2bd 88c9 b5bc d8d7 803d 18c0 de3d
00000220: 3a42 983d a043 c6bc 109c 4fbc 4ece d73d
00000230: f805 55bd 1001 d8bc 24a8 673d 863e ddbd
00000240: 1087 e53c d0bd 02bc 48ce f5bc f4cd 0a3d
00000250: 4027 cabb 163b fd3d ac3d 8f3d 3202 8dbd
00000260: 0018 01b9 fa34 ce3d 1cbe 8bbd e693 f0bd
00000270: a216 ecbd 14a0 6f3d 585d 423d 6090 97bb
00000280: daca f4bd 809f a1bc 6ca2 423d a8a4 40bd
00000290: 68e7 9f3d a003 e1bb ec1f 8dbd 988e a53d
000002a0: 60fe d3bc 6843 a2bc 805f 8fbc fac0 983d
000002b0: cc13 b6bd 0032 f8b9 e06e 583d d8a5 fa3c
000002c0: a0bd 09bd f4c0 f7bd 60bc 9bbc a068 dd3d
000002d0: ac8a aabd 987a c33c 4008 87bd 1e94 d1bd
000002e0: 4a7c e53d 0cec 783d b441 fc3d 2842 fabc
000002f0: 545d a1bd 14a6 e0bd f41a 793d c411 8d3d
00000300: 4870 753d 6e76 cfbd 781f 88bc 002e cf3c
00000310: 04c2 763d 5cf2 90bd 1427 7d3d 0417 9abd
00000320: 8c9d 773d fc5f 3ebd 0e48 ad3d 4e45 e13d
00000330: d887 e13d 8069 76bb 48f6 503d 5093 1b3c
00000340: a04b cdbd 4c06 8c3d 00a2 683a 1061 26bd
00000350: dcf8 263d 02b4 fe3d 182d debc 80f1 aa3d
00000360: c047 8a3b c03b 823d 8853 16bd 74e4 9b3d
00000370: 6882 ed3c 40ec 28bb acbd 5ebd 3c29 f0bd
00000380: d0bc fb3c 50fb 073c 1894 0cbd b6c8 c83d
00000390: f84b 84bd 0009 77ba 2214 9a3d 3261 883d
000003a0: 74a8 863d e263 953d 90d2 533c 685e e83c
000003b0: d45a bfbd 2831 673d a875 37bd d086 333d
000003c0: 885e f53d 1e8f a23d 460c 8abd 985f 70bd
000003d0: ded7 b73d aec5 fabd 9cfe eb3d f20d 8cbd
000003e0: 6814 503d 42b5 fc3d 58c5 13bd 1cc1 883d
000003f0: baa2 bb3d 32cd a8bd 8812 14bd 8008 68bc

MLP_layers.0.bias f4 [32]
0.015772706 -0.025953263 -0.08173692 -0.115088046 0.10744514 0.07635038 -0.027823173 0.13944045
-0.11416355 0.13008057 0.049368434 -0.053375807 -0.002140356 0.044157214 0.10003191 0.09563244
0.073426425 -0.014746365 0.070078984 0.019977206 -0.051322713 -0.06260942 -0.106904626 -0.07764411
0.03244822 -0.11787205 -0.10425283 0.08953622 -0.100635 -0.086857155 -0.0050581256 0.10274993
00000000: c335 813c f09b d4bc b065 a7bd 48b3 ebbd
00000010: 330c dc3d 975d 9c3d 6ced e3bc 7ac9 0e3e
00000020: 94ce e9bd d733 053e 8e36 4a3d 97a0 5abd
00000030: 3745 0cbb 32de 343d 88dd cc3d f1da c33d
00000040: 9860 963d bd9a 71bc 9285 8f3d 3da7 a33c
00000050: c437 52bd 5e39 80bd d0f0 dabd e003 9fbd
00000060: 6de8 043d e766 f1bd 8282 d5bd c45e b73d
00000070: b919 cebd 2ae2 b1bd a2be a5bb 8e6e d23d

MLP_layers.1.weight f4 [1, 32]
-0.04249654 0.0312588 0.1643181 -0.0118567515 0.022096908 0.022404378 -0.11076773 0.16283366
-0.12384206 0.19366436 0.02913533 -0.11597217 -0.100822955 -0.009638156 0.1743757 -0.08174813
-0.12739138 -0.0800704 0.07678605 -0.015805908 -0.073563546 -0.00020611916 0.17338969 0.039271723
-0.08273049 0.0018964594 0.110770136 0.06288769 -0.030905519 -0.004683267 -0.05913743 0.14391118
00000000: da10 2ebd 3a09 003d 0143 283e d242 42bc
00000010: 9304 b53c 6389 b73c 31da e2bd debd 263e
00000020: e8a0 fdbd f34f 463e 37ad ee3c d182 edbd
00000030: 447c cebd 5be9 1dbc 8b8f 323e 906b a7bd
00000040: e372 02be f3fb a3bd 0142 9d3d 647b 81bc
00000050: 7ca8 96bd b121 58b9 118d 313e 63db 203d
00000060: 9a6e a9bd 9e92 f83a 74db e23d 43cb 803d
00000070: 922d fdbc 1776 99bb 173a 72bd 745d 133e
