SLIC_GAT/best3.pt (torch, 74869 bytes, 12 tensors)

GAT_layers.0.f.weight f4 [32, 82]
000000 82 a8 a2 3d 83 c2 5a be 7c cf 84 3d 8e e3 8d 3d
       0.079422966 -0.21363263 0.06484887 0.06928168
000010 04 a6 8d bd 77 dd c7 bd 0b cd 79 3d 26 7f 81 bd
       -0.069164306 -0.09759038 0.06098656 -0.0632308
000020 df eb e3 3c ec db 85 3d 21 46 90 3d 22 93 ba bd
       0.027822433 0.065360874 0.07044626 -0.091100946
000030 9b 1e 6a 3e 8e e8 f9 3d d1 78 4e 3e e9 ba 57 3e
       0.22863238 0.122025594 0.20163275 0.21067394
000040 c6 6b 13 be 9b 13 9a 3d 13 01 2a 3e ed 92 69 3e
       -0.14396581 0.07523271 0.16601972 0.22809954
000050 4d 6f 51 3e 77 2a 48 3e d3 e4 8f bd e4 d6 1c 3e
       0.20452614 0.19547449 -0.07026067 0.1531635
000060 c2 4b 57 be 52 55 1e 3e a3 32 d5 bd dd 5c 12 3d
       -0.21024993 0.15462235 -0.10410049 0.035733093
000070 7d 2d cc bd f5 3e 29 3d 98 4d e8 bd 00 9f 46 3e
       -0.09969614 0.041319806 -0.11342925 0.19396591
000080 6e 35 2d be 4a 3b 92 bc 8d 91 ee 3d 3f 49 3f be
       -0.16914913 -0.017850537 0.11648855 -0.18680285
000090 da a5 1e 3e af bf 8b 3d b0 0d 22 be 47 17 e2 bd
       0.15492955 0.0682367 -0.15825534 -0.11039596
0000a0 9d cf f1 3c a1 f3 24 3d 46 87 25 be 75 6c 11 3e
       0.029517943 0.040271405 -0.16164884 0.1420153
0000b0 e9 3f 88 bd 88 e9 68 3e 34 fe 0e 3e 55 c3 05 be
       -0.06652815 0.22745335 0.13964158 -0.13062795
0000c0 9b 48 03 be fb 28 63 3e e0 f5 ff bd a5 cd 2d 3e
       -0.12820666 0.22183602 -0.12498069 0.16972978
0000d0 51 9c 07 bd 40 61 dc 3c e6 88 ec 3c 7d a7 db bc
       -0.03310806 0.026901841 0.028873872 -0.026813263
0000e0 c4 03 92 3d a3 7f 42 bd 16 da 6f 3d 85 eb 6f 3e
       0.071296245 -0.047485005 0.058557592 0.23429687
0000f0 01 11 d9 3d 7c 2d bb 3b ad 89 3f be 91 f1 ca bb
       0.10598946 0.0057122093 -0.18704863 -0.0061933477
000100 be 37 49 be f5 c2 32 3d a4 66 14 3e 70 e1 6f 3c
       -0.1965017 0.043642957 0.1449228 0.014641151
000110 08 24 4f 3e 45 fc b3 bd 44 2e 2f 3e b1 1c 6f 3e
       0.20228589 -0.08788351 0.17107493 0.23350789
000120 68 61 d9 3d 4f 60 0e 3d b2 fb 31 3e 4c 3c 5c bd
       0.10614282 0.034759816 0.1738117 -0.05376844
000130 11 fe 92 3c 2d ab a7 3d 56 9a 33 be e0 28 4f be
       0.017943414 0.08186946 -0.17539343 -0.20230436
000140 aa bf 17 bd 2b 28 eb 3d 4c fc d8 bb 64 f1 53 3d
       -0.03704802 0.11482271 -0.006621873 0.05174388
000150 fb 8e be 3c 17 50 2a be ff 2c 43 be 79 1d ff 3d
       0.023261538 -0.16632114 -0.19060133 0.12456793
000160 66 90 c2 bc ae a0 26 3d ff ac 92 3d d6 df 4f 3e
       -0.023750495 0.04068058 0.07161903 0.2030023
000170 13 99 22 be 2b de 67 3d ad 2b 0f 3e 59 f1 20 bc
       -0.15878706 0.05660836 0.13981505 -0.009823167
000180 33 7c fd bd b0 96 85 3d f8 41 83 bd 70 a0 5d be
       -0.12377205 0.06522882 -0.06409067 -0.21643233
000190 70 f6 1b be f3 6e a9 bd b8 66 64 be 03 05 1c be
       -0.15230727 -0.08273115 -0.22304809 -0.15236287
0001a0 9d e2 8d 3d 7c 01 1b be e0 98 14 bd 34 16 92 3a
       0.06927989 -0.15137285 -0.036278605 0.0011145533
0001b0 9f f0 2a be be c1 c7 3d f6 16 85 bd 5a c1 db bd
       -0.16693352 0.0975375 -0.0649852 -0.10730238
0001c0 15 1f 1c 3e f1 f9 05 be 6f 3b 1e be 04 62 a8 bd
       0.15246232 -0.13083626 -0.1545236 -0.0822182
0001d0 98 ee 0b bd b3 66 44 bd 87 d1 42 be a0 d8 aa 3d
       -0.034163088 -0.047949504 -0.19025241 0.08342099
0001e0 77 3b 7f 3c 0d da 39 bd 7a 12 13 3e 7b 03 a3 3d
       0.015578142 -0.045373965 0.14362517 0.07959648
0001f0 31 4b 00 3e c4 f6 17 bd 6c a3 22 bb 09 b6 a6 bd
       0.12528683 -0.03710057 -0.0024816645 -0.08140189
000200 95 6b 01 be c0 ea 11 be 06 83 39 3e 7a bc bc bd
       -0.12638696 -0.14249706 0.18116388 -0.092156366
000210 ff 2a 20 be f9 be c5 3d 81 b2 2a bd 0e 2f b9 3d
       -0.15641402 0.09655566 -0.04167414 0.09042178
000220 ab c4 83 bd 12 b0 87 bd 3e 52 87 3b 3a d1 2b 3e
       -0.06433996 -0.066253796 0.004129677 0.16779032
000230 7b 2e 80 3c bd c0 1d be 1e dd 9d bd dd 95 3c 3e
       0.015647164 -0.15405555 -0.077081904 0.18416543
000240 26 48 55 3d e2 ce ad bd 61 cd 62 be 5a b7 6b 3c
       0.05207076 -0.084867254 -0.22148658 0.014386976
000250 4f 82 a5 bc 7e 3d 40 3e c8 eb c7 3d 1c 91 23 3e
       -0.020203738 0.18773457 0.097617686 0.15973324
000260 5c 0e e1 bd d4 ac 21 be 60 7d 53 be 55 e8 ef bd
       -0.10989067 -0.15788585 -0.20653296 -0.11714236
000270 23 5e 6f bd 6a 8c 13 be fb 1d 1f be c9 80 b0 3d
       -0.058439385 -0.14409032 -0.1553878 0.08618314
000280 e6 e0 c7 bc cc d0 3e 3e d5 dc 49 be 6c 60 3f be
       -0.024399232 0.18634337 -0.19713147 -0.18689126
000290 77 dd a9 bd f3 c6 62 3e 29 09 37 be f5 e0 ff 3c
       -0.08294194 0.22146206 -0.17874588 0.031235198
0002a0 46 3f 0f be 53 61 cf 3c 8d a0 5e be 43 18 87 bd
       -0.1398898 0.025314962 -0.21740933 -0.065964244
0002b0 68 1b 54 be 14 83 11 3e 8b ad 48 be 7f ca 12 3d
       -0.2071358 0.14210159 -0.19597451 0.035837647
0002c0 62 40 0f be 23 f8 cf bd 6d c6 12 bd aa 6a 8c 3d
       -0.13989404 -0.1015475 -0.035833765 0.06856282
0002d0 9d 19 24 be 95 18 0a 3e b9 c8 5e bd c7 23 43 3e
       -0.16025396 0.1348594 -0.054390643 0.19056617
0002e0 c8 04 29 bd 3f 42 1d 3e 3d 23 25 3e 73 60 d0 3d
       -0.041264325 0.15357302 0.16126724 0.10174646
0002f0 e9 93 75 3d 51 49 35 3e 0b 5c 85 3c 51 bd fb bd
       0.05995551 0.17703749 0.016279241 -0.122919686
000300 e1 1b e6 bc 31 92 5d be f0 a5 66 be 05 d5 5d be
       -0.028089466 -0.21637799 -0.22524238 -0.21663292
000310 33 f7 ea 3d b8 d9 d7 bd 1b 34 5a be f9 d5 b3 bd
       0.11472931 -0.105395734 -0.21308939 -0.087810464
000320 c5 ee fd bd be 5e 16 3e c9 a3 1b be 53 2a 21 be
       -0.12399057 0.14684579 -0.15199198 -0.15738802
000330 ce 82 39 3d c5 2c 2e 3e 48 23 f4 bd eb 98 8c 3d
       0.04529076 0.17009266 -0.11920792 0.06865104
000340 21 2a 5f 3e c8 62 7b 3b 3f 1e 84 3d b0 27 1f 3e
       0.21793415 0.0038358439 0.064510815 0.15542483
000350 a3 35 53 3e 12 af 16 be 55 6c 96 3d a4 65 0a be
       0.2062593 -0.14715222 0.073448814 -0.13515335
000360 9f c6 18 be 5e be 0f bd 09 13 00 be 23 7c 46 3e
       -0.14919518 -0.035093658 -0.12507261 0.19383292
000370 6a 18 25 be 70 d4 dc bd b5 6c 94 bd 00 eb a9 bc
       -0.16122594 -0.10782707 -0.07247297 -0.02074194
000380 89 9b 5e 3e 66 1b 36 bd 06 08 76 3d 8d 06 b4 bd
       0.2173902 -0.044459723 0.060066245 -0.08790312
000390 f9 77 9c 3d ae 5a 69 bd 1f b9 61 3d 6e 84 6e 3d
       0.076400705 -0.056971245 0.055108186 0.058231764
0003a0 6c 42 54 be be b1 2f 3e 01 01 ff bd 6b 03 67 bd
       -0.20728463 0.17157647 -0.12451363 -0.056399744
0003b0 0a 9c be bb df c6 ca bc 94 e0 10 be 1e c4 72 3d
       -0.005816941 -0.024753032 -0.1414817 0.059269063
0003c0 f6 15 bb bd fb 91 58 bc a3 e7 2c 3e e6 6b 30 be
       -0.09135048 -0.013218398 0.16885237 -0.1722866
0003d0 5b bf 63 be 4f 6a fb 3d 70 cc 9f bc e9 f0 f5 bd
       -0.22240965 0.12276136 -0.019506663 -0.120088406
0003e0 f2 d6 10 3d 32 05 e7 bc 09 1a f5 bd b2 04 50 bd
       0.035361238 -0.02820072 -0.119678564 -0.050785728
0003f0 36 70 05 be d8 45 2f be 0f b2 62 be 93 03 bf bd
       -0.13031086 -0.17116487 -0.22138236 -0.093268536

GAT_layers.0.f.bias f4 [32]
000000 67 80 61 bd 85 18 9b 3d 77 c1 f0 3c 48 26 e2 3b
       -0.055054095 0.07573036 0.029389126 0.006901536
000010 c0 f9 4e bd 7d 34 66 bd fc 7e 9c bd bf 1a 8e bc
       -0.05053115 -0.0562024 -0.07641408 -0.017346738
000020 8f 23 97 bd f3 a4 56 3d 5a 64 98 3d 39 50 86 bd
       -0.07379829 0.0524034 0.074410155 -0.0655827
000030 d6 26 ba bc d2 2f 2b 3d 80 83 b4 bd 05 32 d4 bd
       -0.022723597 0.041793652 -0.08814144 -0.10361103
000040 ff ee c6 3d 4b 43 5c 3c 76 c0 a6 bd d4 0c 4d 3d
       0.09713554 0.013443778 -0.08142178 0.050061062
000050 1d e4 b6 3c 65 b4 95 3d 71 b2 95 3d 7d 09 92 bb
       0.02232557 0.07309798 0.073094256 -0.0044566975
000060 eb a7 cc bd 0b 15 14 bd 69 72 3e bd 66 c7 2f bd
       -0.09992965 -0.03615288 -0.04649583 -0.04291477
000070 45 0f 8e bc bf 1e c1 3d 89 f8 ac 3d 08 f4 8f 3c
       -0.017341265 0.094296925 0.08445842 0.017572418

GAT_layers.0.w.weight f4 [1, 82]
000000 ac fc 48 be 6b c1 20 3e 04 80 be bd 6b e9 31 3e
       -0.19627637 0.15698783 -0.09301761 0.17374198
000010 08 5a 38 3e 8b 85 c5 3d 34 c9 f7 bb 44 ee 3a be
       0.18003094 0.09644612 -0.007561827 -0.18254954
000020 74 dc 9d 3c d3 c2 84 be ad 00 7d 3e a5 d3 34 3e
       0.01927016 -0.2592989 0.24707289 0.17658861
000030 44 aa 53 3e d8 0e 7e 3d 28 26 01 3d a3 2f 8a 3e
       0.2067042 0.062025875 0.03153053 0.2698947
000040 5b d6 57 be b6 3a 9e bd 69 0e 30 3d c3 e3 97 3d
       -0.21077864 -0.07726042 0.042982493 0.07416489
000050 6c fe 35 3d ac 57 2b 3d 76 13 f5 bd de aa 48 3d
       0.04443209 0.041831657 -0.119666025 0.048991077
000060 cb 59 a3 3d b4 52 97 3d 27 ec 25 3e 24 88 62 3e
       0.07976111 0.07388821 0.16203366 0.22122246
000070 8a 9a 69 3e 7e e3 35 3e 2f 02 d2 3d d4 db 52 be
       0.22812858 0.17762563 0.10254323 -0.2059167
000080 56 8b 4b be 47 4c 1c be 0b e7 88 3e 72 d9 10 3e
       -0.19877371 -0.15263472 0.26738772 0.14145449
000090 97 ca 18 3e d0 a7 88 be 8e 3a b3 bd 41 15 21 be
       0.14921032 -0.2669053 -0.08751403 -0.15730764
0000a0 ac 68 a1 bd 9c b4 17 bd ad a1 8b 3d b8 4a 6a 3e
       -0.07881293 -0.037037477 0.068179466 0.22880065
0000b0 bc 5c aa 3c 37 a3 69 be df 03 28 3d 96 32 0f 3e
       0.020796172 -0.22816168 0.041019317 0.13984141
0000c0 88 12 31 3e eb 51 82 3e 9e 67 17 3e 64 4b 81 3d
       0.17292225 0.25453123 0.1478562 0.06313208
0000d0 32 6e 11 be b6 92 c1 bd 0f 81 9b bd e3 3d 81 3e
       -0.14202192 -0.09451811 -0.07592975 0.25242528
0000e0 6a 71 75 3e 52 9c 01 be b7 2e 64 be 10 b5 1f bd
       0.23969045 -0.12657288 -0.22283445 -0.038991034
0000f0 3b 0d 32 be 78 b4 fb 3d 4e 6e f9 3d 6d 71 ab bd
       -0.1738786 0.12290281 0.12179242 -0.083712436
000100 63 98 03 3e 98 e3 24 be aa 7f 85 be 67 fb 7d 3e
       0.128511 -0.16102445 -0.26073962 0.24802934
000110 a9 d7 36 be 3a 52 68 3e 42 93 27 3e bf a9 03 3e
       -0.17855705 0.22687617 0.16364768 0.12857722
000120 b8 5b 33 be 6f 3a 0e be 44 ac b6 3d 4b 18 58 bd
       -0.17515457 -0.13889478 0.08919576 -0.052757543
000130 90 f8 68 3e 6f 79 1a be 12 2b 88 3e 88 da 2b 3e
       0.22751069 -0.15085386 0.2659536 0.16782582
000140 af f4 97 3d 8c 0a 49 bd
       0.074197166 -0.049082324

GAT_layers.1.f.weight f4 [64, 64]
000000 4f 23 07 be da b8 f7 bc 8a cb 03 3e 21 bc 17 be
       -0.13197063 -0.030239511 0.12870613 -0.14817859
000010 f2 75 21 be 1a af db bd 69 f8 f0 3d 79 45 01 bc
       -0.15767649 -0.10726757 0.117661305 -0.007890099
000020 33 9c c6 bd 3f 16 ec 3d 35 cd a8 bc 8e a7 a4 bd
       -0.096977614 0.115276806 -0.020605663 -0.08039771
000030 25 32 e3 3d 01 f2 2b 3e f1 58 40 3e 42 d8 38 3e
       0.11093549 0.16791536 0.18783928 0.18051246
000040 5e dc 55 3e db a1 22 be 67 9e a6 bd 2b 64 5c 3e
       0.20884845 -0.15882055 -0.081356816 0.21522586
000050 f7 ed 4e be 24 4d b6 bd ac 09 5d be a6 48 f3 3c
       -0.20207964 -0.08901432 -0.21585721 0.029697727
000060 0f a4 1c bd d8 59 47 bd 07 6e 49 be 5d a5 53 bd
       -0.038242396 -0.048669666 -0.19670878 -0.051671375
000070 40 58 8a bc 2c ed 52 3e ab fc be bb 2a 77 b0 bd
       -0.016887784 0.20598286 -0.00582846 -0.08616479
000080 57 5a 6a bd 21 81 59 bd c6 cd 55 be 0f ab 17 3d
       -0.05721506 -0.053101663 -0.20879278 0.03702837
000090 83 cd ce 3d 83 1b 57 be a2 b3 3c 3e 34 a4 a6 3d
       0.10097792 -0.21006589 0.184279 0.08136788
0000a0 f2 a4 62 bc 48 2c 97 bd ab 3a c1 3d 44 bc c5 bc
       -0.013833271 -0.07381493 0.09435018 -0.024137624
0000b0 6f 61 9b bc 69 c6 31 3e 73 18 61 be 24 ae 39 3e
       -0.018967358 0.17360844 -0.21981983 0.18132836
0000c0 11 ed 88 bd 1b 6b 38 be 72 e5 19 3e 74 60 64 bd
       -0.06685842 -0.18009607 0.15028933 -0.055756047
0000d0 b3 0f 9f 3d 33 ae 5e bd 41 76 00 3e cb a9 eb bd
       0.07766666 -0.054365348 0.1254511 -0.11506995
0000e0 eb 29 84 bd 16 b7 13 be 95 7c 32 bd 4a 48 97 3d
       -0.06453308 -0.1442531 -0.043575842 0.07386835
0000f0 1e 7d 99 3d 1d fa 2e be 29 85 b0 3d 9d 24 03 bd
       0.07494567 -0.17087598 0.08619148 -0.03201734
000100 fe ac f1 bd d2 80 61 3d 9b 0b 4e 3d e3 66 d8 bc
       -0.11800574 0.055054493 0.050304037 -0.026416248
000110 93 86 45 bd aa 01 57 be d4 fd e7 3d 55 2c 8e 3c
       -0.048224043 -0.20996729 0.11327711 0.017355124
000120 68 a3 a0 3d a0 96 f2 3c 11 18 23 be 37 3e 13 3d
       0.07843667 0.02961284 -0.1592715 0.035948005
000130 f1 bc 3c 3d f6 c4 53 3c 29 b2 07 be 0c 6a 1e 3d
       0.046078626 0.012925377 -0.13251556 0.038675353
000140 0b 28 97 3d 4b 68 4f 3e 10 51 1a 3e 50 b6 ae bc
       0.073806845 0.20254628 0.15069985 -0.021327168
000150 d6 71 0a be a2 d7 d5 3a 91 0e 59 be a6 73 8b 3d
       -0.13519987 0.0016314874 -0.21196963 0.068091676
000160 9b 16 aa 3d bf 7c f9 3b 2c 80 7c 3d fd bf 33 3e
       0.08305093 0.007613748 0.06164567 0.17553706
000170 6b 8e 29 be a4 d2 5c be 6b 12 25 be 57 81 fe 3d
       -0.16558234 -0.21564728 -0.16120307 0.12427013
000180 12 24 46 3c d0 f3 35 bd 93 18 19 3e 3a b5 f3 3d
       0.012093561 -0.04442197 0.1495078 0.118998006
000190 52 c4 dd 3d 7e 20 18 bd 01 01 55 3e d0 4a d1 ba
       0.10828461 -0.037140362 0.20801164 -0.001596773
0001a0 7c d9 4b 3e 72 e3 41 3e 77 cd 96 bb 4b 97 d9 3d
       0.19907182 0.1893442 -0.00460213 0.1062456
0001b0 b8 78 64 3e ba 11 94 bd c1 eb cf 3d ce 35 52 3e
       0.22311676 -0.072299436 0.10152388 0.20528337
0001c0 b1 b1 a7 bd 64 dc 3d be 58 4b 33 bd 98 da 1c bd
       -0.08188189 -0.18541104 -0.043773025 -0.038294405
0001d0 e4 dd 09 be 3a e1 40 bd 91 fd b9 bd 57 38 88 3d
       -0.13463551 -0.047089793 -0.09081567 0.06651371
0001e0 23 41 02 3c b7 36 5b 3e f6 1f c4 3d 87 4d 7f 3c
       0.0079501 0.21407591 0.095764086 0.015582449
0001f0 25 84 94 bd 1b 36 c1 3d 49 2c 17 3e 47 0c 26 be
       -0.07251767 0.09434148 0.14762987 -0.16215621
000200 34 61 4b 3d e6 15 4b 3e c7 c5 17 3e 9f a8 1c be
       0.049653247 0.19832572 0.1482154 -0.15298699
000210 6c 41 3e be 49 9a 55 3e 3d 7a 90 bd aa 27 5d 3e
       -0.18579644 0.20859636 -0.07054565 0.21597162
000220 ba 6f 8b bc 77 e2 53 3e 12 a6 2e be d2 54 02 bd
       -0.017021049 0.20691858 -0.17055538 -0.031819172
000230 22 57 55 bd d0 d3 e4 bd c3 cf 37 be 39 cd 49 be
       -0.05208505 -0.111732125 -0.17950349 -0.19707192
000240 b0 b7 d9 3d ba 9a d3 bd b3 dd 28 be be 8e 8e bd
       0.10630739 -0.10332246 -0.16490822 -0.0696082
000250 e4 99 37 be 47 ca 00 be 14 49 34 be 29 14 35 3e
       -0.17929798 -0.12577163 -0.17606002 0.17683472
000260 d6 3e 51 3d 6f 26 29 3e 90 f8 1a 3e b7 cb 37 be
       0.051085316 0.16518568 0.15133882 -0.17948805
000270 90 ad 4b be 3a b9 2d be 99 32 21 bd fb 20 d8 3d
       -0.19890428 -0.1696519 -0.039354894 0.105531655
000280 81 7f ce 3d e7 3d ed 3d fb 00 b4 3d 74 48 2d be
       0.10082913 0.115840726 0.087892495 -0.1692217
000290 e2 2a 84 bd 71 5f 31 bd 11 bf fe bc 21 d0 3a 3e
       -0.06453492 -0.04330391 -0.031096967 0.18243457
0002a0 74 59 a5 3d 3b 95 31 3e 01 0f 8e ba 0a fa 33 be
       0.080737025 0.17342083 -0.0010838212 -0.17575851
0002b0 d3 ae 2b 3e b4 4d 0e be 9a ec 69 bd 34 4c ce 3d
       0.16765909 -0.13896829 -0.057110406 0.10073128
0002c0 cf f0 b5 3d 06 01 44 bd df cd cf 3d 0f cc 4d 3d
       0.08883821 -0.04785254 0.10146689 0.050243434
0002d0 4b a3 7f bd 22 b3 07 be 1c a0 0f be ce 0f e1 bd
       -0.062411588 -0.13251927 -0.1402592 -0.10989343
0002e0 14 9e 0f 3d af 7c 5a 3e 53 42 34 be fc 56 24 3e
       0.035062864 0.21336626 -0.17603426 0.16048807
0002f0 54 4e f5 3d c5 2e 82 3d a8 81 3a be e9 0b 8f bd
       0.119778305 0.06356577 -0.18213522 -0.069846936
000300 fb ff 39 be b2 2e 07 3e d7 1f 3c be fc 6c 40 3e
       -0.18164055 0.13201407 -0.18371521 0.18791574
000310 95 33 f6 bd de 8d 07 be b7 85 44 bd 76 b1 8a 3d
       -0.12021557 -0.13237712 -0.047979083 0.06772129
000320 df ad 56 be 7d b8 cc 3d 51 81 b7 bd 91 5c 1b bd
       -0.20964764 0.09996126 -0.08960212 -0.037930075
000330 01 ab 95 3d 56 38 a3 bc 5a 16 26 3e 24 bf 4a bd
       0.07308007 -0.019924324 0.16219464 -0.049498692
000340 eb 5c b2 3d 2e 6e fb bd d3 7d 04 be b0 8a 48 3d
       0.08709129 -0.122768745 -0.12938623 0.048960388
000350 12 08 5c 3e 08 6a 4f 3d 59 aa f4 bd 57 08 53 bd
       0.21487454 0.05063823 -0.11946554 -0.051521625
000360 84 64 30 bd a0 4f 04 3e 1d c0 e0 3d cf b6 f8 3d
       -0.04306461 0.12921 0.10974143 0.12144243
000370 f0 c8 0e be 7b 3d af 3d 2d cb 27 be f7 6e 37 3e
       -0.13943839 0.08556648 -0.16386099 0.17913423
000380 15 9b 49 be 6b 8a 4f be 8d 39 38 3e 73 e3 13 be
       -0.19688065 -0.20267646 0.17990704 -0.14442234
000390 f0 66 cd bd 76 a0 49 be 56 e9 9d 3d 3e 65 4f bd
       -0.100293994 -0.19690117 0.07710521 -0.05063366
0003a0 14 d5 34 3e 95 a0 29 3e 15 8e 05 be 03 51 3f be
       0.17659408 0.16565163 -0.13042481 -0.18683247
0003b0 e5 d2 33 be 34 18 4a 3e a8 b3 1f 3e e2 84 d8 3d
       -0.17560919 0.19735795 0.15595877 0.105722204
0003c0 af 8b 35 bd fd 12 a9 bd 19 f7 86 3d 24 67 48 3e
       -0.044322666 -0.08255575 0.06590099 0.19570595
0003d0 00 fd e0 bd 62 e2 39 be 14 8f 09 3e d6 d1 56 3e
       -0.10985756 -0.18152764 0.13433486 0.20978484
0003e0 0c cd 15 be 92 e6 23 be 99 0d 95 bc 9c 2f 08 be
       -0.14629 -0.16005924 -0.01819496 -0.13299412
0003f0 a7 31 57 bd 19 59 ed bd d0 70 5e 3d fc 76 58 3e
       -0.052537587 -0.1158926 0.054306805 0.21139139

GAT_layers.1.f.bias f4 [64]
000000 a7 fb 4a 3d 3b 8e d6 3d 4e 70 ba bd c1 9e 97 3d
       0.0495564 0.10476347 -0.09103452 0.07403327
000010 d2 09 dd bd b1 d6 06 3d 7f ba 0a 3e 4b 22 d3 3d
       -0.10792889 0.03291959 0.13547705 0.10309275
000020 98 cb e6 bd d4 3a d5 bd d5 28 7e bd ce ba f0 bd
       -0.11269301 -0.10411611 -0.06205066 -0.1175438
000030 b8 91 a8 3d 38 9c 72 3d 94 7a d9 3d 29 bb cd 3c
       0.08230919 0.059231013 0.10619083 0.025113659
000040 77 c7 34 bd ba b1 cd bd d0 8d f6 bc 0c 25 99 3d
       -0.044135537 -0.10043664 -0.030096918 0.07477769
000050 44 5a 82 bd ac d5 8b 3d 1f a3 28 3c 77 a7 79 3d
       -0.06364873 0.06827864 0.010292797 0.060950723
000060 36 94 a0 3d 1c 63 0f bb 06 5c 42 bd fa 91 3d 3d
       0.07840769 -0.0021879142 -0.04745104 0.046281792
000070 ea a4 94 bb d9 c2 0f 3e 97 13 e1 3d 0c ce ae 3d
       -0.004536261 0.14039172 0.109900646 0.08535394
000080 a5 d4 ca bd 75 ad 79 bb 1e 6d 8c bd 0c 22 0d 3d
       -0.0990384 -0.0038097773 -0.0685675 0.034456298
000090 e4 bd e1 bc 97 08 ae 3d 3a 19 bb bd f4 ae 27 bc
       -0.027556367 0.08497732 -0.09135671 -0.010234583
0000a0 00 6e 3a bc 46 57 8c bd ed 94 b9 3d d8 4c 22 3d
       -0.011378765 -0.068525836 0.090616085 0.039624065
0000b0 b3 77 d3 bb bd f3 a6 bd 01 71 dd bd cf 05 16 3d
       -0.0064534782 -0.08151958 -0.108125694 0.036626633
0000c0 cd fb 87 bc a3 09 00 3b b4 f1 13 3e f8 e4 a5 3d
       -0.01659956 0.0019536994 0.14447671 0.08100313
0000d0 5e 9a fc bc d4 60 95 3d 50 1d 2e bd 95 37 91 bd
       -0.030835327 0.07293859 -0.042508423 -0.070906796
0000e0 2c ad bf 3d 26 ac b2 bd 58 1a 12 3e dc f1 23 3d
       0.09359202 -0.08724241 0.14267862 0.040025577
0000f0 6c c7 52 bc 75 e7 82 3d 1e 6b 71 bd 86 f7 ea bd
       -0.012864929 0.06391803 -0.058940046 -0.114729926

GAT_layers.1.w.weight f4 [1, 64]
000000 32 15 98 be 13 38 eb bc bd 4b fd bd a7 a2 3c 3a
       -0.2970367 -0.028713262 -0.123679616 0.0007195868
000010 57 2b a3 3d d7 f4 c5 3b 85 5e 87 be 1f e6 31 3c
       0.07967251 0.00604115 -0.264393 0.010858088
000020 83 40 49 3e 3d a0 e5 3d f1 b5 e0 3d 1a 75 a2 bd
       0.19653516 0.11212204 0.109722026 -0.079324916
000030 cd 4c 01 bd 05 97 86 be 32 8f e8 3d a1 ec 30 3c
       -0.031567384 -0.26287094 0.11355437 0.010798604
000040 46 95 15 3e 1c 49 11 3e d0 e3 59 be 2d a9 99 3d
       0.14607725 0.14188045 -0.2127831 0.07502971
000050 88 52 5b 3e 0c 09 25 be 0b 8e 19 3e 0f 04 75 be
       0.21418202 -0.16116732 0.14995591 -0.2392733
000060 89 fa 91 be 26 e8 46 3e 06 0e 92 be fa 85 ec bd
       -0.28511456 0.19424495 -0.28526324 -0.115489915
000070 e0 29 ea bd 44 60 44 be d4 16 9d bd bc 70 92 3e
       -0.11433768 -0.19177347 -0.0767037 0.28601635
000080 d4 8f 80 3e bb 5e 3e 3d 31 a9 a0 bd af fe 8c 3e
       0.25109732 0.04647706 -0.07844771 0.27538058
000090 b2 db 5e 3d 1d 6f 7a 3e a4 41 89 be 2d b5 92 be
       0.054408737 0.24456449 -0.26807892 -0.2865385
0000a0 34 c2 4d be eb 2b 18 bd c5 35 5e 3c 29 9c 02 3e
       -0.20093614 -0.03715126 0.013562624 0.12754883
0000b0 68 af 4a be c1 8e f2 3d 44 ea 85 be b1 06 4a 3e
       -0.19793475 0.118436344 -0.26155293 0.19729115
0000c0 ea cb a1 3d fc f1 79 be 77 35 4e be 9d 08 b2 3c
       0.07900222 -0.24408716 -0.20137583 0.021732623
0000d0 b5 e9 a6 3c c0 67 8f 3d 6d bb 26 bd 65 7f 62 3e
       0.020375112 0.070022106 -0.040706087 0.2211891
0000e0 31 24 4b 3e 50 04 84 3e 00 19 80 be 62 6f 37 3d
       0.19838025 0.2578454 -0.25019073 0.044783957
0000f0 c5 5b 87 be 8c 60 b4 bd cd cf d0 bd 68 65 38 bd
       -0.26437202 -0.08807477 -0.10195885 -0.045018584

GAT_layers.2.f.weight f4 [64, 128]
000000 78 a2 9d bc 31 76 d8 3c 6c 0d dd 3d 37 36 23 3d
       -0.01924251 0.026423546 0.10793576 0.039846625
000010 a3 ba 23 bd cb 98 ca bd 3f 98 65 3c 22 03 ab bd
       -0.039972913 -0.09892424 0.014013349 -0.08350207
000020 42 71 91 3d 5a fa 32 3e 0b 78 24 be 44 86 91 bd
       0.0710168 0.17478314 -0.16061418 -0.07105687
000030 e0 ae 3d 3d 29 ce 16 be 37 88 a5 3d ae c9 33 be
       0.046309352 -0.14727081 0.080826215 -0.17557403
000040 0b 96 0a 3e 61 bd bf 3d 6b c4 17 3e e7 f7 25 be
       0.135338 0.09362293 0.14821021 -0.16207848
000050 99 c4 07 3c 94 9a 0a be a0 50 e4 bd 4d ff bb bd
       0.008286619 -0.1353553 -0.111481905 -0.09179554
000060 c3 0e 42 be c8 6c d4 3c 38 14 0f 3e 8a 11 07 be
       -0.18950944 0.025930777 0.13972557 -0.13190284
000070 d7 03 05 be 73 ce 20 3e 6c 68 c9 3d 18 fe 21 be
       -0.12989746 0.15703754 0.0983437 -0.15819585
000080 60 60 c8 3d 4e 71 02 3e 77 3f 15 3e 15 99 4f 3d
       0.09784007 0.12738535 0.14574991 0.0506831
000090 3a 8d 00 3e ec b3 b6 3d 98 54 0a be 2f 8b ca 3d
       0.12553874 0.08921036 -0.13508832 0.098898284
0000a0 0e 6e de bd 55 82 0c bd 47 e6 db 3c 22 1d 98 3d
       -0.10860835 -0.03430398 0.026843203 0.07427432
0000b0 c2 14 eb 3d fc c4 09 3e 40 48 02 3d fd 1c 00 bd
       0.114785686 0.1345405 0.031807184 -0.031277645
0000c0 2d 0a af bd bc bd d7 3a 57 b3 8a 3d ea 75 45 be
       -0.08546863 0.0016459743 0.067724876 -0.19283262
0000d0 d7 aa a7 3d 9f e7 1c be e2 da 2a be 08 fc e4 3d
       0.08186882 -0.15322731 -0.1668506 0.11180884
0000e0 c2 f4 d3 bd 8f f9 17 3e 7c 65 c6 3d 85 b1 c6 bc
       -0.10349418 0.14841293 0.09687325 -0.02425457
0000f0 e2 7b 35 3d 70 08 af bd 08 26 76 bd 66 36 d7 bc
       0.044307597 -0.08546531 -0.060094863 -0.026271056
000100 02 f6 21 3d a1 ce 21 bc 1c c4 33 be 8b cb f5 bd
       0.039541252 -0.009875924 -0.17555279 -0.12001713
000110 5b e4 b0 3c d7 05 3e be a3 d8 13 bc 31 1b 2b be
       0.021593263 -0.18556915 -0.009023818 -0.16709591
000120 5f 82 1a be 8a f9 1f be 83 60 fd bb d3 74 39 bd
       -0.15088795 -0.15622535 -0.0077324524 -0.045277428
000130 60 21 8d 3d 81 0c ce 3d ff 77 02 be 76 a2 ce 3d
       0.068911314 0.10060979 -0.12741087 0.10089581
000140 47 fa a4 3d 9e f9 0c be 25 5d 0b 3e 1c fa 1c be
       0.08055549 -0.13767096 0.1360975 -0.15329784
000150 3c 41 6b bd 01 df 1f bd 37 66 f9 3b 0f e5 bd 3d
       -0.05743526 -0.039031032 0.007611062 0.09272205
000160 ed 83 f7 bc 79 5d 58 3d 0b 61 af 3d 91 95 06 be
       -0.030214274 0.052823517 0.08563431 -0.13142993
000170 8d 22 c7 bc e4 1a 2e be 7e 90 51 3d 57 1c 28 3e
       -0.024308467 -0.17002445 0.05116319 0.16417061
000180 22 ca 9e bd 33 55 c4 bc 04 ea e3 3d fd 2f 18 3e
       -0.077533975 -0.023966407 0.11128619 0.14862056
000190 23 c7 8a bd f9 9f 14 3d 3c ff 28 be 35 a3 3b bd
       -0.067762636 0.036285374 -0.16503614 -0.045809943
0001a0 07 33 23 be fd 4e 1e 3e 31 e8 70 3d 3f 11 b9 3d
       -0.15937434 0.15459819 0.058815185 0.090364926
0001b0 16 58 99 bc 12 0a 87 3b d8 40 8a 3d 84 ce 00 bc
       -0.01871876 0.0041210735 0.06750649 -0.007861737
0001c0 75 9e 1d 3e 47 c7 5f bc 54 a8 1b bd 02 b4 0e be
       0.15392478 -0.013658351 -0.038002327 -0.13935855
0001d0 9b 5e d0 bd e2 15 0c 3e 98 97 b3 bb 40 e0 04 be
       -0.101742946 0.13680223 -0.005480718 -0.1297617
0001e0 a2 a7 c5 bd 0d a1 2b be 3a 45 fc bd 77 f7 09 bd
       -0.09651114 -0.16760655 -0.123178914 -0.033683266
0001f0 ce 57 0b be 25 f9 13 3e 89 36 2b bd 2c 6d 27 bd
       -0.13607714 0.1445051 -0.041800056 -0.0408756
000200 dd d3 d1 bd 28 bf aa 3d 07 75 ac bd 81 89 da 3d
       -0.10245488 0.083372414 -0.08420759 0.10670758
000210 b3 52 5d bb 52 35 11 3e ca 8d cf bd 70 16 46 3e
       -0.0033771216 0.14180496 -0.10134466 0.19344497
000220 bb 07 17 be 80 4a 8c 3d 7c cf ed 3c 3c 34 9a bd
       -0.14749043 0.06850147 0.0290296 -0.07529494
000230 d6 06 e9 3c d7 b8 75 3d 8c f5 30 3e a2 6e 23 bd
       0.028445642 0.05999073 0.17281169 -0.03990043
000240 16 8c 0e be 94 d6 77 bd 50 89 55 bc e7 74 1d 3e
       -0.13920626 -0.060507372 -0.013033226 0.15376626
000250 df f0 84 bd 69 e1 13 bd be 50 d0 3d 9c 44 c5 bd
       -0.06491255 -0.03610364 0.1017165 -0.09632227
000260 a2 2a 6e bb 8d b1 20 be ae ab 0a be a3 01 10 be
       -0.003634133 -0.1569273 -0.13542053 -0.14063124
000270 c3 15 c2 bd 47 28 93 bd 21 8f e2 bd bb 46 d1 3d
       -0.09476807 -0.07185417 -0.11062456 0.10218569
000280 76 f5 be bd 27 2b 91 bd 1b 1b cf 3d 31 a6 06 3e
       -0.09324162 -0.07088309 0.10112592 0.13149334
000290 41 33 e6 bd 47 e5 13 3e d0 c1 30 be 51 c4 72 3d
       -0.11240245 0.14442931 -0.17261434 0.059269253
0002a0 4d 3a c3 bc f8 07 a0 bd 29 31 b0 3d 38 1a 4c 3d
       -0.02383151 -0.0781402 0.086031266 0.04982969
0002b0 77 77 0a 3e be 4c f4 bd 2e 22 bc 3d da bb 93 bd
       0.13522135 -0.119287 0.09186207 -0.07213564
0002c0 cb 8d 1f be 65 c5 82 3c 80 9c fe bd 66 04 df 3c
       -0.15581433 0.015963266 -0.12432194 0.027223777
0002d0 32 2e aa bd 37 d5 0b be ee ed bc 3d 8e 1c 7d 3a
       -0.08309592 -0.13655554 0.09225069 0.0009655439
0002e0 72 7f fa bc 10 ce ea bd 66 9d 3b 3e ee 92 81 bd
       -0.030578349 -0.114650846 0.18321761 -0.06326853
0002f0 02 16 2f 3d 4a 93 a6 bd ca 8f e4 3b c6 55 82 bd
       0.042745598 -0.08133562 0.006975149 -0.06364016
000300 04 ab 17 3e 0e 83 c1 bd 5a 50 23 bd 79 0d 0b bc
       0.14811331 -0.09448825 -0.03987155 -0.008487099
000310 b2 ec 80 bd 62 5f 14 3e c3 ba 21 3d 09 ad 25 3e
       -0.06295146 0.1448951 0.03948475 0.16179289
000320 c8 c0 8c bd 24 0a da 3c 58 65 a6 3b 4f e3 20 bd
       -0.068727076 0.026616164 0.005077999 -0.03927928
000330 87 06 a4 3d 41 bb e2 3d 7b 11 b2 bd e5 11 18 be
       0.080090575 0.11070872 -0.086947404 -0.14850576
000340 dd c2 b7 3d e7 bf 81 bd a7 a2 03 3e 53 6d 8b bd
       0.08972714 -0.063354306 0.12855016 -0.06807961
000350 07 01 23 be 56 d1 a5 bd 57 a3 dd 3d f0 09 6c bc
       -0.1591836 -0.08096568 0.1082217 -0.014406666
000360 a0 ae 8d 3d 48 5c 19 3e e3 b5 b5 3d 0a 1b 05 3e
       0.06918073 0.14976609 0.08872583 0.12998596
000370 c3 fb 2a be 8e 37 1d 3e be 85 22 3e ad 28 42 bd
       -0.16697602 0.15353224 0.15871331 -0.047402073
000380 34 7a cb 3d 8e 82 da bd 43 9d 27 be 3a e0 e6 ba
       0.09935418 -0.106694326 -0.16368584 -0.0017614432
000390 1e 76 29 3d 8b e6 87 3d 81 b7 7f 3c 09 c4 26 bd
       0.04137241 0.066357695 0.015607716 -0.040714297
0003a0 d6 de 06 3e 4e 73 93 bd 42 9d a7 3d cd 51 31 3e
       0.13170943 -0.07199727 0.081842914 0.17316361
0003b0 29 98 2b 3e f9 59 55 bd 08 36 78 bd 98 ce 7b 3d
       0.16757263 -0.052087758 -0.060598403 0.06147632
0003c0 1a 7f d2 bd 0d cf b5 3c c7 fa c7 bd 92 74 bb 3b
       -0.10278149 0.022193456 -0.09764629 0.0057206834
0003d0 6a 7d b9 3d 8c f0 44 3d ed 8e f1 bd 70 1c e5 bc
       0.09057124 0.048080966 -0.11794839 -0.027967662
0003e0 8f 12 2f 3e 53 2e 1e bc 22 87 fd 3d 75 6c fe bc
       0.17096923 -0.009654599 0.1237929 -0.031057576
0003f0 1f 41 91 bd 71 60 47 3b 4f 23 28 be a2 bc 15 be
       -0.07092499 0.0030422474 -0.16419719 -0.14622739

GAT_layers.2.f.bias f4 [64]
000000 7a c6 89 3d 69 75 a2 3d 15 cc 37 bc 55 05 c4 3d
       0.067273095 0.079325505 -0.011218091 0.095713295
000010 40 f0 05 3d 3d eb 8b 3a 9a d7 f5 3c 89 1b dc 3d
       0.032699823 0.0010674965 0.030010033 0.107474394
000020 fa d5 af 3d 3d a0 6c 3b 79 65 4a bd 78 5f 6c 3d
       0.08585735 0.0036106252 -0.049413178 0.057708234
000030 48 20 6b 3d 10 4a 9a bd d1 e0 a5 3d a0 50 f2 3d
       0.057403833 -0.075336576 0.08099521 0.11831784
000040 ab 6c d8 bb e5 aa 82 3d 45 03 17 bd a9 77 ef 3d
       -0.006604751 0.06380252 -0.036868352 0.11692745
000050 16 43 c8 3c 90 7a 4a 3c 5a bc 53 bd 59 b4 d1 3d
       0.024446052 0.012358323 -0.051693298 0.10239477
000060 7b 51 ae bd d1 be 00 bd 15 34 c4 3b 6f da 9a 3d
       -0.08511635 -0.031431977 0.005987654 0.07561194
000070 bd 1e 09 bd 5d 01 1c 3d 15 ff 89 bd 40 5d 65 bd
       -0.03347658 0.038087238 -0.06738106 -0.055997133
000080 bb 2e d5 3c 9e 5a 74 bd 93 16 7b 3d 31 0b 9c bc
       0.02602326 -0.05965673 0.061300825 -0.019048305
000090 af 64 a0 bd e7 59 42 bd 01 6b 79 3d 24 40 3e 3d
       -0.07831704 -0.04744902 0.060893063 0.046447888
0000a0 3b 10 79 3d 1e b2 1e 3d 96 d8 f3 3d bc ed 24 bd
       0.060806494 0.038744085 0.11906545 -0.040265784
0000b0 d3 ea 22 3d 21 ef a6 bb 3a ad 17 3c dd c3 a5 bd
       0.039774727 -0.0050944244 0.009257609 -0.080939986
0000c0 c9 91 84 bd d1 49 87 bd 13 1e ca 3d a7 2c c3 3c
       -0.06473119 -0.06605876 0.098690175 0.023825003
0000d0 3c c4 f1 bc 94 08 a0 3d 6d 54 90 bc c9 b4 e3 3b
       -0.029512517 0.07814136 -0.017618382 0.0069490415
0000e0 d1 24 6c 3d 8f 62 d3 3b eb 74 af 3d 75 8f 00 bd
       0.0576523 0.006450958 0.08567222 -0.03138681
0000f0 62 9c 88 3c 80 ba 8f 3d d7 91 d2 bc 5f 77 2b bc
       0.016676132 0.07017994 -0.025704307 -0.010465472

GAT_layers.2.w.weight f4 [1, 128]
000000 6f 0e f6 bd 30 29 30 3e a7 9b 59 3e 20 7f 17 be
       -0.12014472 0.17203212 0.21250783 -0.14794588
000010 ae 28 9a 3d c4 98 27 3e f2 81 14 3e 7b 36 17 be
       0.0752729 0.16366869 0.14502695 -0.14766876
000020 df ba 29 3e 85 c1 9a 3d 78 d7 1b 3e fa 04 31 be
       0.16575192 0.07556442 0.15218914 -0.17287055
000030 96 a1 5b 3e 1c 39 24 3e 23 69 40 3e e8 f4 f2 3d
       0.21448359 0.1603741 0.18790106 0.118631184
000040 9c ec e2 3d 28 a0 d9 3d 96 ec 27 3e 16 5a 7c 3b
       0.11080286 0.106262505 0.16398844 0.0038505844
000050 c0 1a 2f 3e 3a fa 15 3e 6d 95 74 3d bb 30 35 be
       0.17100048 0.14646235 0.059712816 -0.1769437
000060 3f 89 13 3d ad 58 36 3e 97 aa 15 be f1 7f 2c be
       0.03601956 0.17807265 -0.14615856 -0.16845681
000070 92 36 02 3c 21 3e 79 bd b1 91 a9 bd de 2f e4 3d
       0.007947581 -0.060850266 -0.082797416 0.111419424
000080 ae b4 09 be a1 cc 3d 3e df 3c 0b 3e 53 dc dc 3d
       -0.1344783 0.18535091 0.13597439 0.10784211
000090 78 7f 95 3c 55 78 d1 bd 24 93 b7 bc 1d 50 4c 3e
       0.018249258 -0.1022803 -0.02240903 0.19952436
0000a0 d7 be 4b be 5d 4b d9 bd 71 31 09 3d 29 5c c5 3d
       -0.19897018 -0.106100775 0.033494417 0.09636719
0000b0 a2 21 1a be 64 c3 dd bd 0e 54 46 be 5d 5b 96 3c
       -0.15051892 -0.108282834 -0.19368002 0.018354112
0000c0 73 81 f0 3d cf 5d c4 3d b6 d2 03 bd 06 5c ce 3d
       0.117434405 0.09588205 -0.03218337 0.10076146
0000d0 80 77 84 bd 4f 4f 0a 3e 9f 19 d2 bd ff ba 5d 3e
       -0.06468105 0.13506816 -0.10258793 0.21653365
0000e0 15 d6 49 be d5 c8 14 be 0a 26 48 be 76 7c a2 bc
       -0.19710572 -0.14529736 -0.19545761 -0.019834738
0000f0 95 5f 46 be 50 46 0c 3e 93 89 81 bd d7 a6 50 bd
       -0.19372399 0.13698697 -0.06325068 -0.05094036
000100 7c 5d 2d be fb c4 17 bc 4a 09 1c 3e cc 23 79 3d
       -0.16930193 -0.009263272 0.15237918 0.060825154
000110 f9 9f 3e be 24 8e 56 be cd 64 36 3e 95 29 e0 3b
       -0.18615712 -0.2095266 0.1781189 0.0068408945
000120 3e 6d 8b bc 33 b1 30 3e 0d d9 ce 3d 14 ed 02 37
       -0.017019864 0.17255096 0.10099993 7.803803e-06
000130 6f f2 84 3d e6 26 0c be 84 a7 95 3d 42 4a 1a be
       0.06491553 -0.13686714 0.07307342 -0.1506739
000140 e3 f1 4e 3e d1 a1 1c be 23 89 23 bd c8 44 ca bc
       0.2020946 -0.15296103 -0.039925706 -0.024691
000150 9c 21 22 3e 12 9f eb bd ea 1b ad 3d fc 30 db bd
       0.15833133 -0.1150495 0.0845259 -0.107027024
000160 77 55 4d be 2d 48 2a 3e 81 7c a0 3d 70 d2 60 be
       -0.20052134 0.16629095 0.07836247 -0.21955276
000170 76 31 43 be 6d 0b 1a 3e e9 63 95 bd 77 a7 39 be
       -0.19061837 0.15043421 -0.07294447 -0.18130289
000180 33 ad 2e be ba e2 39 3e a3 00 28 be 4b 24 68 3e
       -0.17058258 0.18152896 -0.16406493 0.22670095
000190 2d 39 84 bd 4e 2f dd 3d 0e 78 4a be 5f 84 07 be
       -0.06456218 0.10800038 -0.1977236 -0.1323409
0001a0 b7 de 83 bc c5 c3 c2 3d a6 e9 1c bd b8 25 54 3e
       -0.01609741 0.09509996 -0.038308762 0.20717514
0001b0 c4 b7 08 be 2d 1f d9 bd 0c 6d 64 3d 16 ad 5f 3e
       -0.13351351 -0.106016494 0.055768058 0.21843371
0001c0 ca 33 28 3c e6 51 39 be 57 68 df 3d 73 2f b0 3d
       0.010266254 -0.18097648 0.10908573 0.086028
0001d0 85 d5 1f 3d eb a7 69 bd e3 27 24 3e b9 a5 2c 3d
       0.039021987 -0.057044905 0.1603084 0.042150233
0001e0 86 35 de 3d 21 35 42 3e 08 d0 26 be 4b f4 83 3c
       0.108500525 0.1896558 -0.16290295 0.016107699
0001f0 96 c5 f9 3d 8c 15 46 3e 45 09 62 3b 51 a3 9f 3d
       0.1219589 0.19344157 0.0034490388 0.07794822

MLP_layers.0.weight f4 [32, 64]
000000 48 e5 07 bc 18 6f 32 3c 20 3c 73 3c 1a 10 a1 bd
       -0.008294411 0.010890745 0.014845878 -0.07864399
000010 1d ab 1e bc 43 f3 08 3d a7 e0 f6 bd 93 96 4c 3d
       -0.009684351 0.033435117 -0.12054568 0.049948286
000020 35 ec 9b bd 3f 2b 2e 3d 42 75 ef bd 7d 18 d9 3d
       -0.07613412 0.04252171 -0.11692287 0.10600374
000030 2c c1 c9 bd d7 e6 ac 3d 3f 46 36 bd ca d0 cc bd
       -0.09851298 0.08442467 -0.044500586 -0.10000761
000040 95 df 71 3d c0 4d c0 bd da d7 fd 3d e8 fd c4 bd
       0.059051115 -0.0938983 0.12394686 -0.09618741
000050 98 64 cb bd f8 ea b2 3d 83 46 c4 3c c0 60 fc 3d
       -0.09931296 0.08736223 0.023959404 0.12323141
000060 78 0e cb 3c 3d 7b c1 3d 38 15 eb 3d b2 9d 85 3d
       0.024787173 0.09447334 0.114786565 0.065242186
000070 41 02 29 3c 0d 49 06 3d 9c 8f 64 bd 12 44 b0 3d
       0.010315479 0.03278451 -0.05580102 0.086067334
000080 62 90 16 3c 90 35 24 bd 1c f5 85 bd c1 cd f7 3d
       0.009189697 -0.040090144 -0.065408915 0.12099791
000090 9e f5 4c bd 61 e8 f8 3c d0 98 90 3d b2 8d bd bd
       -0.050038926 0.030384244 0.07060397 -0.09255542
0000a0 9d d4 0f bd 3d 68 9d 3d 66 a1 97 bd 42 21 25 bd
       -0.035114873 0.076858975 -0.07403831 -0.04031492
0000b0 28 50 a0 bd f1 f7 88 bd 7d 5a ed 3d a9 4e a1 3d
       -0.078277886 -0.06687916 0.11589525 0.07876331
0000c0 28 b1 54 bd 00 25 2b bd c6 6c b4 3d 9a d0 a2 3d
       -0.051926762 -0.041783333 0.088098094 0.07949944
0000d0 25 73 99 bc f0 e4 96 bd 42 55 be 3d cb 99 2b 3d
       -0.018731663 -0.07367885 0.092936054 0.041894715
0000e0 f3 e1 83 bd 3d 17 ab 3d dd 19 ad bd 20 9f 56 bd
       -0.06439581 0.08354042 -0.08452199 -0.052397847
0000f0 e6 40 b9 bd 3e 87 b3 3c af ab 62 bd 75 60 bb bd
       -0.090455815 0.021915074 -0.05533951 -0.09149257
000100 aa 9d 7b 3d a8 e5 db bd 45 97 08 3d 0a fe d4 3d
       0.061429657 -0.10737163 0.033347387 0.104000166
000110 c6 e9 aa 3d d2 3b 97 3c 39 59 e6 bd e6 c8 05 3d
       0.0834537 0.018461142 -0.112474866 0.032662295
000120 c6 94 e5 bc ba 44 c9 3b ce 31 84 3c e7 dc 06 3d
       -0.028025042 0.006142226 0.01613703 0.032925513
000130 85 f0 91 3d e7 8a c0 3b 6f 61 f6 3c 6b 66 d4 3c
       0.071259536 0.0058759334 0.030075757 0.025927743
000140 c1 f3 cb 3d 20 67 0c 3d 4a 24 e1 bd fa 9b 8b bd
       0.09958602 0.034278035 -0.1099325 -0.068168595
000150 95 6f 29 3d 26 66 89 bd bb 40 a3 bd 73 0c fb bc
       0.04136618 -0.067089364 -0.07971331 -0.030645585
000160 d4 6a b7 3d 5f 88 24 3d b0 82 94 bc 9a e6 2d bd
       0.08955923 0.040169116 -0.018128723 -0.042456247
000170 c8 f5 b4 bd aa 8d 81 bc 36 a5 ae bd 68 04 a5 bd
       -0.088359416 -0.015814621 -0.08527605 -0.08057481
000180 4f 92 a9 3d cc 00 0a 3c c4 86 a8 bd e1 6f b5 bd
       0.08279859 0.008423042 -0.082288295 -0.0885923
000190 95 41 df 3c 10 c6 8e bd 2b f4 02 bd d1 07 be 3d
       0.027252952 -0.06971371 -0.031971138 0.092788346
0001a0 e9 74 29 3d d3 a5 b3 3d e4 d3 ad 3d 85 a3 11 3d
       0.04137126 0.08771863 0.084876806 0.035556335
0001b0 5b 42 dd 3d 24 79 91 bd 9a 13 4a 3b 5e 1e f4 3d
       0.10803672 -0.07103184 0.0030834437 0.119198546
0001c0 c2 b2 a0 bd 4e 35 e5 3d e2 9b 38 bd 12 52 a2 bc
       -0.07846595 0.11191808 -0.045070536 -0.019814525
0001d0 5d d4 0a bc 24 51 b2 3d 04 d2 a8 bd 5b 3d b8 bd
       -0.008473483 0.087068826 -0.08243182 -0.089960776
0001e0 af 5a 7e 3d 9b 2d 90 3d b8 b4 cb bd 66 3f 13 3d
       0.0620982 0.070399486 -0.09946579 0.035949133
0001f0 9f 09 4e bd ae c5 70 3c 7b fa e4 bd 31 04 a9 3d
       -0.050302144 0.014695568 -0.11180588 0.082527526
000200 4b bf a1 bc 03 81 34 3d 9f 7c 34 3d 89 c3 fe bd
       -0.019744536 0.044068348 0.04406416 -0.12439639
000210 3c 0b a8 3d 7b 83 d3 bb 52 86 3b bc cf ea cd 3d
       0.08205268 -0.0064548827 -0.011445599 0.10054552
000220 eb 38 ac bd 04 55 a9 3d ff 3f 02 be ff 51 34 bd
       -0.08409294 0.082681686 -0.12719725 -0.04402351
000230 9a f3 be bd 77 08 05 be 55 5a 90 3c ca 3b a7 bd
       -0.09323807 -0.1299151 0.017621199 -0.08165701
000240 6b 53 90 bd f7 cd 6d bd af 72 65 3c f5 1d fe bd
       -0.07047161 -0.05805775 0.0140043935 -0.124080576
000250 02 d4 5e bd 0f de 06 be 9a 67 e0 bd a1 8d e5 3d
       -0.054401405 -0.13170646 -0.109572604 0.11208654
000260 41 eb f5 bd 62 48 48 bd 46 d0 5d bd 4f 47 dc 3c
       -0.12007762 -0.048897155 -0.054153703 0.026889471
000270 e8 83 07 be 1e d1 8e 3d 22 9d fe bd 68 87 fa bd
       -0.13233912 0.0697348 -0.124323145 -0.12232858
000280 90 57 f0 bd ad 5f 9a 3d 9e 24 bf 3d e4 da d0 3d
       -0.11735451 0.0753778 0.09333156 0.10198
000290 b5 74 74 3d 97 16 d4 bd 51 ee ea bd 86 8f e4 bd
       0.059681613 -0.10355871 -0.114712365 -0.111601874
0002a0 50 ae cc 3d 1f b5 e6 bd a8 71 15 3d 92 56 48 bd
       0.09994185 -0.11265015 0.036485344 -0.048910685
0002b0 1e 48 55 bd 09 77 fd bd e7 d7 ff 3c ff 7f b1 3c
       -0.05207073 -0.1237622 0.03123088 0.021667479
0002c0 40 3d 26 bc a8 6c 46 3d 26 46 16 bd bf 7d b4 bd
       -0.010146439 0.048443466 -0.036687993 -0.08813047
0002d0 3a cb b6 3c 08 ee e8 bd f9 d7 bb bc a3 91 94 bc
       0.022313703 -0.11373526 -0.022930132 -0.018135851
0002e0 42 55 9f bc 61 69 a1 bd 67 d7 d8 3d 23 eb 40 3d
       -0.019449834 -0.078814276 0.1058796 0.047099244
0002f0 3e 58 4c bd 6a ed 4e 3d 28 51 58 3d b8 1c 54 3d
       -0.04988884 0.050519384 0.05281177 0.0517852
000300 7c c1 89 3d 24 7c 6b 3d 25 32 a4 bc 3c cf 9f 3d
       0.06726357 0.057491437 -0.020043442 0.07803199
000310 5e a2 55 3d 63 e3 c0 3d 5b 3c 93 bd b8 66 8a 3d
       0.0521568 0.094183706 -0.07189246 0.06757873
000320 2e 0d c3 3d 0a 84 63 3d e6 05 c9 3d 59 4b ae bd
       0.09523998 0.055545844 0.09815578 -0.08510465
000330 ab 59 ab 3b 29 64 d6 bc fe c6 9f 3d 72 74 31 3d
       0.005229195 -0.026170807 0.078016266 0.04332394
000340 1b 41 d6 3d fa 86 da bd 18 85 ed 3c 62 da f5 bd
       0.10461637 -0.10670276 0.028994128 -0.12004544
000350 84 f8 89 bd 00 0c 3e bc 4e a0 ae bd d7 00 bf bd
       -0.06736854 -0.011599541 -0.085266694 -0.09326332
000360 50 b8 6c 3d 1d 48 e0 3d 03 d1 72 bd b0 b1 45 bc
       0.05779296 0.109512545 -0.05928136 -0.01206629
000370 72 f8 8c bd 43 5d ae bd 04 5d f9 bd ac c6 71 bd
       -0.06883325 -0.08513882 -0.121759444 -0.05902736
000380 dc 31 04 be a0 9c e9 3c 9b ce e0 bd 40 97 4d bc
       -0.12909645 0.028517067 -0.10976907 -0.012548268
000390 66 6e f2 3d 80 2e 98 ba 75 06 0d bd 95 c5 83 bd
       0.11837463 -0.0011610538 -0.034429986 -0.0643417
0003a0 06 2a e0 bd 38 c5 8a bd e0 9a c9 3d 8e db 90 bd
       -0.10945515 -0.06775898 0.09843993 -0.07073127
0003b0 1e 35 86 3d 90 b5 4b bc ae 8c 59 3d ea 48 a3 3d
       0.065531 -0.012433425 0.05311268 0.07972892
0003c0 30 5c 98 bc 10 c1 19 bc 81 78 8b bd af 6c 84 bc
       -0.018598646 -0.009384409 -0.06810094 -0.016165106
0003d0 39 b3 98 bd 32 75 b4 bd c0 48 e5 3d cb 36 18 bd
       -0.07456059 -0.08811416 0.111955166 -0.03716163
0003e0 0e ed 1a bd b0 ea ed bd 99 c3 9b bd 84 d9 5a bd
       -0.03782373 -0.11617029 -0.07605667 -0.053430095
0003f0 09 b3 97 bc 0b ac 1c 3d 40 9d e2 bb ba 92 02 bd
       -0.018517988 0.03825001 -0.0069157183 -0.03187821

MLP_layers.0.bias f4 [32]
000000 16 63 8f 3d 13 3e 89 bd 2d f1 b9 bd 82 f3 0b bc
       0.07001321 -0.06701293 -0.09079204 -0.0085419435
000010 4f 6c 00 3e 2a 6a 19 bd c3 84 83 3d a0 e5 17 bd
       0.12541316 -0.03745476 0.06421807 -0.03708422
000020 63 89 92 3d 92 50 89 3d 10 b8 a0 bc 73 37 d3 bc
       0.07155111 0.06704821 -0.019619018 -0.025783276
000030 ba bc 12 3e 03 af 16 3e 8c 1d 3e ba d6 6b 3d 3d
       0.14329806 0.14715199 -0.00072523276 0.04624542
000040 c2 4f 82 bd 09 e9 ed 3d c8 2b 84 3c 32 51 ba bd
       -0.06362869 0.116167136 0.016134158 -0.09097518
000050 8b 32 e9 bd 85 3d 19 3e 7e ac 95 3c 97 39 b6 bd
       -0.113865934 0.14964874 0.018270727 -0.08897703
000060 53 45 d9 3d 29 20 cd 3d bc ba f3 3c 80 77 b8 3d
       0.10608926 0.100159 0.029752128 0.09007168
000070 df 24 89 bd 66 3c 6b bd 47 20 53 3c dd 1a 75 bc
       -0.06696486 -0.057430647 0.0128861135 -0.014960018

MLP_layers.1.weight f4 [1, 32]
000000 0f c8 e9 3d a9 71 55 3c 68 01 d0 bd 6c f1 5a bd
       0.11415111 0.013027587 -0.10156518 -0.053452894
000010 99 20 b2 3d 40 22 18 3d e1 0b 4c bc 43 bc 09 be
       0.08697624 0.03714204 -0.012454004 -0.13450722
000020 50 dc 14 3e 22 75 12 be ba 63 ef bd 67 8d ad 3c
       0.14537168 -0.14302495 -0.11688943 0.02118559
000030 5b 27 de 3d 0e 43 c4 3d 8a 62 c9 bd c7 f9 0e 3e
       0.1084735 0.09583102 -0.09833248 0.1396247
000040 f4 c8 99 bd 44 ec 9a 3d 1c bc e2 bd 08 0c 22 be
       -0.07509032 0.07564595 -0.11071035 -0.15824902
000050 bc e2 ed 3c 04 fd 03 3e 50 f1 3e 3e 15 69 f5 3d
       0.02903878 0.12889487 0.18646741 0.119829334
000060 89 a0 26 3c f0 0f 71 bd ae 6e 21 bd da a2 b7 bc
       0.0101701105 -0.05885309 -0.039412193 -0.02241652
000070 6e 90 01 3e 0a 1a 35 3d 98 92 99 bd 81 cf ef bc
       0.12652752 0.044214286 -0.07498664 -0.02927375
