SLIC_GAT/best0.pt (torch, 74869 bytes, 12 tensors)

GAT_layers.0.f.weight f4 [32, 82]
00000000: 7ded b5bd 775c f4bd f204 c83d 19b9 863c
00000010: 7f7e 60be 4863 ebbd d035 7f3d 3173 ca3d
00000020: 25e7 a63d 8e9e 9dbb f49a 903d eb4b 5fbd
00000030: b544 37be 1666 393e 7703 43be 8b90 913d
00000040: ef56 3d3e 27a4 bf3c d550 963d ccf8 933d
00000050: 4fda fa3d 09ee d73d fe6c aa3d 5be1 5dbd
00000060: 68f7 b8bb 3897 67bd d68e 4abc abba 91bc
00000070: a7d1 f538 9b0f 183d f92b 223e 5eba 37be
00000080: f8b0 403e 4a8b ae3d d328 553d d590 333d
00000090: 56ae 64be be27 1b3e 81d6 45bc 56fb 90bc
000000a0: de39 4b3c fe38 923d 15f8 4c3e f568 523e
000000b0: 71bd 1e3d 1cfd 3f3e 5bf1 123e c1ee 073e
000000c0: 1694 8c3d 5479 05be 6644 563e 5c56 b23c
000000d0: bcc9 fabd 9f66 5abd b58e 623d 1488 d43d
000000e0: d901 0ebd 711a b13d 90fb 1c3e 2a48 5e3e
000000f0: d7ed 77bd 173a fcbc b3ee 533e ad76 5e3e
00000100: 70ae 193e 2d5b 3f3e 9850 49be c40c 21be
00000110: 49f3 54be b99e 313e 22df a33d 2bc2 073e
00000120: 2867 0fbe 3707 063d 4578 73bd 4c2f 42be
00000130: 93e4 fbbc f2ed 5f3c 24b7 94bc 0d7d 363e
00000140: 7bdd 273e 0e00 493e 9d3d 313e f45f b33d
00000150: 9aab 1e3e 7d03 87bc f7cb 4f3e 2ea9 4ebe
00000160: 958b 10bd db90 e5bd 9ab5 86bc f8f0 26be
00000170: a475 58be d0fa 4d3e 35d4 a3bd a90e 66bd
00000180: fd5f 843d 86d4 013e fa3b c7bd 0cb7 08be
00000190: 5217 e4bd 33b8 bcbc 2d3c a5bd 8727 0e3e
000001a0: 33d2 f23d acf1 8fba af78 23be c7c8 42be
000001b0: c07c 023e 23f7 b33d 5868 ad3d 64d5 413e
000001c0: f996 23be a117 203d 53d8 b43c 0f9a 14bc
000001d0: 78fd 933d facd 54be b591 9dbc ad54 53bd
000001e0: 3e07 51be f3ad 24be 3110 56be 5a9a 363e
000001f0: 774c 663e d1ec 1abe b321 373e 3aa7 f2bd
00000200: ac1f 8dbd 1f74 003e 6fb7 2ebd b94d d1bd
00000210: a945 fb3d 2d22 783d dbb4 fbbc 88b9 233e
00000220: 1f14 403e 30d3 62be 6e98 b5bd 8c4d 403d
00000230: 4fc5 17be 7c64 1ebe 6faa 3cbc 26b6 0c3e
00000240: d39b 3dbe 05dc e03d fc3d 4fbe 1e33 333e
00000250: a79c bf3d c96d 4b3e 2de0 3cbd edf0 60be
00000260: 4977 d53d 2dbe fe3c a1ed 69be c272 763d
00000270: 855a 5abd 890a b7bd 9783 413e f3a6 823d
00000280: 4df8 59be 6e74 ea3d 3aab 23bd 647f 32be
00000290: 349f c4bd a493 0cbc de52 ae3b 07e0 43be
000002a0: 1c7f 33bd ad5a 143e cf3d a43d 0095 a6bc
000002b0: f1e7 083e 8963 40be 2de6 dc3c 1179 fa3d
000002c0: aeaa a83c cb9c 30bd 4c6d 07be 4a44 393d
000002d0: 20ec ca3d b645 5fbe dafb a4bd 0eb4 2a3e
000002e0: 4160 313d 6591 57be 495e 073e 3d5d 133d
000002f0: 805e 593e be02 44be fe70 86bd b35c 45be
00000300: 0603 683e 2db3 c4bd f380 063d 7923 043e
00000310: 9c8c 513e fecd 5bbe 8d16 c93d 13c5 293e
00000320: 97b6 eb3c 8c40 28bd 24e4 fe3c 87a7 2b3e
00000330: ab83 0f3c 2e87 ccbd c99e 9dbb 0769 5d3e
00000340: 858f 823c 1ee5 3a3e 441e 0f3c abf6 85bd
00000350: cfaa 92bd c2d6 753d 772d b5bd c7ed 62be
00000360: f9cc 243e a3f5 aebc 2572 31be 4637 0d3e
00000370: 1fb4 313e 5351 ba3d 39e4 debd 1a05 4c3d
00000380: d1a7 71bd e961 943d fe2e c13d fdab 5f3d
00000390: 7b84 00bd f9da f63d f827 d03d 479a 05be
000003a0: 975b 763d 61f3 4c3c ac19 163d 5b47 d13d
000003b0: 2e3c 4d3e efbb 5b3d 4dda 053e 80e4 6e3c
000003c0: c1ed 51be 72a8 cbbd 971f 883d 7472 883d
000003d0: d2ee a1bd 24a6 13be 5609 63bd d3a1 383e
000003e0: 5f8f 92bd 6d69 f93d 3f27 3bbd 1a60 dcbc
000003f0: 6fea 643e 9212 053e 81f3 e1bc dc55 153e
-0.08883188 -0.11931699 0.09766568 0.016445683 -0.21923254 -0.11493546 0.06230718 0.09885252
0.08149556 -0.004810161 0.07060805 -0.05451576 -0.17897303 0.18105349 -0.1904429 0.071076475
0.18490194 0.023393704 0.07339636 0.072251886 0.1224867 0.105434485 0.0832157 -0.054169994
-0.0056447275 -0.056540698 -0.012363156 -0.017789206 0.00011721561 0.037124258 0.15837087 -0.17942187
0.18817508 0.08522661 0.052040886 0.043839294 -0.22332129 0.15151879 -0.0120750675 -0.017697971
0.012403933 0.07139777 0.20016511 0.2054785 0.038754884 0.18748897 0.14349882 0.13274671
0.06864183 -0.13034564 0.2092453 0.021769695 -0.12245509 -0.053320523 0.055311877 0.10377517
-0.03466973 0.086476214 0.15330338 0.21707216 -0.060529556 -0.030789418 0.20696525 0.21724959
0.15007949 0.18687125 -0.1965965 -0.15727526 -0.20795931 0.17345704 0.080015436 0.13257663
-0.14004195 0.032721724 -0.05944087 -0.18963355 -0.030748641 0.01366757 -0.018153735 0.1782114
0.16393082 0.19628927 0.1730866 0.08758536 0.15495148 -0.016481156 0.2029265 -0.20181724
-0.035289366 -0.112092696 -0.016444016 -0.1630286 -0.21138626 0.20115209 -0.0799946 -0.056166325
0.06463621 0.12678728 -0.097282365 -0.13351077 -0.111372605 -0.023037052 -0.08068118 0.13882266
0.118564986 -0.0010982058 -0.15964006 -0.19021903 0.12742901 0.08787372 0.084671676 0.18929058
-0.1597556 0.039085034 0.022075808 -0.009069934 0.0722608 -0.20781699 -0.019234518 -0.051594425
-0.20412919 -0.16081981 -0.20904614 0.17832318 0.22490107 -0.15129401 0.17883949 -0.11848302
-0.068908066 0.12544297 -0.042655405 -0.102199025 0.12269146 0.060579468 -0.030725887 0.15988743
0.18757676 -0.22150874 -0.08866964 0.046948954 -0.14821361 -0.15468019 -0.011515244 0.13741359
-0.18516473 0.109794654 -0.20238489 0.17499968 0.09356051 0.19866098 -0.04611223 -0.21966906
0.104231425 0.031096542 -0.22844554 0.060168035 -0.053308982 -0.08937556 0.18897854 0.06379499
-0.21286125 0.114479885 -0.039958216 -0.17431408 -0.09600678 -0.008580122 0.005319937 -0.19128428
-0.043822393 0.14487715 0.080196016 -0.02033472 0.13369729 -0.1878797 0.026965225 0.12230123
0.020589199 -0.04311828 -0.13225287 0.04523114 0.099083185 -0.21803936 -0.080558494 0.16670248
0.043304686 -0.21051557 0.1321956 0.03597759 0.21227455 -0.19141671 -0.0656452 -0.19273643
0.22657403 -0.096044876 0.03283782 0.12904157 0.20463794 -0.21465299 0.09818754 0.16579084
0.028773589 -0.04107718 0.031114645 0.16763125 0.008759419 -0.09986721 -0.0048101884 0.21622096
0.015937576 0.18251464 0.008735243 -0.06541189 -0.071614854 0.060019262 -0.08846562 -0.22161017
0.16093816 -0.021357363 -0.17328699 0.13790616 0.17353867 0.090975426 -0.10883374 0.049809553
-0.058997933 0.072452374 0.09432791 0.05460738 -0.031376343 0.120534845 0.101638734 -0.13047133
0.06014594 0.012509198 0.036645576 0.10218688 0.20042488 0.053646024 0.13071556 0.014580846
-0.20500852 -0.09944238 0.0664665 0.06662455 -0.079068795 -0.14418846 -0.055428825 0.18030481
-0.07156252 0.121783115 -0.045691725 -0.026901294 0.22355054 0.12995365 -0.027581932 0.14583534

GAT_layers.0.f.bias f4 [32]
00000000: 9c5b a63d abde bfbd 798a a73d e61e cfbd
00000010: e7af a63c 3605 dcbd bee1 77bd 0f1f e03d
00000020: 9a09 d73c caf0 363d 3be0 ac3d 8fc9 bebd
00000030: ebbd a4bd 3445 ccbd 5b42 453d 0421 da3d
00000040: b940 bebc 8528 e23c c201 4f3d fcca 7fbd
00000050: 93e1 813d 5761 acbd de01 c63d 1d5e cfbd
00000060: 338e d9bd 77e8 d1bd 4cde 3abb 3759 aabc
00000070: 7356 53bc 9d4e 3b3d 6dbf 85bd 15a1 9cbd
0.08122942 -0.093686424 0.081807084 -0.10113315 0.020347549 -0.107431814 -0.06051802 0.10943424
0.026249696 0.044663228 0.08441206 -0.09315788 -0.080440365 -0.09974137 0.048158985 0.106508285
-0.023224222 0.027607212 0.050538786 -0.06244944 0.06341853 -0.084170036 0.09668325 -0.101253726
-0.106228255 -0.10249417 -0.0028513847 -0.020794494 -0.012899029 0.04572927 -0.06530652 -0.076479115

GAT_layers.0.w.weight f4 [1, 82]
00000000: 7740 b73c 7069 bd3d 1fa1 d8bd 5fa8 c03d
00000010: 6171 703e afb9 353e 8436 733e 5567 09bd
00000020: 0a96 1ebe 9b30 42be 3899 f5bd 4157 213e
00000030: 328f 833e 1bbd 6dbe 550d acbd 277a 993d
00000040: b6e6 1bbe 851e 50be 1828 f93d 9694 153e
00000050: b02f e4bd 4e3f 453e c509 fb3b eaa2 60bc
00000060: 9a02 b23d a7cb a63d f1dc 213d 4903 cd3c
00000070: 229c 03be 00c4 d4bd b7f2 55be c1ba 02be
00000080: 6947 3fbe a0e4 853e bfb7 ddbd a6a7 efbd
00000090: 0dba 483d c8c3 b8bd 767d 06bd 4aa4 58bd
000000a0: fd22 1dbe efd4 883e a5e8 433e ecdb 25be
000000b0: 5469 513e 1d39 a9bd 6194 15bd 1eb9 c7bc
000000c0: 03b7 343e 426c 71bd f527 6bbe 4a25 11bd
000000d0: f297 34be 040f c13d 6d0f 6a3d a4ae 293e
000000e0: f25b 443e 8cb6 5d3e a9e2 abbd 1daa 4e3e
000000f0: b840 e33d 6479 bd3d adfb 08be 9145 3fbe
00000100: 63a2 303e 6db1 843e d71c df3d a554 e73d
00000110: 7f67 653e f204 60be bc03 4abe de24 a63d
00000120: 4be2 cbbd 168a cfbd c6b3 b1bc 53ff 303b
00000130: aa09 7ebe 46f4 2ebc 5454 f23d 301a efbd
00000140: 3b52 cc3d d34f f7bd
0.022369606 0.09248626 -0.105776064 0.09407114 0.2348075 0.17746614 0.23751265 -0.03354581
-0.15486923 -0.18963854 -0.11992115 0.15755941 0.25695187 -0.2321667 -0.084009804 0.07494002
-0.15224728 -0.20324142 0.121658504 0.14607462 -0.11141908 0.1926243 0.0076610767 -0.013710717
0.086919025 0.08144312 0.039517347 0.02502598 -0.12852529 -0.103889465 -0.2089337 -0.12766553
-0.18679585 0.2615099 -0.108260624 -0.11701898 0.049005557 -0.09021717 -0.032834493 -0.052891053
-0.15345378 0.26724955 0.19131716 -0.16197175 0.20450336 -0.082628466 -0.03651846 -0.024380263
0.17647938 -0.058941133 -0.22964461 -0.035435952 -0.17636088 0.09426692 0.057143617 0.16570526
0.191757 0.21651667 -0.08392841 0.2018208 0.110963285 0.09251669 -0.13377257 -0.18678881
0.17249446 0.25916615 0.10894173 0.112954415 0.22402762 -0.21876886 -0.19727987 0.081125006
-0.09955271 -0.1013376 -0.021692168 0.0027007654 -0.24808374 -0.0106783565 0.118324906 -0.11674917
0.09976622 -0.12075772

GAT_layers.1.f.weight f4 [64, 64]
00000000: f3a9 4f3e 1a46 f23d 1653 f4bd fb30 b83d
00000010: d03e 893c 78d5 833d f2c4 193d e964 323e
00000020: 963f 82bd 5536 9b3d 443c f33c 5fa2 1abe
00000030: 194e 42be 69c3 523e 2df5 09bd c627 093e
00000040: c7d3 413e c5b5 913d b1e4 163e 660d b83d
00000050: 5614 163e bcb1 cf3d 6e5e 20bd e6f3 0f3e
00000060: d457 fdbd 4e55 443e e699 31be 30c0 93bc
00000070: 4781 0b3e fef4 453d d993 1e3e c253 78bd
00000080: 552b 3fbe dbd4 29be 8ee9 e43b 8981 55be
00000090: 415f c3bd 4650 5a3e 8291 593d 9d8b f03d
000000a0: 13a7 9dbd e0e1 1d3e 07e0 33be bf64 12be
000000b0: ce30 3c3d 5609 53be eebd e63d 6ae8 06bd
000000c0: 6bca 503e 182e b4bd 4c83 23be b77c 563e
000000d0: c523 be3c 0d5a 9e3d 44fa 883c 2a02 d9bd
000000e0: a990 cdba 936a 7bbc 9c42 d7bd 1479 a2bd
000000f0: 41cb 7a3d 69ce 1abe 329f 49be c485 583d
00000100: c839 023d 7d47 a6bd d7f0 efbd ca1b 4d3e
00000110: 8ab2 e73d e30b c63c 8135 c5bd 3098 01bd
00000120: 33c4 40be 1d5e d83d 9d42 eebc 5f8b 06be
00000130: b370 d1bd b4ff a03d 7074 1c3e 8709 193e
00000140: 87ed 9dbd 5ace 683d 5d81 e43c 49ad fb3d
00000150: 055d 5dbc 7532 56be f9da 05bd 92b5 0cbe
00000160: 63ba 0a3e ac5d af3b 6ea0 d4bb 1c47 0abe
00000170: c233 3ebe 961f c03c 05bd 43be 78a0 20be
00000180: 0cad 173e 8a5f 003e 23c5 5abe 8f55 38be
00000190: 5d76 2d3e fdc2 dbbd 43de af3d f3c4 7d3d
000001a0: f458 57be dde1 83bd 4739 a23d 5136 2c3e
000001b0: 6346 b23d f793 863d 501f f8bd f4fe f03d
000001c0: 0ad5 4b3e fe07 e33d dcf6 40be 7952 423e
000001d0: feec f63d a184 033e 9337 2b3e 9380 07be
000001e0: 6437 66bd 5781 f43c c3d3 cf3d 13eb 23be
000001f0: a2d8 cbbd 662e e93d 6d19 9ebc ba44 d23d
00000200: 8e53 1c3e d5ed e13d 1d14 c6bd 55ba 043c
00000210: 1050 a0bd d392 6f3d 0314 abbd 9d9f 10be
00000220: a5a8 c63d 4cf8 d6bd 9515 3abe 4779 1a3e
00000230: c075 16bd d150 80bd 2c3b ff3a 6e2d 5bbe
00000240: 1013 29be 37ab 163e d91c 9bbd 6433 c23d
00000250: db64 553e 1df7 c5bd bc47 32be 4e63 0a3e
00000260: a1f1 39bd 0db8 68bc d9da 4b3e fb7c 823d
00000270: 551c 6ebd f995 383d 76e1 89bb d2fe a7bb
00000280: 4040 713d 2398 d23c 31a7 de3b 5f8e 38be
00000290: 6d65 34bd 4437 1d3e 3fd5 183e 2836 443e
000002a0: 6f39 043e 2acc 8f3d 93b4 f63c 23b2 1f3c
000002b0: 499d 1d3e 2fd3 10be bee8 563e ebfe 0dbd
000002c0: a950 36be 51f3 7c3d 4278 ef3d cacf 16be
000002d0: 682d 0dbe 1374 4d3e 109a 3dbe b205 f53d
000002e0: e724 273e 391e e8bd c4ea 5abd 8362 bb3d
000002f0: 1764 013e be59 ab3d b014 2d3e f960 5cbe
00000300: 6071 2c3e f3d2 723d 0d82 4fbd a9a8 b83d
00000310: f238 b9bc a8a5 cf3d efd5 2cbd 5bda 833d
00000320: 2438 413e 127b d03d f91d c53d cddc 803d
00000330: f358 413e adb4 cdbd 6aa7 b63d e9f9 2e3e
00000340: 195f 43be d59b 99bd 94da 943c c374 1b3d
00000350: f532 543c 74a3 653d dee2 44be 747a dc3d
00000360: b8a1 3bbe 5ef3 523d c8da a83c cfe9 f43c
00000370: 6351 80bd a764 463d dad4 12be 7c2b 9abc
00000380: c763 2abe e081 4cbe 08fa 27bd e3d8 6e3d
00000390: e3f2 fdbd 1b0b 9f3d eef3 13be 4152 523e
000003a0: 97ed 533e 273a 24bc 93a9 bebd 02c1 f23d
000003b0: fdc6 3e3e a7f4 96bd 0a3a 733d 5e95 263d
000003c0: 7f66 1a3e 4e9c 22be 11b2 213e 637f 713b
000003d0: 48d5 20be cf20 8cbd bc14 aabd 6e07 30be
000003e0: 588a 1bbe b9b4 25be cdd8 10be 347e 9e3d
000003f0: e0df 533e 8649 34bc 3a04 283e 2ea8 55be
0.20279674 0.11829777 -0.1192991 0.08993717 0.016753584 0.064372 0.037541337 0.17421307
-0.06359784 0.075787224 0.029691823 -0.15101002 -0.18975104 0.20582356 -0.033681083 0.13394079
0.18928443 0.07114748 0.14735676 0.089869305 0.14656195 0.10141322 -0.039152555 0.14057884
-0.123702675 0.19173166 -0.17343864 -0.018035978 0.13623534 0.048329346 0.15486087 -0.060626753
-0.18668874 -0.16585104 0.0069858497 -0.20850195 -0.095396526 0.21319684 0.053117283 0.11745379
-0.076978825 0.15418196 -0.17565928 -0.14296244 0.04594498 -0.2060903 0.11266695 -0.03293649
0.20389716 -0.08797854 -0.15968055 0.20946012 0.023210416 0.077320196 0.016720898 -0.10596116
-0.0015683371 -0.0153452335 -0.105107516 -0.0793325 0.061228994 -0.15117802 -0.19689634 0.052861944
0.031793386 -0.08119104 -0.117158584 0.20030132 0.113133505 0.02417559 -0.09629346 -0.031639278
-0.18824844 0.10564826 -0.029084498 -0.13139103 -0.10226574 0.078612715 0.15278792 0.1494504
-0.0771132 0.056837417 0.027893716 0.12288911 -0.013510947 -0.20917685 -0.03267953 -0.13741139
0.13547663 0.0053517427 -0.0064888513 -0.13503689 -0.18574432 0.023452561 -0.19115074 -0.15686214
0.14812106 0.12536445 -0.21364264 -0.18001388 0.16939683 -0.107305504 0.08587315 0.061955404
-0.21030027 -0.064395644 0.07921081 0.16817595 0.087048315 0.06571191 -0.121153474 0.117673784
0.19905487 0.11085509 -0.1884417 0.18976773 0.120569214 0.12843563 0.16720419 -0.13232641
-0.05620517 0.02984683 0.10147812 -0.16007642 -0.09953429 0.11385803 -0.019299233 0.10267015
0.15266249 0.11031691 -0.09671805 0.008101066 -0.07827771 0.05848963 -0.08353426 -0.14123388
0.09700135 -0.104965776 -0.18172295 0.15085326 -0.03673339 -0.062654145 0.0019472591 -0.21404049
-0.16511178 0.14713751 -0.07573862 0.09482458 0.20839255 -0.09666274 -0.17410177 0.13514444
-0.04539645 -0.014204037 0.19907703 0.063714944 -0.05813249 0.0450649 -0.0042077852 -0.0051268125
0.058899164 0.02570731 0.006794833 -0.1802306 -0.04404204 0.15353113 0.14925097 0.19161284
0.12912534 0.07021363 0.030115401 0.009747061 0.15392031 -0.1414306 0.20987222 -0.034666937
-0.17804207 0.061755482 0.11692859 -0.14727703 -0.13786852 0.2006381 -0.18515801 0.11963977
0.16322671 -0.113338895 -0.053446546 0.09149649 0.12635837 0.08366726 0.16902423 -0.21521367
0.16840124 0.059283208 -0.050661135 0.09016544 -0.022610161 0.10139018 -0.04219621 0.064381324
0.18869072 0.10179724 0.096248575 0.062921144 0.18881588 -0.10044227 0.089186504 0.1708752
-0.19079246 -0.07500426 0.018170632 0.03795315 0.012951602 0.056064084 -0.19227168 0.107655436
-0.1832341 0.051501624 0.020612136 0.029896645 -0.06265523 0.048435833 -0.14339009 -0.018819563
-0.16639625 -0.19971418 -0.041009933 0.058312308 -0.123998426 0.0776579 -0.1444852 0.2053919
0.20696102 -0.01002363 -0.093096875 0.118532196 0.18630596 -0.073708825 0.059381522 0.04066979
0.15078162 -0.15879938 0.15790583 0.003684961 -0.1570636 -0.06842195 -0.08304736 -0.17190334
-0.15189493 -0.16182221 -0.14145203 0.07738915 0.2069087 -0.0110038575 0.16407862 -0.20864937

GAT_layers.1.f.bias f4 [64]
00000000: a557 f63d 4578 c53d 6dc5 f43c d5e5 533d
00000010: ac9b f9bd 74ed a7bd 58e2 e43d c7ba 8d3d
00000020: a995 cf3d ad0d 1c3d 7357 f83d 22ff c23d
00000030: 26ed c1bd 987d c3bd 4ce2 b03d c4fa 833d
00000040: 1833 babd 4835 86bc 8cc8 27bd e827 2c3d
00000050: f591 1b3d 1b06 223c 567b 99bd d21c 8bbd
00000060: 2890 bfbd 46e2 c2bd ecd6 b2bd 889a a6bd
00000070: b888 2e3d ec50 43bd 237b c83d ab80 383d
00000080: b0ab ccbd 62c9 8abd 9d74 033e f274 80bd
00000090: 7560 943d 7660 783d 98b2 a9bd 9004 673c
000000a0: e963 de39 0973 c43a 76a8 833d f268 e5bd
000000b0: 6e5a f53d b407 f83d c697 b1bd 0eec c8bd
000000c0: 9453 163d 2290 abbd 689f dfbc 7210 093c
000000d0: 57b6 663c ee4b 8bbd c074 40bb c6f1 c1bd
000000e0: 63bd 73bb 6ae7 d4bd 4633 efbd 306a fcbc
000000f0: fc55 fc3c dc29 06bd 180e a23d b832 aebc
0.120284356 0.0964208 0.029879296 0.051732857 -0.12187895 -0.081995875 0.11175984 0.069203906
0.10135967 0.03809898 0.121260546 0.09521319 -0.094690606 -0.095454395 0.08636913 0.06444314
-0.090917766 -0.016382828 -0.04096274 0.042030245 0.037980992 0.009889151 -0.074942276 -0.067926064
-0.093536675 -0.095158145 -0.08732399 -0.08134943 0.042610854 -0.047684595 0.097891115 0.045044582
-0.09993684 -0.06776692 0.12837453 -0.062723055 0.0724496 0.060638867 -0.08286017 0.014100209
0.00042417579 0.0014987896 0.06428616 -0.11201657 0.11980139 0.12110844 -0.086715266 -0.09810649
0.0367008 -0.083771005 -0.02729769 0.008365737 0.014081559 -0.06801592 -0.0029366463 -0.09469943
-0.003719174 -0.10395701 -0.116797015 -0.030812353 0.03080272 -0.032754764 0.079128444 -0.021264419

GAT_layers.1.w.weight f4 [1, 64]
00000000: e93b cebd 1b81 f23d 6b30 23be 9be0 23be
00000010: 01e4 36be dc77 f2bd a0dc 96be d33c 59be
00000020: fc50 28be f70c b5bd 0d1e a13d 1e78 19be
00000030: 4737 433e 7390 993e 29d8 a63d b4d1 a13d
00000040: ccf1 373c 685b bcbd e22a 843e 60ed 2b3d
00000050: 824d 0c3d 840b 863e 99fc 783d ce0b b7bd
00000060: b767 503b 9eb3 a73d 7e64 bdbb 0682 86bc
00000070: 3235 013e 65a4 88be 12e3 b1bd ca8a 7d3e
00000080: b867 04be f663 6bbe 1940 dbbd ab50 2a3e
00000090: 2f1c 2bbe 0706 90bd e855 c93d 9b35 8e3e
000000a0: 3ca9 07be de45 01be d048 1b3e 1bd1 b3bd
000000b0: 6b2b 38be fc8f 963e 7f46 043d a732 1bbe
000000c0: 5880 463e f73b 96bd fe62 8f3d 76b5 bdbd
000000d0: 983d 533e b330 883e 7282 323b ba2e 2b3d
000000e0: d11c 54bd dea3 59be 80d8 6d3e 563f e2bd
000000f0: f14e 763e 4f9e 1dbe bb70 53be b15d 1bbd
-0.10070021 0.11841031 -0.15936439 -0.16003649 -0.17860414 -0.118392676 -0.294652 -0.21214609
-0.16437143 -0.088403635 0.0786706 -0.14987227 0.19064055 0.29993019 0.08146698 0.07901326
0.011227082 -0.09197122 0.25813967 0.041974425 0.034253605 0.2618066 0.06078777 -0.089377984
0.00318001 0.08188556 -0.005779802 -0.016419422 0.12617949 -0.26687923 -0.08685888 0.24759975
-0.1293019 -0.22987351 -0.10705585 0.16632335 -0.1670997 -0.070323996 0.098308384 0.27775273
-0.13248152 -0.12624308 0.15164495 -0.08780118 -0.17985313 0.29406726 0.032293793 -0.15156041
0.19384897 -0.07335656 0.07001303 -0.092631266 0.20628965 0.26599655 0.0027238396 0.04179261
-0.051785294 -0.21253917 0.2322712 -0.110472366 0.24053551 -0.15392421 -0.20648472 -0.037931148

GAT_layers.2.f.weight f4 [64, 128]
00000000: 0194 babd 2c66 b33d 4893 913d 7068 7c3d
00000010: 1833 b0bc ecd1 1cbe b1b5 003c 8580 22bd
00000020: 4b52 3ebe 8953 053e 9bc7 f73d 692f 16bd
00000030: d4a7 f0bc d3b7 893d ef8a 5a3d c5c0 1bbe
00000040: c6e5 cfbd 03ba 2bbe c033 083e 9c8a 1abe
00000050: fa12 f73c b678 163e 2736 09be 7048 883d
00000060: da3f bbbd 9b72 f6bd 62ea 333e 1c58 16be
00000070: 6e00 e1bd 644c 0dbe 134f 843c cd44 933c
00000080: 920f bbbb 21ef 1d3c 697a 7dbd 9795 32bd
00000090: 571e 973d 0a94 723d 70ea fd3d 0fd5 21be
000000a0: 17de 2dbd b2ef 73bd 3631 7ebd 2931 94bc
000000b0: 62e0 003e 60f5 9e3c 843b 7bbd 9209 133d
000000c0: 3d26 0fbe ff29 0e3e 9c57 143d cbe5 c9bc
000000d0: 14d6 2ebd 828b 2fbe 9c9c e6bd b3c6 1bbe
000000e0: de84 dabb 3d14 2ebe 96c8 6e3d dc39 66bd
000000f0: 037b 02be e77e 463d cf33 223e 7e92 1abd
00000100: 8183 63bd 58ce 233e 7659 08be 38b9 dabd
00000110: 1022 0b3e fe75 0e3e 9338 953d b450 17be
00000120: 601c 1f3e 15b2 ebbd c5dc 013e 1c9f 95bd
00000130: 2d76 a6bd d887 fe3c 3d16 9a3d 55dc 7bbd
00000140: bd6f ae3c 7622 b7bd f487 48ba 5a02 53bc
00000150: 8782 debd 47fe c2bd ae6c cd3d a93e 99bd
00000160: 3f06 43bc 2021 12be c6be dbbd a824 133e
00000170: 1b6a 2bbe 50ad a7bd 3462 02be ef09 0dbe
00000180: 3642 26be fe7f 123d 3f23 c2bb be42 14be
00000190: 84b9 c2bb 241e 0d3e 6aa7 b63d e91c 673c
000001a0: b9d4 163e 0891 1dbe ec0a ccba 439c 953d
000001b0: 22ad 11be 4a54 0ebd a7c2 f03d 9fce 82bd
000001c0: 5dea 98bb 0e52 9abb 1cfb 20be c07c 1abe
000001d0: a41e cabc 16e4 87bd e136 973d 43e4 f4bb
000001e0: 0c93 7c3c 819b 123e 3e74 8b3d 628d c93d
000001f0: 7e62 d7bd a457 febd 9403 463c e6de cd3d
00000200: 9658 2cbe 8892 0f3e 4b87 9dbd d699 60bd
00000210: 89c2 323c 3964 0d3d 369d 263c 45e1 8b3d
00000220: 5238 0bbe 9e51 ccbd 819d a93d b4ad d93d
00000230: 3c12 debd 8830 c0bd 7d9b 84bb 1560 c5bc
00000240: 8f1e 0bbd fa10 b4bd 9e5a 143d aed8 27be
00000250: d459 dc3d 280b b3bd 2427 a73d 618f a63d
00000260: 02e9 b23d c20b edbd d73b 933c c9a2 60bd
00000270: 64ad 92bd 35b6 20be 6cc6 113e 565a 133d
00000280: b224 1ebe 82a6 49bd 06de 8cbd dbce e03d
00000290: 8340 0cbe 16a4 1ebe ded0 27be fa65 1cbd
000002a0: 6010 12be a84d d73d 21c7 8b3d 2915 07be
000002b0: 1a37 003d b2c4 7bbd f8fc 2b3e af56 42bd
000002c0: 37ad 603c 35f7 f33b 68bd 0d3e 2dd3 07be
000002d0: 3a35 c73d dda7 653d 2291 63bd 3c12 edbd
000002e0: 442f c8bd 97ee eebd ee78 1fbe 5214 163e
000002f0: 5467 31be b55d 7539 068a 38bd 7c9b 443d
00000300: 444e 073d 8b72 2bbe e5f5 b5bd 2d82 6b3d
00000310: 1ba4 a63b 4c3d 34be 7ed8 a33d 2bd8 013e
00000320: e8f5 9e3d b58d ffbd 0862 f23c 4f18 e73c
00000330: 8b31 173d be53 a33d 9bc8 ea3b c215 58bd
00000340: 1db2 263e 14a3 acbd e693 0abd e162 a9bd
00000350: 1a17 09be 4280 fdbd 6cff d2bd 229f 0dbd
00000360: 01f4 443d 924a 303e 11e2 fc3d 9183 dfbd
00000370: e400 d1bd 8bc4 b3bd 1a78 de3c 5b1d 1a3d
00000380: e8d6 613d 9d6e ba3c 66e2 063e f13a 2f3d
00000390: cace da3d 1b13 173e 1a35 45bd c730 1a3d
000003a0: 6f24 25bd 025e 043e e99c 8fbc 880f 053e
000003b0: c7c2 433d e569 8e3d 340a 083e a705 2c3e
000003c0: aea9 29bb 6d69 cebd 0196 9cbd 08b9 00bd
000003d0: 9de1 273e 632f 763d 2c16 89bd 54f4 d43d
000003e0: 178c 36bd 2b06 febd f062 db3d 3146 c83b
000003f0: fc9a f13d af42 4b3d 9f6f 55bd 2d52 04be
-0.09110261 0.08759722 0.0710817 0.061623037 -0.021508738 -0.15314454 0.007855819 -0.039673347
-0.1858608 0.13020147 0.120986186 -0.036666308 -0.029376902 0.06724515 0.053355154 -0.15210254
-0.10151248 -0.16770177 0.13300991 -0.15091938 0.030160416 0.14694485 -0.13399564 0.06654441
-0.09143038 -0.12033578 0.17569879 -0.14682049 -0.1098641 -0.13798672 0.016150987 0.017977143
-0.0057086432 0.009639532 -0.061884318 -0.04359969 0.07378834 0.059223212 0.12398231 -0.15803932
-0.04244813 -0.059554763 -0.06205865 -0.018089848 0.12585595 0.019404113 -0.061336055 0.0358978
-0.1397943 0.13883208 0.036216363 -0.024645707 -0.04268463 -0.17143062 -0.112603396 -0.15212516
-0.006668671 -0.16999908 0.058296762 -0.056207523 -0.12742238 0.048460867 0.15840076 -0.037737362
-0.055545334 0.15996683 -0.13315377 -0.10679859 0.13587213 0.13912198 0.07286181 -0.1477688
0.15538168 -0.11508576 0.12681873 -0.07305738 -0.08128009 0.031070635 0.07523773 -0.061489422
0.021293515 -0.0894212 -0.0007649653 -0.012878979 -0.1086474 -0.09521156 0.10030495 -0.074826546
-0.011903345 -0.14270449 -0.107297465 0.14369452 -0.16739695 -0.081873536 -0.12732774 -0.1377332
-0.16236195 0.035766594 -0.005924612 -0.14478585 -0.0059425253 0.13781029 0.089186504 0.014106014
0.14729585 -0.15387356 -0.001556722 0.07305195 -0.14226201 -0.034748353 0.11755877 -0.06387066
-0.00466661 -0.0047094887 -0.1572079 -0.15086651 -0.024672814 -0.06635301 0.07383514 -0.0074735
0.015415918 0.14317133 0.06809281 0.0984142 -0.10516833 -0.1241906 0.012085814 0.1005228
-0.16830668 0.14020741 -0.07691821 -0.05483421 0.010910639 0.034519408 0.010169318 0.06830076
-0.13595703 -0.09976505 0.082819946 0.10628834 -0.10843322 -0.093842566 -0.004046856 -0.024093667
-0.03396469 -0.087923005 0.03621923 -0.1639125 0.10759321 -0.08742362 0.08161762 0.08132816
0.08735849 -0.11574508 0.01797287 -0.054842744 -0.07161978 -0.15694506 0.14235848 0.035974823
-0.15443686 -0.04923106 -0.06878285 0.109769545 -0.13696484 -0.15492281 -0.1638827 -0.03818319
-0.14264059 0.10512859 0.0682509 -0.13191666 0.03130255 -0.06146688 0.16795719 -0.04744595
0.013713173 0.007445241 0.13841784 -0.13264151 0.09726949 0.05606829 -0.05555833 -0.115757436
-0.0977464 -0.11666601 -0.15573475 0.14656189 -0.17324573 0.0002339993 -0.045053504 0.047999844
0.033033624 -0.16742913 -0.08884791 0.057497192 0.005085481 -0.17601508 0.08000277 0.12680118
0.07761747 -0.124782 0.02958776 0.028209833 0.036912482 0.07974957 0.0071650273 -0.052755125
0.16278882 -0.08429542 -0.033832453 -0.08270813 -0.13387719 -0.12377979 -0.10302624 -0.03457559
0.048084263 0.17215946 0.12347806 -0.10913766 -0.10205248 -0.08777722 0.027156878 0.03762565
0.05513659 0.022757823 0.13172302 0.04278082 0.10683973 0.14753382 -0.048146345 0.037644174
-0.04031795 0.12926486 -0.017530875 0.12994206 0.047793176 0.069537915 0.13285142 0.16799031
-0.002588849 -0.10078702 -0.076457985 -0.03142646 0.16394658 0.060103785 -0.06693682 0.103981644
-0.044567194 -0.1240352 0.1071223 0.006111883 0.11797139 0.04962414 -0.052108403 -0.12921973

GAT_layers.2.f.bias f4 [64]
00000000: afe7 0a3d 9a9c 0dbd a81e 83bd ba76 39bc
00000010: 48f5 ad3d d6df 00bb 0011 ba3d 523b 6f3d
00000020: 6c35 acbd 5f8b 93bb 4cd3 ef3b 515b 91bb
00000030: f45a bf3d dc12 c43c cc6e 203d 7d31 db3c
00000040: 9984 38bd 63ac 75bd 6d18 81bd 44b5 d03c
00000050: 8cf5 ae3c 8836 40bd c73c 8dbd d07c abbb
00000060: d553 90bd e534 a1bd b20d 8dbd d9a5 0dba
00000070: cc84 8cbc 53c3 88bd 0e84 8d3c 88ee b4bd
00000080: c722 1abd ae3d 8fbd b2e8 6c3c 3bb0 9fbc
00000090: 8693 21bd 4361 273c aa79 7bbd c2ad b4bd
000000a0: 363d 943d 8e23 733d ea80 5fbd fc5c 223d
000000b0: e26c a0bd b655 90bd e9dd c23c bb41 a53d
000000c0: 6882 9ebd 8426 33bd bcdf a4bd c949 7abd
000000d0: 8588 823c d631 12bd 597f 903c e7c3 773c
000000e0: 10a7 5f3d 14ee 083d 0701 a2bd d512 873d
000000f0: 228a e53c 70e7 1a3d cfde 323d 724c ecbb
0.033912357 -0.034573175 -0.064023316 -0.0113198105 0.08494049 -0.0019664667 0.09085274 0.05840618
-0.08408627 -0.0045026983 0.0073188897 -0.0044359346 0.0934352 0.023934774 0.039168164 0.026756996
-0.04504833 -0.059978854 -0.06303487 0.02547706 0.02135732 -0.046927005 -0.06896358 -0.0052333847
-0.0704724 -0.07871417 -0.06887378 -0.00054034364 -0.017153166 -0.0667788 0.017274883 -0.08834559
-0.037630823 -0.06994186 0.014459776 -0.019493213 -0.03944733 0.01021606 -0.061395325 -0.08822204
0.072382376 0.05936008 -0.0545663 0.039639458 -0.07833268 -0.07047598 0.023787456 0.08069178
-0.07739717 -0.043737903 -0.080504864 -0.061105523 0.015934238 -0.03569206 0.01763885 0.01512239
0.054602683 0.033430174 -0.07910352 0.06595389 0.028019968 0.037818372 0.043669518 -0.0072112614

GAT_layers.2.w.weight f4 [1, 128]
00000000: 5881 473e facb c8bd a9f8 11be 925a 0e3d
00000010: 5296 49be bbe8 44be e242 52be 5671 303d
00000020: 001b 9c3c 53c8 b23d bcdd d2bd 3614 2fbe
00000030: 5e13 06be 57c4 0c3e a23e b9bd f23d debd
00000040: ad5c fabc e2a5 133e 7422 17bd 517e 7d3d
00000050: c93d 53be 5eb0 2a3d 1c75 86bd 6eac 223e
00000060: bb1b 53be 0d00 c6bd c2a8 58be 2976 173d
00000070: 26cf 22bd f720 de3d 5b71 00bd 3147 3bbe
00000080: ba49 343e 5515 efbd 46b8 993c 66fe 10be
00000090: 9387 2fbe b397 383e 7355 89bd 22a3 5c3c
000000a0: 5bf8 cf3d 89eb a23d 2651 043d c268 8dbb
000000b0: 72ee 0e3d 72c1 43be c959 8fbd ac3c da3d
000000c0: 408d be3d 26b6 49bd eaad 06be c71b 32be
000000d0: 7b8d 093d 15e8 f3bc 88c0 b63d fd9e 323e
000000e0: d8b2 4a3e 7ae3 01bd 01fa 0cbe 7230 78bd
000000f0: c2b7 5f3d f165 2ebe 2af7 0dbc 5562 1fbd
00000100: e01e 2ebe 8bbd 173d c6c0 3dbe 7cdc 89bd
00000110: ee68 ab3c 22f4 923d 8876 e13d 25fe 363e
00000120: 5ebe 113c 5813 98bd d1fb 513e b6c3 403c
00000130: e884 e2bd 15d5 c73d 1547 1bbe 5944 0c3e
00000140: 6637 dbbd eef1 fabd d88a 51bd 7e88 973d
00000150: 63d5 edbc 4314 d13d b207 823d 99a9 14be
00000160: 6203 29be 3be4 423e 355f fdbd 04bd db3d
00000170: db12 d13d 393d 1bbe c60f 953d c523 e83b
00000180: 5513 053e 899b db3d 01fc d63d d0ef dfbd
00000190: 39a2 88bd 6a15 c93d fb47 493e 406b 363c
000001a0: 1b20 c23d 32d3 9bbd 7c93 323e bc86 e33d
000001b0: 7a21 573e 7335 8dbd d605 023e 2de2 4ebd
000001c0: ac69 273e 9697 783d c62c d1bd 1931 42be
000001d0: 077d 3a3e 83e2 e9bd 5e5e 3abe 4e12 40be
000001e0: ce9e 31be 36e8 ecbd 4c7a d53b 204a ddbd
000001f0: 6de1 34be ef0b 16be 43fa 133e 8318 0e3e
0.19482934 -0.098045304 -0.14255013 0.034754343 -0.19686249 -0.19229405 -0.20533326 0.043076836
0.019055843 0.08729615 -0.10296199 -0.17097554 -0.13093325 0.13746773 -0.090451494 -0.10851659
-0.03056177 0.14418748 -0.03689809 0.061888043 -0.20629038 0.041672103 -0.065653056 0.15886089
-0.20616047 -0.096679784 -0.21158126 0.03697792 -0.039748333 0.10846131 -0.031358104 -0.18288876
0.1760625 -0.11673991 0.018764626 -0.14159545 -0.17141561 0.18026619 -0.06705751 0.013466628
0.10154792 0.07955081 0.03230395 -0.0043154666 0.034895368 -0.19116762 -0.06999547 0.106561035
0.09304285 -0.049245976 -0.1315228 -0.17393409 0.033582192 -0.029773751 0.08923441 0.17443462
0.19794786 -0.03171108 -0.13767244 -0.060593076 0.054618604 -0.17031075 -0.008664886 -0.038912136
-0.17003965 0.037045997 -0.18530568 -0.06731507 0.020924058 0.07175471 0.11008936 0.17870386
0.008895485 -0.074255645 0.20506217 0.011765411 -0.11060506 0.09757439 -0.15163834 0.13697948
-0.10703926 -0.12253176 -0.051157802 0.07399081 -0.029032415 0.10208943 0.06349124 -0.14517821
-0.16505197 0.19032376 -0.12371675 0.10729411 0.102086745 -0.15160073 0.07278399 0.007084342
0.12995656 0.10723025 0.10497285 -0.109344125 -0.066715665 0.098185375 0.19656365 0.011133969
0.0947878 -0.07608642 0.17439073 0.11109683 0.21008864 -0.0689496 0.12697539 -0.050508667
0.16348904 0.06069144 -0.10213618 -0.18964042 0.18211757 -0.11420157 -0.1820006 -0.18756983
-0.17345735 -0.11567728 0.006514823 -0.10805154 -0.17664118 -0.1465299 0.14450936 0.13876538

MLP_layers.0.weight f4 [32, 64]
00000000: d5f8 ad3c f0eb b8bc 20b2 c83c 8031 77bb
00000010: 566b 89bd 6092 273c 4fe7 4d3d 1981 973d
00000020: 6288 f83d 13e4 f8bd 55d1 b0bc e002 a63d
00000030: 8842 e2bd c42d 9a3d d83b 8a3d 22f4 e1bc
00000040: f826 b53d 00a1 52ba 48e2 473d 1044 c6bd
00000050: 7e84 cb3c f22d 8d3d 8e2b c1bd 2cc4 28bd
00000060: dc2b 99bd 30ee c3bd 6a9f c03d 8052 bf3c
00000070: 4123 973d 9642 f93d 668a b9bd 7069 56bd
00000080: 600f 443d 0056 2dbb 8681 d5bc 2804 01bd
00000090: 78bf f4bd 8122 0ebe ee42 bfbd 34b3 b43d
000000a0: 6524 903a 5af3 2dbd 243b 023d eca5 22bb
000000b0: c084 963b cc6b 38bd 3239 173d e3ff 24bc
000000c0: b403 0ebd e0bf 64bd c837 66bd 38cf 6e3d
000000d0: 0edc ae3d 3464 a4bd 91ba aebd e929 053d
000000e0: c3e5 d2bd 7303 d03d 7093 ab3d ce3d c63d
000000f0: 6bed 38bb eb2c 1c3d 5087 cb3d 4a66 363c
00000100: e407 3fbd e0d1 9e3d 7421 833d ac10 f03d
00000110: 90d1 d83d b2c1 c9bd 9c81 9ebd d8a3 08bd
00000120: 7893 8b3c 80df 643c c4c7 ad3d 907d 423c
00000130: c004 903d 508a ba3d c452 1b3d 8c5f c83d
00000140: 0a4e c2bd 2023 a8bb f834 b53d 706d 6ebd
00000150: 1696 83bd 10a0 d03d 6413 18bd a031 bb3c
00000160: a467 0bbd e497 593d ee79 d13d b0a9 23bc
00000170: 6cc6 a2bd 8025 bc3b 3c73 5a3d 5019 1a3c
00000180: 2ee3 c53d ce12 ad3d 68d7 d5bc c81d b73c
00000190: facd b2bd e863 f5bc 747f 683d 6e2c c5bd
000001a0: b088 e23d 7009 18bd 0096 7aba 28fb 9dbd
000001b0: 7ad1 c33d 12e1 f2bd 203c 1bbd f2eb dfbd
000001c0: c0aa b73c 0645 a93d 145a 1e3d 501c 6abc
000001d0: e82d a7bd 46c5 ff3d fc68 f43d ac86 7fbd
000001e0: a0fb 47bc e895 b73d ba48 ffbd de48 87bd
000001f0: 062f e1bd 14c5 75bd 686f 74bd d8c4 8dbd
00000200: da92 9d3d 38af c83d aaf3 8f3d c060 4cbc
00000210: 6dc6 e43d d06c 463c 2c2d 173d 615d e0bd
00000220: a4ff 513d fe8e e8bd fb79 7cbd ae41 933d
00000230: 950b 233d 7569 84bd eaac bdbc 4b5c a2bd
00000240: 8cb8 9abd 3097 863d 0a9c ba3d cbf4 c0bd
00000250: 7040 443c feec b6bd a46c 67bd f0d2 2fbc
00000260: e01e bfbd ce2e dabd 7c5d 7bbd 40bf f3bd
00000270: 83f3 ae3d 30df 80bd 9d97 d93d c062 c73d
00000280: 98fb bcbd 3287 e33d 5199 a2bc 4845 f4bd
00000290: 409b 59bb 6b4f b93d 00c1 e13c 0291 eabd
000002a0: e7f6 21bc 8e04 b13d de4e f53d e1c8 0a3e
000002b0: 2021 263d ac4d 25bd bbfb c3bd 2f7d 023e
000002c0: 4249 ed3d 188a 40bd e05d 233c 9cc6 75bd
000002d0: 2eba cabd d201 f8bd 09bc b2bd 134a 043e
000002e0: 03b5 9d3d 5042 a33c 424b ac3d 02af 9a3d
000002f0: e41d b5bc 0316 b93d a9d8 ccbd 8328 91bd
00000300: 1898 ac3b 8037 5a3d 4812 313d 7a4d c13d
00000310: 679f d73d 3423 fb3d abc7 0b3e d375 f23d
00000320: b85e 43bd 0ae5 cabc 22ae 9bbd aaf5 d43d
00000330: 755f 0f3e 6415 7abd 05f0 0f3e 3cfe f13d
00000340: e839 8fbd ecdd ca3d aac4 83bd c010 1e3d
00000350: c4d3 abbc 721d 803d 7493 5fbd 305e 943d
00000360: 8049 4bbc 64ec 4ebd c8ce 683d 5c1d 67bd
00000370: dc8c a63d 987c 8b3d 8480 5abc 429a a9bd
00000380: 12ad c83d c429 b0bd 7812 99bd 2852 693d
00000390: 22ce bfbd b2e2 ff3d 20b7 e73d 08f6 c03d
000003a0: 978d b5bc 9224 abbd a47a 50bd a617 7abd
000003b0: 2216 e4bd 5072 bf3d c89d d9bd 885d c3bd
000003c0: a051 dabc 0033 61bc 4a58 bebd 28e1 c93d
000003d0: 0f8b 1d3d 34e8 14bd 1451 0dbd f657 fe3b
000003e0: f7dc 35bd fc97 e13c aeb6 e7bd 6793 d23d
000003f0: 7530 f43d 7f70 e7bc b9de 3b3c 8580 7b3d
0.021236816 -0.022573441 0.024499 -0.0037718713 -0.06709926 0.01022777 0.05026942 0.0739767
0.12135388 -0.12152877 -0.021584192 0.08106017 -0.11047846 0.0752826 0.067496955 -0.027582232
0.08845323 -0.0008034855 0.048799783 -0.09680951 0.02484345 0.06893529 -0.094321355 -0.04120271
-0.07479069 -0.09566915 0.09405406 0.023354769 0.07379771 0.121709034 -0.090596005 -0.052346647
0.047866225 -0.0026448965 -0.026062738 -0.031498104 -0.11950582 -0.1388035 -0.09338938 0.08823243
0.0010997175 -0.042468406 0.031794682 -0.0024818135 0.0045934618 -0.045024678 0.03691978 -0.010070774
-0.0346715 -0.05584705 -0.05620554 0.058303088 0.08538066 -0.08026925 -0.085316785 0.03251067
-0.1029773 0.10156908 0.08377731 0.09679757 -0.0028217684 0.038128775 0.09937918 0.011132786
-0.046638384 0.07754874 0.06402865 0.1172193 0.10586846 -0.098513976 -0.07739565 -0.03335938
0.017038092 0.013969302 0.08485368 0.011870757 0.07032156 0.09108412 0.03792073 0.09783849
-0.09487541 -0.0051311404 0.088479936 -0.058209836 -0.06425111 0.101867795 -0.037127867 0.022850811
-0.034034386 0.05312337 0.10228334 -0.009989187 -0.07948002 0.005741775 0.053332552 0.009405449
0.09662472 0.08450852 -0.02610369 0.022353068 -0.08730693 -0.029954866 0.056762174 -0.09627615
0.11061227 -0.037118375 -0.0009559095 -0.0771392 0.09561439 -0.11859335 -0.037899137 -0.10933675
0.022420287 0.08265118 0.038660124 -0.014288977 -0.08163053 0.12488799 0.11934087 -0.062384292
-0.012205988 0.08964139 -0.12465043 -0.06605695 -0.10995297 -0.0600024 -0.059676558 -0.069223106
0.07694025 0.09799045 0.07028897 -0.012474239 0.11170659 0.012110904 0.036908314 -0.109553106
0.05126919 -0.113553986 -0.061639767 0.07190262 0.039805967 -0.06465427 -0.02315374 -0.0792776
-0.07554731 0.065718055 0.09111793 -0.094216906 0.011978254 -0.089319214 -0.056500092 -0.010731444
-0.09332061 -0.106534585 -0.06136845 -0.119017124 0.0854254 -0.0629257 0.10624621 0.09735632
-0.09227675 0.11109771 -0.019848498 -0.11927277 -0.0033204108 0.09048351 0.02755785 -0.11453439
-0.009885526 0.08643447 0.11977933 0.13553192 0.040558934 -0.040357277 -0.09569498 0.12743066
0.115862384 -0.047006696 0.009971112 -0.06000386 -0.09898792 -0.12109722 -0.08727271 0.12918882
0.07700541 0.019929081 0.08412792 0.07552911 -0.02210898 0.090374015 -0.10002262 -0.07087805
0.0052671544 0.053275585 0.043230325 0.094386056 0.105284505 0.12262574 0.13650386 0.118388794
-0.047697753 -0.024767417 -0.076015726 0.10398419 0.14001258 -0.061055556 0.14056404 0.118160695
-0.069934666 0.099056095 -0.06433995 0.038590193 -0.020975001 0.06255616 -0.05458398 0.07244527
-0.0124076605 -0.05051841 0.056837827 -0.056424484 0.081323355 0.06810874 -0.013336305 -0.082813755
0.097986355 -0.08601716 -0.07474226 0.056963116 -0.093654886 0.124944106 0.11314225 0.09421927
-0.022162242 -0.083565846 -0.05089821 -0.06105771 -0.11137034 0.09347975 -0.106257975 -0.09539324
-0.02665025 -0.0137450695 -0.092941836 0.09857398 0.038462695 -0.03635426 -0.03450115 0.0077619506
-0.04440018 0.027538292 -0.1131414 0.10282021 0.11923305 -0.028251885 0.011466675 0.061401863

MLP_layers.0.bias f4 [32]
00000000: ca0c 6e3c 5404 9cbd 084b 0dbd 4a98 56bd
00000010: 80d7 b43b 3fdd 48ba 00e9 4bbd 6e60 84bd
00000020: 0831 1abd 042a 303d 2c06 c23d 60b5 b3bb
00000030: 00cd cdbb 9a5e f33d ae7b 4a3d d927 8bbd
00000040: 5207 5d3d 9032 653d cd3c a13d f82b d9bc
00000050: 5ffb 393d c0c3 7d3d 703d 4dbc fd03 d5bd
00000060: 97ea 3ebc 602b 89bc 60d3 2bbc 2467 3cbd
00000070: c81f 2f3d 9b59 c0bd cb89 f6bb a067 733c
0.014529416 -0.07618013 -0.034495384 -0.052391328 0.0055188537 -0.0007662363 -0.049782753 -0.06463705
-0.037644416 0.04300882 0.094738334 -0.005484268 -0.0062805414 0.11883278 0.049434356 -0.0679471
0.05396206 0.055956423 0.07872925 -0.026510224 0.04540574 0.06195426 -0.012526855 -0.10401151
-0.01165261 -0.016744316 -0.010487407 -0.0459968 0.04275492 -0.09392091 -0.0075237504 0.014856249

MLP_layers.1.weight f4 [1, 32]
00000000: 5325 ecbc 9126 12be a485 403e bd73 003e
00000010: 55f6 90bd 74ef 183b b0e1 b5bd 0735 913d
00000020: b314 c53d 87d0 28be 2d2a 2a3e 8ac6 64bd
00000030: a047 403d e2bb 2a3d edcd f139 cfb6 ddbd
00000040: 6cb8 be3d 7fd6 9fbd 290f 14be 5c9e 223d
00000050: b257 ebbd 67e8 10bd d30d d63d 6032 19be
00000060: 4863 09be 4462 d5bc dc76 ca3d 8268 28be
00000070: c641 06be 1ed9 273e 3f0a bd3d aeeb 20be
-0.028826391 -0.14272524 0.1880098 0.1254415 -0.07078234 0.0023336085 -0.08880937 0.07090192
0.09623089 -0.16485797 0.16617651 -0.055853404 0.046943307 0.041683085 0.0004612053 -0.108258836
0.093125194 -0.07804584 -0.14458908 0.039701805 -0.11491336 -0.035377886 0.104518555 -0.14960623
-0.13416779 -0.026047833 0.09885952 -0.16446117 -0.13111028 0.16391417 0.0923047 -0.15714905
