SLIC_GAT/best7.pt (torch, 80373 bytes, 12 tensors)

GAT_layers.0.f.weight f4 [32, 124]
000000 db 27 27 3e b0 11 73 bd 4f 79 b8 bd c0 0e 41 bd
       0.16323797 -0.05934304 -0.09007513 -0.047133207
000010 27 a4 82 bc ed da 3d 3e cf 89 07 be f9 32 a8 bc
       -0.015947415 0.18540545 -0.13236164 -0.020532118
000020 fd 6f 6d 3d 64 ae 8a 3d e4 52 a7 3c 05 69 82 bd
       0.05796813 0.067715436 0.020425268 -0.06367687
000030 e8 b6 8d bd 19 b5 00 be 8a 39 31 3d 5b 19 1b 3e
       -0.06919652 -0.12569083 0.043267764 0.15146391
000040 97 9d 3b be 74 0b 04 3d 02 c1 a6 bd 56 d5 83 bc
       -0.18321835 0.032237485 -0.08142282 -0.016092937
000050 4a d5 9a bd eb 04 12 be 7b 7d f0 3c 6d 3e 26 3e
       -0.07560213 -0.14259689 0.029356709 0.16234751
000060 fc b2 d1 bd 5a cc 1c be 36 c6 1b 3e f2 b9 0a be
       -0.10239217 -0.15312329 0.1521233 -0.13547495
000070 7d 89 32 be 2d 52 f4 3d a4 16 09 be 8f 5f 9f bd
       -0.1743526 0.11929736 -0.13387543 -0.07781898
000080 01 3f 2c 3e 21 0b 5b 3d 63 b4 c4 bc b2 d7 46 bd
       0.16820909 0.05347741 -0.024011796 -0.048545547
000090 06 c3 3c 3e e7 dd 22 3e b5 bd 09 3e ad 87 d1 bd
       0.1843377 0.15904962 0.13451274 -0.10230956
0000a0 4c 0c 1d 3d b2 7f 62 3c 41 ea 08 be 39 29 32 be
       0.038341805 0.01382439 -0.13370611 -0.17398538
0000b0 36 2a 29 be 79 14 1d 3e 8f 6a 19 be 3d cb bc bd
       -0.16520008 0.15339841 -0.14982055 -0.09218452
0000c0 bb 9a b7 bd df 34 27 3e f5 1b 1c be 12 27 d3 bd
       -0.08965059 0.16328762 -0.1524504 -0.103101864
0000d0 f2 c6 a2 bd 37 cb 0f be 8c 2c 31 3e e4 5d 44 3e
       -0.07948102 -0.14042364 0.1730215 0.19176441
0000e0 46 f9 53 3d 4e 71 1e be e2 b1 8a bd 1d 4c 21 3e
       0.051751398 -0.1547291 -0.0677221 0.15751691
0000f0 65 70 11 be 6c 9f 1c 3e 4b e4 1c be 3c 1b 30 be
       -0.14203031 0.1529519 -0.15321462 -0.17197889
000100 5c 2c 13 be e6 08 e0 3d fb 68 dc bd d9 70 2a 3e
       -0.1437239 0.10939197 -0.10762211 0.1664461
000110 0e 2d 09 be c3 63 bf bd dd a9 12 3e ac 98 b8 3d
       -0.13396093 -0.093452 0.1432261 0.09013495
000120 8d 1b 26 be bc ba 98 3d ed 10 05 bc 56 e7 c1 bd
       -0.16221447 0.07457492 -0.008121711 -0.09467952
000130 5e 34 32 3e 72 3f 2e be 40 33 ae 3d 63 c4 9b bc
       0.17402789 -0.1701639 0.08505869 -0.019014543
000140 19 85 3c 3c 68 d5 41 be 04 58 9d 3d 62 0b 02 3e
       0.011506342 -0.18929064 0.07682803 0.12699655
000150 25 41 e4 3d 03 dc 31 be bd 91 83 3d d5 0c 1d 3e
       0.11145238 -0.17369084 0.06424282 0.15336926
000160 1d c5 07 be 87 d6 39 3e 8d 5b 7d 3d 2a de d7 bd
       -0.13258786 0.18148242 0.061854888 -0.10540421
000170 44 55 3f 3d 5f 01 33 be a1 71 06 3c c6 39 13 be
       0.046712175 -0.17480992 0.008205802 -0.14377508
000180 b9 1b af bc 39 9f 4f 3b b8 4b 20 3e 5d f4 30 3e
       -0.021375524 0.0031680597 0.15653884 0.17280717
000190 31 6c 1d 3e d7 c9 f3 bd 62 c5 27 bd cf 99 fd 3d
       0.15373303 -0.11903732 -0.040959723 0.12382852
0001a0 a5 8f 30 bd 86 62 fa 3d ca a4 11 3d d4 ff d5 3d
       -0.04310574 0.12225823 0.035557546 0.10449186
0001b0 98 ed fa 3d 1d d9 1f be 36 73 3a be ca df c2 bd
       0.12252349 -0.15610166 -0.18208012 -0.095153406
0001c0 32 4e 44 bd 63 a3 f6 bd 45 15 22 3d f5 03 42 3e
       -0.047926135 -0.12042882 0.039571065 0.18946822
0001d0 77 e3 43 be 55 f4 b4 3d 11 a4 2a be bd 64 e1 bd
       -0.1912974 0.08835665 -0.16664149 -0.110055424
0001e0 60 c6 b6 3d 58 2f cd bc c7 a7 30 be 31 7d 4a 3e
       0.08924556 -0.02504699 -0.17251502 0.19774319
0001f0 53 02 36 be 5e 09 59 3c 99 78 33 3e aa b0 1a 3e
       -0.17774324 0.013246862 0.17526473 0.15106454
000200 ee c5 21 be 6b a4 40 3e da 1a 2f bc 46 e9 1b be
       -0.1579816 0.1881272 -0.010687554 -0.15225706
000210 10 da 4b 3d 9d 61 e1 3c e9 13 d9 3c 60 d7 1f 3e
       0.049768507 0.027512366 0.026498752 0.15609503
000220 cd 7e 33 3e f6 46 b0 bd a6 11 cc 3d ca 21 24 3e
       0.1752884 -0.08607285 0.09964304 0.16028515
000230 49 d4 12 be 57 93 f2 bd ec 25 cc bd 89 1f 3d 3e
       -0.14338793 -0.11844509 -0.099681705 0.18469061
000240 eb 2d e7 bc b3 5d 16 be 6c d1 26 3e 42 19 fe bd
       -0.028220138 -0.14684181 0.16290826 -0.12407161
000250 cc bd 33 bd e3 1f a0 bd d0 8e b7 bd b8 c6 39 be
       -0.043882176 -0.07818582 -0.08962786 -0.18142211
000260 23 ae 9e bd f5 09 16 3e 36 c9 36 bd f9 70 c2 3c
       -0.07748058 0.14652236 -0.044625483 0.02373551
000270 7b b4 71 3d 27 fb 37 be 9b f3 4b 3d a6 43 09 bd
       0.05901001 -0.17966901 0.049792867 -0.03351178
000280 21 7d 16 bd 31 a5 9c bd 3b d0 24 3c f6 f2 36 3d
       -0.036740426 -0.07648695 0.010059412 0.0446653
000290 fb 5f 0f be 17 2e 1f 3d 1d 7a 3e 3e d0 bc 36 3e
       -0.14001457 0.038862314 0.1860127 0.17845464
0002a0 a2 16 46 3c 20 e5 46 be be df 2f 3e c4 6f 71 bc
       0.012090357 -0.19423342 0.17175195 -0.01473612
0002b0 af e8 10 be 56 4c b6 bd 9a 6e 40 3e b0 9a 37 3e
       -0.14151262 -0.08901279 0.18792191 0.17930102
0002c0 2c b9 73 39 46 9d 1b be bf ae 39 be 0c 09 13 3e
       0.00023243268 -0.15196714 -0.18133067 0.1435892
0002d0 44 8f 1e be 5c 5a 38 be 0f 47 ea 3d 40 23 a1 bd
       -0.15484339 -0.1800322 0.114393346 -0.078680515
0002e0 f1 d3 60 3d 35 fb 20 bd a0 42 e6 bb b6 04 63 bd
       0.054889623 -0.03930207 -0.0070269853 -0.055424415
0002f0 50 8b bb 3d 1a 14 a6 3d 16 67 a4 bd d8 36 04 be
       0.09157431 0.08109303 -0.080274746 -0.12911546
000300 c9 89 00 be e0 ba 3c be 89 2e 3d 3e 6d 14 8f bd
       -0.12552561 -0.18430662 0.18474783 -0.06986318
000310 f0 b7 0e 3e d7 f6 11 3e 14 b7 f8 bd 96 8b 44 be
       0.13937354 0.14254318 -0.121442944 -0.19193873
000320 9f d7 4d ba 16 6b f4 bd be 22 c4 3d 6c 9e a3 bd
       -0.00078522594 -0.119344875 0.09576939 -0.07989201
000330 c2 4c f6 bd 6d 36 54 bd 5a 15 ca bd 72 0d 0e 3e
       -0.12026359 -0.051809717 -0.09867354 0.13872316
000340 f3 fe 40 be 41 29 0c be 2e 7f 16 3e 75 51 74 3c
       -0.18847255 -0.13687612 0.14696953 0.014911999
000350 a3 89 82 bd bb 82 94 bd c3 b1 14 be 44 12 1e be
       -0.06373908 -0.07251497 -0.14520936 -0.15436655
000360 e7 59 13 3e 9f 6f 3f be e9 21 1f be 00 1c b3 3c
       0.14389764 -0.18694924 -0.1554028 0.021863937
000370 4d 2f b2 3d 2d 2d 9b bd 74 cd 97 bd 14 5e 18 be
       0.08700428 -0.07576976 -0.07412234 -0.14879638
000380 9b 77 c0 bd f8 11 7f 3d 99 69 30 bd 1d 86 49 3c
       -0.09397813 0.062272996 -0.043069456 0.0123000415
000390 ec 60 40 3e 6f 75 f7 3b b8 fd 1d 3e ca c7 9e bd
       0.18786973 0.007551841 0.15428817 -0.077529505
0003a0 d4 62 2f 3c 94 11 42 3e e8 ec 45 3e 17 67 03 3e
       0.010704715 0.18952018 0.19328654 0.12832294
0003b0 1b e6 2e be 7e d3 08 3e c4 36 95 bc 5d 8e 38 3e
       -0.17079966 0.13361928 -0.01821459 0.18023057
0003c0 ca 67 1a 3e fb e7 cf 3d 21 58 9a 3d 24 d2 4a 3a
       0.15078655 0.10151669 0.075363405 0.0007737002
0003d0 a9 e2 23 bd b0 6c fd bc 61 78 a8 bd b0 7b 89 bd
       -0.04001108 -0.030935615 -0.082260855 -0.06713045
0003e0 e7 8c 3d 3e 83 91 88 3d 09 78 20 3e 00 fe e4 3d
       0.18510781 0.06668379 0.1567079 0.11181259
0003f0 7c 1c 30 be 8c f6 a0 bd 41 8a 1e 3d 80 c2 0d 3c
       -0.17198366 -0.07859525 0.038706068 0.008652329

GAT_layers.0.f.bias f4 [32]
000000 7c 7c af 3d ce 9f d7 3b 0e 73 d6 3c c8 0c a0 3d
       0.085686654 0.0065803295 0.02617791 0.07814938
000010 29 d1 8c bd 7a d5 8c 3d 29 95 b7 3d 78 49 94 3b
       -0.06875832 0.06876655 0.08963997 0.0045253597
000020 2a 6c af bd f5 21 b9 bc e4 1b b0 3d 59 5a ef bc
       -0.085655525 -0.0225992 0.0859907 -0.029217886
000030 1e 5d 96 bd 73 58 8c 3c a7 e0 97 bd 33 9f a5 bc
       -0.073419794 0.01713202 -0.07415896 -0.020217514
000040 c5 de c7 3c 36 2e 28 bd 00 a4 9a bd 82 75 90 bd
       0.024398217 -0.041059695 -0.07550812 -0.07053663
000050 66 ae b7 bc 1b e4 90 bd 6c 67 a3 bc 94 74 5e 3d
       -0.022422027 -0.07074758 -0.019946776 0.054310396
000060 12 a5 c2 bc 63 2e ac 3d 11 fb bd 3d 6f e0 a9 bd
       -0.023760352 0.08407285 0.09276403 -0.082947604
000070 bc df ec bc 49 fd ab bd 56 a4 4d bc ee 36 10 3d
       -0.028915279 -0.0839792 -0.012551388 0.035208635

GAT_layers.0.w.weight f4 [1, 124]
000000 65 c6 28 be 6e 28 56 bd 52 12 7e 3d 6a b0 90 3d
       -0.16481932 -0.05228465 0.06202919 0.07064898
000010 3d ec 47 bc 3b 8f 9c bd 38 c2 42 3e d2 b7 29 be
       -0.01220232 -0.076445065 0.19019401 -0.16574028
000020 4a 25 1e be 69 7d 67 3c 57 a0 4b 3e cd f4 f4 3d
       -0.15443912 0.014129021 0.19885384 0.119607545
000030 01 15 82 3d 59 bd 72 bd 34 11 11 3d 1b 9d 2a 3e
       0.063516624 -0.059262607 0.035416797 0.16661493
000040 b0 2b b0 3d c5 50 7d bc 55 ed 4b be 80 eb 09 3e
       0.08602083 -0.0154611515 -0.19914754 0.13468742
000050 43 87 3c 3d da a7 57 3d 2c 01 3e be 42 42 fe 3d
       0.046027433 0.05265031 -0.18555135 0.124149814
000060 c9 32 a3 bd 10 8f 08 bd e7 3a d9 bd 86 55 54 be
       -0.07968671 -0.03333956 -0.10606938 -0.2073575
000070 5e 8d 09 3a be 22 a9 3d 68 16 13 be ef ac cf bc
       0.00052472006 0.0825858 -0.14364016 -0.025351016
000080 46 81 4f be 51 b4 3e bd 94 00 63 bd c7 2a 03 3e
       -0.20264158 -0.046558682 -0.055420473 0.12809287
000090 7f 25 91 bc 64 8c 66 3d 5f 5d 5e be 2d d8 4f 3d
       -0.017718075 0.05628623 -0.21715306 0.05074327
0000a0 f0 16 42 3e 1a 91 b2 bd 2e e3 08 bc 6f 2b 95 bd
       0.18954062 -0.08719082 -0.008354945 -0.07283675
0000b0 12 a3 1b be 97 60 34 3e 4d ef 9a 3d 70 74 59 bd
       -0.15198925 0.17614971 0.07565174 -0.05308956
0000c0 d5 cf 09 3e bb 57 49 3e be a5 56 be 27 03 33 be
       0.13458188 0.19662373 -0.20961663 -0.17481671
0000d0 3d 6c 39 3d a0 26 3c bc 9b 25 04 be c0 03 52 3e
       0.04526924 -0.011483818 -0.1290497 0.20509243
0000e0 f4 e3 62 bd ad ea d6 bd 84 9f 2d be 48 d8 19 3e
       -0.055393174 -0.104939796 -0.16955382 0.15023911
0000f0 af 35 3d be 6a 70 28 be cc 36 59 3c 75 f7 fc bd
       -0.1847751 -0.16449133 0.0132576935 -0.12351886
000100 6b 50 c4 3d b0 37 07 3d ed 3f 24 be da 9e 15 be
       0.09585651 0.033012092 -0.16040011 -0.14611378
000110 35 55 fb bd c4 27 e7 bd fa 1e 36 be b1 65 56 3e
       -0.12272111 -0.112868816 -0.17785254 0.2093723
000120 97 61 61 be 0c e7 f0 3d ff b6 f0 3d a4 fa 02 be
       -0.22009884 0.11762819 0.11753654 -0.12790924
000130 67 6a 34 3e 09 42 10 be c9 9f 51 bd 36 5b 46 3e
       0.17618714 -0.1408769 -0.051177774 0.19370732
000140 f5 2f 50 be d8 e2 39 bc c6 4e 94 3c 49 e7 c9 bd
       -0.20330794 -0.011345588 0.018103968 -0.09858567
000150 5c be b8 3d 55 bb e3 3c aa 53 4c bd 92 46 37 3c
       0.09020683 0.027799288 -0.049884476 0.011186259
000160 20 13 d1 3d 58 06 ec 3d 79 18 f4 bc 23 be 22 3e
       0.10208726 0.115246475 -0.029796826 0.15892844
000170 c2 e9 0d be f7 61 69 bd e4 07 1a be 34 67 44 3d
       -0.13858703 -0.056978192 -0.15042073 0.047949985
000180 77 93 85 bd 78 11 00 3e f5 d7 84 3d b6 3d a8 bd
       -0.06522267 0.12506664 0.06486503 -0.082148954
000190 f4 ee 99 bd 31 14 13 be b2 6a 2f 3e 91 fd 4b 3d
       -0.0751628 -0.14363171 0.17130545 0.049802367
0001a0 d2 7f 8d 3d b8 5c bd 3d 42 ea 41 bd e8 a0 f3 3d
       0.069091454 0.092462 -0.047342546 0.11895925
0001b0 c4 6a 5d bd dd cc d1 bd e0 22 e5 bd 19 00 f7 bd
       -0.054056898 -0.10244153 -0.111882925 -0.120605655
0001c0 46 42 54 be c1 11 c3 3d 7e 7c 01 bd dc 0e 61 3d
       -0.20728406 0.09524871 -0.031612866 0.05494581
0001d0 b2 17 a5 3d 97 fb 4d be 0c d7 59 bd 94 3a c2 3d
       0.0806116 -0.20115505 -0.0531836 0.09483829
0001e0 1a 13 c6 bd 17 16 90 bd 01 70 37 be 07 eb 0a 3e
       -0.09671612 -0.07035463 -0.1791382 0.13566218

GAT_layers.1.f.weight f4 [64, 64]
000000 72 25 59 be da e2 fa 3d 9d 7c 3f 3e 38 4d d4 3d
       -0.2120569 0.122503 0.1869988 0.10366291
000010 38 10 c4 bc cb 9d f5 bd 0e c7 0e 3d 30 a4 51 be
       -0.023933515 -0.11992987 0.034857802 -0.20472789
000020 31 31 4b bd f3 00 a6 bc bc 89 a5 bd d3 3d f3 bd
       -0.04960746 -0.020264124 -0.08082911 -0.118770264
000030 10 48 1b 3e 17 bd 09 bd 58 03 b3 bd 44 ae a9 3d
       0.15164208 -0.033627596 -0.08740872 0.08285192
000040 ef 1c f5 bd 47 86 2a be 90 c8 5b be e3 3b fd 3d
       -0.11968409 -0.16652785 -0.21463227 0.12364938
000050 ab 0c 82 bc 23 aa 1e 3d de eb c2 3d 39 13 70 3d
       -0.015875181 0.038736474 0.09517644 0.058612082
000060 73 e6 22 3e 2c c5 64 bc 67 c0 36 3d f2 70 97 bd
       0.15908222 -0.013963025 0.044617083 -0.073945895
000070 26 cf ed bd 44 ba b1 3d 17 2e 53 be c4 07 14 3d
       -0.11611776 0.086781055 -0.2062305 0.03614022
000080 e5 38 11 be 67 cd 0e 3e 1d 7a 1c 3e 00 5e 95 3d
       -0.1418186 0.13945542 0.15280958 0.0729332
000090 08 fc 1d 3d 49 a8 13 3c 45 91 76 3d c9 5f a7 3d
       0.038570434 0.00901229 0.060197134 0.081725664
0000a0 c9 fc bd 3d 31 fc df bb af ee 38 bd d3 1d 4f 3e
       0.092767306 -0.0068354835 -0.0451495 0.20226221
0000b0 ae 81 be bc 34 6c e5 bd 5e 6d 5d 3c 39 e0 47 be
       -0.023255195 -0.11202279 0.013514845 -0.19519128
0000c0 6c 3e 0b 3e 16 85 ae 3d dc 46 2f 3e b7 01 81 bd
       0.13598031 0.08521478 0.17116874 -0.06299155
0000d0 ce 1a c2 bb ef 05 25 be 92 fb a9 3d 13 51 56 be
       -0.0059236055 -0.16115545 0.08299936 -0.20929365
0000e0 6a 21 3a 3e 9b f3 7b 3d b8 49 14 bd be 57 4c 3d
       0.18176809 0.061511617 -0.036203116 0.049888365
0000f0 b1 7b 91 bc 00 06 4b 3e 36 fa 0f 3e 2b f6 57 3e
       -0.017759176 0.19826508 0.14060292 0.2109
000100 fd a8 d6 bc 6c 29 4a be 14 66 e1 3d d0 fa fb bd
       -0.026203627 -0.19742364 0.11005798 -0.12303698
000110 fa 94 0d 3e b7 8a 94 3d 07 da ad bd e0 8b 69 bd
       0.13826361 0.0725302 -0.08488851 -0.05701816
000120 0d 91 01 be 0b ce bf 3d b1 c0 3c be 8d 7c f7 3d
       -0.12652989 0.093654715 -0.18432881 0.12084303
000130 30 f0 e4 bd 1f c2 10 bd 1f c1 2d bc da 91 90 3d
       -0.11178625 -0.03534138 -0.010605126 0.07059069
000140 b3 25 3c 3e 7c e9 c7 bd 83 b3 38 3e 25 4b 01 3e
       0.18373756 -0.097613305 0.18037228 0.12626322
000150 96 ae da 3d 7f 1f 59 3e 0e 70 ca bd 9e c1 01 3d
       0.10677831 0.21203421 -0.09884654 0.03167879
000160 ae b7 00 3e 81 8b 81 bd 8d 2f b0 3d 34 c0 36 3e
       0.12570068 -0.063254364 0.086028196 0.17846757
000170 79 29 f3 3b cf fb 08 be 43 6b 5a be fb 12 04 3d
       0.0074207154 -0.13377307 -0.2132998 0.032244664
000180 ae 52 9d 3d 09 8b 5d 3e 1a d1 03 be e6 b5 5d 3e
       0.076817855 0.21635069 -0.12872735 0.2165142
000190 19 e8 01 3e 8a 80 16 3e e2 ea 88 3d 4d 97 94 39
       0.12686194 0.14697471 0.06685425 0.00028341488
0001a0 c4 c2 e2 3c ed 48 31 bd e7 be bd 3d f2 5a dc 3b
       0.027680762 -0.043282438 0.09264927 0.0067247087
0001b0 da b0 34 3e 83 fc 25 bd a9 75 49 be ea a4 00 bd
       0.17645589 -0.040524017 -0.1967379 -0.031407274
0001c0 a2 8c ad 3b ea e3 d2 3c e3 9d da 3d e7 73 8a bd
       0.0052963058 0.025743444 0.10674646 -0.06760388
0001d0 2a 79 4e be 1f cb 58 be 45 40 04 be 8a 86 86 bd
       -0.20163408 -0.21171235 -0.12915142 -0.0656863
0001e0 bc 9b bc bd a6 15 42 3d 09 62 21 3e ba 1b 7a 3d
       -0.092093915 0.047383927 0.15760054 0.0610616
0001f0 f5 98 6b bd 0d 61 52 be 43 d0 7f 3d ef 54 cf 3d
       -0.057518918 -0.20544834 0.062454473 0.10123622
000200 8b 3a af 3d 68 d8 9d 3d 1e 9a 32 be c5 ca 20 be
       0.08556088 0.07707292 -0.17441604 -0.1570235
000210 5d 3d 5c bc 21 55 d3 3d e4 1d 31 3c ae d4 36 be
       -0.0134423645 0.103189714 0.010810349 -0.17854568
000220 a3 a0 8a bb 9c 33 15 3e 03 b2 3c 3e 30 49 86 3d
       -0.004230575 0.14570469 0.18427281 0.06556928
000230 a2 62 b3 3d 79 a6 27 3e 7b 0f a3 bd 35 e3 2e 3e
       0.08759047 0.16372098 -0.07961937 0.1707886
000240 2a 25 10 bd 27 6e d0 3d f4 6b 2c be be f8 4d 3d
       -0.035191692 0.1017726 -0.16838056 0.050286047
000250 50 3a 3a 3e ea 75 a1 3d 7a cd e4 3d 86 95 1e 3e
       0.18186307 0.078838184 0.11172004 0.15486726
000260 2e b0 28 be 53 1a 0d be 67 4e a1 3d ce 89 54 be
       -0.16473457 -0.13779573 0.07876282 -0.20755693
000270 41 66 15 be 3f 2e 13 3e 55 40 b0 bd c4 b0 4b be
       -0.14589788 0.1437311 -0.0860602 -0.1989165
000280 93 64 11 be ca 66 d5 bd 9c ad a5 3d d3 41 46 be
       -0.14198522 -0.10419996 0.08089754 -0.19361047
000290 b9 40 8c 3d 5e fd 24 be 22 01 5a be 5f 7b fc 3d
       0.06848282 -0.16112277 -0.21289495 0.12328219
0002a0 5f 95 e3 3d 2c 61 57 be 2e 9e 6b 3d 2a d5 91 bc
       0.11112475 -0.21033162 0.0575239 -0.01780184
0002b0 95 0f ff 3d 5c 06 57 3e c2 27 57 3c 0e f4 20 3d
       0.12454144 0.2099852 0.013132038 0.03929525
0002c0 6e cc d3 bd 97 a0 20 3e 1e 95 4a be 66 15 54 be
       -0.10341726 0.1568626 -0.19783446 -0.20711288
0002d0 2d ba 19 be bd ee 76 bd fe 6a 00 3e b7 ee ae 3d
       -0.15012427 -0.060286272 0.12540814 0.08541625
0002e0 43 92 5a bd 5e b2 35 3e fe 55 5f 3e b7 19 38 3e
       -0.053362142 0.17743823 0.21810147 0.1797856
0002f0 53 a6 95 3d 9c f4 20 be c6 de 2a 3c af 2f 2d 3e
       0.073071145 -0.15718311 0.01042909 0.16912721
000300 d5 a0 f8 3a 82 66 00 3d 73 e5 98 bc 47 3c 5b 3e
       0.001896883 0.03134776 -0.018664097 0.21409713
000310 18 11 12 be be 21 50 3e 10 7f 0a be d0 32 d2 bc
       -0.14264333 0.20325372 -0.13525033 -0.025658995
000320 1b 0d b9 bc f6 6c d5 bd f1 17 e2 3c 8c 9f 98 bd
       -0.022589257 -0.10421173 0.027599307 -0.07452306
000330 af ef b5 3d 1d ea 3c be 15 61 45 be ec 66 4a be
       0.08883607 -0.18448682 -0.19275315 -0.19765824
000340 86 e8 01 be 4e f6 4a bd 8f f2 8a bd 75 ce 34 bc
       -0.12686357 -0.0495513 -0.06784546 -0.011035551
000350 aa fe 0d be 5b 3a 17 be f5 6c 99 bd 43 43 ab 3d
       -0.13866678 -0.14768355 -0.07491485 0.083624385
000360 0d d6 43 3e 52 88 e9 3d 74 13 1b 3d 02 a5 2a be
       0.19124623 0.11402954 0.03786035 -0.16664508
000370 45 9b c9 bc f0 8b 3d be 5e c2 dc bd 63 d9 5a 3e
       -0.024610171 -0.18510413 -0.1077926 0.21371989
000380 21 0a 0a 3e 0a e9 4b 3e 9a fd 4b be 7e ef 02 3e
       0.13480426 0.19913116 -0.1992096 0.12786672
000390 de 9c 9c 3d 38 65 5b be f2 53 be bd 9b 84 bf 3d
       0.076471075 -0.2142533 -0.09293355 0.09351464
0003a0 2a 57 ce bd 75 c8 96 bd 60 9f e9 3d e4 21 03 3e
       -0.10075219 -0.07362453 0.114073515 0.12805897
0003b0 ee 51 0f be 6a 52 c9 3c a9 fa 94 3d f8 9b d5 3d
       -0.13996097 0.02457543 0.07274372 0.10430139
0003c0 06 62 41 3d 79 d4 3a bd b8 ea 22 bd 42 4b 3f 3e
       0.047212623 -0.045612786 -0.039774626 0.18681052
0003d0 d5 a0 8b bd ad d8 2f be ea 54 26 3e 4f 56 04 3e
       -0.06817786 -0.17172499 0.1624333 0.12923549
0003e0 cb 1b f0 bc 05 87 fc bc 8d d5 0a 3d 46 94 51 be
       -0.029310128 -0.030826101 0.033895064 -0.20466718
0003f0 97 4e 01 be 9c 7c 55 3e 69 7c 53 3d 00 b4 fd bb
       -0.12627636 0.20848316 0.05163232 -0.007742405

GAT_layers.1.f.bias f4 [64]
000000 ff 55 c6 bd 33 2f 1e 3d f3 22 10 3e be 66 9b bb
       -0.09684371 0.03861923 0.14075832 -0.0047424724
000010 fa cd ad bd 12 3b bc 3d 55 3a 90 bc 4f 5b c2 3d
       -0.084865525 0.09190954 -0.01760594 0.09490072
000020 31 bc 07 3e 57 ea d3 3d 68 39 c3 bd 8e 44 9c bd
       0.13255383 0.10347431 -0.09532434 -0.07630263
000030 c8 55 ba bc 13 a9 cd 3d 7d 04 3c bb da 2d 81 3d
       -0.022745982 0.10042014 -0.0028689199 0.063075736
000040 88 e3 d3 bc 89 2b 47 bd a1 23 af 3d 7f 47 10 3e
       -0.025865331 -0.048625503 0.085517175 0.14089774
000050 0c f0 98 bd 9c f4 89 3d 80 b0 f8 bc e0 e1 e7 bc
       -0.0746766 0.06736109 -0.0303576 -0.028305948
000060 7d ad ef bd 68 04 66 bd b0 da 28 bc 8c 7b f5 bd
       -0.11703012 -0.056156546 -0.010306045 -0.11986455
000070 64 66 14 bd 32 d7 68 3d 80 ff e8 bd 63 26 d1 bc
       -0.03623046 0.05684585 -0.11376858 -0.025531
000080 80 f8 03 bd bc ec fb 3d c3 da b9 bd 48 b7 ba bd
       -0.03221941 0.12301013 -0.090749286 -0.091169894
000090 90 53 10 3d 7b 56 16 bd c5 71 fd 3d 5d 15 55 3c
       0.03523594 -0.036703568 0.123752154 0.013005582
0000a0 06 fd c4 bd 6c 5c c0 bc 53 f9 67 bd 94 3c 5d bd
       -0.09618573 -0.02348157 -0.05663426 -0.05401285
0000b0 bb fb 80 bd 46 51 fa 3d 8c 18 21 3d 1c cc e4 bd
       -0.06298014 0.12222533 0.03933005 -0.11171743
0000c0 f6 23 bf 3d e0 ed a9 3d 51 b7 d7 3d 41 0e f5 3d
       0.09333031 0.08297324 0.10533012 0.11965609
0000d0 91 bb eb bc ae b5 24 bd f5 fb 43 3d 6e d3 ea 3b
       -0.028775962 -0.040212326 0.047847707 0.0071663177
0000e0 9c 84 92 bc d4 e8 25 bd fb 37 c3 bd 3a bc 97 3d
       -0.017885499 -0.040505245 -0.09532162 0.07408948
0000f0 59 2b 2a bc 91 1c 96 3d 55 99 85 bd d1 14 74 3d
       -0.010386311 0.07329667 -0.065233864 0.059590165

GAT_layers.1.w.weight f4 [1, 64]
000000 a1 c0 29 be f8 e3 16 3e 55 78 66 bd 17 6b ef 3d
       -0.16577388 0.147354 -0.0562671 0.11690348
000010 61 f2 41 be ae e3 b3 3d 80 b8 80 3e 20 3b 5e be
       -0.18940116 0.08783661 0.25140762 -0.21702242
000020 5e 48 2d 3e 70 c8 54 bd 69 9d 48 3e cd 84 fb 3d
       0.16922137 -0.051948965 0.19591297 0.12281189
000030 51 05 04 3e 9b 43 8f be 2e 8e 60 be e1 77 94 bd
       0.12892653 -0.27981266 -0.21929237 -0.072494276
000040 c3 6d 15 be 24 45 6c 3e 1f e6 82 3e 5c 53 5d 3e
       -0.14592652 0.2307325 0.25566193 0.2161383
000050 96 a0 ed bd 1e a5 00 3e a8 3e 15 3c 45 2b 42 be
       -0.11602895 0.12562987 0.009109177 -0.18961819
000060 5b 68 43 be 9f 3b ff bd 1a 04 1e 3e 0d fb 97 be
       -0.19082777 -0.12462544 0.15431252 -0.29683724
000070 6b c4 4b bd 79 82 49 bd 6f 52 78 be 7e 02 07 3d
       -0.049747866 -0.049196694 -0.24250196 0.03296136
000080 fd 16 5e bc 74 da 29 3e 4e 6e 97 be b6 a6 08 3e
       -0.0135552855 0.1658724 -0.29576343 0.13344845
000090 47 e4 0d be 6c fe be 3c 44 b9 94 3d 52 54 28 3e
       -0.13856612 0.023314677 0.07261899 0.16438416
0000a0 9b 46 aa bc f4 76 a3 bd 4b 5a 2c 3e 3f aa 37 bb
       -0.02078562 -0.07981673 0.16831319 -0.0028025059
0000b0 49 73 37 3e 5d c4 fe bd 67 f0 75 3e 1e 3e 88 be
       0.17915072 -0.12439797 0.24017487 -0.26609892
0000c0 b9 4d 26 bc 0a e9 d1 bc ea 47 86 3e 3c 15 88 be
       -0.010150366 -0.025623817 0.2622674 -0.265787
0000d0 49 0d 08 be 47 4c 02 be 7e 9d 8e 3e c2 92 97 be
       -0.13286318 -0.1272441 0.27854532 -0.29604155
0000e0 f6 91 8f 3e d5 fb 0b be a9 ff 8d 3e 70 96 94 be
       0.28041047 -0.13670285 0.27734116 -0.29021025
0000f0 23 b0 a9 3c 33 c0 3c 3d 4f 7f 38 3d ec 25 6d 3e
       0.020713871 0.046081733 0.045043286 0.23158997

GAT_layers.2.f.weight f4 [64, 128]
000000 13 69 1f 3d 5d 9d 21 3d 1d d9 f9 bd 0b b3 b1 bb
       0.038918566 0.039456714 -0.12199614 -0.005422955
000010 a4 70 b7 bd 69 a4 23 3e 71 53 fa bd 92 26 f2 bd
       -0.08957031 0.15980686 -0.122229464 -0.11823763
000020 c2 47 da bd 1f df 0c 3d 03 89 1f 3e 83 72 c5 3c
       -0.10658218 0.034392472 0.1557961 0.024102455
000030 80 29 f8 bd 42 14 6f bd 13 84 20 be f7 cd 57 3d
       -0.121172905 -0.05836893 -0.15675382 0.052686658
000040 a3 12 c0 3d f7 3a 0e 3e 2c 8b ef 3d 35 3d a2 bc
       0.09378555 0.13889681 0.11696467 -0.019804576
000050 4d ca ed 3d 93 78 51 3c 61 32 d7 bd 5a 19 8c bd
       0.116108514 0.012785095 -0.10507656 -0.06840773
000060 29 02 90 bd c5 0c 03 3e c8 61 9b bd 0a ee 0a be
       -0.07031662 0.1279784 -0.0758701 -0.13567367
000070 21 00 e4 bd 62 ba 88 bd 82 89 25 3e d5 49 23 3d
       -0.11132837 -0.06676175 0.16165736 0.039865334
000080 6a 9f 82 3d 34 62 df bd 4b 1c 36 3d 3a fd c3 bd
       0.06378062 -0.10907403 0.044460576 -0.095697835
000090 43 28 df 3c fc 83 10 be 88 87 32 3e 2a 64 a3 bd
       0.027240878 -0.14112848 0.17434514 -0.07978089
0000a0 eb 67 2b be 82 21 0e be 7c 0a b3 3d 1f 7b 14 bd
       -0.1673886 -0.1387997 0.08742234 -0.03625023
0000b0 ac 1a a4 3d 11 25 fd 3d 1d 6f 5e 3c 70 37 75 3d
       0.080129 0.123605855 0.013576296 0.059867322
0000c0 ca ab 8e 3d 24 65 2f be d3 1f 36 bd 45 6f 89 bd
       0.0696636 -0.17128426 -0.044463944 -0.06710676
0000d0 c3 3d 0c 3e 32 b1 62 3a 14 24 c9 bd 16 4c 94 3d
       0.13695435 0.000864762 -0.098213345 0.07241075
0000e0 1d 8a 2e 3e 47 dc 84 3d d6 51 bf bd ac 78 d2 bd
       0.17044874 0.06487327 -0.09341781 -0.102769226
0000f0 9e 97 ba 3d 52 14 e5 bc 67 41 be bd 26 8e ff 3d
       0.0911095 -0.027963791 -0.09289818 0.124782845
000100 2c 91 01 3e bf cb e5 bd 40 9c 30 3e 01 82 b5 3d
       0.12653035 -0.11220502 0.17247105 0.08862687
000110 c6 92 11 be ba f1 12 bd c8 d0 c2 bd 13 aa ac 3c
       -0.14216146 -0.03587506 -0.09512478 0.021077191
000120 0a ea c4 bd f7 2e 0b be 03 18 82 3d cf 7c 96 3d
       -0.09614952 -0.13592134 0.06352236 0.07348024
000130 23 31 04 3d ad c2 e0 bc 6c a3 04 3e 80 38 0c 3e
       0.032273423 -0.027436579 0.12952965 0.13693428
000140 27 b4 ee 3d b5 b6 98 bd df 19 01 bd 92 57 bf bd
       0.11655455 -0.074567236 -0.031518813 -0.093428746
000150 71 10 f5 bd 31 b6 21 bd d0 d7 69 bd 66 bd b4 3c
       -0.119660266 -0.039480392 -0.05709058 0.022062968
000160 c2 cf b2 bc 79 f7 05 3d 29 bc 45 3d df aa 68 bd
       -0.021827582 0.03270671 0.048275147 -0.05680358
000170 94 ab 1d 3e 23 39 60 bd f8 e6 93 bb e9 03 ef 3d
       0.15397483 -0.05474199 -0.0045136176 0.11670668
000180 24 1e a5 bd 75 7e e1 3d e6 62 b3 3c a5 da 25 bd
       -0.080623895 0.11010448 0.021897744 -0.04049172
000190 c3 7c f8 3d 45 c8 d8 bd 03 0d ae 3b 6f 7c a6 bd
       0.121331714 -0.105850734 0.0053116097 -0.081292026
0001a0 50 0e 1d 3e ac ad 1d 3e df 2e 31 be 50 bc f6 bd
       0.15337491 0.15398282 -0.17303036 -0.120476365
0001b0 e3 36 6e bd 9c be 93 bd 5b 51 90 bd 66 f6 e5 3d
       -0.058157813 -0.0721409 -0.07046767 0.112286374
0001c0 36 11 f1 3c 7f 83 23 3d bf 65 f6 bd 8c 5c c3 3d
       0.029427152 0.039920326 -0.12031125 0.09539136
0001d0 1b a5 a0 3d 5d fb e6 3c 21 63 a0 bd 2c 12 62 bd
       0.07843991 0.028196031 -0.07831407 -0.05519311
0001e0 4b 58 a0 3d 33 63 c9 3c 2c 1c 2a bd 2b 47 28 3e
       0.078293405 0.024583435 -0.041530773 0.16433398
0001f0 b6 08 81 3d b8 3b 31 be 0c 9e c7 bc 52 93 00 3d
       0.063004896 -0.17307937 -0.024367355 0.031390496
000200 93 9c 56 3d 96 a1 a3 bc dd c6 17 be 27 87 a9 bd
       0.052395415 -0.019974511 -0.14821954 -0.082777314
000210 cc bb 8c bc 2a 23 af bd 9f da ee 3d 22 ce 87 3d
       -0.017179392 -0.08551629 0.116627924 0.066311136
000220 45 e0 af bc 39 8d 3a 3c 76 de 2f 3d 6c 76 21 be
       -0.021469245 0.011386209 0.042936765 -0.1576783
000230 7b e7 b2 bc f3 d4 f8 bd fd ad 2e 3e 82 bf 4b bc
       -0.021838894 -0.12149992 0.17058559 -0.012435796
000240 e6 43 62 bc 4a 0c 18 be 4b 3f 8f 3d fc 86 d5 3d
       -0.013810134 -0.14848438 0.06994494 0.10426137
000250 33 99 5a 3c 5e 3d a4 3d e8 64 f4 bd 2d ec fd bd
       0.01334219 0.08019517 -0.11933309 -0.123985626
000260 c6 7b 81 3b 03 f1 87 3c 74 d9 64 bd 4b 24 12 3e
       0.0039515225 0.016594416 -0.055871442 0.14271657
000270 1a 87 24 3d 01 83 27 3e 01 22 04 3e 53 4d 0e be
       0.040167905 0.16358568 0.12903596 -0.13896684
000280 07 e6 b1 3d 32 5c 1c be 74 57 90 3a 1d df 5f bd
       0.08686452 -0.15269545 0.0011012391 -0.054656137
000290 a7 7d c4 3d 4c 13 a5 3d 26 4e 27 be 38 79 9e bd
       0.09594279 0.08060321 -0.16338405 -0.077379644
0002a0 ce ee 3d bd 2e 25 d9 bd fc 99 a6 39 84 22 bd bd
       -0.04637032 -0.106027946 0.00031776715 -0.09235099
0002b0 ff 2c 85 3c a0 10 18 be 71 bf fc bd 40 80 2c be
       0.016256807 -0.14850092 -0.12341202 -0.16845798
0002c0 17 03 18 be 45 3e 17 be 1d 3f 51 3c bc 9b ea bd
       -0.14844929 -0.14769848 0.012771395 -0.11455485
0002d0 e3 78 c9 bd 6a a9 d6 3d ff e9 8b bd 23 45 1b 3d
       -0.098375104 0.10481532 -0.068317406 0.03790773
0002e0 28 49 2e 3e f7 65 d3 3d aa 00 12 bc 2a 42 a9 bb
       0.17020094 0.103221826 -0.008911291 -0.005165358
0002f0 76 32 15 3e 70 e4 b5 bd 3c 61 08 3d 3f 23 e8 bd
       0.1457003 -0.088814616 0.033295855 -0.11334848
000300 5b 60 93 3c 87 a5 89 ba d6 00 e3 3d 64 60 34 3d
       0.017990282 -0.0010501602 0.11084144 0.044037238
000310 04 f2 15 be 4f 88 24 bd d8 7b 0e 3e 22 95 28 be
       -0.14643103 -0.040169057 0.1391443 -0.1646314
000320 09 ef 0e bd dc 4e b6 3d 03 4d 1b 3d 69 cc b0 3d
       -0.03489593 0.0890176 0.03791524 0.08632738
000330 96 b2 be 3d 69 db d7 bd 7b ab 9f 3d 82 fb db bd
       0.09311406 -0.10539896 0.07796379 -0.10741331
000340 d8 7b 3c 3c 58 2d 75 bd 6f 85 9a bd ad da 26 3e
       0.011504136 -0.059857696 -0.07544982 0.16294356
000350 85 df 8e bd ca 14 b6 3d a4 92 c1 3d 5e 5f e2 3d
       -0.06976227 0.08890684 0.094517976 0.11053346
000360 4c f1 d6 3d 05 16 72 3d e9 5a 1f bd 3d 5d a5 3c
       0.104952425 0.05910303 -0.038905058 0.020186061
000370 48 7d 2e be 68 a1 87 3d 20 2f 25 3e 37 1b 98 3d
       -0.17039979 0.06622583 0.16131258 0.07427066
000380 30 a9 94 3d 5b 54 68 3d fb 5a 74 3d 35 bb e7 bc
       0.072588325 0.056721073 0.05965708 -0.02828751
000390 a8 e4 81 3c 9d 78 06 3e 40 62 17 3d 39 cc 87 3c
       0.015856102 0.13131948 0.036958933 0.016576873
0003a0 49 5f 82 3d 7a ad 51 bd 68 ff bb 3d 08 a2 a1 bd
       0.063658305 -0.05119083 0.09179574 -0.07892233
0003b0 7a b9 79 bd 0f 3a eb 3d 7f 42 a9 3d fc 6b af bd
       -0.0609679 0.11485683 0.08264636 -0.08565518
0003c0 eb 04 ca bd ea 0d 1f bd 1d de eb bd 08 99 be bd
       -0.09864219 -0.03883163 -0.11516974 -0.09306532
0003d0 b5 84 28 be 27 7a 4e 3d 6a b5 3e 3c f9 a5 60 bd
       -0.16456874 0.050409462 0.011639932 -0.054845784
0003e0 c8 3e 16 be bc f0 96 bb 95 63 ac bd 5a 02 0a bb
       -0.14672387 -0.0046063345 -0.08417431 -0.002105853
0003f0 de b9 b1 bc 5e 37 9a bc f2 fa d2 3d e2 91 16 3e
       -0.021695074 -0.01882523 0.1030177 0.14704087

GAT_layers.2.f.bias f4 [64]
000000 82 b5 ba bb 70 a2 31 3c b2 c9 a2 3d 6c 70 68 ba
       -0.005697907 0.010841951 0.079486266 -0.000886685
000010 89 81 a2 3d 29 7a 3d 3c d4 7e b9 bd 66 42 91 bd
       0.07934863 0.01156477 -0.09057394 -0.070927426
000020 3c cf 7c bd dc 33 01 bd bd 9f 56 3b 95 2c c7 3d
       -0.06172107 -0.031543598 0.003274902 0.097253
000030 e7 b5 67 3d e6 d1 79 3d 5d 94 39 3d 16 a7 93 bd
       0.05656996 0.06099119 0.045307506 -0.072096035
000040 7b 40 05 3d 28 f4 b8 bc ed 82 3a 3d c3 fc 82 3b
       0.032532196 -0.02257736 0.045535017 0.0039974167
000050 c1 b9 02 3b fc f7 97 3d a7 07 0e bd f6 3d cb 3d
       0.0019947144 0.07420346 -0.034675267 0.099239275
000060 c0 2b da 3c aa 9a a3 bd 18 ae b5 3d a3 5f a2 3b
       0.02663219 -0.07988484 0.088710964 0.0049552484
000070 71 ab 96 bc e4 f9 14 3d c0 28 af 3c a4 3b e7 bc
       -0.018392297 0.036371127 0.021381736 -0.028226681
000080 37 2b e1 3c df 22 74 bc 77 3c 1a bd d4 dc 9e bd
       0.027486427 -0.014900892 -0.03765532 -0.07756963
000090 6c 90 0b bd f2 1e 16 bc c2 49 ab 3d d7 9c a2 bd
       -0.03407328 -0.009162651 0.083636776 -0.07940071
0000a0 9f d0 77 3d 6a b7 fa bc 4c 02 ad 3d 1f 30 89 3d
       0.06050169 -0.030605037 0.08447704 0.066986315
0000b0 ce 39 94 3c 6d 89 ab 3d f7 e7 14 3b 90 1f 38 bd
       0.01809397 0.08375821 0.002272127 -0.044951975
0000c0 d3 c4 dc 3d bc 72 44 bd fa 56 90 3d d9 2e 98 bd
       0.10779729 -0.04796098 0.070478395 -0.074308105
0000d0 58 26 6e bd a6 c8 9c 3d 27 10 1c bd 14 22 a6 bd
       -0.058142036 0.07655458 -0.03810134 -0.08111969
0000e0 c6 6c 2a 3d 54 80 50 3d c6 9e 8c bc 2a 25 99 3d
       0.04160764 0.050903633 -0.017165553 0.074777916
0000f0 36 94 eb ba 9a 11 96 3d 58 bd e4 bb 8a f3 09 3d
       -0.0017973247 0.07327576 -0.0069805793 0.033679523

GAT_layers.2.w.weight f4 [1, 128]
000000 7a 58 f2 3d 28 d9 e4 bd 73 9e cc bd 69 59 4a 3e
       0.11833282 -0.11174232 -0.09991159 0.1976067
000010 a9 50 32 bd 8e b7 0a be 2f 68 1e 3d da 34 d4 3d
       -0.043533955 -0.13546583 0.038673576 0.10361643
000020 79 f0 4a 3a e4 74 2f bd 55 76 a5 bd a8 1e e3 3d
       0.00077415217 -0.042836085 -0.08079211 0.110898316
000030 01 1b 54 be 34 0c e7 3a 5b 03 07 3e 23 8a 01 3e
       -0.20713426 0.0017627538 0.13184874 0.12650351
000040 79 4e 06 3d ce 39 89 3c 09 79 71 bd 4c d2 f2 bd
       0.03278968 0.016751196 -0.05895332 -0.11856517
000050 f3 eb ea 3d b7 e9 7c bb c7 56 92 3d 56 d5 56 3e
       0.11470785 -0.0038591453 0.07145458 0.20979819
000060 20 dc 9e 3c ee 45 39 be b8 c6 01 be 2a 88 66 bc
       0.019392073 -0.18093082 -0.12673461 -0.01407055
000070 8e 49 2a be 38 dc 9f 3d 7f 8b 4d be aa c4 3c 3e
       -0.16629621 0.07805675 -0.20072745 0.18434396
000080 0a 10 4b be 51 96 3f 3e bd ff c5 bd 14 86 89 3d
       -0.19830337 0.18709685 -0.09667919 0.067150265
000090 df 17 3e bc 81 c4 4e 3e 9d 08 23 3e a3 fa 0d 3e
       -0.011602371 0.20192148 0.15921254 0.13865142
0000a0 9a 8f de 3d d6 8c 1b 3e 1d 79 14 3e 10 cd bc 3d
       0.108672336 0.15190443 0.14499326 0.092188
0000b0 16 1a 33 3e ec 7a e6 bd 07 bc 29 bd be 08 1d bc
       0.1749042 -0.11253914 -0.041439082 -0.009584604
0000c0 7c 36 e0 3d 87 fc 3c bd f0 1d ea 3d b8 01 6f bc
       0.10947892 -0.046139266 0.114314914 -0.014587812
0000d0 81 fd 15 3e 0b a0 0f 3c ff bf 44 3c 6a d4 fb 39
       0.14647485 0.008766185 0.012008666 0.00048032711
0000e0 3f db 19 be 19 d6 4e 3e f8 0f 78 3d 6f 9b b5 3b
       -0.15025042 0.2019886 0.060562104 0.005542211
0000f0 86 68 16 3e 9f 16 b7 3d 8f 4c a3 bd 77 c4 53 3e
       0.1468831 0.089398615 -0.07973587 0.20680414
000100 ab 09 3f 3e 68 1a d1 3d 22 b7 02 be 31 d8 54 be
       0.18656032 0.10210115 -0.12765172 -0.20785595
000110 96 65 8b 3d 68 b6 22 3e 55 3c 95 3c f2 d7 44 3e
       0.06806485 0.15889895 0.018217245 0.19223002
000120 0f ac 59 3d 98 67 2a 3e e9 b6 02 3e 04 5e be 3d
       0.053142603 0.1664108 0.12765087 0.09295276
000130 a9 da b2 bb fe ed 18 3c 45 b0 49 bc fc 0e e1 bc
       -0.005458195 0.0093340855 -0.012310092 -0.027472965
000140 e5 4f 1d be 9f f5 ba 3d ce 84 c9 3d b7 4d 23 3e
       -0.15362509 0.0912888 0.098397836 0.15947615
000150 e7 c0 80 3d 23 37 d7 bd c2 e4 e5 3d 88 cf 91 3d
       0.06286793 -0.10508563 0.11225273 0.071196616
000160 7e 9c 4b be 57 26 53 be a0 65 fa 3c 27 a0 90 bd
       -0.19883916 -0.20620094 0.030566037 -0.07061797
000170 b0 5a 23 be 0b 1d 4f 3e a5 25 5b 3d d5 14 60 3a
       -0.15952563 0.20225923 0.053502697 0.0008548026
000180 a2 51 fb 3d de 12 a8 bd be 7c 40 be 1e 71 8c bc
       0.122714296 -0.08206724 -0.18797585 -0.017143782
000190 cb 4b 28 3d 05 8e 89 3d 75 9e 48 3e 92 71 41 be
       0.041087907 0.06716541 0.19591697 -0.1889098
0001a0 e6 6d 15 be 57 a8 38 be fb 9e a7 3c 97 30 b0 3d
       -0.14592704 -0.18032967 0.02046155 0.08603018
0001b0 84 19 85 bd 90 14 35 3e 17 a1 a0 bd be a9 25 3e
       -0.06499007 0.17683625 -0.078432254 0.16178033
0001c0 9d 54 a3 bd 43 e7 d8 3c 31 f5 88 bd 24 3b 75 bd
       -0.07975123 0.026477462 -0.066873915 -0.059870854
0001d0 37 fb 82 3d 09 1b 28 bd 89 18 19 3d 11 d0 04 be
       0.06395572 -0.041041408 0.037376914 -0.12969996
0001e0 0f a5 d5 bd bf f5 11 be 1f 85 91 3d 21 cc a8 3d
       -0.10431873 -0.14253901 0.07105469 0.082420595
0001f0 c9 a6 e6 bd 74 25 d7 3d 4b e8 cc bd 1e da 04 3e
       -0.112622805 0.105051905 -0.10005244 0.1297383

MLP_layers.0.weight f4 [32, 64]
000000 0c 59 3f 3d ed ac 40 3a 37 e3 ce 3c 56 bd cc 3d
       0.04671578 0.00073499867 0.025254829 0.099970505
000010 66 ae 8a 3c c0 9f 9b 3a d6 8f 8d 3d 6c b1 4b bd
       0.016928863 0.0011873171 0.069122 -0.04972975
000020 74 d3 13 bd 4d dc 94 bd 8a 34 97 bd 3a 77 47 bc
       -0.03609033 -0.072685815 -0.07383068 -0.012174422
000030 24 91 c2 bd 15 f9 7c bd 95 84 ba bd d4 70 d6 3d
       -0.095003396 -0.06176098 -0.09107319 0.10470739
000040 41 0f c4 bd 8c 62 36 3d 6c f7 11 bd 39 02 b4 bd
       -0.09573222 0.044527575 -0.03563635 -0.087894864
000050 13 26 5f bd 53 1a dc bb ba 68 c6 3d 87 20 f1 3d
       -0.05447967 -0.0067170053 0.09687944 0.11773782
000060 00 0e b7 39 ca 45 ec bd a8 42 b7 bd cc 23 bb 3d
       0.0003491491 -0.11536749 -0.089482605 0.09137687
000070 1b 51 e4 3d d2 15 f2 bb 99 1e c9 bc 84 0d 4c 3d
       0.11148282 -0.007387855 -0.024550723 0.049817577
000080 fd 41 6c bd 3e ef 81 bd 2c 6d c2 bd 61 18 97 3d
       -0.05768012 -0.0634446 -0.09493479 0.07377697
000090 ff 2a 1e bd b4 ab 0f bd 34 3e c4 bd c9 ed 4c 3d
       -0.038615223 -0.03507586 -0.09582177 0.050031457
0000a0 57 8d 89 bc e0 08 ec 3d 3a a3 b7 bc 03 58 6d bd
       -0.016791029 0.1152513 -0.0224167 -0.057945263
0000b0 f0 ca ad bd f3 4e ec 3d b6 f4 a5 bd 35 16 e2 3d
       -0.08485973 0.11538496 -0.081033155 0.11039392
0000c0 a5 2b 0f bd 9b ab 02 3e 6f 7f 15 3d ff b8 de bd
       -0.034953732 0.12760775 0.036498483 -0.10875129
0000d0 68 a6 45 3c 50 c8 03 3d 88 f6 9d bd 15 aa dd 3d
       0.0120636 0.032173455 -0.07713038 0.10823456
0000e0 82 45 1f bd f6 2e ad bd 34 a1 79 3d 60 24 9f bd
       -0.038884647 -0.08456223 0.06094475 -0.0777061
0000f0 20 15 f9 bc ce 58 29 bc 15 ae a8 bd f9 4c 6d 3b
       -0.030405581 -0.010336114 -0.082363285 0.003620921
000100 5a bb ad 3d e4 1b 48 3d 86 27 51 3d 9e 09 5b bd
       0.08483 0.048854724 0.051063083 -0.05347597
000110 41 df 77 bd 74 f1 c7 bd e4 46 80 bd 74 f0 e6 bd
       -0.060515646 -0.097628504 -0.06263521 -0.112763315
000120 55 c2 73 bd 7c 49 01 3e f3 a7 e2 3d eb b5 08 bc
       -0.0595115 0.12625688 0.1106719 -0.008344154
000130 42 de a7 bd 6d 10 25 3d 1d 70 00 3b 22 e6 5f 3d
       -0.08196689 0.040298868 0.0019598075 0.05466283
000140 14 ab 25 bd 40 85 8f 3b 79 69 a4 3d ae 97 4d bd
       -0.040446356 0.0043798983 0.0802793 -0.05019348
000150 6c d3 c7 3d b1 1a 8e bd e4 8a 5f 3d 2d 18 cb bb
       0.097571224 -0.06938685 0.054575816 -0.0061979503
000160 dd a1 66 bd 6d ef 4e 3d d2 34 b7 3d 13 8b 9b 3d
       -0.05630671 0.050521303 0.089456216 0.07594886
000170 6d 6a 08 bd 17 29 ec 3d 81 85 85 bc 8c c9 43 3d
       -0.03330462 0.11531275 -0.016299011 0.047799632
000180 03 f8 d0 bd 4e b6 df 3d d8 e9 58 bd c6 fd cc bd
       -0.102035545 0.10923444 -0.052957386 -0.10009341
000190 f9 75 ef 3d 7c b5 1f 3d bc 34 2d 3b 6f 90 eb bc
       0.116924234 0.038991436 0.0026429137 -0.028755395
0001a0 bf 2a 8f 3d 04 47 7f bd 93 27 03 3d 44 ff 5b 3c
       0.06990575 -0.062323585 0.032020163 0.013427559
0001b0 a0 6f 92 3d 0c 2b 98 bd 9f c2 fc 3d 3b 02 f6 3d
       0.07150197 -0.074300855 0.123418085 0.12012144
0001c0 e7 4e a7 3d 3d 81 cf 3a 4f 09 88 3c 8a 03 16 bd
       0.08169346 0.0015831363 0.016606001 -0.03662447
0001d0 bd 78 88 bc 6d 2c 29 bc e6 99 88 3d c1 aa b9 3d
       -0.016659135 -0.010325533 0.06669979 0.09065772
0001e0 d3 f5 f7 3d 8f 38 9e 3d 40 c0 5f bd 82 98 46 bd
       0.12107434 0.077256314 -0.054626703 -0.048485287
0001f0 e4 9e 17 bd 61 36 11 3e 2b 7e ac 3b ba 2b ba bd
       -0.037016764 0.141809 0.005264064 -0.090903714
000200 a0 a0 40 3c 80 45 11 bb 60 6c 7a bd 58 63 58 bd
       0.011757046 -0.002216667 -0.06113851 -0.052829117
000210 4a 3d 97 bd 08 51 69 bd a8 ea 8d bc 0e 57 f8 bd
       -0.07384737 -0.056962043 -0.017323807 -0.12125979
000220 c8 1f 09 bd 26 0b bf 3d c2 33 86 3d c2 a1 c3 3d
       -0.033477575 0.09328298 0.06552841 0.09552337
000230 9c ac cf 3d ca b3 e7 bd b8 c7 9c bd 8c ca 3f bd
       0.101403445 -0.11313589 -0.07655281 -0.046824023
000240 d0 c9 6d 3d 60 71 be 3d a2 2b b0 bd f0 47 a5 bd
       0.05805379 0.09298968 -0.08602072 -0.080703616
000250 00 15 dc 3d 58 7f b9 bd 04 20 c6 3d b0 fb 43 bc
       0.10746193 -0.09057492 0.09674075 -0.011961862
000260 b0 23 c3 bc 16 2b 8f bd 58 f6 35 3d 00 1f 0f 3a
       -0.023820728 -0.0699064 0.044424385 0.00054596364
000270 9a cd 9a bd 1c 7e 4e bd e0 29 c7 bc e0 88 0d bd
       -0.07558747 -0.050413236 -0.02431196 -0.034554362
000280 4e d8 fc 3d a0 c9 fe bc e8 63 32 3d 00 e7 bb 3d
       0.12345944 -0.031102002 0.04355231 0.09174919
000290 c4 cb 04 bd 7e 75 a9 bd 80 f0 58 bc a4 6f a5 3d
       -0.03242089 -0.08274363 -0.013240933 0.080779344
0002a0 3e ec be bd ce e4 a3 bd 00 05 13 3d 26 4d f0 3d
       -0.09322403 -0.080026254 0.03589344 0.11733465
0002b0 be be c1 bd 04 cd 09 3d e0 eb 84 bc 70 6c d2 bd
       -0.09460209 0.033642784 -0.016225755 -0.10274589
0002c0 48 e9 f2 bd d0 0a 58 bc ee 9b d9 bd b6 72 e9 bd
       -0.11860901 -0.013186172 -0.10625444 -0.113988325
0002d0 30 6c 14 bc e8 85 4d 3d b8 d4 70 3d 34 1f 56 bd
       -0.009058997 0.05017653 0.058796614 -0.05227585
0002e0 d4 5b 8a 3d 64 b3 54 3d 60 dd 63 bd cc ec 36 3d
       0.06755796 0.051928893 -0.05563104 0.04465942
0002f0 5c e7 a1 3d 80 9d d3 3b 40 05 d0 bd 58 5f 28 3d
       0.079054564 0.0064579844 -0.10157251 0.041106552
000300 27 aa 54 bd d3 0f 4f bd 9e 8f fa 3d b0 6f d9 3c
       -0.051920082 -0.0505522 0.12234424 0.026542515
000310 bc b5 f7 3b 61 d1 20 bd a5 95 4e 3d 1c b5 1b 3d
       0.007559506 -0.03926218 0.05043568 0.038014516
000320 4b 1c 9a 3c 1b 2c 55 3d be 2a c4 bd 38 fb 4b bc
       0.01881232 0.052044015 -0.09578465 -0.012450032
000330 1a 83 f0 bc 48 eb b5 bd 4a 77 03 3e b9 71 91 bd
       -0.02935939 -0.08882767 0.12838474 -0.07101769
000340 16 57 12 3d 80 90 49 bb 69 75 99 bb d9 70 51 bd
       0.035727583 -0.0030756295 -0.004683186 -0.05113301
000350 51 f2 2b bc a3 7a 0c 3e 74 6b 81 bd 91 e3 47 3c
       -0.010494784 0.13718657 -0.06319323 0.012200252
000360 2a 09 97 3d 54 05 a0 3d 39 34 b2 3d 69 72 20 bd
       0.07374795 0.07813516 0.08701367 -0.03917161
000370 fc 66 d8 3d b5 22 cc bc 38 57 8e bc 5c 9b 4a bd
       0.10566518 -0.024918893 -0.017375574 -0.04946457
000380 2b 12 87 3d 82 45 c7 3d c4 87 20 bd 1f 21 14 bd
       0.06595262 0.097300544 -0.039191976 -0.0361644
000390 6a 67 4d 3d 28 dc 9a 3c d4 a1 fc 3d e2 4a 56 bd
       0.05014745 0.018903807 0.12335554 -0.052317508
0003a0 b4 8d 87 3d 12 ca d7 bd f9 42 a9 3d 31 26 0c 3e
       0.066188246 -0.10536589 0.08264727 0.13686444
0003b0 cf 7d ef bd b3 c0 17 bd 2e 09 29 3c 03 3e 21 bd
       -0.11693918 -0.037049007 0.01031713 -0.03936578
0003c0 85 64 be 3d 5b 43 05 3d 0c 4b b6 3d 48 95 ab bd
       0.09296516 0.03253494 0.08901033 -0.083780825
0003d0 4a 4d c2 bd be 27 a9 3d bc 40 50 3d e0 6d 82 3b
       -0.09487398 0.08259533 0.050842986 0.0039803833
0003e0 2e 43 66 bc 0e b3 47 bd 71 00 dc bd 78 da f6 3d
       -0.014054103 -0.048754744 -0.10742272 0.12053388
0003f0 aa 5d a2 3b a8 a3 bd 3d 06 f7 2e bd 74 bd 93 bd
       0.0049550133 0.092597306 -0.04271605 -0.0721387

MLP_layers.0.bias f4 [32]
000000 7e ae ee 3c a0 1c ee 3d 90 0c 25 3c 8f 4d c3 bd
       0.029135939 0.116265535 0.010073796 -0.095362775
000010 c9 c7 6a 3d 87 e8 eb 3d 56 cd ed 3c 9f e6 dd 3d
       0.057319436 0.115189604 0.029028576 0.10835003
000020 0e a4 d7 bd 79 fd bb bd cd 8b 98 3c b9 bb 58 bd
       -0.10529338 -0.091792054 0.01862135 -0.0529134
000030 8f e4 98 bd 70 e5 e5 3d 20 ee 4e bd d8 ec a4 bd
       -0.07465469 0.11225402 -0.050520062 -0.08052987
000040 9d ea d2 3d dc a0 b3 bd 7c 55 11 bd f7 e8 00 3e
       0.10298655 -0.08770916 -0.035481915 0.12588869
000050 06 a8 c3 bd 3d b7 84 bc 00 2c 01 3c a8 52 15 bc
       -0.09553532 -0.016200656 0.007884026 -0.009113945
000060 08 7a 19 3d a8 27 dd 3d 49 9d 7c bc 94 88 af bd
       0.037469894 0.107985795 -0.015418359 -0.08570972
000070 01 9f 07 be 5a 61 1d 3d 96 98 f1 bd 72 d0 9a bc
       -0.13244249 0.03842292 -0.117966816 -0.018898223

MLP_layers.1.weight f4 [1, 32]
000000 16 36 33 3d 15 f2 1e 3e 22 83 ff bd 06 f8 37 3e
       0.043752752 0.15522034 -0.124761835 0.17965707
000010 e0 e8 ed bd d0 76 39 3e 0b 89 27 3e 6a 6a 1e be
       -0.11616683 0.1811173 0.16360871 -0.15470281
000020 f9 83 51 bd 23 c2 3c bd e2 91 a9 3c db 99 a6 ba
       -0.05115125 -0.04608358 0.020699445 -0.0012710647
000030 1f 65 f6 bd 66 8d ad 3d aa 08 ae bd bd c1 26 3e
       -0.12031006 0.08474235 -0.08497746 0.16284843
000040 9b 5d 20 3e f9 36 b6 bd 33 44 c4 3d e6 97 39 3e
       0.15660708 -0.08897204 0.095833205 0.18124351
000050 e1 d6 2e be c6 e8 e4 bd 93 ab 93 bd fa c0 15 be
       -0.17074157 -0.111772105 -0.072104596 -0.14624396
000060 85 2e 96 3d b0 b8 04 be 2d ea af bd 9a 79 d5 3d
       0.07333092 -0.12961078 -0.08589587 0.10423584
000070 7d 04 25 3a f0 45 6b bd c2 ed e9 3d 7b e5 d0 bd
       0.00062949193 -0.057439744 0.11422302 -0.1020002
