SLIC_GAT/best1.pt (torch, 74869 bytes, 12 tensors)

GAT_layers.0.f.weight f4 [32, 82]
000000 9c e2 4e be 84 d1 d6 3d 06 8c 72 3c f7 21 9d 3c
       -0.20203632 0.10489181 0.014803892 0.019181235
000010 15 53 8e 3d e1 a2 9b 3a eb 16 cb 3d 32 6c 36 3e
       0.069494404 0.0011874103 0.09916481 0.1781471
000020 a2 8f ef bd 07 46 d3 bd 6f ca 01 be b9 0e 43 bd
       -0.11697318 -0.10316091 -0.12674879 -0.047621462
000030 ef 03 02 3e 5d bf d7 bc 10 04 cd bc 26 f8 17 3e
       0.12696813 -0.026336366 -0.025026351 0.14840755
000040 ce 50 0c be 84 99 be bb 8b be 3b be 15 d9 57 be
       -0.137027 -0.0058166403 -0.18334405 -0.21078904
000050 45 3b 51 bd a4 01 14 be f7 57 61 ba 0d b0 fd 3d
       -0.051081914 -0.14453751 -0.00085961766 0.12387095
000060 94 e7 0f 3d e8 4e 5a 3e 2a 97 3a be cb 77 18 bd
       0.03513296 0.21319163 -0.18221727 -0.03722362
000070 ea 2b 43 3e 0c 72 46 be ce 7b 4f bd f6 50 5e be
       0.1905972 -0.19379443 -0.05065518 -0.21710572
000080 24 61 08 3c 2e 37 d0 bd d7 31 fe 3d 64 3e b1 3b
       0.008323941 -0.10166775 0.1241185 0.005409049
000090 7a 98 01 3e 19 fa 71 3d 7c d0 1c 3e a8 91 0b 3e
       0.12655821 0.059076402 0.15313905 0.13629782
0000a0 95 3f c8 3d b5 bf 2a 3e a6 74 aa bc 35 f6 57 3e
       0.09777752 0.16674693 -0.020807575 0.21090014
0000b0 5a 40 56 3e 3a f3 35 3e 70 db 45 3e 06 3f 17 3c
       0.20922986 0.17768565 0.1932199 0.009231335
0000c0 6e 1d 42 be 50 85 77 3d 49 11 e4 3d 0e 93 9e 3d
       -0.18956539 0.06042987 0.111361094 0.07742892
0000d0 fb 40 2e be 27 ea d5 3d c2 1d 46 3e 18 58 dc bd
       -0.17016976 0.10445052 0.19347289 -0.1075899
0000e0 41 3e d5 3d 51 fd 18 bc fb 8c ea 3d c1 ca 63 be
       0.104122646 -0.009337739 0.11452671 -0.22245313
0000f0 3e f4 5e 3e 7c 4f 1e bd 93 4a 70 bd ff 39 a1 3c
       0.21772859 -0.03865002 -0.05866487 0.019680975
000100 dd 98 b8 3c b1 3c 38 bd 52 00 61 be 94 0a 6b be
       0.022533828 -0.044979755 -0.21972778 -0.22953254
000110 17 f4 56 3e d1 1a e2 bd 6d 26 5f be b4 b3 49 be
       0.2099155 -0.11040271 -0.21792002 -0.19697458
000120 9f d9 39 be 39 8b 3c be 65 ab 04 be 3b 58 12 be
       -0.18149422 -0.18412484 -0.12956007 -0.1429147
000130 3a c3 62 be 8b 3d 6f bd 0e 93 4f be 30 6b 22 3e
       -0.22144786 -0.0584083 -0.2027094 0.15861201
000140 a4 c8 60 be 4f 2c 2b 3e db 87 ba 3d 5d 03 36 3e
       -0.21951538 0.16716121 0.091079436 0.1777472
000150 98 82 62 be 9e de 81 bc e1 80 45 3e f8 ea 0d be
       -0.2212013 -0.015853222 0.19287445 -0.13859165
000160 03 7a 22 3e ff 50 8d 3d 39 73 23 3e 89 72 b0 3d
       0.15866856 0.069002144 0.15961923 0.08615596
000170 79 b5 30 be cc ae 23 3e e8 9b 5a be d7 80 4c 3c
       -0.17256726 0.15984648 -0.21348536 0.01248189
000180 ab 38 e2 3d ea 30 a3 bd 49 51 5a be ef 2f ee bd
       0.11045965 -0.07968314 -0.2132007 -0.11630236
000190 02 82 31 3e 83 11 1e 3e 21 a9 56 3e 73 50 1b 3e
       0.1733475 0.15436368 0.20962955 0.15167408
0001a0 80 81 5c be 9d dc 49 3d 9e cb 1c 3d 47 42 d6 3d
       -0.21533775 0.04928266 0.038280122 0.1046186
0001b0 b2 0e 6a be f1 73 23 3e e9 84 7b bd 03 0f 4e be
       -0.22857168 0.15962197 -0.06140605 -0.20122914
0001c0 95 bc 86 3d aa 0e 3c be 06 92 a9 bd 35 12 fd 3d
       0.06578938 -0.18364969 -0.08279805 0.12356988
0001d0 3f 68 85 3d 86 f8 57 3c d4 df 0d 3e 10 ac b9 3d
       0.06514024 0.013181811 0.13854915 0.090660214
0001e0 4a ae 8e 3d de 57 1f 3e 8a 6d 0c 3e 13 c6 84 bd
       0.06966837 0.15560862 0.13713661 -0.06483092
0001f0 a9 f4 80 bd de b6 f7 3d 28 c4 5d 3d d4 93 f1 3c
       -0.06296665 0.12095426 0.054142147 0.029489435
000200 96 af af bd ab 01 90 3d cd 46 c0 bd 63 ef 04 3d
       -0.08578412 0.07031568 -0.09388504 0.03245486
000210 71 0a 57 3e 91 15 e8 bc 63 cb 16 be 85 d5 3a be
       0.21000077 -0.028330596 -0.14726023 -0.18245514
000220 e7 d3 32 bd 5c e6 a5 3d 41 49 00 3e 41 b1 a8 3c
       -0.043659117 0.08100578 0.12527944 0.020592334
000230 f5 96 6e bd e7 11 24 3d b5 71 4a 3e 07 92 04 3e
       -0.058249433 0.040056136 0.19769938 0.1294633
000240 c3 45 26 3e 0e 8d 67 3d 70 12 50 be be 51 ee bd
       0.1623755 0.056531005 -0.20319533 -0.11636685
000250 da 6c c9 3d 82 f2 27 bc a0 ed 17 be fc 08 50 3e
       0.09835215 -0.010250689 -0.1483674 0.20315927
000260 0b 25 48 3e f5 d5 2a be 70 07 2b 3d 72 ec 03 be
       0.19545381 -0.1668318 0.04175514 -0.12883165
000270 6a 06 5b 3d 36 eb 02 3e 21 10 4f be 01 3e 45 bd
       0.053472914 0.12785038 -0.20220996 -0.048154835
000280 b1 9c 2e 3e 8b 4d f2 bd 09 fd d8 3d bc 0a de 3c
       0.1705196 -0.118311964 0.105951376 0.027104728
000290 e2 99 0b be c6 ed 15 bd 86 a6 0b be 52 b9 1c be
       -0.1363292 -0.03660371 -0.13637742 -0.15305069
0002a0 da 67 19 be 10 06 2a be de 3d e5 bc 86 89 30 3e
       -0.14981022 -0.16603875 -0.027983602 0.17239961
0002b0 44 3d 56 be 41 75 b8 bd 74 22 80 bd 30 3d fa 3d
       -0.20921808 -0.090067394 -0.062565714 0.12218702
0002c0 f6 2f 5a be 66 4c e3 3d 5b 9e 5c be 0b d5 35 3e
       -0.21307358 0.11098556 -0.21544783 0.1775705
0002d0 5b 7c b1 bd 57 66 52 bd ba e6 28 3e b9 3c 53 3e
       -0.08666297 -0.05136713 0.16494265 0.20628633
0002e0 77 ec 0c be d2 33 c9 bd 36 4e d2 3d 05 42 d2 3d
       -0.13762079 -0.09824337 0.10268824 0.102664985
0002f0 4a 07 fa 3d 3f af 9e 3d a8 e7 fe bd bb bd e1 bd
       0.122084215 0.07748269 -0.12446529 -0.11022516
000300 18 64 23 3d b3 9b 0c 3d b2 bc 18 be 9d 7e 45 3e
       0.03989038 0.034328174 -0.14915732 0.1928658
000310 90 85 60 be 82 28 36 be 2e 99 0d 3e 52 63 03 be
       -0.2192595 -0.1778889 0.13827965 -0.12830856
000320 a7 15 63 3d 3c e7 0b 3e b4 0f 3b 3e 38 22 62 be
       0.05544057 0.13662428 0.18267709 -0.22083366
000330 90 19 58 3e 56 53 c9 3d 8c f8 11 be 60 dc 96 bc
       0.21103501 0.09830348 -0.1425497 -0.01841563
000340 94 83 dc 3d 9f f6 c8 bd 44 c6 6d 3d f2 e0 e3 bc
       0.10767284 -0.09812664 0.05805041 -0.027817223
000350 01 48 4c be f5 ec 20 3d dc 0f 6a 3e 7e 89 77 3d
       -0.19949342 0.03928848 0.22857612 0.060433857
000360 d0 23 ab 3c 68 69 e5 3d 38 a9 51 3d fa 5b 1b be
       0.0208911 0.11201745 0.05118677 -0.15171805
000370 47 ad 68 bd 50 8d 86 3d 80 97 16 3e 4a e7 02 be
       -0.056805875 0.06569922 0.1470623 -0.12783542
000380 be e4 33 3e 51 32 23 be 94 0e 91 3c 05 bb 3b 3e
       0.17567727 -0.15937163 0.017707147 0.18333061
000390 77 16 38 3e 93 8f 89 3d ec 88 04 bd 1c 38 87 3d
       0.1797732 0.06716838 -0.03235714 0.06602499
0003a0 3c 82 b4 3c 10 14 5e 3e 08 62 d4 3c 37 5b 59 3b
       0.022034757 0.2168734 0.025925651 0.003316594
0003b0 2a d3 66 be 8f be 49 3e ae 05 12 3d 14 7d 13 be
       -0.2254149 0.19701599 0.035649948 -0.14403182
0003c0 b5 13 d1 3c fa e2 b5 3d 37 8b 14 bd 72 0c 82 bc
       0.025522092 0.08881183 -0.036265578 -0.015875075
0003d0 9f 30 1f 3e 32 ec 5f 3e a0 a6 3c bd a2 b6 e4 3b
       0.15545891 0.21867445 -0.046057343 0.0069797793
0003e0 7f 5e 9b 3d ed 42 69 3e 4b 1e bb 3c 6a 40 60 be
       0.07586383 0.22779436 0.022841593 -0.21899572
0003f0 6c b3 bf bc c5 69 5c be 35 e2 23 be 1a 02 83 3c
       -0.023400985 -0.21524723 -0.1600426 0.015992213

GAT_layers.0.f.bias f4 [32]
000000 10 04 09 3d 5c c0 a0 3d bd 9c 68 3b ea c5 ed 3b
       0.03345114 0.0784919 0.0035493814 0.007256259
000010 1e 32 da 3c ff 00 3d bd ce 29 9a 3d 04 ce 92 bd
       0.026635226 -0.046143528 0.07527505 -0.071682006
000020 d9 66 45 3d 75 d0 94 3d a0 53 02 3d 2f 61 c5 3d
       0.048193786 0.072663225 0.031818032 0.09637677
000030 f6 39 3b 3d bd f3 ba bc 89 e0 b4 3d e2 4d d2 3d
       0.045709573 -0.022821302 0.08831889 0.10268761
000040 0e a9 47 bd 5f 0f 51 bc c9 c6 c3 3d 92 89 14 3d
       -0.048745207 -0.012760012 0.095594 0.03626401
000050 3d d0 10 3d 73 99 65 3d a7 92 16 bc ad 23 89 3c
       0.03535484 0.056054544 -0.009190238 0.016740644
000060 83 90 b1 bd 78 7e ab bd 88 53 71 bd 7a fc 77 bd
       -0.086701415 -0.083737314 -0.058917552 -0.060543515
000070 99 a5 81 bd 1f 4f 50 3b 8d fb 8d 3d ad 18 f3 bc
       -0.06330413 0.003178544 0.06932745 -0.029674852

GAT_layers.0.w.weight f4 [1, 82]
000000 92 3e 7c be ec 34 54 be 36 86 5e be 51 cd 2f 3e
       -0.24633244 -0.20723313 -0.21730885 0.17168166
000010 f1 f4 80 3e 4c bf 35 bd e7 a5 88 3e fc 58 43 be
       0.25186875 -0.044371888 0.26689073 -0.19076914
000020 cb de e7 bc 1b e8 f5 bd 88 e3 9b bd 84 06 f3 3d
       -0.028304478 -0.12007161 -0.076117575 0.11866477
000030 a5 de 6f be cc c9 83 3d 8d 05 6f be 55 26 a8 3c
       -0.23424776 0.06434974 -0.23341961 0.02052609
000040 d7 b7 bd bd 2f e8 26 bd 90 20 77 3e e2 0c d8 3d
       -0.0926358 -0.04074877 0.24133515 0.10549332
000050 f1 bd f5 bd a1 a0 78 3e 5a c4 59 bd 97 84 46 be
       -0.11999119 0.24280025 -0.05316577 -0.19386517
000060 7d 36 1a bc 8c 65 d8 3d cf 21 b4 3d 52 65 51 be
       -0.009412405 0.105662435 0.08795511 -0.20448807
000070 bf e6 6f bd c6 c2 e6 bd 44 ed 80 be 82 a1 b0 3d
       -0.058569666 -0.11267619 -0.2518102 0.08624555
000080 59 e3 19 bd 86 0b ba 3d 1c aa 2d be f4 2e 54 be
       -0.03757033 0.09084229 -0.16959423 -0.20721036
000090 af 8f 47 bd c0 8d 25 be 8f 45 2c be 12 a4 93 3d
       -0.04872101 -0.16167355 -0.1682341 0.07209028
0000a0 8f d8 76 be 88 8d 57 3e da c7 c8 bd ba 67 6a bd
       -0.24106048 0.21050084 -0.09803744 -0.057227828
0000b0 e9 1c 22 3e cb 9d 1c be 42 19 9a bd 9c 42 0c 3e
       0.15831341 -0.15294568 -0.07524349 0.13697284
0000c0 f4 3b 84 be 0d 43 b2 3d 9a 75 56 be 5f 6f 5f 3e
       -0.2582699 0.08704195 -0.20943299 0.21819828
0000d0 ab c3 78 be 35 56 41 be de bc a6 3d ac b7 83 3e
       -0.24293391 -0.18880542 0.08141492 0.25726068
0000e0 28 21 1c bd bf a8 32 bc 8f f5 13 be bc ab 98 3d
       -0.038117558 -0.01090449 -0.14449142 0.07454631
0000f0 11 75 04 be 38 c1 74 be 42 ca 4b be b5 31 32 3e
       -0.12935282 -0.23901832 -0.19901374 0.17401774
000100 66 02 c0 3d a6 79 a0 3d 32 8d 80 be ca ae d8 3d
       0.093754575 0.078357026 -0.25107723 0.10580213
000110 4d c1 14 be 5e 8e a5 bd 75 0c 75 bd a7 91 35 3e
       -0.14526863 -0.08083795 -0.059826333 0.17731343
000120 42 56 ef bd be 31 83 be d9 73 ab 3d a7 d1 21 be
       -0.11686374 -0.25623888 0.083717056 -0.15802632
000130 91 fc a4 bd cf 1b 29 be 52 ec 09 3e e2 c9 6f 3e
       -0.08055986 -0.16514514 0.13469055 0.23416856
000140 dc a3 28 be 63 54 74 3e
       -0.16468757 0.23860316

GAT_layers.1.f.weight f4 [64, 64]
000000 14 a0 89 bc 4e 93 91 3d 5e e7 0a be 55 a1 c1 bd
       -0.016799964 0.07108174 -0.13564822 -0.094546
000010 32 12 03 3e 12 2e 08 3d 9a b7 d0 bb 3e 32 9e 3d
       0.1279991 0.03324706 -0.0063695433 0.07724427
000020 fc f5 16 3e 36 08 4f 3d 79 86 20 3d d3 72 f0 bd
       0.14742273 0.05054494 0.039190743 -0.11740651
000030 8a c5 02 3e 25 a2 1e 3e 2d 88 27 bb a0 fb f7 bd
       0.12770668 0.1549154 -0.0025563345 -0.121085405
000040 34 cf 5b be 7d ba 19 3e 11 62 ef 3d 1c b1 ed bb
       -0.2146576 0.15012546 0.116886266 -0.007253779
000050 c3 57 3a 3d 3b 35 9b 3d c6 34 03 be 65 29 41 3e
       0.045493852 0.07578512 -0.128131 0.18863447
000060 ff 1b 5d be a5 71 2c bc b0 fe 22 3e 90 bf d1 3d
       -0.21592711 -0.010525142 0.15917468 0.10241616
000070 29 7c a7 3d 74 b2 3d bd 0c e8 bc bd a1 81 2a be
       0.081779785 -0.046312764 -0.09223947 -0.16651012
000080 40 9c 69 3c 0e 32 da 3d 97 50 b2 bd d2 2f 7b bd
       0.014258444 0.106540784 -0.087067775 -0.061324902
000090 86 75 0b be ee c3 27 bc 87 3f f0 bd 6d b5 e3 bd
       -0.1361905 -0.010239584 -0.11730867 -0.111185886
0000a0 0c 73 26 bd 0b 11 9f 3d f9 16 51 3c 97 e2 45 be
       -0.04063706 0.077669226 0.012761825 -0.19324718
0000b0 a3 98 19 bd 91 d0 f4 bd 93 6e 22 be ff a4 b1 bc
       -0.03749908 -0.119538434 -0.15862493 -0.021685122
0000c0 6a be 0b be d9 00 02 be b6 97 90 bd c0 fc 05 be
       -0.13646856 -0.12695636 -0.070601866 -0.13084698
0000d0 11 0c f8 bd 83 fe 1d 3e ba 17 cb bc bf 62 47 be
       -0.121116765 0.1542912 -0.024791587 -0.19471262
0000e0 2d 92 bc 3d 4f 50 9e bd 7d dd 8c bd 9e 3e 8d 3c
       0.09207568 -0.077301614 -0.06878183 0.017241772
0000f0 d5 a4 4c be 5a da 00 be c7 57 bd 3d c4 cb c9 3c
       -0.19984753 -0.12583295 0.09245258 0.024633296
000100 65 3e 23 3e 87 61 f2 3d b5 ce 05 be 88 02 41 be
       0.1594177 0.11835008 -0.13067134 -0.18848622
000110 b0 41 34 be be 0d 25 3e 97 88 1d 3e ca 4c 42 bd
       -0.17603183 0.16118523 0.15384136 -0.047436513
000120 52 5b 5b be b3 79 86 3c e2 2d 51 3e 9b 6f 78 3b
       -0.21421555 0.016415453 0.20427659 0.003790832
000130 04 8b 17 3e 94 36 e2 bd 84 19 03 bd 88 64 09 3e
       0.14799124 -0.11045566 -0.032006755 0.13417256
000140 c1 04 5c 3e b3 f2 14 3e 09 71 38 be 98 e2 26 3e
       0.21486188 0.14545707 -0.1801187 0.16297376
000150 c0 be 48 3e 5e d4 8c bc 01 0b b3 3d ec 2b d4 bd
       0.19604015 -0.017191108 0.08742333 -0.1035994
000160 6d d6 1d be 42 6f ab bd 94 4f 50 3e 5a bc 0e be
       -0.15413828 -0.0837083 0.20342857 -0.13939038
000170 8c de 85 bd 18 b8 9d bd f7 dd 65 bd 9e 87 18 3e
       -0.06536588 -0.07701129 -0.056119885 0.14895484
000180 e6 3f 40 3e bc 7b 07 be 8e 07 5a 3c fb 60 e4 3d
       0.18774375 -0.13230795 0.013307465 0.1115131
000190 98 15 96 3d 6a 3d 4a be d6 58 56 3e 0f 7a b6 3c
       0.073283374 -0.1974999 0.20932326 0.022274999
0001a0 55 8b a8 3d 8c 6f ed bd 4a b9 76 3d bc 2f 4a 3e
       0.082297005 -0.115935415 0.0602353 0.19744772
0001b0 84 08 32 be e5 5e 18 3d d4 a1 55 3c 3e fa 57 3e
       -0.17386061 0.037199873 0.013039071 0.21091554
0001c0 50 46 7e bd 51 e4 7d 3d 3f 99 89 bd 3a 1f 37 3d
       -0.062078774 0.061985318 -0.067186825 0.044707514
0001d0 5b d4 31 bc b5 56 aa bd 8b bb 49 be 11 d8 e5 3d
       -0.010853852 -0.08317319 -0.19700448 0.11222852
0001e0 f5 12 22 3e b8 81 31 3e eb 62 52 3e 78 12 1a 3e
       0.15827544 0.1733464 0.20545547 0.15046108
0001f0 7d a1 40 bd 61 20 20 3e 6b 3e 32 be db 48 b8 bd
       -0.047029007 0.15637352 -0.17406623 -0.08998271
000200 34 7a 42 3d 53 84 cf bd a5 d8 47 be 0a 0a 24 3e
       0.047479823 -0.10132661 -0.19516237 0.16019455
000210 d4 cf 44 3e 4d f3 29 be 13 c6 89 bd 7c da 74 3b
       0.19219905 -0.16596718 -0.06727233 0.0037361672
000220 0a dd 38 bc 4e af a1 bc 07 66 b0 b8 e9 73 6e 3d
       -0.011283169 -0.019736912 -8.411338e-05 0.05821601
000230 dd 71 53 3d ac 9b 1f 3e 87 6e 27 3e 8e d7 22 3e
       0.05162226 0.15586728 0.16350757 0.1590254
000240 71 46 10 be 0e f7 2b be 1e 0a 13 3d ba d1 1b be
       -0.14089371 -0.16793463 0.03589832 -0.15216723
000250 a1 ed 45 3c 29 07 0c 3e dd 5b b5 bd 67 68 5d 3e
       0.012080581 0.13674606 -0.08855412 0.21621858
000260 40 54 19 3d 63 7e ec bd 36 b7 c1 3a df 98 29 3e
       0.037433863 -0.11547544 0.0014779333 0.16562222
000270 1c e6 bb bd 58 c9 4b 3d 51 b4 68 3d a4 e0 6c bd
       -0.09174749 0.049752563 0.056812588 -0.05783142
000280 d1 86 dc bd 93 90 51 3e bb 94 dd 3d 63 3d e0 bd
       -0.10767902 0.20465307 0.10819384 -0.109492086
000290 c1 5c 25 be bb f9 82 bd 6d d0 fb bd 2d 2c 36 3e
       -0.16148664 -0.063952886 -0.122956134 0.17790289
0002a0 0c 59 95 bd 15 11 e0 bd b6 a9 17 be 4f 5a 2c be
       -0.07292375 -0.10940758 -0.14810833 -0.16831325
0002b0 a7 b0 25 be fb e4 13 3d 18 dc c8 bc fa 18 8e 3d
       -0.16180669 0.036107045 -0.024519011 0.06938358
0002c0 59 16 03 be dd c7 74 3c 7f ac eb bd 60 6e 2d be
       -0.12801494 0.014940229 -0.115075104 -0.16936636
0002d0 cf 13 86 bd 48 69 d3 3c 0c dc c9 bd d4 d5 d7 3c
       -0.06546747 0.025807038 -0.09856424 0.026347078
0002e0 51 e4 fb bd a6 e8 a8 bb 05 5c 3b 3e 9a 81 e8 3d
       -0.12299407 -0.005154687 0.18296821 0.113528445
0002f0 40 25 28 3e a4 5f d4 3d d2 77 1a 3e cb 6d 4c be
       0.1642046 0.103698045 0.1508477 -0.19963758
000300 52 a0 28 be 9b 92 24 3e c3 3a b9 bd 20 1d 2c bd
       -0.16467407 0.1607155 -0.09044411 -0.042019963
000310 4a 0b 24 be da 78 16 3e 36 87 94 bd fb ed fb bd
       -0.16019931 0.14694539 -0.07252352 -0.123012505
000320 50 22 c4 3d 33 86 03 3d c6 ed c9 bd 05 44 83 bd
       0.09576857 0.032110404 -0.09859805 -0.06409458
000330 e9 22 23 3d 14 63 0c be 49 e3 4e be 38 0c 1b bd
       0.039828215 -0.1370967 -0.2020389 -0.03785345
000340 34 f2 89 3d ba 8f 80 bd 55 79 23 3e 71 61 c2 bd
       0.0673565 -0.06277414 0.15964253 -0.09491242
000350 ae 7c 6e 3d d4 90 50 be f2 51 1a be 05 66 30 be
       0.058224373 -0.20367748 -0.15070322 -0.17226417
000360 0b 6d 27 be 78 02 9a 3d 82 75 34 3e 9f c9 42 3e
       -0.1635019 0.07520002 0.1762295 0.19022225
000370 d3 4d 58 3e 48 87 1f 3e ad d5 54 be c7 16 1b be
       0.21123438 0.1557895 -0.20784636 -0.15145408
000380 ba 7c 35 be 5d 4c 29 be 5c f4 92 3c 38 65 0f bd
       -0.1772336 -0.16533037 0.017938785 -0.03500864
000390 2a 08 ff 3d 97 4b 0f be c4 ce 94 3d b7 41 1a 3e
       0.12452729 -0.13993679 0.07266 0.1506413
0003a0 aa c6 05 3e d9 ee 52 be 0b 09 48 3e f6 ae 2d 3d
       0.13064066 -0.20598926 0.195347 0.042403184
0003b0 a8 33 75 bd b3 e7 42 3d 4d cd e9 3d 97 e5 ba bd
       -0.059863716 0.047584247 0.11416111 -0.09125822
0003c0 dd 78 6e 3d 85 e1 a1 bd af 5b 80 bd f6 6a 45 3e
       0.058220733 -0.079043426 -0.06267487 0.19279084
0003d0 b0 a7 17 3e 17 53 95 3d c4 4a cb 3c f4 26 3f be
       0.14810061 0.07291239 0.024815924 -0.18667203
0003e0 7a 00 8a bc 02 0c b1 bd 6d 74 8c 3d a1 26 90 bd
       -0.01684593 -0.086448684 0.06858144 -0.07038618
0003f0 71 1c 53 be 37 d5 37 be b7 a0 c7 3d d2 4e a0 bd
       -0.20616318 -0.17952429 0.09747451 -0.07827534

GAT_layers.1.f.bias f4 [64]
000000 b0 dd b5 bc 00 4d 2d bd 40 33 cd bd 40 b8 87 bc
       -0.022200435 -0.04230976 -0.10019541 -0.01656735
000010 7a 05 e7 3d 12 54 56 3d 1c 13 6b 3d 5c e1 3f bd
       0.112803414 0.05232627 0.05739127 -0.04684578
000020 f9 49 11 3e 07 c0 d5 3d 0e 7c f0 bd 90 6d 4c bd
       0.14188375 0.10437017 -0.117424116 -0.049909174
000030 d0 01 1d bc ad 24 86 3d f8 a6 1a 3e 47 b6 83 3d
       -0.009582952 0.06549964 0.15102756 0.06431251
000040 f0 c8 10 bc ea 54 49 3d b9 da 4f 3d 18 95 da 3d
       -0.00883697 0.049153246 0.0507457 0.106729686
000050 e3 63 8c 3d 79 e6 cd 3d b8 da 6c 3d e8 7c 63 3d
       0.068549894 0.10053725 0.057825774 0.05553904
000060 11 60 33 3b 64 e9 ff bd 64 68 35 3d 08 99 e3 bc
       0.0027370492 -0.124956876 0.044289008 -0.027782932
000070 17 49 be 3d f6 7d 90 bd f3 f3 1a 3e c1 7b 0d 3e
       0.092912845 -0.07055275 0.15132122 0.1381674
000080 9d 0f 96 3d a9 88 02 3e ce 8a 22 3e b2 02 d5 bd
       0.07327197 0.12747444 0.15873262 -0.10400905
000090 2c 47 f0 3d 10 97 35 bc 88 3e 06 bd ec d1 6c bd
       0.11732325 -0.011083379 -0.03277448 -0.057817385
0000a0 e0 21 ac bd d8 ae 04 3e 49 fe 05 3e ec f1 46 3d
       -0.08404899 0.12957323 0.13085283 0.04857056
0000b0 99 cc 5c 3d 08 22 ed 3c 95 e7 c9 3d bd 1c a7 bb
       0.053906057 0.028946891 0.09858624 -0.0050998614
0000c0 30 db d0 bc fc b8 2a 3e 4d 41 c1 3d 39 65 00 3e
       -0.025495142 0.16672128 0.09436283 0.12538613
0000d0 40 56 71 bd cb 98 b0 3c b0 ad 2a bd b2 50 18 3e
       -0.058920145 0.021557232 -0.041669548 0.14874533
0000e0 98 d5 18 bd ba 8d 18 3e 68 ba 46 bd 10 ac e2 bc
       -0.037313074 0.14897814 -0.048517615 -0.027669936
0000f0 a8 64 ab bb ae b9 8c bd a6 01 08 3e d1 79 f4 3c
       -0.005230505 -0.06871353 0.13281879 0.029843243

GAT_layers.1.w.weight f4 [1, 64]
000000 90 ee 1a 3e 41 62 98 be cf 27 84 be 7f 4b 3d 3e
       0.15130067 -0.29762462 -0.25811622 0.1848583
000010 b9 fc 96 3d f8 2c 5a 3e 84 ef 52 3e 4b d3 08 3e
       0.07372422 0.21306217 0.2059918 0.13361852
000020 ff 41 70 3e 68 c5 dc 3d b7 b3 91 be 86 9c 62 be
       0.23462676 0.1077984 -0.28457424 -0.22130021
000030 68 7c 90 be 6f 4c ee 3d 27 fc 9d 3d 7d 6f f9 bc
       -0.28219914 0.11635672 0.0771411 -0.03044867
000040 0d 6a 38 be c3 05 7f 3d c1 e2 61 be b4 ed 32 be
       -0.18009205 0.062261354 -0.22059156 -0.17473489
000050 5f e7 89 3d 7e 1b b7 bd 86 e0 76 3d 31 bf 3e bd
       0.06733584 -0.089407906 0.060272716 -0.046569053
000060 5f 16 d8 bd 99 b6 3d 3d 04 5b 2b 3e 79 7e 1d be
       -0.10551142 0.046316717 0.16733938 -0.15380277
000070 06 54 75 bd c7 de 87 3e 87 d3 84 3d 70 74 06 bd
       -0.059894584 0.26537153 0.06485658 -0.032825887
000080 5f 5b 78 be 36 68 80 be ec e8 8d be 19 fa 53 bd
       -0.24253605 -0.25079507 -0.27716768 -0.051752184
000090 bb 12 2d 3e e8 5e ac 3d 44 80 0d be 77 8a 1d 3e
       0.16901676 0.084165394 -0.1381846 0.15384851
0000a0 d9 71 c5 3d 6f 69 6e bd c0 03 92 be 1d 8a 5d 3c
       0.09640855 -0.058206018 -0.28518486 0.013521698
0000b0 c4 9f 99 3d cd df 32 3e b6 ea 97 bd 36 13 84 be
       0.07501176 0.17468186 -0.074178144 -0.25795907
0000c0 1c 0f 82 3e 62 eb b5 bd 81 d6 2e be 28 bb 6b 3e
       0.25402153 -0.08882786 -0.17074014 0.23020613
0000d0 20 a2 39 be ee 0e 4a be 89 87 76 bd 79 8c 82 3c
       -0.18128252 -0.19732258 -0.06018785 0.015936123
0000e0 a8 47 7e be 5a 2e 8d be 6e 2e 4d be f3 a5 51 be
       -0.24832022 -0.27574426 -0.20037243 -0.20473461
0000f0 6d 97 53 bd 56 bb 5e 3c 64 3f 23 3e 75 f0 89 be
       -0.051658083 0.013594469 0.1594215 -0.26941267

GAT_layers.2.f.weight f4 [64, 128]
000000 96 98 a9 bd 92 c9 e9 3d 41 46 d5 bd cc 56 a6 bd
       -0.082810566 0.114153996 -0.104137905 -0.08122024
000010 fc 20 bc 3d 88 f7 c2 bd 39 85 07 be 72 dd 85 3c
       0.09185979 -0.09519869 -0.13234414 0.016340945
000020 a8 16 17 3e 57 c6 b8 3d ba 13 31 3e 88 62 20 bd
       0.14754736 0.09022205 0.17292681 -0.039156467
000030 ba 3e 02 3e 4f 13 b0 3d 4d 65 aa bd 1f 28 b0 bd
       0.12719241 0.08597433 -0.08320103 -0.086014025
000040 5c a8 74 3d ce 07 0d be 38 43 28 3d 11 43 3f 3e
       0.059730873 -0.13772509 0.04107973 0.18677928
000050 e2 eb fb bd df 09 99 3c 34 af 85 3c e2 4c 4b 3e
       -0.123008505 0.018681465 0.016318895 0.19853547
000060 ba 4c e7 bc 1a 24 e8 bd 8f ec 16 bc b9 a4 50 3b
       -0.028234828 -0.11335011 -0.009211673 0.0031836464
000070 19 ce 21 3e 10 1e 61 bd fb 46 3a bc 9f de 9d bc
       0.15801276 -0.05496031 -0.011369462 -0.019271193
000080 49 7c 8b 3d 59 04 af 3b 7e c7 08 3e 2f 43 01 bc
       0.06810815 0.0053410945 0.1335735 -0.007889553
000090 6c 8b 01 3d 63 c7 31 3e c4 ba e3 bd 8f 83 15 bd
       0.031627104 0.17361216 -0.11119607 -0.036502417
0000a0 8c f1 0b 3e 74 22 62 bd 84 08 2a 3e f3 9c e8 bc
       0.13666362 -0.05520864 0.16604811 -0.028395152
0000b0 28 c6 28 3e b7 68 5e bd 2c 61 05 3e 41 4c 09 3e
       0.1648184 -0.054299083 0.1302535 0.13407995
0000c0 0e 35 6c 3d d3 eb 00 3e 70 9a 4d 3e 0b c9 bf bd
       0.057667784 0.1258996 0.20078444 -0.09364518
0000d0 20 de 26 3e 0b 0d 40 3e 98 c8 12 3e 12 ed 37 3c
       0.16295671 0.18754975 0.14334333 0.011225956
0000e0 ae 2c d9 3d 62 22 af 3d bf 49 d1 bc 4d 16 cb bd
       0.10604225 0.0855148 -0.02554786 -0.09916363
0000f0 d0 9f 38 3e b5 0b 26 be 33 d2 26 3e 53 d9 11 be
       0.18029714 -0.16215403 0.16291122 -0.14243059
000100 16 8e 16 be f9 fa ba 3c fd eb b2 bd a3 4f 1d be
       -0.14702639 0.022824751 -0.087364174 -0.1536241
000110 bf 03 c7 3d ac 6b c9 3d f5 51 b9 3d 28 8d 5f 3d
       0.097175114 0.0983499 0.09048835 0.054577976
000120 51 64 fa 3d 87 79 52 3c 5a be 03 3e 69 ea 6b bd
       0.12226165 0.012846357 0.12865582 -0.057596598
000130 1b 35 cd 3d 5c 72 40 3e 34 62 4b 3e f4 f4 33 3e
       0.10019895 0.18793625 0.1986168 0.17573911
000140 0c 38 8b 3d b3 1f ad 3d d0 b6 84 bd 7d d8 66 3d
       0.067977995 0.08453312 -0.06480181 0.056358803
000150 a4 23 ca 3d 32 29 f0 3b ce 14 17 bd 12 b2 05 be
       0.09870079 0.0073291296 -0.036885075 -0.1305621
000160 7a 3c 74 bc 59 92 b9 bc ae 1b 91 bd 8e a1 88 3d
       -0.014906997 -0.022652792 -0.070853576 0.06671439
000170 c3 a3 b9 3b b6 ae 33 bb 3f bb d2 3c b4 b0 fa bb
       0.005665274 -0.0027417368 0.025724052 -0.007650459
000180 ae 5e ca 3d f5 ee 18 3e 29 5d aa bd 35 6e 8d 3d
       0.0988134 0.14934905 -0.0831855 0.06905786
000190 d5 a3 9c 3d 7c 1c d2 3d d9 69 2e be 78 fc db bd
       0.07648436 0.10259339 -0.17032565 -0.10741514
0001a0 00 41 ca bd 5c 11 18 3e 86 e1 d9 bd d1 cf 45 3e
       -0.09875679 0.14850372 -0.10638718 0.19317557
0001b0 89 62 86 bc 00 c6 b7 3d 96 6a ec 3d 61 66 2e be
       -0.016404407 0.089733124 0.11543767 -0.17031242
0001c0 be 86 94 3d 94 66 a8 3d c1 a8 a5 3d 07 9a cc bd
       0.072522625 0.0822269 0.08088828 -0.09990316
0001d0 6e 19 14 3e 9b f8 f8 3c e5 8f 85 bd f6 83 83 3c
       0.14462826 0.030391982 -0.06521586 0.016054135
0001e0 4f a5 e5 3d 05 87 5c bd 79 45 9a 3d a9 65 e5 3c
       0.11213171 -0.053839702 0.07532782 0.028002577
0001f0 19 d7 9c bd bc 47 f7 3b 13 80 2a 3e 10 24 38 bd
       -0.07658214 0.007546393 0.16650419 -0.044956267
000200 8e 52 13 bd 6a 14 68 3d 6c 51 f7 bd 3d ed 03 3e
       -0.035967402 0.056660093 -0.12076077 0.12883468
000210 5a 33 e0 3d af 25 1f 3e 92 00 7f bd a0 ca b4 bd
       0.109472945 0.15541719 -0.062256403 -0.0882771
000220 d7 47 28 3e 5b 47 f5 bd 6d af a7 3d 1a b6 f8 bd
       0.16433655 -0.119765006 0.08187757 -0.12144108
000230 33 fe 10 bd ae 07 00 be ed 57 7f bd 9b 98 eb bd
       -0.035398673 -0.1250293 -0.062339712 -0.115037166
000240 d2 8a 2b be 8c 45 1b 3e bf 96 04 be 1d 9d c8 3d
       -0.16752174 0.15163249 -0.1294813 0.09795592
000250 e6 ff e6 3d 94 fa ef 3c a5 84 ab bd f5 af c8 3c
       0.112792775 0.02929429 -0.08374909 0.024497965
000260 17 91 9e bd 5d 84 05 be d9 a5 93 bd a5 78 1d be
       -0.077425174 -0.13038774 -0.07209367 -0.15378053
000270 dd 6b fb bd 96 0e eb 3d 7a b8 dd bd 14 a6 01 3e
       -0.12276433 0.114773914 -0.10826202 0.1266101
000280 9a 06 5a 3e 17 ab 9d 3d 4f e1 b0 3d da 66 26 be
       0.21291581 0.076986484 0.08636724 -0.16250172
000290 ed 57 55 3e 3f c2 22 be 75 36 a2 3d 42 48 4e bd
       0.20834322 -0.15894412 0.07920543 -0.05036188
0002a0 38 91 14 3e e9 0d 15 3e 5d ca 13 3e 3a df 12 3e
       0.14508522 0.14556088 0.14432664 0.14342967
0002b0 94 fd 11 3e cc 54 88 bd 8e 0a 2a 3e b6 4e 5b 3d
       0.14256889 -0.06656799 0.16605589 0.05354186
0002c0 c1 ed 01 be 2e ec de 3d 0b 27 15 3e 80 20 08 be
       -0.12688352 0.108848915 0.14565675 -0.13293648
0002d0 79 a5 06 3e f8 4a 56 3d d0 f9 f5 3d e1 47 9d 3d
       0.1314906 0.05231759 0.120105386 0.076797254
0002e0 31 c7 31 be 0c 2b ba 3d 16 e4 ca 3d e4 41 3a bd
       -0.17361142 0.09090242 0.09906785 -0.045472994
0002f0 62 7e a1 3c 86 c3 98 3d d4 d4 d0 3d 73 14 3d 3d
       0.019713584 0.07459168 0.10196844 0.04616208
000300 44 ca 32 be cc c5 32 3e fa 81 ce bd 7e 41 a5 3b
       -0.1745997 0.17458266 -0.10083385 0.0050432077
000310 d9 cb ef 3c 9c 58 0a 3e 2e 0c a1 bc c3 b8 18 3e
       0.029272007 0.13510364 -0.019659128 0.14914231
000320 7d e4 36 3c f6 4d 92 3d 27 6e f4 bd 60 ae a5 3d
       0.011162874 0.07143776 -0.119350724 0.080899
000330 0c ec dc bd c7 eb ec 3d e5 ef 2e 3d 5d ec 6d 3c
       -0.1078721 0.115684085 0.04270925 0.014521685
000340 13 77 cb bd e5 fd 55 3e dc 4d 20 bc fe 6f 37 3e
       -0.09934821 0.20897634 -0.009784188 0.17913815
000350 c8 00 09 be 88 d7 57 3d b2 3d d2 3d 71 99 80 bd
       -0.13379204 0.05269578 0.10265674 -0.062792666
000360 06 bb 13 3e f5 42 9b 3d da d4 4f 3e 82 f2 09 be
       0.14426813 0.075811304 0.2029604 -0.13471416
000370 71 48 5c 3e 0d 59 13 bd 3d 0b bf bd 87 1c 28 3e
       0.21512009 -0.035973597 -0.093283154 0.16417132
000380 a0 da e9 bd 3a 7b 87 3d 5c fd 43 3e 80 ab 30 3e
       -0.114186525 0.066153005 0.19139618 0.17252922
000390 de d6 83 3d de 00 bc 3d 0b 76 20 bc 27 d8 f0 bd
       0.06437467 0.09179853 -0.009793769 -0.11759978
0003a0 a7 ce 0d 3e 9f 49 b8 bd de 36 14 3e 5b 99 98 bd
       0.13848363 -0.08998417 0.14474055 -0.07451125
0003b0 66 60 ba bc fc ff 4d 3d dc ed b6 3d e3 d0 03 3e
       -0.022751044 0.050292954 0.08932087 0.12872653
0003c0 7c 1e 17 3e 58 83 37 bd 96 80 93 bc 2b eb 48 bc
       0.14757723 -0.044802994 -0.01800565 -0.0122631
0003d0 97 54 84 bd 36 56 d6 3d fa 86 9a bd d6 10 bc 3c
       -0.06461447 0.10465662 -0.07545276 0.022957247
0003e0 d7 dc 91 bd db f4 86 3d 20 cd 28 be ad 67 25 bb
       -0.071222 0.06589671 -0.16484499 -0.0025238798
0003f0 3a 05 22 bd 91 85 ca bd 87 fe 1d 3e 3c 74 c2 bd
       -0.039555766 -0.09888757 0.15429126 -0.09494826

GAT_layers.2.f.bias f4 [64]
000000 79 a5 b9 3d 9b dc 8c bc 3d a5 62 bd 27 c8 dc bb
       0.090647645 -0.017195037 -0.055333365 -0.006737727
000010 d8 d9 89 bc 02 6f 20 3c f6 f9 df 3d ad 4c af 3d
       -0.016827509 0.009792091 0.10936348 0.085595466
000020 c7 e2 b2 3d eb 20 39 bd 7a c2 5d 3d 5f ae d6 bb
       0.087346606 -0.04519741 0.054140545 -0.0065515484
000030 01 a1 9c 3b 52 b1 9b 3d 63 ef e9 3d 9b c3 a2 3d
       0.0047799353 0.076021805 0.114226125 0.07947465
000040 82 44 93 bd 41 aa de 3d 39 84 0c 3d 41 06 92 bd
       -0.07190801 0.10872317 0.034305785 -0.07130099
000050 9c e3 ab bd 3e 43 e3 bb 20 7c 7e bc 81 2c 92 bd
       -0.083930224 -0.006935506 -0.015532523 -0.07137395
000060 a2 8e 98 3d 31 a6 97 3d 89 b5 91 bd ef c6 fe bc
       0.0744908 0.07404745 -0.07114703 -0.031100718
000070 78 0d a6 3c 47 d0 f1 3d 3e a6 71 bd bc b0 8c bc
       0.020270094 0.11807304 -0.05899643 -0.017174117
000080 9f c4 28 bd ef fe a2 3c a2 71 c0 bc 93 af 53 3c
       -0.041203137 0.019896952 -0.023491684 0.012920278
000090 20 13 8d bd 8d 59 03 3e d4 e0 af 3d bf c4 34 bd
       -0.068884134 0.1282713 0.085878044 -0.044132944
0000a0 cc 83 bf 3d fe 47 2d 3c 31 4c a4 bd 09 db 98 bd
       0.0935131 0.010576246 -0.08022345 -0.07463653
0000b0 46 4f 66 3d 1b 63 8f 3d 73 60 74 3d 63 b6 a5 bd
       0.056227945 0.07001325 0.059662294 -0.08091428
0000c0 eb dd af bd 9c fa 31 3d bd a8 ad bc b1 99 82 bd
       -0.08587249 0.04345189 -0.021198625 -0.063769706
0000d0 c8 8c c0 3d cb 22 91 3d 99 ce 87 bd eb 22 85 bd
       0.09401852 0.07086714 -0.06631202 -0.06500801
0000e0 8e 45 41 bd d1 fa 93 3d 16 b3 5d bd 24 eb d1 bc
       -0.047185473 0.07225574 -0.054125868 -0.02562482
0000f0 67 b5 e9 3d b9 3b 14 bc 0b 69 9d bd a0 db 87 3d
       0.11411553 -0.009047442 -0.07686051 0.06633687

GAT_layers.2.w.weight f4 [1, 128]
000000 7f 5e 4d be 57 6a bf bd ac cc 35 be 01 22 b3 bd
       -0.20055579 -0.093464546 -0.17753857 -0.0874672
000010 e4 a5 db 3c 29 9f 6a 3d 3b d0 91 bd 8a f0 29 bd
       0.026812501 0.057280693 -0.07119795 -0.04148916
000020 a3 20 ef bd 2a db a4 bd 60 28 28 3e 9a 59 cc bd
       -0.11676147 -0.08049615 0.16421652 -0.09978028
000030 32 b6 7b 3d 6a 51 a6 3d 3e 7f 85 3d c6 2e c5 3d
       0.061453052 0.08120997 0.0651841 0.09628062
000040 7e 8e 5b be 63 fd 12 3d 39 32 31 3e 36 48 bf 3d
       -0.21441075 0.03588618 0.17304315 0.09339945
000050 31 55 16 bd b6 95 86 3b a4 b9 54 3e f6 8d 75 3d
       -0.03670234 0.0041072024 0.20773941 0.059949838
000060 f5 1b 97 3d b8 08 ee 3d e9 a7 d8 3d 38 cd 03 3e
       0.07378379 0.11622757 0.10578901 0.12871253
000070 d6 54 ac bd f6 23 a2 3c 35 c9 d2 3d eb 13 c5 39
       -0.08414619 0.019792538 0.102922834 0.00037589608
000080 e6 a9 57 bd c2 ec 04 bc f9 a8 20 3e 93 0a 26 3d
       -0.052652262 -0.008113088 0.15689458 0.040537428
000090 48 43 12 3e f9 ec 3e 3e b7 b1 8b bc e7 1b 32 3d
       0.14283478 0.18645085 -0.017052514 0.04348364
0000a0 6a 28 72 bc 2d 12 9b bd d5 9b bc 3d fe 09 2b be
       -0.014780143 -0.07571826 0.0920941 -0.1670303
0000b0 8e 19 75 3e 7d 1b 7d 3e 11 d0 95 3d 4f cb 94 bc
       0.2393553 0.24717517 0.07315076 -0.018163351
0000c0 46 59 84 3b 35 b7 e0 3d a1 be 8a 3d b0 e0 f6 bd
       0.0040389625 0.10972444 0.06774641 -0.120545745
0000d0 cb 17 36 3e 80 31 30 3a 3c fd a7 3d 6c e7 13 bd
       0.17782514 0.0006721243 0.082025975 -0.036109373
0000e0 b3 f8 cb 3d 7e c1 64 3e 6f 46 9e 3c 9c 5b 77 3c
       0.09959545 0.22339436 0.019320695 0.015097525
0000f0 c9 c7 41 be f9 e8 2d be 63 ae c6 3d 95 ab 46 3e
       -0.18923868 -0.16983403 0.097012304 0.19401391
000100 5d 61 fa bc d3 3a a4 bd 6f fe bf 3d 80 27 ec 3d
       -0.030564005 -0.08019032 0.09374701 0.115309715
000110 22 e8 ff bd ec 77 20 bb 6a f5 6d bd 41 4c dd 3d
       -0.12495448 -0.0024485542 -0.058095373 0.1080556
000120 1b e3 09 3e ba bd bc bd c9 3b 29 3e e1 3a 1c 3d
       0.1346554 -0.09215875 0.16526712 0.03814209
000130 90 23 bc 3d 67 69 af bb 15 ac 9e 3d 0d 42 29 3e
       0.091864705 -0.005353141 0.07747666 0.16529103
000140 2d 61 3b be 11 7c 29 3e 38 f6 70 bd 80 0a 84 bd
       -0.18298788 0.16551234 -0.058828562 -0.06447315
000150 65 ca 2e be 62 ce 12 3e 1d 0c 2c be b0 23 57 3e
       -0.17069395 0.14336541 -0.16801496 0.21009707
000160 8b 7d c5 3d 89 a6 0b 3e 31 1e be bd f8 19 1c be
       0.09643086 0.13637747 -0.09283102 -0.15244281
000170 5f 5a 28 be 63 c7 3c 3e e6 d4 2a 3e ea ae 5d bd
       -0.16440724 0.18435435 0.16682777 -0.05412189
000180 95 73 d2 bd 78 81 0f 3d 7b 68 35 3e 7f 52 c4 3d
       -0.10275952 0.03503558 0.17715637 0.095860474
000190 e4 bc a1 3d 71 db 04 be 30 86 09 3e b9 49 49 3d
       0.07897356 -0.12974335 0.13430095 0.049142573
0001a0 94 35 f3 3d d2 77 d2 bc 24 ae d9 3d 65 ac f8 3c
       0.118754536 -0.0256919 0.10628918 0.030355642
0001b0 41 31 33 3e d5 fc ff bd 4e 7c 4f 3d 45 d8 0a be
       0.17499258 -0.12499396 0.050655656 -0.13559063
0001c0 b6 24 83 bc a4 0c 9c bd d1 d3 38 3e d0 19 31 be
       -0.016008716 -0.076195985 0.18049552 -0.17295003
0001d0 d1 22 0e 3e e9 87 49 3e fd ef 45 3e 67 e3 25 3e
       0.13880469 0.19680752 0.1932983 0.16200028
0001e0 4e 7f 0b bc f9 9e 28 be df 07 fb 3d 14 87 5a be
       -0.0085142385 -0.16466893 0.12257361 -0.2134059
0001f0 79 15 ad bd de 90 45 3e b7 fb 02 be f8 a7 32 3d
       -0.08451361 0.19293544 -0.12791334 0.04361722

MLP_layers.0.weight f4 [32, 64]
000000 f4 5b e9 3d 1c f3 1e bd f0 45 00 3d a8 76 c5 3d
       0.11394492 -0.038806066 0.031316698 0.096417725
000010 8c 1a 2c bd 84 49 87 3d 08 6d f6 3c 58 47 b4 bc
       -0.042017505 0.06605819 0.030081287 -0.022006676
000020 b2 75 fc bd 28 7c 5d 3d 54 6b f7 bd d8 16 56 bd
       -0.12327136 0.054073483 -0.12081018 -0.05226788
000030 c0 db 32 3c 80 63 b1 3a 58 da 82 3c 66 52 9f bd
       0.01091665 0.0013533682 0.015973255 -0.07779388
000040 28 e9 d6 bd d8 f6 2c 3d c2 29 fe bd 40 cf 45 bd
       -0.1049369 0.042227596 -0.124103084 -0.048293352
000050 d0 1a 7a 3c 2e 3c 8b 3d 98 f2 73 3d 48 13 7f bd
       0.015265182 0.06798588 0.059557527 -0.062274247
000060 26 48 b0 3d 94 37 73 bd a4 c2 b3 3d 68 f0 98 3d
       0.08607511 -0.059379175 0.08777359 0.07467729
000070 7a b3 e4 bd 80 aa 0f 3c 80 11 5e bd 78 30 66 bd
       -0.11167045 0.008768678 -0.054215908 -0.056198567
000080 f0 18 fb 3c d6 17 97 bd 58 56 53 bd b6 13 8d bd
       0.03065154 -0.07377593 -0.051596016 -0.06888525
000090 d4 db 73 3d 74 c1 b8 3d 0a 5a a2 3d 24 1d 9f 3d
       0.059535816 0.09021273 0.0792733 0.0776923
0000a0 fa 6d 97 bd ae 33 8f 3d be b5 d5 bd 40 7d 11 bc
       -0.07394023 0.06992279 -0.10435055 -0.00887996
0000b0 40 e8 23 bc 80 76 9a bc 38 2c 4d bd f0 6e 94 3c
       -0.010004103 -0.018855333 -0.050091 0.018119305
0000c0 66 08 87 bd e6 3a ea 3d a8 1e 2b 3d 0a 96 f1 bd
       -0.06593399 0.11437015 0.041777283 -0.11796196
0000d0 70 54 3c bd c0 bf 59 3b 78 9e f7 3d 8c cb c4 3d
       -0.045978963 0.0033225864 0.120907724 0.09609136
0000e0 d8 86 e3 3d 48 6c 64 bd 84 5f 6d bd d8 68 d7 3c
       0.11109704 -0.055767328 -0.05795242 0.02629511
0000f0 c6 bb 94 bd 58 17 d8 bc d6 5d f4 bd 48 5a 8d bd
       -0.072623774 -0.026378319 -0.1193196 -0.069019854
000100 aa 7a 66 bd 4b 08 04 3e 68 6f cf bc 48 01 5e bc
       -0.056269325 0.12893789 -0.025321677 -0.01355011
000110 c0 77 86 3b 2e 4a d4 3d c0 6e a5 3d 96 3c 4c 3d
       0.004103631 0.10365711 0.080777645 0.049862467
000120 f2 5c 26 3e 88 28 d8 3c 78 b0 d5 bd 3c 79 7a bd
       0.16246393 0.026386514 -0.10434049 -0.061150774
000130 a0 c2 f2 ba 6f 00 fe 3d da 62 1f 3e 9f a4 8f 3c
       -0.0018521138 0.124024265 0.15565053 0.017534552
000140 a0 d7 45 bd 26 bc a3 bd fc b2 1b bb e6 56 c4 bd
       -0.04830134 -0.07994871 -0.0023757806 -0.09586887
000150 44 df 16 bd 1e ce 80 3d 5d f7 e0 3d da 44 af bd
       -0.036834016 0.06289314 0.10984681 -0.08558054
000160 ce d4 7d 3d 60 b8 87 3d 98 fe 89 bc 68 ad f3 bc
       0.061970524 0.066269636 -0.016845033 -0.029745772
000170 ef 2f 20 3e 1c 3a 2b bc 98 87 a6 3d b2 7a df bd
       0.15643285 -0.010450866 0.08131331 -0.10912074
000180 22 36 e1 bd d4 8a 83 3a 44 84 75 3d dc c5 07 3e
       -0.10996653 0.0010035881 0.05994059 0.13259071
000190 72 a7 f5 bd 28 ac ac 3d d7 e4 09 3e 50 9e 34 3d
       -0.11994828 0.08431274 0.13466202 0.04409629
0001a0 f4 8e 00 3e fb cc ff 3c d0 a5 e8 bc d0 e1 95 bd
       0.12554532 0.031225672 -0.028399378 -0.07318461
0001b0 54 44 56 bd e8 a2 81 3c 47 73 9d 3c 4a 46 bc 3c
       -0.052311257 0.01582475 0.019220008 0.022982735
0001c0 38 0a 1f 3d 8e 6f a1 3c 0b 73 52 bd 80 35 6d 3c
       0.038828105 0.019706514 -0.051379245 0.014478087
0001d0 36 54 6d bd 90 2e 91 bd 5d ce 05 bd 7c 06 3a bd
       -0.057941638 -0.07088959 -0.032667506 -0.04541634
0001e0 aa 1a 97 bd 07 30 b0 3d a0 c7 ed bd 0a 27 ca bd
       -0.07378133 0.086029105 -0.11610341 -0.09870727
0001f0 ea 60 eb 3d f2 c6 84 3d c2 1c f3 bd e6 f3 b4 bb
       0.11493094 0.06483258 -0.118707195 -0.005522239
000200 fa 9d 1c 3e 30 91 1d 3e e8 9c fe 3d 53 36 1b 3d
       0.15294638 0.15387416 0.12432271 0.037893604
000210 9c 62 7e 3d 92 4d c8 3d 04 f5 99 3d 55 bb df 3b
       0.06210576 0.0978042 0.07517436 0.0068277516
000220 55 5f 26 3c 1b a0 4e bd cf f7 d9 bd 10 dd bf 3c
       0.010154565 -0.050445657 -0.10642969 0.02342084
000230 6c db 19 b9 ff 30 15 3d 30 6f 21 3e d5 9f a3 3d
       -0.00014672958 0.03642368 0.15765071 0.0798947
000240 b8 3e 93 bd 3c 0f ab 3d 0e 18 fc bc 00 28 dc 3a
       -0.07189697 0.08352515 -0.030773189 0.0016796589
000250 ea b7 c1 bd 36 3b a1 bd d3 a4 10 3e 8c 2e 6d bd
       -0.09458907 -0.07872622 0.14125375 -0.05790572
000260 44 17 a0 3d 74 61 1b 3d 84 48 4e bd 0f 78 34 bd
       0.078169376 0.037934735 -0.050362125 -0.04405981
000270 ec 1b 6d 3d 47 e6 a2 3b 1c c7 39 bd b1 c1 5a bb
       0.057887957 0.004971299 -0.0453559 -0.003337961
000280 80 29 78 3d 5b 4c d3 bc 50 a6 fc 3d 12 d2 b7 3d
       0.060586452 -0.025793245 0.12336409 0.089756146
000290 d0 44 93 bc 8e 0b 7f bd 65 e2 99 bd f2 ff f6 bd
       -0.017977148 -0.06226688 -0.075138845 -0.120605364
0002a0 26 aa 8a 3c a5 09 81 3d b8 04 ff 3d 48 40 9c bc
       0.016926836 0.06300668 0.12452072 -0.01907362
0002b0 c5 6d 1d 3e c1 fe 14 3c 89 4e b1 ba 3c 91 a7 3d
       0.15373905 0.009093941 -0.0013527434 0.08181998
0002c0 6e ae 9d 3d 83 0d fd bc da 0f b4 bd 26 ee e8 bd
       0.076992854 -0.030890232 -0.08792086 -0.11373548
0002d0 85 cf ef 3d 99 56 99 bc 99 5c 36 3d 44 38 78 bd
       0.11709503 -0.01871805 0.0445219 -0.060600534
0002e0 c8 f7 2a 3d ad 4f 84 3d 04 04 f3 bd ee ff ed 3d
       0.04174021 0.064605094 -0.11866 0.1162108
0002f0 cd c8 22 3e b8 e9 81 bd e0 35 70 bc e4 36 4d 3d
       0.15896912 -0.063434064 -0.014661282 0.050101176
000300 43 b4 dd 3d 64 c7 de bd 60 60 d9 bc 86 4c b5 bd
       0.10825398 -0.108778745 -0.026535213 -0.08852486
000310 74 08 63 bd 0b 1d 4b 3d 66 cb 5d bb ed 1b 8b 3d
       -0.055427983 0.049588244 -0.0033843159 0.06792436
000320 8c 0f dc 3c a2 5b 3d 3d 2e 6a 57 3d 44 31 84 bd
       0.026862882 0.046229966 0.052591495 -0.06454709
000330 39 6c 60 3c 22 46 f0 bd 6e fa b5 bd f6 2d b7 bd
       0.013697677 -0.11732127 -0.08885656 -0.08944313
000340 e6 ad 90 bd 5c 2f 8f 3d 88 ca 71 3d d4 26 4a 3d
       -0.070644185 0.06991455 0.05903104 0.049353436
000350 c4 9e e7 3d 74 35 a3 3d 23 cc 67 bd 7c 75 d1 bd
       0.11309579 0.0796918 -0.056591164 -0.102274865
000360 a9 03 82 bc e3 c2 a3 3d 30 50 13 bd 41 2f a8 3d
       -0.015870886 0.07996156 -0.035965145 0.08212138
000370 0f 1a 51 bc 68 04 1e bd 94 f5 d5 3d f2 55 46 3d
       -0.0127625605 -0.03857842 0.10447231 0.048421808
000380 4e b3 ba 3d d6 d9 de bb d4 df 8d bd 25 1e 56 bd
       0.09116231 -0.0068008704 -0.069274575 -0.05227484
000390 94 0a 00 3d d5 11 42 3d e6 29 cb 3c 38 c2 38 3d
       0.031260088 0.047380287 0.024800252 0.045107096
0003a0 1b 81 bc bd 79 7b 09 be fa 22 b6 3d 26 bf d3 bd
       -0.092043124 -0.13426007 0.0889339 -0.10339193
0003b0 76 27 b9 39 dc 22 e9 bd ac ac 3c 3d 46 ea d0 bd
       0.0003531535 -0.11383602 0.04606311 -0.10200934
0003c0 bc 5a ad bd 8c b7 e7 3d b4 1b 1a 3c e8 15 c9 3c
       -0.08464572 0.11314306 0.009406019 0.024546579
0003d0 14 1d 80 3d 1a 30 93 bd ef 9c ad 3d 00 84 4c ba
       0.06255546 -0.07186909 0.08477198 -0.0007801652
0003e0 8c bb 9c 3d 71 c5 05 3d be 72 f5 3d e0 b3 17 bc
       0.07652959 0.032658998 0.11984776 -0.009259194
0003f0 bf 05 4d bc 92 47 fd bd 28 06 96 3c 2b 1e 33 bd
       -0.012513577 -0.123671666 0.018313482 -0.043729942

MLP_layers.0.bias f4 [32]
000000 0a 71 88 3d 95 cb c3 3d 81 2b 79 3d 95 51 9f bd
       0.066621855 0.095603146 0.060832504 -0.077792324
000010 30 8b bb bc 2d 59 a0 3d 9f 28 9e bc e8 86 d1 3c
       -0.022893518 0.07829509 -0.019306479 0.025577024
000020 36 17 47 bd 33 b2 4d 3b 0b d0 2d 3d 3a 0c 83 bd
       -0.04860612 0.0031386733 0.042434733 -0.063988164
000030 f4 f6 61 3d 1f e7 e4 3c 40 b9 3d bd d4 51 bf 3d
       0.055167153 0.027942238 -0.046319246 0.09341779
000040 f1 43 d2 bd 42 63 6e 3c 9c 99 dd bd 11 fe 6a 3d
       -0.10266865 0.014550032 -0.10820314 0.057371203
000050 8f ee 92 3d fd 94 ac 3d 2e 41 f1 3d 01 91 df bd
       0.07174408 0.08426855 0.1178001 -0.10916329
000060 8e 82 a5 bd fa 97 93 3d 7e 4d ac bd 2b ad a0 bc
       -0.08081542 0.072067216 -0.08413218 -0.019613823
000070 87 24 58 bc 01 12 92 3d ce 36 93 bc 71 9c fd 3d
       -0.013192303 0.0713234 -0.017970469 0.123833545

MLP_layers.1.weight f4 [1, 32]
000000 d6 7a 1e be fc e1 1a 3e 74 60 28 3e 62 ca 40 bd
       -0.15476546 0.15125269 0.16443044 -0.047068007
000010 f4 07 87 bd 53 28 4f 3e 41 b8 24 bd 4e 76 92 39
       -0.06593314 0.20230226 -0.04021478 0.00027935434
000020 ae 3c 84 bd 59 f1 d0 bd 63 95 27 bd 4a 50 dd 3d
       -0.06456886 -0.102022834 -0.04091395 0.108063295
000030 58 ca b5 bd ac f6 84 bc 5e 96 04 be 90 46 ab 3d
       -0.08876485 -0.016230904 -0.12947986 0.08363068
000040 71 29 b4 bc a6 58 16 3d a0 32 f2 3d 32 6c 30 3e
       -0.021992417 0.036705635 0.11826062 0.17228773
000050 b9 73 d7 3d 91 4e 0f be 62 90 54 3e 15 2c 64 bd
       0.10520119 -0.13994814 0.20758203 -0.055706102
000060 c2 4d 9c 3c ec 49 2b 3e 05 78 a2 ba e2 d2 0f be
       0.019080047 0.16727418 -0.0012395388 -0.14045289
000070 6f c5 5f 3e b9 d1 aa bd 76 b4 ce bb 6f 08 3c 3d
       0.21852659 -0.08340783 -0.0063081337 0.04590648
