SLIC_GAT/best8.pt (torch, 80373 bytes, 12 tensors)

GAT_layers.0.f.weight f4 [32, 124]
00000000: b721 fa3d ec70 8bbd 8b38 b43d ea40 b83d
00000010: 61b7 f9bc 6904 52be cc93 1cbe c7ad 9fbd
00000020: f5d1 ab3c ae9d 8cbd f653 193e 887d c23d
00000030: f084 233e 0adf ebbd a785 2cbe d4b6 0ebe
00000040: 7ea0 babd c902 45be 5aca 83bd 9520 403e
00000050: 4feb e33d af1c 19be 1785 24bd 43fe f6bd
00000060: 77d8 cb3c 1d69 1cbd d1dc 8ebc abf5 30be
00000070: 8226 f03d fee0 b5bd d7a0 01be ab7e 493c
00000080: 9d23 a23d 1b71 9bbd 88bc 713c 39e4 f0bc
00000090: e287 6bbd 340c 30be cc2a 6fbd eae5 443d
000000a0: a000 bebd f2b0 e73d a9a1 f03d 63f9 62bd
000000b0: 55dd 30bd 0f21 c8bd fcd4 9abd 7bb0 f83d
000000c0: 504b f0bd 2791 45be cb24 ccbd 5164 4dbe
000000d0: 7ad4 0d3e 82e8 183e fc93 0f3e 1da0 cc3d
000000e0: 0cca c2bb c8b7 09be a6be b43d d0f7 003e
000000f0: c854 01be 4cdc 03be 2172 40be db95 3dbe
00000100: 2b3f 133d edd0 4e3d bef6 9c3d 4920 92bd
00000110: 2bc3 1ebe 4df9 b9bd 30d9 42be 0e47 f63b
00000120: 7956 d53c c0df 2dbe a4f0 3dbe bb21 b9bc
00000130: 147f 5f3d b21c b7bd 96ac dfbd c0df 1a3e
00000140: 6e5e 54be a2d0 1b3e 2b40 d53d 1c7d 11bd
00000150: 424d 08bd 2aa4 133e 598d 153e 238d 173d
00000160: 946c 313e d85c d0bd 9db3 36be 6212 2bbe
00000170: 2047 e0bd 8b0a 1fbe cb01 18be b031 50be
00000180: 8d72 1a3d 262d d13c 03b5 40bb bc64 2a3e
00000190: f2ff 303d 67ab 3a3e 6023 1abe e945 203e
000001a0: 5d31 11be ca88 063d be25 8e3a 5b00 9fbd
000001b0: 8cd6 2cbb 4139 783c f5e6 cc3c 0a09 123d
000001c0: a23a 9bbd d5da 163e 91ae 983d e87c 283d
000001d0: 0e56 eebd 0093 bebd cb3f 8ebd 7ac2 fb3d
000001e0: 5da5 bbbd bd8c e1bd 0c93 35be 2ce2 023e
000001f0: 16e8 bfbd b7eb dfbd 7fe6 a83d b935 323e
00000200: 0a96 09bd 66a9 e0bd 99bb 263d ea1c 47bd
00000210: e26f 0b3e 1776 9f3d 667d ac3d 6977 32bc
00000220: c676 2d3d b5c7 45be 4dc4 e93c 776f 2abe
00000230: e830 32be 26dc b83c 2a09 da3d bc42 34be
00000240: aa84 aebd 41aa a63d 56d2 eebd a121 1fbe
00000250: c208 a2bd d1c1 80bd e768 34be 62c2 723d
00000260: 78dc fc3d de1a 84bd 6b95 8c3c 1f6c d1bc
00000270: d669 6d3d b8a5 ee3d 6e93 a13d 3f2a ebbd
00000280: ab12 073e cc02 44be cb33 443c 577f b4bd
00000290: 89ac 07be bce4 363e e68b 7e3d 1497 3d3e
000002a0: abba 0b3e 6a7b 35be 919e b33d 2fd0 883c
000002b0: eca0 72bd 6b7a 09be e0bb 3b3d 633a 85bd
000002c0: 2659 0e3e 4fc5 aebd 0114 1a3d 5c33 2abe
000002d0: 8a6b 1abe b4fe bbbb d2a6 d83d 93fe b73d
000002e0: cf7e 5c3d e721 1bbe cd61 4cbd 4f98 b7bc
000002f0: 6b9b 0b3d 0b01 80bc 6cbd f53d 7eb3 9ebd
00000300: ee28 17be 64b6 293c 205c 8e3d b50e 2dbe
00000310: b3ef 14be 3e17 de3c a40c 6abd bd1a 8a3c
00000320: 3533 663d d814 2b3e e09c dc3d facc 093c
00000330: 6f6f 9fbd 20d9 dd3d 9916 eb3d 4f2d edbc
00000340: b3d3 8cbd a0e6 cb3d a7f5 3fbd 4a85 633d
00000350: 6249 b4bd ae7b ecbc 989c 27bd f189 343e
00000360: 63bc 7d3d 70e5 1cbe dc85 1c3d 222a 04be
00000370: 8666 d2bd 7ad9 413e a592 903b fa24 173d
00000380: dcee cdbd 9619 263e 026f 3dbc 7018 92bd
00000390: b49c a53d 2578 283d 59a4 06be 21e4 36bd
000003a0: 580e f83d 9d29 443e fc0a 3c3d 0a0f 9abd
000003b0: d199 21bd 5e69 8a3d 2eca bb3d f70d 91bd
000003c0: 70be 0cbe c1cf 17be aba9 12be 6929 ae3d
000003d0: 64b2 2fbe 896b 31be bbd1 d53c d1e5 debd
000003e0: 1244 85bc cf33 173d cd54 a0bd 9094 5e3d
000003f0: c019 45be 026d 22bd 8ff0 843d bb68 59bd
0.12213462 -0.068086475 0.08799847 0.089967564 -0.03048295 -0.20509495 -0.15290755 -0.07796817
0.020974139 -0.068660125 0.14973435 0.094965994 0.1596868 -0.11517151 -0.1684786 -0.13936931
-0.09112643 -0.19239344 -0.0643508 0.18762429 0.11128866 -0.14952348 -0.040165987 -0.12060215
0.024883492 -0.03818618 -0.017439278 -0.17281215 0.11726095 -0.088808045 -0.12659012 0.012298266
0.07916949 -0.075899325 0.014754422 -0.0294057 -0.057502635 -0.17192155 -0.058390424 0.048070826
-0.09277463 0.113130465 0.11749584 -0.055413615 -0.04317983 -0.097719304 -0.07560155 0.12143036
-0.11733115 -0.19293652 -0.09967955 -0.20057799 0.13850585 0.14932445 0.14021295 0.09991477
-0.005944496 -0.13449013 0.08825426 0.12594533 -0.12629998 -0.12877005 -0.18793537 -0.18514197
0.035948914 0.050492216 0.0766425 -0.07135064 -0.15504138 -0.090807535 -0.19028163 0.0075157946
0.02604221 -0.16979885 -0.18548828 -0.022599092 0.05456455 -0.0894102 -0.1092159 0.15124416
-0.20739147 0.15216306 0.1041263 -0.035519704 -0.033276804 0.14418092 0.14604701 0.036999833
0.17326576 -0.101739585 -0.17841955 -0.16706231 -0.10951066 -0.15531366 -0.14844434 -0.20331454
0.0377069 0.025534224 -0.0029404766 0.1663999 0.04321284 0.18229447 -0.15052557 0.15651669
-0.14178987 0.032845296 0.0010844988 -0.0776374 -0.0026372997 0.015150369 0.025012473 0.03565315
-0.07579543 0.14731915 0.07455171 0.041134745 -0.116375074 -0.09305382 -0.06945761 0.12292953
-0.091624 -0.11013172 -0.17731875 0.1278159 -0.09370439 -0.10933631 0.08247089 0.17403306
-0.033590354 -0.1096981 0.04070625 -0.04861156 0.13616899 0.07786196 0.08422355 -0.010892727
0.0423496 -0.19314463 0.028535986 -0.16644083 -0.17401469 0.022565912 0.10646279 -0.17603582
-0.085213974 0.08137942 -0.11661212 -0.15540172 -0.07911827 -0.062869675 -0.17618142 0.05926741
0.123467386 -0.06450437 0.017161092 -0.025564251 0.05796226 0.11652702 0.07889448 -0.11482667
0.13190715 -0.19141692 0.011975239 -0.08813351 -0.1324941 0.17860693 0.062145136 0.18514663
0.13645427 -0.1772286 0.087704785 0.016700832 -0.0592355 -0.13425605 0.04583347 -0.06505277
0.13901195 -0.085337274 0.037616733 -0.16621155 -0.15080085 -0.00573715 0.105786934 0.08984103
0.05383187 -0.15149651 -0.049897958 -0.022411494 0.034083765 -0.015625497 0.1199902 -0.07749079
-0.14761707 0.010358427 0.06951165 -0.16900142 -0.14544563 0.027110692 -0.05714096 0.016858453
0.05620118 0.1670717 0.10772109 0.008410687 -0.07784926 0.10832429 0.114789195 -0.028952269
-0.06876316 0.099560976 -0.04686513 0.055547036 -0.08803059 -0.028867569 -0.040920824 0.17630745
0.061947238 -0.15321898 0.038213596 -0.12906697 -0.10273461 0.18930617 0.0044120126 0.036900498
-0.100553244 0.16220698 -0.011562111 -0.07133567 0.080865294 0.041130204 -0.13148631 -0.044651154
0.12112111 0.19156499 0.045908913 -0.075224 -0.03945333 0.067583784 0.09169422 -0.07082742
-0.13744521 -0.14825346 -0.14322536 0.08503992 -0.17157894 -0.17326178 0.026100984 -0.10883678
-0.01626781 0.036914643 -0.078286745 0.0543409 -0.19248104 -0.03965474 0.064911954 -0.053078394

GAT_layers.0.f.bias f4 [32]
00000000: 7392 d13b a9d4 043d 0e6f a33c 0c57 8cbd
00000010: ee2d 94bd 1bdf 943d 5171 583d 5e0b 913d
00000020: 8d6a 30bd e173 a6bd 96b9 753b dc9e 3bbd
00000030: e3c1 3d3d fb70 703c eca3 343d bca1 60bd
00000040: eb28 8ebc a529 f2bc 0295 cd3c 2b3e a83c
00000050: c17b 75bc 13f0 b2bd cac4 9a3d 8edb 90bd
00000060: 929c 953b b9f7 c4bd 9bef 2e3d e287 b1bd
00000070: ff06 5bbd f49a 8d3d 687e a6bd 16be 863c
0.006395632 0.03242937 0.019950416 -0.068525404 -0.07235323 0.072691165 0.052842442 0.07082246
-0.043070365 -0.08127571 0.003749465 -0.045805797 0.046327483 0.014675374 0.04410164 -0.054841742
-0.017353496 -0.029560873 0.025095467 0.020537456 -0.0149831185 -0.08737197 0.07557066 -0.07073127
0.004565784 -0.09617562 0.042708974 -0.08668496 -0.05347347 0.069143206 -0.08129579 0.016448062

GAT_layers.0.w.weight f4 [1, 124]
00000000: 5244 00be 636c 32be 466e 2bbe 038a 1a3e
00000010: 34ee 55be f647 3bbe 61ac 5f3e d01b 723b
00000020: 5f76 30bd 4513 20be aaf9 b03d ed30 b03d
00000030: 890d 95bd 2a2d cd3c 02a2 0c3e 7ef0 9ebd
00000040: aca6 0f3c a1e5 d3bd ea61 c93d 9c39 303d
00000050: 9d29 34be 26c0 8c3b b20a fbbd 6cda 233e
00000060: f31d a83c ba2a 2c3e 9f6d 9bbd c2e1 10be
00000070: c9ab 1cbd c690 3f3e 7542 09bc ba7e 3bbd
00000080: 295b 97bd 3b0f 0bbe dbf1 5ebd 475b 00be
00000090: 4da3 133e 5844 46be 1636 2abe 6ab9 ebbd
000000a0: f16d e23d ea13 ef3d 80bc d63c a069 1c3e
000000b0: 9182 bbbc d85b b13c 8f46 53bd 587f 64bd
000000c0: 9375 58bd e231 4d3e f9ce 67bd f6d9 133e
000000d0: f44a 59be b016 333e b408 5fbd 6b22 aebd
000000e0: cb43 f7bd 3abe aa3d 20f5 33be 8fbd 4c3e
000000f0: f231 583d 9ea7 4c3d 4b6f 153d 4a8d 3f3e
00000100: 30ac 53be 9ba2 4ebe 522c 2fbc 7025 43be
00000110: bc2d bd3c 3d52 0b3e 67d6 663e c9c9 583e
00000120: bf7c 433c 6ccc 8ebd c66c 0d3e 18f8 3a3e
00000130: cfdc 043e 3caf 373c f620 5dbe d214 00bc
00000140: 0d33 e6bc 61ac 3c3e 3a1c 683e d580 7dbd
00000150: d25b 473e 43d2 153e 35d2 163e 64b4 1c3e
00000160: a3ba 52bd e482 383e be98 20bd fbca 263e
00000170: 3099 2cbe ee3b 2c3e df8c 3d3e b17e 43be
00000180: 7f56 7b3d 17d3 c0bc 180b a9bd d2f9 db3d
00000190: 015a f33d 664a eabd 85cd d33d fe7b 95bd
000001a0: 2fea 603d 6823 2d3d 62cf 67bd f736 3fbe
000001b0: dbfc 21be c341 96bd 4d8b f53b fc15 073d
000001c0: 266a 543e fb66 41be 33c4 6c3d 090b 2c3e
000001d0: e053 32be 97dd ca3d b3b9 0dbe d01e e9bd
000001e0: ef8f 7fbd d935 99bd 559b 433e 9ddb 14be
-0.12526062 -0.17424159 -0.16741285 0.1509171 -0.20891649 -0.1828917 0.21843101 0.0036942847
-0.043081637 -0.1563235 0.0864137 0.08603082 -0.07277972 0.02504595 0.13733676 -0.07760714
0.008767765 -0.103465326 0.09833129 0.04302369 -0.17593999 0.004295367 -0.12257899 0.1600129
0.020522093 0.16813174 -0.07589268 -0.1414862 -0.038249765 0.1870757 -0.008377661 -0.045775153
-0.07390434 -0.13580029 -0.05442987 -0.1253482 0.14417763 -0.19362009 -0.16622195 -0.11509974
0.11056126 0.1167372 0.02621293 0.15274668 -0.022889407 0.02165024 -0.05158096 -0.055785507
-0.052846503 0.2003856 -0.05659387 0.14438614 -0.21219999 0.17489123 -0.05445166 -0.085026585
-0.12073477 0.08337064 -0.17573977 0.19994186 0.052782007 0.04996454 0.03648309 0.18706241
-0.20671153 -0.20179217 -0.010691719 -0.1905725 0.023093097 0.1360559 0.22542726 0.21170725
0.011931597 -0.06972584 0.13811025 0.18258703 0.12974857 0.011211213 -0.21594605 -0.007817464
-0.028100515 0.18425132 0.22667018 -0.061890442 0.1946862 0.1463099 0.14728625 0.15303189
-0.051447522 0.18018681 -0.039208166 0.16288368 -0.16855311 0.16819736 0.1851077 -0.19091298
0.061361786 -0.023538155 -0.08254069 0.10741009 0.11882401 -0.114399716 0.10341934 -0.0729904
0.054910835 0.042270094 -0.05659426 -0.18673311 -0.15819113 -0.07336762 0.0074934126 0.03297995
0.20743617 -0.1888694 0.057804298 0.16801085 -0.17414808 0.09905546 -0.1384037 -0.1138283
-0.062393125 -0.07480974 0.19102223 -0.14536901

GAT_layers.1.f.weight f4 [64, 64]
00000000: a863 333c 8c77 833d f143 d2bd 3e27 bf3d
00000010: 88f0 9ebd 5d55 46be 931d c13d a518 263e
00000020: a3c5 3dbd cc68 f4bd b9ec 363d 1ca5 32be
00000030: 6f4a 293e e0cc 573d 9da1 0abe 272b 96bd
00000040: ef35 0a3d 9b69 183e 93a2 e9bd afe4 53be
00000050: e441 55bd acf1 aa3c 2909 3e3e 75b5 8e3d
00000060: 8186 193d 0e58 e7bc 5aeb 553e c621 e13d
00000070: eda3 e7bd a937 d3bd f576 4a3e c186 8cbd
00000080: f252 5f3e 3dac 0b3e 9faa 403e 0f38 31be
00000090: f50c ebbd ac37 1b3e 7f95 473e 5554 de3d
000000a0: b34c 3c3e f862 103e 3fce 473d 0f00 2c3d
000000b0: f789 9bbd d1fa 553e 2388 25bc d8fb 76bd
000000c0: 5512 113e 1c62 833c 4522 9b3c 419d cd3d
000000d0: 5b04 0dbe 1f8c 5c3e bd3f 463d 0150 603e
000000e0: ac4e fdbd 3f3f 28be d7fb c53d 35e8 393d
000000f0: edba e13d 3b89 f73d 9d64 823d 533e 343c
00000100: 1d23 193e b073 9fbd ab5d 59be 6c69 1a3e
00000110: 6b2e 99bc 657c 4abe 9485 aa3c 9b02 9a3d
00000120: a809 3bbe e63f 8abd 7451 9f3d 1ec3 8d3c
00000130: dfa3 403e 5a26 a83d db78 0a3e 885a a23d
00000140: 0e04 1dbe 86fb 29be 37ad 25bd f418 23bd
00000150: 4182 d43d 0a64 26be ae87 23be 13b0 22bd
00000160: f517 52bd 1306 cbbc 9f09 4abe e3ff d0bd
00000170: 353b 583e b596 0a3e 96ea f3bd f85f 413e
00000180: 1fdc 39bd 62b9 ab3d 920f 013d ae73 203e
00000190: d694 183d 053e bb3c 303a 4ebe 96d2 f3bd
000001a0: c699 48bd 43f3 563e 4b5f 14be 9bc7 b0bd
000001b0: b6e5 2dbe 84c6 06be 5668 1fbe 6f3c 573e
000001c0: 9d02 c7bb 26db 2dbe 7a71 373c e73e 18bd
000001d0: 400d 473e 7aa6 863d d68c cfbd 65be 38be
000001e0: a509 a43d 9ca0 5b3e 710c 42be 8993 3dbe
000001f0: 8b53 20be 1fbb 4ebe 5e7c 9c3d 3e0d 593e
00000200: be6d 3e3e 4b7b 1a3d e23e a1bd 18c7 113e
00000210: ccf3 2b3e 6169 fa3d 80bc 0dbe e47c f2bd
00000220: 3045 45bb 7b3d 46bd ea7e fc3d 47c8 5a3e
00000230: 69f9 a7bc c5d1 653d b86a 043d d6b0 debd
00000240: 2a24 383e 6795 cdbd 7f02 bf3d cc4f f6bd
00000250: 602f 4cbe 667b 06be 9ced 213e ef4f 72bd
00000260: 7ca4 1c3e 9046 1f3e 5acf 00be ff3c 753d
00000270: 8c53 0abe 7784 843d 7c23 f9bd 80a6 5dbd
00000280: fc2e dc3c 376f a3bd 2677 c8bc db57 82bd
00000290: e1f9 123e 956c 5c3e 8817 24be 206a 08be
000002a0: 2503 b0bd 60ae 91bd 3dfe 3f3e 1cc3 01bc
000002b0: b3a9 1dbd 0c5c 1dbe 5ddd 963d 6777 903d
000002c0: 4fb9 dd3d 3bd5 123e f3a1 243e 7c4f 2b3e
000002d0: 9938 06be 96d5 7e3d 196e 44bd 2ecc 373e
000002e0: 142b d1bc 769c fcbd 12a3 913d f0c8 3c3e
000002f0: 9be8 32bd ecae 1fbe 3eb9 233e 51aa 493e
00000300: 8c11 303e 3e82 a3bd eb74 203e acc7 763d
00000310: b91b 213e 76b6 e4bd 26b1 9b3d 8980 1b3e
00000320: b5be 2fbe e16a b1bc da45 f9bd 9586 40be
00000330: e19e a73d 9310 21be f7ac 48be 15c0 7a3d
00000340: 7777 8e3d 164e a2bb 9d7b 623d 9144 853d
00000350: 4b6a 1d3d 22be 5fbd be80 52be 72e1 7c3d
00000360: 7086 293e 2008 c7bd 4e97 263e 41c4 7c3d
00000370: 930f 13be 823d 893d 7834 583e 8ea2 9cbc
00000380: aff5 94bd 3794 eabd a16d d6bd f899 43be
00000390: e6da 303e 0574 24be 0a3c 973d f1fa fcbd
000003a0: 75fa 253e 45e2 afbd 3d1d 36be 6356 18be
000003b0: c44e 28be a1eb 21bd 90ca 153d fcf5 d13c
000003c0: 14fd 683d a06c bcbd 8752 25bd 3f6a 85bd
000003d0: 315c c2bc 1bf3 fd3d 19e5 3ebe 44aa 6b3d
000003e0: a303 f6bd 89df 09be 7014 42be cb0c a73d
000003f0: 447b 363d ebe9 20be bfb0 38bd 0668 3d3e
0.010949053 0.06419286 -0.10266865 0.09333657 -0.077607214 -0.19368501 0.09429469 0.16220339
-0.04633106 -0.11934051 0.04465935 -0.17445797 0.165323 0.05268562 -0.13538213 -0.073324494
0.03374284 0.14884035 -0.11407962 -0.20692705 -0.05206479 0.020867191 0.18558182 0.06968204
0.03748179 -0.02824023 0.20890561 0.1099277 -0.11310563 -0.10313351 0.19771941 -0.0686164
0.21808985 0.13639922 0.18815087 -0.17306541 -0.11477081 0.15157956 0.19490622 0.10855929
0.18388633 0.14100254 0.048780676 0.041992243 -0.07594674 0.2089646 -0.010103258 -0.06029877
0.1416715 0.016037993 0.01893724 0.100397594 -0.13771193 0.21537827 0.04840063 0.21905519
-0.12368521 -0.16430376 0.09667175 0.045387466 0.110219814 0.120867215 0.06366847 0.011001187
0.14954801 -0.077857375 -0.21227138 0.15079278 -0.018698892 -0.19774015 0.020815648 0.07520028
-0.18265402 -0.06750469 0.07779208 0.017304953 0.18812512 0.0821044 0.13522665 0.07927424
-0.15333578 -0.16599855 -0.040448394 -0.03981872 0.103764065 -0.162491 -0.15969726 -0.0397187
-0.05129238 -0.02478317 -0.19730233 -0.102050565 0.21116336 0.13534053 -0.11909978 0.18884265
-0.04537594 0.08384968 0.03150899 0.15669128 0.037251316 0.022856722 -0.20139384 -0.119054005
-0.048974775 0.20991234 -0.14489476 -0.08631822 -0.16982159 -0.13161665 -0.15567145 0.21019147
-0.0060733096 -0.1697813 0.0111964885 -0.037169363 0.19438648 0.06574722 -0.10134284 -0.1804138
0.08009652 0.21447986 -0.18950059 -0.18513311 -0.15656869 -0.20188569 0.07640909 0.21196458
0.18596551 0.037715238 -0.07873322 0.14236104 0.1679222 0.12227131 -0.13841438 -0.11840227
-0.0030101053 -0.048398476 0.123288944 0.21365462 -0.02050467 0.056108255 0.032328337 -0.108735725
0.17982545 -0.10038262 0.09326648 -0.12026939 -0.19939947 -0.1313301 0.15813297 -0.059158262
0.15297121 0.15554261 -0.12579098 0.059872624 -0.13508433 0.06470578 -0.12164971 -0.054113865
0.026877873 -0.07980197 -0.024470877 -0.06364413 0.14353134 0.21525796 -0.16024601 -0.13321733
-0.0859435 -0.071133375 0.18749328 -0.007920053 -0.038491916 -0.15367144 0.073664404 0.07054024
0.108263604 0.14339153 0.16077404 0.1672954 -0.13107528 0.06221541 -0.04795656 0.17948982
-0.025533237 -0.1233453 0.07111181 0.18436027 -0.04367886 -0.15594071 0.15988633 0.19693877
0.17194194 -0.07983826 0.156696 0.060249016 0.15733232 -0.11167614 0.07602148 0.15185751
-0.17162593 -0.02165741 -0.12171526 -0.18801339 0.081846006 -0.15728979 -0.19597231 0.06121834
0.0695638 -0.004953156 0.055293668 0.06507219 0.038431447 -0.054624684 -0.20556924 0.06173844
0.1655519 -0.097183466 0.16268656 0.0617106 -0.1436141 0.06701185 0.21113765 -0.01912048
-0.07273423 -0.11454051 -0.10470129 -0.19101703 0.17271003 -0.16059883 0.073844984 -0.12352551
0.16208823 -0.08588079 -0.17784591 -0.14876704 -0.16436297 -0.039531354 0.03657013 0.02562999
0.05688198 -0.09200406 -0.040361907 -0.065144055 -0.0237256 0.12399884 -0.18642081 0.057535425
-0.120124124 -0.13464178 -0.18953109 0.08156737 0.04455115 -0.15714233 -0.045090433 0.18496713

GAT_layers.1.f.bias f4 [64]
00000000: fbaf 5d3d 3708 db3d 1110 c5bd b089 93bc
00000010: 35da 233d eb94 03be 9fc0 dd3d 8d8e ed3d
00000020: 7ccb 38bd c555 ee3d 78f8 f23d ed05 c0bd
00000030: f244 25bd 8390 f03d ed5f 053e 4fba 99bd
00000040: e06e 7e3d 6e3e f3bd 3c2a 95bc b16b cc3d
00000050: 28a3 cabc af84 1c3e 5537 933d fe98 583d
00000060: 738d 82bd ae28 a0bd 3768 02bc 8acb 03bd
00000070: 0f3b 173e 43ce 193d 62d2 443d 990a 0e3e
00000080: 371b 4c3d a6dd 093e be0d 91bc d55f a3bd
00000090: eae7 fabd 2afb 033e 5ed6 003e c7fb 833d
000000a0: c0a7 e4bc 97fb 7bbc b0e6 ec3d b9c7 e13d
000000b0: ed05 9c3d 73f4 66bc 4d60 4d3d fe6f aabd
000000c0: 95eb a6bd 0825 3d3d 2009 d6bb 6808 083e
000000d0: d27a 47bc f8a9 ac3d 9b61 9fbd 8649 113e
000000e0: 0106 3bbb 7598 f53d 86ad 8ebd 6404 c8bd
000000f0: cc89 30bd 29a6 9a3d d1af 0cbd 0009 33bd
0.054122906 0.10694926 -0.09622205 -0.01800999 0.04000302 -0.12849776 0.10827755 0.11599455
-0.045115933 0.11637453 0.11863798 -0.0937613 -0.040348954 0.117463134 0.13024874 -0.07506239
0.062117457 -0.11877142 -0.018208615 0.09981478 -0.024736002 0.1528499 0.07188288 0.05288028
-0.063746355 -0.07820259 -0.007959417 -0.03217653 0.14768623 0.037550222 0.0480522 0.1387123
0.04983064 0.13463458 -0.017706748 -0.07977263 -0.12251265 0.1288878 0.12581775 0.06444507
-0.02791202 -0.015379808 0.11567438 0.11024422 0.07618318 -0.014096367 0.050140668 -0.08322142
-0.081504025 0.046177894 -0.0065318495 0.13284457 -0.012175279 0.084308565 -0.07782289 0.14188203
-0.0028537514 0.119919695 -0.06966691 -0.097664624 -0.043100163 0.07551224 -0.03434736 -0.043709755

GAT_layers.1.w.weight f4 [1, 64]
00000000: c613 2dbe 6150 b8bd fe3c 873e d66b 2fbe
00000010: d977 993d 661b f4bd 1b37 b33d 0fbb 963d
00000020: 7ed4 83be bddf 5c3d 5587 8f3d 7ae5 683e
00000030: c314 0ebd 10e0 f93d 84ea 5dbe 04ae d5bd
00000040: a1fa f9bd 50fe 893e f24c 9cbc 7adb 2cbe
00000050: fed8 243e 40bc 83be aa25 763e c6f0 c6bd
00000060: f000 043e b68f 1c3e 884a 05be a561 2abe
00000070: 055e 1abe db26 403e f11b 943d cc8a a63d
00000080: 3139 6ebe 5711 1fbe fdbf 2cbe 88c6 d6bd
00000090: 0189 64be 3bb8 7cbe 3294 123c a60c a33d
000000a0: a6b4 2e3d 358a ca3c e552 533c a6b8 033e
000000b0: ebc4 80be d2d6 8f3e e49d 39bc 9850 433d
000000c0: 0777 86be 9470 013e fcc9 2fbe 1996 8f3e
000000d0: 07c6 7cbe 5df0 92be 3b53 3b3e 0a41 7fbe
000000e0: abb6 eebc e6e6 48be 2a66 b6bd a2af 583d
000000f0: 7e5e 6d3e feed 8d3e 3ec7 73be 004d c63d
-0.16902074 -0.08999706 0.2641372 -0.1713098 0.07493562 -0.11919288 0.08750745 0.07359897
-0.25748056 0.05392431 0.070082344 0.22743788 -0.03468777 0.1220094 -0.21671492 -0.104335815
-0.12206007 0.26951838 -0.01907966 -0.16880599 0.16098401 -0.2572956 0.24037805 -0.09713893
0.12890983 0.15289196 -0.13016713 -0.16638811 -0.15074928 0.18764822 0.07231892 0.08131942
-0.23264004 -0.15533958 -0.16870113 -0.104870856 -0.22317888 -0.24679653 0.008946465 0.07961397
0.04265275 0.024724105 0.012898182 0.12863407 -0.25150236 0.28093582 -0.011329148 0.047684282
-0.26262686 0.12640601 -0.17166895 0.28044203 -0.24684916 -0.28699008 0.18293469 -0.24927154
-0.029139837 -0.19619331 -0.08906205 0.05290187 0.23180577 0.27720636 -0.23806474 0.09682655

GAT_layers.2.f.weight f4 [64, 128]
00000000: f028 c9bd bb53 3c3c 778c 44bc ddfe b8bd
00000010: dd61 8b3d b51e dfbd 559e 17be 422b ecbd
00000020: a770 39be e7d6 093e f937 1bbd 2554 2fbe
00000030: ad68 1b3e 309b 98bd 7eef 29be f740 233e
00000040: 1bee 82bd dca5 18be 3a3a 67bd 09a8 39be
00000050: e226 323d 4a7d 75bd 221c e83d eac3 33be
00000060: 20c3 d53c 3583 b6bd c15b bb3a ae27 083d
00000070: 55f1 2fbe b4fc cb3d 0d6f f0bd 5713 0fbc
00000080: 00ee 2bbe 4015 19be 4f20 5f3d 3a69 033e
00000090: be88 efbc 94ac 18be 9987 52bd e71f 9d3c
000000a0: ee48 05be b8ca 87bd 5f8c 29bd 3ae9 d8bd
000000b0: 96eb 05be 4d84 0ebd 269f 0b3e 35bd 103c
000000c0: ea52 293e fb82 943d fc24 11be 6f08 1cbd
000000d0: 69a9 183e 7ee0 23bc a5c2 4ebd ac96 d6bd
000000e0: eaf4 153d 9791 883d d132 aabd 9563 c33c
000000f0: a1a4 01bd dff6 c63d 1727 cfbd c427 bdbd
00000100: 4a1e 0dbe 1058 c4bd 33d1 e53d a691 263e
00000110: 5440 9f3d 474e bd3c 8a62 31bd b047 cdbd
00000120: 87da 003d 153c c43d 977e 8f3b d830 853d
00000130: b6bb 293e 0969 1f3e a3c8 2dbe 4b1c ac3d
00000140: d05f 633d 6f2b 13bd be8f 2c3e 2b21 38be
00000150: 5e50 1ebe d251 f6bd 3bef cebd 8567 e83d
00000160: 8ddf 293e 04dc a13d ea31 34be b709 c33d
00000170: 61d8 44bd 6eb3 26be a6d0 a5bd 2fd7 95bd
00000180: 41cd 893d 281b 413c bb23 003e 350f 20bd
00000190: 4a81 3cbe 2986 debb e51a 9fbd ab2c bcbd
000001a0: f770 083c 2abf 2e3e 1511 5fbd 8aff 443d
000001b0: 2c2d 2b3d ab39 31bc 7f24 0bbe a8f1 39be
000001c0: d2d7 a9bd fb10 e53c 8de7 e03c b9bc 29be
000001d0: 8178 7e3c d14c a53d 42c8 8e3d 1194 bcbd
000001e0: 59f8 8fbc 2ae8 033e a150 073e ed1b 64bd
000001f0: 3f45 c5bd de12 f2bd 9124 1c3d 63ea 673c
00000200: 32a5 24be 35e3 a7bd 06c9 01bd 4400 11be
00000210: ec8f a83c 014c f4bd 7929 b23c 302f 513d
00000220: baea a2bc c6db ae3d c4b1 7dbd 3c66 393e
00000230: 908f c33d 895f 983d bee2 d3bd 6e60 0ebd
00000240: ab65 cabd 4d9c e43d deae e5bd fa33 26be
00000250: 4f67 0e3e b6f3 b53c 3783 8e3d 20c5 33be
00000260: 0d4e 383d 84b5 263e 4730 05be b733 75bd
00000270: 1fbe a23b 7794 eebd 99b3 813c a408 f93c
00000280: 3ab0 7a3d 3297 1b3e 50b1 c5bd 3f16 893d
00000290: 5e45 1d3e 328c 00be 8040 57bb 50c3 22bd
000002a0: 8205 d5bd 01b5 2a3e a793 173e dc3a 023e
000002b0: 4d99 83bd 58f0 083c 1373 e0bd 3f01 cc3d
000002c0: 0476 3e3c 1942 8e3d 5da0 203e df6e 15be
000002d0: e621 063e 9206 76bc 213b c9bd 6e6c 293e
000002e0: afe6 c0bc 434a 2dbe 97a3 1a3e 8dc5 9b3d
000002f0: 9bf5 1cbd fa03 3d3d 561e 223e a002 6c3d
00000300: 7f12 06be 06dc 083e 0d3a d2bd ec3d e23d
00000310: 2c72 923d b441 20bd 2d69 2cbe 33d8 a93d
00000320: 506a 213d 773d ba3d beaa 083d 139b bd3d
00000330: 5bf1 84bc 19d8 8cbd c94f a2bd 1b48 8d3d
00000340: b8d5 6c3d 9565 313e cb86 1b3e 34e4 25bd
00000350: 8238 e2bd 5213 e33d af23 bb3d d1d2 f0bd
00000360: 5197 ac3d 2ac1 153e 0c79 033e 44d6 d4bd
00000370: a94c 2fbe a92c 653d ada9 333e c3a7 82bc
00000380: 31eb 59bc 460c a4bd b074 0bbe 3f4f 553d
00000390: 7865 8b3d fb9b 91bc e0fb fdbd c6cb 233b
000003a0: 0145 163e 6bd1 bebd 97ce 3abd 4df7 343d
000003b0: 0a88 c6bd adf3 103e 57f9 353e 1143 febc
000003c0: 4c62 1dbe 08c2 d7bd 4331 a7bd af81 7d3d
000003d0: 887e 3b3d 92dd bbbc 8965 2fbe 33af 8abd
000003e0: 5675 213e 336b 963d 85a3 313d 40a2 083e
000003f0: f68e b2bc 082b babc aa00 053e a8ab 133e
-0.09822261 0.011494572 -0.01199638 -0.09032986 0.06805775 -0.10894529 -0.14806493 -0.11531688
-0.1810938 0.13460885 -0.037895177 -0.17121942 0.1517665 -0.07451475 -0.16595265 0.15942751
-0.06393071 -0.1490702 -0.056452014 -0.18130507 0.043494113 -0.059933938 0.11333491 -0.17555204
0.02609402 -0.089117445 0.0014294313 0.033240966 -0.17181905 0.09960309 -0.11739931 -0.008732638
-0.16790009 -0.14949512 0.05447417 0.1283311 -0.029240008 -0.14909583 -0.051398847 0.019180251
-0.13016102 -0.066304624 -0.041393634 -0.105913594 -0.1307815 -0.03479414 0.13634929 0.008834173
0.16535535 0.07251545 -0.14174265 -0.03809398 0.14908375 -0.010002254 -0.050478596 -0.10477957
0.03661052 0.06668394 -0.08310474 0.023851195 -0.031651143 0.09715056 -0.10114878 -0.092361
-0.13781086 -0.09587109 0.11221542 0.16266498 0.077759415 0.023108615 -0.043306865 -0.10023439
0.031458404 0.09581772 0.0043791044 0.06503457 0.16575512 0.15567411 -0.16971068 0.08403834
0.055511296 -0.035930093 0.16851708 -0.17981403 -0.15460345 -0.12027325 -0.10104223 0.1134787
0.16589184 0.07903293 -0.17597166 0.09523337 -0.048057918 -0.16279384 -0.08096437 -0.07316434
0.06728602 0.01178626 0.1251363 -0.039077003 -0.18408695 -0.0067908955 -0.077688016 -0.09188207
0.008327714 0.17065111 -0.05445965 0.048095264 0.041791126 -0.010816972 -0.13588141 -0.18158591
-0.082931176 0.027962198 0.027454162 -0.16575898 0.01553166 0.08071292 0.0697179 -0.09207929
-0.017574476 0.12881532 0.13214351 -0.055690695 -0.09632348 -0.11820005 0.03812081 0.014155003
-0.16078642 -0.08197633 -0.03168585 -0.14160258 0.02057644 -0.11928559 0.021748291 0.051070392
-0.019887317 0.08538012 -0.06193711 0.18105406 0.09548867 0.07440097 -0.10345982 -0.03475993
-0.09882673 0.111626245 -0.11214994 -0.16230765 0.13906597 0.022210937 0.06958621 -0.17555666
0.04499631 0.1628018 -0.13006698 -0.059863772 0.004966512 -0.11649411 0.01583271 0.030399628
0.06120322 0.15194395 -0.0965296 0.06693696 0.15358493 -0.1255348 -0.0032844841 -0.039737046
-0.10401441 0.1667061 0.14802419 0.12717766 -0.06425724 0.008358084 -0.10959449 0.09961175
0.011624817 0.06946201 0.15686174 -0.14593075 0.13098869 -0.015016215 -0.09825731 0.16545269
-0.023547499 -0.1692286 0.15101467 0.07606039 -0.038320165 0.04614637 0.15831885 0.05761969
-0.13092993 0.13365182 -0.102649786 0.11046967 0.07150683 -0.03912516 -0.16836996 0.0829319
0.039408028 0.09093755 0.033365957 0.09258094 -0.016228369 -0.06877155 -0.07925374 0.06898519
0.057821006 0.17323907 0.15188138 -0.040500835 -0.11045934 0.110876694 0.091376655 -0.1175896
0.08427299 0.14624467 0.12839144 -0.103924304 -0.17119087 0.055950794 0.17545195 -0.015949136
-0.013300703 -0.080101535 -0.13618731 0.052077528 0.06806463 -0.017774573 -0.12401557 0.0024993285
0.1467476 -0.09317287 -0.045607176 0.044181157 -0.09693916 0.14155455 0.17770897 -0.03103784
-0.15369529 -0.105350554 -0.08163693 0.061891254 0.045774966 -0.022932801 -0.17128576 -0.06771698
0.15767416 0.073446654 0.043368835 0.13343143 -0.021796685 -0.022725597 0.12988535 0.1442095

GAT_layers.2.f.bias f4 [64]
00000000: 81f0 ecbc 6202 8dbd 9cdb c83d dbad a8bd
00000010: a844 9dbd 1956 96bd a64a 9abd ac4e 0dbd
00000020: 791a b83d b37a d73d e423 89bc 6835 b53d
00000030: fb94 823d 4d51 963d 59a2 34bb c66f b03d
00000040: e3db 2abd 4f90 003e b1bf 293d d5f9 563d
00000050: 8d93 aa3b 628e 663b 13e4 25bc 038b 0a3e
00000060: 1185 463d e4b5 3abd 3c6a bebc 258b 783d
00000070: 9dc5 543a 011d 2ebd d076 513d b301 6ebd
00000080: 231d 013e b673 21bd 69c9 533c 1981 abbd
00000090: 60da d4bc 8c81 25bd 3e2b 343d 57ca fc3d
000000a0: 7a7c ac3d ba2d 253a f12a 7abd 6006 443d
000000b0: d6d9 903d 9af3 7d3d 27ef 74bd 3a4b 403d
000000c0: c974 5fbd 2279 9f3c 8408 cc3d e1f0 3abb
000000d0: 1da7 41bb 947c 37bd 42a7 9c3d 5357 d73d
000000e0: 86f9 8cbd 75cd b6bc 9937 56bd 93a9 5bbc
000000f0: ec97 0e3d 18df f73d 9da4 f5bc c8e9 8f3d
-0.028923275 -0.0688522 0.09807512 -0.08236285 -0.07679111 -0.073406406 -0.07533769 -0.034498855
0.08989424 0.1052145 -0.016740747 0.08848077 0.06376072 0.07339726 -0.0027562587 0.08615069
-0.041713607 0.1255505 0.041442577 0.052484352 0.0052055777 0.0035180082 -0.010125178 0.13529591
0.048466746 -0.04558362 -0.023244016 0.060679574 0.0008116605 -0.04250813 0.0511387 -0.05810709
0.12608771 -0.03941699 0.012926438 -0.08374233 -0.025983036 -0.04040675 0.04398655 0.12343281
0.084221795 0.0006301064 -0.06107611 0.047857642 0.07072799 0.061999895 -0.059798386 0.04694674
-0.054554734 0.01946694 0.09962562 -0.0028524923 -0.002954907 -0.04479654 0.076490894 0.10514703
-0.0688353 -0.022314766 -0.052299116 -0.013407129 0.034812853 0.12103099 -0.02998572 0.07027012

GAT_layers.2.w.weight f4 [1, 128]
00000000: 8c37 803d f3cc 16b9 c3d0 763d 2c8f 5abe
00000010: 0770 f83a 557e 023e 7549 45be efb6 4e3d
00000020: 2d2f c13d b4c6 233e 0e87 debd 554a b33c
00000030: e147 18be dc30 0abd 98e4 dcbd 7afe 463e
00000040: c540 29be 4fb7 eebd 73d4 1f3e c6e4 393e
00000050: b960 b8bc 32b0 a83c c741 4dbe de33 40be
00000060: f7f4 b7bd 6145 27be c30c 29be ead0 d5bd
00000070: a139 4abe dc55 353c 38f1 2f3d 1cdf 04be
00000080: 081c 1d3e 87d6 e63d cfe6 103e c911 113e
00000090: aac1 c7bd d805 f3bc c3e7 2ebe 959f 3c3c
000000a0: a347 02be 2c9f 863c 793a eb3c 3e8a d53c
000000b0: afc7 5c3e 8357 f33d fb04 16be 9dcd 4b3e
000000c0: 9369 9a3c 8134 213e 0d62 623d 842e 583e
000000d0: 131d af3d d167 183e e9bd be3d 335d 3bbe
000000e0: 28f2 0f3e abcf e3bd 9993 09bd ac8d ecbd
000000f0: 308e 4bbc 95d7 10be e70d 07be 841f 31be
00000100: fbcf 45be c2a0 a7bd ff9a d03d 87da 2cbd
00000110: 6061 6dbd 6f42 9a3d 4956 ea3d fd9f abbd
00000120: a039 40be 57f3 c2bd 57a2 52be c4e7 d83d
00000130: 17cd 203d 21ea a2bb 2666 32bd 7875 0c3e
00000140: c359 24be 198d 213e 9bdd be3d e4f8 533e
00000150: 763c 0b3e 0207 8fbc 8cda 9f3d d2e1 3f3d
00000160: 91bc 03bc 304c 11bd d6cd f6bd f5d1 c2bd
00000170: ed7e 3f3e efdf c8bd 304e cebd 5b53 063e
00000180: e5f5 1b3e 5190 09be b854 62bd b184 31be
00000190: d617 1c3e b04f 0c3d bc5a 403e c317 9abd
000001a0: f23f d9bd 6302 9a3d d0af 0fbe b8dc 3abe
000001b0: e31c 10be 9faf b6bc d6e0 3c3d 845e 2bbe
000001c0: d218 a63d f49f 3abe 5157 923d b24a 12be
000001d0: f40e 4ebe 5ecc 913d 7ca0 dd3d c90b 25bd
000001e0: 3ec9 3d3d 8717 e4bd 69d1 e8bd 5ad9 14bd
000001f0: 3048 1a3e 62eb f6bd 7462 5ebe 5492 303d
0.06260595 -0.00014381464 0.060257684 -0.21343678 0.0018954285 0.12743504 -0.19266303 0.050467428
0.09432826 0.15993768 -0.108656034 0.02188603 -0.1487117 -0.033738002 -0.10785788 0.19433013
-0.16528614 -0.11656057 0.15608387 0.18153676 -0.022507058 0.020591829 -0.20044623 -0.18769786
-0.0898227 -0.1633506 -0.16508774 -0.10440238 -0.19748546 0.011067834 0.042954654 -0.12975734
0.15342724 0.112713866 0.14150546 0.14166941 -0.09753735 -0.029665872 -0.17080598 0.011512657
-0.1272264 0.016433321 0.028714405 0.026066896 0.21560548 0.11881926 -0.14650337 0.19902654
0.01884917 0.15742685 0.05526929 0.21111494 0.08550467 0.14883353 0.09313566 -0.18297271
0.14057219 -0.11123594 -0.033588026 -0.11550459 -0.012424037 -0.14144738 -0.13188897 -0.17297179
-0.1931762 -0.08184959 0.10185813 -0.04220059 -0.057954192 0.075322025 0.11442239 -0.08380125
-0.18771982 -0.0951907 -0.2056974 0.10591081 0.03925809 -0.004971758 -0.043554448 0.13716686
-0.16049866 0.1577648 0.09319612 0.20700413 0.13597283 -0.017459396 0.078053564 0.04684622
-0.008040563 -0.03547305 -0.12050979 -0.095127024 0.18700762 -0.09808337 -0.10073507 0.13117735
0.1523052 -0.13433959 -0.055256575 -0.17335774 0.15243468 0.034255683 0.18784612 -0.075240634
-0.106079 0.075199865 -0.14031911 -0.1824826 -0.1407352 -0.02230054 0.046112858 -0.16735274
0.08110203 -0.1822508 0.071455605 -0.14286307 -0.20122892 0.07119058 0.108216256 -0.040294442
0.046334498 -0.111373 -0.11368067 -0.036340095 0.150666 -0.120566145 -0.21717244 0.0431083

MLP_layers.0.weight f4 [32, 64]
00000000: f0be 733c d40b 92bd fd5f 203d 20a5 d6bb
00000010: b099 99bc c84d 6dbd 8d1e 503d c1d5 343c
00000020: c360 5cbd 9b9d 9c3d 95a2 7bbc 216d 663d
00000030: 3e15 9ebd 1ebc 63bc 6a28 0fbd 23bd b03d
00000040: 3e58 fabc 2f52 173e 395e a6bd 052b 833d
00000050: 5936 1c3d 8f35 dbba f1bc a83d 9eaa 203e
00000060: ca94 0d3e 66df 6c3d 2f74 023d 11a8 eabc
00000070: 9ebf 0f3d 603e adbc fdc2 873d 4abc ac3d
00000080: cbfb 99bd d0ef 82bd f154 af3d b08f b2bd
00000090: 5527 683d 611f 763d adde a83d f695 953c
000000a0: bf4f 4a3b 2776 5c3d 4ec2 383a 1ab4 2c3e
000000b0: 7379 bd3d 16e5 213d 8cdd b53d 5851 303e
000000c0: d8d4 f43d bf24 53bb a791 b1bc 7f40 063d
000000d0: e364 573d 7f42 b13d ca86 0a3d f29e 723d
000000e0: 3be3 d73d dd54 0abd dcbc e03d e9ad 98bd
000000f0: 1aad c93c e5a0 53bc 9647 d6bd 1bca 223d
00000100: fc0d 883c a124 dbbd 98a0 213d 1e05 b7bd
00000110: cb3f 713d 4e52 b2bd 4aa6 d13d ba8a b3bc
00000120: 6251 28bd 8e02 433d 40ac 93bd 2b31 9cbc
00000130: 3f32 6b3d f0e7 803d 4e56 eebc 9382 68bb
00000140: 8496 a43d 5ebd 113e 9503 f33b 97c0 73bd
00000150: f645 de3d bb58 ec3c e76b b13d f915 c93c
00000160: 13f4 a73d ce6c b8bd 7d32 0d3c 3960 72bd
00000170: 724b f83d d358 e83c 2162 ecbd 4460 bbbd
00000180: b22e b53d 7fb5 24ba b172 ecbd b911 183d
00000190: 3564 26bb 9297 993d 8d87 153c d35f 1e3d
000001a0: 5525 31bd 233b 1abd fbf6 bbbd ce35 0f3e
000001b0: b98f 953d 9db9 c8bd dffb 81bd f0e3 0f3d
000001c0: 0edd df3d d3c5 903d a7a8 fb3d fc47 c13d
000001d0: 3969 953d 1968 0d3e 281b 2f3e 5139 e03d
000001e0: 4103 ac3d e43c 673c 8f9a 98bb 2207 64bd
000001f0: b2ae bdbc 304e 733d 9c60 15bd 59e6 b03d
00000200: 8bc0 97bd cf29 9f3d fb22 92bd b05a 23bc
00000210: 6e03 1c3c e4da 923c 81a0 9bbd c17a c5bd
00000220: 9896 c73c 6ab2 0c3d 075c 683d fe94 803b
00000230: 0bef 00bd 2138 173d 1ee4 bebd 3c51 e13c
00000240: ffd3 56bd b916 a33d 0aab 8e3d c490 113d
00000250: dfe4 f9bc 6b3f d03c 0d4f af3d 8c57 3c3e
00000260: 0bdd f33d 58b8 ebbd 2ae0 353d 179f 2e3d
00000270: 691b 143c 3e9e 833d 004a 16bd 02d7 febc
00000280: a682 363e 3d03 b5bd 3405 8f3d 44d3 023e
00000290: 262f a53c b444 c53d de53 a43d 5a58 ff3d
000002a0: 880c a03c 2aa9 64bd 3690 81bd 8699 58bd
000002b0: 4812 2b3e e050 1f3e 7cfc f43d 2182 243e
000002c0: 7e72 d53d 53a8 b9bd ff2c 543d 8e25 b8bd
000002d0: e0c3 83bd f2b6 1d3d 9e15 413e fe6f 9ebd
000002e0: b386 f23d 233b 783d a2ce e8bd 3d8d dfbd
000002f0: 2be4 0abd 0def 353e 55c6 ccbd 1c32 a63c
00000300: 1739 b8bc 6341 853d 1672 9dbc 0468 a13d
00000310: cd69 74bd 5bf2 c5bd 9c15 983c 5cf4 42bd
00000320: c60c 683d 9c9c 903c 2396 8c3d 9cdd b43c
00000330: 4dc3 343d 97e8 e43d 4a1f 8cbd 7cd0 ba3d
00000340: b343 063e f1d2 803d 91db abbd d88d c2bb
00000350: ab37 e43d f26d d4bd c9e7 c8bd 3d36 0b3e
00000360: 90db 87bd be7a 2ebc a92e 9a3d a3cb c1bd
00000370: 03b2 0b3c af0d c23d 8628 7bbb 5c48 08bd
00000380: 02ce 18bd b46e 04be 2520 36bc 108d 80bd
00000390: 0a77 003e c215 84bd 9ce2 393c 04f2 c03d
000003a0: 7f23 143d 5f51 fbbc cb5c cabd 623c 2f3e
000003b0: 28e9 a7bd ab78 c33d e78b a4bc 7e0d 1d3e
000003c0: 99e3 a53d 14c6 22bd 791e b3bd ee48 a83d
000003d0: 4e17 7abd 4548 a6bc 2fb2 f03d e7d7 8f3d
000003e0: 23c9 d43d eca1 e43d 90b0 b5bc 9a7e 223d
000003f0: c08a 12bd f035 26bb eea9 70bd c164 1f3e
0.014877066 -0.07131162 0.03915404 -0.006550446 -0.018750042 -0.057935506 0.050810385 0.011037291
-0.053803217 0.07647248 -0.015358587 0.056256417 -0.077188954 -0.013899831 -0.03495065 0.08629825
-0.030559655 0.14777444 -0.0812344 0.0640469 0.038137767 -0.0016724336 0.08239163 0.15690085
0.1382629 0.057830237 0.031849083 -0.028644593 0.03509485 -0.021147907 0.06628988 0.08434351
-0.07518729 -0.06393397 0.08561123 -0.087188125 0.056678135 0.06008852 0.08245597 0.018259984
0.0030870286 0.053823616 0.00070479966 0.16865578 0.0925168 0.039525114 0.08880147 0.1721853
0.11954659 -0.0032217947 -0.021675898 0.032776352 0.052586447 0.08655261 0.03381995 0.059233613
0.10541388 -0.03377234 0.10973522 -0.07455046 0.024618674 -0.012916778 -0.10462873 0.039743524
0.01660823 -0.10700346 0.039459795 -0.08936523 0.05889873 -0.087071046 0.10236795 -0.021916736
-0.041093238 0.04760986 -0.072105885 -0.019066414 0.057420965 0.062942386 -0.029093888 -0.003547822
0.08036521 0.14232394 0.0074161985 -0.05950984 0.10853188 0.028850904 0.08663159 0.02454661
0.0820085 -0.09005128 0.008617994 -0.059173796 0.12123765 0.028362667 -0.11542154 -0.091492206
0.08846797 -0.00062831485 -0.11545313 0.037126277 -0.0025389318 0.07499613 0.009126556 0.038665604
-0.043248493 -0.037654053 -0.09177967 0.13985369 0.073028035 -0.09801028 -0.06346869 0.035129488
0.10930835 0.07068982 0.12288027 0.09437558 0.0729546 0.13809241 0.17100203 0.10948432
0.08399058 0.014113639 -0.0046570967 -0.055670865 -0.02315459 0.059400737 -0.036469087 0.08637685
-0.074097715 0.07771646 -0.07135578 -0.009970352 0.009522302 0.01792664 -0.07598973 -0.09642554
0.0243638 0.034349836 0.05672839 0.0039240113 -0.03147797 0.036918763 -0.09320854 0.027504556
-0.05244827 0.079633184 0.06966217 0.03553845 -0.030504642 0.025420865 0.085599996 0.18392771
0.11907395 -0.1150977 0.044403233 0.04263219 0.009039738 0.06426667 -0.036691666 -0.031108383
0.17823276 -0.08838508 0.06983414 0.12775904 0.020164084 0.09632245 0.08023809 0.124680236
0.019537225 -0.05582539 -0.06326334 -0.052880786 0.16706192 0.15558195 0.1196222 0.16065265
0.10422228 -0.090653084 0.051800724 -0.08991538 -0.064338446 0.03850455 0.18855903 -0.077362046
0.11842098 0.060603272 -0.11367537 -0.10915611 -0.033909004 0.17766972 -0.09998766 0.020287566
-0.02248816 0.06506612 -0.01921944 0.078811675 -0.059671212 -0.09665366 0.018564992 -0.04759632
0.056652807 0.017652802 0.06864574 0.022078328 0.044131566 0.111771755 -0.068419054 0.091217965
0.13111763 0.06290234 -0.08391488 -0.0059373192 0.1114343 -0.10372533 -0.098098345 0.13594909
-0.06633675 -0.010649381 0.07528431 -0.09462669 0.008526328 0.09475266 -0.0038323714 -0.033272132
-0.03730584 -0.12932855 -0.011116062 -0.062769055 0.1254541 -0.064494625 0.011345532 0.09421161
0.036166664 -0.03067845 -0.0988098 0.17112878 -0.08198768 0.095445 -0.020086242 0.15337178
0.081000514 -0.039739683 -0.087460466 0.08217035 -0.06105738 -0.020298133 0.11752736 0.07023602
0.10389926 0.11163697 -0.022178918 0.039671518 -0.035776854 -0.002536174 -0.058755808 0.15565778

MLP_layers.0.bias f4 [32]
00000000: fa4d 223e ed19 4b3e eedb 7c3e 4c18 5d3e
00000010: 5a95 e0bd 99c8 2e3e acaf 053d 5c6d 0c3e
00000020: 1633 023c 898a 08bd 0067 7fbc 0823 4dbc
00000030: 9647 27bd a995 ebbd 42b2 dcbd 1a74 423e
00000040: 18f6 4abc 9b04 453e d401 c9bd 2007 23bc
00000050: 9146 f3bd cc68 833c b42a 25bc 5673 cfbd
00000060: e89e 46bc e07b 98bd 3bb2 30bc c7c2 0fbe
00000070: c4eb 11bc 2bae e6bd 1444 91bc 582b 2ebc
0.15850058 0.19834109 0.24693272 0.215913 -0.109659865 0.1706871 0.032638237 0.13713592
0.00794675 -0.033335242 -0.015588522 -0.012520559 -0.040839754 -0.11503155 -0.107761875 0.18989602
-0.012387775 0.19240038 -0.09814802 -0.009950429 -0.11878694 0.016041182 -0.010080982 -0.101294205
-0.012122847 -0.07445502 -0.010784681 -0.14039145 -0.008906309 -0.11263689 -0.017732657 -0.010630451

MLP_layers.1.weight f4 [1, 32]
00000000: 06a2 023e c1fd 583d c182 773e 51d7 103d
00000010: 6a8c 033e b09e ea3d fc73 ccba eb51 773d
00000020: 749a 91bd 8f9c 25be e70f 153c db68 10bd
00000030: ef53 a63c 2599 73bb 538f 6dbd 55d0 d93d
00000040: 57af 25be ee57 c33d 2e72 063b 320b 05be
00000050: 562e e0bd b75e ad3d 3b5a 6bbc 4486 dcbb
00000060: 9124 e03d 4202 08bb 738a 203e 8830 02bd
00000070: ceae 18be cb6b e4bd e85e 26be 4b89 afbd
0.1275712 0.052976374 0.24170972 0.03536159 0.12846532 0.114560485 -0.0015598531 0.060380857
-0.07109538 -0.16173004 0.00909803 -0.035256248 0.020303695 -0.0037170139 -0.057998013 0.10635439
-0.16180168 0.09538256 0.0020514834 -0.12992552 -0.10946338 0.08465331 -0.014364774 -0.006729873
0.109444745 -0.00207533 0.15677814 -0.031784564 -0.14910433 -0.111533724 -0.16247141 -0.085711084
