SLIC_GAT/best0.pt (torch, 74869 bytes, 12 tensors)

GAT_layers.0.f.weight f4 [32, 82]
00000000: 84db 4f3e 9dc9 b5bc ca9e aa3d e713 ecbc
00000010: 87ce 2c3e 9764 833d 6653 413c fa3b 8dbc
00000020: 3cd7 c6bd f89d 0838 9584 29be c5d1 233e
00000030: aedb 2abe 9bec d43d ac90 0d3e 49ca ccbd
00000040: 94d4 43be 34a6 283a 3d14 293e 4532 51be
00000050: fbfe 153e ac57 2b3e 078f 3dbe c7fb 283e
00000060: 8340 09be a25a 40be 1f2d 5bbe 1a31 16be
00000070: 299f 563e 2c66 18be 5e2a df3d 2a27 34be
00000080: 28d8 543d 9975 3c3e a8cf 95bd d17d e0bd
00000090: 847f 683e 58fc 633e 5fc9 1dbe 007d 07be
000000a0: 7209 53be 98e9 69be d97d 50be a005 423e
000000b0: bccd 3ebd a58f 013e 9d82 87bd 11bf 7a3d
000000c0: 9590 fa3c df24 32be b407 fb3c a4d4 61be
000000d0: 7b16 1a3e c8eb 1e3c 37d2 de3d a81c bc3c
000000e0: 9d96 86bd 4b17 3c3e 0def ec3d fdc4 0e3e
000000f0: bc30 2e3e 704d 233e d0f0 0f3e 59b5 3cbe
00000100: a715 ebbc 7d84 c53c b0f6 80bd 0ce6 47be
00000110: fc02 6bbd 4a61 2d3c 53c2 143c 4a45 343e
00000120: 7d60 f9bc c4d0 25be 8dc0 3e3e dd9d 673e
00000130: 5bfc 55be 4f08 833c e03e 09bd 8deb 69be
00000140: 6c69 e43d 41e0 203e 9012 383d 0edd b4bd
00000150: 21bf a4bd 9c9a 5e3d cc3e 45be e9f9 f9bc
00000160: 2ced 50be f15a 1dbe feae bd3d 55a7 ff3d
00000170: 2fdd 21be 2b56 283d cf18 4a3e 3b11 593e
00000180: b4ce c73c 01ff a73d cf54 41be b309 483e
00000190: 1a3a c5bc c526 a2bd 236c 62be 9a86 29be
000001a0: 1fc3 c13b faf6 a3bd 1f69 d53d 84fc c53d
000001b0: 59d1 2d3e a275 2b3e eadf be3d f9be 29be
000001c0: 8f2f 693e 2857 e53a 00bd c03d 8aff 65be
000001d0: 9e93 553d 3210 3fbe 01c6 883d ded4 33be
000001e0: 6c21 5bbe 7e25 0fbd 4ca9 053d f71f 403e
000001f0: 7127 55be d04c c5bd 2283 babd d075 58be
00000200: 3113 e3bd 30d1 84bc ed93 19be 72ba afbd
00000210: 4b1a 76bd 8ec9 17be 7db8 46be 2e18 e93c
00000220: 8d02 cabc 6c77 2e3e 9437 3b3e ad56 b4bd
00000230: 3bbc 56be c4e4 38be 6600 493d ec1a 513e
00000240: 1056 11be b90d 2f3e 5565 ec3d 47e3 b4bd
00000250: 801e d53b 9448 903d 6549 f5bd 13a2 aabc
00000260: 43af 893c c0bb c2bc 042f 8abd 39d7 1cbe
00000270: e481 343e 2a23 3e3e 5667 503e 432b 4f3e
00000280: 0d0d 433d dde7 cebd 61ec 11be 9341 d43d
00000290: 7337 87bd 74ee 43be df5a 4dbe d72b 3c3e
000002a0: 7621 a83d 6687 dbbc cdd0 d43d 4953 63be
000002b0: 95ec 213e 2cae d73d fbca 2c3e c8a2 a5bd
000002c0: 435a c33d 950a d9bd 91be 113d cd60 503e
000002d0: b5b9 0a3e 36e6 04be f77f 133d da54 f3bc
000002e0: ecbe 683e 9246 92bd 7ee5 7d3c 8ffd b53d
000002f0: 1ef0 1a3e 98bf 573e 867e 463e 294e 513e
00000300: 4753 143e 5ba5 c3bb 2301 e6bd 0002 58be
00000310: 7bce bfbc 4377 4fbe cf9a 573e c91a b3bd
00000320: e216 48be 5393 05be 2ea0 fe3d f288 3f3e
00000330: 6032 05bd 35e6 42be ff33 2cbe 584f 00be
00000340: 56ea 0a3d 5cea cb3d eb93 1ebe dd0f 56be
00000350: ea9b 69be 8790 bbbd 4167 8abd 1028 513e
00000360: 5677 49be 0d2b 4f3e f4a2 ca3d 46e1 1fbe
00000370: e416 94bd 0549 1cbe b82d 4fbe d277 5abe
00000380: 5028 aabd fc4a 273e 7254 153e d567 953d
00000390: 3e21 0bbe 9be2 1dbd a8a3 2f3e b8cd 2cbd
000003a0: cb24 8dbd 983f 30bd fd86 3c3d 92b6 0c3d
000003b0: d2fc 2b3e 382a 21be b889 a1bd 2408 ccbd
000003c0: f74c 5e3e 73dc 2e3e b1c4 56be d518 a4bd
000003d0: 5f87 1cbe c605 923d 5eed 08be a9d6 1fbe
000003e0: 974c f53a 0afa 10be b507 213e 5ec5 363d
000003f0: ced3 8f3d 03ee e23d 59d4 38be ebec e93d
0.20298582 -0.022190863 0.08331068 -0.028818084 0.16875659 0.0641567 0.011799669 -0.017240513
-0.097090214 3.2572047e-05 -0.16554482 0.1599799 -0.16685364 0.103966914 0.13824719 -0.0999952
-0.19124061 0.00064334576 0.16511627 -0.20429333 0.14648049 0.16732663 -0.18511592 0.16502295
-0.13403516 -0.18784574 -0.21403931 -0.14667168 0.20959152 -0.14882725 0.10896753 -0.17593065
0.051963955 0.18404235 -0.07314998 -0.109614976 0.22704893 0.2226423 -0.15408848 -0.13231277
-0.20609072 -0.22843015 -0.20360507 0.18947458 -0.046582922 0.12652452 -0.066167094 0.06121737
0.03058652 -0.17396878 0.030643322 -0.22053772 0.15047638 0.009699769 0.10879939 0.022962883
-0.06571696 0.1836826 0.11569033 0.13942333 0.17010778 0.15947509 0.14056706 -0.18428554
-0.028696848 0.024111027 -0.06297052 -0.1952135 -0.057375893 0.010582278 0.009079534 0.17604557
-0.030441517 -0.16192919 0.1862814 0.22618814 -0.20897047 0.015995173 -0.033507228 -0.22843762
0.1115292 0.15710546 0.044939578 -0.08831225 -0.080442674 0.054346666 -0.19262236 -0.030514674
-0.20402974 -0.15366723 0.09261893 0.12483088 -0.15807031 0.0410978 0.19736026 0.21197979
0.024390556 0.08202935 -0.18880008 0.1953495 -0.024075557 -0.07917551 -0.22111563 -0.16555253
0.005913153 -0.080060914 0.10420441 0.09667304 0.16974391 0.16744092 0.09320052 -0.16576757
0.22772048 0.0017497288 0.09411049 -0.22460762 0.05214273 -0.18658522 0.06678391 -0.17561671
-0.21399468 -0.034947865 0.032632157 0.18762194 -0.20815827 -0.096337914 -0.09107043 -0.21138692
-0.11087645 -0.01621303 -0.14997835 -0.085804835 -0.06008367 -0.14822981 -0.19406314 0.028453913
-0.02465942 0.17037743 0.1828292 -0.088055946 -0.20970242 -0.18056017 0.049072646 0.20420426
-0.14192986 0.17095079 0.11542765 -0.08832412 0.00650388 0.07045093 -0.119768895 -0.020829236
0.016807204 -0.023771167 -0.06747249 -0.15316476 0.17627674 0.18568102 0.2035192 0.20231347
0.047619868 -0.10102818 -0.14250328 0.1036407 -0.06602373 -0.19133931 -0.20054196 0.18376099
0.08209507 -0.026797961 0.10391388 -0.2219974 0.15812905 0.105312675 0.16874306 -0.08087689
0.095387004 -0.105977215 0.03558213 0.20349427 0.13547404 -0.12978444 0.03601071 -0.029703546
0.22729081 -0.071423665 0.01549661 0.08886253 0.1513066 0.21069181 0.19384202 0.20439972
0.14484893 -0.0059706396 -0.112306856 -0.21094513 -0.023413887 -0.20260338 0.21055149 -0.08745343
-0.19539979 -0.13044481 0.124328956 0.18704584 -0.032518744 -0.1903313 -0.1681671 -0.12530267
0.033914886 0.0995681 -0.15486114 -0.20904489 -0.22813383 -0.09158426 -0.06757975 0.20425439
-0.1967443 0.20231266 0.09894362 -0.15613279 -0.072309285 -0.1526223 -0.20232284 -0.2133477
-0.0830847 0.16337198 0.14582995 0.07295195 -0.135869 -0.038546186 0.17152274 -0.042188376
-0.06891783 -0.043029398 0.046027172 0.0343538 0.16795662 -0.15738761 -0.07887596 -0.0996249
0.21709047 0.17076282 -0.2097347 -0.08012549 -0.15286015 0.071300074 -0.13371798 -0.1560923
0.0018714842 -0.14157882 0.15725596 0.044621818 0.070228204 0.110805534 -0.18049754 0.11422142

GAT_layers.0.f.bias f4 [32]
00000000: 0626 f63c a54e 07bd 3748 6bbd 15ba 9ebd
00000010: bfae dbbc 6f9d 93bd ed00 ad3d e492 893d
00000020: 7c65 633d 4bf7 b0bd 7a33 44bd 53bb c7bd
00000030: 2b0a c53c 3aa5 d7bd 72a2 d2bd 86e6 c23d
00000040: 8fcf 31bd 51d7 283d e63a d5bd 5c24 afbd
00000050: 3d13 b83d ad09 1a3d 16da 2d3d 6893 efbc
00000060: 2db9 453b 23b5 4d3d bcc2 59bd bc68 f03c
00000070: 10df 023d d060 513c ca57 953d 708d a93d
0.030047428 -0.033033986 -0.057441916 -0.07750336 -0.026816724 -0.072077624 0.08447442 0.0671747
0.055516705 -0.086409174 -0.047900654 -0.09752526 0.0240527 -0.10529561 -0.1028489 0.09516625
-0.043410834 0.041220967 -0.104116246 -0.08551857 0.089880444 0.037606884 0.04244431 -0.029245093
0.0030170188 0.050221574 -0.05316423 0.029346816 0.03195101 0.01277943 0.07292135 0.0827893

GAT_layers.0.w.weight f4 [1, 82]
00000000: ae20 06be 3d68 243e bc9f 273e a417 16be
00000010: 9d9a 0b3e af5a 67be e8e3 de3c 2b8e 873e
00000020: 58af ccbd 84b4 19be c252 f23d 41ae ffbd
00000030: 1396 7d3e 6508 403e bdce 51be f5d1 1f3e
00000040: 76f8 87be 66a8 56bc 4a2b 11bd ff40 f2bc
00000050: f469 cabc 8315 1d3e c3e3 c53d 04f2 af3d
00000060: 4e5b 22be 953a a33d 917b 13be 9f08 31be
00000070: ecdd 833e 6228 26bd f600 d3bd 8ddc 8cbd
00000080: cc4c b5bb 1ab9 423e f6c2 f83d 4ac1 67be
00000090: 8ed6 823e ad38 1bbe 6036 423d fa8b 873e
000000a0: e224 7b3e 69d4 90bd 65b6 11bc 0c66 0fbd
000000b0: b654 5ebe 5743 133d a426 3d3e 5da6 67be
000000c0: 5b7c eb3d 4f16 4c3e 1fc5 08be 3cc0 213e
000000d0: c50d bd3d 53e1 f8bd 3e94 303c ac85 a43d
000000e0: 8e99 e0bc 104d c23d fa27 633d 229b 04be
000000f0: b102 413d e253 30bd 4d69 543e 0a7d 4fbe
00000100: ee25 64be 312b 163e ab33 953d 1417 5abe
00000110: 0af9 08be 209a b63c 5651 c7bc b69f 90bb
00000120: 66c6 263e d061 3ebe 4eae 85be afd0 76bc
00000130: f9bb a33d 39c4 c43d c3fb 0f3e 2a5e 5bbe
00000140: d054 443a dc82 313e
-0.13098404 0.16055389 0.16369528 -0.14657456 0.13633199 -0.22593187 0.027208284 0.26475653
-0.09994382 -0.15010267 0.11832191 -0.12484408 0.2476428 0.18753202 -0.2048902 0.15607436
-0.26556748 -0.013101673 -0.035441674 -0.029572008 -0.024708726 0.15340237 0.09662583 0.08591083
-0.15855142 0.07970158 -0.14402606 -0.17288445 0.2575525 -0.040565856 -0.10302918 -0.06878004
-0.0055328365 0.19015923 0.12146561 -0.22632328 0.25554317 -0.15158339 0.047415137 0.2647398
0.24525788 -0.07071764 -0.008893584 -0.03500943 -0.21712002 0.035952892 0.18471771 -0.22622056
0.11498328 0.19930385 -0.13356446 0.15795988 0.09231142 -0.12152352 0.010777531 0.080333084
-0.02741697 0.09487355 0.055458046 -0.12949803 0.047121707 -0.043048747 0.20743294 -0.20262542
-0.22280094 0.14664914 0.072852455 -0.21297866 -0.13376251 0.02229029 -0.024330776 -0.0044135703
0.1628662 -0.18592 -0.26109546 -0.0150644025 0.07994837 0.09607739 0.14060883 -0.2142264
0.00074894447 0.17335075

GAT_layers.1.f.weight f4 [64, 64]
00000000: 7554 653d 7044 343e 1a8e 013e c3f4 48be
00000010: 455b 91bd 3135 2b3e 1d2e 96bb 13ba 1d3e
00000020: 0f81 e33d 98e0 2ebe fa33 f9bd 20d6 c53d
00000030: 3665 193e aadc 2c3e 2498 58bb 1eb8 1e3e
00000040: 5469 173e 4ed6 e73d b97e 1e3d 81d3 853d
00000050: 395a aabb 2f8d d13c f8ce 2f3e 41c1 513e
00000060: be46 c73b 4d44 db3c decf c4bd 59b2 03be
00000070: fa59 623d 6d54 21bd dfce 54bd 2b0d abbc
00000080: e62c c23d cc61 4c3e 2212 233e a361 473e
00000090: edf0 a23c a2f5 353e f09c 463e 44ac f0bd
000000a0: 1323 b3bb e575 2a3e 9ae9 583d aeea febd
000000b0: d064 74bd 8c5e 9ebd 7361 033d 97d8 e73d
000000c0: 1c9b adbd 703e 50be 4027 263e 5605 80bd
000000d0: ea83 23be 8828 efbb 1ee8 06bd d7b3 b1bd
000000e0: 5378 21be 4744 47bd 9622 8cbd 674d 183e
000000f0: f339 2f3e 92fb 13be b2fb 3c3d 4ef6 df3d
00000100: b131 d03d 11c0 1a3e 8031 d73c 612c 45be
00000110: 8a9e 033e 6422 d3bd 9718 26be f5a2 953c
00000120: ae63 303e 5b82 c33d b3b9 533e d576 d4bd
00000130: 3679 45be d548 16be 6f4a c93d 5b6e 8abd
00000140: ce5e 143e 0066 3d3e 57c4 03bc 28fa 443e
00000150: 85d1 5bbe bc23 183d 42d5 233d 0199 a9bd
00000160: c748 36be 7cf0 dfbd 752f 45bd b941 b5bd
00000170: 5973 a4bd 909b 2f3e 0f99 17bd e5d0 ff3d
00000180: a303 c23d 8bd2 a9bd dea1 153e 541c c13d
00000190: 3ed7 aa3d d60e d33d dc76 393e ad1f 043e
000001a0: 8ed2 593e 652e fabd 5812 d6bd fe6c d13d
000001b0: 9a4c 1e3e d937 3bbd f74e 0f3e 8040 2fbd
000001c0: deda 153d f08f 873d 91db 193d 6c94 3c3e
000001d0: 160d 5a3e 6b00 463e 5776 4ebd 9960 223d
000001e0: 62c8 c9bd d2f7 52be 63e8 fd3d 00aa 79bd
000001f0: 633a 4f3e 754d 51be 4db9 3dbe 4bfc 193e
00000200: 2cb1 14be 437d a63d 8bd6 89bd 2274 1b3e
00000210: 5d92 583e 1d75 0bbd a783 943d 038d dc3d
00000220: 7c90 14be 3d6a 073e 4eac afbd 0c7a 363e
00000230: 37de 1e3e ddd7 853b 1ee6 a33d 1867 ccbc
00000240: a149 483d 0c17 023e acd3 fd3c a2c8 173e
00000250: 733b fcbd 4c61 e23d 5949 223e a877 debd
00000260: c9fa 593e e6e8 533e aa56 d33d 8f8d 48bd
00000270: dfb3 363e b922 493e fc20 14be 1dfa dbbc
00000280: ec33 bdbd 7b89 2f3e 6149 163e c771 eabc
00000290: ff12 0f3e f160 643b 66e0 fcbd d308 563e
000002a0: 6ecc 093e c584 e1bd c851 5e3c 1cd5 58be
000002b0: 7335 a33c 7941 d6bd 9a0d e23c a020 463e
000002c0: 7ffe 75bd 1a7d 5f3b c9c7 313e 51b7 da3d
000002d0: 0470 bdbc 2b12 15be 98ae af3d d4d3 f7bc
000002e0: 130d c3bc 5a3b b3bd 5248 56bd 5328 b83d
000002f0: c904 34bc 3d16 eabd a37c 3b3e 380b 373e
00000300: 2b1a 2cbe 784b 313e 4867 2bbe ec6d 543e
00000310: 52a9 4fbd f1e4 4bbe 90c3 efbd c588 e2bd
00000320: 0da3 19be 9c99 dc3d bca9 58be 6556 183d
00000330: 40f2 2cbb 6e36 e03c d0a2 b53d df3c 243e
00000340: 19d0 343e 2cf3 9dbd 63f7 ecbd ebf7 4a3e
00000350: bc89 7d3d 7bcd c5bd b3cf c5bd 8421 3ebe
00000360: 525a b5bb 1961 fdbd 63ee 22be edcf 4abe
00000370: 0aad a0bd 0132 bb3d 21a6 1ebd 277f 73bd
00000380: 774e 9d3d 8abb e23d f396 373e 0095 873c
00000390: f686 023e 810a 1d3e d3cf 39be 91d2 2b3e
000003a0: 646b 3fbe e2c3 11be 31f6 8bbd 2227 e9bd
000003b0: 95cb 013e ae35 b8bc 76f7 ce3d bf23 033e
000003c0: 20d5 91bd ae45 273d 97b5 883d 7922 44be
000003d0: 028d 333e 355b cdb9 998f 87bd ce2b 503e
000003e0: d608 cfbd 05eb 293d cfef 7ebd 6712 61ba
000003f0: 61bd 31bd f0e9 263e 0dd3 c23d be68 56bd
0.055988748 0.17604232 0.12651864 -0.19624619 -0.070974864 0.1671951 -0.004583134 0.15403013
0.111086 -0.17077863 -0.12168117 0.09659982 0.14980015 0.16881052 -0.0033049667 0.15499923
0.14786273 0.11320172 0.03869507 0.06534482 -0.0051987437 0.025580017 0.17168796 0.20483877
0.006081431 0.026765967 -0.0960996 -0.12861003 0.05526159 -0.039387155 -0.0519551 -0.020880302
0.0948122 0.19959182 0.15924886 0.19470839 0.019890273 0.17769483 0.19395804 -0.11751607
-0.0054668277 0.16646536 0.052957155 -0.12447105 -0.059666455 -0.07732877 0.032075357 0.11320608
-0.084768504 -0.20336318 0.1622591 -0.06251018 -0.1596829 -0.007298533 -0.032936208 -0.0867688
-0.15768556 -0.0486491 -0.06842534 0.14873277 0.1711195 -0.14451435 0.046138473 0.10935651
0.10165728 0.1511233 0.02626872 -0.1925521 0.12853447 -0.10309294 -0.16220318 0.01826618
0.17225525 0.09546348 0.20676307 -0.10374228 -0.1928452 -0.1467622 0.0982865 -0.0675933
0.1448929 0.18495941 -0.008042417 0.19236052 -0.21466644 0.037143454 0.0399983 -0.08281136
-0.178012 -0.10934541 -0.04814096 -0.08850426 -0.08029813 0.17149186 -0.037011202 0.12491015
0.0947335 -0.08292111 0.14612529 0.09429231 0.083418354 0.10305564 0.18111748 0.12902708
0.21271726 -0.1221588 -0.104527175 0.10225867 0.15458909 -0.045707557 0.13994966 -0.04278612
0.03658568 0.06619251 0.03756291 0.18415993 0.21294054 0.19336097 -0.050405826 0.039642904
-0.09852673 -0.20602348 0.1239784 -0.06095314 0.20237117 -0.20439704 -0.18527718 0.15037648
-0.1452071 0.081293605 -0.06730374 0.1518102 0.21149583 -0.034047235 0.07251673 0.10769083
-0.14508241 0.1322412 -0.085777864 0.17819995 0.15514456 0.004084571 0.08002876 -0.024951503
0.048898343 0.12704104 0.030984722 0.14822629 -0.123160265 0.11053714 0.15848292 -0.10862666
0.21287073 0.20694312 0.10319264 -0.048963126 0.17842053 0.19642152 -0.14465708 -0.026852662
-0.09238419 0.17142288 0.1467643 -0.028618706 0.1397209 0.003484782 -0.12347488 0.20901804
0.1345689 -0.11011652 0.013569303 -0.21175045 0.019922948 -0.10461707 0.027594376 0.19348383
-0.06005716 0.0034101666 0.17361368 0.10679496 -0.023124702 -0.14557712 0.08578223 -0.030252375
-0.023809945 -0.08751555 -0.052315064 0.08992066 -0.010987469 -0.11430023 0.18309264 0.17875373
-0.16806857 0.17313945 -0.16738617 0.20745057 -0.050698586 -0.19911553 -0.117072225 -0.11061243
-0.15003605 0.10771486 -0.21158499 0.037191767 -0.002638951 0.027369704 0.08868945 0.16038845
0.17657508 -0.07712397 -0.11570623 0.19821136 0.06189893 -0.09658333 -0.09658756 -0.18567473
-0.0055344487 -0.123720355 -0.1591125 -0.1980588 -0.078455046 0.09140397 -0.03873265 -0.059447434
0.076809816 0.110709265 0.17928676 0.01655054 0.12746796 0.15336038 -0.18145685 0.16779543
-0.1869331 -0.1423488 -0.06834067 -0.11384417 0.12675317 -0.022486534 0.10105793 0.12806605
-0.071207285 0.040837936 0.066752605 -0.19153775 0.17534259 -0.00039168602 -0.06619186 0.2032921
-0.10109107 0.041483898 -0.062240418 -0.0008585811 -0.043393496 0.16300178 0.09512911 -0.052345984

GAT_layers.1.f.bias f4 [64]
00000000: 7c2c 303d 2e4d cbbd e2b2 d03d 2a31 a73d
00000010: 62fd e03d ac57 1dbd ea74 aabd e01e f63c
00000020: a05a d6bb d636 913d 42ff d5bd 28ad 77bd
00000030: f845 ffbc 8ef4 803d a8ee a33d a856 24bd
00000040: 0ca3 6bbd ba76 d1bd e8bb a3bd f455 413d
00000050: 1ebb c23d 907b ba3d f8fe cfbc f8c2 b53d
00000060: 8603 c53d 94a6 04bd 4842 04bd 4cc6 c3bd
00000070: c021 073b 4439 a53d fccb 9f3d 0c0a 5cbd
00000080: 544c 5fbd 402e 833b 9c76 af3d e286 a03d
00000090: 7aed 833d e09c af3d b89f a13c f8fe e73c
000000a0: 8030 503b c019 af3c 169e c13d 84d8 753d
000000b0: 004b 0f3d 001f 0b3d 8eb7 e53d b0f4 b43c
000000c0: 4c4f 5e3d 6037 f7bc 00e2 e3bc 28cb b33d
000000d0: ccd0 343d 8467 68bd 1219 be3d 608f 943d
000000e0: 282f 2f3d a057 ec3c 080a fbbd 9059 7e3d
000000f0: 107b e43d 38bf df3c c4b9 793d f694 8cbd
0.043011174 -0.0992683 0.10190369 0.08163674 0.10985829 -0.03841369 -0.08323081 0.03004402
-0.006541565 0.07090537 -0.10449077 -0.06046787 -0.031161293 0.06296645 0.080045044 -0.040121704
-0.05752854 -0.102277234 -0.07994825 0.047201112 0.09508346 0.09105599 -0.025390133 0.08875078
0.09619813 -0.032385424 -0.032289773 -0.095593065 0.0020619482 0.08067563 0.07802579 -0.05372052
-0.05451615 0.004003316 0.08567545 0.07838227 0.064417794 0.085748434 0.01972948 0.02831982
0.003176719 0.021374583 0.094539806 0.06002094 0.034983635 0.03396511 0.11216651 0.022089332
0.054274842 -0.030177772 -0.027817726 0.08778983 0.044144437 -0.056739345 0.092821255 0.07253909
0.04276958 0.028850377 -0.12257773 0.062097132 0.11156285 0.02731286 0.060968176 -0.068643495

GAT_layers.1.w.weight f4 [1, 64]
00000000: bdc8 563e fea2 95bc 15c4 20be c05d 2c3d
00000010: 2928 05bd 3539 4e3e a83c 64be b6da 883e
00000020: 7b3b 91be f004 6dbe 0a1d 75be 27d4 813e
00000030: 2445 603e b21b 223e d590 853e 14df a93d
00000040: 889e 083e 84ad a93d 5513 1bbe 3484 76be
00000050: 99be 9e3d e5d5 6fbe 4364 ebbd d15d f6bd
00000060: ef3c 9abe 04a6 0c3e 31b2 5a3d 5b8c 4a3d
00000070: e2a2 7bbd b063 24be 35d0 263e e287 683e
00000080: 0b1e 423d 2c92 893e 1cf6 eabd 2562 543e
00000090: a6e4 703d d9c9 573e 7675 633e d166 333e
000000a0: 3b96 43be 40ae 17bc cb79 f23d 2abd 7fbe
000000b0: 62b1 453d bf94 4b3e 9317 93be db11 d1bc
000000c0: 8338 f2bc 3f46 b4bd 2620 613e c1fa 0dbe
000000d0: 1cfa e7bd 9de1 12be ea24 613e 1835 9a3e
000000e0: 81b7 13be 3d80 50be 9c33 283e 33a8 293e
000000f0: 5842 6fbe 2367 5c3e 66ac 4bbe 6ba5 813e
0.20975013 -0.018266197 -0.156998 0.042081594 -0.032509003 0.2013901 -0.22288764 0.26729363
-0.28365692 -0.23146415 -0.23936859 0.25357172 0.21901375 0.15830877 0.2608706 0.08294502
0.13341725 0.082850486 -0.15144093 -0.24073869 0.07751197 -0.23421438 -0.11493733 -0.12029613
-0.30124614 0.13735205 0.053392593 0.04945026 -0.061434634 -0.16053653 0.16290362 0.22708085
0.047391932 0.26869333 -0.11472723 0.20740564 0.058811806 0.21073093 0.22212777 0.1751969
-0.19100277 -0.009257853 0.118396364 -0.24974504 0.04826487 0.19880961 -0.28728923 -0.02552121
-0.029567963 -0.08802461 0.2198492 -0.13865186 -0.113270015 -0.14343877 0.21986738 0.30118632
-0.1442547 -0.20361419 0.16425937 0.16568069 -0.23365152 0.21523719 -0.19889984 0.25321516

GAT_layers.2.f.weight f4 [64, 128]
00000000: b40f 2fbe 604d 2a3e 3b8b 4fbd 5c95 c33d
00000010: c488 ab3d b44b ea3d 5a16 1e3d 2824 3c3d
00000020: 8c4b a53d 2d8c 323c 29e2 a7bd 1374 5bbc
00000030: e4eb a33d dd15 d93c cead 9c3d 496c 373d
00000040: 563e 2abe c63d 213e 2963 f63c ca9b 773c
00000050: 8a1d 22be f898 113e ae57 893d ef1f dabd
00000060: 3162 01be 745c f43d 3476 7bbc 6d17 d23d
00000070: eae5 e0bc 8de5 27be 3772 1e3e 3142 d937
00000080: 04d4 a3bd 8b19 573d 6620 2f3e c282 b33d
00000090: 4206 2dbe e709 633d 45fd 09be 71ed 2a3e
000000a0: be84 1f3e 4fe9 853d 4c9c 05be 704e 04bd
000000b0: 9389 a0bd 7d73 f2bd 2ffd 7d3d f6e7 a93d
000000c0: bbf3 283d 253c d73c 9ed7 32bd 9d7b 13bc
000000d0: 3af1 9bbd f89b 1b3e 518b f33d 8360 d2bd
000000e0: de28 d9bc 16ca 163d 3091 1b3e 8236 edbc
000000f0: 3cf4 cb3b a4b9 413d edfe 65bc d89c 20ba
00000100: 8133 e23d 4437 0bbe 64ad f5bd 6d9f 3e3d
00000110: c325 0b3e 7c3d 9ebd 88f5 1e3e 8add a1bd
00000120: 10b9 5fbd b3be 003e bb25 10be db6b 463d
00000130: c553 1fbe 78d0 9b3c 8873 1cbe 1a48 b93d
00000140: c54d 37bd 9e01 97bc 06ca 0dbe a1bc 2fbe
00000150: 695a 1ebe 0959 8abb 0ab6 84bd 33b0 2d3d
00000160: ee8a 10be f97c aa3c 1b97 90bd 2773 06bd
00000170: 676a 2f3e d299 113e 4a8a 28be f71f a6bd
00000180: 047b 41bd 296c 81bd bddb cf3d 4b8b dcbd
00000190: 641b 2bbe 3e49 993c 6917 d3bd 36b2 be3c
000001a0: 0148 3bbd 3222 333e d7f7 213e fb96 6d3d
000001b0: 9398 433d 89cd f43d 02d9 86bd 4c51 803d
000001c0: 12df 353d fcf4 43bb e869 2bbe 45ad d53d
000001d0: d148 16be b738 bf3d 5560 8f3d 2bc6 a2bd
000001e0: f909 d7bd 73c8 e83d 0c8c 23be 05d3 14be
000001f0: 9f17 df3d dcd1 063e 2271 83bc b974 0abd
00000200: 7184 bd3d 3526 c13c 80a3 f3bd 52ae 683c
00000210: c235 033d 0379 6abd 3d55 05bd 8044 263e
00000220: fdc6 f3bc dd59 29bd 2be9 d7bc 1ea9 9a3d
00000230: 42ac ce3d 7ad1 e8bd 96ee 343e 59cf 1cbe
00000240: aa3e 1a3e 1702 3b3d 329b 85bc aaa2 bc3c
00000250: 6df6 30be ff65 4b3d 4b26 dbbd 952e acbd
00000260: 43f0 20be e37f 22be 2555 f5bd 0059 04be
00000270: e1c6 453c ba23 ba3d 972f e9bd 4ecb 0abe
00000280: 9b26 1bbe 01d5 723d fade 283e fd0c 183c
00000290: 2ab0 ef3d 048a 7d3d 0939 303e 554b ebbd
000002a0: 3efc 2cbc 689d 333d 5639 a1bc d273 e1bc
000002b0: 55cb 713d 1089 b83d 502a 75bd cbe2 11be
000002c0: b67b 50bb ae8b c13d 6339 b93d 0fa1 023e
000002d0: 2d7b babd 46af eebd c6b6 16bd 3c0e 0d3e
000002e0: a568 19bd dada 28bc 0ccf 08be 6e72 913d
000002f0: 85a5 503d 7425 06be 2526 c5bd 614d 093e
00000300: fa34 a03d 44fa 1b3e b450 0abe f92a 07be
00000310: cc04 173c b0e3 07be 8229 2b3d 6d36 e33d
00000320: 86f5 28bd b4c8 943d 5778 0fbe 2648 b93c
00000330: 17c2 26bd e281 a9bd e3e4 113e c35f efbd
00000340: 1484 1abe 4334 3d3d e58d 0dbe 50d8 5e3d
00000350: 2bd5 fd3d 160c 5bbd b113 953d 4810 923d
00000360: d359 f8bc 1b5a 36bd 0aa6 0ebe 25b5 1b3e
00000370: 53c2 ce3d a93d 193e a67f 583d f21b aebd
00000380: ede8 a23d 40fb cf3d 1496 34be 1f99 0d3d
00000390: a1d4 0abe faf0 62bd dfc4 00be c810 85bc
000003a0: a1bc 553d 03e9 b53d fb18 a63c 7292 d93d
000003b0: 6172 38bd b1a5 a33d 2873 c4bc 1808 d5bd
000003c0: fd8d 1dbc 4b35 32bd c844 24be bc4e 8abd
000003d0: dcca ee3d ace3 9d3d c402 033e 5044 8fbd
000003e0: 52ff 09bd c109 0cbe 1d4e 313d 74f6 10be
000003f0: 94f9 3b3d 17e2 dcbb 9b27 81ba 94b5 c9bd
-0.17095834 0.16631079 -0.05066989 0.095499724 0.08375695 0.114402205 0.038595535 0.04593292
0.0807105 0.010897678 -0.081974335 -0.0133943735 0.08003977 0.026499683 0.07650338 0.044781003
-0.16625342 0.15746221 0.03007658 0.015112827 -0.15831581 0.14218509 0.06706177 -0.10650622
-0.12635113 0.119316965 -0.015348006 0.10258374 -0.027453382 -0.1639616 0.15473257 2.5899239e-05
-0.07999423 0.052514594 0.17102203 0.087651744 -0.16896918 0.055429365 -0.13475521 0.16692139
0.15577981 0.06538641 -0.13047904 -0.032301366 -0.0783874 -0.11838434 0.062009033 0.08296196
0.041248064 0.026273796 -0.04366266 -0.00900164 -0.0761437 0.15196216 0.11891807 -0.102723144
-0.026508745 0.036813818 0.15192103 -0.028956655 0.0062241834 0.04729618 -0.01403783 -0.0006126887
0.1104498 -0.13595301 -0.11995962 0.04653876 0.13588624 -0.07726571 0.1552335 -0.07903583
-0.05461985 0.12572746 -0.14076893 0.048442703 -0.155593 0.019020304 -0.15278447 0.090469554
-0.0447519 -0.018433388 -0.13846597 -0.171618 -0.15464176 -0.0042220396 -0.06480034 0.042404365
-0.14115497 0.020811545 -0.07060071 -0.03282466 0.17130433 0.14218834 -0.16459003 -0.081115656
-0.047236457 -0.06319458 0.101493336 -0.107687555 -0.16709667 0.018711682 -0.103071995 0.023278337
-0.045722965 0.17493513 0.158172 0.058005314 0.047752928 0.11953265 -0.0658436 0.06265506
0.04440219 -0.002990066 -0.16739619 0.10433439 -0.14676215 0.093369894 0.07000796 -0.07947954
-0.10499949 0.11366358 -0.15971392 -0.14533623 0.10893177 0.13165992 -0.016045157 -0.03380272
0.09253777 0.023577789 -0.118964195 0.014201717 0.03203369 -0.057244312 -0.032551993 0.16237068
-0.029757971 -0.041345466 -0.0263563 0.07551788 0.10091449 -0.113680795 0.17669138 -0.15313472
0.15062967 0.04565629 -0.016309354 0.023026783 -0.17281504 0.049657818 -0.10700663 -0.08407322
-0.15716653 -0.15869097 -0.11979131 -0.12924576 0.012071342 0.090888456 -0.1138603 -0.13554117
-0.15151446 0.059285168 0.16491309 0.00928044 0.117035225 0.0618992 0.17209257 -0.11488978
-0.010558186 0.043851286 -0.01968066 -0.027521048 0.059031803 0.090105176 -0.059854805 -0.14246671
-0.0031812019 0.0945047 0.09044149 0.12756751 -0.09105525 -0.116545245 -0.0367954 0.13774961
-0.037453312 -0.0103060845 -0.13360232 0.07101904 0.0509391 -0.13100225 -0.09626416 0.13408424
0.078226045 0.15232188 -0.13507348 -0.13199987 0.009217452 -0.1327045 0.04178763 0.11094365
-0.041249774 0.072648436 -0.1401075 0.02261741 -0.040712442 -0.08276726 0.1424747 -0.11688187
-0.15089446 0.04619242 -0.1382366 0.05440551 0.12394174 -0.053478323 0.072791465 0.07132012
-0.030316269 -0.044519525 -0.13930526 0.1520582 0.10095658 0.14964928 0.05285611 -0.08501424
0.07954583 0.10155344 -0.17635375 0.034569856 -0.13557674 -0.055405594 -0.125751 -0.016243353
0.052181844 0.08882334 0.020275583 0.10623635 -0.045030955 0.079905875 -0.023980692 -0.104019344
-0.009616372 -0.043507855 -0.16041863 -0.06753299 0.11659786 0.077094406 0.12794024 -0.069954515
-0.033690758 -0.13675596 0.043287385 -0.14156514 0.045892313 -0.006740819 -0.0009853722 -0.098490864

GAT_layers.2.f.bias f4 [64]
00000000: 5030 17bc 5c8b 17bd 32d5 953c 0639 d8bc
00000010: c651 873d 0901 ed3d fcaf a43d 9d5b 9abd
00000020: 0490 e1bb e9d7 df3d edf8 4eb9 1c54 afbc
00000030: afc4 a0bd 3c10 a4bd 88b8 16bd a567 b53d
00000040: a8fe 03bd a0d9 39bd d47b 27bd 366d cdbc
00000050: f5b2 143d 6555 183d 8526 be3d e13b f23c
00000060: 0ffc 9cbb ccd4 7d3d 90a6 47bd 613a bf3d
00000070: a644 17bd 7d74 f63d e7e1 db3d eae9 32bc
00000080: bf61 c4bc c853 ca3d 395f 853d 3e53 c1bc
00000090: ed4a 10bd fec8 be3d 4cc1 d8bc 047f 803d
000000a0: 325b 6a3d d77e 06bd a37c fbbc 205e dd3d
000000b0: 061d 6d3d b6d8 77bd 1f12 61bd 894f 053e
000000c0: 44f8 9abd a99b a6bd 4c1d 4fbd 91dd 9c3d
000000d0: 4fbc e93d 1317 56bd 3cd9 f53d 6516 6a3d
000000e0: ba11 adbd 0fd9 07bd 70e3 f53d ef33 8abd
000000f0: 73b6 8b3d c529 a7bc 0700 823d d897 053d
-0.009227827 -0.036998138 0.018290136 -0.026394378 0.06607394 0.11572463 0.08041379 -0.07537005
-0.006883623 0.109298535 -0.00019738423 -0.021402411 -0.078500144 -0.08010909 -0.036797076 0.08857659
-0.03222528 -0.04537356 -0.040889576 -0.02507649 0.03630348 0.037190814 0.09284691 0.029569568
-0.00479079 0.061970517 -0.04874283 0.09337307 -0.036930703 0.12033937 0.10736447 -0.010920027
-0.02397239 0.09879261 0.06512303 -0.023599263 -0.035227705 0.0931568 -0.026459359 0.06274226
0.057215877 -0.032835808 -0.03069908 0.108089685 0.057889007 -0.060509406 -0.054948922 0.13018622
-0.07566884 -0.081351586 -0.05056505 0.07659448 0.1141287 -0.0522681 0.12004325 0.057150263
-0.08450647 -0.033165988 0.12006271 -0.06748187 0.06821909 -0.02040566 0.063476615 0.032615513

GAT_layers.2.w.weight f4 [1, 128]
00000000: 57d6 10be a86f f9bc cc49 60bd a02a 15be
00000010: 5010 c7bc 0539 893d 7973 5b3e 8604 bebd
00000020: 0151 59bd cdc3 f5bd 25e0 fb3d 087f 153e
00000030: 1405 abbc 7a3d d33d bb8c 93bd 9c83 403e
00000040: 83d2 b3bc aa52 0c3e d45f 3f3d e69d 123e
00000050: a5ab 52be 9c35 1bbe 9ad9 bbbd a57c 893d
00000060: f65f cfbc 63d5 50bd 187d 04be 2ed8 c7bc
00000070: 7eb1 bd3d 8b70 aebd f690 1fbe e65d 06bd
00000080: 7db4 273d bd15 56bd aa12 233e c09e 50be
00000090: 7fbd 0b3e 2a37 aebd 1ea7 f2bc b16c b3bd
000000a0: fc4d 2e3e d9fa 46be 785a 3b3e 8ff8 b7bc
000000b0: a5dd e43b 17c9 fc3d 30a2 073e 699a 1e3d
000000c0: 7f98 c1bd ea49 e43b 9892 283e 2172 133e
000000d0: 8e70 e23d 55be df3d 3816 b93d 9a97 2ebe
000000e0: 0dff 133e 0923 babd 94b6 cabd 6fee 89bd
000000f0: 757c 8ebd 48ad 263e 41d4 b83d 0104 d53c
00000100: 8e1f 0abe 6383 57be fb76 b53d 7e4c 07be
00000110: ff2e 1a3e 4fdc 4dbe 2e1f 523e 41a7 07be
00000120: fadc aa3d 7e5d 52bd 1a00 58be 1561 0b3e
00000130: cd64 2c3e b966 31be 4656 2fbe 11dd 13be
00000140: 69ca e4bd 04b1 f7bd f7db a5bd 4e5f 26bd
00000150: 8a24 c638 b461 293e 5e44 513e c1bc 533e
00000160: ba2d f73d 031a 293e 654c 2e3e 0bd6 133e
00000170: 5875 523e 703f 563e f755 b6bd 1ce8 06be
00000180: db2a 4cbe d266 2ebe 34b0 123e c674 333e
00000190: bc23 af3d 0fd9 3fbe 12c4 40be d05e 45be
000001a0: 1689 11bd 4976 1b3e a124 003e 6f90 fd3d
000001b0: 6447 8e3d 0000 31be ab88 373e 7dd1 38bd
000001c0: 702c f9bd 8e48 3c3e 6619 283e 7c80 5a3e
000001d0: 5d87 f2bd 9de2 17bd 6e22 31be c7a5 3f3e
000001e0: fd69 55be 0b53 353e fccc a63d 2913 0e3e
000001f0: e1e5 8ebd c5bb 54be 9277 dbbc f29d 823d
-0.14144264 -0.03044875 -0.05475788 -0.14567041 -0.02429977 0.06700329 0.21430768 -0.092782065
-0.053055767 -0.12000237 0.122986116 0.1459924 -0.020876445 0.1031446 -0.072045766 0.18800205
-0.021950966 0.13703409 0.04672225 0.14318046 -0.2057329 -0.15157169 -0.091723636 0.06713227
-0.025314312 -0.05098475 -0.12938344 -0.024395075 0.092623696 -0.085175596 -0.15582642 -0.032804392
0.04094361 -0.052266825 0.15925089 -0.20373058 0.13646506 -0.085066155 -0.029620703 -0.087609656
0.17021936 -0.19431628 0.1829623 -0.02245739 0.00698443 0.12343042 0.13245463 0.038721476
-0.094529144 0.006966819 0.16462171 0.14399005 0.11056624 0.10924975 0.09037441 -0.17050019
0.14452763 -0.09088714 -0.09898105 -0.06734931 -0.06957332 0.16277039 0.09024859 0.026002886
-0.134886 -0.21046214 0.08860584 -0.13212773 0.1505699 -0.20103572 0.20519707 -0.13247396
0.08342929 -0.051358692 -0.21093789 0.13611253 0.16835327 -0.17324342 -0.17122754 -0.14439799
-0.11171419 -0.1209431 -0.080985956 -0.040618233 9.448182e-05 0.16541177 0.20436236 0.20677473
0.120692685 0.16513829 0.1702133 0.1443712 0.20552576 0.20922637 -0.08903115 -0.1317448
-0.19938223 -0.1703141 0.14325029 0.17525014 0.08551738 -0.18735145 -0.18824795 -0.1927445
-0.035531126 0.15181841 0.12513973 0.12381064 0.069472104 -0.17285156 0.17923228 -0.04512166
-0.12166679 0.18387052 0.16415939 0.21338075 -0.11842225 -0.03708135 -0.1729829 0.18715583
-0.20841213 0.1770746 0.081445664 0.13874497 -0.0697744 -0.20774753 -0.026790414 0.06377782

MLP_layers.0.weight f4 [32, 64]
00000000: 1402 8dbd 7675 f43d 2946 a83d 10f7 623d
00000010: e0bf f23c 37ad 2fbd 70b9 73bd 1e48 b83d
00000020: da11 ddbd 675f c83d ac0c 2bbd 2414 463d
00000030: 98e1 b33c 20bc 9dbb 009e b53a e88e e7bd
00000040: d288 a93d 18a6 273d 8099 33bc c070 bb3c
00000050: dd5a 16bd 07eb a4bd 68e2 5dbd 10bf 0cbe
00000060: 9000 1bbd aad9 f23b 2835 d23c 7cea 0dbe
00000070: 58b8 f2bd 6451 403d 4a0c 943d f46d 9a3d
00000080: 8039 623b e54c eabc 975a 15bd e284 d4bd
00000090: c487 d5bd f7f8 8c3d 269a a43d 10db babc
000000a0: 2587 dbbd 0698 933d 988d 67bd f951 d3bd
000000b0: cefc 6abd f4bb 633d 0060 793d 0bf6 99bc
000000c0: 5472 1cbd 9279 983d 80d8 e8bd 5cc1 893d
000000d0: a2e6 ccbd 8084 e4bb 8b3f 883c cf7e 1c3d
000000e0: 208b 763d f883 423d 50fb babd 62af d1bd
000000f0: 1d11 a9bd f053 b83c 3551 cb3d da93 92bd
00000100: e479 1a3d 6c6a 403d f0a4 5b3d 4aac f13d
00000110: 328c f0bd c459 debd 8864 3e3d a8ec 5dbd
00000120: a80e 8dbd 08d4 d4bd 28b0 8abd fc3c 34bd
00000130: 744b 2dbd 78ce 923c 148d cd3d de76 fdbd
00000140: a035 f33b 121e 91bd 00f8 5a3c 7401 1bbd
00000150: 64ca bbbd 9857 87bd e4c7 7f3d a44d 683d
00000160: 84bd abbd 2ca3 c03d 7880 303d 400d 113d
00000170: 1062 9e3d 8061 89bb c66e bcbd f655 993d
00000180: 54a3 afbd 141e 9d3d 802c 6b3b c4f3 a0bd
00000190: a8b4 f93c 5c92 ebbd 00fc 743b a0a3 2c3d
000001a0: 80a6 4a3c 7caa ddbd e671 a3bd 80f7 85bc
000001b0: b03e d73c 60fe 46bd 4012 64bb e66a cbbd
000001c0: da76 913d 2e6c 923d 60df 26bc dac8 f7bd
000001d0: 28f3 77bd 40a1 c93d 6825 a43c 324c f03d
000001e0: b05c b93d 80a4 b0bd 4028 2f3b 1094 613c
000001f0: 6e92 c8bd 3464 d03d 1899 d83d d27b 9ebd
00000200: a698 603d e09e 773c 00d3 1bbc ecaf e7bd
00000210: b94d 1ebd d4b1 943d 8944 d23d 1669 9b3d
00000220: 5bb3 c43d fe99 0c3e 4257 b8bd 404d cebd
00000230: dc60 cc3d e02b 09bc 4457 073d d8f5 2f3d
00000240: 6ce8 49bd 22af bb3d 3a78 be3d 5c9a c8bd
00000250: 21a2 a0bd e211 733d 3c53 b2bd 491f 77bd
00000260: 2c44 203d 04b7 b1bd aa31 a13d 6fae d23d
00000270: cc15 be3d e6f2 8c3b be3a 2bbd 9821 013d
00000280: c68c fabd c674 f7bc 7806 a9bd 60ee f23d
00000290: 9c3c b3bd d192 183e d49e a83d 6d85 d4b9
000002a0: 847f 293d d06a bebc 60e9 b0bd 39da f5bc
000002b0: 1e92 c03c c635 a9bd e4c3 1c3d ea61 213e
000002c0: 7021 a53c 527b bbbd 9051 753d d9cc a4ba
000002d0: 3cf3 55bd bef5 f93d c06b 1e3e 1389 5e3c
000002e0: 28f6 ef3d 4869 1cbd a8be f83d 507f 823d
000002f0: 14d0 123e 7ca3 703d eebb a8bc ba84 1cbd
00000300: 00bc f7bc d875 c73d 4c7b 1e3d b4db 333d
00000310: a45b 813d 80f8 433d 80c0 813b c0a9 053c
00000320: 1a4a ba3d 506c ddbd 58e5 bb3c 9e82 863d
00000330: 6e41 d93d 24be e83d 9037 713d e830 f1bc
00000340: 005a 943c 00bf 7c3b 6859 e43d 3c2b 79bd
00000350: d80b d23d fca0 92bd e090 98bd 9436 c8bd
00000360: d23f c3bd c04c 213c 6c3e debd 9a59 d3bd
00000370: d62e 8dbd d071 1bbd 7ed2 e2bd 7ea5 86bd
00000380: 3aa1 dc3d 0448 9f3d d048 5bbc 3e4e a1bd
00000390: 3885 6dbd a2bb b2bd 5250 b4bd 1a25 a93d
000003a0: ac33 dd3d 1665 b9bd 0e7d b93d a4f0 5a3d
000003b0: 0068 eeb8 f48a 643d 189b d83c 78d5 b0bc
000003c0: a0c6 7b3d 0093 07bd 9a08 b53d a601 8abd
000003d0: e890 27bd f081 78bd 8025 aebc 4806 093d
000003e0: 1804 62bd e807 cebd babe ef3d d8b3 c5bd
000003f0: b801 f83d 8024 f6ba 6e12 c6bd 70ac 063d
-0.06885162 0.119364664 0.08216507 0.0554114 0.029632509 -0.0428898 -0.05950302 0.0899813
-0.107944205 0.097838216 -0.04176013 0.04835905 0.021958157 -0.004813686 0.0013856292 -0.11306554
0.082780495 0.040929884 -0.01096189 0.022880912 -0.036707748 -0.080526404 -0.054170996 -0.1374476
-0.037842333 0.0074112015 0.025660113 -0.1385898 -0.11851567 0.04695262 0.072289065 0.07540503
0.0034519136 -0.02860112 -0.036463346 -0.10376908 -0.10426286 0.06883424 0.08037214 -0.022809535
-0.10719136 0.072067305 -0.05653152 -0.103183694 -0.05737 0.055599168 0.06088257 -0.01879408
-0.03819497 0.07445063 -0.11369419 0.067263335 -0.10004927 -0.006973803 0.016631862 0.03820687
0.060191274 0.047489136 -0.09129965 -0.1023853 -0.08255217 0.022500962 0.099275984 -0.07157107
0.0377139 0.04697649 0.053624094 0.1180044 -0.1174549 -0.10856965 0.046482593 -0.05418077
-0.06887561 -0.10392004 -0.067718804 -0.04400347 -0.042308286 0.017920718 0.10036674 -0.12376188
0.007422164 -0.070858136 0.013364792 -0.037843183 -0.09169462 -0.06608504 0.06244649 0.05671467
-0.083857566 0.094061226 0.043091267 0.035413027 0.07733548 -0.004192531 -0.09200816 0.07487099
-0.08576074 0.076717526 0.0035884678 -0.078589946 0.030481651 -0.11502525 0.003738165 0.042148232
0.012368798 -0.10823533 -0.07980709 -0.016353369 0.026275009 -0.048582435 -0.0034800917 -0.09932499
0.07102747 0.0714954 -0.010185093 -0.12098856 -0.060534626 0.09845209 0.020037368 0.11733283
0.09050882 -0.08625126 0.0026726872 0.013768211 -0.09793554 0.10175362 0.10576075 -0.077384606
0.054833077 0.015113562 -0.009510756 -0.11312851 -0.03864834 0.072604805 0.10266978 0.07588403
0.09604522 0.13730618 -0.09001018 -0.10073328 0.09979412 -0.008372277 0.033042207 0.042959064
-0.04929392 0.09164263 0.09300275 -0.09795067 -0.07843424 0.059343226 -0.08707282 -0.06033257
0.039127514 -0.086774856 0.07870801 0.10287177 0.09281501 0.0043014167 -0.041804068 0.031526178
-0.12233882 -0.03020705 -0.08253187 0.11861873 -0.08751795 0.14899756 0.08233419 -0.000405352
0.041381374 -0.023244292 -0.08638263 -0.030011283 0.023507174 -0.082622096 0.038272753 0.15760008
0.020157546 -0.09154381 0.059892237 -0.0012573256 -0.05223392 0.12205075 0.15470791 0.013582486
0.117168725 -0.03818634 0.1214574 0.06371939 0.14337188 0.05874966 -0.020597424 -0.038212515
-0.030241013 0.09739274 0.038691804 0.043910697 0.06316307 0.04784441 0.0039597154 0.008158147
0.09096165 -0.108116746 0.022936508 0.06567882 0.10608183 0.113643914 0.05889088 -0.029442266
0.018109322 0.0038565993 0.111498654 -0.060832247 0.10256165 -0.071596116 -0.07449508 -0.09776035
-0.09533657 0.009844959 -0.1085175 -0.103198245 -0.06893699 -0.037950337 -0.110753044 -0.06574534
0.10772939 0.07777408 -0.013384059 -0.07876252 -0.057988375 -0.08727194 -0.088043824 0.0825903
0.10800871 -0.09052484 0.090570554 0.05345215 -0.00011368096 0.05579658 0.026441142 -0.021586165
0.06146872 -0.033099174 0.08839531 -0.06738596 -0.040909678 -0.060670793 -0.021258116 0.033453256
-0.055179685 -0.10060102 0.117063 -0.09653443 0.12109703 -0.0018779188 -0.09671484 0.032879293

MLP_layers.0.bias f4 [32]
00000000: 2651 c63d 28da 91bd 2fc5 4b3d fe81 acbd
00000010: 235e 98bd c646 9ebd e037 45bd 0b00 c93d
00000020: 3c96 2a3d 6042 173c 510f aebc eecc 8bbd
00000030: 8c9a fabd 662d b53d 101f 3a3c b8cb babd
00000040: 37ba bf3d 4328 503d e1b5 d13c 43c6 aa3b
00000050: 431d 433d 4128 a4bd 9681 773c 6ffe ec3d
00000060: b061 8e3d d135 c03d e4a3 5cbd 6146 d13d
00000070: 123f e93d d72e 173e 0ac7 853d 4642 b83d
0.096834466 -0.07121688 0.049748596 -0.084232315 -0.0743983 -0.07728343 -0.04814899 0.09814461
0.04164718 0.009232134 -0.021247538 -0.068261966 -0.12236509 0.0884655 0.011359945 -0.091208875
0.093616895 0.050819647 0.025599422 0.005211623 0.047635328 -0.0801549 0.015106579 0.11571967
0.06952226 0.09385265 -0.053867236 0.10218502 0.11388983 0.14763962 0.06532104 0.08997016

MLP_layers.1.weight f4 [1, 32]
00000000: 7cc9 98bd bcc0 2bbe cdf6 923d 449c 033d
00000010: 3b91 b9bd 682b 1a3d 4dfc fdbd e5ee 303e
00000020: 8a0b fbbd 3cf4 d33d 4623 db3d b231 07bc
00000030: 8716 9abd d2b8 aa3d e573 243e 8b5a 0dbb
00000040: 2dc4 203e 6fa1 86bd cef3 e7bc 097d 503e
00000050: f0b2 1dbe 728b 21be 54d3 f43d 01d7 453d
00000060: e333 403e c630 273e 0803 aebd cdb3 353d
00000070: dc94 133e 4983 2b3d 275a 01be c954 043e
-0.07460305 -0.16772741 0.0717598 0.03213145 -0.09060904 0.03763905 -0.12401638 0.17278631
-0.1225806 0.103493184 0.10700087 -0.008251594 -0.07523828 0.08336033 0.16059835 -0.002156886
0.15699835 -0.0657376 -0.028314497 0.20360197 -0.1540029 -0.1577585 0.1195437 0.048300747
0.18769793 0.163272 -0.08496672 0.044360925 0.14412254 0.04187325 -0.12632047 0.12922968
