SLIC_GAT/best4.pt (torch, 74869 bytes, 12 tensors)

GAT_layers.0.f.weight f4 [32, 82]
0	0xbe62b57a	-0.2213954
1	0xbd8e42a1	-0.06946302
2	0xbb9f3bda	-0.00485943
3	0xbe22b8df	-0.15890835
4	0xbd542a2d	-0.051798034
5	0x3d4c4a37	0.049875464
6	0xbe1adc40	-0.15123081
7	0xbde45e67	-0.11150818
8	0x3e02000d	0.12695332
9	0x3e51f95d	0.20505281
10	0x3e180ceb	0.14848678
11	0x3e0065ba	0.12538806
12	0x3e137807	0.14401256
13	0xbd3252e3	-0.04353608
14	0x3c364a88	0.011126168
15	0xbe35170c	-0.17684573
16	0xbc8e21f8	-0.017350182
17	0x3d5f3d5a	0.05450187
18	0x3e2bce17	0.16777836
19	0xbd34f327	-0.0441772
20	0x3e25e6e8	0.16201365
21	0x3e24e639	0.16103448
22	0xbe633738	-0.22189033
23	0xbd9d6b92	-0.07686533
24	0xbc7f6f33	-0.015590477
25	0xbe27d9e7	-0.16391717
26	0x3deb0130	0.11474836
27	0xbd6c6658	-0.05771479
28	0x3e55e996	0.20889887
29	0xbd07a676	-0.033117734
30	0x3cbfc36f	0.02340862
31	0xbd6c3ce2	-0.05767525
32	0xbd209088	-0.039200336
33	0xbe48d985	-0.19614227
34	0x3dfdbf0b	0.12389954
35	0xbe45c44b	-0.19313161
36	0x3e38c501	0.18043901
37	0xbe285a47	-0.16440688
38	0x3dc0a2ca	0.094060495
39	0xbdf61d8b	-0.120173536
40	0xbe37ce6c	-0.17949837
41	0x3db5ac3e	0.08870743
42	0x3ce9925f	0.028512178
43	0xbe3d276b	-0.18472068
44	0xbe5a59f8	-0.21323383
45	0xbd160467	-0.036625292
46	0xbe02c7cb	-0.12771527
47	0x3e035dd4	0.12828761
48	0x3dfb5c12	0.122734204
49	0xbd9992f8	-0.07498735
50	0xbe07909e	-0.13238761
51	0xbd964f70	-0.0733937
52	0x3cbb377b	0.022853604
53	0xbc8fcf23	-0.017554825
54	0x3e4cce08	0.2000047
55	0x3e322f6c	0.17400903
56	0xbe2b5a80	-0.16733742
57	0x3e3d632b	0.18494861
58	0x3cf50f65	0.029914567
59	0x3e3e6759	0.18594112
60	0x3df66fa1	0.1203301
61	0x3d9dff5c	0.077147216
62	0xbe61cce7	-0.2205082
63	0x3c7389e0	0.014864415
64	0x3db35a02	0.08757402
65	0xbe32f0a3	-0.17474608
66	0x3e3393cd	0.1753685
67	0x3e55187a	0.20810118
68	0xbe498242	-0.19678596
69	0x3db95149	0.09048707
70	0x3e3b4592	0.18288258
71	0xbe52d5f0	-0.20589423
72	0x3e5aa81f	0.21353196
73	0xbe28efa6	-0.16497669
74	0xbe367804	-0.1781922
75	0x3c2e9e94	0.010657925
76	0x3e2b6dfd	0.16741176
77	0xbdf3ab31	-0.118978865
78	0x3e53e140	0.20691395
79	0x3c98ec11	0.018667253
80	0x3e4ed32c	0.20197743
81	0x3dadd796	0.084883854
82	0x3e57f041	0.21087743
83	0xbe387198	-0.18012083
84	0x3da626c3	0.08112862
85	0x3e65785a	0.22409192
86	0x3dd09000	0.10183716
87	0xbc62f90a	-0.013853321
88	0x3d1f5c97	0.03890666
89	0xbcf3b211	-0.029747995
90	0xbdb04485	-0.08606819
91	0xbd9c0d9f	-0.076197855
92	0xbe25e20d	-0.16199513
93	0x3c882ab3	0.016621923
94	0xbde5678e	-0.11201392
95	0x3caa7c8c	0.020811342
96	0x3e1fc059	0.15600719
97	0x3e2a694a	0.16641727
98	0x3e015a3c	0.12632078
99	0x3e3a33cb	0.1818382
100	0xbe2a7dc1	-0.16649534
101	0xbe3aa116	-0.18225512
102	0x3e17bd7a	0.14818373
103	0xbde2800c	-0.11059579
104	0xbdb55fdf	-0.088561766
105	0x3e490e4c	0.1963436
106	0x3c11e306	0.008904224
107	0xbd01f9fa	-0.031732537
108	0xbe0211c4	-0.1270209
109	0x3db03dbe	0.086055264
110	0xbde1f1ae	-0.11032425
111	0xbddf983b	-0.109177075
112	0x3e08ab3f	0.13346575
113	0xbd4ed2fd	-0.050494183
114	0xbe4f3808	-0.20236218
115	0xbd0d11da	-0.034440853
116	0x3e024fc6	0.12725744
117	0x3dde6cb8	0.1086058
118	0xbd8e8167	-0.06958275
119	0xbe32f2f2	-0.17475489
120	0x3c68e3e0	0.014214486
121	0x3c96b12d	0.01839503
122	0x3e1e6610	0.15468621
123	0xbe4ec582	-0.20192531
124	0xbcc2d93d	-0.023785228
125	0xbe326bbe	-0.17423913
126	0xbe568d5f	-0.20952366
127	0x3daf314b	0.08554324
128	0xbe4e3a00	-0.20139313
129	0xbc86c44b	-0.016451022
130	0x3d3422c7	0.04397848
131	0xbe4b13b5	-0.19831736
132	0x3d16556b	0.036702555
133	0xbe58acfb	-0.21159737
134	0x3e247d2e	0.16063377
135	0x3dc72ff2	0.09725942
136	0xbe5eb40f	-0.21748374
137	0xbd0f2400	-0.03494644
138	0xbccf8349	-0.025331156
139	0xbdd91bd3	-0.1060101
140	0x3d63a5e0	0.055578113
141	0x3e44503c	0.19171232
142	0xbcd72540	-0.02626288
143	0x3e3789df	0.17923687
144	0xbe68f782	-0.22750667
145	0xbc1c89c7	-0.009554333
146	0x3b6f28a1	0.0036492723
147	0x3cced526	0.025248121
148	0x3dd07248	0.101780474
149	0x3d0bfa08	0.034173995
150	0xbe2f2e1d	-0.17107435
151	0x3e00593f	0.12534045
152	0x3e3d1961	0.18466713
153	0x3e500fde	0.20318553
154	0xbe2a823b	-0.16651241
155	0xbe5ba14d	-0.2144825
156	0xbcf8eb7b	-0.030385723
157	0xbda77550	-0.081766725
158	0xbd2290e3	-0.039688956
159	0xbd88d834	-0.066818625
160	0x3df8e885	0.121537246
161	0x3e4954a0	0.19661188
162	0xbdb32367	-0.08746987
163	0x3e56c7c9	0.2097465
164	0xbe1e4fcb	-0.15460126
165	0xbe1d7927	-0.15378247
166	0x3e56f84c	0.20993155
167	0xbe136245	-0.14392956
168	0x3c6b9e37	0.014380983
169	0x3e144429	0.14479126
170	0x3d9f22d8	0.07770318
171	0xbe236bbb	-0.15959065
172	0xbe3c1411	-0.1836703
173	0x3e481590	0.19539475
174	0xbe1c98b3	-0.15292625
175	0x3dfdbd6e	0.123896465
176	0xbe2a235c	-0.16615051
177	0x3e17432b	0.14771716
178	0xbe103e78	-0.1408633
179	0x3d6d1354	0.05787976
180	0x3d730ac0	0.059336424
181	0xbd8ac2b8	-0.06775421
182	0xbe23112e	-0.15924522
183	0xbdee59d5	-0.11638228
184	0xbe30543a	-0.1721963
185	0x3be4fe5f	0.006988331
186	0x3e370abb	0.17875187
187	0xbdcc2396	-0.09967725
188	0x3e1c2884	0.1524983
189	0xbc87e49a	-0.016588498
190	0x3e493db8	0.1965245
191	0x3d1fe748	0.039038926
192	0x3de930ab	0.11386236
193	0x3db924bf	0.09040212
194	0x3dbf9098	0.09353751
195	0x3e2e6ee9	0.17034496
196	0xbc98ea20	-0.018666327
197	0x3b144e02	0.0022629504
198	0xbd308303	-0.043093693
199	0x3e4688b0	0.1938808
200	0xbe481fa5	-0.19543321
201	0x3d6ad8a8	0.057335526
202	0x3d39a421	0.04532254
203	0x3d35c7fa	0.044380166
204	0xbd0543ba	-0.032535292
205	0xbd771309	-0.060320888
206	0x3e14a24a	0.14515033
207	0x3b9c87d1	0.0047769328
208	0x3dc25930	0.094896674
209	0x3d049d75	0.032376725
210	0xbdd37f97	-0.1032707
211	0xbe49dfe1	-0.1971431
212	0x3c2fa9f5	0.010721673
213	0x3e0cd0d7	0.13751541
214	0x3e05cce1	0.13066436
215	0xbe1c5e2d	-0.152703
216	0x3e0977c0	0.13424587
217	0xbd392609	-0.04520229
218	0xbe1e1b91	-0.15440203
219	0x3e26d871	0.16293503
220	0xbd732df0	-0.05936998
221	0xbe34e5a5	-0.17665727
222	0x3dda824f	0.10669386
223	0x3e5bd354	0.21467334
224	0xbe260ec7	-0.16216575
225	0x3e126d3f	0.14299487
226	0xbdf41ae9	-0.11919195
227	0xbde14f0f	-0.11001407
228	0x3e5dc9c7	0.21659003
229	0xbdbc079b	-0.09181138
230	0xbcc115ea	-0.02357002
231	0x3d0ed330	0.034869373
232	0x3d4562fe	0.04819011
233	0x3cd84a67	0.026402665
234	0xbe62b4f4	-0.2213934
235	0xbc3063ab	-0.01076595
236	0xbe553544	-0.208211
237	0x3d6b128e	0.057390742
238	0x3e334560	0.17506933
239	0x3db287ee	0.08717333
240	0x3c85673a	0.016284574
241	0xbdfd6190	-0.12372124
242	0x3e5577cd	0.20846482
243	0xbe2f2bee	-0.17106602
244	0x3d5c930a	0.053851165
245	0xbdf2366d	-0.11826787
246	0xbd25ff51	-0.04052669
247	0x3dca660e	0.09882747
248	0xbe0ece72	-0.1394594
249	0xbdffea8d	-0.12495909
250	0x3e2d55ca	0.16927257
251	0x3d999a7b	0.07500168
252	0x3e585954	0.21127826
253	0xbe3d1253	-0.18464021
254	0x3bf36123	0.007427351
255	0xbe18b8e3	-0.14914279

GAT_layers.0.f.bias f4 [32]
0	0xbd838c68	-0.06423265
1	0x3d4a3cae	0.049374275
2	0xbd7bef26	-0.061507367
3	0xbdb84c54	-0.089989334
4	0x3ae848e4	0.0017721918
5	0xbdb3e40e	-0.08783732
6	0xbd8edf7b	-0.06976219
7	0x3d4ca2dd	0.049960006
8	0xbd6a3f67	-0.05718937
9	0xbd27895c	-0.04090248
10	0x3dbfb824	0.09361294
11	0x3c809243	0.015694743
12	0xbd4490ca	-0.047989644
13	0x3ba56652	0.005047598
14	0xbc092908	-0.008371599
15	0xbd3f684b	-0.04673032
16	0xbce54074	-0.027984835
17	0xbde4e49d	-0.11176417
18	0x3d9de607	0.0770989
19	0x3cd64e6a	0.026160438
20	0xbdc0ae42	-0.09408237
21	0x3bdb417a	0.006691155
22	0x3d8359f9	0.06413645
23	0xbb85ff59	-0.0040892777
24	0xbd5cc61d	-0.053899873
25	0x3d5df263	0.054186236
26	0xbddf78d1	-0.10911716
27	0x3ce4463d	0.027865523
28	0x3d2adc8c	0.041714236
29	0xbdac220b	-0.08404931
30	0xbda7ed06	-0.081995055
31	0xbac0ea4e	-0.0014718266

GAT_layers.0.w.weight f4 [1, 82]
0	0xbdee59b1	-0.11638201
1	0xbe3d38cd	-0.18478699
2	0xbe365a17	-0.17807804
3	0xbdd8bc3b	-0.10582777
4	0xbda8d15a	-0.08243056
5	0x3e168848	0.14700425
6	0x3e4181b6	0.18897137
7	0x3e3ac720	0.18240023
8	0x3dc608f3	0.09669676
9	0xbe55a811	-0.20864893
10	0xb9055d61	-0.00012718655
11	0xbe5434f3	-0.20723324
12	0xbdd1fdd6	-0.102534935
13	0x3e13a125	0.1441694
14	0x3e02cb76	0.12772927
15	0xbe61a779	-0.22036542
16	0x3d90a3d5	0.070624985
17	0x3d957ab3	0.07298794
18	0xbd2097af	-0.039207157
19	0x3e85f20b	0.26161227
20	0xba6b5444	-0.0008977095
21	0xbd80a4fd	-0.06281469
22	0x3e7efaab	0.2490031
23	0xbe5a45be	-0.21315667
24	0x3dcdef29	0.10055382
25	0xbdc8313d	-0.097750165
26	0xbdcf1111	-0.10110677
27	0x3e8a53af	0.2701697
28	0x3e5a0ad1	0.21293189
29	0xbe6c4c66	-0.23076019
30	0x3e4e0aba	0.2012128
31	0xbe3223d2	-0.17396477
32	0x3ddc0b90	0.10744393
33	0x3d632856	0.05545839
34	0x3e7d1cb8	0.24717987
35	0x3d04df22	0.03243936
36	0x3dd9cd8e	0.106349096
37	0x3bec63d7	0.0072140503
38	0xbd9e2c3c	-0.07723281
39	0x3d974369	0.07385904
40	0xbe74766d	-0.23873301
41	0x3e88963a	0.26677114
42	0x3e030a12	0.1279681
43	0xbd26e9cb	-0.040750306
44	0x3e141ef3	0.14464931
45	0x3e88c288	0.26710916
46	0xbe6fc41e	-0.23414657
47	0x3dccafa9	0.09994442
48	0xbe6b4b88	-0.22978032
49	0xbe18e3db	-0.1493067
50	0x3d4da1f0	0.050203264
51	0x3e199542	0.14998344
52	0x3dae4414	0.085090786
53	0x3dda6a90	0.106648564
54	0xbe894f44	-0.26818287
55	0xbe1397b2	-0.14413336
56	0x3dc4de13	0.0961267
57	0x3d04e678	0.032446355
58	0xbe836d81	-0.25669482
59	0x3e5beef9	0.2147788
60	0x3ddd25ca	0.10798223
61	0xbcad1824	-0.021129675
62	0x3d9ad6b7	0.07560485
63	0x3d1d38b4	0.038384154
64	0xbe80e1da	-0.2517231
65	0x3e80479b	0.2505463
66	0xbdbdd753	-0.092695855
67	0x3e23a3e0	0.15980482
68	0xbe2edddd	-0.17076822
69	0x3e83601d	0.25659266
70	0x3debeed0	0.11520159
71	0xbd8ee2c1	-0.069768436
72	0x3d8c7f8e	0.068602666
73	0xbdac3066	-0.08407669
74	0x3de04b1c	0.10951826
75	0xbe5a04e8	-0.21290934
76	0x3d6b6669	0.057470713
77	0xbe589acf	-0.21152805
78	0xbdd69845	-0.10478262
79	0x3d257b9a	0.04040108
80	0x3dbad82f	0.09123265
81	0xbd603ee4	-0.054747477

GAT_layers.1.f.weight f4 [64, 64]
0	0x3e138fc9	0.14410318
1	0xba8473d3	-0.0010105319
2	0x3e2024b9	0.15639009
3	0x3dd47cfc	0.103754014
4	0x3e0fec30	0.14054942
5	0x3e530ab7	0.20609556
6	0x3dd139c3	0.10216095
7	0xbe140eca	-0.14458767
8	0x3de29aaa	0.11064656
9	0xbe12df1e	-0.14342925
10	0x3d84ce05	0.064846076
11	0x3d6fed0d	0.05857568
12	0xbd1bfadc	-0.038081035
13	0xbcfcd17d	-0.03086161
14	0xbc987c87	-0.018614067
15	0x3e03bae1	0.12864257
16	0x3d901e5a	0.07037039
17	0x3e383617	0.17989384
18	0x3dfa4b7d	0.122214295
19	0xbe560ab6	-0.20902523
20	0xbbde1700	-0.006777644
21	0xbe0609f3	-0.13089733
22	0xbd1232f7	-0.035693135
23	0xbe0d6c55	-0.13810857
24	0xbd99c441	-0.075081356
25	0x3e037e89	0.12841238
26	0x3d3ca454	0.046055153
27	0xbe465a89	-0.19370474
28	0x3dae25f7	0.08503335
29	0xbdefaed9	-0.117032714
30	0x3cbd63ad	0.023118818
31	0xbe0b5c60	-0.13609457
32	0xbdddd35a	-0.10831328
33	0xbdd964c8	-0.106149256
34	0xbdfb8c3e	-0.122826084
35	0xbe03e5f7	-0.12880693
36	0x3c90797e	0.017636057
37	0x3e204ca7	0.1565424
38	0xbdc36b30	-0.09541929
39	0xbda876db	-0.08225795
40	0x3ccedcfe	0.025251862
41	0x3e0b16bb	0.1358289
42	0xbc14ce13	-0.009082335
43	0xbe11b9cc	-0.14231032
44	0xbdfb4f5d	-0.12270997
45	0x3e1b5b3a	0.15171519
46	0x3e4278a0	0.18991327
47	0x3ce3e56d	0.02781936
48	0x3df02e5a	0.11727591
49	0xbe2bcc6e	-0.16777202
50	0x3e27b156	0.16376242
51	0xbdebbda2	-0.11510779
52	0x3d64e402	0.055881508
53	0xbe4a0803	-0.19729619
54	0x3e21a733	0.15786438
55	0xbe1083e1	-0.14112808
56	0x3d9391d7	0.07205551
57	0x3ddcd021	0.10781885
58	0x3c008d9f	0.007846265
59	0x3e1d3cf9	0.1535529
60	0xbd68a7a5	-0.056800503
61	0x3caabec7	0.020842923
62	0x3ded6a6f	0.11592566
63	0xbde10f2e	-0.109892234
64	0xbd1ac855	-0.037788708
65	0x3d7ddf04	0.061980262
66	0xbdac295c	-0.08406326
67	0xbdf4e727	-0.11958151
68	0x3d5490c9	0.05189589
69	0xbe31c11a	-0.17358819
70	0x3dcf38a4	0.10118225
71	0xbdf6770a	-0.12034424
72	0x3d333926	0.043755673
73	0x3e615ccb	0.22008054
74	0x3e24d9f0	0.16098762
75	0xbdabdd71	-0.08391846
76	0xbe192276	-0.14954552
77	0x3e1f9d08	0.15587246
78	0x3d06c326	0.03290095
79	0x3c1cf184	0.009579066
80	0x3e23b281	0.15986063
81	0x3daa6b75	0.08321277
82	0x3e47921a	0.19489327
83	0xbe0f1de0	-0.1397624
84	0xbcb9eb59	-0.02269523
85	0xbe516e49	-0.20452227
86	0x3e2a238d	0.16615124
87	0x3dc21eeb	0.094785534
88	0xbd80ec14	-0.06295028
89	0xbd347f53	-0.04406674
90	0xbd33871b	-0.04383002
91	0x3cc57383	0.024102932
92	0xbc5e8bf2	-0.01358317
93	0x3ddd3bb7	0.10802405
94	0x3e31d502	0.17366412
95	0xbe2729e8	-0.1632458
96	0x3e312957	0.17300926
97	0xbd2e8696	-0.04260882
98	0x3e0035d6	0.12520537
99	0x3d400586	0.046880268
100	0xbd83cf7c	-0.06436059
101	0x3e49106f	0.19635175
102	0xbd762df1	-0.060102407
103	0x3d102db6	0.035199843
104	0x3dfaad9c	0.122401446
105	0x3e0f7da8	0.14012778
106	0xbdd11c63	-0.102104925
107	0xbde9643d	-0.11396072
108	0x3e37fa83	0.17966656
109	0x3e30b637	0.1725701
110	0x3e1b0dc4	0.1514197
111	0xbe191606	-0.14949808
112	0xbdf6a0d7	-0.120423965
113	0xbdf7ec45	-0.12105612
114	0xbe222d1e	-0.15837523
115	0xbcfb0d05	-0.030645857
116	0xbcb7a5c2	-0.022417907
117	0xbbea7a2b	-0.007155677
118	0xbda75032	-0.08169593
119	0x3dc0d1fc	0.09415051
120	0xbcebb356	-0.028772037
121	0xbe45baa1	-0.19309475
122	0xbe18c92a	-0.14920488
123	0x3da99a63	0.082814
124	0xbdaa4c52	-0.08315338
125	0x3e21ccc9	0.15800776
126	0xbda887b3	-0.082290076
127	0xbc9634fd	-0.018335814
128	0xbd8ac3f2	-0.06775655
129	0xbdeb5e57	-0.11492603
130	0x3e1a1435	0.15046771
131	0x3e3bb0c0	0.18329144
132	0xbe2d66b0	-0.16933703
133	0xbe13a880	-0.14419746
134	0xbd9f1123	-0.077669404
135	0x3e5c17ff	0.21493529
136	0x3ccd6f2b	0.025077423
137	0x3cc133ef	0.023584334
138	0x3da797c7	0.08183246
139	0xbc552145	-0.01300842
140	0xbdbbc012	-0.09167494
141	0xbdffac5c	-0.12484047
142	0xbe578160	-0.21045446
143	0xbe1a94c9	-0.1509582
144	0xbe2187f8	-0.15774524
145	0xbe3791fe	-0.17926785
146	0xbe1d4529	-0.15358414
147	0x3e371f30	0.17882991
148	0x3e09b9d6	0.13449797
149	0xbdd147eb	-0.102187954
150	0x3d8b30f0	0.067964435
151	0xbd094920	-0.033517003
152	0x3d6bfc90	0.05761391
153	0xbe312e6d	-0.17302866
154	0x3e5ad3aa	0.21369806
155	0x3db8db6f	0.09026229
156	0xbe3aa4d2	-0.18226936
157	0x3e1ef4ab	0.15523021
158	0xbe2f5f5e	-0.17126223
159	0xbcc04c75	-0.023473958
160	0xbe3a7692	-0.18209293
161	0xbdd993cc	-0.10623893
162	0x3e55cf51	0.20879866
163	0x3d33854d	0.043828297
164	0xbe324ce0	-0.17412138
165	0xbdb00814	-0.08595291
166	0x3ce913e8	0.028451875
167	0xbe188ce2	-0.14897493
168	0xbd04449e	-0.032292
169	0x3d7ad0e0	0.061234355
170	0x3e251e78	0.16124904
171	0x3d9eff32	0.077635184
172	0xbe5be70f	-0.2147486
173	0x3e39813a	0.18115702
174	0x3e4265ea	0.1898419
175	0x3d1790ac	0.037003204
176	0x3de4a140	0.111635685
177	0x3d41faf2	0.04735846
178	0x3e5c4305	0.21509941
179	0x3d2181ab	0.0394303
180	0x3e378ad4	0.17924052
181	0x3e386741	0.18008138
182	0xbe40bed7	-0.188228
183	0xbcd2e614	-0.025744475
184	0xbd8dc43f	-0.069221966
185	0x3ca29fca	0.019851584
186	0xbbcfcc8b	-0.006341522
187	0x3d5a9877	0.053368058
188	0xbdd86d87	-0.10567766
189	0x3e4cca8d	0.19999142
190	0xbddca5cd	-0.107738115
191	0x3e142374	0.1446665
192	0x3e0636ca	0.13106838
193	0xbc9aef48	-0.018912926
194	0x3e2657be	0.16244408
195	0xbdb6ba58	-0.08922261
196	0xbe0c43c7	-0.1369773
197	0x3e24917d	0.16071124
198	0xbdb8aec0	-0.09017706
199	0xbe2d2d19	-0.16911735
200	0xbd785929	-0.060631905
201	0xbe44289e	-0.19156119
202	0xbe116598	-0.14198911
203	0xbdf29064	-0.118439466
204	0xbbab1773	-0.005221301
205	0xbd9fa382	-0.077948585
206	0x3e5078f3	0.20358638
207	0x3e24d4e9	0.16096844
208	0x3df9b065	0.12191848
209	0x3c40ba05	0.0117631005
210	0x3dae2cc2	0.085046306
211	0xbbaa6ac5	-0.005200716
212	0x3e45ee6c	0.19329232
213	0x3e1744e8	0.1477238
214	0xbdcd3c3b	-0.10021254
215	0xbe587d03	-0.21141438
216	0xbc043047	-0.008068151
217	0x3e33a061	0.17541648
218	0x3b1e3b82	0.0024144356
219	0x3db0da35	0.0863537
220	0x3e452ea3	0.19256072
221	0xbd278b2e	-0.040904216
222	0xbe2ce2e2	-0.16883424
223	0x3dee6d2c	0.11641917
224	0x3db4b8f9	0.08824343
225	0x3daa7162	0.08322407
226	0x3db1ce86	0.08681969
227	0x3e291842	0.1651316
228	0x3e27b758	0.16378534
229	0xbe28d81d	-0.1648869
230	0x3d83fd9b	0.06444856
231	0xbcf2b4d8	-0.029627249
232	0xbcdbd4cd	-0.02683487
233	0x3a9f4c61	0.00121535
234	0x3bc78d8a	0.006089871
235	0xbdf7219b	-0.120669566
236	0xbe00545b	-0.12532179
237	0x3de486ab	0.111584984
238	0x3d858845	0.06520132
239	0x3d8860b8	0.06659073
240	0x3e0b7dc6	0.13622198
241	0xbd90296c	-0.070391506
242	0xbdbbb5ee	-0.0916556
243	0xbd82e8fb	-0.06392094
244	0x3e5b6159	0.21423854
245	0xbc2d9b3b	-0.010596092
246	0xbd8529c7	-0.06502109
247	0x3e399f99	0.18127288
248	0x3d982a5a	0.07429953
249	0xbcb904e1	-0.022585334
250	0xbd96ed35	-0.073694624
251	0xbe238044	-0.15966898
252	0x3e3cc45a	0.18434277
253	0xbe2769c5	-0.16348942
254	0x3e4376e4	0.19088322
255	0xbd287c65	-0.041134257

GAT_layers.1.f.bias f4 [64]
0	0x3da9fe7c	0.08300492
1	0xbd69ca84	-0.0570779
2	0xbdee4826	-0.11634855
3	0xbc870b97	-0.016485019
4	0xbd8aba45	-0.06773809
5	0xbc162710	-0.009164587
6	0x3d27ab9b	0.04093514
7	0x3d22a761	0.039710406
8	0xb98559f8	-0.0002543477
9	0x3dd16bf0	0.102256656
10	0x3dcf4db2	0.10122241
11	0x3cc20f2c	0.023688875
12	0xbd1095e7	-0.035299208
13	0xbd97a7ae	-0.07405029
14	0x3d858774	0.06519976
15	0xbd4a0404	-0.049320236
16	0xbcd132d7	-0.025536938
17	0x3e09bba0	0.1345048
18	0xbd8796ea	-0.066205814
19	0x3da5d848	0.08097893
20	0xbd5cc3e3	-0.05389775
21	0xbd89d414	-0.06729904
22	0x3e086ba8	0.13322318
23	0xbd94378a	-0.07237156
24	0x3d14ca83	0.036325943
25	0xbcf538c3	-0.029934293
26	0x3e0de817	0.13858066
27	0x3d6ea679	0.05826423
28	0x3d0d6a3f	0.034525152
29	0x3ddca985	0.10774521
30	0x3d5206f6	0.05127617
31	0xbc166e67	-0.009181595
32	0x3dbbc6d6	0.09168784
33	0xbdc88d16	-0.09792535
34	0x3dd98499	0.10620994
35	0x3cc3b84b	0.023891589
36	0x3d49f746	0.049308084
37	0xbcc5522d	-0.024087036
38	0xbdb3ad1c	-0.08773252
39	0x3d382cd8	0.04496464
40	0xbdf49778	-0.11942953
41	0x3cd81290	0.026376039
42	0x3e1fd4c1	0.15608503
43	0x3d88abc7	0.06673389
44	0x3dc21fae	0.09478699
45	0xbdc408bb	-0.09571978
46	0x3d9b52fb	0.07584187
47	0xbd18e0b5	-0.037323672
48	0x3df9fe8a	0.122067526
49	0xbda28236	-0.07934992
50	0xbd2e72a6	-0.042589806
51	0xbdd90f0d	-0.10598574
52	0xbd40fed0	-0.047118008
53	0xbd80a2f4	-0.06281081
54	0xbc014a6e	-0.007891281
55	0xbe0024bb	-0.12514012
56	0xbca99781	-0.020702126
57	0xbd6f7c9c	-0.058468446
58	0x3dc954bb	0.09830614
59	0x3e024240	0.12720585
60	0xbd8a2324	-0.06744984
61	0xbd81c5d7	-0.06336563
62	0xbc119009	-0.008884438
63	0xbdbc3671	-0.091900714

GAT_layers.1.w.weight f4 [1, 64]
0	0x3e41ddcd	0.18932267
1	0x3e79ea7a	0.24405852
2	0xbe80faa9	-0.2519124
3	0xbe89b3bf	-0.26894948
4	0xbe0a7e0b	-0.13524644
5	0x3e4c4c94	0.19951087
6	0xbda85549	-0.08219392
7	0x3e36afae	0.17840454
8	0xbe1d35ae	-0.15352508
9	0x3e46a825	0.1940008
10	0xbe853e75	-0.26024213
11	0x3e90a88b	0.28253588
12	0x3db2f690	0.08738434
13	0xbe2ae007	-0.16687022
14	0x3d9f1d20	0.07769227
15	0x3e69dab6	0.22837338
16	0xbe29a9a9	-0.16568626
17	0x3d956bb4	0.07295933
18	0xbe151b4d	-0.14561196
19	0xbe761474	-0.2403124
20	0xbd5227da	-0.051307537
21	0x3ca13899	0.019680308
22	0x3d635382	0.05549956
23	0x3dabe3eb	0.08393081
24	0xbe539192	-0.20661
25	0x3e893fe4	0.26806557
26	0xbe1fb32e	-0.15595695
27	0x3e1b30f9	0.151554
28	0x3e89f1ad	0.26942196
29	0xbe89e23b	-0.26930413
30	0x3e5fafb5	0.2184437
31	0x3d7c0f62	0.061538108
32	0xbe466fd1	-0.19378592
33	0x3e25a757	0.16177116
34	0x3d426947	0.04746368
35	0xbc918c46	-0.017767083
36	0x3db22803	0.08699038
37	0x3e39dc71	0.18150498
38	0xbc97c371	-0.01852581
39	0x3dc52294	0.09625736
40	0x3e8dbd3b	0.27683434
41	0x3cced9a9	0.025250273
42	0x3e4d8df2	0.20073679
43	0xbda14ad8	-0.078756034
44	0x3e8403c9	0.25784138
45	0xbe18157b	-0.14851944
46	0x3d87f250	0.06638014
47	0x3e6915b8	0.22762191
48	0xbd8073f7	-0.062721185
49	0xbd1ecf31	-0.038771812
50	0xbe15f048	-0.14642441
51	0xbe97dc3d	-0.29660216
52	0xbe4b638a	-0.1986219
53	0xbde72ea5	-0.112881936
54	0xbe958ebc	-0.2921046
55	0x3e023e25	0.12719019
56	0xbdf301e5	-0.11865596
57	0xbe3378ec	-0.17526597
58	0x3e45e507	0.19325648
59	0xbe8f7ee7	-0.28026506
60	0x3e568498	0.20949018
61	0xbe29f226	-0.16596279
62	0x3e9c47b0	0.30523443
63	0x3bd90356	0.006622712

GAT_layers.2.f.weight f4 [64, 128]
0	0x3e1d4aa9	0.15360512
1	0x3d909cc2	0.07061149
2	0xbe1a41be	-0.15064141
3	0x3db5603f	0.08856248
4	0x3dcb9b59	0.099417396
5	0xbe227628	-0.15865386
6	0x3e03596d	0.12827082
7	0x3d723e03	0.05914117
8	0xbe0943f0	-0.13404822
9	0xbc65854f	-0.014008834
10	0xbde47f28	-0.11157066
11	0x3e2d6b9b	0.1693558
12	0xbdacf513	-0.08445182
13	0xbde96db0	-0.11397874
14	0x3dd8116e	0.105501994
15	0x3e252dfb	0.16130821
16	0x3dfd7d81	0.123774536
17	0xbde7b0fd	-0.11313055
18	0x3d2dd255	0.042436916
19	0xbdd8a3da	-0.10578127
20	0xbdb5e7f1	-0.0888213
21	0xbe1e15d7	-0.15438019
22	0x3dd15e24	0.10223034
23	0xbe1204e9	-0.14259686
24	0x3de5eb04	0.11226466
25	0x3dd23858	0.10264653
26	0x3ce678e9	0.028133826
27	0x3dd62337	0.104559354
28	0xbdcfb90e	-0.10142718
29	0x3e159c54	0.14610416
30	0x3dc1be42	0.09460117
31	0xba5ef380	-0.0008504912
32	0xbb552e19	-0.0032528697
33	0x3e2f0a40	0.17093754
34	0x3d00d1a8	0.031449944
35	0x3dd421f6	0.1035804
36	0xbd1c2ba2	-0.03812755
37	0x3d6eab06	0.05826857
38	0x3dc1b3e9	0.09458143
39	0xbe0118a2	-0.12607053
40	0xbbdb0278	-0.006683644
41	0xbdb233b4	-0.08701268
42	0xbe11f71b	-0.1425442
43	0xbd92732c	-0.071508735
44	0xbd1a6b7a	-0.037700154
45	0xbd5eeac4	-0.05442311
46	0xbe27a9b4	-0.1637333
47	0x3d923f8d	0.071410276
48	0x3bf810e6	0.007570374
49	0xbd92c082	-0.07165624
50	0xbe248524	-0.16066414
51	0x3e0bde05	0.13658912
52	0x3e214c9f	0.15751885
53	0xbdff259c	-0.12458345
54	0xbd8ebc09	-0.069694586
55	0xbc6b21c4	-0.014351312
56	0xbd1f40c2	-0.038880117
57	0x3e01e037	0.12683187
58	0x3d78d0c2	0.060745962
59	0xbdb4adac	-0.08822188
60	0xbdbc3771	-0.09190262
61	0x3d8cdade	0.06877683
62	0xbe1a0483	-0.15040784
63	0x3c53a0e2	0.012916775
64	0xbc9557dd	-0.018230373
65	0xbe1ad939	-0.15121926
66	0xbdbc4215	-0.09192292
67	0x3e1eaf58	0.15496576
68	0xbda16936	-0.078813955
69	0xbd3d37de	-0.046195857
70	0x3c28feea	0.0103146825
71	0x3db37d96	0.08764188
72	0x3d32d826	0.043663166
73	0x3e296772	0.16543368
74	0xbe0159cb	-0.1263191
75	0x3e137fe7	0.1440426
76	0x3dbf46bb	0.09339663
77	0x3d1b19d9	0.037866447
78	0x3d00e827	0.031471398
79	0x3df8d49a	0.121499255
80	0x3d548e6d	0.05189364
81	0x3e19a363	0.15003733
82	0xbca565aa	-0.020190079
83	0xbe1b4def	-0.15166448
84	0x3cccbc19	0.024992036
85	0xbd3a2a6e	-0.04545062
86	0xbc6f8e70	-0.014621362
87	0xbe1f38c8	-0.15549004
88	0xbdc086fa	-0.09400745
89	0x3ca67056	0.020317238
90	0xbd1b3cc5	-0.03789975
91	0xbd9a4886	-0.07533364
92	0x3d0d5382	0.034503467
93	0xbdb2522c	-0.08707079
94	0xbd938488	-0.07203013
95	0xbe12fd33	-0.143544
96	0xbda4fbb1	-0.08055819
97	0xbd00c778	-0.03144023
98	0xbe2b83d5	-0.16749509
99	0xbdb233e7	-0.08701306
100	0xbd86ea76	-0.065876886
101	0xbd3e9741	-0.046530966
102	0x3d364b25	0.044505257
103	0xbc1dbd0b	-0.009627591
104	0xbdc390ee	-0.095491275
105	0x3e1f38a9	0.15548958
106	0xbdf93163	-0.12167623
107	0xbdbe5a09	-0.092945166
108	0xbd410658	-0.04712519
109	0x3d8758b7	0.06608718
110	0xbda38f98	-0.07986373
111	0x3a846e50	0.0010103676
112	0xbdea1bb6	-0.11431067
113	0xbd1387d9	-0.036018226
114	0x3d342227	0.043977883
115	0xbdade48e	-0.08490859
116	0x3e008085	0.12549026
117	0x3e009472	0.12556627
118	0x3c129879	0.008947485
119	0x3e1771bb	0.14789478
120	0x3d91cf48	0.07119614
121	0x3de55376	0.111975595
122	0xbdafcd84	-0.08584121
123	0xbe10ad7a	-0.14128676
124	0x3e06094e	0.13089487
125	0xbcb70986	-0.022343408
126	0x3e0ad4bb	0.13557713
127	0x3d8403f9	0.0644607
128	0xbe06655a	-0.131246
129	0xbe246f9e	-0.16058204
130	0x3cf7a2de	0.030229028
131	0x3df386d5	0.118909515
132	0xbcd5627d	-0.02604794
133	0xbe208936	-0.15677342
134	0x3d872e97	0.06600683
135	0xbcd9fbac	-0.026609264
136	0xbd98169c	-0.074261874
137	0xbe0086f0	-0.12551475
138	0x3a7a6156	0.00095512473
139	0x3d9a1f9c	0.0752556
140	0x3d312eb1	0.04325742
141	0xbc242c82	-0.010020377
142	0xbdfeabcf	-0.12435114
143	0x3d1685e3	0.036748778
144	0xbce42365	-0.027848909
145	0xbdf1f7e1	-0.11814857
146	0xbde5fed0	-0.11230242
147	0x3d300737	0.04297563
148	0x3ddb58b8	0.10710281
149	0xbdbf9766	-0.09355049
150	0xbc37ed27	-0.011225975
151	0x3dcd646d	0.1002892
152	0x3e25bfb9	0.16186418
153	0xbd20e410	-0.039279997
154	0xbd461016	-0.048355184
155	0xbe0706f8	-0.13186252
156	0xbe18aaea	-0.14908949
157	0x3e343cdf	0.17601345
158	0x3dbf34e7	0.09336262
159	0x3df5de01	0.120052345
160	0xbd9cb5e4	-0.076518804
161	0x3e0448cf	0.129184
162	0xbc0fd696	-0.008779189
163	0x3d705ddc	0.05868326
164	0x3de15694	0.110028416
165	0x3d341b8f	0.043971594
166	0x3b97b9c3	0.004630299
167	0x3e17d0a2	0.14825681
168	0xbaf67d5b	-0.0018805669
169	0x3d8f3043	0.06991627
170	0xbe196451	-0.14979674
171	0x3e298d37	0.16557775
172	0x3d473708	0.048636466
173	0x3dbffc2c	0.0937427
174	0xbe1e40e7	-0.15454446
175	0xbc76dba2	-0.015067013
176	0xbd938eaf	-0.07204949
177	0xbe274d29	-0.16338028
178	0x3e0ce2c7	0.13758384
179	0x3c4a9d81	0.012366653
180	0x3d8fd8df	0.07023787
181	0x3e2797fb	0.1636657
182	0xbc36eb33	-0.011164474
183	0xbd095265	-0.033525843
184	0xbdba470c	-0.09095582
185	0xbe2fdde8	-0.17174494
186	0x3c619af4	0.013769854
187	0x3d50a33b	0.05093692
188	0xbd3c8a83	-0.046030533
189	0xbdcaeb2e	-0.09908138
190	0xbe108be0	-0.14115858
191	0x3e202333	0.15638427
192	0xbded43ed	-0.115852214
193	0x3d9b304e	0.07577573
194	0xbe1a2f1f	-0.15057038
195	0x3e1d6b58	0.1537298
196	0xbe22cac0	-0.15897655
197	0xbd49e42a	-0.04928986
198	0xbe044487	-0.12916766
199	0xbd3b8997	-0.045785513
200	0x3df1855b	0.11793014
201	0x3d04347f	0.032276627
202	0x3de64c74	0.11245051
203	0xbe00c7fd	-0.1257629
204	0x3dd52cb5	0.10408918
205	0x3e20dd35	0.15709384
206	0xbe077592	-0.13228443
207	0x3e2eb0af	0.17059587
208	0xbd069e86	-0.032866023
209	0xbe1625e3	-0.1466289
210	0x3e035644	0.12825876
211	0x3dee47c2	0.116347805
212	0xbd54edaf	-0.051984485
213	0xbe168c9d	-0.14702077
214	0xbd988ef5	-0.07449142
215	0x3c9ebe9e	0.019378003
216	0xbe28c08b	-0.164797
217	0xbdc535d3	-0.09629407
218	0x3df7e007	0.12103277
219	0xbd2010c3	-0.039078485
220	0x3de54ce4	0.11196306
221	0xbdf03889	-0.11729533
222	0xbe1cc2a3	-0.15308623
223	0xbe1b5d65	-0.15172346
224	0x3d911a66	0.07085113
225	0x3d0857c9	0.033286843
226	0xbe0a7616	-0.13521609
227	0xbd9c02e4	-0.07617739
228	0x3dcb92bc	0.09940097
229	0x3d826301	0.0636654
230	0xbd91f1e0	-0.07126212
231	0x3e036b66	0.12833938
232	0xbd703362	-0.058642752
233	0xbd7a697b	-0.06113575
234	0xbc3d8b6a	-0.011568883
235	0x3e2bec66	0.16789398
236	0x3e3371c5	0.17523868
237	0x3c8574c7	0.016291035
238	0x3e2d6671	0.1693361
239	0x3dbfbfdd	0.09362767
240	0x3c87e95c	0.016590767
241	0x3e21851b	0.15773432
242	0xbd952390	-0.07282174
243	0xbdeb4842	-0.114883915
244	0xbe0e7e92	-0.1391547
245	0x3c4af57e	0.012387631
246	0xbc777f87	-0.0151060885
247	0xbcb55f85	-0.022140274
248	0xbe005cd1	-0.12535407
249	0xbdd14afe	-0.10219382
250	0xbd94b690	-0.072613835
251	0xbe23da97	-0.16001354
252	0x3dc5f8d9	0.096666045
253	0xbde9b856	-0.114121124
254	0xbda20a70	-0.07912147
255	0x3dbddfe8	0.09271222

GAT_layers.2.f.bias f4 [64]
0	0x3d536a35	0.05161496
1	0xbc9dd68d	-0.019267345
2	0xbd5c921f	-0.05385029
3	0xbcd6c353	-0.026216185
4	0x3c50cb3c	0.012743767
5	0xbc48668d	-0.012231481
6	0x3d0d4d32	0.034497447
7	0x3d71e42b	0.05905549
8	0x3d26499c	0.040597543
9	0x3ce324ba	0.027727474
10	0x3c2206ae	0.009889288
11	0x3de0da49	0.109791346
12	0xbc6e0a5e	-0.014528839
13	0xbcf487a5	-0.029849837
14	0x3d7379e4	0.059442416
15	0x3d9526db	0.07282802
16	0x3d1362f1	0.03598303
17	0x3d4b6b06	0.049662612
18	0xbd1e815a	-0.038697578
19	0x3c86d340	0.016458154
20	0x3d239907	0.03994086
21	0x3d8a1879	0.06742949
22	0x3d8b8e64	0.06814268
23	0x3cf4d623	0.029887265
24	0xbd81f4ca	-0.06345518
25	0x3d040909	0.03223518
26	0xbcf29cc8	-0.029615775
27	0x3df32181	0.11871625
28	0xbdbfea9e	-0.093709216
29	0xbbe96991	-0.00712318
30	0xbd851bb9	-0.06499428
31	0x3d5eecc4	0.054425016
32	0x3d96d4b6	0.0736479
33	0xbdb2b031	-0.08725012
34	0x3d5da350	0.054110825
35	0x3e0026b8	0.1251477
36	0x3da3edec	0.08004364
37	0xbb86c2ed	-0.0041125924
38	0x3cf7c4bf	0.030245183
39	0x3ca92ab8	0.020650253
40	0xbd1a7f93	-0.03771932
41	0x3dec6fec	0.11544785
42	0x3cdd7cec	0.027037106
43	0x3d6f9277	0.05848929
44	0xbb2b4f3c	-0.0026139757
45	0xbd651ca9	-0.055935536
46	0xbd134851	-0.03595764
47	0x3dea7b61	0.11449314
48	0x3d95cfdb	0.07315036
49	0xbd7ef616	-0.062246405
50	0x3d927dab	0.071528755
51	0x3d45a5dd	0.048253883
52	0xbd879583	-0.06620314
53	0x3a904f0c	0.0011009886
54	0x3c7af633	0.0153174875
55	0xbc37e515	-0.011224051
56	0x3df5a1b5	0.11993734
57	0x3db738e9	0.089464016
58	0xbd8c0996	-0.06837766
59	0xbc304726	-0.010759151
60	0x3dfea7eb	0.124343716
61	0x3d264169	0.040589724
62	0x3d3f9e3e	0.04678177
63	0xba134b3c	-0.0005618816

GAT_layers.2.w.weight f4 [1, 128]
0	0x3df04d2a	0.11733468
1	0xbc09a121	-0.0084002325
2	0x3e0a4290	0.13501954
3	0xbde7cad8	-0.11317986
4	0x3dbfeec8	0.09371716
5	0xbe256328	-0.16151106
6	0xbe025392	-0.12727192
7	0x3e387952	0.1801503
8	0xbe06c611	-0.13161494
9	0xbe0c839b	-0.13722079
10	0xbd99bfab	-0.07507261
11	0xbd09b9b3	-0.033624362
12	0x3e41d477	0.18928705
13	0xbdd4a042	-0.10382129
14	0x3e55559d	0.2083344
15	0x3c8447a0	0.016147435
16	0x3dc29ecb	0.095029436
17	0x3e1d84cb	0.15382688
18	0x3dd83b85	0.105582274
19	0x3de652e3	0.11246278
20	0x3ddb8df9	0.107204385
21	0xbd06d3b1	-0.03291673
22	0x3e0e4523	0.13893561
23	0x3cfab521	0.030603947
24	0x3e27ecb1	0.16398884
25	0xbd9fc385	-0.07800964
26	0xbe3b91d1	-0.18317343
27	0x3e49fe00	0.197258
28	0xbe034af8	-0.12821567
29	0x3dce76e2	0.10081269
30	0x3d757b61	0.059932116
31	0x3ce0e7ae	0.027454223
32	0x3c02d3a3	0.007985028
33	0x3d2524bb	0.040318232
34	0x3df3e99b	0.11909791
35	0x3e0b4474	0.13600332
36	0xbe15e23c	-0.14637083
37	0x3d9de05f	0.07708811
38	0xbdfd0dc7	-0.123561434
39	0x3cf362fc	0.029710285
40	0x3e0feaca	0.14054409
41	0xbb9e37a0	-0.0048284084
42	0xbdd98faf	-0.106231086
43	0xbe18bb5b	-0.1491522
44	0x3e1e8193	0.15479116
45	0xbcd12474	-0.025530078
46	0xbdf3c45a	-0.119026855
47	0xbe20a891	-0.15689303
48	0xbd964c4a	-0.0733877
49	0x3e1e3e34	0.15453416
50	0x3cdae7d7	0.026721878
51	0x3e1a7070	0.15081954
52	0xbdce9f6b	-0.10089
53	0xbe0c1be7	-0.13682519
54	0x3e0852d8	0.13312852
55	0x3ded94d0	0.11600649
56	0x3db44877	0.08802884
57	0x3e3eff96	0.18652186
58	0x3c4863c3	0.012230816
59	0x3d7fbf03	0.062438022
60	0xbddad602	-0.1068535
61	0xbe09b796	-0.13448939
62	0x3e1d1ef4	0.15343839
63	0x3c884116	0.016632598
64	0x3dc743b5	0.09729711
65	0xbe30a3d8	-0.17250001
66	0x3d8d8341	0.069098
67	0xbd8e7536	-0.0695595
68	0xbdbfce07	-0.093654685
69	0x3e2148cd	0.15750428
70	0x3dd0d267	0.10196381
71	0x3dd40778	0.10352987
72	0xbe5eda52	-0.2176297
73	0x3d3440a0	0.044006944
74	0x3ca6560f	0.020304708
75	0x3e632e03	0.22185521
76	0x3e331127	0.17487012
77	0xbd555cf4	-0.0520906
78	0xbd891ba4	-0.06694725
79	0x3b4816ee	0.0030531245
80	0x3e1aca62	0.15116265
81	0xbdac3f14	-0.08410469
82	0xbe597da6	-0.21239337
83	0x3deae9af	0.11470353
84	0xbe56267f	-0.20913123
85	0xbc8e36bf	-0.01736009
86	0xbe487610	-0.19576287
87	0xbd1b5121	-0.037919167
88	0x3da6f668	0.08152467
89	0x3e30d30e	0.17268011
90	0xbda24673	-0.07923593
91	0xbe5da4f2	-0.21644953
92	0x3e4967fd	0.19668575
93	0xbdc324ce	-0.09528504
94	0x3e4c8cda	0.19975606
95	0x3db331f1	0.0874976
96	0x3e23cf65	0.15997083
97	0xbe42a874	-0.19009572
98	0x3de3fcc9	0.11132199
99	0x3dd18cce	0.102319345
100	0x3de4bac4	0.11168435
101	0xbbf0c38d	-0.00734753
102	0xbe4e3e4e	-0.20140955
103	0xbd397f09	-0.045287166
104	0xbba0d40f	-0.004908092
105	0x3e647034	0.22308427
106	0x3dbcb0cd	0.092134096
107	0xbda1ab1a	-0.07893963
108	0xbe071173	-0.1319025
109	0xbe39169a	-0.18075028
110	0x3e3539f1	0.17697884
111	0xbe38331f	-0.17988251
112	0x3d4a1a26	0.049341343
113	0x3d263d6e	0.040585928
114	0xbe2db80b	-0.16964738
115	0x3e0bcca1	0.13652278
116	0xbe2a8e8a	-0.16655937
117	0xbc26710e	-0.01015879
118	0xbd9418e4	-0.0723131
119	0xbdc55a50	-0.09636366
120	0xbdc775da	-0.09739275
121	0xbabcfcaf	-0.0014418567
122	0xbca84458	-0.020540401
123	0xbdc1c8dd	-0.0946214
124	0xbd08e3b4	-0.03342028
125	0xbe05460f	-0.13015006
126	0xbdeb388c	-0.11485395
127	0x3d07716a	0.033067144

MLP_layers.0.weight f4 [32, 64]
0	0xbcd0b4ad	-0.025476778
1	0x3e04bc20	0.12962389
2	0x3ca2f4c2	0.0198921
3	0x3d00df29	0.031462822
4	0xbca8c38e	-0.02060106
5	0xbdfd3470	-0.12363517
6	0x3ce2efa7	0.027702166
7	0x3cf847bf	0.030307649
8	0xbd77518c	-0.060380504
9	0xbdcf2aaf	-0.10115563
10	0xbdb4f3a8	-0.08835536
11	0x3cf3e40c	0.029771827
12	0xbd4d2d46	-0.050092004
13	0x3dd6d20a	0.104892805
14	0x3e06e2dd	0.13172479
15	0x3d1f5a59	0.03890452
16	0xbcd34cc6	-0.025793444
17	0xbd3ddde3	-0.046354186
18	0x3d60b55e	0.054860465
19	0x3da32b1c	0.07967207
20	0x3d9f414d	0.07776127
21	0x3d916cc4	0.071008235
22	0xbdd47557	-0.10373943
23	0xbd9a222a	-0.075260475
24	0x3d973034	0.07382241
25	0x3dd76dfd	0.105190255
26	0x3d8c544d	0.068520166
27	0x3c8a3cf3	0.016874766
28	0xbdb51fc5	-0.0884395
29	0x3c0966c0	0.008386314
30	0x3dfaad95	0.122401394
31	0x3db642df	0.088994734
32	0x3d6ff483	0.058582794
33	0xbd9eb4f4	-0.07749358
34	0xbdc7e212	-0.09759916
35	0xbc98cb05	-0.018651495
36	0x3cec75aa	0.0288647
37	0x3dfaa150	0.12237799
38	0xbdb22683	-0.08698752
39	0xbd352d1e	-0.04423248
40	0x3de1ee71	0.11031807
41	0x3be3b1e2	0.0069486955
42	0x3ce9e212	0.028550182
43	0x3d8fa84b	0.07014521
44	0xbd5fa900	-0.05460453
45	0x3db602d0	0.08887255
46	0xbddce775	-0.107863344
47	0xbc1a52a1	-0.009419114
48	0xbd0bdbfe	-0.034145348
49	0x3dc795cc	0.09745368
50	0x3d7f29c8	0.062295705
51	0xbd01c8b6	-0.031685553
52	0x3c7455df	0.014913051
53	0x3df0f6de	0.11765836
54	0x3da9c50f	0.08289539
55	0x3df667fe	0.12031554
56	0x3d8994bd	0.06717823
57	0xbd21b2a2	-0.039477
58	0x3d0365a0	0.03207934
59	0x3d1ab5c5	0.037771005
60	0x3dbdb1f4	0.092624575
61	0x3ddec322	0.108770624
62	0x3c8d632a	0.0172592
63	0xbcaa6c3a	-0.02080356
64	0x3cd3428f	0.025788574
65	0x3dde44d9	0.108529754
66	0x3ce03181	0.027367355
67	0xbd9a0733	-0.075209044
68	0xbdee639e	-0.11640094
69	0x3d59661f	0.053075906
70	0x3d8ca664	0.06867674
71	0x3d62caf8	0.055369347
72	0x3cd08ceb	0.02545782
73	0x3c4878b2	0.012235807
74	0xbd3258a1	-0.043541554
75	0xbde1594a	-0.11003359
76	0xbd6ca8e6	-0.05777826
77	0xbda26665	-0.079296865
78	0x3dd55253	0.10416093
79	0xbd57a176	-0.052644216
80	0x3dccf3bf	0.100074284
81	0x3dbd4833	0.092422865
82	0xbc243258	-0.0100217685
83	0xbd7d8790	-0.06189686
84	0x3d93114d	0.07181034
85	0x3c3e99f9	0.01163339
86	0xbe03d6a1	-0.12874843
87	0x3c96345d	0.018335516
88	0x3d06c4ac	0.032902405
89	0x3c8dd51b	0.01731353
90	0x3cd442ce	0.025910761
91	0xbda82db4	-0.08211842
92	0x3bd10b2f	0.006379507
93	0xbd792f34	-0.060836032
94	0xbce1c64f	-0.027560381
95	0x3dda2d74	0.10653201
96	0x3cdc1b72	0.026868556
97	0xbdbcc025	-0.09216336
98	0x3d5f02c4	0.054445997
99	0xbdc3bcae	-0.09557472
100	0xbdf90d4c	-0.12160739
101	0xbd7fb6bf	-0.06243014
102	0xbc9c053b	-0.019045463
103	0xbcf60cd0	-0.030035406
104	0xbc1c5a4b	-0.009543012
105	0xbd6d8258	-0.057985634
106	0xbdb5479c	-0.08851549
107	0xbd8a1379	-0.06741995
108	0x3ce133b9	0.027490484
109	0xbde676f0	-0.11253154
110	0x3dca7dc5	0.0988727
111	0xbd364ed7	-0.04450878
112	0xbda3593f	-0.07976007
113	0x3d953d2e	0.0728706
114	0x3d4fb25a	0.0507072
115	0xbd2f65a9	-0.04282156
116	0x3ca740d7	0.02041666
117	0x3d8fccd6	0.07021491
118	0x3ca38c72	0.01996443
119	0xbc92217d	-0.017838234
120	0x3d95e5a3	0.0731919
121	0xbd02387e	-0.031792156
122	0xbe0048a5	-0.12527712
123	0xbc8f79b7	-0.017514093
124	0xbb96a137	-0.004596855
125	0x3c4e63d4	0.012597043
126	0x3dea93d7	0.114539795
127	0x3d57df70	0.05270332
128	0x3df39357	0.11893337
129	0xbdf52b36	-0.119711325
130	0x3d6c8244	0.05774142
131	0xbc91b228	-0.017785147
132	0x3d41c167	0.047303583
133	0xbd462210	-0.04837233
134	0x3d2c22e1	0.04202545
135	0xbd14b17c	-0.036302075
136	0x3d0023b6	0.031284057
137	0x3d99a328	0.07501823
138	0xbdb2cd02	-0.087305084
139	0xbd726b9f	-0.059184667
140	0x3c8b7c30	0.01702699
141	0xbcb32c30	-0.021871656
142	0xbcbaf8d6	-0.022823732
143	0xbdcfab63	-0.10140111
144	0xbb5d2c06	-0.0033748164
145	0xbdf601ac	-0.12012038
146	0xbc273100	-0.010204554
147	0x3c95ece8	0.018301442
148	0xbdd64290	-0.104619145
149	0x3dbb7a06	0.091541335
150	0xbd1b8c3e	-0.037975542
151	0x3dcf4fc5	0.10122637
152	0x3d7bfe5c	0.061521873
153	0xbda87c89	-0.08226878
154	0x3de37332	0.11105956
155	0x3beed927	0.00728907
156	0x3d4ee740	0.050513506
157	0xbcce1b48	-0.025159493
158	0x3dd949ae	0.106097564
159	0x3ddddce7	0.108331494
160	0xbccceba1	-0.0250147
161	0xbc6fbd90	-0.014632598
162	0xbd229c43	-0.039699804
163	0xbd336509	-0.043797527
164	0xbdd5d41b	-0.104408465
165	0x3cb7952e	0.022410002
166	0xbc6435fd	-0.013928887
167	0xbb7b9d72	-0.0038393405
168	0xbd89b03a	-0.06723066
169	0xbcb98200	-0.022644997
170	0xbaf08c3d	-0.0018352341
171	0x3d98e2ee	0.074651584
172	0x3d1b1d4d	0.03786974
173	0x3da09eda	0.078427985
174	0xbdf8b510	-0.1214391
175	0xbce04c9f	-0.027380286
176	0xbd8e2502	-0.069406524
177	0x3df49e10	0.119442105
178	0xbdf4104a	-0.119171694
179	0x3d81315c	0.06308243
180	0xbc290c70	-0.010317907
181	0xbddc3885	-0.10752968
182	0x3dcfd158	0.10147351
183	0xbd81b3a7	-0.06333094
184	0x3d60966f	0.054830965
185	0xbdce86c0	-0.10084295
186	0xbda3df1a	-0.080015376
187	0x3da0c568	0.07850152
188	0x3db9e98b	0.09077748
189	0xbddcfc25	-0.1079028
190	0xbd29e409	-0.041477237
191	0xbd3e73cf	-0.046497162
192	0xbdd02a23	-0.10164287
193	0xbd2a81c0	-0.041627645
194	0xbc971872	-0.018444274
195	0xbddc49dd	-0.10756276
196	0xbcea7402	-0.02861977
197	0xbdfeff65	-0.124510564
198	0xbd322425	-0.0434915
199	0x3d64a45c	0.055820808
200	0xbd613da1	-0.054990415
201	0xbd53a9d1	-0.05167562
202	0x3dca44bb	0.098763905
203	0x3d8ac5c5	0.06776003
204	0x3cca622c	0.024705015
205	0xbdd5e04e	-0.10443173
206	0xbd5e51d0	-0.05427724
207	0xbdf9cd5e	-0.12197374
208	0xbd2492ca	-0.04017905
209	0xbd9d421a	-0.076786235
210	0xbde4c090	-0.11169541
211	0x3d83e37c	0.064398736
212	0xbdacc149	-0.08435304
213	0x3d8cb53d	0.06870506
214	0x3d983782	0.07432462
215	0xbe0f8688	-0.14016163
216	0x3dde97e4	0.108688146
217	0xbd763105	-0.060105342
218	0xbe095bf6	-0.13413987
219	0xbb02171b	-0.0019850198
220	0x3c3e78d0	0.011625484
221	0xbd1fde68	-0.039030463
222	0xbd5c8c08	-0.05384448
223	0xbdddee57	-0.10836475
224	0x3b17fe1f	0.002319224
225	0xbdab9be5	-0.08379344
226	0x3d3ec532	0.04657478
227	0x3ccaa6e1	0.024737777
228	0x3d98a938	0.07454151
229	0x3d9d9dd1	0.07696117
230	0xbe0864cd	-0.13319702
231	0x3d236fce	0.039901547
232	0xbdc57b58	-0.096426666
233	0xbd4fe8ee	-0.05075925
234	0xbd357081	-0.044296745
235	0xbdcf4b36	-0.10121767
236	0x3d606f61	0.05479372
237	0xbd1362ec	-0.03598301
238	0x3d677a8b	0.05651335
239	0x3d22ccff	0.03974628
240	0x3b96a564	0.004597353
241	0x3d7753ac	0.06038253
242	0xbdc32b6b	-0.09529766
243	0x3d8de37e	0.06928156
244	0xbd147f8b	-0.036254447
245	0xbd74ff3f	-0.059813734
246	0x3db36e21	0.0876124
247	0xbd8f7622	-0.07004954
248	0x3da4759d	0.080302455
249	0xbdf159a6	-0.11784677
250	0xbd2378c9	-0.03991011
251	0x3d4e8fd5	0.050430138
252	0xbe08407e	-0.13305852
253	0xbdad5b55	-0.08464686
254	0x3db2b805	0.08726505
255	0xbade8b04	-0.0016978686

MLP_layers.0.bias f4 [32]
0	0x3e20415c	0.15649933
1	0x3dbdf66f	0.09275519
2	0x3d890f86	0.06692414
3	0xbd004fdd	-0.031326164
4	0x3d9e5582	0.07731153
5	0x3c0bd9b6	0.008535793
6	0x3e0027ef	0.12515233
7	0x3e0365b0	0.1283176
8	0xbdd86404	-0.105659515
9	0x3d9c0b5b	0.076193534
10	0x3da8c0af	0.082398765
11	0x3dd47389	0.10373599
12	0x3da5da2d	0.08098254
13	0x3d68b84d	0.056816388
14	0xbb846c4d	-0.004041231
15	0xbd58904c	-0.052871987
16	0xbdcdd5ad	-0.10050521
17	0x3c7f727c	0.01559126
18	0xbd5baa84	-0.053629413
19	0x3dc2fe8e	0.09521209
20	0xbd85dc3f	-0.06536149
21	0xbd70941c	-0.058734998
22	0x3d019ca4	0.031643525
23	0x3afea886	0.0019428886
24	0xbdf66492	-0.12030901
25	0x3d2265fa	0.039648034
26	0x3d9bf1aa	0.07614453
27	0xbdc95000	-0.09829712
28	0xbda06072	-0.078308955
29	0xbd825341	-0.06363536
30	0xbd78c021	-0.060730103
31	0x3daddbfa	0.08489223

MLP_layers.1.weight f4 [1, 32]
0	0x3d01471f	0.031561967
1	0xbbe41eab	-0.0069616637
2	0xbd35a724	-0.04434885
3	0xbc0a4810	-0.008440033
4	0xbd930f35	-0.07180635
5	0x3cdd5737	0.027019126
6	0x3e1f236f	0.1554086
7	0x3df9a70b	0.12190064
8	0xbdeba417	-0.11505907
9	0xbc932f56	-0.017966907
10	0xbd853be6	-0.06505565
11	0x3c33752a	0.010953227
12	0x3db5be8e	0.08874236
13	0x3e3d9825	0.1851507
14	0xbdbf444f	-0.09339201
15	0xbdba1204	-0.090854675
16	0xbdf67731	-0.12034453
17	0xbcfb36b9	-0.030665742
18	0xbdcab0fc	-0.09897038
19	0x3d117d8c	0.03552012
20	0xbdd67fa0	-0.10473561
21	0xbe2fe177	-0.17175852
22	0xbde83b8a	-0.11339481
23	0xbd0da31b	-0.034579378
24	0xbe06bda4	-0.1315828
25	0x3e1cac35	0.15300067
26	0x3e32630a	0.17420593
27	0xbd8edd79	-0.06975836
28	0x3e0db5a3	0.1383882
29	0x3ca7a3d8	0.020463869
30	0xbd937e3b	-0.07201811
31	0x3e429d97	0.19005428
