SLIC_GAT/best3.pt (torch, 74869 bytes, 12 tensors)

GAT_layers.0.f.weight f4 [32, 82]
000000 03 9c 02 be 36 94 99 3b cb ed 65 be 1a 23 c2 3c
       -0.12754826 0.0046868576 -0.22453992 0.023698378
000010 66 1e 60 3d c5 1f 43 3e b5 a6 01 bd 0b c5 ab bd
       0.05471649 0.19055088 -0.031653125 -0.08387192
000020 42 c4 13 3e 54 2f 06 3e 2a 31 4f bd 6f e4 6f be
       0.14430335 0.13103992 -0.050583996 -0.23426984
000030 96 cc e5 bd 81 b0 84 bd 16 ca 25 be 8f 76 b5 bd
       -0.11220662 -0.06478978 -0.16190371 -0.08860504
000040 2b 1b 53 be e0 11 94 bd f6 79 30 be 82 e6 18 be
       -0.20615833 -0.07229972 -0.17234024 -0.14931682
000050 bb d8 18 bd 5f ec e5 3c 13 88 18 be be 88 b8 bd
       -0.037316065 0.028066812 -0.14895658 -0.090104565
000060 23 d7 ed 3d 3f 59 3b 3d ca d2 65 be d0 3c 2f be
       0.116133 0.04573941 -0.22443691 -0.17113042
000070 0e 1f 51 be d7 5a 30 be f5 7b 55 bd 9e d6 b8 3c
       -0.20422003 -0.17222153 -0.052120168 0.022563275
000080 2d 5a 8d 3d 40 34 98 3d 5f 5b 08 3e 3a 94 37 bd
       0.06901965 0.07431841 0.13316105 -0.044819094
000090 16 e2 6a be 05 5b 5d be 0c 6d 81 bd 27 5d 52 3d
       -0.22937807 -0.21616752 -0.06319627 0.05135837
0000a0 71 0e 1a 3e f7 03 cd bd fa 87 25 be 59 ca b5 3d
       0.15044571 -0.10010522 -0.16165152 0.088764854
0000b0 07 f5 2b 3e e6 35 12 be 8e a5 45 3e 80 b0 57 3e
       0.1679269 -0.14278373 0.19301435 0.21063423
0000c0 0c 81 60 be 71 1d 06 3e 6d 01 93 3d 32 9f 18 3e
       -0.21924227 0.13097169 0.07178006 0.14904478
0000d0 84 32 b7 bd a4 f4 e5 3b dc 6b 30 bc d9 38 2c be
       -0.08945182 0.007017689 -0.010767903 -0.1681856
0000e0 74 1c a2 bd 89 a7 28 be 22 de 29 3e 24 3d 5d be
       -0.07915583 -0.1647016 0.16588643 -0.21605355
0000f0 2e 58 c9 ba 44 e3 07 be 9b 63 2a be ab 9a 6a bd
       -0.0015361363 -0.13270289 -0.16639559 -0.05727641
000100 00 03 be bd b7 40 33 be 2e 69 f5 bd 0c 37 84 3d
       -0.09277916 -0.17505156 -0.11982952 0.06455812
000110 40 93 5a 3e 45 77 05 bd 3a c1 56 be a6 81 24 3d
       0.21345234 -0.032584447 -0.20972148 0.040162705
000120 4f 9b e8 3d 9a 23 da bc ea 38 ec bd 8b ce 26 3e
       0.11357748 -0.026628304 -0.11534293 0.16289727
000130 b5 40 46 3e 54 78 47 be 79 85 5e 3c 22 81 ed 3d
       0.19360621 -0.19479495 0.013581627 0.11596896
000140 d2 45 e5 bd 20 42 e3 bd e0 3f 22 be a2 26 ff 3d
       -0.11194958 -0.11096597 -0.15844679 0.124585405
000150 be 89 ba 3d 03 c2 24 be a8 98 24 be f2 5c ad bd
       0.091083035 -0.16089635 -0.16073859 -0.084649935
000160 b4 71 28 bd d0 14 3c 3e 60 c1 3d 3e 85 11 dc 3d
       -0.04112406 0.18367314 0.18530798 0.10745529
000170 44 52 c0 bd 0d 5c 35 3e 79 f9 75 3c 3c 7b ce 3d
       -0.09390691 0.17710896 0.015013092 0.10082099
000180 92 26 c5 3d 67 e7 b9 3d c0 27 17 be c4 0f 27 bd
       0.09626497 0.090773396 -0.14761257 -0.04078652
000190 0d 22 0d be ec 08 b1 bd 0f 00 9c bd 33 f7 bf bc
       -0.1378252 -0.0864428 -0.07617199 -0.023433303
0001a0 1e 47 04 3e ea 2d e7 3d 84 6e 84 bd c7 01 45 be
       0.12917754 0.11288054 -0.06466392 -0.19238959
0001b0 37 50 a9 3d 1a d8 ac 3d d7 af b3 bd 05 ad 8b 3d
       0.08267253 0.084396556 -0.08773773 0.0682011
0001c0 f9 93 d7 bd c1 f5 73 bd 3d fb 15 3e 1f b0 39 3e
       -0.105262704 -0.05956054 0.14646621 0.18133591
0001d0 cf 75 1d bd 0a 46 bb bd 19 10 a5 3b 8f 60 9c bd
       -0.03844243 -0.09144218 0.0050373194 -0.076356046
0001e0 32 6a 55 be 1c da 18 be aa b1 f4 3d 97 e1 e7 3d
       -0.20841292 -0.14926952 0.11947949 0.11322325
0001f0 37 9e 4a bd 26 67 cb bd 60 bf 8e bd f0 aa a1 bc
       -0.04946729 -0.099317834 -0.06970096 -0.01973483
000200 39 66 1c 3e ad 30 e0 3d 09 5f 0b 3e 9d b9 12 be
       0.1527337 0.10946784 0.13610472 -0.14328618
000210 6c 31 cb bd a4 e6 15 3e c1 49 69 be 22 f9 d6 3d
       -0.09921536 0.14638764 -0.22782041 0.10496737
000220 ae e7 17 3d 6b b2 25 3d b0 ef dc bc b4 69 75 bd
       0.03708618 0.040453356 -0.02696976 -0.05991526
000230 cc b0 49 3e a2 c5 41 be cb 00 17 be 89 64 fa bd
       0.19696349 -0.18923047 -0.14746396 -0.12226207
000240 1d 2b 53 3d 81 4a 9b 3d 59 02 06 3e 88 36 56 3e
       0.051554788 0.0758257 0.13086833 0.2091924
000250 25 78 57 be 38 4a 15 3d 66 f0 a5 3d 76 be 8f bd
       -0.21041925 0.036447734 0.08102493 -0.070187494
000260 a8 cb 20 be d9 1d 63 3d 2b 0d 92 3d c0 b8 33 3e
       -0.15702689 0.055448387 0.07131418 0.17550945
000270 25 4d c8 ba 37 b8 d1 3c 82 27 2d 3e 04 50 0d 3d
       -0.001528178 0.025600536 0.16909602 0.034500137
000280 7e c2 94 bc ab 3e 2e 3e d3 0f 1e be 14 ea 0a 3e
       -0.018159147 0.17016093 -0.15435724 0.13565856
000290 d1 94 07 be b7 24 1c 3e ea d5 5d bd 12 6a 4f 3e
       -0.13240363 0.1524838 -0.054159082 0.20255306
0002a0 cd 1b 5a bd a6 1c ed 3b 84 97 87 3d 9f 94 fc bd
       -0.05324917 0.007236081 0.06620696 -0.12333035
0002b0 29 68 f9 3d 14 2d 5e 3e 8b 01 64 3e 16 d4 67 3e
       0.1217807 0.21696883 0.22266214 0.22639498
0002c0 dd d0 91 3d f9 24 3b 3d 27 4e bb 3d 83 a4 7a 3d
       0.07119916 0.045689557 0.09145766 0.061192047
0002d0 bf 64 fe bd c2 72 01 3e 49 f7 07 3e 29 b6 bf 3c
       -0.124215595 0.12641433 0.13277926 0.02340229
0002e0 b9 09 07 3e 14 6e ec 3d 2b a4 33 be 77 87 08 3e
       0.13187303 0.11544433 -0.17543094 0.13332926
0002f0 bd f1 bd bd 7c e6 3e be 37 27 0e 3e cb 3a 0f be
       -0.092746235 -0.1864261 0.13882147 -0.13987271
000300 53 b7 0b 3e b8 a0 b7 3d b2 4d b8 bc fd 75 19 3e
       0.13644151 0.089662015 -0.022497986 0.14986415
000310 9b 34 38 be 9e d6 b2 3d 53 ef c5 3d 60 2b 13 be
       -0.17988817 0.08732341 0.09664788 -0.14372015
000320 de 81 ae 3d be bf 63 bd b5 f4 be bc 24 ed df 3c
       0.08520864 -0.05560278 -0.023310045 0.027334757
000330 f6 15 11 be d2 13 37 be 57 90 61 3d 4b a4 05 be
       -0.14168534 -0.17878655 0.055069294 -0.13050954
000340 ee e8 b0 3d 75 25 68 be 03 75 a6 3d dd 38 22 bd
       0.08638178 -0.22670539 0.08127787 -0.03960501
000350 3c 2d 0f bd eb 70 58 3d f3 4c b8 bb a0 e8 23 3e
       -0.03495525 0.052842062 -0.0056244074 0.16006708
000360 23 3e 44 3e 9e 13 ea 3d 65 c9 36 be 2c c9 43 3d
       0.19164328 0.11429523 -0.17850263 0.047799274
000370 3d a9 15 be 44 29 b2 3d 35 5b 1f 3e f3 c7 8d bd
       -0.1461534 0.08699277 0.15562136 -0.06922903
000380 c5 03 b6 bd 77 15 3f 3e f1 a5 3b 3e dc b5 af 3d
       -0.08887438 0.18660532 0.1832502 0.08579609
000390 24 d1 47 3d e1 d2 25 3e 60 59 fc 3d b3 00 0f 3d
       0.048783436 0.16193725 0.123217344 0.034912776
0003a0 06 8d 03 3e c8 13 13 3e bf 7c 6f 3d f9 a8 64 be
       0.12846765 0.14363015 0.058468577 -0.22330083
0003b0 76 13 43 3e fa 08 da 3d 3d 73 1f be 32 45 51 3e
       0.19050393 0.106462434 -0.15571304 0.20436552
0003c0 92 b7 1c be 30 d8 48 be 32 d0 b1 3d 49 47 f4 3c
       -0.15304402 -0.19613719 0.08682288 0.029819148
0003d0 fa d5 fd 3d d2 1b 61 be d0 0f 2d 3e 83 26 49 3d
       0.123943284 -0.21983269 0.16900563 0.049108993
0003e0 e6 a4 53 3e 09 5e c0 bd 29 f8 52 3d 90 0f fc bd
       0.20668373 -0.09392936 0.051506195 -0.12307656
0003f0 1d 85 00 be 3f 26 69 3e af fb 3a be ba 82 86 bd
       -0.12550779 0.22768496 -0.18260072 -0.06567903

GAT_layers.0.f.bias f4 [32]
000000 89 8a e3 3a 3b d4 c1 3d 0f 1a a4 3d 27 e1 45 3a
       0.0017360012 0.09464308 0.08012783 0.0007548504
000010 87 03 58 3d 67 5b b3 3d bc f7 4a bd 7f b6 f6 3c
       0.05273774 0.08757668 -0.049552664 0.030116318
000020 42 e9 b5 3c 6f 5f f6 bc d0 2f b1 bd c0 9c ed bc
       0.022205953 -0.030074803 -0.08651698 -0.029005408
000030 a4 2a d5 3d 13 4b d3 bc 4b a4 d6 bc 80 db e4 bc
       0.10408524 -0.025792634 -0.026201388 -0.027936697
000040 f3 1d ff ba c8 59 1b bd 3d 50 4c 3d 8d 66 05 bd
       -0.0019463882 -0.03792742 0.04988121 -0.032568503
000050 fd a0 d9 3d 42 c8 79 3d ba 48 98 3d ba 3d 7f 3d
       0.10626409 0.060981996 0.074357465 0.062314726
000060 1e ed 99 bd 4f 5b 26 3d ba 4b 9e 3d d5 43 d2 bd
       -0.0751593 0.040614422 0.077292874 -0.10266844
000070 29 23 6d bc 75 45 af bd b6 1c bc 3d af dd fb bc
       -0.014473715 -0.0855817 0.09185164 -0.030745355

GAT_layers.0.w.weight f4 [1, 82]
000000 d0 a6 b9 bd f9 a5 90 3c 22 6c 54 be c1 ea e9 bc
       -0.0906502 0.017657267 -0.20744374 -0.028554322
000010 33 25 25 3e ed 5b 89 bd 40 7e 87 3e 1a 37 46 3e
       0.16127472 -0.067069866 0.2646351 0.19356957
000020 0e 30 6e 3e ec 9f 59 3e cb 9a e4 bd 94 a2 28 3e
       0.23260519 0.21252412 -0.11162337 0.16468269
000030 bc 73 18 bd a6 86 1b bd 67 6b 3d 3d aa dd 89 bc
       -0.037219748 -0.037970208 0.046245005 -0.01682933
000040 55 8f 49 bc b3 73 5c 3e 60 d3 df 3d f2 77 8a 3d
       -0.012302239 0.21528511 0.109289885 0.06761159
000050 e8 6f bd bc 63 f7 d7 3d 07 e6 10 be ca 69 0d be
       -0.02312465 0.10545232 -0.14150248 -0.13809887
000060 4c b8 57 3e 35 85 a5 3d 5a 66 0a 3c 87 57 87 3e
       0.21066397 0.08082048 0.008447254 0.26433966
000070 ab 2c 3d ba ad ad a6 bd dc 1f 91 3d 56 bf 36 bc
       -0.0007216434 -0.08138595 0.07086155 -0.0111540165
000080 c3 0d e1 bc 6c 79 89 3e 89 05 c1 bd 52 47 6d be
       -0.027472382 0.2685045 -0.09424884 -0.23171738
000090 ef af 27 3e 79 73 66 be 31 58 66 bd 0f 26 9e bd
       0.16375707 -0.22504987 -0.05623645 -0.07722103
0000a0 48 82 57 3d 8a 05 e4 bd e5 fc 12 3e b4 4c 72 be
       0.05261448 -0.11133869 0.14354284 -0.23662072
0000b0 39 32 bb 3d a8 48 5e 3e 6a 27 a1 bd 87 d4 48 3e
       0.091404386 0.21707404 -0.07868846 0.19612323
0000c0 27 07 5b 3e 65 ef 6a be 66 70 b9 bc e0 55 3a 3c
       0.21389447 -0.22942884 -0.022636604 0.011373013
0000d0 c2 03 67 3d 5e de 83 be 65 df 85 3e 6a a3 06 be
       0.056400068 -0.2575559 0.26147 -0.13148275
0000e0 4a 1c 58 be e4 47 be 3d d4 0d 07 3e 9f ce 3a 3e
       -0.21104541 0.09291056 0.13188869 0.18242882
0000f0 29 c3 c0 3d 4f 25 86 3e fd 34 65 3e 58 16 3e be
       0.09412224 0.2620034 0.22383495 -0.18563211
000100 4e 8f 84 be 10 89 f8 bd 8b 80 00 3e 93 0f 37 3d
       -0.25890583 -0.121355176 0.12549035 0.044692587
000110 15 f7 89 3d 2a e0 66 3e 63 3b b8 3d 80 4b 14 3e
       0.0673658 0.2254645 0.08995702 0.14481926
000120 15 47 ea bd a8 16 2e bd aa a2 40 be 7b f2 80 bc
       -0.11439339 -0.042502075 -0.18812051 -0.015740624
000130 be 95 a6 bd bc be 53 be f2 66 54 3e 8c e6 d9 3d
       -0.0813403 -0.20678228 0.20742396 0.106396765
000140 19 7a 01 3e 28 77 2b 3e
       0.12644233 0.16744673

GAT_layers.1.f.weight f4 [64, 64]
000000 3c c7 e0 bd 1d 4a 38 3e 44 31 0f 3e 43 52 c3 3d
       -0.10975501 0.17997022 0.13983637 0.095371746
000010 b5 fa 03 3d 6c 48 b3 3c 28 10 00 3e b9 a1 15 be
       0.032221515 0.02188512 0.12506163 -0.14612474
000020 04 3c a4 bd b3 a0 96 3d c7 65 24 bd f3 aa 8a 3d
       -0.080192596 0.0735487 -0.040136125 0.06770887
000030 a9 d3 e6 3d 20 f7 98 3d 70 0d a3 3d 37 3d 31 be
       0.1127084 0.0746901 0.079615474 -0.17308508
000040 2e 01 3b bd 6d a4 47 be 89 ae 82 bd d7 d4 dc bd
       -0.045655422 -0.19496317 -0.06380946 -0.107827835
000050 9c a0 3b bd 7c 8a df bd 81 f2 3b bd a3 b7 76 bd
       -0.045807466 -0.10915086 -0.045885567 -0.060233723
000060 92 82 59 3e 60 82 76 3d ff 99 b4 3d 31 93 48 3e
       0.21241215 0.06018293 0.08818435 0.19587399
000070 09 88 13 be b3 34 30 3e 24 b0 c2 3c 96 fe 33 3e
       -0.14407362 0.17207603 0.023765631 0.17577586
000080 0a 59 3c 3e 7a ff b0 bd 12 4d 40 be c7 34 50 3e
       0.1839334 -0.08642478 -0.187794 0.20332633
000090 f5 4d 4e be 40 f0 af 39 0c 5c f7 3d 15 14 df bd
       -0.20146926 0.000335576 0.120781034 -0.10892502
0000a0 71 f2 a0 bd f4 ab 08 3e 10 49 1b be ef ba 51 3e
       -0.07858742 0.13346845 -0.1516459 0.20481466
0000b0 84 e7 dd 3d d1 e3 55 be 60 b6 21 3e 4c 2d 85 3d
       0.10835174 -0.20887686 0.15792227 0.0650278
0000c0 5c ba 8c bd b1 04 98 bc 4a 2a 31 3d dc 74 71 3d
       -0.06871483 -0.018556925 0.04325322 0.058949336
0000d0 d4 5c 02 bc 17 6b 03 3e 38 eb 31 3e f7 ca 24 3d
       -0.007956702 0.1283382 0.17374885 0.040232625
0000e0 df 28 9f 3d 07 13 1e be 08 0e fb 3d 09 df 4e 3e
       0.077714674 -0.15436946 0.122585356 0.20202269
0000f0 8d f7 43 3b e7 bc e7 3c e2 0b 0f bd 2b 5b c1 bd
       0.002990219 0.028288318 -0.03492344 -0.09441217
000100 2b 94 01 be e1 95 21 be d9 ec 6c 3c 00 d4 41 be
       -0.12654178 -0.1577983 0.014460766 -0.18928528
000110 e0 c5 9e bc e9 32 2e 3e b5 6d 34 be 99 7c f8 3b
       -0.019381464 0.17011608 -0.17619975 0.0075832126
000120 db a9 a2 bd ac 7c 1a 3d bb a9 10 3e be 7d 92 bd
       -0.079425536 0.037716553 0.14127247 -0.0715289
000130 ed ad 94 bc 36 88 d5 3d b8 5d ad bd e7 ad e8 3d
       -0.01814934 0.10426371 -0.08465141 0.11361294
000140 f5 4c 31 3d 3b b0 e8 3d 85 17 94 bd 42 d9 0d 3d
       0.043286283 0.11361738 -0.072310485 0.03463102
000150 cf 9a 1e 3e 89 87 3a 3e 43 4c 2d be 90 ba 62 bd
       0.15488742 0.18215765 -0.16923623 -0.0553537
000160 f1 bb 30 3e 27 79 48 be 4b b5 48 be 4e 41 3c be
       0.17259194 -0.19577466 -0.19600408 -0.18384287
000170 d7 a0 a6 3d 7d c4 18 3d 4f 34 37 bd a1 66 6a bd
       0.081361465 0.03729676 -0.04472762 -0.05722678
000180 0e 2e b9 bd 7e fe 3c be 91 cf 24 3e c2 fd b5 bd
       -0.09041987 -0.18456456 0.16094805 -0.08886291
000190 74 3e 2d 3e 2b 8d 0d 3e c6 07 af bd d2 1e 2e be
       0.16918355 0.13823383 -0.085464045 -0.17003945
0001a0 82 f2 80 bd 53 80 bb 3d 3e 8e 1a be 5b e4 52 3e
       -0.06296255 0.09155335 -0.15093324 0.20594923
0001b0 9c a0 62 bd 45 87 e0 bd 2a 42 fa bd 69 dd 88 bd
       -0.05532895 -0.109633006 -0.12219651 -0.06682856
0001c0 c8 4e 99 3d 1e 06 21 be 3e 1a 6f 3b dc 5d ea 3d
       0.074857295 -0.1572499 0.0036484147 0.114436835
0001d0 1b 3c ca bd ef ea fd 3d 4a 95 06 be d7 f1 4c 3e
       -0.098747455 0.12398326 -0.13142887 0.2001413
0001e0 0e 44 fc bc b6 95 29 3e 0a e0 06 3e ae 2c 4a 3d
       -0.03079417 0.16561016 0.13171402 0.049359016
0001f0 85 73 b5 bd cb 60 08 be d7 f1 a4 bd 4a 07 4c bd
       -0.08859924 -0.13318174 -0.0805394 -0.04981164
000200 a6 b9 46 be 2d f6 2a 3e 90 7a 1f 3e b1 d8 3a 3d
       -0.19406757 0.16695471 0.15574098 0.04561681
000210 7f 45 43 3e 73 70 53 bd 83 4d 25 be 39 e8 22 be
       0.1906948 -0.05162091 -0.1614285 -0.15908898
000220 4f 33 e1 3d 9c f0 8d 3c 0d 39 1c bc 4b a4 4f be
       0.109961145 0.017326646 -0.009535086 -0.20277517
000230 d4 1c 9d 3c a8 fe 65 3d b0 aa cf 3d 2f ee 17 3e
       0.019178785 0.056151062 0.10139978 0.14836954
000240 7a 74 49 be ec 84 ea 3d 11 b5 42 bd ba 6f a5 bc
       -0.19673339 0.11451134 -0.04753596 -0.020194877
000250 b3 40 a7 bd 7a 7c 47 be 04 18 8e bd 7a d2 5e bd
       -0.08166637 -0.19481078 -0.06938174 -0.054399945
000260 3c 13 be bd 90 05 0f be 9d bf 3e be 44 77 f6 bd
       -0.092810124 -0.13966966 -0.18627782 -0.12034467
000270 7c 1f 0a be 22 b6 86 bd 4b ad b4 bd ba 05 37 be
       -0.13488573 -0.06577708 -0.088221155 -0.17873278
000280 af 7a 46 bc 22 3b 9e bd a7 4c a5 3c 0e 20 4c bd
       -0.012114211 -0.077261224 0.020178152 -0.049835257
000290 48 f9 45 3e 43 e9 92 3d 8a 8d 06 be 0e 05 5b bd
       0.19333375 0.071733974 -0.1313993 -0.053471617
0002a0 b1 62 7f 3d fe 03 4f 3e 04 4e c1 bd af 99 62 bd
       0.06234998 0.20216367 -0.094387084 -0.055322345
0002b0 9e 53 15 3e c7 0a b1 bd 5e 20 23 3e df 2a d0 3a
       0.14582679 -0.08644634 0.15930316 0.0015881917
0002c0 72 e6 44 be a6 fd 2d 3e 5b 13 36 3d ba 9a 6d bd
       -0.19228533 0.1699129 0.044452053 -0.058008887
0002d0 19 fb 39 3d c0 35 fc 3d 7c 35 53 3e 69 17 03 3e
       0.04540548 0.123149395 0.20625871 0.12801899
0002e0 4d 20 a1 bd ea c1 ed bd cf 1c 45 3c 35 9d 17 3e
       -0.07867489 -0.11609252 0.012030794 0.14806063
0002f0 a0 6a eb 3d 79 9d 8d bd 55 78 22 bd bf 2b 28 bd
       0.114949465 -0.06914801 -0.03966554 -0.041057345
000300 08 bd 07 3e 79 67 41 bd c1 5f 9f 3d ee 0a c7 3d
       0.13255703 -0.04721782 0.077819355 0.097188815
000310 6f 38 af bb 4b 9b 13 3e c0 a0 4a 3e da ea 3b be
       -0.0053473036 0.14414708 0.19787884 -0.18351308
000320 39 54 9f 3d 08 d4 53 be 17 b0 31 bd 81 35 7b bd
       0.07779736 -0.20686352 -0.043380823 -0.061330322
000330 0e 54 44 3d e6 e2 4a be cb 22 df bd 92 db ef bd
       0.047931723 -0.19813117 -0.10895308 -0.117118016
000340 70 4a ee bd 01 81 12 3e 69 ba 57 be 6d 11 b7 bd
       -0.116352916 0.14307024 -0.21067204 -0.089388706
000350 a5 4d 2b be 0c a6 06 bd f3 a5 17 3e c4 93 20 3e
       -0.16728838 -0.0328732 0.14809398 0.15681368
000360 09 1e eb bd e7 d6 09 3e 38 f6 0f be 46 a2 4f 3e
       -0.11480338 0.13460885 -0.14058769 0.20276746
000370 33 10 30 be 08 83 48 bd 7f 3d 48 3e 77 42 54 be
       -0.1719368 -0.048953086 0.19554709 -0.2072848
000380 ae af e9 3c e3 81 0e bd 7e 76 ad bd 46 72 35 be
       0.028526153 -0.03479184 -0.08469866 -0.17719373
000390 34 a9 9f 3d 04 73 14 be d2 c2 7c bb ce f9 1f 3e
       0.07795945 -0.14497 -0.003856827 0.15622637
0003a0 d2 79 93 3d 63 23 55 3c bc 36 c2 bc 18 40 c9 bd
       0.0720097 0.013008925 -0.02370774 -0.09826678
0003b0 3f c8 e0 3d ed 16 67 3d cd 99 89 3c 12 18 46 be
       0.10975694 0.056418348 0.01679697 -0.1934512
0003c0 6c 3b 4b be 83 b2 50 3c e6 d0 96 bd e8 89 8d bd
       -0.19846886 0.012737873 -0.07364063 -0.06911069
0003d0 03 48 1d 3c 72 b8 2f be 3b 8c 17 be d6 a1 b0 3c
       0.009599688 -0.17160204 -0.14799587 0.021561544
0003e0 47 5e df bd 17 69 c0 bc 5d 29 89 bd d5 7d 52 3d
       -0.10906654 -0.02348761 -0.066973425 0.051389534
0003f0 07 50 5b 3e 60 24 2e 3e 92 cd 54 be 3a 2d 29 be
       0.21417247 0.17006063 -0.20781544 -0.16521159

GAT_layers.1.f.bias f4 [64]
000000 da fa ff 3d d4 c6 cc 3d 47 be 11 3d db 29 c8 3d
       0.12499018 0.09998861 0.035581853 0.09773608
000010 48 e8 8f bc e0 cd b2 3b c6 53 d6 bd 00 b7 65 3d
       -0.017566815 0.005456671 -0.10465197 0.056082726
000020 f9 cc 82 bd 11 f4 a4 bd 90 43 b8 3d 28 63 bc 3d
       -0.06386752 -0.080543645 0.089972615 0.091986
000030 6f 43 8b bd 58 06 fd 3d 38 a0 fb bd 09 34 59 bd
       -0.06799971 0.123547256 -0.12286419 -0.05302814
000040 29 00 cb 3d 78 97 95 3c 74 0e 17 bd 33 9d 92 3b
       0.0991214 0.018260702 -0.036879018 0.004474306
000050 e8 c2 64 3d 05 bb 28 bd dc df 0b bd be 8b b2 3c
       0.05584994 -0.04119398 -0.034149036 0.02179515
000060 08 9d 80 bd 48 28 ca 3d 50 10 7c 3d ae df 6a 3d
       -0.06279951 0.09870964 0.061538994 0.057342224
000070 67 3a 6a 3d c8 f7 55 3d a0 a8 cb bb 7b 9c c8 bc
       0.057184603 0.052238256 -0.00621517 -0.024488678
000080 54 76 d5 bd 54 54 18 3d 21 82 0b 3d 0b f7 be bd
       -0.1042296 0.037189797 0.034059647 -0.093244635
000090 cb d1 37 bc 70 db d7 3d a1 4c a3 3d b4 ec 83 3d
       -0.011219452 0.10539901 0.079736 0.06441632
0000a0 ac f2 54 bd 27 4c d6 3d 66 1f 83 3d 5d 73 d1 bd
       -0.051989242 0.10463744 0.06402473 -0.10227082
0000b0 b4 40 52 bd 61 f3 c8 bd 84 98 ce 3d 1e 1b fd 3d
       -0.051331237 -0.09812046 0.10087684 0.12358688
0000c0 ad 8f 2b bd b7 ee 2f 3c 6f ca c8 bd 9e ea af 3d
       -0.041885067 0.010738066 -0.09804236 0.085896716
0000d0 30 59 88 3c fe 17 02 bc 30 5f 61 3c 34 ea 24 3d
       0.01664409 -0.0079402905 0.013755605 0.040262416
0000e0 bb 2e 84 3d 7b 11 d3 bd 7c 26 45 3d 77 e0 9e 3d
       0.06454226 -0.103060685 0.048132405 0.07757657
0000f0 25 61 a4 bb cc 3e 05 3d 08 18 e6 3d 1d 60 f7 3d
       -0.0050164633 0.03253059 0.11235052 0.12078879

GAT_layers.1.w.weight f4 [1, 64]
000000 5f 64 56 3e cc b1 74 3e 1b 84 72 be 62 b0 18 3e
       0.20936726 0.23895949 -0.23683207 0.14911035
000010 eb c1 48 3e 3e 65 ce 3d e2 76 58 be 89 93 54 3e
       0.19605224 0.10077904 -0.211391 0.20759405
000020 03 df 1c be cd d1 4a be 84 85 dd 3d 2b 4f 59 be
       -0.15319447 -0.19806595 0.10816482 -0.21221606
000030 ec a6 76 3d 9e d3 47 be bc 3f 99 3e de 24 f9 bd
       0.060217783 -0.1951432 0.29931438 -0.12165235
000040 5a ca 55 bc f9 1e 84 3e eb 6c 7f be a4 72 92 bd
       -0.013048733 0.2580488 -0.24943893 -0.07150772
000050 b5 83 8c be 76 2c 55 be a2 61 15 be 1c 9f 99 be
       -0.27444234 -0.20817742 -0.14588025 -0.30004203
000060 93 e5 3f be 0c 96 08 be 54 e3 c8 bd b4 4b 81 be
       -0.1873992 -0.13338488 -0.098089844 -0.2525307
000070 d2 3f 48 bd 2d f4 18 3d 80 92 85 be 99 b9 92 3e
       -0.04888899 0.03734224 -0.26088333 0.28657225
000080 a4 bf 29 be 5e 77 5a be b1 52 75 be c9 3a 41 be
       -0.16577011 -0.21334597 -0.23957326 -0.18870081
000090 ee 72 0a be 59 eb 93 be ad 0d 2a be 7e 90 00 3e
       -0.13520405 -0.28890494 -0.1660678 0.1255512
0000a0 ef 4c d4 bc 49 0a 19 3e cc 2b b4 3b 60 aa 51 3e
       -0.025915591 0.1494533 0.005498385 0.20475149
0000b0 60 24 55 3e 33 a2 99 3e a3 87 16 3e d2 af 99 be
       0.20814657 0.3000656 0.14700179 -0.30016953
0000c0 3a 75 ad 3d 02 15 96 be 76 8a 7c be 36 c5 1f bd
       0.08469625 -0.29312903 -0.24662194 -0.039006434
0000d0 3b 2e 59 3e 1d 5c 2f 3e 38 fa fc bd 50 45 9a 3e
       0.21209042 0.17124982 -0.12352413 0.30131006
0000e0 63 54 b8 3a 83 05 dd bd 74 9f 94 bd 87 bd 05 bd
       0.0014063235 -0.10792067 -0.07256976 -0.03265145
0000f0 7a 78 3e bd fc 76 8a bd 2b 97 91 3d db 0e 91 be
       -0.046501614 -0.06760976 0.07108911 -0.28331646

GAT_layers.2.f.weight f4 [64, 128]
000000 57 fd 92 3d 8a 6b 0c bb b3 0f db bd 77 d4 b3 3c
       0.07177227 -0.0021426403 -0.10696354 0.021951897
000010 88 c6 88 3b 88 32 cf bd 05 00 94 bd 4c d6 1a be
       0.0041740574 -0.1011706 -0.07226566 -0.1512081
000020 4d 29 23 bd 94 48 74 3d 21 6e d3 3d a0 38 d0 3c
       -0.03983431 0.05963953 0.1032374 0.025417626
000030 7b 5b 17 bb b2 7c f6 bd e7 3b 69 bd cd d9 01 3e
       -0.0023095298 -0.120355025 -0.056941893 0.1268074
000040 76 9f b1 bc 53 e0 3e 3d 41 51 4a bd ad 28 0e 3d
       -0.021682482 0.04660065 -0.049393896 0.03470676
000050 39 b2 44 3d 9e 3f 2d 3e 65 5d fa bb f8 01 5d 3d
       0.04802153 0.169188 -0.007640528 0.053956956
000060 11 24 22 be 23 71 0e 3e aa 90 6d 3d 47 84 fe bd
       -0.1583407 0.13910346 0.05799929 -0.12427574
000070 ef 0b 62 bd 38 a2 22 3e 58 c5 25 3e d5 d1 46 3c
       -0.055187162 0.15882194 0.16188562 0.012134989
000080 fb b1 ec bd 5b f9 06 bd 90 84 e8 3d 6c 40 d7 3c
       -0.115573846 -0.032952648 0.11353409 0.026275836
000090 04 5a b0 3d 89 b1 ff bd 8d 5d 2d be 75 9d e2 bd
       0.08610919 -0.12485034 -0.16930218 -0.11065189
0000a0 dd 7c 19 3b 22 a7 d3 3d 33 8a 6b bd 65 e9 2a be
       0.0023420372 0.103346124 -0.057504844 -0.16690595
0000b0 00 00 13 bd 7c e9 17 be 74 7a 54 bd f8 bb 26 3d
       -0.035888672 -0.14835161 -0.051874593 0.040706605
0000c0 47 9e a1 3d cc 7e 15 3e 04 5b b2 3c 32 2b 8c bc
       0.07891517 0.1459915 0.021771915 -0.01711044
0000d0 97 b3 14 3e 94 cf c6 bc b9 60 c1 3c 11 90 0a be
       0.14521633 -0.024268903 0.023605691 -0.1353152
0000e0 7c 26 e4 bd 65 c3 00 3e 0f 2b 47 3d 4f 2e 19 be
       -0.11140153 0.12574537 0.04862505 -0.14959072
0000f0 94 ff 00 be 20 62 17 3e c7 c1 c6 bd 8d b1 c8 3d
       -0.12597495 0.14783525 -0.09704929 0.0979949
000100 d9 85 21 3e 01 99 45 3c 34 06 a1 bd c5 ec b5 bd
       0.15773715 0.012060405 -0.07862511 -0.08883051
000110 33 80 d6 3d 4f ca ee bd 6f ce 14 be d3 7a f0 3d
       0.10473671 -0.11659681 -0.14531873 0.11742177
000120 c5 9c 2e 3d 2e c5 e8 3d 95 5b cc 3d af d1 eb 3d
       0.042629976 0.11365734 0.099784054 0.11514603
000130 02 46 d6 3d 89 3d 96 bd fc 60 24 bc 42 ba 4a bd
       0.10462572 -0.07335956 -0.0100328885 -0.049494036
000140 81 2b 21 bc a4 95 07 3d 95 57 1d 3e ef db 25 3e
       -0.009837032 0.033101693 0.15365441 0.1619718
000150 71 04 27 be 54 c6 00 3e cb f6 93 bd 6b 61 09 be
       -0.16310288 0.12575656 -0.072248064 -0.13416068
000160 6f 3f aa 3d ac fd 32 be 68 89 96 bd ae 9b fb 3d
       0.0831288 -0.1747958 -0.07350427 0.12285553
000170 5b d9 d7 3d 83 f6 94 3d d4 11 a1 3d a2 f4 36 bd
       0.10539504 0.07273581 0.078647286 -0.044666894
000180 0e e1 a7 3d ff 58 ce bd 3d ca 0e 3d c0 49 17 be
       0.08197223 -0.100755684 0.03486084 -0.14774227
000190 4e a1 a1 3d b0 73 a2 3d ae f2 24 3e a1 e4 82 bd
       0.078920946 0.07932222 0.161082 -0.06391264
0001a0 24 25 2b be 2e 16 79 3c 96 26 06 bd 1f 55 28 3d
       -0.16713387 0.015203042 -0.032751642 0.041096803
0001b0 af 88 04 bd d0 e2 19 3e b0 67 29 be b9 63 19 3e
       -0.032356914 0.15027928 -0.1654346 0.14979447
0001c0 1c 8a 88 3d 2a 21 be bc 3c 32 13 be 89 26 89 bd
       0.06666967 -0.023209173 -0.14374632 -0.06696803
0001d0 1a c7 23 3e a6 db 1f bd a5 d9 8d bb 80 3e 03 3e
       0.1599392 -0.039027832 -0.0043289238 0.1281681
0001e0 fb 29 01 3e d4 79 6a bd 6d 96 a2 bc a3 fa 2b be
       0.1261367 -0.05724509 -0.01984712 -0.16794829
0001f0 f3 3c 25 3e 91 e1 ff 3d e6 a1 1b 3e 19 5b e5 bd
       0.16136532 0.12494195 0.15198478 -0.11199016
000200 6c b9 a7 3c 24 5d 78 bd bb ce 28 be 86 4f 01 be
       0.020474158 -0.0606357 -0.16485111 -0.12627992
000210 9b 44 1c be 09 d6 e5 3d ba a5 b3 bd f5 d0 f5 3d
       -0.15260546 0.112224646 -0.08771844 0.12002746
000220 f9 6e bf 3d 6a 52 99 bd dc e5 24 3e 76 e3 a1 bd
       0.09347338 -0.07486422 0.1610331 -0.07904713
000230 6d b2 2b be 14 92 8c bd 04 83 23 3e 3b bc 12 be
       -0.16767283 -0.068638 0.15967947 -0.14329617
000240 00 90 2e 3e 5f 8b 5e 3d 32 c9 f6 bd 83 24 3c bd
       0.17047119 0.054332133 -0.12050094 -0.045933258
000250 4e e7 15 bc d8 b3 2d 3e bd 50 26 be f9 01 94 bd
       -0.009149386 0.16963136 -0.16241737 -0.07226939
000260 d7 03 fb 3d a4 fd a2 bd da 47 e5 3d 9d ad 83 bd
       0.12256592 -0.07958534 0.11195345 -0.064295985
000270 af 68 e1 bd 11 22 aa bb 22 3d d2 3d 4f 4d 03 3e
       -0.11006295 -0.0051920493 0.102655664 0.1282246
000280 ca 8d 13 3e 66 ef 4a 3d d5 8e fb 3d 09 c7 2b bd
       0.14409557 0.049544714 0.122831024 -0.04193786
000290 55 b6 2a 3e e7 a1 c6 bc 92 b2 2f be fd 86 2f 3e
       0.16671117 -0.024247123 -0.17157963 0.17141338
0002a0 e6 7b f0 bb f9 bb 1a 3e 42 b0 1e bd f3 ce 19 be
       -0.0073389886 0.15110768 -0.03874231 -0.15020351
0002b0 a9 44 2f 3e 06 12 06 be 8b b7 10 be 98 10 d9 3d
       0.17116036 -0.13092813 -0.14132516 0.10598868
0002c0 11 31 b5 bd 44 4b 1d be 64 45 24 3e 1a 64 bb bd
       -0.08847249 -0.15360743 0.16042095 -0.09149952
0002d0 5c 5e 34 3e ee 54 22 bd 12 65 02 be 97 9c 87 bd
       0.1761412 -0.039631777 -0.12733868 -0.06621664
0002e0 f7 b6 5f bc d0 0c cd 3d 61 8d f4 3d 60 c6 d9 bd
       -0.013654462 0.100122094 0.119410284 -0.1063354
0002f0 a4 04 21 be e2 f9 f2 3b 21 69 23 be 9d ed 08 3e
       -0.15724427 0.0074150423 -0.15958072 0.13371892
000300 e1 ee 1d be d5 fb ae 3d 9c 83 ca bd 93 91 31 3d
       -0.15423156 0.08544127 -0.09888384 0.04335172
000310 78 f0 c0 3d 10 98 03 be 35 06 2f be ef d2 2b be
       0.09420866 -0.12850976 -0.17092212 -0.16779684
000320 5d c4 32 be fe 7c a0 bd 11 1b b1 3c b4 4b 1a 3e
       -0.17457719 -0.0783634 0.021619352 0.15067941
000330 80 fc 25 be 87 84 27 3e ef ba d8 bd d3 00 49 3d
       -0.16209602 0.16359149 -0.1058253 0.04907305
000340 03 76 1a 3e 27 65 88 3c fc a5 1d be 54 80 76 bd
       0.1508408 0.016649796 -0.1539535 -0.060180977
000350 68 c2 d1 bd 1a 72 de bd 98 5b e7 3d 82 37 1c 3d
       -0.10242158 -0.10861607 0.11296767 0.038138874
000360 75 29 06 be 66 b6 72 3d 95 b5 3b bd 76 39 ee bd
       -0.13101752 0.05925598 -0.045827467 -0.116320536
000370 b6 d2 2d be 67 3e 0a 3e f1 92 3a bc 33 db 05 3e
       -0.16974911 0.13500367 -0.011387573 0.13071899
000380 dc 62 9e 3d 7d 79 b5 3d b4 3f 29 be a2 f0 d5 3d
       0.077337 0.08861063 -0.16528207 0.10446288
000390 13 85 21 3e 41 66 59 3b b4 54 e4 3d ed 81 e4 bc
       0.1577342 0.003317252 0.11148968 -0.027893985
0003a0 1a d1 29 bc f4 06 58 3d 85 5d 0a be 6a 0a 92 bc
       -0.010364795 0.052741006 -0.13512237 -0.017827231
0003b0 84 97 d3 bc a3 b2 0b 3e 74 31 0b 3e 39 e8 8a 3c
       -0.025829084 0.13642363 0.13593084 0.016956436
0003c0 e3 07 35 bd 35 23 90 bd c0 aa 49 bc c8 22 4a 3c
       -0.044196974 -0.07037965 -0.012308776 0.012337394
0003d0 92 0f 65 3d 4e eb 0c 3d 3f 5d ec bb 7d a1 16 be
       0.055923052 0.03440409 -0.0072132642 -0.1471004
0003e0 97 2b 19 3e 4c e2 f8 bd 36 ff 26 be b9 f5 09 3e
       0.14958034 -0.12152538 -0.16308293 0.13472642
0003f0 f3 1f 7d 3d db a3 0d 3e 55 59 31 be 74 a0 e4 3d
       0.061798047 0.13832037 -0.17319234 0.111634165

GAT_layers.2.f.bias f4 [64]
000000 45 79 24 bd b1 8d 91 bd 94 46 be ba 91 20 23 bd
       -0.040154714 -0.071071036 -0.0014516884 -0.03982598
000010 30 c7 6b 3b 62 e4 1e bd 17 d0 a6 bd 8c 0c 5e 3c
       0.003597688 -0.03879202 -0.08145159 0.013552796
000020 74 2f 76 bd bc 7e 94 3d 83 8d 61 3d b5 dd a1 3d
       -0.06010385 0.07250735 0.055066597 0.079036154
000030 e4 49 e4 bb 38 c1 cd bc 4f 1c a2 3d d1 6c 65 3d
       -0.0069668163 -0.025116548 0.07915556 0.05601198
000040 3d b5 7f bd be 0f 6b bd 50 a8 f0 3c fb 61 95 bd
       -0.0624287 -0.05738806 0.029377133 -0.07294079
000050 c3 fc 21 bd 69 dc 7e bd 3c 86 5c bd b9 fb 8b bd
       -0.039547693 -0.06222192 -0.053838953 -0.06835122
000060 29 21 82 3d b3 bc 93 3d 20 e0 2a 3b a6 60 a2 3d
       0.06353981 0.07213726 0.002607353 0.079285905
000070 7c fb 8a 3d d8 ac 3d bb dd 70 98 3d cc 71 98 3d
       0.06786248 -0.0028942134 0.07443402 0.0744358
000080 d5 59 93 bc b3 af a2 3d b5 73 1a bd e6 3d 9b 3d
       -0.017987171 0.07943668 -0.037708003 0.075801656
000090 ef 2d c8 3c 94 5a 30 bd b8 1f a2 3c 8d b3 a0 3d
       0.024435965 -0.043055132 0.019790515 0.078467466
0000a0 c4 da a6 bb 96 73 77 3d eb 36 0e 3d c7 18 73 3d
       -0.005091997 0.060412966 0.034720343 0.0593498
0000b0 b4 a1 28 bc fe 02 96 3d e8 c6 a8 bd ad 8b 14 bc
       -0.010292459 0.073247895 -0.08241063 -0.009066504
0000c0 19 ac 1f 3d 05 bf ae 3c 13 b8 77 3c 9a 97 88 bc
       0.038982484 0.02133132 0.01511957 -0.016673852
0000d0 c7 f6 d3 3c 5c 91 da 3a c2 72 ab bd 5c 74 10 3d
       0.025874509 0.00166754 -0.08371498 0.03526722
0000e0 80 35 6b bc 12 50 a2 bd a6 70 70 3d 3c 5d 44 3a
       -0.014356017 -0.079254285 0.05870118 0.00074906996
0000f0 62 8e b7 bc 08 53 2a 3b b5 2a 58 bd 7c 5e 84 bd
       -0.02240676 0.0025989432 -0.052775104 -0.06463334

GAT_layers.2.w.weight f4 [1, 128]
000000 95 bc 05 bd f3 6c 01 be cc d0 2f 3e c0 b6 1f 3e
       -0.03265055 -0.12639217 0.17169493 0.15597057
000010 57 24 34 3e 23 f1 23 3d 2b 1c fa 3c 04 75 20 3e
       0.17591988 0.040024888 0.03053101 0.15669638
000020 92 1d c9 3d fe 10 79 bc 4c 4b 08 be 86 f2 26 be
       0.09820093 -0.015201805 -0.13309973 -0.16303453
000030 0c eb ef bc cb a7 da bd 28 11 ed 3d 44 7b 9d 3d
       -0.029286884 -0.10676535 0.11575538 0.07689527
000040 e0 04 4d 3e 9d 55 16 be 4e ff c0 bd 86 c4 10 be
       0.20021391 -0.14681096 -0.094236955 -0.14137468
000050 98 d2 30 3e 39 90 50 3e b5 68 da 3d 36 5d c7 bc
       0.17267835 0.20367517 0.106645025 -0.024336439
000060 ae bc aa 3d af f1 01 3e 50 f9 2b 3e 44 66 1b be
       0.08336769 0.12689851 0.16794324 -0.1517573
000070 cb e0 8c 3d 0b d8 cc 3d 71 fb ea 3d 0c b0 fa 3d
       0.06878813 0.100021444 0.1147374 0.122406095
000080 c4 07 3b be 44 cb 17 be 5c 98 8c 3d 41 92 b1 bd
       -0.18264681 -0.14823633 0.06864998 -0.08670474
000090 3e 7b f1 bd 49 85 2c 3b 6c cd 3d be 7f 88 5c bc
       -0.11791085 0.0026324561 -0.18535393 -0.013460278
0000a0 b8 6b 0e 3d 54 31 05 3e bb dc 18 bd bc e6 03 be
       0.034770697 0.13007098 -0.03731988 -0.12880987
0000b0 3a 55 35 3d 49 5c 95 bd 0d 4e 0b be 74 c4 c0 3c
       0.04427073 -0.072929926 -0.13603993 0.023531176
0000c0 5b 2d 1b 3e 29 b9 11 3e 50 70 e4 3d 53 03 de bd
       0.1515402 0.14230789 0.111542344 -0.10840478
0000d0 3e 37 31 3e 2d 13 84 3d 52 6d ac 3d 42 32 32 3e
       0.1730623 0.0644897 0.08419289 0.17401984
0000e0 28 e1 16 3e 89 07 b0 bb 5b b0 4e bd 39 fc bd 3d
       0.14734328 -0.005371992 -0.050461154 0.09276623
0000f0 1b b2 17 be 7a f6 85 bd 40 79 f2 bd a7 4d 88 bd
       -0.14814036 -0.06541152 -0.11839533 -0.06655436
000100 40 71 cb bd 30 1d 19 3d 6d 75 ee 3b d7 f1 c3 bd
       -0.0993371 0.03738135 0.007277182 -0.09567612
000110 39 1e 28 3e cd a4 b9 3d 1d d2 45 be b6 ce 8d bc
       0.16417779 0.090646364 -0.19318433 -0.017310482
000120 ca a5 2f 3e 32 fd e7 bd ba dc ec 3d 61 9a 75 3d
       0.17153087 -0.1132759 0.11565538 0.05996168
000130 55 0e 94 bd 2f 13 f8 bd 47 a5 e9 bd fa 9b 69 3d
       -0.07229296 -0.12113034 -0.11408477 0.057033516
000140 31 e8 c2 bd 7f a6 da 3d 18 22 54 3c 54 2a 52 be
       -0.09516943 0.10676288 0.012947582 -0.2052396
000150 5b fa a0 bd 27 2c 09 3e 50 e6 0b bd f4 92 2c 3e
       -0.078602515 0.13395749 -0.03415519 0.16852933
000160 21 60 d9 bd 28 c8 21 be e0 e4 f8 bd a6 53 48 3e
       -0.10614038 -0.1579901 -0.121530294 0.1956316
000170 4e b2 2c be 87 ed 2a be b4 d8 1f bc 0d c9 f1 bd
       -0.16864893 -0.16692172 -0.009756256 -0.118059255
000180 00 f6 39 3e 16 32 38 bd 83 ae bb bd e7 c1 0a 3e
       0.18160248 -0.04496964 -0.09164145 0.1355053
000190 d1 c1 87 bd 3e 29 57 be d2 d1 9c 3c da b5 fd 3d
       -0.066287644 -0.21011826 0.019143019 0.12388201
0001a0 e9 bf f1 bd ef 3c ab 3d bf 4d c8 bd 76 dc 52 be
       -0.11804182 0.083612315 -0.09780454 -0.20591912
0001b0 ca fb aa bd 44 17 78 3d fa 5d 0b be c4 50 2d bc
       -0.08348806 0.060569063 -0.13610068 -0.010578338
0001c0 ca 54 b9 3d 4a f0 e3 bd 4d f5 b6 bd 03 60 2a 3d
       0.09049375 -0.11129816 -0.08933506 0.04159547
0001d0 fc 42 2e 3d 71 f5 ca bd 32 77 49 be 0f 96 24 be
       0.04254435 -0.099100955 -0.19674376 -0.16072868
0001e0 13 c1 04 be cf 17 e7 bd 26 d6 35 be ea 8e 55 be
       -0.12964277 -0.11283838 -0.17757472 -0.20855299
0001f0 df de c1 bd eb 87 88 3d ee 73 9b bd d5 55 57 3e
       -0.094663374 0.06666549 -0.07590471 0.21028836

MLP_layers.0.weight f4 [32, 64]
000000 0a b8 2a bd 60 7f b5 bb f4 75 cf bc c4 24 80 3d
       -0.04167942 -0.005538866 -0.0253248 0.062570125
000010 42 7c 92 3d 98 63 6b bd 66 45 f4 3d 50 c5 8b bc
       0.071526065 -0.057468027 0.11927299 -0.01706186
000020 e2 e7 e2 3d 11 71 9e bd 14 4d 05 bd 50 2b 70 3c
       0.110793844 -0.077364095 -0.03254421 0.014658764
000030 59 f7 d2 3c 00 7b b9 3d ae c9 8f 3d dc 9d e9 3d
       0.02575271 0.090566635 0.07020889 0.114070624
000040 57 e8 c0 bd 93 44 d5 3d b2 0a cd 3d ac 1c dc 3d
       -0.09419315 0.1041347 0.100118056 0.10747656
000050 0a ba be 3d 60 22 b0 bd 8e d2 e3 3d 24 3d 66 3d
       0.09312828 -0.086003065 0.111241445 0.056210652
000060 70 71 53 bd 64 38 a4 bd aa 5a cd 3d 30 f9 d0 bc
       -0.051621854 -0.08018568 0.100270584 -0.025509447
000070 01 7b b8 bd 90 9d 85 3d 04 d1 11 bd 4c 50 82 bd
       -0.09007836 0.06524193 -0.035599723 -0.06362972
000080 66 85 3a bd 8e 35 a3 bd 0a e1 22 bd e0 62 9f bc
       -0.045537375 -0.07969199 -0.039765395 -0.019456327
000090 03 4d 6f 3c e2 92 99 bd 24 3c 31 3d a0 a6 da 3b
       0.014605763 -0.07498719 0.043270245 0.0066726953
0000a0 1a 48 f5 bd 28 74 4b 3d a4 91 83 3d a3 f2 ff 3d
       -0.11976643 0.049671322 0.06424263 0.12497451
0000b0 61 34 4f 3d 5a 51 56 3d 9f e8 ee bd fc 2f 54 bd
       0.05058706 0.052323677 -0.11665463 -0.051803574
0000c0 98 b1 d3 3d 1e 7a 98 3d 1c 5f 9e 3d 3d 2a f8 bd
       0.10336608 0.07445167 0.077329844 -0.12117431
0000d0 e8 b8 e7 3d 9c 0b 3f 3d c3 0a 35 bd e8 4d f6 bd
       0.11314565 0.04664193 -0.044199716 -0.12026578
0000e0 74 12 63 bd 7c ab 33 bd cc 8d 08 3d 24 97 f4 bd
       -0.05543752 -0.043864712 0.033338353 -0.1194289
0000f0 38 97 cd 3c 13 33 3e 3d 56 e6 af bd 80 f3 23 3c
       0.02509652 0.046435427 -0.08588855 0.010006785
000100 cb 7f db bd f2 9e ad bd 0b e3 df bd 28 55 f9 3c
       -0.10717734 -0.08477582 -0.10931977 0.030436113
000110 9f 40 93 bc 44 b8 88 bd 4d 1c 5b bd 05 13 da 3d
       -0.01797515 -0.06675771 -0.053493787 0.10648159
000120 fe b8 9c 3d 32 23 87 3d 88 4c 99 3d 3c 76 d1 3d
       0.07652472 0.0659851 0.074853 0.102276295
000130 66 86 6a 3d 6d 11 ce 3d c6 85 2e 3d 56 ae b6 bd
       0.05725708 0.100619175 0.042608045 -0.08919971
000140 4e 02 b3 3d 44 f7 15 3c 7c f0 8c bd 6c 33 71 bd
       0.08740674 0.009153191 -0.06881806 -0.05888693
000150 84 46 04 bd a0 a5 5f 3d 3c d8 ea 3d 30 a9 1b 3d
       -0.03229381 0.05460131 0.11467025 0.038003147
000160 ec 11 7d bd 2c 50 a9 bd 48 6a bc 3d 9c 58 bb 3d
       -0.06178467 -0.08267245 0.09199959 0.0914776
000170 22 3e ac 3d 12 eb cd 3d 1e ad eb bd e4 f2 c7 bd
       0.084102884 0.10054602 -0.11507629 -0.097631246
000180 06 eb 2d 3d 40 d0 eb bc 95 4b f9 bd a8 ec 6f bd
       0.042460464 -0.028785825 -0.12172619 -0.058575302
000190 ae 43 5c 3b 6c dc 2a 3d 60 0f 82 bb 3c 8a 08 bd
       0.0033609676 0.041714117 -0.003969118 -0.033334956
0001a0 ce e9 19 3d ba 75 98 bd dd c0 f1 3d 02 b8 9b 3d
       0.03757649 -0.074443296 0.11804364 0.07603456
0001b0 46 88 dc bd 81 fc a7 bc a1 a6 b9 bd 22 c3 f6 bd
       -0.107681796 -0.020506145 -0.09064985 -0.120489374
0001c0 a8 28 aa 3d 16 f7 65 3d b8 d9 dc bd de 98 9d 3d
       0.08308536 0.056143843 -0.10783714 0.07695173
0001d0 44 d9 c6 3d 38 5a f0 bd 19 56 9c 3d d0 e5 ba bd
       0.09709409 -0.11735958 0.07633609 -0.091258645
0001e0 00 cc 31 bd 00 a2 ee 3a 0c 98 25 bd 27 64 c6 3d
       -0.04340744 0.0018206239 -0.040428206 0.09687071
0001f0 48 c4 23 bd 0c 5c f9 bd 6e ef e8 bd 50 39 1c bc
       -0.03998211 -0.1217576 -0.113737926 -0.009535149
000200 e2 98 c5 3d 60 60 eb bb d4 93 00 3d de 4d e7 bd
       0.09648301 -0.0071831197 0.03139098 -0.11294149
000210 34 75 ea 3d e4 61 95 bd ac da 7a bd 22 4d 80 bd
       0.11448136 -0.07294062 -0.061243698 -0.06264712
000220 cc ea 1e bd e4 17 b4 3d 9c a1 29 3d cc 9a f5 3d
       -0.03879814 0.08793619 0.04141389 0.11992416
000230 18 95 16 3d 70 2f 08 bc f8 f2 5b bd 9c 75 4f bd
       0.03676328 -0.008312091 -0.05369851 -0.05064927
000240 00 0b df bb 6e 38 95 3d 8c 4d 0b 3d 14 f8 f5 bd
       -0.006806731 0.07286154 0.0340095 -0.12010208
000250 0c 51 74 bd c8 a8 93 3c 10 5d 7d 3c 74 e3 10 bd
       -0.059647605 0.018024817 0.015464082 -0.035373166
000260 30 3a a6 3d 38 13 88 bd 90 6b 57 bc 0a 9a 9a bd
       0.08116567 -0.06644291 -0.0131482035 -0.07548912
000270 2a b3 f1 bd 08 d6 c7 3c 50 c8 91 bc 94 74 17 3d
       -0.11801751 0.02439405 -0.017795712 0.036976412
000280 b8 07 c5 bc f8 5e 8a 3c b8 1d 11 3d 40 94 aa bb
       -0.024051532 0.016890988 0.035428733 -0.005205661
000290 cc 63 f7 3d 0c 32 59 3d 18 46 a1 bc c8 7f d2 bc
       0.120795816 0.053026244 -0.019686744 -0.025695696
0002a0 b8 28 09 bd c4 22 c2 3d 04 1e 15 bd e2 f9 f9 bd
       -0.033486098 0.09479287 -0.03640558 -0.122058645
0002b0 74 60 03 3d 42 88 aa 3d 70 c9 ef bd 8a ea ad bd
       0.032074407 0.0832677 -0.11708343 -0.084920004
0002c0 80 73 27 bd f0 bc c5 3d 68 42 d5 3d 92 d5 f5 3d
       -0.040881634 0.096551776 0.104130566 0.12003626
0002d0 04 a9 35 3d 9c 5c b1 bd f8 7c ec bd 28 63 80 bd
       0.04435064 -0.08660242 -0.115472734 -0.062689126
0002e0 cc 3f 51 3d 42 fd ef 3d 28 54 d6 3c d0 aa 22 bc
       0.051086232 0.11718227 0.026163176 -0.00992842
0002f0 04 88 3e 3d 04 3c 58 3d b0 04 47 3d 80 ee df 3c
       0.046516433 0.05279161 0.048588455 0.027335405
000300 9a 4e 81 bd 2a 8b ee bd 88 4d 71 bd 84 3e cf bd
       -0.0631382 -0.11647637 -0.05891183 -0.10119346
000310 a8 d7 06 3d 5c 32 e1 3d a0 79 96 3c 34 0d 63 3d
       0.03292051 0.109959334 0.018368542 0.055432513
000320 80 ad 57 bd 54 b8 9e 3d 18 38 b5 3c 50 0b 92 bc
       -0.052655697 0.077500015 0.022121474 -0.01782766
000330 08 3a 61 bd 98 d9 f8 bc 00 e0 d2 3a 14 1d db bd
       -0.054986984 -0.030377194 0.0016088486 -0.106989056
000340 e0 a8 f4 3b 42 03 a9 3d 60 24 ce 3b ac 5c 8e 3d
       0.0074664205 0.082525745 0.0062909573 0.069512695
000350 60 74 cf bc bc 89 ae bd d8 81 13 bd 04 c8 e6 3d
       -0.025324047 -0.085223645 -0.0360125 0.11268619
000360 26 2e c0 3d 10 9f 61 3d 48 95 53 3d 00 b2 50 ba
       0.09383802 0.055083334 0.051656038 -0.00079610944
000370 90 b6 4b bc 38 be 80 3d d8 9f af bd 60 e6 df 3b
       -0.012433663 0.06286281 -0.0857541 0.0068328828
000380 38 53 91 bc 34 5c 4f bd c0 24 07 bc f2 4b f1 bd
       -0.017739877 -0.05062504 -0.008248508 -0.117820635
000390 28 04 ac 3d c2 b4 ad 3d 2c f8 c6 3d 1a 23 e7 bd
       0.0839923 0.084817424 0.09715304 -0.11285992
0003a0 08 4f f6 3c 1a c2 92 bd d4 23 1c 3d 58 b0 de bc
       0.030066982 -0.07165928 0.038120106 -0.027183697
0003b0 3c 09 14 bd fc d7 b2 3d 38 6b fd bc 70 7c 15 3c
       -0.03614162 0.08732602 -0.030934915 0.0091239065
0003c0 14 a4 27 3d ac fd 01 bd 60 00 84 bd f2 12 b0 bd
       0.04092796 -0.03173606 -0.06445384 -0.085973635
0003d0 18 37 ed 3d 18 71 cd 3d c0 9c ff bb 24 56 71 bd
       0.11582774 0.100313365 -0.0078006685 -0.05892004
0003e0 90 f5 2d 3d f4 c7 3e bd 60 9b c4 bd e0 79 ea bd
       0.042470515 -0.04657741 -0.09599948 -0.11449027
0003f0 b4 3a 6e 3d 60 bf ee bc aa c1 a2 3d f0 b9 c7 bd
       0.058161452 -0.02914399 0.07947095 -0.09752262

MLP_layers.0.bias f4 [32]
000000 22 36 0f 3e 4b bf 9a bc 53 c4 6d 3d 61 48 d7 3d
       0.13985494 -0.018890044 0.058048557 0.10511852
000010 10 e6 5f bd df 3d 52 bd 44 d7 e1 bd 43 9e b9 3d
       -0.054662764 -0.051328536 -0.11027387 0.09063389
000020 64 4f 87 3c 48 85 b3 bc d4 b7 17 bd f6 b2 b1 3d
       0.016517349 -0.02191414 -0.037040547 0.08676712
000030 04 5a b9 bd f8 a4 c1 3c b0 39 a2 3d f4 91 c1 bd
       -0.09050372 0.023638234 0.07921159 -0.094516665
000040 c4 75 51 3d 9e 83 ad 3d 0e 97 e4 3c b2 64 d5 bd
       0.0511377 0.084723696 0.02790406 -0.10419597
000050 56 5c 8d 3c 35 ed 40 3d 24 00 2d bd dc 5e a9 3d
       0.017255943 0.04710122 -0.042236462 0.08270046
000060 55 8c 42 bd 08 03 84 3c 34 04 b3 3d bd e8 08 3e
       -0.047497112 0.016114727 0.08741036 0.13370033
000070 79 76 d6 3d fe de c2 3d 11 a6 58 bd 7f 51 48 bd
       0.104718156 0.09515189 -0.05289275 -0.048905846

MLP_layers.1.weight f4 [1, 32]
000000 fc b6 66 3d 4e ae 31 be d8 1a 8d bd 39 18 4d 3d
       0.05632685 -0.17351648 -0.06889886 0.05007193
000010 6b 91 2a 3e e9 39 0e be 05 d0 c3 bb 37 02 18 3d
       0.16657035 -0.13889278 -0.0059757256 0.037111487
000020 29 b5 cf 3d f2 c4 02 3d 50 56 96 3d a0 08 10 3e
       0.101419754 0.031926103 0.073406816 0.1406579
000030 c0 97 2f 3e bb 6d 7b 3d 97 f2 8c bd fc bf 0e be
       0.17147732 0.061383944 -0.06882208 -0.13940424
000040 02 43 33 3d 83 05 dd bd 50 43 79 3d 0c f1 22 3e
       0.043765076 -0.10792067 0.06085521 0.15912265
000050 58 d5 18 3e dc 4f 5e bd 9d d4 8e 3d 36 17 24 3e
       0.14925134 -0.05427538 0.069741465 0.1602448
000060 62 24 c4 3d 13 b2 c4 bd 7e d5 11 be 03 dc 0a 3d
       0.09577252 -0.096042775 -0.14241597 0.033901226
000070 d0 58 ae 3b dd c2 4b bc 6f a4 fd bc a5 87 85 bd
       0.005320646 -0.012436596 -0.030962197 -0.06520013
