SLIC_GAT/best6.pt (torch, 80373 bytes, 12 tensors)

GAT_layers.0.f.weight f4 [32, 124]
-0.05826525 0.17424259 0.17807801 -0.09768899 0.04187227 -0.15955119 0.13221212 0.13857776
0.035795636 -0.058905996 0.16181345 0.0536072 -0.15424997 0.12264578 -0.11426486 0.16856204
0.04318586 -0.15262844 0.08877231 -0.04803244 0.09630068 0.08999526 0.14680013 -0.17008507
0.11377792 0.04507366 0.15894933 0.16107461 -0.16773559 -0.022228952 0.1889019 -0.0058949343
0.16421759 0.047372617 0.05836709 0.0050386596 -0.11877922 -0.047506858 -0.026314432 0.055120584
-0.009157174 0.027190227 -0.07237316 -0.07621454 0.11115918 0.16359803 -0.16750777 0.15079866
-0.055124816 0.043197807 0.05575787 -0.08893965 -0.12201007 -0.10721185 -0.117906235 -0.16711825
0.19502607 -0.052834973 0.13806501 -0.14305273 0.16151832 0.048268262 0.19369182 0.11810219
-0.042347282 0.1396454 -0.099109225 0.15621704 -0.10227036 0.02134696 -0.15918529 0.08300416
-0.100314826 0.09779599 0.044499893 0.046642333 -0.10615585 0.08694116 -0.1020458 0.08269591
-0.19145018 0.04545494 0.09477603 0.11544895 0.09237481 -0.16614069 -0.16842669 0.03085683
0.1769349 0.055604596 -0.12754309 0.19335778 0.16012049 -0.17937635 0.07070391 -0.16221051
0.18842448 -0.11653588 0.13827528 -0.11276749 -0.17408803 0.003323446 -0.029183347 0.042181175
0.18103562 0.028837737 0.1873052 -0.16376856 0.07801532 0.059774593 -0.08376311 -0.011585771
0.073613666 -0.051404886 0.16838145 0.071424045 0.09266309 -0.11988025 -0.0483993 -0.17184992
0.14376783 0.068492174 0.06334517 -0.07867299 -0.110861726 0.027310641 -0.03511595 -0.17577317
-0.11865798 0.12933485 0.1217702 0.11349102 -0.10762934 0.042172045 0.17377554 0.16607222
0.05188143 -0.17895764 0.034719344 0.071779676 -0.16076076 -0.0057953163 0.0015647411 -0.124036394
0.14044286 -0.05293664 -0.17242712 -0.16279188 0.02141482 0.1465682 0.028815584 0.040446974
-0.019498877 -0.19292186 0.09048519 0.054986227 -0.1066945 0.04553739 -0.11415769 0.033386435
-0.08350905 -0.00078697933 0.17850447 -0.12390747 0.043660756 0.13723844 -0.1551453 0.058072727
-0.0844244 0.013063619 0.0028461898 -0.055185366 -0.09584625 0.17773171 0.0048213764 -0.11613112
-0.13355328 -0.1078664 0.009564313 -0.040007263 -0.19009702 0.012017205 -0.059532516 0.1549854
0.055758953 -0.18584244 0.009178728 -0.0019729848 -0.14962657 -0.01475652 0.019273171 0.06664787
-0.1458908 -0.018700656 -0.19572446 -0.17194128 -0.09560469 0.053259183 -0.0015044411 -0.09685205
0.04561859 0.15628913 -0.051152166 -0.09936025 0.17638233 -0.10296315 0.16719833 0.1296971
0.1662668 0.04872706 -0.010056704 0.13882816 -0.18903549 -0.10215697 0.05190384 0.025616052
0.07036254 -0.20900643 -0.20487948 -0.037448138 -0.06523748 -0.15992509 0.17352502 0.031782515
-0.16527233 -0.034403823 -0.005812056 -0.050084237 -0.031921595 -0.03601652 -0.087960266 -0.015564269
-0.07696413 0.13070345 0.010962189 -0.060975615 0.15524167 0.11226508 0.0056261783 -0.07046723
-0.10638562 -0.054772932 -0.0506304 -0.09167634 0.1061618 0.11384047 0.1521998 0.071480155
-0.062499072 0.09804495 0.027380083 -0.006413512 -0.10403057 0.0645068 0.008002526 -0.022611575
00000000: 8ba7 6ebd a66c 323e 155a 363e 2a11 c8bd
00000010: 4282 2b3d 6361 23be 9d62 073e 54e7 0d3e
00000020: 729e 123d 6a47 71bd 6db2 253e 3993 5b3d
00000030: b4f3 1dbe b62d fb3d b203 eabd 879b 2c3e
00000040: a8e3 303d a14a 1cbe 42ce b53d aabd 44bd
00000050: 4a39 c53d 6f4f b83d c652 163e c82a 2ebe
00000060: 6604 e93d 289f 383d 9dc3 223e bef0 243e
00000070: e1c2 2bbe 7e19 b6bc 806f 413e 4b2a c1bb
00000080: a828 283e ca09 423d 5412 6f3d 571b a53b
00000090: 8542 f3bd 8d96 42bd 5d91 d7bc 1fc6 613d
000000a0: f907 16bc 0abe de3c 6138 94bd 5e16 9cbd
000000b0: 6da7 e33d 3e86 273e 2887 2bbe f76a 1a3e
000000c0: 8fca 61bd 2ff0 303d 5d62 643d fe25 b6bd
000000d0: 6ae0 f9bd e391 dbbd d378 f1bd 0c21 2bbe
000000e0: eab4 473e 7c69 58bd ea60 0d3e 6a7c 12be
000000f0: 0f65 253e f1b4 453d 2657 463e 90df f13d
00000100: 5874 2dbd 34ff 0e3e c7f9 cabd 5cf7 1f3e
00000110: 1f73 d1bd d2df ae3c 7801 23be 16fe a93d
00000120: dc71 cdbd 4449 c83d 8545 363d 080c 3f3d
00000130: 3d68 d9bd 350e b23d 63fd d0bd 795c a93d
00000140: 840b 44be f62e 3a3d ef19 c23d 8070 ec3d
00000150: 012f bd3d c920 2abe 0c78 2cbe 76c7 fc3c
00000160: 6c2e 353e a5c1 633d a89a 02be 95ff 453e
00000170: a0f6 233e 6fae 37be 36cd 903d 831a 26be
00000180: 59f2 403e 5daa eebd 0998 0d3e a4f2 e6bd
00000190: 2244 32be 2cce 593b ea11 efbc 2bc6 2c3d
000001a0: 6761 393e 1e3d ec3c efcc 3f3e f2b2 27be
000001b0: 7fc6 9f3d 34d6 743d fe8b abbd 3fd2 3dbc
000001c0: c3c2 963d ee8d 52bd 306c 2c3e c546 923d
000001d0: 25c6 bd3d c783 f5bd 583e 46bd 6df9 2fbe
000001e0: e037 133e a045 8c3d 1dbb 813d 4e1f a1bd
000001f0: 790b e3bd 91ba df3c bed5 0fbd e2fd 33be
00000200: f402 f3bd 5b70 043e a862 f93d fb6d e83d
00000210: c56c dcbd 98bc 2c3d 37f2 313e d60e 2a3e
00000220: 9f81 543d ac40 37be df35 0e3d 3901 933d
00000230: 789e 24be a3e6 bdbb 0018 cd3a cb06 febd
00000240: 41d0 0f3e 17d4 58bd bc90 30be eab2 26be
00000250: 226e af3c f915 163e a90e ec3c baab 253d
00000260: 1cbc 9fbc 4f8d 45be 4d50 b93d 3d39 613d
00000270: a582 dabd 6a85 3a3d 82cb e9bd 37c0 083d
00000280: cb06 abbd 4a4d 4eba e0c9 363e 33c3 fdbd
00000290: 9fd5 323d 3c88 0c3e 69de 1ebe abdd 6d3d
000002a0: b3e6 acbd ca08 563c 2487 3a3b 0d0a 62bd
000002b0: 0a4b c4bd 4dff 353e a3fc 9d3b 27d6 edbd
000002c0: 31c2 08be 0fe9 dcbd a3b3 1c3c a8de 23bd
000002d0: cba8 42be d0e3 443c 5ed8 73bd 7eb4 1e3e
000002e0: 8063 643d 7b4d 3ebe 6062 163c 314d 01bb
000002f0: b537 19be 55c5 71bc c5e2 9d3c ae7e 883d
00000300: 6664 15be 1e32 99bc fe6b 48be 6011 30be
00000310: 64cc c3bd 4d26 5a3d ab30 c5ba 5e5a c6bd
00000320: 8fda 3a3d 420a 203e ef84 51bd 637d cbbd
00000330: 929d 343e 58de d2bd 0a36 2b3e 51cf 043e
00000340: d841 2a3e 0796 473d e0c4 24bc f828 0e3e
00000350: 8592 41be ac37 d1bd 1f99 543d c1d8 d13c
00000360: 3c1a 903d c805 56be edcb 51be 3863 19bd
00000370: 3a9b 85bd 67c3 23be 8bb0 313e 622e 023d
00000380: 263d 29be 06eb 0cbd 0f73 bebb 2125 4dbd
00000390: 38c0 02bd 0f86 13bd 8324 b4bd 4701 7fbc
000003a0: 5f9f 9dbd 20d7 053e c19a 333c 91c1 79bd
000003b0: acf7 1e3e 3ceb e53d ce5b b83b 2051 90bd
000003c0: b4e0 d9bd 9559 60bd d361 4fbd cec0 bbbd
000003d0: 5c6b d93d 3125 e93d 44da 1b3e 3064 923d
000003e0: 07ff 7fbd cacb c83d 324c e03c 7028 d2bb
000003f0: fb0d d5bd 241c 843d 071d 033c e93b b9bc

GAT_layers.0.f.bias f4 [32]
-0.06072691 0.0016423066 -0.007266699 0.06841634 0.09521742 -0.0058525084 0.091076076 -0.095607094
0.014952028 -0.027223138 0.028049283 -0.025170822 -0.0020237318 -0.023116935 0.046590045 -0.09711285
0.013094502 0.024180287 0.032734927 0.073887825 -0.07019835 -0.008294966 -0.057917178 -0.007001999
0.03768992 0.03723677 -0.08272319 -0.018475188 -0.07282914 0.003599784 0.05855795 0.059459377
00000000: c8bc 78bd aa42 d73a 7d1d eebb de1d 8c3d
00000010: 5a01 c33d 66c6 bfbb 1886 ba3d a7cd c3bd
00000020: 5af9 743c 0f03 dfbc 9cc7 e53c 0a33 cebc
00000030: 96a0 04bb ba5f bdbc 34d5 3e3d 1ae3 c6bd
00000040: 528a 563c bd15 c63c 0f15 063d 8052 973d
00000050: 27c4 8fbd 9ce7 07bc 903a 6dbd 0671 e5bb
00000060: bf60 1a3d 9585 183d c76a a9bd 4759 97bc
00000070: 7227 95bd 5bea 6b3b 76da 6f3d ad8b 733d

GAT_layers.0.w.weight f4 [1, 124]
0.02064436 -0.06296519 -0.058621645 -0.06331381 -0.10671431 -0.10242341 -0.062205385 -0.028755184
-0.13724634 0.007216412 0.04638746 0.04317859 0.17839296 0.18270448 -0.13104601 0.03303811
0.17031352 -0.1860237 0.19168724 0.0050241766 0.036503058 -0.13703732 0.10123598 -0.16269083
0.050234634 -0.063590415 0.056451786 0.03697922 -0.16451815 0.15007053 0.16535458 0.20859383
0.13524453 -0.19288692 -0.19648992 -0.0662256 0.20451546 0.16235325 -0.020954106 0.12258288
0.029591275 0.019454494 0.060765553 -0.003044615 -0.09946161 0.13986579 0.20698108 -0.011529964
0.13357165 -0.18895571 -0.08177764 0.04128475 -0.031091137 -0.07189118 -0.16300695 -0.079608485
-0.17976648 -0.07403201 0.0034526603 -0.16404238 -0.10336941 -0.022972886 0.13224654 -0.19972427
0.122911535 -0.06741673 0.12420301 -0.071962334 -0.12044102 -0.088374734 0.15879048 0.119392
-0.0021963478 0.09133021 -0.014389084 0.120960265 -0.01862675 -0.16453354 -0.051137034 -0.00817175
-0.15117893 -0.09175141 -0.14398357 -0.16290855 0.15551913 0.20431824 0.08907225 -0.05929498
-0.098350644 -0.16660772 0.14820752 -0.16185312 0.22821137 -0.17208634 0.20669903 -0.025168493
-0.094202176 -0.11508112 0.14137039 -0.16357161 0.04321855 -0.14331949 -0.13502905 -0.02447876
0.049594026 0.012761115 0.21190064 -0.014471468 -0.18701366 -0.15462698 -0.1832377 -0.09944983
-0.127827 0.018486725 0.11180227 0.13617627 -0.043017324 0.16161521 0.17250124 -0.15252739
-0.18487003 0.13258287 0.10443667 -0.19875129
00000000: 5c1e a93c e5f3 80bd 401d 70bd acaa 81bd
00000010: 088d dabd 5dc3 d1bd 13cb 7ebd fe8f ebbc
00000020: 4e8a 0cbe a777 ec3b c700 3e3d 08dc 303d
00000030: a5ac 363e e216 3b3e ed30 06be f852 073d
00000040: ab66 2e3e ff7c 3ebe a949 443e d9a1 a43b
00000050: 3b84 153d 8353 0cbe cf54 cf3d 6d98 26be
00000060: d5c2 4d3d b13b 82bd fd39 673d 8677 173d
00000070: 7277 28be 17ac 193e b652 293e 9f99 553e
00000080: 8b7d 0a3e 2684 45be a734 49be 4aa1 87bd
00000090: 806c 513e ee3f 263e f2a7 abbc bc0c fb3d
000000a0: 6769 f23c 085f 9f3c 4de5 783d 2a88 47bb
000000b0: 87b2 cbbd fa38 0f3e d9f2 533e 2de8 3cbc
000000c0: 02c7 083e 9b7d 41be 097b a7bd 331a 293d
000000d0: d7b2 febc af3b 93bd 4beb 26be c609 a3bd
000000e0: b414 38be 189e 97bd 0746 623b bafa 27be
000000f0: 57b3 d3bd a231 bcbc a36b 073e 8584 4cbe
00000100: 0bb9 fb3d c811 8abd 265e fe3d fd60 93bd
00000110: c8a9 f6bd d0fd b4bd f999 223e cb83 f43d
00000120: 9af0 0fbb 550b bb3d 31c0 6bbc 04ba f73d
00000130: 2097 98bc 7b7b 28be 1175 51bd cee2 05bc
00000140: a6ce 1abe 2ae8 bbbd 6e70 13be 80d1 26be
00000150: 6840 1f3e cd38 513e 836b b63d 4bdf 72bd
00000160: 106c c9bd 379b 2abe b6c3 173e d3bc 25be
00000170: 3eb0 693e 6737 30be e9a8 533e 282e cebc
00000180: 12ed c0bd a6af ebbd 66c3 103e 517f 27be
00000190: ef05 313d 58c2 12be 0e45 0abe ae87 c8bc
000001a0: 1b23 4b3d ff13 513c 7bfc 583e bc19 6dbc
000001b0: 8280 3fbe 8956 1ebe aaa2 3bbe 5aac cbbd
000001c0: 15e5 02be 7971 973c 97f8 e43d cb71 0b3e
000001d0: ef32 30bd 757e 253e 2aa4 303e 2430 1cbe
000001e0: 924e 3dbe cec3 073e e5e2 d53d 7585 4bbe

GAT_layers.1.f.weight f4 [64, 64]
0.08913484 0.15560511 -0.16504832 0.11140796 0.08581674 0.18266577 -0.12189581 0.1559891
-0.011220366 -0.11270636 0.18582925 0.18786025 0.11110005 -0.14131558 0.0653346 0.15890408
0.034206662 0.026799906 -0.03224493 0.1327221 0.116701245 0.09814792 -0.100338474 0.19093384
0.03736931 -0.16142075 -0.09195572 0.06593318 -0.06925823 0.13037652 -0.1742648 -0.22166002
0.058002356 0.18528827 0.17640175 -0.008801089 0.1497041 0.07688486 0.20598492 -0.18433891
0.206552 0.015413221 -0.1927379 0.16638406 0.12222232 0.0071440046 0.06723963 -0.08183188
-0.2179998 -0.15057231 -0.18696734 0.014199547 0.002825896 0.20031568 0.10630773 -0.12986985
-0.14772055 -0.13514328 -0.077771746 0.11389655 -0.21846887 -0.19602522 -0.17651927 -0.17086032
-0.16382182 0.12405116 0.12563919 0.101801865 -0.17206809 -0.12278195 0.15458785 -0.030403672
-0.021792129 -0.02916435 -0.07042288 -0.17463984 0.0059430916 0.12362001 -0.17623912 0.027862256
0.04664952 -0.16101222 -0.18781516 -0.08918308 0.03834378 0.09656796 0.17900427 0.18883511
0.19391859 0.03436549 0.033369757 -0.10796132 -0.016870763 0.17692025 -0.1391529 -0.13852969
0.16199352 -0.15104921 -0.07492657 -0.05721212 0.2088988 -0.19997203 0.15200333 -0.15282832
0.19819221 0.14185749 -0.12702934 -0.0298808 -0.20953508 -0.019465689 -0.06642406 -0.10442413
-0.10805707 -0.05885485 0.09865594 0.020353245 -0.042491943 0.13358366 0.09427147 -0.15328407
0.036780413 0.05734792 -0.19635199 0.07828424 -0.10526916 -0.21485335 -0.11587154 -0.16222967
0.10425279 0.16148812 0.048155725 -0.15783389 0.032361604 -0.092161246 0.05865616 0.02947165
0.21824706 0.069333114 0.08695631 -0.010003841 -0.025164535 0.2072942 -0.022843864 0.09858888
0.13255848 0.059100505 0.12291169 -0.019437082 -0.1543595 0.025346637 -0.04498605 -0.16489205
0.053812586 -0.012888422 0.14580221 0.04364942 -0.15946019 0.025979653 -0.107771106 -0.056066796
0.09243457 -0.1569749 -0.16527472 0.17637366 0.08365679 0.16062155 -0.09645752 0.07073095
-0.11352934 0.2078623 0.19213194 0.08149101 -0.01604488 0.09257421 -0.13413146 0.12551303
0.19109207 0.056794446 0.15214664 -0.16058907 -0.0009427305 -0.19749984 0.118405044 0.19017844
0.088227786 -0.005117411 0.035962846 0.20931652 -0.046813518 -0.0037627919 -0.07125152 0.122537225
0.14827955 0.064217456 -0.10489393 -0.18364574 -0.11018626 -0.13591066 -0.009331759 0.1233286
-0.13006946 0.21333432 -0.20303956 -0.1902976 0.117572285 0.11181154 0.100412175 0.00492585
0.09499952 -0.020626491 0.03373517 0.031573154 -0.09919425 -0.09655063 0.08518009 0.024624445
-0.008440373 -0.012404026 0.21500492 0.071498364 -0.16264273 -0.15663143 0.031984173 -0.107319176
0.044029806 0.061598636 -0.0517901 -0.09044914 -0.012244809 0.060425334 -0.13640493 -0.13680682
-0.029258912 -0.009239825 0.16730537 -0.1915894 -0.1282458 0.045618903 -0.027891962 0.07715639
0.05414437 -0.17210446 0.063477546 -0.0699102 -0.040462513 -0.071406275 0.019833053 0.13985887
-0.06411146 0.19302419 0.1486294 -0.11857089 -0.023157721 -0.018134423 -0.06662771 0.0733814
00000000: 548c b63d f256 1f3e 6d02 29be db29 e43d
00000010: b0c0 af3d bc0c 3b3e 83a4 f9bd 9bbb 1f3e
00000020: a0d5 37bc 98d2 e6bd 064a 3e3e 705e 403e
00000030: 6c88 e33d 08b5 10be 26ce 853d c0b7 223e
00000040: 491c 0c3d 7a8b db3c 4213 04bd 4de8 073e
00000050: 1001 ef3d c701 c93d 427e cdbd 2984 433e
00000060: 9010 193d 7b4b 25be 4853 bcbd fa07 873d
00000070: 42d7 8dbd 6c81 053e 7972 32be d8fa 62be
00000080: e193 6d3d 35bc 3d3e a9a2 343e 7132 10bc
00000090: 084c 193e cf75 9d3d b6ed 523e 57c3 3cbe
000000a0: 5e82 533e bc87 7c3c 165d 45be 9560 2a3e
000000b0: b24f fa3d 4118 ea3b eeb4 893d 7997 a7bd
000000c0: 573b 5fbe a12f 1abe 5e74 3fbe 37a5 683c
000000d0: ab32 393b 8e1f 4d3e deb7 d93d 9afc 04be
000000e0: 0e44 17be 0063 0abe cb46 9fbd 9842 e93d
000000f0: 4eb6 5fbe d6ba 48be 78c1 34be 02f6 2ebe
00000100: e8c0 27be 890e fe3d 8fa7 003e 7f7d d03d
00000110: 9e32 30be 1a75 fbbd 474c 1e3e 1f11 f9bc
00000120: 6885 b2bc 13ea eebc df39 90bd c9d4 32be
00000130: 44be c23b 7d2c fd3d 0778 34be 633f e43c
00000140: 9113 3f3d 63e0 24be 9e52 40be 9ea5 b6bd
00000150: 5e0e 1d3d 6cc5 c53d e54c 373e fe5d 413e
00000160: 9892 463e d4c2 0c3d baae 083d d31a ddbd
00000170: 8e34 8abc 952a 353e 197e 0ebe bada 0dbe
00000180: a1e1 253e a5ac 1abe 1a73 99bd 4257 6abd
00000190: 91e9 553e 78c5 4cbe c3a6 1b3e 077f 1cbe
000001a0: e6f2 4a3e 1743 113e fb13 02be 94c8 f4bc
000001b0: 5d90 56be 8276 9fbc 5609 88bd 51dc d5bd
000001c0: 064d ddbd c811 71bd 200c ca3d d9bb a63c
000001d0: 080c 2ebd 28ca 083e 6711 c13d 80f6 1cbe
000001e0: 0fa7 163d a7e5 6a3d 7f10 49be 7d53 a03d
000001f0: 5b97 d7bd 8402 5cbe 0f4e edbd 891f 26be
00000200: 7d82 d53d 245d 253e f03e 453d 359f 21be
00000210: 9a8d 043d 09bf bcbd 7141 703d 886e f13c
00000220: 287c 5f3e 85fe 8d3d 2616 b23d 26e7 23bc
00000230: db25 cebc ee44 543e 0e23 bbbc f7e8 c93d
00000240: 69bd 073e 5f13 723d 20b9 fb3d 843a 9fbc
00000250: 6b10 1ebe c0a3 cf3c 4b43 38bd 76d9 28be
00000260: 966a 5c3d f629 53bc 2d4d 153e bcc9 323d
00000270: 8849 23be 48d3 d43c 19b7 dcbd 4ca6 65bd
00000280: 564e bd3d 07be 20be c73d 29be 4c9b 343e
00000290: 4054 ab3d fa79 243e 858b c5bd 63db 903d
000002a0: 1282 e8bd dbd9 543e 3cbe 443e c2e4 a63d
000002b0: 8d70 83bc 8c97 bd3d c259 09be 7d86 003e
000002c0: a4ad 433e 4ba1 683d 54cc 1b3e 7671 24be
000002d0: 9321 77ba 663d 4abe 587e f23d 23be 423e
000002e0: c5b0 b43d f4af a7bb c74d 133d 1257 563e
000002f0: 88bf 3fbd 2c99 76bb 51ec 91bd ccf4 fa3d
00000300: 98d6 173e 7184 833d a1d2 d6bd a10d 3cbe
00000310: 55a9 e1bd 2a2c 0bbe 3ce4 18bc b493 fc3d
00000320: ee30 05be 5074 5a3e 9ae9 4fbe 60dd 42be
00000330: bdc9 f03d 73fd e43d e6a4 cd3d 0669 a13b
00000340: 1c8f c23d e3f8 a8bc e42d 0a3d da52 013d
00000350: 5b26 cbbd 56bc c5bd e672 ae3d 34b9 c93c
00000360: 7e49 0abc 423a 4bbc 402a 5c3e bc6d 923d
00000370: d18b 26be fd63 20be d601 033d 28ca dbbd
00000380: 9958 343d da4e 7c3d db21 54bd 663d b9bd
00000390: 749e 48bc 8e80 773d bcad 0bbe 1617 0cbe
000003a0: 63b0 efbc a362 17bc 1952 2b3e 0330 44be
000003b0: de52 03be e3da 3a3d af7d e4bc 2b04 9e3d
000003c0: 7dc6 5d3d 273c 30be 8400 823d 142d 8fbd
000003d0: 05bc 25bd 743d 92bd ed78 a23c 2a37 0f3e
000003e0: de4c 83bd 22a8 453e 4e32 183e 4bd5 f2bd
000003f0: 43b5 bdbc a48e 94bc 1c74 88bd fd48 963d

GAT_layers.1.f.bias f4 [64]
0.0777177 0.06262153 0.056572583 0.07457084 0.038732808 -0.044488914 -0.062332008 0.13273498
0.110941686 0.09924942 0.08363863 0.020708261 0.0270261 -0.015771475 0.06097418 0.05221544
-0.09363497 0.04297666 -0.01874052 -0.04853711 -0.0819812 0.13562979 0.10042742 0.05848703
0.03609121 -0.10136945 0.08016646 0.063739605 -0.0707944 -0.10031662 0.067426525 -0.08857458
0.03272893 0.035083998 -0.043860182 -0.08894537 -0.016470015 -0.060509983 -0.1128301 0.12052947
0.027712384 -0.082738735 -0.096829854 0.023202773 0.09749648 -0.12497705 0.097795226 0.057555877
0.069452636 -0.06669476 0.0701572 0.07394639 -0.06781216 -0.074034154 0.083265655 -0.022553422
0.0267418 0.017821655 0.09371746 8.099863e-05 -0.04790572 0.001845872 0.0050052246 -0.0061473697
00000000: 752a 9f3d b73f 803d a7b8 673d 99b8 983d
00000010: 4ba6 1e3d 023a 36bd d94f 7fbd aeeb 073e
00000020: 6535 e33d 4843 cb3d bb4a ab3d 5fa4 a93c
00000030: d765 dd3c 2e33 81bc 10c0 793d dbdf 553d
00000040: b1c3 bfbd 4b08 303d b885 99bc d9ce 46bd
00000050: c2e5 a7bd 89e2 0a3e e4ac cd3d 1990 6f3d
00000060: 60d4 133d c99a cfbd 502e a43d e989 823d
00000070: a8fc 90bd cd72 cdbd eb16 8a3d 9766 b5bd
00000080: c50e 063d 3db4 0f3d bca6 33bd fd28 b6bd
00000090: 20ec 86bc 51d9 77bd 7813 e7bd 28d8 f63d
000000a0: 1505 e33c ed72 a9bd bb4e c6bd be13 be3c
000000b0: 3cac c73d f8f3 ffbd dd48 c83d b6bf 6b3d
000000c0: 2f3d 8e3d 4397 88bd 94ae 8f3d 3471 973d
000000d0: 1ae1 8abd 389f 97bd 2f87 aa3d f4c1 b8bc
000000e0: 9f11 db3c b8fe 913c f1ee bf3d cfdd a938
000000f0: ca38 44bd 30f1 f13a de02 a43b e06f c9bb

GAT_layers.1.w.weight f4 [1, 64]
-0.02233747 0.08603903 -0.1671834 0.1922757 0.18905094 0.26568532 0.26747027 0.13490243
0.012517061 -0.04824646 -0.04743668 -0.100014806 0.27217624 -0.19060048 0.06520039 -0.17524424
-0.1670999 -0.16152413 0.17960934 -0.07485492 0.1521459 0.03201253 0.047134418 -0.21071766
-0.09819962 -0.07151169 0.13202572 0.107843824 0.14186256 -0.10029855 0.19395946 -0.18849611
-0.2705112 -0.021644004 0.2448814 -0.07507603 0.13900457 0.16289562 0.15241146 -0.21718019
-0.008575326 0.019798832 0.21772495 -0.032679044 0.24992414 0.1984311 0.17024587 0.037629534
-0.27514258 0.08503044 0.06283585 -0.20072874 0.047872692 -0.067915194 -0.12728333 0.051868256
-0.29198104 0.22262713 -0.17231889 -0.23355247 0.0069880863 0.22187538 -0.08051096 0.035890486
00000000: 12fd b6bc 3b35 b03d 2032 2bbe ece3 443e
00000010: 9296 413e e807 883e ddf1 883e dd23 0a3e
00000020: 5c14 4d3c 149e 45bd f74c 42bd 90d4 ccbd
00000030: af5a 8b3e c62c 43be c887 853d 3a73 33be
00000040: 3c1c 2bbe 9566 25be 83eb 373e 894d 99bd
00000050: 23cc 1b3e 921f 033d 0510 413d 5fc6 57be
00000060: e21c c9bd b974 92bd c031 073e 39dd dc3d
00000070: 6b44 113e 5469 cdbd 4f9d 463e 2005 41be
00000080: 7280 8abe c44e b1bc 31c2 7a3e 76c1 99bd
00000090: 3757 0e3e 1cce 263e c011 1c3e 7c64 5ebe
000000a0: 867f 0cbc 2931 a23c 4af3 5e3e 76da 05bd
000000b0: 1dec 7f3e 8631 4b3e ef54 2e3e 6d21 1a3d
000000c0: 7ddf 8cbe 7024 ae3d 15b0 803d d68b 4dbe
000000d0: 2816 443d 1f17 8bbd 9056 02be cf73 543d
000000e0: 8a7e 95be 5ef8 633e 5d74 30be 6128 6fbe
000000f0: 51fc e43b 4d33 633e eee2 a4bd e701 133d

GAT_layers.2.f.weight f4 [64, 128]
-0.013094812 0.024759293 0.10060507 -0.035437617 0.0854886 0.0040724 -0.08495054 -0.027006181
-0.066824585 -0.028843144 0.08481666 0.07757844 -0.15114309 0.10588311 0.03309691 0.04800219
-0.16247483 0.17294861 0.15675315 0.14758718 0.108142875 -0.12424319 -0.16645725 0.043969974
0.0042463792 -0.14822254 0.08489115 0.051210694 -0.13341853 -0.022962108 0.06268503 0.027378967
0.09336638 -0.041767817 -0.12070263 -0.075941645 -0.028252212 -0.05781302 0.033162154 -0.0032748368
0.061277803 -0.08611657 -0.12166291 -0.09738189 0.15052098 -0.021212492 0.1544583 -0.16152158
0.13427107 -0.15815613 0.116348304 -0.107503965 -0.117865525 -0.15467717 0.022359388 0.15926798
-0.13260348 0.1230619 -0.10818668 0.13794567 -0.01215043 0.15854113 -0.11217932 -0.121723786
0.13485767 0.07857227 0.139955 -0.059418794 0.11824608 -0.031010566 0.014473565 -0.098759204
-0.041979186 -0.092771135 -0.054482568 0.10161578 0.08154237 -0.06356594 -0.10346363 0.18000303
0.042481896 0.05039658 -0.13491872 0.09044855 -0.026234277 -0.12725013 -0.17453358 -0.16365238
-0.050900444 0.17313434 -0.15751767 0.0007979526 -0.026788233 -0.09052413 0.036714584 -0.01543371
-0.16352986 0.075616956 0.06927344 -0.16587293 -0.010888406 0.11208159 -0.069324315 -0.0040986487
-0.06528296 -0.025932107 0.035621062 -0.088478394 0.14109346 -0.101830274 -0.107206926 -0.09125106
-0.10780432 0.04185533 -0.12593462 -0.089736834 0.109759085 0.00685631 0.03201991 0.17023394
0.16553767 -0.0036911787 0.11978895 -0.13337491 -0.06255886 -0.07352201 0.115538925 -0.1707841
0.02872889 -0.02878198 -0.15304187 0.0032577957 -0.13957772 -0.17381695 0.13522571 -0.06466619
0.15823579 0.1125428 -0.040249962 0.17129068 -0.0042012827 0.05611937 -0.1591101 0.1365597
0.02542357 0.062755495 -0.13741982 -0.1495648 -0.16211031 -0.12074671 -0.0048699267 0.07217459
-0.084856145 -0.05958953 0.04910824 -0.08313537 0.053649053 -0.16193081 0.112858206 -0.041567933
-0.111587726 0.009227469 0.020323906 -0.17654273 -0.07245271 -0.1406142 0.0023837674 0.17056823
0.024640774 -0.048044506 0.106689475 0.020368885 -0.124578856 -0.06979926 0.023948822 0.0295185
-0.0688602 -0.06804369 -0.080338635 -0.13580292 0.13499369 0.09102179 -0.075754404 -0.13268521
0.1566993 0.14561826 -0.11026538 0.0014999296 -0.00061700674 0.0053545022 -0.06937762 0.17557144
0.14241801 -0.056376867 0.08593963 0.04616947 -0.073070675 -0.06162057 -0.1310644 0.16859049
0.14135522 -0.11289386 0.09904386 0.15676634 0.07398876 -0.026305972 0.08586553 0.037698302
-0.058712002 0.15798149 -0.0057213926 0.13819198 -0.08378008 0.11276017 -0.13240735 0.13769837
0.16029014 0.060438015 -0.008660909 -0.112473205 -0.122003704 -0.019902991 -0.13801715 0.13687988
-0.034982506 -0.1526732 -0.16266802 0.035713937 0.03737724 -0.1622314 -0.16280529 -0.025613016
0.14895721 0.16474716 0.09292368 0.04497367 -0.08082757 -0.14225648 -0.13337885 0.031783033
0.020938957 -0.116620235 0.16581704 0.0926844 -0.1301556 0.04984183 -0.05898599 0.07151352
-0.072705775 -0.08410121 -0.03742811 0.008661349 -0.13413084 0.14448301 -0.049627468 0.014403558
00000000: 9f8b 56bc 00d4 ca3c 080a ce3d 0927 11bd
00000010: a614 af3d c471 853b 8cfa adbd 113c ddbc
00000020: 54db 88bd 7548 ecbc 5bb4 ad3d 72e1 9e3d
00000030: 41c5 1abe 3ed9 d83d a090 073d f29d 443d
00000040: cd5f 26be 7119 313e e683 203e 1821 173e
00000050: 037a dd3d 3773 febd c573 2abe dc19 343d
00000060: 3625 8b3b a6c7 17be 69db ad3d 4ec2 513d
00000070: de9e 08be 081b bcbc 0261 803d db49 e03c
00000080: df36 bf3d bb14 2bbd f132 f7bd 4b87 9bbd
00000090: 2f71 e7bc 58cd 6cbd 0ad5 073d a59e 56bb
000000a0: 6ffe 7a3d e25d b0bd 672a f9bd 2870 c7bd
000000b0: 2c22 1a3e d2c5 adbc 512a 1e3e ea65 25be
000000c0: 5b7e 093e aef3 21be 0548 ee3d 0a2b dcbd
000000d0: 7b63 f1bd b163 1ebe 092b b73c 2517 233e
000000e0: 35c9 07be e107 fc3d fa90 ddbd a141 0d3e
000000f0: 9912 47bc 9b58 223e 45be e5bd 524a f9bd
00000100: 2118 0a3e 80ea a03d 5d50 0f3e 1f61 73bd
00000110: 002b f23d df09 febc 8822 6d3c 4442 cabd
00000120: 5ef2 2bbd cbfe bdbd 1d29 5fbd ef1b d03d
00000130: b0ff a63d dc2e 82bd bde4 d3bd b752 383e
00000140: 7f01 2e3d a56c 4e3d 2228 0abe 173d b93d
00000150: 44e9 d6bc dc4d 02be eeb8 32be 7d94 27be
00000160: fc7c 50bd 214a 313e 504c 21be b12d 513a
00000170: ff72 dbbc b764 b9bd 0862 163d acdd 7cbc
00000180: 5f74 27be 10dd 9a3d 3cdf 8d3d 98da 29be
00000190: 4965 32bc 088b e53d e8f9 8dbd f54d 86bb
000001a0: 13b3 85bd 926f d4bc 64e7 113d 2934 b5bd
000001b0: ce7a 103e 648c d0bd 4e8f dbbd d6e1 babd
000001c0: 83c8 dcbd 7f70 2b3d 01f5 00be f2c7 b7bd
000001d0: 5fc9 e03d e6aa e03b 4f27 033d ce51 2e3e
000001e0: b582 293e b4e7 71bb e953 f53d 6f93 08be
000001f0: dc1e 80bd b592 96bd ac9f ec3d 07e2 2ebe
00000200: d958 eb3c 30c8 ebbc 02b7 1cbe be80 553b
00000210: 76ed 0ebe 12fd 31be 9c78 0a3e b56f 84bd
00000220: 9008 223e d77c e63d 25dd 24bd d366 2f3e
00000230: eaaa 89bb 6ddd 653d c2ed 22be 4ed6 0b3e
00000240: 1745 d03c f485 803d c8b7 0cbe 8427 19be
00000250: 3f00 26be 0d4a f7bd e893 9fbb 45d0 933d
00000260: 0fc9 adbd 2714 74bd b925 493d e042 aabd
00000270: 1cbf 5b3d 31d1 25be 3422 e73d 2343 2abd
00000280: 1b88 e4bd cf2e 173c 527e a63c 9ec7 34be
00000290: 1662 94bd 2bfd 0fbe fb38 1c3b 70a9 2e3e
000002a0: 73db c93c 51ca 44bd 0380 da3d a6dc a63c
000002b0: 3323 ffbd eaf2 8ebd 5230 c43c c8d0 f13c
000002c0: 9406 8dbd 7d5a 8bbd 9588 a4bd ec0f 0bbe
000002d0: c93b 0a3e a269 ba3d 2025 9bbd a2de 07be
000002e0: c875 203e f41c 153e d1d2 e1bd 4999 c43a
000002f0: 9fbe 21ba d274 af3b db15 8ebd 00c9 333e
00000300: 07d6 113e 6eeb 66bd 1e01 b03d 331c 3d3d
00000310: 14a6 95bd da65 7cbd bf35 06be fca2 2c3e
00000320: 6cbf 103e e534 e7bd 82d7 ca3d 5b87 203e
00000330: 6b87 973d 9f7f d7bc 44da af3d 8969 1a3d
00000340: ff7b 70bd e6c5 213e 857a bbbb 3382 0d3e
00000350: e494 abbd ceee e63d cb95 07be cd00 0d3e
00000360: 1923 243e da8d 773d 7ce6 0dbc 5a58 e6bd
00000370: 14dd f9bd 990b a3bc 5e54 0dbe 3d2a 0c3e
00000380: d149 0fbd 5d56 1cbe 7292 26be c748 123d
00000390: e018 193d fd1f 26be 6eb6 26be 63d2 d1bc
000003a0: 3d88 183e 7bb3 283e c54e be3d 5036 383d
000003b0: ed88 a5bd afab 11be 7794 08be ed2e 023d
000003c0: 2d88 ab3c 97d6 eebd f1cb 293e 52d1 bd3d
000003d0: 8247 05be f226 4c3d 4b9b 71bd ae75 923d
000003e0: c4e6 94bd 413d acbd 384e 19bd 55e8 0d3c
000003f0: 9859 09be 5bf3 133e 2c46 4bbd e7fc 6b3c

GAT_layers.2.f.bias f4 [64]
-0.07169622 0.18345052 -0.072025515 -0.07798809 0.19296841 -0.019392861 0.22898392 -0.010374681
0.24386294 0.21095774 -0.037603073 -0.024356782 -0.023462698 0.26356074 0.21823429 -0.011152434
-0.03578007 -0.08869392 -0.028794657 -0.02921053 0.21476412 -0.0808364 -0.019794257 -0.057280313
-0.08097678 -0.0586662 -0.055903874 -0.07574013 0.23824677 0.21485746 0.24106114 -0.019432733
0.1981619 0.20433474 0.24978189 -0.023718018 -0.019593138 0.2615417 0.25015694 -0.0113897
-0.017576681 -0.0067908145 0.19887759 -0.025691397 -0.011700691 0.08511733 -0.06301879 0.1749631
0.13199346 0.18341307 -0.055038482 0.26124924 -0.08473649 -0.04189256 0.17738871 0.11920566
-0.023878809 -0.020401748 0.17097354 0.18127503 -0.070459455 -0.06680635 -0.026947921 -0.011932426
00000000: 78d5 92bd 74da 3b3e 1d82 93bd 38b8 9fbd
00000010: 8399 453e c7dd 9ebc c37a 6a3e 91fa 29bc
00000020: 35b7 793e 4e05 583e ae05 1abd e087 c7bc
00000030: d834 c0bc 6ff1 863e cf78 5f3e b3b8 36bc
00000040: 1f8e 12bd 28a5 b5bd c6e2 ebbc ec4a efbc
00000050: 20eb 5b3e 8e8d a5bd 9127 a2bc c39e 6abd
00000060: 27d7 a5bd f84b 70bd 76fb 64bd a41d 9bbd
00000070: f6f6 733e 9803 5c3e bbd8 763e 6531 9fbc
00000080: f4ea 4a3e 203d 513e d3c6 7f3e 4a4c c2bc
00000090: ca81 a0bc cbe8 853e 9214 803e dd9b 3abc
000000a0: f9fc 8fbc 7b85 debb 91a6 4b3e c476 d2bc
000000b0: 41b4 3fbc ff51 ae3d ff0f 81bd 8729 333e
000000c0: 4b29 073e a3d0 3b3e 0870 61bd 76c2 853e
000000d0: 538a adbd 8897 2bbd 63a5 353e 1922 f43d
000000e0: 7e9d c3bc 9121 a7bc b013 2f3e 29a0 393e
000000f0: 0c4d 90bd c5d1 88bd e3c1 dcbc 3980 43bc

GAT_layers.2.w.weight f4 [1, 128]
0.20506842 -0.024661751 -0.118355036 0.04714023 0.05139425 0.15087195 -0.021648701 -0.10288578
-0.04292441 0.079886526 0.16450652 -0.05883366 0.15092525 -0.022370987 -0.06076552 0.1333654
0.09326626 0.14721987 -0.120167844 -0.031077106 0.19440079 0.13822237 0.018483907 -0.06037568
0.11893288 -0.1256507 0.18453547 -0.15605931 0.12613326 -0.12326754 0.020793326 0.008088536
0.1668515 0.06034966 -0.028327422 0.0012289064 -0.115295626 -0.11244763 -0.011145968 -0.12369567
-0.09699823 0.08060137 -0.19470161 0.15021376 0.028314104 -0.02996836 0.20169874 0.021944812
0.017724609 -0.08438617 0.030481946 -0.2178707 -0.032295953 -0.21735407 -0.056584682 0.20510313
-0.030186825 -0.1043082 -0.16059639 0.19722174 -0.0088262465 0.07031197 0.03974319 -0.01587328
-0.0073979786 -0.071000926 -0.21008103 -0.10697131 -0.11293186 0.1319684 -0.012194883 -0.017421229
0.051356867 -0.09972491 0.18568932 0.2051485 -0.004725253 0.06878166 0.17831399 0.10489916
-0.065382175 0.009192674 -0.08352376 -0.1887165 -0.034758326 0.18080592 -0.11456326 0.07793017
0.24286385 -0.18274449 0.21097232 0.1611799 0.106417336 0.1652702 -0.13362738 0.14496452
-0.09053768 0.05152244 0.14993155 -0.19034173 0.017065806 -0.09710214 -0.0902936 0.1191929
-0.14569306 -0.1959173 0.07349396 -0.10452951 0.036930513 -0.12650485 0.18537709 0.20262761
0.17689312 -0.06815803 0.15155351 0.04234177 -0.020231573 0.021855377 0.102772325 0.09332847
-0.011098593 -0.17275657 0.013863066 0.085940905 -0.043175645 0.06349849 0.05760123 0.04457665
00000000: 75fd 513e 7107 cabc 2064 f2bd 1d16 413d
00000010: c782 523d 2d7e 1a3e 9e58 b1bc c8b5 d2bd
00000020: 82d1 2fbd 8c9b a33d 6674 283e 90fb 70bd
00000030: 268c 1a3e 5c43 b7bc 44e5 78bd f090 083e
00000040: 6202 bf3d cec0 163e 8f1a f6bd 6a95 febc
00000050: 0011 473e 2a8a 0d3e 906b 973c 7d4c 77bd
00000060: 1593 f33d 94aa 00be def6 3c3e 03ce 1fbe
00000070: 1429 013e b173 fcbd c456 aa3c c785 043c
00000080: 1fdb 2a3e 3531 773d e90e e8bc 4213 a13a
00000090: 1d20 ecbd f14a e6bd 949d 36bc 2854 fdbd
000000a0: 02a7 c6bd 5512 a53d dc5f 47be a3d1 193e
000000b0: fbf2 e73c 3580 f5bc 1d8a 4e3e 9bc5 b33c
000000c0: 3333 913c a8d2 acbd 46b5 f93c 7f19 5fbe
000000d0: c348 04bd 1192 5ebe 57c5 67bd 8e06 523e
000000e0: 5c4a f7bc 8a9f d5bd 6173 24be 7ff4 493e
000000f0: f69b 10bc b9ff 8f3d c1c9 223d ae08 82bc
00000100: be6a f2bb ef68 91bd 7b1f 57be c613 dbbd
00000110: d248 e7bd b922 073e 0ccd 47bc f7b6 8ebc
00000120: 945b 523d 933c ccbd 5725 3e3e 7312 523e
00000130: 4cd6 9abb 66dd 8c3d f197 363e 5fd5 d63d
00000140: 17e7 85bd df9c 163c 810e abbd e63e 41be
00000150: bf5e 0ebd 3025 393e 24a0 eabd da99 9f3d
00000160: 4db1 783e 5f21 3bbe 2109 583e 580c 253e
00000170: 55f1 d93d 973c 293e 9ed5 08be 9471 143e
00000180: d26b b9bd 3209 533d a887 193e f1e8 42be
00000190: 97cd 8b3c 7ddd c6bd daeb b8bd 681b f43d
000001a0: 9030 15be 8b9e 48be 0084 963d 9113 d6bd
000001b0: 7344 173d 7d8a 01be 7ed3 3d3e 9d7d 4f3e
000001c0: 7823 353e 7096 8bbd d830 1b3e 906e 2d3d
000001d0: afbc a5bc 0c0a b33c 4c7a d23d ff22 bf3d
000001e0: dfd6 35bc 19e7 30be ea21 633c c901 b03d
000001f0: f2d8 30bd 7f0b 823d 44ef 6b3d 0196 363d

MLP_layers.0.weight f4 [32, 64]
0.0061305542 -0.033397544 -0.09887336 -0.0662676 -0.08555339 0.05245658 -0.011516203 -0.116990775
0.09322787 0.038821597 0.11749925 0.10673452 0.053492002 -0.094442494 0.107808515 -0.011284201
-0.07818125 0.037524953 -0.008129881 -0.01790752 0.06061543 0.11817083 -0.007011522 -0.056970637
-0.08989762 0.03448441 -0.030004544 0.06010702 0.0805669 0.014025131 0.09969903 0.11700628
-0.051862214 -0.07254314 -0.044983458 -0.028047198 0.011234491 0.05016797 0.012606013 -0.10708291
0.027682012 0.09725265 -0.017656 0.0018583941 0.105385154 -0.0072573028 0.09755266 -0.12799346
0.010691604 -0.07521146 0.10886252 -0.07760461 -0.10058022 -0.03108909 -0.008953488 -0.02920554
-0.0586102 0.00053607696 -0.03859652 0.09697707 0.07245832 0.010551962 0.043575436 -0.061275437
-0.11226209 0.15002033 0.081110395 -0.119471215 0.21067154 -0.020244827 0.069956735 0.0038877905
0.27068835 0.16480106 0.048534043 -0.09714639 -0.04908704 0.2873444 0.17272754 -0.041729867
-0.043747116 -0.05713439 0.008893008 0.031009376 0.21513896 -0.07682934 0.070017375 -0.0042824442
-0.11389872 0.10935469 -0.098675944 -0.029210785 0.10464141 0.26169157 0.1890213 -0.029578863
0.18304747 0.06912069 0.27508074 -0.084400006 -0.1212929 0.12991972 0.15204567 -0.059719943
0.04010691 -0.114129186 0.243715 0.09232262 -0.027837398 0.16842112 -0.09212592 0.08622817
0.27802107 0.06808772 -0.016080089 0.14074823 -0.036253847 -0.013802232 0.27918318 0.03879766
-0.05175123 0.0030773133 0.07539567 0.07178412 -0.08615991 0.09927619 0.117638886 -0.11317204
0.0017683215 -0.067213535 0.08122112 -0.004759032 -0.120738074 0.026928421 -0.07577568 -0.121325426
0.0028042952 -0.0692985 0.01927285 0.08515354 -0.051917013 0.006686805 -0.022894545 -0.023070384
-0.09342402 0.053993914 -0.10359998 -0.11795908 0.021271292 0.09212941 0.004073991 -0.09038581
0.09097515 -0.016886849 -0.09978205 0.049805194 0.07062524 0.12127523 -0.110117085 0.083895154
-0.064907596 0.05304046 -0.033623457 -0.1052639 -0.0017116617 0.03736465 0.0020586823 0.042719826
-0.022000352 -0.005288251 0.052397534 -0.04931572 -0.062208842 0.041072436 0.06934126 -0.0547857
0.081768826 0.041429684 -0.026210267 0.00059831643 0.012349059 0.10526742 -0.038098283 0.11998042
0.017420184 0.043183666 0.012890429 -0.06714972 0.102497794 -0.052265503 0.047415294 -0.020131662
0.006532062 0.17559536 0.10765799 -0.12880924 0.20242883 -0.080187015 0.26616442 -0.09822489
0.23408604 0.05717706 -0.028664524 -0.077957675 0.007174745 0.04052851 0.0590183 0.045046676
-0.022686701 0.06739856 -0.05642421 -0.059626993 0.14957513 -0.10528532 -0.023287391 0.048537605
0.06892638 0.108458914 0.08480158 -0.11613692 0.1823946 0.25532815 0.20861891 -0.09652086
0.13399549 0.12592104 0.1308976 -0.076990806 0.1105011 0.03819044 0.15487477 -0.089696646
-0.10885393 0.044922143 0.12898254 -0.04359889 -0.038175393 0.04323745 -0.06843649 0.22390242
0.08800425 0.17955902 -0.09156012 0.13140635 -0.031806227 0.018615507 0.23158495 -0.020516323
0.10128909 0.019554928 -0.02429219 0.040721133 -0.05178408 0.03744182 -0.10908301 0.044857204
00000000: d1e2 c83b ddcb 08bd 1e7e cabd 4fb7 87bd
00000010: 9e36 afbd b6dc 563d 75ae 3cbc dc98 efbd
00000020: 41ee be3d 6503 1f3d 72a3 f03d a197 da3d
00000030: 6e1a 5b3d 116b c1bd b6ca dc3d 5fe1 38bc
00000040: 7e1d a0bd c4b3 193d 3133 05bc cbb2 92bc
00000050: e347 783d 8c03 f23d e9c0 e5bb 0b5a 69bd
00000060: 3e1c b8bd 863f 0d3d 17cc f5bc c732 763d
00000070: 4200 a53d aac9 653c 012f cc3d fda0 ef3d
00000080: 796d 54bd 7f91 94bd 9340 38bd 3dc3 e5bc
00000090: df10 383c ee7c 4d3d 7389 4e3c 494e dbbd
000000a0: 63c5 e23c 662c c73d 51a3 90bc 5c95 f33a
000000b0: 2cd4 d73d abce edbb b0c9 c73d b810 03be
000000c0: d62b 2f3c 7708 9abd 50f3 de3d 2aef 9ebd
000000d0: 01fd cdbd 8cae febc a7b1 12bc 7540 efbc
000000e0: 4011 70bd 8487 0c3a 6217 1ebd ea9b c63d
000000f0: 0765 943d 23e2 2c3c 287c 323d f4fb 7abd
00000100: abe9 e5bd ee9e 193e 351d a63d 53ad f4bd
00000110: 48ba 573e 7bd8 a5bc 7a45 8f3d 4dca 7e3b
00000120: aa97 8a3e 9cc1 283e a2cb 463d b0f4 c6bd
00000130: 7e0f 49bd ce1e 933e 7ddf 303e f0ec 2abd
00000140: 2d30 33bd c005 6abd fbb3 113c 6007 fe3c
00000150: 634d 5c3e b358 9dbd 4565 8f3d bf53 8cbb
00000160: bb43 e9bd 5af5 df3d 9d16 cabd 754b efbc
00000170: 3c4e d63d 70fc 853e cd8e 413e 5f4f f2bc
00000180: cc70 3b3e 268f 8d3d 62d7 8c3e e9d9 acbd
00000190: 6968 f8bd ad09 053e dcb1 1b3e e69c 74bd
000001a0: 2547 243d 90bc e9bd 6d90 793e a413 bd3d
000001b0: 410b e4bc 9676 2c3e 84ac bcbd 6598 b03d
000001c0: c758 8e3e 9371 8b3d 64ba 83bc 4e20 103e
000001d0: ea7e 14bd c222 62bc 19f1 8e3e 4cea 1e3d
000001e0: 19f9 53bd c0ac 493b 0c69 9a3d 8d03 933d
000001f0: 9b74 b0bd 5151 cb3d a8ec f03d bec6 e7bd
00000200: 06c7 e73a 40a7 89bd 4257 a63d a7f1 9bbb
00000210: 8645 f7bd fe98 dc3c 4830 9bbd 7779 f8bd
00000220: 44c8 373b 5fec 8dbd 19e2 9d3c fb64 ae3d
00000230: efa6 54bd fc1c db3b 578d bbbc 1afe bcbc
00000240: 1855 bfbd b928 5d3d 3a2c d4bd 8894 f1bd
00000250: 2241 ae3c 58ae bc3d 1d7f 853b 321c b9bd
00000260: 2e51 ba3d 4a56 8abc 885a ccbd 8800 4c3d
00000270: f7a3 903d 265f f83d 1185 e1bd 39d1 ab3d
00000280: 46ee 84bd f440 593d c0b8 09bd 9994 d7bd
00000290: d659 e0ba ad0b 193d f5ea 063b fcfa 2e3d
000002a0: 153a b4bc 1149 adbb cc9e 563d 48ff 49bd
000002b0: b3ce 7ebd 923b 283d ca02 8e3d f866 60bd
000002c0: 6a76 a73d 2cb2 293d eab6 d6bc 56d8 1c3a
000002d0: b553 4a3c 7296 d73d f20c 1cbd 4bb8 f53d
000002e0: c6b4 8e3c 5be1 303d 6132 533c cb85 89bd
000002f0: 5dea d13d 5a14 56bd 8a36 423d 28eb a4bc
00000300: e80a d63b 45cf 333e cb7b dc3d 92e6 03be
00000310: 8149 4f3e 1739 a4bd b446 883e 222a c9bd
00000320: 40b4 6f3e 7e32 6a3d ddd1 eabc 46a8 9fbd
00000330: 201a eb3b 3901 263d 2cbd 713d dd82 383d
00000340: 76d9 b9bc 4208 8a3d 131d 67bd 6f3b 74bd
00000350: 392a 193e d49f d7bd 33c5 bebc 5ecf 463d
00000360: 4629 8d3d b51f de3d 73ac ad3d 32d9 edbd
00000370: a6c5 3a3e 5fba 823e 32a0 553e bbac c5bd
00000380: 1d36 093e 72f1 003e 050a 063e 5bad 9dbd
00000390: 674e e23d 946d 1c3d 7e97 1e3e e0b2 b7bd
000003a0: cfee debd 4800 383d 0014 043e c094 32bd
000003b0: cd5d 1cbd c119 313d 6e28 8cbd ad46 653e
000003c0: 923b b43d 52de 373e df83 bbbd 638f 063e
000003d0: 3f47 02bd 8c7f 983c 9b24 6d3e d911 a8bc
000003e0: a870 cf3d a831 a03c 6a00 c7bc 34cb 263d
000003f0: 8b1b 54bd 985c 193d ea66 dfbd 30bc 373d

MLP_layers.0.bias f4 [32]
-0.100120164 0.22887264 -0.01994608 0.069897935 0.27353716 0.16144857 0.079677396 -0.000112864356
-0.12885685 0.2107315 -0.12507561 -0.013154748 -0.1242478 0.020215373 -0.073460564 -0.06338195
-0.0023561986 -0.010550639 0.024670506 -0.024628969 0.050610237 0.27001303 -0.09117763 0.006127974
-0.019115154 0.2239287 0.29395008 -0.077523224 0.2523577 -0.047583852 0.2358641 0.04752206
00000000: cd0b cdbd 975d 6a3e f665 a3bc a626 8f3d
00000010: 100d 8c3e c652 253e e72d a33d 97b1 ecb8
00000020: 0df3 03be 00ca 573e d213 00be 0387 57bc
00000030: a175 febd b69a a53c 7e72 96bd 65ce 81bd
00000040: 746a 1abb 96dc 2cbc cd19 ca3c b1c2 c9bc
00000050: ae4c 4f3d 263f 8a3e 56bb babd 2ccd c83b
00000060: 6297 9cbc 914d 653e a080 963e 7fc4 9ebd
00000070: 0735 813e 49e7 42bd 5c86 713e 7ea6 423d

MLP_layers.1.weight f4 [1, 32]
-0.11155088 0.27009073 -0.063318245 0.22339691 0.34646833 0.28712985 0.17031933 -0.09553434
-0.09215487 0.25189468 -0.01566321 -0.11040942 -0.10521117 -0.006477947 0.17012452 -0.07428785
0.057911996 -0.030095315 -0.0793272 -0.05710563 -0.04635258 0.19012083 -0.10323996 -0.093089126
-0.06744378 0.26304856 0.25317433 -0.004830315 0.32046968 0.11603745 0.16315739 -0.039631
00000000: ca74 e4bd 5549 8a3e ffac 81bd 29c2 643e
00000010: 4c64 b13e af02 933e 3168 2e3e 82a7 c3bd
00000020: b1bb bcbd 57f8 803e 2250 80bc 561e e2bd
00000030: f478 d7bd f544 d4bb 1f35 2e3e 3a24 98bd
00000040: 2135 6d3d 738a f6bc 4d76 a2bd 98e7 69bd
00000050: 34dc 3dbd 09af 423e 796f d3bd 83a5 bebd
00000060: f71f 8abd 4dae 863e 11a0 813e 9e47 9ebb
00000070: 9a14 a43e 0ba5 ed3d bb12 273e 1e54 22bd
