SLIC_GAT/best2.pt (torch, 74869 bytes, 12 tensors)

GAT_layers.0.f.weight f4 [32, 82]
0.120892845 0.23061584 -0.07907207 -0.12458751 0.124648176 -0.030223515 -0.12870441 0.1231441
0.19009827 0.19344825 -0.14708494 -0.13599114 0.08853017 -0.02434813 0.15922377 0.17876086
0.21339668 0.035004586 -0.0033318447 -0.108332515 -0.11992758 0.058864295 -0.017641312 0.00815645
-0.15942343 0.07690754 -0.15521264 0.00555669 -0.06263878 0.101087555 0.03356752 0.053998668
-0.10269585 -0.061410695 0.080772914 -0.17220606 0.12956746 0.21300045 0.09516516 0.1920401
0.1798357 -0.031070132 0.10556703 0.19347455 0.072907135 -0.055141233 -0.08034656 0.015622861
0.18045545 -0.09528412 0.08117941 -0.18470564 -0.19232738 -0.053599082 -0.06626308 -0.107418984
0.07333674 -0.18804735 0.15183803 -0.12752362 -0.016136916 0.17203163 -0.010572803 0.12614147
0.19510221 -0.04029406 -0.19876347 -0.109226644 0.100094005 -0.012834092 0.07606879 0.118716046
0.16548519 0.05869986 -0.18582793 -0.2054799 -0.0837634 -0.04035056 0.13195482 0.22980456
-0.13934524 -0.0018154932 0.06654558 -0.03970129 0.21747155 0.1645205 0.17626898 -0.19804075
-0.18797377 0.15545394 0.120648526 -7.7769946e-05 0.2138876 0.076277815 0.17277162 -0.21408671
0.13448776 0.08409979 0.14646061 -0.1235865 0.024076562 -0.10555791 -0.10053544 0.094351895
0.15178691 -0.17424312 -0.112969734 -0.091021776 -0.17703629 -0.08739063 -0.10057702 -0.115369596
-0.21561852 -0.16528301 0.06360472 -0.056692816 0.14660566 -0.13841775 -0.04898192 -0.16506799
0.02890815 0.18680875 0.077716134 -0.015271967 -0.026120635 0.17392309 -0.112735644 0.15820856
0.21323702 -0.1317899 -0.11461737 -0.05848102 -0.23495643 0.17606267 -0.10139115 -0.100830406
-0.013250941 0.14046401 0.08425315 -0.14620845 0.14412256 -0.07825471 0.040567238 -0.15686148
-0.18853182 0.21291158 -0.0035857607 -0.13924032 0.17740455 -0.07801822 -0.10467453 -0.21862239
0.10309405 -0.10166713 0.16292189 -0.05671658 0.061744817 0.047508955 -0.007345735 0.00035050747
0.18660265 -0.1490322 0.031777464 0.06737464 -0.18567565 0.16089489 -0.21543284 0.23147984
-0.15583749 0.1767274 0.14315031 0.09527197 0.2188849 0.18228106 0.1311652 -0.1815948
-0.0010300128 0.050568394 0.19177763 -0.19452563 0.07421948 -0.041439302 -0.0033101158 0.12307333
0.17088796 0.14111574 -0.02950031 -0.13954756 -0.12464776 0.17888868 -0.16776328 -0.19035274
0.07315604 -0.11926407 -0.15786313 0.1965326 -0.09294737 0.016810335 0.13830325 0.0886489
0.099372886 0.10990111 0.21513946 -0.030621994 0.048134744 -0.22310247 -0.12855946 -0.1450256
-0.06978581 0.0026376059 0.0693041 0.031279102 0.21641496 0.13668661 0.090600505 -0.10600963
-0.14797124 -0.14801235 0.17900944 -0.19234574 -0.20109388 0.01838151 -0.22134314 0.038281064
0.13034263 0.21221209 -0.15577596 0.087291725 -0.15844417 0.13539326 -0.10838946 0.12898958
-0.187023 0.006246927 -0.175711 0.22428565 0.17085594 -0.017404223 0.06285937 0.056840092
0.14103499 0.12980178 0.10579716 -0.04336614 -0.12002024 -0.06333437 -0.050245844 -0.17306767
0.14365782 0.050623197 0.057662096 -0.09643237 -0.10450841 0.22592825 -0.091240264 0.147738
00000000: ab96 f73d 8f26 6c3e 8af0 a1bd bd27 ffbd
00000010: 8b47 ff3d 4e97 f7bc 17cb 03be f932 fc3d
00000020: 1fa9 423e 4c17 463e 6f9d 16be 4341 0bbe
00000030: 4e4f b53d bb75 c7bc 8e0b 233e 160d 373e
00000040: a984 5a3e f860 0f3d 145b 5abb 70dd ddbd
00000050: 979c f5bd b01b 713d 8384 90bc a2a2 053c
00000060: e53f 23be b381 9d3d 10f0 1ebe e514 b63b
00000070: c348 80bd fe06 cf3d 197e 093d b52d 5d3d
00000080: 3452 d2bd c889 7bbd 456c a53d c956 30be
00000090: 55ad 043e ca1c 5a3e f4e5 c23d 29a6 443e
000000a0: da26 383e ca86 febc 8733 d83d 311e 463e
000000b0: 5650 953d c6db 61bd bd8c a4bd 07f7 7f3c
000000c0: 50c9 383e 5224 c3bd 6441 a63d 7a23 3dbe
000000d0: 78f1 44be b68a 5bbd f0b4 87bd 7cfe dbbd
000000e0: 9331 963d 7c8f 40be 6e7b 1b3e 8d95 02be
000000f0: 9131 84bc 0f29 303e 8d39 2dbc 3b2b 013e
00000100: e0c8 473e 620b 25bd a788 4bbe 38b2 dfbd
00000110: 16fe cc3d 1546 52bc f4c9 9b3d 6621 f33d
00000120: f374 293e 446f 703d ad49 3ebe 5369 52be
00000130: 258c abbd a146 25bd 2a1f 073e e351 6b3e
00000140: 85b0 0ebe d8f5 edba 0d49 883d d29d 22bd
00000150: ddb0 5e3e 1078 283e db7f 343e 32cb 4abe
00000160: 327c 40be 512f 1f3e 9316 f73d 6c18 a3b8
00000170: 5a05 5b3e 8b37 9c3d 0beb 303e 8c39 5bbe
00000180: 29b7 093e 833c ac3d c5f9 153e eb1a fdbd
00000190: 363c c53c bf2e d8bd 86e5 cdbd 913b c13d
000001a0: 076e 1b3e ca6c 32be ad5c e7bd a069 babd
000001b0: 0049 35be dcf9 b2bd 53fb cdbd e546 ecbd
000001c0: 1acb 5cbe f33f 29be 3143 823d ba36 68bd
000001d0: cb1f 163e 62bd 0dbe 44a1 48bd 9507 29be
000001e0: c9d0 ec3c cb4a 3f3e a329 9f3d 4637 7abc
000001f0: f1fa d5bc e518 323e f2e1 e6bd 6d01 223e
00000200: ce5a 5a3e eef3 06be 83bc eabd cb89 6fbd
00000210: 6b98 70be c649 343e 2aa6 cfbd 2c80 cebd
00000220: 7a1a 59bc ccd5 0f3e ea8c ac3d abb7 15be
00000230: dd94 133e 0144 a0bd d529 263d 4ca0 20be
00000240: 7c0e 41be 7e05 5a3e 15ff 6abb 0495 0ebe
00000250: 8aa9 353e 04c8 9fbd 9a5f d6bd 8cde 5fbe
00000260: f922 d33d db36 d0bd ffd4 263e a54f 68bd
00000270: 22e8 7c3d c098 423d 7eb4 f0bb 51c4 b739
00000280: c414 3f3e e69b 18be 1629 023d b7fb 893d
00000290: c221 3ebe a1c1 243e 6d9a 5cbe 0d09 6d3e
000002a0: dd93 1fbe 07f8 343e ff95 123e f31d c33d
000002b0: 5d23 603e e3a7 3a3e 2c50 063e fdf3 39be
000002c0: 7f01 87ba ce20 4f3d 5b61 443e ba31 47be
000002d0: 6200 983d 42bc 29bd 87ee 58bb df0d fc3d
000002e0: 41fd 2e3e a580 103e a2aa f1bc 8ee5 0ebe
000002f0: 5347 ffbd 982e 373e 23ca 2bbe d4eb 42be
00000300: d5d2 953d b940 f4bd dfa6 21be d83f 493e
00000310: 315b bebd d4b5 893c 5e9f 0d3e 8e8d b53d
00000320: 0384 cb3d d513 e13d 854d 5c3e fada fabc
00000330: f028 453d f974 64be 17a5 03be 9781 14be
00000340: ddeb 8ebd afdb 2c3b 4fef 8d3d 841e 003d
00000350: e29b 5d3e 93f7 0b3e c28c b93d 941b d9bd
00000360: c685 17be 8d90 17be 404e 373e 48f6 44be
00000370: 8eeb 4dbe d294 963c c7a7 62be 9bcc 1c3d
00000380: 8a78 053e 204e 593e bc83 1fbe 01c6 b23d
00000390: 303f 22be 88a4 0a3e 4bfb ddbd d815 043e
000003a0: f582 3fbe 06b3 cc3b 96ed 33be 23ab 653e
000003b0: dcf4 2e3e 4d93 8ebc 6abc 803d 28d1 683d
000003c0: 7a6b 103e c2ea 043e 2eac d83d b2a0 31bd
000003d0: 2ccd f5bd 73b5 81bd 96ce 4dbd a738 31be
000003e0: 091b 133e 455a 4f3d 172f 6c3d 567e c5bd
000003f0: 8108 d6bd bc59 673e 2ddc babd a148 173e

GAT_layers.0.f.bias f4 [32]
-0.039047953 -0.074361555 0.085458264 -0.055442944 0.10970808 -0.084810905 0.04681505 0.035568893
-0.053146075 -0.04673598 0.039837543 -0.054731254 0.010709703 0.09133394 0.020883223 0.06281134
-0.014575458 0.08534495 -0.030356176 0.10279963 -0.093763515 -0.095078446 0.052664544 0.0513412
-0.08798915 0.0008149857 -0.0742724 0.040827468 -0.06349114 -0.03710619 0.08828925 -0.031227289
00000000: bff0 1fbd df4a 98bd be04 af3d 2418 63bd
00000010: a1ae e03d 57b1 adbd 23c1 3f3d b0b0 113d
00000020: b3af 59bd 3a6e 3fbd b12c 233d e12d 60bd
00000030: c077 2f3c 4a0d bb3d 4b13 ab3c 3ba3 803d
00000040: e7cd 6ebc 55c9 ae3d 84ad f8bc 9d88 d23d
00000050: 1607 c0bd 7db8 c2bd c7b6 573d 264b 523d
00000060: a833 b4bd c4a4 553a 211c 98bd b43a 273d
00000070: a507 82bd a9fc 17bd ffd0 b43d 5fd0 ffbc

GAT_layers.0.w.weight f4 [1, 82]
0.14875281 -0.15908809 -0.1111618 -0.23172158 -0.24830155 0.11736573 -0.071862556 -0.25652942
0.2609708 0.19542341 -0.02148306 -0.14325523 0.20052381 -0.1835951 0.26138726 0.082985
0.23033445 0.19191433 -0.12707527 -0.06482436 -0.10521186 -0.048981927 0.030801756 0.16784897
0.08826523 0.23132654 0.11881556 0.20267856 0.24115188 -0.04933172 -0.27200422 0.22225127
-0.024923893 0.2262376 -0.17729118 -0.22634394 0.065725766 0.19861357 -0.25253898 0.026153069
-0.10325097 0.12851624 -0.23048368 0.11042092 -0.20313391 -0.092409074 -0.12430176 0.18753283
0.27209115 0.051956367 -0.165782 0.030332105 0.13245809 -0.043734737 -0.12239436 -0.176201
0.13909754 -0.08122249 0.12502494 0.11695412 0.14231564 -0.21329089 0.25240615 0.16118012
0.26094493 0.051292352 -0.19878638 -0.23030266 0.17756002 0.04764847 0.20623899 0.027104205
-0.22229175 0.08742153 0.14886251 -0.2581123 0.26052853 -0.13707656 -0.09155798 0.27041045
-0.126377 0.06733926
00000000: a852 183e fde7 22be cca8 e3bd 6c48 6dbe
00000010: c342 7ebe 725d f03d ad2c 93bd d357 83be
00000020: f79d 853e 131d 483e 3efd afbc 80b1 12be
00000030: 1d56 4d3e 5b00 3cbe 8dd4 853e 0af4 a93d
00000040: cbdc 6b3e 3185 443e 0520 02be a2c2 84bd
00000050: 5179 d7bd 46a1 48bd f753 fc3c 9ae0 2b3e
00000060: 67c4 b43d dde0 6c3e 9355 f33d f88a 4f3e
00000070: 85f0 763e 0f10 4abd 2344 8bbe d695 633e
00000080: 312d ccbc d4aa 673e d28b 35be b5c6 67be
00000090: 3b9b 863d 5b61 4b3e ca4c 81be f63e d63c
000000a0: 3f75 d3bd c399 033e ea03 6cbe 5d24 e23d
000000b0: 5602 50be f840 bdbd ec91 febd 9b08 403e
000000c0: 884f 8b3e 33d0 543d c2c2 29be 097b f83c
000000d0: 18a3 073e 3223 33bd e5a9 fabd 096e 34be
000000e0: 966f 0e3e fa57 a6bd 8a06 003e a485 ef3d
000000f0: 31bb 113e ed68 5abe 613b 813e 670c 253e
00000100: 939a 853e ee17 523d a88e 4bbe 76d4 6bbe
00000110: 4bd2 353e 0b2b 433d 5030 533e a309 de3c
00000120: 73a0 63be 0f0a b33d 6a6f 183e 4c27 84be
00000130: ff63 853e cc5d 0cbe c082 bbbd 3d73 8a3e
00000140: f968 01be 2ae9 893d

GAT_layers.1.f.weight f4 [64, 64]
-0.063018866 -0.19921958 0.1655683 0.18299665 -0.0936438 -0.13816488 0.054211184 -0.10142311
0.04836171 0.13923104 -0.014881939 0.094925165 -0.2188269 0.09274938 -0.026118483 -0.18001366
-0.15389037 -0.018894926 -0.12439078 0.14578824 -0.18667662 -0.20267542 -0.17380635 0.16452877
0.1898449 -0.037051983 -0.043549992 0.007873467 0.08647287 0.06982645 -0.049615897 0.13322748
-0.13968742 -0.035836715 0.10247026 -0.17890103 0.1888359 0.038489085 0.21161893 0.15073213
-0.06971657 0.18983373 0.10405311 -0.023777345 -0.026160918 0.036122497 0.13657963 0.023528606
-0.13185373 0.13318382 0.015184672 -0.100794785 0.15201136 -0.17330423 0.11213733 0.2058352
0.14253354 -0.041626833 0.20073499 0.1929379 0.026364421 -0.20589617 -0.13050579 -0.11267905
0.056701712 -0.048580628 -0.013045033 0.11330772 -0.07828044 -0.022764685 -0.09226621 -0.19175175
-0.12904738 -0.19961931 -0.010201103 -0.19470297 -0.07309631 -0.13672526 0.15705743 -0.20719098
0.1754986 -0.032556836 -0.11137778 0.15119138 0.076378025 -0.0064209816 0.20089819 -0.06624622
-0.096011385 0.037273068 0.078451924 -0.21359564 0.09951687 0.111146346 0.09526675 -0.1806909
0.17428154 -0.11167826 0.054509316 -0.19854487 0.11394271 0.19062005 -0.17837994 -0.03951881
-0.16509275 -0.20055076 -0.061178353 0.03360393 -0.21350439 0.20131265 0.17770386 -0.14092122
-0.17855625 0.028622681 -0.03417202 0.20251983 -0.13501728 -0.107688434 -0.20234892 -0.11303037
0.17966716 0.15230466 0.19977635 0.14089902 0.04759865 -0.093082875 0.06420979 0.14363737
0.10158655 0.08668321 -0.09902083 -0.050192744 -0.103584304 -0.07578586 0.16712776 -0.17582856
-0.08178451 -0.027500391 -0.024220316 -0.1505583 -0.09762393 0.057976533 0.045966607 0.102591045
-0.20992106 -0.043287214 0.037639655 -0.0020794526 -0.10257555 -0.0057209185 -0.18456852 -0.14201589
0.09406055 0.0006862375 0.0669497 0.11376305 0.09836148 -0.007406004 -0.026551496 -0.008142953
0.04997732 0.014926069 -0.16726677 -0.07864007 0.19812079 0.10577542 0.13029793 0.06302552
0.14802776 -0.21586253 -0.21617779 -0.113527745 -0.07972463 -0.17489369 0.108613394 -0.19243044
0.05556036 0.20085947 0.14333113 0.083875544 0.20256576 -0.03066154 0.17485788 -0.20357844
-0.12264381 -0.04506738 0.15411894 0.12731086 -0.20048857 0.13616294 0.17805111 0.20987287
0.11487878 0.06040023 -0.012820966 -0.08133351 0.09341202 0.12961124 -0.18972921 -0.07842338
0.03509701 0.0031983554 0.15744834 -0.15099402 -0.19824472 -0.05836002 0.20403811 0.14970373
0.13785975 -0.19223265 0.12811153 -0.093140595 -0.014374123 0.08236486 -0.1285678 0.14738907
0.11452772 0.040316585 -0.11680633 0.11187596 -0.17034899 0.023995697 0.017112706 -0.16837434
0.17093469 -0.039611854 0.121070474 -0.09719971 -0.005587188 0.1031551 -0.1282887 -0.1697429
0.03601738 -0.19680569 -0.12559374 -0.20772536 -0.19512822 0.20793273 -0.1032751 0.14110903
-0.14866742 -0.1196833 0.15139909 0.21179278 0.05286868 -0.08754495 -0.04987552 0.050199017
-0.033067428 0.085544474 0.1444264 -0.19746552 -0.18010402 0.13168846 -0.007721566 0.15760624
00000000: 0910 81bd 3800 4cbe bd8a 293e 7963 3b3e
00000010: 52c8 bfbd 187b 0dbe 8c0c 5e3d ebb6 cfbd
00000020: ee16 463d 9592 0e3e 60d3 73bc 2068 c23d
00000030: 2914 60be 63f3 bd3d 6ef6 d5bc 8055 38be
00000040: 7095 1dbe 88c9 9abc 98c0 febd 8349 153e
00000050: 2828 3fbe 258a 4fbe 4bfa 31be 3b7a 283e
00000060: b466 423e d2c3 17bd 7a61 32bd b7ff 003c
00000070: b018 b13d 2b01 8f3d 0a3a 4bbd c96c 083e
00000080: 380a 0fbe 85c9 12bd eddb d13d d531 37be
00000090: 335e 413e bba6 1d3d a2b2 583e 8659 1a3e
000000a0: 90c7 8ebd c663 423e cc19 d53d b5c8 c2bc
000000b0: 6c4f d6bc 2ff5 133d 88db 0b3e 10bf c03c
000000c0: aa04 07be 5761 083e 21c9 783c 7f6d cebd
000000d0: dea8 1b3e aa76 31be 42a8 e53d 76c6 523e
000000e0: 50f4 113e e680 2abd 798d 4d3e 8391 453e
000000f0: 33fa d73c 72d6 52be 4fa3 05be 46c4 e6bd
00000100: 0e40 683d 7bfc 46bd d6ba 55bc e10d e83d
00000110: 7f51 a0bd 017d babc 11f6 bcbd 925a 44be
00000120: ff24 04be 0169 4cbe 8722 27bc 3760 47be
00000130: 85b3 95bd b501 0cbe aad3 203e df29 54be
00000140: e8b5 333e 515a 05bd 091a e4bd ead1 1a3e
00000150: 156c 9c3d 1967 d2bb 41b8 4d3e 19ac 87bd
00000160: 9ea1 c4bd a5ab 183d 67ab a03d d1b8 5abe
00000170: 80cf cb3d b2a0 e33d 371b c33d 0907 39be
00000180: dc76 323e 92b7 e4bd 2945 5f3d 594f 4bbe
00000190: cc5a e93d e731 433e 3ba9 36be 7ade 21bd
000001a0: 130e 29be 2e5d 4dbe 2796 7abd 46a4 093d
000001b0: e5a0 5abe e724 4e3e 00f8 353e a74d 10be
000001c0: 73d7 36be 1d7a ea3c f6f7 0bbd 5c61 4f3e
000001d0: f841 0abe c18b dcbd 8e34 4fbe 777c e7bd
000001e0: abfa 373e c1f5 1b3e 2c92 4c3e d547 103e
000001f0: cdf6 423d 3ca2 bebd 6c80 833d ad15 133e
00000200: 9c0c d03d f886 b13d 6fcb cabd e896 4dbd
00000210: 0224 d4bd 9e35 9bbd 8a23 2b3e 670c 34be
00000220: a37e a7bd 8048 e1bc af69 c6bc f42b 1abe
00000230: 0eef c7bd cd78 6d3d 7b47 3c3d 411b d23d
00000240: 8cf5 56be ef4d 31bd 0a2c 1a3d 6d47 08bb
00000250: 2113 d2bd 8b76 bbbb 88ff 3cbe 9d6c 11be
00000260: d1a2 c03d 9ee4 333a ed1c 893d 9afc e83d
00000270: be71 c93d 10ae f2bb 8682 d9bc 056a 05bc
00000280: 05b5 4c3d 798c 743c fb47 2bbe 0c0e a1bd
00000290: 2de0 4a3e c9a0 d83d d26c 053e 8613 813d
000002a0: 9794 173e 110b 5dbe b65d 5dbe 3c81 e8bd
000002b0: ab46 a3bd 5517 33be b370 de3d 7c0c 45be
000002c0: 4393 633d 1bae 4d3e 65c5 123e f1c6 ab3d
000002d0: 666d 4f3e e92d fbbc f20d 333e de76 50be
000002e0: ae2c fbbd 9398 38bd 5bd1 1d3e c75d 023e
000002f0: e04c 4dbe 4c6e 0b3e 0853 363e eae8 563e
00000300: 9145 eb3d 3b66 773d 070f 52bc 2f92 a6bd
00000310: cd4e bf3d cfb8 043e 6048 42be 709c a0bd
00000320: e2c1 0f3d 809b 513b 233a 213e 2d9e 1abe
00000330: aa00 4bbe eb0a 6fbd 5eef 503e ef4b 193e
00000340: 1b2b 0d3e a3d8 44be ab2f 033e 7fc0 bebd
00000350: 7181 6bbc e8ae a83d 47a7 03be 29ed 163e
00000360: 828d ea3d 0123 253d 2838 efbd 391f e53d
00000370: f76f 2ebe a092 c43c f22f 8c3c 536a 2cbe
00000380: 8109 2f3e 0a40 22bd ccf3 f73d a410 c7bd
00000390: bb14 b7bb fb42 d33d 1d5e 03be 15d1 2dbe
000003a0: f686 133d 6e87 49be a59b 00be f5b5 54be
000003b0: b1cf 47be 51ec 543e e581 d3bd e37e 103e
000003c0: 463c 18be 851c f5bd 5d08 1b3e 35e0 583e
000003d0: d48c 583d c44a b3bd 464a 4cbd 7c9d 4d3d
000003e0: b671 07bd f131 af3d 84e4 133e 6734 4abe
000003f0: 306d 38be 57d9 063e 3105 fdbb 8863 213e

GAT_layers.1.f.bias f4 [64]
-0.021408012 -0.048158675 0.049319047 0.06268499 -0.080116786 -0.025618643 0.07101536 0.06652461
-0.014137685 0.091654494 -0.01962793 -0.110092044 0.042125925 -0.0054102605 0.111283176 0.12030975
-0.07666853 -0.06682526 0.08804667 -0.11345507 0.124938965 -0.009175489 -0.11826962 -0.099210136
-0.1223583 0.04110457 -0.07319015 0.09768298 -0.0010972144 0.074124016 0.09884345 0.038815662
0.046388667 -0.076599754 -0.07872017 -0.05699441 0.033120677 0.027934045 -0.05745496 0.037948888
-0.014232247 0.06116408 0.07182617 -0.11465127 -0.025493603 -0.124169245 0.020659223 -0.12519205
0.09564615 -0.07826368 0.09619295 0.098227054 0.07773883 -0.078368776 -0.052375797 0.047026142
-0.12837899 -0.11615757 -0.10130879 -0.120687276 0.011337567 0.101026535 -0.119600385 -0.019279858
00000000: db5f afbc 0842 45bd c502 4a3d fd60 803d
00000010: 4514 a4bd 30de d1bc 8070 913d 0e3e 883d
00000020: c0a1 67bc 5ab5 bb3d c1ca a0bc f077 e1bd
00000030: 3c8c 2c3d 8e48 b1bb 6fe8 e33d f564 f63d
00000040: 6404 9dbd afdb 88bd d051 b43d 225b e8bd
00000050: 00e0 ff3d ca54 16bc 5837 f2bd af2e cbbd
00000060: fd96 fabd 445d 283d b8e4 95bd 040e c83d
00000070: 68d0 8fba 55ce 973d 6f6e ca3d 2cfd 1e3d
00000080: 0b02 3e3d 55e0 9cbd 0a38 a1bd f872 69bd
00000090: 8ca9 073d f0d5 e43c e455 6bbd 4b70 1b3d
000000a0: 5f2e 69bc 3087 7a3d 9919 933d 49ce eabd
000000b0: f6d7 d0bc 724c febd 883d a93c 5832 00be
000000c0: 21e2 c33d b548 a0bd cf00 c53d 442b c93d
000000d0: 8935 9f3d cf7f a0bd 0188 56bd 7c9e 403d
000000e0: c875 03be 05e4 edbd fc7a cfbd e42a f7bd
000000f0: 34c1 393c 00e7 ce3d 0cf1 f4bd cbf0 9dbc

GAT_layers.1.w.weight f4 [1, 64]
-0.03612919 0.12338035 -0.08970219 0.29921526 -0.15604885 0.08065614 0.117713 -0.302019
0.25742805 0.2674144 0.2883054 0.046162218 0.16324298 -0.032414842 -0.20916854 -0.115889095
0.18159969 -0.119235255 -0.23676206 0.066100374 0.023133928 0.20088619 0.22563356 0.11091575
-0.08735059 0.23235874 0.20530307 -0.30331758 0.0071731955 0.07234941 0.12015437 -0.09831425
-0.26356092 0.13903937 -0.022566583 -0.07438491 -0.18863119 0.28557205 -0.24897788 -0.09758627
-0.0026344887 0.13406661 0.20488165 0.26220644 -0.06800032 -0.23657471 0.2599309 0.031111497
0.2602263 0.23331106 0.011240097 0.23989332 -0.26535 -0.015716825 0.10611439 -0.15447302
0.12356048 0.22211412 -0.2856407 0.06711465 0.22609994 0.068211526 0.1026462 0.24501044
00000000: 34fc 13bd d6ae fc3d c8b5 b7bd be32 993e
00000010: 45cb 1fbe 0c2f a53d 8313 f13d 3ca2 9abe
00000020: 9ccd 833e 8aea 883e c49c 933e 9814 3d3d
00000030: 2b29 273e 6dc5 04bd 4730 56be 4357 edbd
00000040: 45f5 393e 9d31 f4bd c171 72be a25f 873d
00000050: 5d83 bd3c 1cb5 4d3e 7c0c 673e cc27 e33d
00000060: dee4 b2bd 73ef 6d3e f83a 523e 714c 9bbe
00000070: 200d eb3b ed2b 943d 7f13 f63d fb58 c9bd
00000080: 75f1 86be 5660 0e3e 8edd b8bc 1e57 98bd
00000090: 8928 41be 8036 923e 0ff4 7ebe 4fdb c7bd
000000a0: 63a7 2cbb c248 093e 7fcc 513e ec3f 863e
000000b0: c043 8bbd a440 72be aa15 853e 8add fe3c
000000c0: 623c 853e 18e9 6e3e 6228 383c 98a6 753e
000000d0: f5db 87be 92c0 80bc 8052 d93d 2d2e 1ebe
000000e0: 470d fd3d e271 633e 7f3f 92be 6873 893d
000000f0: be86 673e 7cb2 8b3d 2c38 d23d 04e4 7a3e

GAT_layers.2.f.weight f4 [64, 128]
0.06156786 -0.047449004 -0.17594396 -0.09718123 0.13777915 0.0940689 -0.07501534 -0.16096027
-0.0870635 -0.16665576 -0.11953436 -0.105186835 0.059735045 0.06292714 0.038273804 -0.08220428
0.008510227 0.09347272 0.166169 0.040416446 0.037390012 0.012417516 0.10145743 0.120827064
0.056348275 -0.035121653 0.10688278 -0.022742586 -0.15261246 -0.05704026 -0.12143421 0.16461873
0.014315433 0.13988143 -0.035853107 0.01435288 -0.14842929 -0.15909573 -0.044058185 -0.06922323
0.057957523 -0.07481373 -0.07119334 0.06529255 0.09428915 0.09627485 0.0609973 0.10282339
0.16362195 -0.15510716 0.12103428 0.014621268 0.057370886 0.13113636 -0.03952397 0.024536325
0.12582982 -0.14217691 0.038154233 -0.0182212 0.038056992 0.112108216 -0.1241962 0.12006415
0.015447178 -0.05364729 -0.14851947 -0.016522031 0.16034545 -0.07209151 -0.011898907 0.12102939
0.1314855 0.12320966 0.08260412 -0.057309724 0.13708445 0.0026034375 -0.13491796 0.10195035
-0.04686019 0.13780014 -0.041341044 -0.029614462 -0.00089232327 0.06665997 0.123659715 -0.07994795
0.16926348 -0.15875384 -0.1586195 0.06453471 0.11551968 -0.035573456 -0.14850345 0.1008048
0.012359922 -0.10969299 0.14675382 -0.16649279 -0.056385398 0.09488533 -0.10894134 0.07336387
-0.12036619 -0.11673874 0.047965094 0.11702533 -0.0148557685 -0.0015543378 -0.032695606 0.13846548
-0.0103507815 0.029019274 0.080311984 0.008456449 0.16740929 -0.15256879 -0.11915203 -0.00894499
0.036790233 -0.06279473 0.061116513 -0.056849185 -0.0692105 -0.117542736 -0.122632705 -0.12963885
-0.12846632 0.14167702 -0.13492925 0.016555004 -0.16307893 -0.13644743 0.101660125 -0.09439012
0.02516445 -0.09785318 -0.049985882 0.11942969 0.05175732 -0.029730989 0.15674263 0.15292577
-0.1459978 0.15004325 0.14923604 0.14601803 -0.039953772 -0.05554479 -0.056856856 0.051879667
-0.09290247 -0.11939137 0.079762794 -0.14254433 0.07803591 0.029161088 0.16153088 -0.12638758
-0.12936059 0.10521245 -0.09467762 -0.055210996 -0.11283544 -0.10662153 -0.05601803 0.032564912
0.07364223 -0.114608236 0.11089706 0.110642254 -0.158794 0.111387424 -0.014351865 0.117760785
-0.1319718 0.022619579 0.05750395 0.016779883 0.08959839 0.15129246 0.12550332 0.089487545
-0.030243086 -0.057122786 -0.14464295 -0.0378752 -0.16944823 0.14653946 -0.14774689 -0.018013988
0.053297367 0.16718517 0.15788712 0.02886739 0.1351212 0.11895193 0.04472084 -0.15246674
0.16443504 -0.044421144 0.004597695 -0.012919337 0.13358937 0.017156955 -0.05981633 0.13476743
0.06928959 0.08611574 -0.11733775 0.107257806 0.16441718 0.090462334 -0.14990243 -0.15994754
0.086358644 -0.0450041 0.037166208 0.12403828 -0.016431455 -0.15625793 0.1631508 0.11201977
0.14457078 -0.07957733 -0.030075157 -0.04422439 -0.08992695 -0.020990312 0.084939025 0.15158166
0.09281329 -0.1397395 0.0076926737 0.18401991 0.0022668003 -0.16409709 0.17335597 0.06819839
-0.091148704 0.15043722 -0.09245413 -0.051592737 -0.06087658 0.059006296 -0.08532191 -0.0671073
0.08147594 0.07026799 -0.06335375 -0.1626886 0.15149471 0.037110362 0.010498379 -0.034138817
00000000: 952e 7c3d e359 42bd a72a 34be f406 c7bd
00000010: fa15 0d3e 32a7 c03d a4a1 99bd c5d2 24be
00000020: 594e b2bd cfa7 2abe 6ece f4bd 326c d7bd
00000030: bcac 743d f2df 803d fec4 1c3d b85a a8bd
00000040: 7b6e 0b3c a06e bf3d 3528 2a3e b78b 253d
00000050: 4526 193d d672 4b3c eac8 cf3d 2e74 f73d
00000060: 73cd 663d b9db 0fbd 5ce5 da3d a94e babc
00000070: 7146 1cbe 0ca3 69bd 80b2 f8bd d091 283e
00000080: 478b 6a3c 143d 0f3e b5da 12bd 5828 6b3c
00000090: d9fd 17be fee9 22be 5b76 34bd e9c4 8dbd
000000a0: de64 6d3d f137 99bd d0cd 91bd 1ab8 853d
000000b0: ab1a c13d c02b c53d 4ed8 793d 1295 d23d
000000c0: 838c 273e 69d4 1ebe d2e0 f73d 0b8e 6f3c
000000d0: bcfd 6a3d 9c48 063e e3e3 21bd 6700 c93c
000000e0: 88d9 003e d396 11be 9d47 1c3d a044 95bc
000000f0: a6e1 1b3d fe98 e53d 945a febd 31e4 f53d
00000100: 2916 7d3c 43bd 5bbd 7d15 18be 3659 87bc
00000110: 9931 243e b7a4 93bd a2f3 42bc 42de f73d
00000120: 23a4 063e 5955 fc3d 592c a93d 9abd 6abd
00000130: de5f 0c3e 6f9e 2a3b ef27 0abe 58cb d03d
00000140: 78f0 3fbd 7b1b 0d3e 3a55 29bd 079a f2bc
00000150: cdea 69ba 0685 883d 4e41 fd3d c0bb a3bd
00000160: 6853 2d3e 5e90 22be 266d 22be c62a 843d
00000170: 9595 ec3d 79b5 11bd 4a11 18be bf72 ce3d
00000180: 4581 4a3c b8a6 e0bd a246 163e 167d 2abe
00000190: 60f4 66bd 3d53 c23d a31c dfbd cc3f 963d
000001a0: 8d82 f6bd b814 efbd 0c77 443d faaa ef3d
000001b0: 9c65 73bc ecba cbba d4eb 05bd e5c9 0d3e
000001c0: 5396 29bc d4b9 ed3c 9c7a a43d eb8c 0a3c
000001d0: 576d 2b3e fe3a 1cbe fb05 f4bd 028e 12bc
000001e0: 5bb1 163d 869a 80bd 4f55 7a3d b1da 68bd
000001f0: 3cbe 8dbd 3fba f0bd db26 fbbd 0cc0 04be
00000200: ad8c 03be c813 113e e52a 0abe 5c9e 873c
00000210: 2afe 26be e0b8 0bbe 2f33 d03d 9b4f c1bd
00000220: ad25 ce3c 3f67 c8bd ffbd 4cbd 8e97 f43d
00000230: 7cff 533d 678e f3bc 2481 203e 9398 1c3e
00000240: 7380 15be f0a4 193e 55d1 183e c085 153e
00000250: 91a6 23bd ef82 63bd bce2 68bd c67f 543d
00000260: a643 bebd 7683 f4bd ad5a a33d 24f7 11be
00000270: 4bd1 9f3d 3ce3 ee3c 5a68 253e bf6b 01be
00000280: 1a77 04be a079 d73d 57e6 c1bd ed24 62bd
00000290: 4416 e7bd 645c dabd 2973 65bd c962 053d
000002a0: bdd1 963d b9b7 eabd ff1d e33d 6898 e23d
000002b0: e59a 22be 171f e43d 1624 6bbc 912c f13d
000002c0: 9e23 07be b24c b93c 4389 6b3d f775 893c
000002d0: 5c7f b73d 69ec 1a3e f183 003e 3f45 b73d
000002e0: 59c0 f7bc 95f9 69bd 481d 14be 0723 1bbd
000002f0: d683 2dbe 710e 163e f64a 17be 1292 93bc
00000300: 574e 5a3d 9732 2b3e 29ad 213e 4e7b ec3c
00000310: 365d 0a3e 129d f33d 332d 373d 3e20 1cbe
00000320: a961 283e f2f2 35bd 43a8 963b a0ab 53bc
00000330: a7cb 083e be8c 8c3c f801 75bd 7900 0a3e
00000340: b3e7 8d3d 735d b03d c64e f0bd fba9 db3d
00000350: fa5c 283e 5144 b93d 0680 19be 4ac9 23be
00000360: cddc b03d 3856 38bd 983b 183d c807 fe3d
00000370: 429b 86bc 1402 20be 0111 273e 9f6a e53d
00000380: 5d0a 143e 70f9 a2bd 2d60 f6bc a224 35bd
00000390: 9f2b b8bd e0f3 abbc 83f4 ad3d 3938 1b3e
000003a0: e514 be3d df17 0fbe d312 fc3b b76f 3c3e
000003b0: 998e 143b 1109 28be 3a84 313e 99ab 8b3d
000003c0: 2cac babd 370c 1a3e 9758 bdbd e852 53bd
000003d0: b959 79bd 96b0 713d 41bd aebd 8d6f 89bd
000003e0: dcdc a63d aae8 8f3d 9cbf 81bd d797 26be
000003f0: 6e21 1b3e 0901 183d 6501 2c3c 25d5 0bbd

GAT_layers.2.f.bias f4 [64]
-0.013212618 0.0782677 -0.053311054 0.10108245 0.046308618 0.01612874 -0.049895693 0.032822553
-0.04554929 -0.02743818 -0.008642042 -0.06510465 -0.0567668 -0.026506322 0.002397211 -0.0073416843
0.049102228 0.10715224 0.0026742227 -0.028151134 -0.0056206123 -0.0095614735 -0.06251281 0.09815854
0.089619406 0.05118324 0.07314158 0.066895634 -0.01612138 -0.035290007 0.05291074 -0.081634514
0.09240424 -0.024855087 -0.087116316 -0.009002845 0.109229505 0.09290935 -0.035563584 0.057198104
0.0379947 0.072972536 0.019360188 -0.004742707 0.06817199 -0.040334333 -0.008355879 0.05497935
-0.07003456 0.033710673 -0.08038471 0.07075806 0.04251138 -0.0014462796 -0.026035596 0.096992426
0.054896645 0.04703878 -0.029681936 -0.008874301 -0.0017762901 0.11499715 0.040439058 0.026319461
00000000: bd79 58bc d14a a03d b15c 5abd 5104 cf3d
00000010: 1bae 3d3d 6b20 843c 6d5f 4cbd f170 063d
00000020: e491 3abd 09c6 e0bc 5a97 0dbc 9655 85bd
00000030: 4e84 68bd c923 d9bc 871a 1d3b 8392 f0bb
00000040: 6b1f 493d a272 db3d 0342 2f3b 359d e6bc
00000050: 1d2d b8bb baa7 1cbc b706 80bd 5807 c93d
00000060: 618a b73d 84a5 513d 41cb 953d 9400 893d
00000070: fc10 84bc 418c 10bd efb8 583d ff2f a7bd
00000080: 6f3e bd3d e59c cbbc 0a6a b2bd ab80 13bc
00000090: b8b3 df3d 4247 be3d 1fab 11bd 8f48 6a3d
000000a0: 55a0 1b3d a072 953d 4299 9e3c b668 9bbb
000000b0: c29d 8b3d 9d35 25bd 19e7 08bc 0732 613d
000000c0: 486e 8fbd 3414 0a3d bda0 a4bd 9ae9 903d
000000d0: 6a20 2e3d 1791 bdba 9a48 d5bc f7a3 c63d
000000e0: 4edb 603d bcab 403d 8827 f3bc 8465 11bc
000000f0: 68d2 e8ba a083 eb3d 6da3 253d e99b d73c

GAT_layers.2.w.weight f4 [1, 128]
0.11462793 0.15402171 0.17713235 0.049899083 -0.17085323 -0.16132388 -0.12263343 0.18256368
-0.14626473 -0.11050678 0.18754935 -0.16080503 -0.15635253 -0.122578375 -0.113848016 0.08970158
-0.0723207 -0.17994867 0.20917556 0.016158035 -0.03525031 -0.005340181 -0.09971199 -0.10179366
-0.1045249 0.1586221 -0.088433444 -0.03910166 -0.2182331 -0.09868102 0.020715917 -0.107460745
0.16804184 -0.12482189 0.09540698 0.07901896 0.059223562 -0.007871839 0.13872647 -0.0857186
0.17757761 -0.06842041 0.100803934 -0.113202184 -0.11618509 0.0981526 -0.1446581 0.010454908
-0.122066654 0.07026451 -0.13403508 -0.16841914 0.12765352 0.16756947 0.13980767 -0.034597464
0.14761461 0.16135554 -0.2081773 0.20538014 -0.10374134 -0.003192791 -0.008097079 -0.046590976
0.117297314 0.10076895 -0.19034152 -0.11417654 0.15353608 0.04272699 0.11718935 -0.17155364
0.0487719 -0.03758151 0.1981691 0.08337898 0.009277188 -0.05991541 0.15662909 0.06548175
-0.14356184 0.16584557 -0.07293991 0.21482788 -0.13813981 -0.14167212 0.13929313 0.20359392
0.03207134 -0.13364339 -0.16453214 0.19282195 -0.18940635 -0.17508799 -0.039767735 0.20698468
0.19333008 -0.13925388 -0.014633523 -0.053908505 -0.20197356 0.021959625 0.114245966 -0.15974207
-0.04856665 -0.0060590995 -0.16537644 0.12078532 0.19119123 0.16056633 -0.17232789 0.029781502
0.045545027 -0.1498453 0.16049476 0.13871537 0.04921049 -0.02087138 -0.16543624 -0.129067
0.05260662 -0.16332997 0.022982785 -0.05367449 0.07952599 -0.06250035 -0.1345839 -0.077979624
00000000: 0cc2 ea3d deb7 1d3e 2f62 353e fb62 4c3d
00000010: 26f4 2ebe 1632 25be 3c27 fbbd f9f1 3a3e
00000020: 6cc6 15be 6151 e2bd f00c 403e 13aa 24be
00000030: e11a 20be 5f0a fbbd 2629 e9bd 76b5 b73d
00000040: e01c 94bd 7744 38be 1e32 563e db5d 843c
00000050: a162 10bd affc aebb cd35 ccbd 3279 d0bd
00000060: 2711 d6bd d56d 223e 981c b5bd 1029 20bd
00000070: 7f78 5fbe 4619 cabd 6db4 a93c 6114 dcbd
00000080: 2913 2c3e 9ea2 ffbd bc64 c33d b1d4 a13d
00000090: 6894 723d e3f8 00bc 500e 0e3e 3c8d afbd
000000a0: e8d6 353e 0020 8cbd 4b72 ce3d 8cd6 e7bd
000000b0: 73f2 edbd 3b04 c93d 4121 14be 104b 2b3c
000000c0: 15fe f9bd d7e6 8f3d 7e40 09be 1176 2cbe
000000d0: 9bb7 023e 5597 2b3e be29 0f3e 12b6 0dbd
000000e0: 4928 173e 633a 253e 6e2c 55be 2c4f 523e
000000f0: 5776 d4bd 253e 51bb 9ca9 04bc 2ed6 3ebd
00000100: 9339 f03d f45f ce3d e3e8 42be 64d5 e9bd
00000110: 9038 1d3e 7f02 2f3d f800 f03d c2ab 2fbe
00000120: 0bc5 473d 12ef 19bd d7ec 4a3e 99c2 aa3d
00000130: 59ff 173c dc69 75bd 6063 203e 4c1b 863d
00000140: e001 13be 6cd3 293e 8561 95bd d7fb 5b3e
00000150: 8674 0dbe 7f12 11be dca2 0e3e ed7a 503e
00000160: 3d5d 033d d0d9 08be 1d7b 28be 1e73 453e
00000170: bdf3 41be 444a 33be 7ee3 22bd cbf3 533e
00000180: 52f8 453e 9298 0ebe 72c1 6fbc 2acf 5cbd
00000190: 28d2 4ebe ace4 b33c caf9 e93d 6d93 23be
000001a0: d3ed 46bd 698b c6bb 7158 29be 4b5e f73d
000001b0: a2c7 433e 806b 243e b976 30be 56f8 f33c
000001c0: 6c8d 3a3d 0c71 19be bd58 243e 670b 0e3e
000001d0: f090 493d 75fa aabc 1e68 29be 242a 04be
000001e0: 0a7a 573d f93f 27be 6546 bc3c c8d9 5bbd
000001f0: 86de a23d 2f00 80bd 5dd0 09be c8b3 9fbd

MLP_layers.0.weight f4 [32, 64]
0.10093797 -0.047875196 0.05956185 -0.031409055 -0.017046481 0.028445838 -0.11205113 -0.07579397
0.086621895 -0.12007883 -0.026678115 -0.11478381 0.11573434 0.050694823 0.044182822 0.013600353
-0.0802384 -0.011186431 0.14113213 0.09551801 -0.06372122 -0.08362827 0.11167591 0.15718973
-0.013522345 0.1066533 0.077611916 0.026320763 0.06285822 0.011417696 0.10337061 -0.06329902
0.11583131 0.12976782 -0.08266288 0.05790006 0.16003545 -0.038743686 0.028841764 0.15102662
0.055038355 0.04603787 0.0880967 0.11482772 -0.041351195 -0.03877513 -0.076040074 -0.051697228
-0.10635911 0.054630782 -0.05755197 0.12250044 0.0744264 -0.07927728 -0.09554119 -0.0028653762
0.026503475 0.1076579 -0.029820992 -0.06562608 0.12530628 0.07825881 0.10090381 0.050690163
0.11280763 0.11114038 0.047171813 0.028346134 -0.081140116 0.06379843 0.026527926 0.043744568
-0.010764524 0.107445925 -0.025856955 0.012659076 -0.036743376 -0.012337759 -0.092737876 -0.11070505
0.099945225 0.07874191 -0.0053705475 -0.040628627 0.11214969 -0.042832263 -0.039862454 0.10196739
0.11952846 0.1093212 0.08048125 -0.085195936 -0.04764077 0.108342476 0.045561217 0.12325202
0.06367188 0.07770764 0.060967352 -0.06466513 -0.03340589 0.10818607 -0.044389144 0.06180215
-0.08003843 -0.1188046 -0.03219149 0.0033665528 0.058564447 0.0049188584 -0.062203333 0.10146352
-0.055744067 -0.0057293996 -0.076074705 0.09377864 -0.07661731 0.08397137 0.053228654 0.08798588
0.020700641 0.011114444 0.11732972 -0.029327681 0.0056969207 0.029260447 -0.06381513 -0.06443943
0.026131403 0.01198614 -0.005316019 0.068793714 -0.108404 0.025137527 -0.11871971 -0.034944028
-0.0115356 0.063385695 0.015457084 0.102379486 0.11113836 -0.050696358 0.017889183 -0.07343358
0.11811179 0.017160626 0.083796784 -0.12304357 -0.0101520745 -0.012187317 0.057313956 -0.12507129
-0.024248041 -0.052291263 -0.07189288 -0.124148354 -0.06307222 -0.042078115 -0.016818494 0.059924707
-0.012897 0.0119691705 0.03948696 -0.011775524 0.040354606 -0.010899532 0.01621899 0.10440089
-0.06979439 0.097159185 -0.06727175 -0.11516957 -0.060607594 -0.114906594 0.045188293 0.08762092
0.044367895 0.09685696 0.0037703258 -0.11756495 -0.0975088 0.11218834 0.040486235 -0.03467313
0.024228131 0.023835102 0.03116928 0.08971658 0.11702885 0.037359517 -0.08969333 0.08653237
-0.12232469 -0.024780601 0.088157296 -0.10495305 0.017982498 -0.04218979 0.005836889 -0.09494303
0.018554524 0.0649171 0.030406713 -0.08666684 -0.0042279065 0.02014929 0.053656876 0.093708605
-0.022478387 -0.0847446 0.11033198 -0.11243293 0.058148623 -0.07812929 -0.09256554 0.12218988
-0.112284034 -0.105967715 0.022263452 -0.0040750504 0.12078412 0.0042949766 -0.10465905 -0.030688256
-0.04938376 0.021918505 0.07220243 -0.06436196 -0.08371416 -0.01580131 -0.09847386 0.093214095
-0.050151438 -0.059021294 0.00340347 -0.061289504 0.1134274 -0.10027684 -0.020218655 0.060157195
0.08785693 0.10545494 0.01319775 -0.006136641 -0.08708727 0.027539179 -0.012699187 0.027186826
0.08757171 -0.099004745 0.0460784 0.062579066 -0.05853638 -0.009565771 -0.11690579 -0.11832221
00000000: 91b8 ce3d c818 44bd 20f7 733d c8a6 00bd
00000010: 10a5 8bbc 3f07 e93c 107b e5bd de39 9bbd
00000020: d266 b13d e4eb f5bd 108c dabc c613 ebbd
00000030: 2006 ed3d 60a5 4f3d 0cf9 343d 04d4 5e3c
00000040: 0854 a4bd 4b47 37bc f184 103e f29e c33d
00000050: 4580 82bd 4c45 abbd 57b6 e43d 58f6 203e
00000060: d38c 5dbc 0c6d da3d fff2 9e3d a49e d73c
00000070: cfbb 803d 4a11 3b3c f8b3 d33d eba2 81bd
00000080: f738 ed3d dbe1 043e 284b a9bd 9d28 6d3d
00000090: 55e0 233e b3b1 1ebd 9045 ec3c b9a6 1a3e
000000a0: e66f 613d 3592 3c3d 0b6c b43d cc2a eb3d
000000b0: df5f 29bd acd2 1ebd e6ba 9bbd 79c0 53bd
000000c0: ced2 d9bd 87c4 5f3d 9dbb 6bbd 83e1 fa3d
000000d0: de6c 983d 205c a2bd 19ab c3bd 09c9 3bbb
000000e0: d11d d93c bf7b dc3d 274b f4bc f766 86bd
000000f0: 4a50 003e 2846 a03d a8a6 ce3d 7da0 4f3d
00000100: b007 e73d 919d e33d 3b37 413d 2736 e83c
00000110: ca2c a6bd c0a8 823d 1851 d93c 812d 333d
00000120: b05d 30bc 9c0c dc3d f7d1 d3bc 0368 4f3c
00000130: 3980 16bd 5024 4abc 5bed bdbd 54b9 e2bd
00000140: 15b0 cc3d 7043 a13d 6bfb afbb 346a 26bd
00000150: bdae e53d e270 2fbd d046 23bd 47d4 d03d
00000160: 56cb f43d cbe3 df3d 5bd3 a43d 357b aebd
00000170: f822 43bd a9e2 dd3d 669e 3a3d 8e6b fc3d
00000180: 6766 823d 2f25 9f3d e7b8 793d 276f 84bd
00000190: 9dd4 08bd a990 dd3d 64d1 35bd 4024 7d3d
000001a0: 30eb a3bd d34f f3bd 39db 03bd 62a1 5c3b
000001b0: 46e1 6f3d 602e a13b ecc8 7ebd 1bcc cf3d
000001c0: e453 64bd b0bd bbbb 0ecd 9bbd 040f c03d
000001d0: 89e9 9cbd 2ef9 ab3d 4a06 5a3d f131 b43d
000001e0: 6494 a93c 5b19 363c 904a f03d 9b40 f0bc
000001f0: 3cad ba3b 9bb3 ef3c 82b1 82bd d2f8 83bd
00000200: 8611 d63c 8461 443c 0032 aebb b8e3 8c3d
00000210: eb02 debd 37ed cd3c 5223 f3bd 7821 0fbd
00000220: d0ff 3cbc 5cd0 813d b63f 7d3c 56ac d13d
00000230: 829c e33d fca6 4fbd 568c 923c 5864 96bd
00000240: 98e4 f13d 7194 8c3c a69d ab3d 44fe fbbd
00000250: e354 26bc 50ad 47bc 0ac2 6a3d b012 00be
00000260: d4a3 c6bc 5d2f 56bd 933c 93bd 7e41 febd
00000270: 022c 81bd 1a5a 2cbd f0c6 89bc 9c73 753d
00000280: f04d 53bc 571a 443c 14bd 213d 21ee 40bc
00000290: df4a 253d f393 32bc b0dd 843c 22d0 d53d
000002a0: 5cf0 8ebd 65fb c63d c5c5 89bd 06de ebbd
000002b0: ab3f 78bd 2654 ebbd 5c17 393d 9972 b33d
000002c0: 1cbb 353d f15c c63d 9217 773b e4c5 f0bd
000002d0: b2b2 c7bd 00c3 e53d e5d4 253d 6905 0ebd
000002e0: 137a c63c d541 c33c b856 ff3c 54bd b73d
000002f0: d2ac ef3d 4b06 193d 23b1 b7bd e237 b13d
00000300: 5e85 fabd b000 cbbc d08b b43d a0f1 d6bd
00000310: 0850 933c 34cf 2cbd 6043 bf3b 7e71 c2bd
00000320: a8ff 973c 42f3 843d 8017 f93c 627e b1bd
00000330: 408a 8abb 2010 a53c 50c7 5b3d 4cea bf3d
00000340: 9824 b8bc 948e adbd bcf5 e13d 3c43 e6bd
00000350: 402d 6e3d 4002 a0bd 0093 bdbd b03e fa3d
00000360: 2cf5 e5bd 9a05 d9bd d861 b63c 0088 85bb
00000370: aa5d f73d e0bc 8c3b 7c57 d6bd f065 fbbc
00000380: a046 4abd 708e b33c dede 933d 34d0 83bd
00000390: 5472 abbd c071 81bc aaac c9bd 08e7 be3d
000003a0: 986b 4dbd 50c0 71bd c00c 5f3b b40a 7bbd
000003b0: a04c e83d f25d cdbd 98a1 a5bc 6467 763d
000003c0: 56ee b33d c2f8 d73d 603b 583c e015 c9bb
000003d0: d05a b2bd d899 e13c 4010 50bc e8b6 de3c
000003e0: cc58 b33d 00c3 cabd b4bc 3c3d 7429 803d
000003f0: d8c3 6fbd c0b9 1cbc 4e6c efbd ea52 f2bd

MLP_layers.0.bias f4 [32]
0.13703553 -0.080886714 0.07999063 -0.12249453 -0.07651194 -0.04948658 0.05254735 -0.009713158
0.12963632 -0.052011788 -0.06796335 0.07513284 -0.018067686 -0.116360724 -0.056177914 -0.09118026
0.078361645 -0.12434035 -0.077753514 0.10156147 -0.046510316 -0.011794159 0.031104483 -0.007471482
-0.07819179 0.07757474 -0.09384995 0.12990874 -0.0630023 0.0929412 -0.08627667 -0.09848112
00000000: 0b53 0c3e efa7 a5bd 21d2 a33d 6ade fabd
00000010: 4bb2 9cbd 71b2 4abd e43b 573d f023 1fbc
00000020: 62bf 043e 500a 55bd 5e30 8bbd 3fdf 993d
00000030: af02 94bc 884e eebd d01a 66bd b7bc babd
00000040: 127c a03d 27a6 febd 3c3d 9fbd 76ff cf3d
00000050: 9a81 3ebd 4a3c 41bc d4ce fe3c 55d3 f4bb
00000060: 0423 a0bd 81df 9e3d 6734 c0bd cc06 053e
00000070: 5a07 81bd f557 be3d d3b1 b0bd 78b0 c9bd

MLP_layers.1.weight f4 [1, 32]
0.08285399 0.13667332 -0.0021060929 -0.01784171 -0.10330586 -0.04003964 0.12996347 -0.07238013
0.14175546 0.051360086 0.08364579 0.116027765 0.14638703 -0.13599207 -0.026139328 0.09433879
-0.023290819 0.106206484 0.100854136 0.17258964 -0.02110763 -0.05510662 -0.17560302 -0.029012647
0.073789924 0.119583376 0.06395916 0.16040322 0.15259032 -0.040523693 0.110791385 -0.043775488
00000000: 5aaf a93d 17f4 0b3e 6006 0abb c728 92bc
00000010: 0692 d3bd 9b00 24bd 2515 053e 093c 94bd
00000020: 5828 113e f45e 523d 7c4e ab3d f79f ed3d
00000030: 7be6 153e 8141 0bbe 2522 d6bc b234 c13d
00000040: 63cc bebc c982 d93d 9d8c ce3d 57bb 303e
00000050: e9e9 acbc 7bb7 61bd 47d1 33be eeab edbc
00000060: 2c1f 973d 21e8 f43d 05fd 823d be40 243e
00000070: a340 1c3e 2cfc 25bd 98e6 e23d ed4d 33bd
