SLIC_GAT/last2.pt (torch, 80373 bytes, 12 tensors)

GAT_layers.0.f.weight f4 [32, 124]
0	0x3d9f1b41	0.0776887
1	0xbdf199f3	-0.117969416
2	0xbe3cbb6e	-0.18430874
3	0x3cc6c687	0.024264587
4	0xbe201065	-0.15631254
5	0x3ceac7a1	0.028659644
6	0xbe0bac28	-0.13639891
7	0xbc900c25	-0.017583916
8	0x3e2d7f21	0.16943027
9	0xbd2df9be	-0.0424745
10	0xbe2799c3	-0.16367249
11	0xbdd64773	-0.104628466
12	0xbd036462	-0.032078154
13	0x3dc4c50a	0.09607895
14	0xbe3a762a	-0.18209139
15	0xbdafafab	-0.08578428
16	0x3e185402	0.14875796
17	0xbe427e90	-0.18993592
18	0xbe58b77c	-0.21163744
19	0x3d40e6a5	0.04709496
20	0xbe1e2f77	-0.15447794
21	0xbe50d0c3	-0.20392136
22	0xbdef3c8c	-0.1168147
23	0xbc32843d	-0.010895786
24	0x3bac2b37	0.005254175
25	0x3e291ca5	0.16514833
26	0xbd4b9b7b	-0.049708825
27	0x3d10f790	0.035392344
28	0x3e27db8d	0.16392346
29	0x3d7f1843	0.062278997
30	0xbdc2353c	-0.0948281
31	0x3e1bf520	0.15230227
32	0x3e02e298	0.12781751
33	0x3d3e2e88	0.046431094
34	0xbd633ca1	-0.055477742
35	0x3e33aa13	0.17545347
36	0x3e366719	0.17812766
37	0xbc3110e9	-0.010807254
38	0x3d957401	0.072975166
39	0xbe2d091d	-0.16898008
40	0x3d0b24d2	0.03397066
41	0xbc831055	-0.015998999
42	0x3e479769	0.19491352
43	0x3e384668	0.17995608
44	0x3d919dcb	0.07110175
45	0x3d9e1366	0.07718544
46	0xbdd8c90e	-0.10585223
47	0xbdb3a999	-0.087725826
48	0xbe1923d9	-0.14955081
49	0x3c36fec9	0.011169144
50	0xbdb0b910	-0.08629048
51	0xbe3c2f20	-0.18377352
52	0xbc765b20	-0.015036374
53	0x3df5ea0b	0.12007531
54	0x3deff9b9	0.11717553
55	0xbe24cdae	-0.16094086
56	0xbe261619	-0.16219367
57	0x3df91028	0.12161285
58	0xbe201027	-0.15631162
59	0x3ca45814	0.02006153
60	0xbe0eb66c	-0.13936776
61	0xbd95716f	-0.07297026
62	0x3e242746	0.16030607
63	0x3d518edd	0.051161636
64	0xbdbc79b4	-0.092029005
65	0x3de81349	0.11331803
66	0x3d2aba98	0.041681856
67	0x3e0f0666	0.13967285
68	0x3e380165	0.17969282
69	0xbdf08f5a	-0.11746092
70	0x3e3b84fb	0.18312447
71	0xbd8bd3fc	-0.06827542
72	0xbe31a06a	-0.1734635
73	0xbe529165	-0.20563276
74	0xbd03fd05	-0.03222372
75	0xbdbf9148	-0.09353882
76	0xbe4c1b39	-0.1993226
77	0x3c11e449	0.008904525
78	0xbdad1656	-0.08451526
79	0x3d3c5398	0.04597816
80	0x3d81f1b6	0.06344931
81	0xbded91a2	-0.11600043
82	0x3d4a403c	0.049377665
83	0xbe205e3b	-0.15660946
84	0x3e17f175	0.14838202
85	0xbe1d170e	-0.15340826
86	0xbcf2246d	-0.029558385
87	0xbc659574	-0.014012683
88	0x3c853a74	0.016263224
89	0x3e0e299a	0.13883057
90	0x3dc0dc54	0.09417024
91	0xbd7a96b2	-0.06117887
92	0xbe404878	-0.18777645
93	0xbdf6e552	-0.12055458
94	0x3c51b204	0.01279879
95	0xbc055657	-0.008138261
96	0x3defe585	0.11713699
97	0xbdd5daed	-0.104421474
98	0xbd4f9107	-0.05067542
99	0x3d899c32	0.06719245
100	0x3d15032a	0.03637997
101	0xbdaee9ca	-0.085406855
102	0xbca80793	-0.020511424
103	0xbd9f4bf3	-0.07778158
104	0x3d4aac3d	0.049480665
105	0xbdb37352	-0.0876223
106	0xbe45f76b	-0.19332664
107	0x3e308f0f	0.17242073
108	0xbcfa5373	-0.03055737
109	0xbdf9f556	-0.12204997
110	0x3dad8893	0.08473315
111	0xbe31fed5	-0.17382367
112	0xbe024b89	-0.12724127
113	0x3c9c5a20	0.019085944
114	0xbdafc343	-0.08582165
115	0xbdff1b2f	-0.12456357
116	0xbe57596a	-0.21030203
117	0x3dceb4ea	0.100931
118	0xbc8e3fda	-0.017364431
119	0x3e0677df	0.13131665
120	0x3e0150d8	0.12628496
121	0x3c46f539	0.012143427
122	0x3dff422f	0.124637954
123	0x3dec821b	0.11548253
124	0x3e0f32f6	0.13984284
125	0x3d8acce6	0.067773625
126	0xbe436fc2	-0.19085601
127	0x3e101f11	0.14074351
128	0x3d93b3a8	0.07212001
129	0xbcfdcb1e	-0.030980643
130	0x3e003694	0.1252082
131	0x3e2487a4	0.16067368
132	0x3e015a44	0.1263209
133	0x3d618ffe	0.055068962
134	0x3cba31e1	0.022728862
135	0x3d3af967	0.045648005
136	0xbe11a117	-0.14221607
137	0xbd99fa27	-0.07518416
138	0x3e3fc82f	0.18728708
139	0x3d34d17d	0.044145096
140	0xbdb1ddc1	-0.08684874
141	0xbd3f3d67	-0.046689417
142	0xbd79befd	-0.060973156
143	0xbc9ec665	-0.019381711
144	0x3da4735e	0.08029817
145	0xbdd014cf	-0.10160219
146	0x3d90ed11	0.07076467
147	0x3e0d79fb	0.13816063
148	0x3dfc1690	0.12308991
149	0x3e393f50	0.18090558
150	0xbd8af1b2	-0.06784381
151	0x3e1e4e15	0.15459473
152	0xbd1d8c50	-0.03846389
153	0xbd570ad4	-0.05250056
154	0xbdb967af	-0.09052979
155	0x3d071796	0.032981478
156	0xbdd8c478	-0.105843484
157	0x3db589f9	0.08864207
158	0x3db5bdc2	0.08874084
159	0xbe0f3b60	-0.13987494
160	0xbe1d2766	-0.1534706
161	0x3e3abae6	0.18235359
162	0x3ce067e8	0.027393296
163	0xbe2ecb1f	-0.17069672
164	0x3e3e4079	0.18579282
165	0xbe20dd42	-0.15709403
166	0x3e19a0ef	0.15002798
167	0x3dd259e0	0.102710485
168	0x3db64af3	0.08901014
169	0xbd5fd5c0	-0.054647207
170	0xbe1c5876	-0.1526812
171	0x3cc2884f	0.023746638
172	0xbe054616	-0.13015017
173	0xbdfac74e	-0.122450456
174	0x3d2b73e5	0.041858573
175	0xbdf28650	-0.11842024
176	0xbe02d9e6	-0.12778434
177	0xbe025e0b	-0.12731187
178	0xbd7e3867	-0.06206551
179	0x3dd5745a	0.10422583
180	0xbd8edcd4	-0.06975713
181	0xbdfa3c96	-0.12218587
182	0x3c7242b0	0.014786407
183	0x3e1cbfe9	0.15307583
184	0xbda52cd8	-0.08065194
185	0xbe05ac2a	-0.13053957
186	0x3e0bf489	0.13667502
187	0xbd2054da	-0.03914342
188	0xbd7af58a	-0.06126932
189	0xbdaf2594	-0.08552089
190	0x3d96e031	0.0736698
191	0xbdb1bdaa	-0.08678754
192	0xbe11ab74	-0.1422556
193	0xbe0caeab	-0.13738506
194	0xbdf0f113	-0.11764731
195	0xbd14a5bd	-0.036290873
196	0xbd19152d	-0.03737371
197	0xbcad3418	-0.021143004
198	0xbdbfbe5c	-0.0936248
199	0x3d152f05	0.036421794
200	0x3d8f1f07	0.0698834
201	0x3d2dc0e8	0.042420298
202	0x3cf2f5b1	0.02965817
203	0xbdc25bea	-0.094901875
204	0xbe0271cb	-0.12738721
205	0x3b74dbd1	0.0037362466
206	0xbd3b6c0f	-0.04575735
207	0xbdaca59d	-0.08430026
208	0x3d647b00	0.055781364
209	0x3e460aeb	0.19340102
210	0x3dd4df25	0.10394124
211	0xbd246fa4	-0.04014553
212	0x3e1d46ca	0.15359035
213	0xbd4e4128	-0.050355107
214	0x3d9631fd	0.07333753
215	0x3e1f9b3a	0.15586558
216	0x3e21756d	0.1576745
217	0xbda236cb	-0.07920607
218	0x3d0839f6	0.0332584
219	0xbcd6338b	-0.026147624
220	0xbe0404c4	-0.12892443
221	0xbdd2679d	-0.10273669
222	0x3e14ab66	0.14518508
223	0xbde366c8	-0.11103588
224	0x3cd2722e	0.02568921
225	0x3e0750ac	0.13214368
226	0x3e0eebcb	0.13957135
227	0xbe266ca1	-0.16252376
228	0x3c345235	0.011005928
229	0xbc6a7f71	-0.014312611
230	0x3dc56611	0.09638608
231	0x3e1e82b4	0.15479547
232	0xbdfaeaf2	-0.122518435
233	0xbe379af8	-0.1793021
234	0xbdfe6512	-0.124216214
235	0xbd0b2631	-0.03397197
236	0xbd121df1	-0.035673086
237	0x3da9b376	0.082861826
238	0xbd194a53	-0.037424397
239	0xbc5ad366	-0.013356065
240	0x3d439397	0.047748175
241	0x3d2ea6c7	0.04263952
242	0xbc9b698a	-0.018971223
243	0xbd7636b2	-0.060110755
244	0x3e40a352	0.18812302
245	0x3ca7115a	0.020394016
246	0x3dcdad6b	0.100428425
247	0xbe0b094c	-0.13577765
248	0x3d9c74c8	0.07639462
249	0xbc86e13b	-0.01646482
250	0x3cfc2ebc	0.030784003
251	0x3da28a2b	0.0793651
252	0xbd8d9a28	-0.069141686
253	0xbe16d33e	-0.1472902
254	0xbe1d5bc3	-0.15367036
255	0x3dd94563	0.106089376

GAT_layers.0.f.bias f4 [32]
0	0xbd9d9b76	-0.076956674
1	0x3d6dbfe8	0.058044344
2	0xbd8491c2	-0.064731136
3	0xbd16a4b7	-0.036778178
4	0x3d0c8391	0.03430516
5	0x3d976c5b	0.07393714
6	0xbd47cbb3	-0.048778247
7	0xbcecb8ae	-0.028896656
8	0x3d1e9878	0.038719624
9	0x3dc48776	0.095961496
10	0x3ca785af	0.020449487
11	0xbc8eb69d	-0.017421061
12	0x3da3f55a	0.080057815
13	0xbca1b2c2	-0.019738559
14	0x3d194cde	0.037426822
15	0xbd2cfb3c	-0.042231783
16	0x3beefee4	0.007293569
17	0x3bdec4a3	0.0067983433
18	0x3d89fd28	0.06737739
19	0x3d9961b9	0.07489342
20	0xbbc3adfc	-0.0059716683
21	0x3d547d40	0.05187726
22	0xbc25b0c2	-0.010112943
23	0x3cba8237	0.02276717
24	0x3d8e8cb0	0.06960428
25	0xbd4e6c3d	-0.050396193
26	0xbb9e9ea5	-0.0048406892
27	0xbdb42641	-0.08796359
28	0xbd180552	-0.03711445
29	0x3c1b5d6c	0.009482723
30	0xbd597c27	-0.053096917
31	0xbd154599	-0.036443327

GAT_layers.0.w.weight f4 [1, 124]
0	0x3c1fdfde	0.009757964
1	0xbe27630f	-0.16346382
2	0xbe5d628d	-0.21619625
3	0x3e00c921	0.12576725
4	0x3dff4ebb	0.124661885
5	0x3dc3a297	0.09552496
6	0xbda2c57b	-0.07947823
7	0xbdf87127	-0.12130957
8	0x3d95f24d	0.07321606
9	0xbbd0a828	-0.006367702
10	0x3e2e7217	0.1703571
11	0xbe415d99	-0.18883361
12	0xbc025ce0	-0.007956713
13	0xbcfbacf8	-0.030722126
14	0x3e4469f3	0.19181041
15	0x3e1eb0f0	0.15497184
16	0xbe0588b2	-0.13040426
17	0x3da8397b	0.082140885
18	0x3de726ae	0.112866744
19	0x3d8ab00e	0.06771861
20	0x3e4bd89b	0.19906847
21	0xbe430b02	-0.19047168
22	0xbe5ea963	-0.21744303
23	0x3e4678b7	0.19381987
24	0xbe1fabf0	-0.15592933
25	0x3dd8926b	0.10574802
26	0x3a022d59	0.0004965864
27	0x3de24b8d	0.110495664
28	0x3e2d8b23	0.16947608
29	0x3ca22e05	0.019797334
30	0xbe41a099	-0.1890892
31	0x3cff53fe	0.03116798
32	0xbe072bd4	-0.13200313
33	0xbe2c8ce0	-0.16850615
34	0x3e4961ae	0.19666168
35	0x3e5d772f	0.21627496
36	0x3d453062	0.048141845
37	0x3e3daf8c	0.18523997
38	0x3dd49534	0.10380021
39	0xbe34de54	-0.17662936
40	0xbdd2ff51	-0.10302604
41	0xbe04ca04	-0.12967688
42	0xbdf66286	-0.120305106
43	0xbdd24841	-0.102676876
44	0x3e51f29c	0.20502704
45	0xbe0790f0	-0.13238883
46	0x3b897614	0.004194984
47	0xbcfdfafe	-0.031003471
48	0xbe59310b	-0.21210115
49	0xbe3efaae	-0.18650314
50	0xbe427f44	-0.1899386
51	0xbe51707b	-0.20453064
52	0xbb946cd4	-0.004529575
53	0xbcc0ea62	-0.023549262
54	0xbe3120d2	-0.17297676
55	0xbdedb7de	-0.116073355
56	0x3d8614d5	0.06546942
57	0x3d931c35	0.071831144
58	0x3d89388f	0.06700241
59	0x3d439c90	0.04775673
60	0x3e06283d	0.13101287
61	0xbc37c81f	-0.011217146
62	0x3d19630e	0.03744798
63	0xbe2b56ce	-0.16732332
64	0xbe1cbd01	-0.15306474
65	0xbe014423	-0.12623648
66	0xbdc66e09	-0.09688956
67	0xbe224583	-0.15846829
68	0x3dc291ad	0.09500442
69	0xbe3b9af6	-0.18320832
70	0xbd9fbc72	-0.07799615
71	0xbdee683b	-0.11640974
72	0xbe1fc809	-0.15603651
73	0xbe33abff	-0.1754608
74	0xbca72535	-0.020403484
75	0x3d77a596	0.06046065
76	0x3d5e1869	0.054222498
77	0xbc9e3446	-0.019312035
78	0x3d510fb4	0.051040366
79	0xbc7bf920	-0.01537922
80	0xbdda5b57	-0.10661953
81	0x3d23ed43	0.040021192
82	0xbc729e31	-0.014808224
83	0x3e38cebd	0.18047614
84	0x3dbfa78c	0.09358129
85	0x3d5ea2b7	0.054354396
86	0x3e2fe33a	0.17176524
87	0x3e55ceeb	0.20879714
88	0xbe1b6fa8	-0.15179312
89	0xbe2b941b	-0.16755717
90	0x3e0c0bc3	0.13676362
91	0xbdf648b7	-0.12025588
92	0xbd708de4	-0.058729067
93	0x3e2f18f2	0.1709936
94	0xbdfcf268	-0.12350923
95	0x3e4a2df1	0.19744088
96	0x3e01fbb1	0.12693669
97	0x3db1b598	0.086772144
98	0x3dcff191	0.10153497
99	0x3e22e05a	0.15905896
100	0xbd8cd1b3	-0.068759345
101	0xbd535d91	-0.051602904
102	0xbc11b6dd	-0.008893696
103	0x3c33b895	0.010969301
104	0xbc2b7d9b	-0.010466958
105	0xbe3f88ad	-0.18704481
106	0xbe59a916	-0.21255907
107	0xbd9126f3	-0.07087507
108	0xbe56995f	-0.20956944
109	0xbd9f1afd	-0.077688195
110	0xbe369e2b	-0.17833774
111	0xbd1e3ea5	-0.03863396
112	0xbe582526	-0.21107921
113	0x3d7508f4	0.05982299
114	0xbe11fde6	-0.14257011
115	0xbdea849f	-0.11451077
116	0xbe15e8e1	-0.14639618
117	0x3e31485b	0.17312758
118	0x3e4a17df	0.19735669
119	0x3d920021	0.07128931
120	0x3c9d31ca	0.01918878
121	0xbd00d2da	-0.031451084
122	0x3e50ed19	0.20402946
123	0x3df2c77c	0.11854455

GAT_layers.1.f.weight f4 [64, 64]
0	0xbe5099b9	-0.2037114
1	0x3e18147a	0.14851561
2	0xbe3f6090	-0.1868918
3	0xbe11a912	-0.14224651
4	0xbbdf2f3b	-0.00681105
5	0x3e27802a	0.16357484
6	0x3dd3f2e9	0.10349066
7	0x3d9998cb	0.07499846
8	0xbe403c68	-0.18773043
9	0x3d8109a0	0.06300664
10	0x3d5e899d	0.054330457
11	0x3e5c8383	0.21534543
12	0xbdca1746	-0.0986772
13	0x3df0f131	0.117647536
14	0x3e31d8ca	0.17367855
15	0x3da3bc2f	0.079948775
16	0xbd3bf71f	-0.04588997
17	0xbe4048f5	-0.18777831
18	0x3dd834b3	0.105569266
19	0xbe4a5486	-0.19758806
20	0x3dee35b8	0.1163134
21	0x3d9e92e6	0.077428624
22	0x3e18068d	0.14846249
23	0x3e2f82f0	0.17139792
24	0xbe276975	-0.16348822
25	0xbd8ca2db	-0.06867
26	0x3cdd5043	0.02701581
27	0x3d7c7ff5	0.061645467
28	0xbe3a0724	-0.18166786
29	0x3d7dc28f	0.061953124
30	0x3e5b41ea	0.21411863
31	0x3d40cdfb	0.04707144
32	0xbdf9c83f	-0.12196397
33	0xbe1f7398	-0.1557144
34	0xbe442dc6	-0.19158086
35	0xbdab9d71	-0.08379639
36	0x3db4e483	0.08832648
37	0x3e2d594c	0.16928595
38	0xbdf7c11c	-0.120973796
39	0x3e36c850	0.1784985
40	0x3cff4c94	0.031164445
41	0x3e380283	0.17969708
42	0xbd7f762e	-0.062368564
43	0x3cb3562c	0.021891676
44	0x3e55d067	0.2088028
45	0x3d15a62f	0.03653544
46	0x3e25c3e0	0.16188002
47	0xbe0ca02b	-0.13732974
48	0x3de34abb	0.11098238
49	0xbe2f58ab	-0.17123668
50	0xbd8db3bc	-0.06919047
51	0x3e062b6c	0.13102502
52	0x3e59e68b	0.21279351
53	0xbe2fbf8e	-0.17162916
54	0xbe3f3652	-0.18673065
55	0x3e580917	0.21097218
56	0xbde8bbd4	-0.1136395
57	0xbe2a2e7e	-0.16619298
58	0xbc94106f	-0.018074242
59	0xbd7e6b39	-0.062113974
60	0x3e1dd64e	0.15413782
61	0xbe576d98	-0.210379
62	0x3dd650b9	0.104646154
63	0x3b97d6af	0.0046337466
64	0x3cd769fb	0.026295653
65	0x3e29f89b	0.16598742
66	0xbdf766e4	-0.12080172
67	0x3e1aea6c	0.15128487
68	0x3d5143bf	0.05109
69	0xbd2eb96d	-0.042657305
70	0x3e553755	0.20821889
71	0x3e1761c8	0.14783394
72	0x3d7c3c57	0.061580982
73	0x3bce2ada	0.0062917294
74	0x3d66f02c	0.05638139
75	0x3e0a22a5	0.13489778
76	0x3e504883	0.20340161
77	0xbe463ee2	-0.19359925
78	0x3b041b28	0.0020157788
79	0x3c44db88	0.012015231
80	0x3c557f43	0.01303083
81	0x3df7337e	0.12070368
82	0xbe0410a3	-0.12896971
83	0xbe1c1be5	-0.15245016
84	0x3d8f974d	0.0701128
85	0x3e161869	0.14657749
86	0x3dfa72ad	0.12228904
87	0xbdd7ecfa	-0.105432466
88	0x3d5ef05f	0.054428454
89	0xbe1a77a3	-0.150847
90	0xbe12dbae	-0.14341614
91	0xbe4a49e1	-0.19754745
92	0x3e4a498f	0.19754623
93	0xbe606218	-0.2191242
94	0x3e481258	0.19538248
95	0xbe4b817d	-0.19873615
96	0x3e55847e	0.20851323
97	0xbc87853f	-0.016543029
98	0x3cf4c606	0.029879581
99	0x3dbd5246	0.09244208
100	0xbe032d85	-0.12810333
101	0xbda3064b	-0.07960185
102	0xbd7091ab	-0.05873267
103	0x3dd089b8	0.10182518
104	0xbdd8bb6a	-0.105826214
105	0xbc866c6d	-0.016409123
106	0xbcf54c27	-0.029943539
107	0xbe4068d3	-0.18789987
108	0xbe01f063	-0.12689357
109	0xbc36fa37	-0.011168054
110	0x3c96c87a	0.018406142
111	0xbd682e44	-0.056684747
112	0x3e00b484	0.12568861
113	0xbdd24233	-0.10266533
114	0xbd655365	-0.055987734
115	0xbdea19b5	-0.114306845
116	0xbe28b70a	-0.16476074
117	0xbd334024	-0.04376234
118	0xbd9bb8b1	-0.076035865
119	0x3e5919ed	0.21201296
120	0x3c9b833e	0.01898348
121	0x3bcdfb0c	0.0062860306
122	0xbda24e53	-0.079250954
123	0x3e3130e7	0.17303811
124	0xbe146bc2	-0.14494231
125	0x3db20154	0.086916596
126	0x3e4bb240	0.19892216
127	0x3df752dc	0.12076351
128	0x3e0a5a65	0.13511045
129	0x3e40ec95	0.18840249
130	0x3d9e3484	0.0772486
131	0xbda2e5e5	-0.07954005
132	0x3e2c78f9	0.16843022
133	0x3da6f053	0.08151307
134	0xbe4d5393	-0.20051412
135	0xbe269b70	-0.16270232
136	0x3c84a2a3	0.016190832
137	0xbd6c5aad	-0.057703663
138	0x3c816ddc	0.015799455
139	0xbd63ec00	-0.05564499
140	0xbd1642af	-0.03668469
141	0x3d8b221f	0.067936175
142	0xbe38d26b	-0.18049018
143	0xbd81ce70	-0.06338203
144	0x3d806655	0.06269518
145	0xbe456f3b	-0.19280712
146	0xbe5a34c8	-0.21309197
147	0x3e26e653	0.16298799
148	0x3e4f23da	0.2022852
149	0x3d81e6d2	0.063428536
150	0xbe4e78fb	-0.20163338
151	0xbdd5557f	-0.10416698
152	0xbe206b81	-0.1566601
153	0xbe4f837b	-0.20265
154	0x3e2deed3	0.16985635
155	0x3dd6423f	0.10461854
156	0xbe0009cd	-0.12503739
157	0xbdc610b8	-0.096711576
158	0x3df144cf	0.11780702
159	0xbd8a3d0f	-0.06749927
160	0x3d61d009	0.05513004
161	0x3e44b861	0.1921096
162	0x3be1d464	0.006891774
163	0xbdfdd0bc	-0.123933285
164	0xbe52a33f	-0.20570086
165	0x3e20ea82	0.15714458
166	0x3d28e867	0.04123726
167	0xbe3763eb	-0.1790921
168	0xbc8d438b	-0.017244121
169	0x3d9be20b	0.07611474
170	0xbce4d890	-0.027935296
171	0xbe488d38	-0.1958512
172	0xbcde1753	-0.027110731
173	0x3e2755e1	0.16341354
174	0x3e36189e	0.17782828
175	0xbd6aa069	-0.057281885
176	0x3da35384	0.07974914
177	0x3caa5ba2	0.020795647
178	0x3e578e57	0.21050392
179	0xbe5a2888	-0.21304524
180	0xbda1e850	-0.07905638
181	0x3e565e5f	0.20934437
182	0x3d48cfa5	0.04902615
183	0xbe52462a	-0.20534578
184	0xbb9e286b	-0.0048265955
185	0xbd4182a1	-0.047243718
186	0x3d2a5400	0.041584015
187	0x3d4fdebe	0.050749533
188	0x3e13fa99	0.14451064
189	0xbe1d3ac7	-0.15354453
190	0xbe267dce	-0.16258928
191	0xbd953acd	-0.07286606
192	0xbc6daf45	-0.01450712
193	0xbdbb2035	-0.091370024
194	0x3d9e7678	0.0773744
195	0x3d23f384	0.040027156
196	0x3db0a18a	0.08624561
197	0xbe55aa59	-0.20865764
198	0x3e46abb2	0.19401434
199	0xbe1ea55b	-0.15492766
200	0x3da8276a	0.08210643
201	0xbe4ec788	-0.20193303
202	0x3e32081d	0.17385907
203	0x3da52a75	0.08064739
204	0xbe0738c6	-0.13205251
205	0xbe55d1b4	-0.20880777
206	0x3e2e2053	0.17004518
207	0xbd9f18dd	-0.07768414
208	0xbe03ee1e	-0.12883803
209	0x3e0ca871	0.1373613
210	0xbe5a0bb7	-0.21293531
211	0x3d84b8f7	0.06480592
212	0x3db99fd7	0.0906369
213	0x3c680aa1	0.01416269
214	0x3dd87125	0.105684556
215	0xbe35734a	-0.1771976
216	0xbe1207f4	-0.14260846
217	0x3e0292f8	0.12751377
218	0xbdf5e045	-0.12005667
219	0xbbfdf9f0	-0.007750742
220	0x3e1dd522	0.15413335
221	0x3cfc8153	0.030823385
222	0xbdbeed7c	-0.0932264
223	0x3df7e0a8	0.12103397
224	0xbd625652	-0.055258103
225	0x3e4d89be	0.20072076
226	0x3e0f83d1	0.14015128
227	0xbe3bb8b6	-0.1833218
228	0xbe075a66	-0.13218078
229	0x3cb1d79b	0.021709254
230	0x3da3cf0c	0.079984754
231	0x3e50990e	0.20370886
232	0x3e0aac6b	0.13542335
233	0xbdce4add	-0.10072873
234	0xbe01f2c3	-0.12690262
235	0x3e33fa5d	0.17575975
236	0x3df42f80	0.119231224
237	0xbd3d2bd1	-0.046184365
238	0xbde10b76	-0.10988514
239	0xbe2d1ecc	-0.1690628
240	0xbdca6e18	-0.0988428
241	0xbe022b76	-0.12711892
242	0x3e5a082d	0.21292181
243	0xbd71a794	-0.058997706
244	0xbdc5f1eb	-0.09665283
245	0x3e1afeea	0.15136304
246	0x3d4bbd46	0.049741052
247	0xbdcc4845	-0.09974722
248	0x3d0a6218	0.033784956
249	0x3e10d380	0.14143181
250	0xbdb8f5df	-0.09031271
251	0x3d49c197	0.049256887
252	0x3e4e4d04	0.20146567
253	0xbe35ae84	-0.17742354
254	0xbe1157a7	-0.14193593
255	0xbe34d0f6	-0.17657837

GAT_layers.1.f.bias f4 [64]
0	0xbdf41e7b	-0.11919876
1	0x3c5ec149	0.013595887
2	0xbc3b5d10	-0.011435762
3	0x3d450ccc	0.048107907
4	0xbd8bb742	-0.06822063
5	0x3d201265	0.039080042
6	0xbc509900	-0.012731791
7	0x3d584ed9	0.05280957
8	0x3db59b68	0.08867532
9	0xbd89822e	-0.06714283
10	0x3d95f032	0.07321204
11	0xbd9e33c0	-0.07724714
12	0xbda3eee0	-0.08004546
13	0x3e0d6025	0.13806207
14	0xbb1152c7	-0.0022174583
15	0xbb8f3340	-0.004370123
16	0xbcf35250	-0.029702336
17	0x3cfbe8a0	0.030750573
18	0x3d3dc4b8	0.046330184
19	0x3d71a079	0.05899093
20	0x3dfae613	0.122509144
21	0x3d98be1f	0.07458138
22	0xbdc9562a	-0.098308876
23	0x3dd33371	0.10312546
24	0xbda16cb3	-0.07882061
25	0xbd6925a4	-0.056920663
26	0xbc9b8f60	-0.018989265
27	0xbd199ad7	-0.037501182
28	0x3d32ab05	0.04362013
29	0xbdbe5c12	-0.09294905
30	0xbd3a6508	-0.045506507
31	0x3dbe4814	0.092910916
32	0x3d579c8f	0.05263954
33	0xbd820f56	-0.06350581
34	0x3db18abb	0.08669039
35	0xbdcfa01a	-0.10137959
36	0xbbb436e2	-0.0054997066
37	0x3d01a4f0	0.031651437
38	0xbd9b2c70	-0.07576835
39	0xbcaa5eb5	-0.020797113
40	0xbddd2e18	-0.10799807
41	0xbd8a5d7a	-0.067561105
42	0x3d0b4631	0.034002487
43	0xbd82a490	-0.06379044
44	0xbdad75d7	-0.08469742
45	0x3defb545	0.11704496
46	0xbd5a1988	-0.053247005
47	0x3d28cf26	0.041213177
48	0xbda49ffa	-0.080383256
49	0xba6c8872	-0.00090230175
50	0x3da7398b	0.08165272
51	0xbde3be3d	-0.111202694
52	0xbd6367d8	-0.055518955
53	0xbd53ec5c	-0.05173908
54	0xbdad25b5	-0.08454458
55	0xbc7c8a00	-0.015413761
56	0xbcd8af99	-0.026450919
57	0x3dc0dc60	0.09417033
58	0x3db72b01	0.08943749
59	0x3d58fc17	0.052974787
60	0x3c17f8f1	0.009275661
61	0xbdd57128	-0.104219735
62	0xbb06275f	-0.0020470244
63	0x3dee808c	0.11645612

GAT_layers.1.w.weight f4 [1, 64]
0	0xbdbeeac6	-0.09322123
1	0xbe4f2b05	-0.20231254
2	0x3df596dd	0.119916655
3	0xbe637c06	-0.2221528
4	0xbe8258bd	-0.25458327
5	0xbe89c284	-0.26906216
6	0xbd33b37e	-0.04387235
7	0xbcf0c60c	-0.029391311
8	0x3e81cb46	0.25350398
9	0x39b92e66	0.0003532052
10	0xbd831774	-0.06400958
11	0xbe61a5c3	-0.2203589
12	0x3c85a049	0.016311781
13	0x3e3e6e34	0.18596727
14	0x3ddd3501	0.10801125
15	0x3e8a5e67	0.27025148
16	0xbd817bbc	-0.063224286
17	0xbe37dcaa	-0.1795527
18	0x3e571479	0.21003903
19	0x3e13dcfc	0.14439768
20	0xbe629ba9	-0.22129692
21	0xbe8d0e77	-0.27550098
22	0xbd26b06b	-0.04069559
23	0xbe839cee	-0.25705665
24	0xbe88583b	-0.26629815
25	0x3e5d8b6b	0.21635215
26	0xbda948b3	-0.082658194
27	0xbdaefa3f	-0.085438244
28	0x3e10e703	0.14150624
29	0xbe7300af	-0.2373073
30	0xbe5b79fe	-0.21433255
31	0xbe81a55e	-0.25321478
32	0xbc448fcc	-0.0119971745
33	0xb8958e69	-7.1313996e-05
34	0x3e2b8c2a	0.16752687
35	0xbe76d503	-0.24104695
36	0x3c92aa5e	0.017903503
37	0x3e821e45	0.2541372
38	0x3e8b2d80	0.2718315
39	0xbe939af2	-0.2882915
40	0xbe86d149	-0.26331547
41	0x3e0235a0	0.12715769
42	0xbce9448e	-0.028475072
43	0xbe2b6eba	-0.16741458
44	0xbdfab78d	-0.12242041
45	0x3e73be4e	0.23803064
46	0x3e1614fe	0.14656445
47	0xbe3d4ae0	-0.18485594
48	0x3d26161d	0.040548433
49	0xbd4e4bb6	-0.050365172
50	0xbc12a14c	-0.008949589
51	0x3e85a273	0.261005
52	0xbe5ea98e	-0.21744367
53	0x3e9081b3	0.28223953
54	0x3e51c325	0.20484598
55	0x3cea3a04	0.028592117
56	0x3dc96a82	0.09834768
57	0xbe940aa2	-0.28914362
58	0xbe05f93f	-0.13083361
59	0x3e25768d	0.16158505
60	0xbe1b124b	-0.15143697
61	0xbe1dc0ba	-0.1540555
62	0xbe02744d	-0.12739678
63	0x3e93ca33	0.28865203

GAT_layers.2.f.weight f4 [64, 128]
0	0x3df37754	0.118879944
1	0xbda4a3cb	-0.080390535
2	0xbdd29d17	-0.10283869
3	0x3da35091	0.07974351
4	0x3e0affe6	0.1357418
5	0x3e3e33af	0.18574403
6	0x3e2e2822	0.17007497
7	0x3cc95774	0.024577834
8	0x3e25f6e3	0.16207461
9	0xbdde61c9	-0.10858495
10	0xbe0c6476	-0.13710198
11	0x3e0a644f	0.13514827
12	0x3d189f0d	0.037261058
13	0x3e1df4c4	0.15425402
14	0xbdad2e5f	-0.0845611
15	0x3db8c09b	0.090211116
16	0xbdfd27a9	-0.1236108
17	0xbd1427cd	-0.03617077
18	0x3e1d5e5b	0.15368025
19	0xbd2d73e4	-0.04234685
20	0xbca9d02f	-0.020729152
21	0x3da179c2	0.078845516
22	0xbe14e3e4	-0.14540058
23	0x3dc5f404	0.09665683
24	0xbba6cb87	-0.0050901803
25	0x3c68ebc0	0.014216363
26	0x3bb38257	0.005478184
27	0xbdca1684	-0.09867576
28	0x3dfd1607	0.12357717
29	0xbd0eaf5e	-0.034835212
30	0xbdac3a68	-0.084095776
31	0x3e299659	0.1656126
32	0xbe222fb2	-0.15838507
33	0x3e3248e6	0.17410621
34	0xbd8f39b9	-0.069934316
35	0xbb456e94	-0.0030125724
36	0xbde88df0	-0.113551974
37	0x3e42b00f	0.19012474
38	0xbd442efd	-0.047896374
39	0x3dbbfc1e	0.09178947
40	0xbcd45533	-0.025919532
41	0x3e33588b	0.17514245
42	0x3ce27f46	0.02764858
43	0x3db199ac	0.08671889
44	0x3d8674c9	0.06565244
45	0xbd858ab9	-0.065206
46	0x3d0a5a8f	0.03377777
47	0x3de8a6d1	0.11359943
48	0x3d8c9060	0.06863475
49	0xbca42b33	-0.02004013
50	0x3d370717	0.044684496
51	0xbca5bccb	-0.020231625
52	0xbdf00578	-0.11719793
53	0x3d650ba3	0.0559193
54	0xbe1a7782	-0.15084651
55	0x3d47f890	0.048821032
56	0xbb20189e	-0.0024428735
57	0xbe25824d	-0.16162987
58	0xbd022f10	-0.031783164
59	0x3dc0a778	0.09406942
60	0x3d9f227d	0.0777025
61	0x3e0aee80	0.13567543
62	0xbe15aa19	-0.14615668
63	0xbe2fab53	-0.17155199
64	0xbe1fe1c5	-0.15613468
65	0xbe035e0c	-0.12828845
66	0x3d666279	0.056246255
67	0xbe09f5ec	-0.13472718
68	0xbd9a15e3	-0.07523706
69	0x3b13220e	0.0022450718
70	0xbd97cac7	-0.074117236
71	0x3d28f883	0.041252624
72	0xbd946a16	-0.07246797
73	0x3e1160ea	0.14197126
74	0xbd15f743	-0.03661276
75	0xbe2d158b	-0.16902749
76	0xbdc295cb	-0.09501227
77	0xbddc9857	-0.10771244
78	0xbda6b2ba	-0.08139558
79	0x3e17866b	0.1479737
80	0x3e2ff0ec	0.17181748
81	0xbcc2aae6	-0.023763131
82	0x3c365699	0.011129045
83	0xbe0da8f7	-0.13833986
84	0xbe2842b5	-0.16431697
85	0xbdcb4365	-0.09924964
86	0xbe2add59	-0.16686
87	0xbcdb9431	-0.026804062
88	0xbd3c94be	-0.04604029
89	0xbd97bb44	-0.07408765
90	0x3c002227	0.007820643
91	0x3cdcc6d3	0.026950276
92	0x3d754f84	0.059890285
93	0xbdbdcaf9	-0.092672296
94	0xbd5fd504	-0.054646507
95	0x3d8c2589	0.06843097
96	0x3db6f53f	0.08933496
97	0xbdf27753	-0.118391655
98	0x3d387daa	0.045041718
99	0xbe0798f0	-0.13241935
100	0x3e1690fc	0.14703745
101	0x3cd7ef7d	0.026359314
102	0x3d75ea0c	0.060037658
103	0x3df847eb	0.12123092
104	0x3e177135	0.14789279
105	0x3e04c056	0.12963995
106	0xbe007f43	-0.12548546
107	0xbd1195e5	-0.03554334
108	0xbcbb3c29	-0.022855835
109	0x3de092f7	0.10965531
110	0xbd7c3525	-0.06157412
111	0x3d688f4a	0.056777276
112	0x3e1c2cf3	0.15251522
113	0x3dbf7d7b	0.093501054
114	0x3e35c464	0.17750698
115	0x3dc1b8ab	0.09459051
116	0x3e053fc4	0.13012606
117	0xbd99f7d5	-0.07517973
118	0xbd801afe	-0.06255148
119	0x3e0c82aa	0.1372172
120	0x3c9f07c3	0.01941288
121	0x3d41a7e0	0.04727924
122	0x3df47f79	0.11938376
123	0x3e0aa34d	0.13538857
124	0xbe2ece54	-0.17070895
125	0x3e1cc5b3	0.15309791
126	0xbe03b0e3	-0.12860446
127	0xbd6547b8	-0.0559766
128	0x3e2b3ef9	0.16723241
129	0xbd7cc373	-0.061709832
130	0x3e2a6679	0.16640653
131	0x3daa07d4	0.08302274
132	0x3cc001dd	0.023438388
133	0x3d9ddbcf	0.07707941
134	0x3d681541	0.056660894
135	0x3db6b05a	0.08920355
136	0xbdb83758	-0.08994931
137	0x3d06111b	0.032731157
138	0xbd4d029a	-0.05005131
139	0x3d5de819	0.054176424
140	0xbdc36a1a	-0.09541722
141	0xbdd2cb00	-0.102926254
142	0xbd8945df	-0.0670278
143	0x3d20b04a	0.039230622
144	0xbdec3242	-0.115330234
145	0xbe218374	-0.15772802
146	0xbe2aeffa	-0.16693106
147	0xbde2c490	-0.110726476
148	0x3d9a84fb	0.07544895
149	0xbd265c01	-0.040615086
150	0xbe0ca4b3	-0.13734703
151	0xbe034a28	-0.12821257
152	0x3d19e4cf	0.037571725
153	0x3e130e92	0.14361027
154	0x3dc5e3bd	0.09662578
155	0x3bbebed9	0.0058210907
156	0xbe39176a	-0.18075338
157	0xbd2fdf69	-0.04293767
158	0xbe27a794	-0.1637252
159	0x3e18c9a9	0.14920677
160	0xbc689caf	-0.0141975125
161	0x3b87fe0c	0.004150158
162	0xbe13541c	-0.14387554
163	0x3df088bc	0.1174483
164	0xbbd68515	-0.0065466263
165	0xbdefd219	-0.11709995
166	0x3d2abe12	0.04168517
167	0x3e02082e	0.12698433
168	0x3e1619ef	0.1465833
169	0x3d911eaf	0.070859306
170	0xbdebdef0	-0.11517131
171	0x3e0493ff	0.12947081
172	0xbdd6f0ce	-0.104951486
173	0xbe482157	-0.19543968
174	0xbde7ab1c	-0.113119334
175	0x3de040c6	0.109498546
176	0x3e1ad6f4	0.1512106
177	0xbdb7d2ab	-0.089757286
178	0x3d491978	0.049096555
179	0x3db18d4c	0.08669528
180	0xbde8ca24	-0.1136668
181	0x3de3ec87	0.111290984
182	0x3dee5b29	0.11638481
183	0x3cf4f0a3	0.0298999
184	0x3e00ebcb	0.12589948
185	0xbe1e6e21	-0.15471698
186	0x3df38f58	0.11892575
187	0x3d9a0518	0.07520503
188	0x3c079fc1	0.008277834
189	0xbdf2e983	-0.11860945
190	0x3d9b1cce	0.075738534
191	0xbddf4dcb	-0.1090351
192	0xbdb0b22f	-0.08627736
193	0x3d671d7f	0.056424614
194	0xbe0cc552	-0.13747147
195	0x3d94eaaf	0.07271325
196	0x3e2baa98	0.16764295
197	0x3d8d03e5	0.068855084
198	0xbdd3d498	-0.103432834
199	0x3c494424	0.012284312
200	0x3e0af4a0	0.1356988
201	0xbe2223ee	-0.15834019
202	0x3dbb55ba	0.091472104
203	0x3d078fdf	0.03309619
204	0xbc9fee30	-0.019522756
205	0xbda8f387	-0.08249574
206	0x3dc01eac	0.0938085
207	0xbba412d9	-0.0050071296
208	0x3d99d5cb	0.07511481
209	0x3d997934	0.07493821
210	0x3d765f26	0.060149334
211	0x3dd57b15	0.10423867
212	0x3b8a929a	0.004228902
213	0xbe1ab110	-0.15106606
214	0x3e138001	0.14404298
215	0xbe010eab	-0.12603252
216	0xbb8468f0	-0.00404083
217	0x3df61aa6	0.120168015
218	0x3e254fa7	0.16143666
219	0x3e06ae47	0.13152419
220	0x3d84866a	0.0647095
221	0xbdd50d39	-0.10402913
222	0x3e091ca4	0.13389832
223	0x3cfdb875	0.030971745
224	0x3de30be4	0.11086252
225	0xbe086608	-0.13320172
226	0x3dd3ca80	0.10341358
227	0x3de48c99	0.111596294
228	0xbc21fc06	-0.009886747
229	0xbcd61b29	-0.026135998
230	0xbcd702ea	-0.026246507
231	0xbe26a3d6	-0.16273436
232	0x3d8794bd	0.066201665
233	0xbdd298b4	-0.10283032
234	0x3dd75920	0.10515046
235	0xbe0790f2	-0.13238886
236	0xbe0ebfc4	-0.1394034
237	0x3cf67265	0.030083844
238	0x3e1a627d	0.15076633
239	0xbdbaea28	-0.09126693
240	0x3d7562e1	0.05990875
241	0x3de8ed7b	0.11373421
242	0x3ca4314a	0.020043034
243	0x3de919b0	0.113818526
244	0xbe348fee	-0.1763303
245	0xbdeb7253	-0.11496415
246	0x3dd8d195	0.105868496
247	0xbe2efbac	-0.17088193
248	0xbd1f9619	-0.038961504
249	0xbd61510b	-0.05500893
250	0x3e2325bb	0.15932362
251	0xbdfebca8	-0.12438327
252	0x3d04f90f	0.032464083
253	0x3d626cca	0.05527953
254	0xbd9ed5ad	-0.07755599
255	0x3e291419	0.16511573

GAT_layers.2.f.bias f4 [64]
0	0x3e63d825	0.22250421
1	0xbc7ef360	-0.015560955
2	0x3e7df8de	0.24801967
3	0x3cf11474	0.029428698
4	0xbd4aea25	-0.049539704
5	0xbdaac2fa	-0.0833797
6	0xbc7e5fbf	-0.015525757
7	0x3e67d7c4	0.22640902
8	0xbbcba9fd	-0.0062153325
9	0xbc7a75ed	-0.015286905
10	0x3e93fb14	0.28902495
11	0xbc0f2ded	-0.008738977
12	0x3e660375	0.22462256
13	0x3e487c7e	0.1957874
14	0x3e7e9e8f	0.24865173
15	0xbd0a0327	-0.033694413
16	0xbda77e27	-0.081783585
17	0xbc740dab	-0.014895837
18	0xbc18919f	-0.0093120625
19	0xbd1fc028	-0.039001614
20	0x3e59de1f	0.21276139
21	0x3e89aa4e	0.26887745
22	0x3e6d107b	0.23150818
23	0xbda42a7e	-0.08015917
24	0x3e89cfc9	0.2691634
25	0x3e927913	0.28607997
26	0x3e6b2f7e	0.22967336
27	0xbd4d3b48	-0.050105363
28	0xbcc7e946	-0.024403226
29	0x3e5bdf17	0.21471821
30	0x3e756d4e	0.23967478
31	0x3e70535d	0.234693
32	0x3e45f3f0	0.19331336
33	0xbc931e19	-0.017958688
34	0x3e7eeaed	0.24894305
35	0x3e8d6d7d	0.27622595
36	0xbcb23998	-0.021755978
37	0xbd8fe82d	-0.07026706
38	0xbc0f9ed4	-0.008765895
39	0xbce0b77d	-0.027431244
40	0xbd8951f6	-0.06705086
41	0x3e8dff6a	0.27733928
42	0x3e484990	0.19559312
43	0x3e2ce5a0	0.1688447
44	0xbd531ed1	-0.05154306
45	0x3e81593f	0.25263402
46	0x3e424e9a	0.18975297
47	0x3e1fe3dd	0.15614267
48	0x3e6af851	0.22946288
49	0x3e3e2db2	0.18572119
50	0xbc6c8d0a	-0.014437923
51	0xbd86550a	-0.06559189
52	0x3e45e2d0	0.19324803
53	0xbc2f8124	-0.010711942
54	0x3e61a563	0.22035746
55	0xbd92e007	-0.07171636
56	0xbcf68ac5	-0.030095467
57	0x3e7f2cb3	0.24919395
58	0xbdb8bedc	-0.090207785
59	0xbd7f6a9b	-0.062357526
60	0xbd429ba3	-0.047511708
61	0x3e57abdc	0.21061653
62	0xbd804c88	-0.06264597
63	0xbd8d9b53	-0.06914391

GAT_layers.2.w.weight f4 [1, 128]
0	0xbe1bbdc1	-0.15209104
1	0xbe3c61b7	-0.1839665
2	0x3e11d22f	0.14240335
3	0x3e045387	0.12922488
4	0x3d8cc938	0.06874317
5	0x3e5a63a0	0.21327066
6	0x3dac9f0f	0.084287755
7	0x3df10599	0.11768646
8	0xbdb2a103	-0.08722117
9	0xbe02bda3	-0.12767653
10	0x3e526008	0.20544446
11	0xbde04b9e	-0.10951923
12	0xbbf8c59b	-0.007591916
13	0x3e19dd5f	0.15025853
14	0xbd365098	-0.044510454
15	0xbe10ac01	-0.14128114
16	0xbe1b46e0	-0.15163755
17	0x3d98e9b2	0.07466449
18	0x3daf04c4	0.08545831
19	0xbd72aea3	-0.059248578
20	0x3d2b32eb	0.041796606
21	0xbdeea027	-0.116516404
22	0x3d985276	0.07437603
23	0x3e104db0	0.14092135
24	0x3e1ad15b	0.15118925
25	0xbdfecd27	-0.124414735
26	0xbe0e2f05	-0.13885124
27	0x3df13a17	0.11778658
28	0x3e31d1d8	0.17365205
29	0xbe05407e	-0.13012883
30	0xbe527268	-0.20551455
31	0xbdf366ff	-0.11884879
32	0x3dc6dd28	0.09710151
33	0xbe26f68f	-0.16304992
34	0x3d74aa69	0.05973283
35	0xbdb5a88e	-0.0887004
36	0xbd097c42	-0.033565767
37	0xbe15b673	-0.1462038
38	0x3d92a04b	0.0715948
39	0xbc089b5b	-0.008337821
40	0xbdee0d8f	-0.1162368
41	0x3de86457	0.11347263
42	0x3ddbd735	0.10734407
43	0x3dc1d3ab	0.094642006
44	0x3e4c7588	0.1996671
45	0xbd79e279	-0.061006997
46	0xbe33ba26	-0.17551479
47	0x3dad8e9a	0.08474465
48	0x3daf11b0	0.085482955
49	0x3dff5c08	0.124687254
50	0xbd88d42c	-0.066810936
51	0xbe1ae3c5	-0.1512595
52	0x3d1f93e1	0.038959388
53	0xbdccae63	-0.09994199
54	0xbcb44cbe	-0.02200925
55	0xbe24a199	-0.1607727
56	0xbd6cad60	-0.05778253
57	0x3e0f5ef4	0.14001065
58	0xbdfe70b4	-0.1242384
59	0x3e1205d0	0.1426003
60	0xbdc93e76	-0.098263666
61	0xbe398a1f	-0.18119095
62	0xbd140fd5	-0.03614791
63	0x3e4be9e7	0.19913445
64	0xbe612407	-0.219864
65	0xbdd2cba8	-0.102927506
66	0xbda5c096	-0.080933735
67	0x3e056057	0.13025032
68	0x3d40364f	0.046926793
69	0x3dedf029	0.116180725
70	0xbd9e1c6b	-0.07720264
71	0x3df5012e	0.11963116
72	0xbd8d69d6	-0.06904952
73	0xbd9cd003	-0.076568626
74	0xbdbeb9ca	-0.0931278
75	0xbd602df3	-0.05473132
76	0x3c50fc43	0.012755456
77	0xbe3fef0f	-0.18743537
78	0xbe3891fc	-0.18024439
79	0xbd63d3b4	-0.055621818
80	0x3d695215	0.056963045
81	0xbdbbd8b4	-0.09172192
82	0x3e296770	0.16543365
83	0xbdb5008e	-0.088379964
84	0x3e307621	0.17232563
85	0x3df625d9	0.120189376
86	0xbe49274b	-0.19643895
87	0x3dc8bca4	0.09801605
88	0x3d3d65b1	0.04623956
89	0xbe1c4c52	-0.15263489
90	0x3d76c93e	0.060250513
91	0xbdc6f468	-0.097145855
92	0x3e062d49	0.13103212
93	0xbe241a0a	-0.16025558
94	0x3e34b0bb	0.17645542
95	0xbe591d8d	-0.21202679
96	0x3db090f7	0.086214
97	0x3d8f2e70	0.06991279
98	0xbdf3e01a	-0.11907978
99	0x3d10f64e	0.035391144
100	0x3e4159e2	0.18881944
101	0x3da32c1a	0.07967396
102	0xbe4bc28b	-0.19898431
103	0x3c0cde9b	0.008597995
104	0x3de6d03e	0.11270188
105	0xbd558660	-0.052130103
106	0x3e0a2b05	0.13492973
107	0x3dd5e96b	0.104449116
108	0x3e402b83	0.18766598
109	0x3b9472f9	0.0045303074
110	0xbd7fe821	-0.062477235
111	0x3e292100	0.16516495
112	0x3ccaebcb	0.024770638
113	0xbcea9af1	-0.028638335
114	0x3e3ae481	0.1825123
115	0x3e4d30ed	0.20038195
116	0xbe4dd40e	-0.20100424
117	0xbd8f4950	-0.06996405
118	0x3e2b2f12	0.16717175
119	0xbdfcdb2e	-0.12346493
120	0xbe27ed3f	-0.16399096
121	0xbdeba947	-0.115068965
122	0x3e28de52	0.16491058
123	0xbe339bf0	-0.17539954
124	0xbda455c8	-0.08024174
125	0xbd534dcd	-0.05158787
126	0x3912c5a9	0.00013997279
127	0x3e11b41f	0.14228867

MLP_layers.0.weight f4 [32, 64]
0	0x3d7eec59	0.062237117
1	0x3da11c46	0.07866721
2	0x3dac8bab	0.08425077
3	0x3d5ce2e5	0.05392732
4	0xbd218f83	-0.039443504
5	0xbd13a324	-0.036044255
6	0x3d8ed1ef	0.069736354
7	0x3d98b5f6	0.07456581
8	0xbd85f63a	-0.065411046
9	0xbdd1721c	-0.10226843
10	0xbaa1dab0	-0.0012348499
11	0x3dfa5bc7	0.122245364
12	0xbde4286f	-0.111405246
13	0xbcb6c042	-0.022308473
14	0x3d536c6a	0.051617064
15	0x3dfdb0e1	0.123872526
16	0x3c438950	0.011934593
17	0xbdeb235a	-0.11481352
18	0x3de82193	0.11334529
19	0xbd978ea3	-0.07400253
20	0xbcf9dc03	-0.030500418
21	0xbd3154ea	-0.04329387
22	0x3c977b93	0.018491542
23	0x3c6d6a33	0.014490652
24	0xbc83fd40	-0.01611197
25	0x3d9ab128	0.07553321
26	0x3db536f2	0.088483706
27	0xbc244ff0	-0.010028824
28	0xbd77b953	-0.060479473
29	0x3d1ad2f0	0.037798822
30	0x3da94f2e	0.082670555
31	0xbcc90afc	-0.02454137
32	0x3c3deae5	0.011591648
33	0xbc8dcfe0	-0.017311037
34	0xbd73ca86	-0.059519313
35	0xbd42e316	-0.047579847
36	0xbaffb032	-0.0019507466
37	0xbd4e80e4	-0.05041589
38	0xbda76823	-0.081741594
39	0xbdac4018	-0.084106624
40	0x3ccec3d0	0.025239855
41	0xbd766564	-0.060155287
42	0xbc7d2a02	-0.01545191
43	0xbd15d531	-0.03658027
44	0x3de1c721	0.11024309
45	0xbdbdbee3	-0.092649244
46	0x3d76da95	0.06026705
47	0xbdfd229d	-0.123601176
48	0xbdb82b13	-0.08992591
49	0x3c93437a	0.017976511
50	0x3c9f07e8	0.01941295
51	0x3dafebb8	0.08589882
52	0xbde95104	-0.11392406
53	0x3d090760	0.0334543
54	0xbd83394d	-0.06407414
55	0x3dc92f28	0.098234475
56	0x3dd67c2f	0.10472905
57	0xbd7d2e6e	-0.061811857
58	0x3d5d0d54	0.05396779
59	0x3db0c444	0.08631185
60	0x3d187158	0.037217468
61	0x3d972b07	0.07381254
62	0x3dfc0546	0.12305693
63	0x3dd9449c	0.10608789
64	0xbdac87fe	-0.08424376
65	0xbd4e05a5	-0.05029835
66	0xbdca2b5e	-0.09871553
67	0x3d66f3a4	0.056384698
68	0x3d4fc42c	0.050724193
69	0x3c238725	0.009980951
70	0xbda84fe7	-0.08218365
71	0x3d0b61dc	0.034028873
72	0xbd37ca6c	-0.04487078
73	0xbd402392	-0.046908922
74	0x3d9143fe	0.070930466
75	0x3dbe3a73	0.09288492
76	0xbd96266a	-0.07331546
77	0xbd02b5a0	-0.031911492
78	0xbdc5e812	-0.096634045
79	0xbadcdc35	-0.0016850295
80	0x3dd00e4a	0.101589754
81	0xbd24cdaf	-0.040235218
82	0x3d82e086	0.06390481
83	0x3db1b849	0.08677728
84	0xbd56f179	-0.05247638
85	0xbdd37b6d	-0.10326276
86	0xbc9ee38b	-0.01939561
87	0x3cdb59c2	0.026776198
88	0xbdbb3edf	-0.09142851
89	0xbc83233d	-0.016008014
90	0x3d954947	0.07289367
91	0xbdadac22	-0.08480097
92	0x3de9f968	0.114245236
93	0x3c844771	0.016147347
94	0x3ca23ae3	0.01980347
95	0xbdb52e08	-0.088466704
96	0xbdc85ea5	-0.09783677
97	0xbdec5986	-0.11540513
98	0xbcd686e2	-0.026187364
99	0xbdb8b779	-0.0901937
100	0x3db9cd47	0.09072357
101	0xbd55e620	-0.052221417
102	0xbc9d6dd8	-0.019217417
103	0x3d822944	0.06355527
104	0xbde1610c	-0.11004838
105	0x3dc9cf8d	0.0985404
106	0xbdcdeeeb	-0.100553356
107	0x3dd6d153	0.10489144
108	0xbcf253d7	-0.029580994
109	0x3dbb28fc	0.091386765
110	0xbdc27190	-0.094943166
111	0xbd8a6ab2	-0.06758632
112	0x3d871bcb	0.06597098
113	0xbdb7e643	-0.08979466
114	0x3d57bb5d	0.052668918
115	0xbc901f1b	-0.017592957
116	0x3d6cdb3c	0.057826266
117	0x3d8b2c71	0.06795586
118	0xbdd0bd2a	-0.1019233
119	0x3dca911c	0.09890959
120	0x3d87bb4a	0.066275194
121	0x3dfdaf85	0.12386993
122	0x3c6dd013	0.014514941
123	0x3c7121cc	0.01471753
124	0x3ca9e710	0.020740062
125	0x3d1a7589	0.037709747
126	0x3dcfd5a0	0.101481676
127	0xbd60f734	-0.05492325
128	0xbdad014e	-0.084475145
129	0xbccf5515	-0.025309125
130	0xbd9d98ac	-0.076951355
131	0xbde9fdcb	-0.1142536
132	0x3dc081d6	0.09399764
133	0x3cd0cba8	0.025487736
134	0xbc9e0623	-0.019290036
135	0xbdfcf237	-0.12350886
136	0xbd02a3a0	-0.031894326
137	0xbd86c353	-0.06580224
138	0x3cfe7992	0.031063829
139	0x3dfd334e	0.12363301
140	0xbe06c196	-0.13159785
141	0x3d8a7eaf	0.06762444
142	0xbd43c554	-0.04779561
143	0xbd345ec8	-0.044035703
144	0x3df666be	0.12031315
145	0x3cd41770	0.025890082
146	0xbd1c91c8	-0.038224965
147	0xbdb89078	-0.0901193
148	0xbdf78d17	-0.120874576
149	0x3dbb2a59	0.091389365
150	0xbdef954a	-0.116983965
151	0xbd8dd12e	-0.069246635
152	0x3ddb4ec2	0.10708381
153	0x3da9bf8c	0.08288488
154	0x3dd267b9	0.1027369
155	0x3dad27c4	0.0845485
156	0xbcb03dc0	-0.02151382
157	0x3de350d4	0.11099401
158	0xbe05c0d7	-0.13061844
159	0x3d891710	0.06693852
160	0xbde46fcf	-0.11154138
161	0x3baaeb60	0.005216047
162	0xbd3b1679	-0.04567573
163	0x3cef0fa1	0.029182257
164	0xbd853126	-0.06503515
165	0x3dcb6584	0.09931472
166	0x3d11f8e6	0.03563776
167	0xbb991380	-0.004671514
168	0x3c1da210	0.009621158
169	0xbc969535	-0.018381694
170	0xbdb75bbc	-0.08953044
171	0xbbe518bf	-0.0069914754
172	0x3df42656	0.119213745
173	0x3c97425c	0.01846426
174	0x3cdf48e9	0.027256446
175	0x3d1c7dfe	0.038206093
176	0x3db78004	0.08959964
177	0x3bbb5875	0.005717332
178	0xbc24c26c	-0.010056119
179	0xbdf52fe8	-0.11972028
180	0x3d384b01	0.044993404
181	0x3c70ad42	0.014689745
182	0xbce0916a	-0.027413089
183	0x3da0d636	0.078533575
184	0x3d842624	0.06452587
185	0xbe020902	-0.12698749
186	0xbd98b3cc	-0.074561685
187	0xbd9c2106	-0.07623486
188	0xbd3d5c60	-0.046230674
189	0x3c92ef11	0.017936261
190	0x3d317ff8	0.04333493
191	0x3d44c046	0.04803493
192	0xbdd77159	-0.10519666
193	0x3d3bdc7b	0.045864563
194	0xbd72a15f	-0.059235927
195	0xbc2b2dcd	-0.0104479315
196	0xbc2c4510	-0.010514513
197	0xbdbe1550	-0.09281409
198	0xbd7452c7	-0.059649255
199	0xbd8e10ea	-0.0693682
200	0x3d353f28	0.044249684
201	0xbcc0c1fe	-0.023530003
202	0x3d465aa0	0.04842627
203	0xbdc7e8fb	-0.097612344
204	0xbd73f6a7	-0.059561398
205	0x3cdfc165	0.027313897
206	0xbdc85ee3	-0.09783723
207	0x3d469b8a	0.048488177
208	0xbd642dd8	-0.055707783
209	0xbe083263	-0.13300471
210	0xbc666268	-0.014061548
211	0xb908b8ea	-0.00013038857
212	0xbdedea42	-0.11616947
213	0xbdc0a300	-0.0940609
214	0xbd136cfe	-0.035992615
215	0xbd4d8920	-0.0501796
216	0xbb18e333	-0.002332878
217	0xbdf86e6f	-0.121304385
218	0x3da1ac50	0.07894194
219	0xbd862af8	-0.065511644
220	0xbdd1df1a	-0.10247631
221	0x3db8a634	0.09016076
222	0xbdda4ddb	-0.10659381
223	0xbb3b6b71	-0.0028597976
224	0xbd901c07	-0.07036596
225	0xbdacadec	-0.084316105
226	0x3d41b6dd	0.047293533
227	0x3d4ff7f1	0.050773565
228	0x3daf318d	0.08554373
229	0xbddd35b0	-0.10801256
230	0x3c8b844c	0.017030858
231	0x3cd53ef8	0.026031002
232	0xbc264b70	-0.010149822
233	0x3d3ee01c	0.046600446
234	0xbca7c2f9	-0.020478712
235	0xbd52c287	-0.051455047
236	0x3d0c534f	0.034259137
237	0xbdc3233d	-0.095282055
238	0x3c04e0b6	0.008110216
239	0xbd2a2712	-0.041541167
240	0xbdf4551a	-0.11930294
241	0x3bffa2a0	0.007801369
242	0xbd7b4416	-0.06134423
243	0x3d8ee848	0.06977898
244	0xbd7c4556	-0.06158956
245	0x3d6b41b6	0.057435714
246	0xbd9a5a27	-0.075367264
247	0xbd39b460	-0.045338035
248	0xbd87ae44	-0.066250354
249	0xbd6bc66e	-0.057562284
250	0xbd4d002c	-0.050048992
251	0xbdb316ae	-0.0874456
252	0xbdb5bad4	-0.08873525
253	0x3d1e6870	0.038673818
254	0x3dda958a	0.106730536
255	0x3def7460	0.11692119

MLP_layers.0.bias f4 [32]
0	0xbc039d62	-0.008033128
1	0x3dcafaeb	0.0991114
2	0xbce30867	-0.027713967
3	0x3c98a4ac	0.01863321
4	0xbd80e0c6	-0.06292872
5	0xbc08112e	-0.008304877
6	0xbc9d3eda	-0.019195009
7	0xbe194a9a	-0.14969864
8	0x3e079973	0.1324213
9	0xbdfa23c6	-0.122138545
10	0xbdf011db	-0.11722156
11	0xbdc2fc3a	-0.09520765
12	0xbdbdb53c	-0.09263083
13	0x3b9e1411	0.0048241694
14	0x3e85c1fe	0.26124567
15	0xbc6132e0	-0.01374504
16	0x3e21eaef	0.15812276
17	0xbdc98a2e	-0.09840809
18	0xbda688d4	-0.08131567
19	0x3d8be7e2	0.068313375
20	0x3e8ca9eb	0.27473387
21	0x3d8dfff3	0.06933584
22	0xbddf4218	-0.10901278
23	0x3e88d68b	0.26726183
24	0xbc0a40df	-0.008438318
25	0xbdb151aa	-0.08658154
26	0x3e7a03ec	0.24415559
27	0x3e89b302	0.26894385
28	0x3e0703e5	0.1318508
29	0xbc393887	-0.011304981
30	0xbd88c110	-0.06677449
31	0xbdeb57ab	-0.11491331

MLP_layers.1.weight f4 [1, 32]
0	0xbe11b0c1	-0.14227583
1	0x3cd87e2d	0.026427353
2	0xbdf1dbd6	-0.118095085
3	0xbcf5c3b2	-0.030000541
4	0xbda32141	-0.07965327
5	0xbdf7d0fe	-0.12100409
6	0xbd2be056	-0.04196199
7	0xbde9fece	-0.11425553
8	0x3e4243f3	0.18971233
9	0x3de7c7f5	0.11317436
10	0x3dfa22c8	0.12213665
11	0x3ddac215	0.106815495
12	0xbd5d1f09	-0.053984676
13	0xbd88ffb4	-0.066893965
14	0x3e6d8109	0.23193754
15	0x3e05f893	0.13083105
16	0x3d719cf8	0.058987588
17	0xbde458f3	-0.11149778
18	0xbc25728c	-0.010098111
19	0x3e584be0	0.21122694
20	0x3e80be60	0.25145245
21	0x3d79b134	0.06096001
22	0xbd40f1b6	-0.047105514
23	0x3e757d1e	0.2397351
24	0xbcf59ccc	-0.029981993
25	0xbcbd4327	-0.02310331
26	0x3ed150dd	0.40882006
27	0x3eb62dc5	0.35581794
28	0x3e4e5bee	0.20152256
29	0xbe1c0283	-0.15235333
30	0xbe172eb9	-0.14763917
31	0xbe08d9a5	-0.13364275
