SLIC_GAT/last9.pt (torch, 80373 bytes, 12 tensors)

GAT_layers.0.f.weight f4 [32, 124]
-0.041619312 -0.14854145 0.17503576 0.0010237868 0.0777012 0.12008565 0.1368964 -0.0909424
0.13537677 0.0052579534 0.11136329 -0.09636159 0.058640763 0.07210913 0.063610554 -0.09411222
0.18602884 -0.17062171 -0.038194843 -0.15929644 -0.14311674 0.2052923 -0.15240161 0.14653023
0.17139947 -0.16435462 -0.029917328 -0.15783831 0.19025287 0.014786313 0.0128368605 -0.008162707
-0.031531975 -0.084420525 0.16129872 0.095200114 0.088386536 0.009473864 -0.1082982 0.18357569
0.18944235 0.05290338 0.1869054 -0.019008584 0.19551276 0.13584799 0.10825778 -0.049566865
-0.10800698 -0.08143553 0.13321649 0.113358624 0.08606034 0.16665946 -0.16499788 0.0035156826
0.08790883 0.17888002 -0.0531091 0.07201349 0.061928887 -0.17091076 -0.17477235 0.04662638
0.0023754882 -0.013162371 -0.11108303 -0.14327422 -0.16851577 0.10874681 -0.055479232 -0.002704466
0.16645752 -0.15134895 0.03377327 -0.056627795 -0.04205061 0.10221866 -0.03645125 0.09725042
0.08195847 -0.06500466 -0.007428269 0.041265015 -0.1195466 0.14445125 -0.04170313 -0.11936263
0.044027824 -0.01972034 0.014120239 -0.13185436 -0.11942628 0.012656138 -0.10820706 -0.10985881
-0.0036187477 -0.038201932 -0.06487135 0.13103192 -0.16427632 -0.16588645 0.014445076 0.16015264
-0.12289956 -0.16034916 -0.012609367 -0.16295934 0.14916454 -0.13934025 0.09340444 -0.17080696
-0.108706 -0.075403824 -0.09031846 0.07920146 0.113980725 0.18233958 -0.111816525 0.11307097
0.13460676 -0.10946564 -0.08625657 0.20119068 -0.15205348 0.14167431 -0.056769393 0.15729149
0.15488556 0.004415001 -0.04973994 0.008497331 -0.16761047 -0.053283367 0.1508107 -0.033380143
0.038562626 0.16302195 -0.1412288 0.07071313 -7.438199e-05 0.19720575 -0.08078835 0.18855718
0.09890411 -0.033172302 -0.13486004 -0.16322395 -0.07674819 0.029294165 0.07170418 -0.15753277
0.11750893 0.16857788 -0.058139507 0.10946846 -0.0578397 0.055766344 0.05598836 -0.014972188
-0.08627734 -0.14076543 0.15335083 0.16318107 0.17964397 0.04239175 -0.19242908 0.0019738073
0.19113253 0.12252749 -0.09029053 0.12077809 0.19555579 0.14614667 0.018156238 -0.021166535
-0.15924184 -0.15332538 0.15197662 0.20281999 0.092316024 -0.101578735 0.14530104 -0.09127819
0.16883418 -0.03855377 0.043482512 -0.00924603 -0.05384641 -0.00581329 0.16702905 0.028383052
-0.12727824 0.05078858 -0.081406355 -0.0043343953 -0.09290602 -0.14526476 -0.07176552 0.18726315
-0.11001647 0.14831261 -0.12000151 0.15996835 0.17951877 -0.067934945 -0.14522175 -0.059836075
-0.16167329 -0.152041 0.18016931 -0.07303418 0.04318799 -0.030673623 -0.09516592 0.033246256
-0.096340045 0.13140509 0.039888304 0.19548482 0.10033793 0.12663807 -0.055746086 0.1250465
-0.09995688 -0.08470422 0.06252411 0.14726043 -0.13237043 0.040240005 0.14749707 -0.05222932
-0.011007915 -0.08462113 0.16735779 -0.0016222926 0.064105056 -0.099942364 -0.059808858 0.19724217
-0.17093833 -0.095226385 0.17171262 0.14795633 0.19441508 0.15300624 -0.015762223 0.018061474
-0.049508568 -0.06554721 0.13643675 0.14844605 -0.093347706 0.038839307 0.03246165 0.09643969
00000000: 0379 2abd 401b 18be 933c 333e 9630 863a
00000010: cf21 9f3d 77ef f53d 922e 0c3e 0240 babd
00000020: 35a0 0a3e e94a ac3b 7012 e43d 3a59 c5bd
00000030: 4c31 703d f4ad 933d 4046 823d e8bd c0bd
00000040: 587e 3e3e 75b7 2ebe 3272 1cbd 9b1e 23be
00000050: 328d 12be 2538 523e 2b0f 1cbe 050c 163e
00000060: 5883 2f3e 944c 28be 2f15 f5bc 5ea0 21be
00000070: a6d1 423e 4b42 723c b251 523c e0bc 05bc
00000080: ac27 01bd abe4 acbd 7e2b 253e 47f8 c23d
00000090: 0004 b53d 4438 1b3c 72cb ddbd 44fb 3b3e
000000a0: 2dfd 413e 37b1 583d 2164 3f3e e4b7 9bbc
000000b0: 7f34 483e bc1b 0b3e 41b6 dd3d a006 4bbd
000000c0: c332 ddbd acc7 a6bd e769 083e 9128 e83d
000000d0: 6740 b03d c7a8 2a3e 34f5 28be 5e67 663b
000000e0: 8b09 b43d 532c 373e ed88 59bd cf7b 933d
000000f0: 25a9 7d3d 3b03 2fbe 86f7 32be 4efb 3e3d
00000100: 14ae 1b3b fca6 57bc 807f e3bd 7ab6 12be
00000110: 668f 2cbe a6b6 de3d 313e 63bd 693d 31bb
00000120: d773 2a3e 38fb 1abe d755 0a3d 8cf2 67bd
00000130: 433d 2cbd 0458 d13d e84d 15bd 3a2b c73d
00000140: d8d9 a73d 2a21 85bd d668 f3bb 8105 293d
00000150: d9d4 f4bd 07eb 133e e7d0 2abd 6574 f4bd
00000160: 8556 343d 8d8c a1bc 9358 673c d404 07be
00000170: c495 f4bd b15b 4f3c aa9b ddbd a8fd e0bd
00000180: 8328 6dbb a179 1cbd 45db 84bd 3b2d 063e
00000190: 0d38 28be 23de 29be 0aab 6c3c 0eff 233e
000001a0: c4b2 fbbd 9232 24be 8597 4ebc d0de 26be
000001b0: 97be 183e 36af 0ebe d44a bf3d 05e8 2ebe
000001c0: 40a1 debd 526d 9abd e2f8 b8bd 6034 a23d
000001d0: ba6e e93d 3ab7 3a3e 1000 e5bd c191 e73d
000001e0: 5bd6 093e 852f e0bd 49a7 b0bd ee04 4e3e
000001f0: e8b3 1bbe 1213 113e 0687 68bd 0511 213e
00000200: 529a 1e3e b6ab 903b 1bbc 4bbd 6438 0b3c
00000210: 14a2 2bbe a93f 5abd 1f6e 1a3e 9eb9 08bd
00000220: d8f3 1d3d 3aef 263e 489e 10be 0cd2 903d
00000230: 87fd 9bb8 4ef0 493e 5d74 a5bd 2215 413e
00000240: 3d8e ca3d aedf 07bd c018 0abe 2e24 27be
00000250: 282e 9dbd 51fa ef3c a4d9 923d 4550 21be
00000260: 86a8 f03d ae9f 2c3e b123 6ebd 0031 e03d
00000270: 52e9 6cbd 406b 643d 0d54 653d e84d 75bc
00000280: 2db2 b0bd d024 10be 0008 1d3e f018 273e
00000290: 97f4 373e f9a2 2d3d 210c 45be fe5a 013b
000002a0: 3fb8 433e b1ef fa3d 3eea b8bd 815a f73d
000002b0: c73f 483e 79a7 153e 64bc 943c 7165 adbc
000002c0: 4b10 23be 5401 1dbe c29f 1b3e 0bb0 4f3e
000002d0: 2f10 bd3d 8308 d0bd ccc9 143e 0ff0 babd
000002e0: dee2 2c3e 8fea 1dbd b81a 323d a97c 17bc
000002f0: 0e8e 5cbd 697d bebb aa09 2b3e 9383 e83c
00000300: 3a55 02be b007 503d 60b8 a6bd 8b07 8ebb
00000310: 8345 bebd 49c0 14be cdf9 92bd e9c1 3f3e
00000320: 5150 e1bd 43df 173e 5ac3 f5bd bece 233e
00000330: c5d3 373e 7a21 8bbd 03b5 14be ac16 75bd
00000340: af8d 25be a3b0 1bbe 4e7e 383e f292 95bd
00000350: e4e5 303d 4047 fbbc 5ae6 c2bd 3a2d 083d
00000360: ee4d c5bd 0e8f 063e eb61 233d 2c2d 483e
00000370: f97d cd3d 69ad 013e 0256 64bd 310c 003e
00000380: 31b6 ccbd 6879 adbd a40c 803d 70cb 163e
00000390: 1d8c 07be b4d2 243d 7909 173e 69ee 55bd
000003a0: 8b5a 34bc d84d adbd d75f 2b3e 1ba3 d4ba
000003b0: 8349 833d 95ae ccbd 22fa 74bd daf9 493e
000003c0: 750a 2fbe 0d06 c3bd 6fd5 2f3e dd81 173e
000003d0: bf14 473e abad 1c3e c71f 81bc a8f5 933c
000003e0: 7fc9 4abd 9e3d 86bd 13b6 0b3e 3e02 183e
000003f0: 152d bfbd f715 1f3d 82f6 043d 2c82 c53d

GAT_layers.0.f.bias f4 [32]
0.035575803 -0.015894543 0.07635629 0.026983058 0.054382302 -0.0584714 -0.06746341 -0.042502653
0.07415089 0.013611075 -0.0054411143 0.023546476 -0.06409272 0.023678321 0.026446398 0.05225307
0.072066024 -0.08127431 0.021191847 -0.046030283 0.089627385 -0.09373164 -0.038163908 0.076368034
-0.048594896 0.043434434 -0.033033207 -0.01033708 0.053731743 -0.06608052 0.0055139754 -0.01575691
00000000: efb7 113d 4635 82bc b060 9c3d 930b dd3c
00000010: fabf 5e3d b57f 6fbd 422a 8abd 4317 2ebd
00000020: 6cdc 973d fc00 5f3c 604b b2bb 8ae4 c03c
00000030: 0b43 83bd 0af9 c13c 1ea6 d83c 5107 563d
00000040: 5a97 933d 2573 a6bd 869a ad3c 408a 3cbd
00000050: 908e b73d 60f6 bfbd c251 1cbd d866 9c3d
00000060: 710b 47bd 4ee8 313d d44d 07bd db5c 29bc
00000070: d115 5c3d 3955 87bd 94ae b43b a314 81bc

GAT_layers.0.w.weight f4 [1, 124]
0.042572536 0.12912017 -0.082812645 -0.1260756 -0.15367673 -0.18114841 -0.090153985 0.19564617
0.027805658 -0.09877731 -0.0061595817 0.0020445436 0.005314408 -0.19416283 0.19581054 0.19116172
-0.13274018 0.037211254 0.040054765 0.19709638 0.07084923 -0.15101954 0.13275349 -0.08892168
-0.03916744 0.10537137 -0.15228155 -0.22198813 0.16736107 0.09173712 0.0140577955 0.10364827
-0.11968702 0.14211743 0.19025414 0.11056988 -0.053565785 -0.0075925766 0.17884754 -0.07174826
-0.049753863 -0.007734081 0.06575762 0.049451895 0.04906891 -0.12539455 0.036085796 0.019408789
0.1914637 0.008575092 0.17518313 0.17078683 -0.041485615 0.080663815 -0.17219809 -0.21072136
0.16256997 0.12002646 0.06872769 -0.077389754 -0.130801 -0.20505841 -0.16808906 0.17675814
-0.07447086 0.13596517 -0.048024934 -0.1940124 -0.1198518 -0.006883766 -0.1609647 0.16392624
-0.08406455 -0.10371156 -0.21307871 0.19608909 -0.15028995 -0.112822026 0.043339025 -0.20341128
0.19670948 0.13789424 0.018245064 -0.0017079267 -0.0064889877 0.054931287 -0.099126585 0.104806215
0.09700188 -0.14949554 -0.18059045 -0.06978544 -0.22059347 0.19308347 0.118734084 -0.053295437
0.17588101 -0.20022608 0.035074893 0.027054435 -0.18002905 -0.21035542 0.09979732 -0.16084152
0.02637303 0.17873164 0.0049875965 -0.022022622 0.20426455 -0.1859442 0.05896935 0.16630341
0.20361605 0.13530245 0.18414328 -0.0037192528 0.20416443 0.17384085 -0.13594602 -0.08958203
0.07541759 0.1594031 0.0020428563 -0.19181739
00000000: 8a60 2e3d 1438 043e ad99 a9bd f619 01be
00000010: 6f5d 1dbe f87e 39be a7a2 b8bd 7857 483e
00000020: b1c8 e33c c24b cabd 51d6 c9bb c0fd 053b
00000030: 7c24 ae3b 9fd2 46be 8f82 483e e6bf 433e
00000040: 0bed 07be d46a 183d 7710 243d a2d3 493e
00000050: 6719 913d dea4 1abe 88f0 073e 921c b6bd
00000060: 0a6e 20bd f2cc d73d b2ef 1bbe db50 63be
00000070: b360 2b3e ace0 bb3d ab52 663c 8b45 d43d
00000080: 781e f5bd 3b87 113e fbd1 423e 7672 e23d
00000090: cc67 5bbd 26cb f8bb cf23 373e c0f0 92bd
000000a0: b5ca 4bbd 2c6e fdbb eeab 863d 128e 4a3d
000000b0: 7bfc 483d 6e67 00be b3ce 133d 2eff 9e3c
000000c0: 0f0f 443e 8b7e 0c3c 3563 333e bee2 2e3e
000000d0: d2ec 29bd 1233 a53d b254 30be 57c7 57be
000000e0: be78 263e 6fd0 f53d 1ac1 8c3d 857e 9ebd
000000f0: b3f0 05be d5fa 51be 8a1f 2cbe 1600 353e
00000100: 2e84 98bd 743a 0b3e cbb5 44bd 30ab 46be
00000110: dc74 f5bd 3791 e1bb eed3 24be 48dc 273e
00000120: 092a acbd ba66 d4bd 4e31 5abe 94cb 483e
00000130: 9ce5 19be 3c0f e7bd 4384 313d 0c4b 50be
00000140: 366e 493e 2634 0d3e ac76 953c 83dc dfba
00000150: 93a1 d4bb a1ff 603d e102 cbbd a4a4 d63d
00000160: eca8 c63d 5c15 19be b4ec 38be abeb 8ebd
00000170: 41e3 61be acb7 453e db2a f33d 514c 5abd
00000180: 271a 343e 1108 4dbe b1aa 0f3d 43a1 dd3c
00000190: 8959 38be 6967 57be 8a62 cc3d a4b3 24be
000001a0: 410c d83c 6d05 373e fe6e a33b c968 b4bc
000001b0: ba2a 513e 2868 3ebe d889 713d 714b 2a3e
000001c0: ba80 503e ba8c 0a3e 0e90 3c3e b5be 73bb
000001d0: 7b10 513e 5603 323e 6f35 0bbe c976 b7bd
000001e0: 8a74 9a3d 913a 233e 71e1 053b c76b 44be

GAT_layers.1.f.weight f4 [64, 64]
-0.017443035 0.12392087 -0.17542551 -0.022107394 0.057467118 -0.053941738 0.010287022 -0.060624063
-0.16458648 -0.052225377 -0.15456963 0.18362732 0.008804332 0.17079961 0.015617686 0.06072333
0.009117003 -0.0694865 -0.031490617 -0.013388451 -0.20595233 0.0021047932 -0.15028362 -0.08319238
-0.064533904 -0.13228685 0.036655895 -0.11909812 0.19101402 0.11551286 -0.1482026 0.02535168
-0.10084739 0.19450614 0.14052829 -0.15980403 0.21628486 0.13406502 0.053056058 -0.07291543
0.0032613743 -0.038753737 -0.044760745 -0.045349292 -0.013006746 0.07775864 -0.033894118 -0.1912962
0.12216477 -0.058462948 -0.17632751 0.14489977 -0.08996286 0.079166576 -0.05632774 0.040555786
-0.19138825 0.15460676 -0.16825743 0.14952166 0.20618653 0.15437782 -0.18071751 -0.038302973
-0.09273141 -0.10856435 0.22168787 -0.05357623 0.057696488 0.19203648 -0.1478816 0.18771803
0.05893772 0.17436686 -0.029000804 0.22496374 0.08392867 -0.07609781 0.19913264 -0.13778092
0.17339876 -0.05681117 -0.17932366 0.14234492 -0.20933326 0.009050868 -0.054800574 0.11507231
-0.06206419 -0.008262276 0.0045804093 0.033483606 -0.046328235 0.049915344 -0.03446416 -0.04281229
0.0033547096 0.1938471 -0.20630045 -0.0620152 0.18753743 -0.10070875 0.18009901 0.09447735
0.14087427 -0.042792495 -0.20970891 0.14277333 -0.05497486 -0.0891149 0.09790748 -0.099881425
-0.11108758 -0.0022310566 -0.05256663 0.052624322 -0.024557158 -0.14804955 0.13101105 0.093442455
0.061390895 -0.116726145 -0.17320149 -0.16324882 -0.08008921 -0.18615995 0.17857526 0.05182414
-0.2074819 0.019943492 -0.18121181 -0.065871 -0.13634387 -0.013095001 0.14292361 -0.098751925
-0.15037614 0.12502536 -0.050301325 -0.1732149 -0.03361753 -0.049429763 0.16657136 0.044614445
0.04705603 -0.1476495 0.14150842 -0.13298938 -0.20409003 -0.08442746 -0.09950469 -0.10581763
0.042886496 -0.17986956 0.039207082 0.18241015 -0.17865987 0.12477378 -0.20667845 0.059740942
0.1934025 -0.10100494 -0.10947737 -0.15556307 0.044802207 -0.14717548 -0.08279657 0.09797895
0.049775634 0.15706033 -0.19955057 -0.1698822 -0.075227715 -0.18940003 0.08740655 0.045767847
-0.15416217 -0.009945692 -0.03899134 0.04541395 0.14369859 -0.019302279 -0.06853793 -0.17029312
-0.002430229 8.411338e-05 -0.21171936 -0.04400152 0.018290285 -0.075591914 0.04597874 -0.08720993
0.0014731585 -0.05320996 -0.099983945 -0.096566446 -0.100525275 -0.14677785 0.039373476 -0.15411545
0.037696008 -0.18190351 -0.133893 0.19108294 -0.062190864 -0.063639194 -0.10963285 0.18815911
-0.045338172 -0.1607094 0.055302985 0.056338158 -0.070984006 -0.17507161 -0.14319442 0.08201899
0.13632722 -0.109605104 -0.12243285 -0.047316834 0.008899785 -0.06620074 -0.20065853 -0.16208403
0.18187752 0.10405969 0.16470742 0.08456507 -0.1650472 -0.042807207 -0.037705638 -0.06503613
-0.20960975 -0.11875031 0.13902833 -0.1256379 -0.1284654 -0.08976908 -0.20533016 0.07423064
-0.14001213 0.17754535 0.18821093 -0.14334126 -0.17048432 -0.1905939 0.19453105 -0.11962665
-0.19754006 0.11746001 -0.007257676 0.18099463 -0.07545646 0.0232115 -0.0966518 -0.05825323
00000000: b2e4 8ebc 3aca fd3d bfa2 33be 911a b5bc
00000010: a462 6b3d 03f2 5cbd e68a 283c f050 78bd
00000020: 5c89 28be 47ea 55bd 8047 1ebe cd08 3c3e
00000030: 0c40 103c 18e6 2e3e 53e1 7f3c 07b9 783d
00000040: 7b5f 153c f04e 8ebd 4efc 00bd 3c5b 5bbc
00000050: 2be5 52be 92f0 093b f3e3 19be c460 aabd
00000060: 5a2a 84bd 3476 07be 7e24 163d b7e9 f3bd
00000070: 2e99 433e 0292 ec3d 6cc2 17be 54ae cf3c
00000080: 1489 cebd 9e2c 473e a6e6 0f3e aba3 23be
00000090: c779 5d3e 5748 093e 4f51 593d af54 95bd
000000a0: c8bc 553b 3dbc 1ebd 0b57 37bd 2ec0 39bd
000000b0: 3f1a 55bc ec3f 9f3d 8fd4 0abd 27e3 43be
000000c0: 8631 fa3d d876 6fbd 338f 34be 9b60 143e
000000d0: 733e b8bd 1622 a23d ebb7 66bd d31d 263d
000000e0: 48fb 43be 3c51 1e3e ad4b 2cbe 351c 193e
000000f0: 9022 533e 3815 1e3e 030e 39be 94e3 1cbd
00000100: f7e9 bdbd fc56 debd 2502 633e c072 5bbd
00000110: 2753 6c3d 36a5 443e 466e 17be 2839 403e
00000120: ae68 713d 3a8d 323e 1893 edbc e55c 663e
00000130: cbe2 ab3d 2bd9 9bbd 6de9 4b3e 7116 0dbe
00000140: 728f 313e d4b2 68bd 9fa0 37be dec2 113e
00000150: 755b 56be 184a 143c 9176 60bd 08ab eb3d
00000160: 0537 7ebd 7f5e 07bc 4217 963b 1b26 093d
00000170: adc2 3dbd 0874 4c3d 4b2a 0dbd f15b 2fbd
00000180: b0da 5b3b db7f 463e 6d40 53be a603 7ebd
00000190: d009 403e 6440 cebd e06b 383e 577d c13d
000001a0: 5841 103e 2f47 2fbd efbd 56be 2c33 123e
000001b0: 522d 61bd df81 b6bd b883 c83d a28e ccbd
000001c0: e381 e3bd eb36 12bb 1b50 57bd 9a8c 573d
000001d0: 182c c9bc 4d9a 17be c327 063e c25e bf3d
000001e0: 0575 7b3d 1e0e efbd bb5b 31be b32a 27be
000001f0: d005 a4bd b7a0 3ebe 6fdc 363e 8d45 543d
00000200: 2376 54be 8960 a33c 978f 39be 60e7 86bd
00000210: ba9d 0bbe 6a8c 56bc 915a 123e 733e cabd
00000220: 34fc 19be a606 003e c308 4ebd 3f5f 31be
00000230: 89b2 09bd dd76 4abd af91 2a3e a3bd 363d
00000240: d3bd 403d 6e31 17be 95e7 103e 5e2e 08be
00000250: fafc 50be 4ee8 acbd 1dc9 cbbd eab6 d8bd
00000260: c0a9 2f3d ba2f 38be 9b97 203d bac9 3a3e
00000270: 9df2 36be 6589 ff3d 84a3 53be ebb2 743d
00000280: 4e0b 463e aedb cebd ac35 e0bd ed4b 1fbe
00000290: 8582 373d 2bb5 16be 4091 a9bd 30a9 c83d
000002a0: 89e1 4b3d 6cd4 203e fc56 4cbe 99f5 2dbe
000002b0: fd10 9abd 15f2 41be 3502 b33d 1177 3b3d
000002c0: b0dc 1dbe 41f3 22bc 62b5 1fbd fa03 3a3d
000002d0: b925 133e d01f 9ebc 9d5d 8cbd 5261 2ebe
000002e0: 7a44 1fbb 0766 b038 f6cc 58be f03a 34bd
000002f0: 82d5 953c efcf 9abd 3454 3c3d 1f9b b2bd
00000300: ff16 c13a b0f2 59bd 62c4 ccbd a1c4 c5bd
00000310: 32e0 cdbd ef4c 16be 1546 213d 71d0 1dbe
00000320: 2167 1a3d ea44 3abe 3f1b 09be 3fab 433e
00000330: d9bb 7ebd 4455 82bd 3087 e0bd c8ac 403e
00000340: 85b4 39bd 0191 24be 6285 623d d7c2 663d
00000350: 1060 91bd f945 33be 8fa1 12be 92f9 a73d
00000360: 5d99 0b3e a478 e0bd 13be fabd 4ccf 41bd
00000370: 67d0 113c 4194 87bd 6e79 4dbe 5bf9 25be
00000380: 1a3e 3a3e 3f1d d53d 10a9 283e 7430 ad3d
00000390: 2202 29be 9c56 2fbd 3a71 1abd aa31 85bd
000003a0: f0a3 56be 5d33 f3bd 715d 0e3e 39a7 00be
000003b0: 6f8c 03be dad8 b7bd 1242 52be 3c06 983d
000003c0: 575f 0fbe 73ce 353e 5eba 403e 0dc8 12be
000003d0: 7193 2ebe 0c2b 43be 2633 473e d1fe f4bd
000003e0: f147 4abe e08e f03d cdd1 edbb a856 393e
000003f0: eb88 9abd 0b26 be3c 61f1 c5bd f09a 6ebd

GAT_layers.1.f.bias f4 [64]
0.15245734 0.010607772 -0.06875028 -0.0014906228 -0.035929557 -0.049052726 0.16824718 -0.08991229
-0.07084815 0.09788898 0.1825398 -0.09277242 -0.045776546 0.10340566 -0.058149893 0.075321406
-0.029944794 -0.002630692 -0.10144321 0.09802689 -0.052446082 0.10977502 0.10055778 0.14894646
-0.017345095 -0.11482242 0.116549864 0.13277917 0.08548813 -0.062277 -0.12273048 -0.023209795
0.092144124 -0.037814826 -0.0053115375 0.08924677 0.12507595 -0.05577165 -0.006614119 -0.09524903
0.18367541 0.04454791 -0.027035821 0.0758799 0.0760074 -0.032609213 -0.048721794 -0.08869069
0.08608387 -0.09830074 -0.10291685 -0.010554865 0.13604544 0.15313108 -0.076304995 0.10107089
0.19517621 0.18332122 -0.11869345 -0.04839784 0.1471334 -0.085704446 -0.037187863 0.09634244
00000000: c71d 1c3e 38cc 2d3c f2cc 8cbd 0061 c3ba
00000010: df2a 13bd 83eb 48bd fd48 2c3e ef23 b8bd
00000020: d618 91bd 047a c83d b7eb 3a3e 77ff bdbd
00000030: 3080 3bbd 59c6 d33d 952e 6ebd 1c42 9a3d
00000040: c94e f5bc b067 2cbb 75c1 cfbd 52c2 c83d
00000050: b4d1 56bd bad1 e03d 3df1 cd3d 6c85 183e
00000060: 4d17 8ebc 0428 ebbd b2b1 ee3d 43f7 073e
00000070: 6714 af3d 2b16 7fbd 1e5a fbbd 7822 bebc
00000080: 0fb6 bc3d b8e3 1abd 680c aebb 03c7 b63d
00000090: e913 003e d070 64bd 40bb d8bb ec11 c3bd
000000a0: 6815 3c3e df77 363d 3a7a ddbc ec66 9b3d
000000b0: c5a9 9b3d 3d91 05bd 8190 47bd 77a3 b5bd
000000c0: bd4c b03d e651 c9bd 12c6 d2bd 50ee 2cbc
000000d0: 7f4f 0b3e 65ce 1c3e cb45 9cbd 41fe ce3d
000000e0: 46dc 473e 8fb8 3b3e 8d15 f3bd d03c 46bd
000000f0: 23aa 163e d085 afbd 4d52 18bd 2f4f c53d

GAT_layers.1.w.weight f4 [1, 64]
0.27620777 0.051493704 0.18580256 -0.08589682 -0.28400424 -0.12451097 -0.15201318 -0.268692
-0.103282765 0.16560142 0.24983414 0.074689075 0.3132312 -0.050675202 -0.09326526 -0.25772384
0.1324067 0.20240632 0.13639472 -0.14384985 -0.080544285 0.13125554 0.09645365 -0.10689249
-0.048568778 0.26619574 0.27863145 -0.23015702 -0.22401862 0.3011392 -0.10592422 -0.028867245
0.014649211 -0.007148581 0.31067124 -0.17319085 -0.2022969 -0.24328075 0.17051136 0.013314521
0.16098969 0.109383784 0.111715496 0.16500892 -0.138157 0.02596801 0.0878391 0.23722084
-0.12668583 -0.033934552 0.14980115 0.28752565 -0.06412707 -0.1177862 -0.22980547 0.08112933
0.26180634 0.15458776 -0.045506664 -0.22069518 0.18601811 0.2383486 -0.09911515 -0.27638417
00000000: 1b6b 8d3e 10eb 523d 0743 3e3e acea afbd
00000010: 0169 91be 9cff febd 58a9 1bbe ff91 89be
00000020: ea85 d3bd 6b93 293e 85d4 7f3e 96f6 983d
00000030: d75f a03e cd90 4fbd db01 bfbd 61f4 83be
00000040: 9f95 073e 9a43 4f3e 0fab 0b3e 604d 13be
00000050: 67f4 a4bd da67 063e 7e89 c53d 73ea dabd
00000060: 0ef0 46bd cf4a 883e c8a8 8e3e 48ae 6bbe
00000070: 2365 65be eb2e 9a3e ccee d8bd 007b ecbc
00000080: 3f03 703c a53e eabb 4d10 9f3e f158 31be
00000090: eb26 4fbe 971e 79be 889a 2e3e 2625 5a3c
000000a0: 7bda 243e 9b04 e03d 18cb e43d 19f8 283e
000000b0: 0779 0dbe ddba d43c fce4 b33d 05ea 723e
000000c0: eeb9 01be f5fe 0abd 7965 193e 9036 933e
000000d0: 0e55 83bd e439 f1bd 2052 6bbe 2227 a63d
000000e0: 7b0b 863e 414c 1e3e 3265 3abd ebfd 61be
000000f0: 887b 3e3e a811 743e e2fc cabd 3a82 8dbe

GAT_layers.2.f.weight f4 [64, 128]
0.074806 0.102384955 -0.02275285 -0.12625638 -0.08931284 -0.16726585 -0.14400762 0.015289988
0.06648971 -0.03944196 -0.2028553 -0.0065626227 -0.15030299 -0.06440442 -0.11632514 0.045052554
-0.16024852 0.060361605 0.06981217 0.12570924 -0.09832004 -0.017733024 -0.16705625 -0.100072525
0.026934449 0.015213021 0.070102476 0.16864309 0.07446243 0.046217773 -0.11767662 -0.0750501
0.0035874452 0.003037481 -0.12460351 0.0962357 0.03727504 -0.07928446 -0.09767621 -0.009580906
0.077285774 0.06970609 -0.015830146 0.09108074 0.14503111 -0.056094605 -0.018405918 0.061110906
-0.13076124 -0.057010595 -0.12511338 -0.18769415 0.037743684 0.03670708 0.06513426 -0.059700184
0.038465492 -0.18238735 0.12520845 0.15397099 -0.10629432 0.0002509329 0.14547706 0.09663249
-0.020191673 0.022736551 0.012443225 -0.026368521 0.10531131 0.19450219 0.012269523 -0.15878911
-0.11033909 0.04065033 0.13339397 3.0669835e-06 -0.14759976 0.08302198 0.16466093 -0.13497707
0.05642907 -0.14667815 0.046335 -0.04006346 -0.09486798 -0.00088286086 0.008284919 -0.050513465
-0.13572627 -0.040999524 -0.010947085 0.002653209 -0.1445674 0.057519797 0.060665026 -0.017983072
-0.080475464 -0.031517982 -0.08810005 0.14474802 -0.09165241 0.12885165 0.019305559 -0.050002873
-0.016432561 0.19083363 0.080699936 -0.08126797 0.17908208 0.04646715 -0.09143064 0.1303523
0.008216234 0.016028803 -8.516564e-05 0.020482821 0.13457312 -0.13058747 -0.12006361 0.019768888
0.15233304 0.09674447 0.06979945 -0.03219335 0.12959108 0.16143505 0.010390333 -0.05492018
-0.11237745 -0.04401136 -0.08692859 -0.05376039 0.18290845 0.021448756 0.2101868 0.086763464
-0.15634553 0.12618111 0.020196969 0.13381378 -0.10013208 -0.07857443 -0.07621853 0.0060626525
-0.048590302 0.100133695 0.0054743015 0.2187948 0.13846269 0.005199505 0.07711516 0.12246481
-0.098889336 0.08850346 0.11282864 -0.021824574 -0.089862935 0.17767847 -0.027062304 0.16765033
0.06829584 0.09407349 0.0034680394 0.13369639 0.19920716 -0.09956316 0.14533634 -0.07636872
0.18018422 0.095193006 0.112868674 0.21483599 -0.103694946 -0.06195956 0.007626189 0.053859245
-0.027727377 0.11311637 0.068532944 -0.14313073 -0.046244442 0.1148657 0.007088558 -0.13161686
-0.02199499 0.2202328 0.6719088 -0.034125675 -0.060001966 0.17363992 -0.099694505 0.05411308
0.16717054 -0.10272439 -0.10032225 0.16548873 -0.078247495 0.0407019 -0.024785044 0.07174535
0.10105891 -0.09152815 -0.049657203 0.04459242 -0.033265136 -0.05987081 -0.037329737 -0.14264758
0.10098218 0.0058633117 -0.09668167 0.015721519 -0.05946895 0.19727367 0.04149855 -0.11835837
0.1272142 -0.11853093 -0.108796135 -0.018567597 0.12782232 -0.0743274 -0.09813363 0.16060437
-0.044292424 0.13044839 0.18336995 -0.120929606 0.0639477 -0.120261416 0.0075434744 -0.16081843
0.0987337 0.14248273 -0.13039419 -0.121107765 -0.099151716 0.07259623 0.12793356 0.039010048
-0.14314438 0.11346419 -0.13210796 -0.15997134 -0.13109922 -0.13764276 0.045759957 0.10420184
-0.098175585 -0.07761545 0.09416572 0.08048382 0.15959093 0.00017295191 0.10466877 -0.078325495
00000000: e333 993d 34af d13d 2f64 babc 5a49 01be
00000010: a6e9 b6bd bd47 2bbe bc76 13be dc82 7a3c
00000020: c22b 883d e58d 21bd 4db9 4fbe 450b d7bb
00000030: 07e9 19be 77e6 83bd e03b eebd 0789 383d
00000040: 3018 24be bb3d 773d aff9 8e3d ecb9 003e
00000050: 045c c9bd d944 91bc cb10 2bbe d3f2 ccbd
00000060: a2a5 dc3c 0940 793c e391 8f3d c6b0 2c3e
00000070: c27f 983d d94e 3d3d 7100 f1bd deb3 99bd
00000080: 581b 6b3b 7a10 473b 2030 ffbd 3917 c53d
00000090: b6ad 183d e45f a2bd 770a c8bd 3bf9 1cbc
000000a0: 0148 9e3d 11c2 8e3d 39ae 81bc 8a88 ba3d
000000b0: 0983 143e 75c3 65bd 02c8 96bc 6e4f 7a3d
000000c0: 46e6 05be f183 69bd b91d 00be e532 40be
000000d0: 1f99 1a3d 2a5a 163d 1c65 853d 2e88 74bd
000000e0: fe8d 1d3d c0c3 3abe a536 003e 92aa 1d3e
000000f0: d6b0 d9bd a58f 8339 f0f7 143e 41e7 c53d
00000100: 0269 a5bc 0142 ba3c abde 4b3c cc02 d8bc
00000110: 75ad d73d 952b 473e 1c06 493c 9d99 22be
00000120: 76f9 e1bd f680 263d 6e98 083e 60d2 4d36
00000130: 6424 17be 6e07 aa3d e09c 283e 6e37 0abe
00000140: 2b22 673d cc32 16be c5c9 3d3d 9519 24bd
00000150: 254a c2bd ca6f 67ba 78bd 073c 35e7 4ebd
00000160: d4fb 0abe 1eef 27bd 675b 33bc 76e1 2d3b
00000170: 7a09 14be e199 6b3d e47b 783d 3c51 93bc
00000180: 52d0 a4bd 0019 01bd cd6d b4bd d338 143e
00000190: 42b4 bbbd b0f1 033e b126 9e3c d0cf 4cbd
000001a0: 949d 86bc e469 433e 0246 a53d d26f a6bd
000001b0: 4b61 373e 5754 3e3d fd3f bbbd 137b 053e
000001c0: 629d 063c d64e 833c f49a b2b8 97cb a73c
000001d0: 89cd 093e b9b8 05be e9e3 f5bd 5df2 a13c
000001e0: 31fd 1b3e f721 c63d 04f3 8e3d 2ddd 03bd
000001f0: 86b3 043e 3b4f 253e 373c 2a3c fcf3 60bd
00000200: 2626 e6bd 4145 34bd 9e07 b2bd db33 5cbd
00000210: 5a4c 3b3e 4db5 af3c 353b 573e 0bb1 b13d
00000220: 0b19 20be 9f35 013e 1d74 a53c 7b06 093e
00000230: 0c12 cdbd a1eb a0bd 7618 9cbd 37a9 c63b
00000240: a006 47bd e512 cd3d c561 b33b be0b 603e
00000250: 2ac9 0d3e 9c60 aa3b 8eee 9d3d d5ce fa3d
00000260: 7e86 cabd 4d41 b53d b412 e73d 73c9 b2bc
00000270: 0f0a b8bd 58f1 353e c4b1 ddbc 87ac 2b3e
00000280: b0de 8b3d 9aa9 c03d 0c48 633b b5e7 083e
00000290: f6fc 4b3e c5e7 cbbd 0dd3 143e 3467 9cbd
000002a0: 3682 383e 8df4 c23d b127 e73d f7fd 5b3e
000002b0: 045e d4bd 4fc9 7dbd 1ce5 f93b 839b 5c3d
000002c0: 8624 e3bc 8ea9 e73d 005b 8c3d dd90 12be
000002d0: d06a 3dbd b53e eb3d 2247 e83b 92c6 06be
000002e0: d62e b4bc b584 613e 3702 2c3f 5dc7 0bbd
000002f0: 9fc4 75bd aace 313e a22c ccbd ada5 5d3d
00000300: c12e 2b3e 2a61 d2bd c075 cdbd e175 293e
00000310: 3940 a0bd 09b7 263d 010a cbbc 3aef 923d
00000320: f9f7 ce3d 1c73 bbbd 5a65 4bbd 8ba6 363d
00000330: 0641 08bd 183b 75bd 11e7 18bd 3512 12be
00000340: bfcf ce3d 0621 c03b 0a01 c6bd 6aca 803c
00000350: b795 73bd 1c02 4a3e 62fa 293d e065 f2bd
00000360: 7044 023e 58c0 f2bd 82d0 debd 131b 98bc
00000370: dbe3 023e f738 98bd 49fa c8bd 7975 243e
00000380: f96b 35bd 4394 053e 55c5 3b3e f1a9 f7bd
00000390: 03f7 823d 9e4b f6bd 402f f73b 96ad 24be
000003a0: e534 ca3d fee6 113e 0e86 05be 5907 f8bd
000003b0: 0e10 cbbd 55ad 943d 0401 033e 00c9 1f3d
000003c0: 7194 12be ea5f e83d 4f47 07be 87cf 23be
000003d0: e03e 06be 39f2 0cbe cb6e 3b3d c667 d53d
000003e0: 4810 c9bd d9f4 9ebd f5d9 c03d b3d4 a43d
000003f0: ce6b 233e 6d5a 3539 955c d63d 1e69 a0bd

GAT_layers.2.f.bias f4 [64]
-0.03221769 0.17392413 -0.08176708 0.17070557 0.16251573 0.08175818 -0.0594593 0.15874632
0.11240409 -0.08567652 -0.07825962 0.1486442 -0.084393896 0.19498394 -0.08129979 -0.02452751
-0.086729705 -0.0993246 -0.026780847 -0.078694336 0.2223951 -0.012398153 -0.05539972 -0.040440857
0.25422063 0.10912982 -0.02426305 0.12105801 0.18030393 -0.04656249 -0.08109865 -0.085302405
0.118895754 -0.055726618 0.2221884 -0.043409567 0.03213766 -0.050165404 0.18115656 -0.048959058
0.138243 0.25783682 -0.06922042 0.1714073 0.20850037 -0.023882091 -0.06579536 -0.027513858
-0.094752714 -0.013985925 -0.04256368 0.14169292 -0.049961787 0.18325292 -0.073791265 0.19288994
0.22897902 -0.0812094 0.21298887 0.26707128 0.1360599 -0.041642826 0.22086799 -0.029847441
00000000: b2f6 03bd 2b19 323e 8075 a7bd 71cd 2e3e
00000010: 866a 263e d570 a73d 988b 73bd 658e 223e
00000020: 1e34 e63d 2c77 afbd 9446 a0bd 2f36 183e
00000030: b5d6 acbd dfa9 473e 8180 a6bd ebed c8bc
00000040: 589f b1bd b26a cbbd 8263 dbbc 7f2a a1bd
00000050: 8bbb 633e 9f21 4bbc d1ea 62bd 50a5 25bd
00000060: 3529 823e 747f df3d 4ec3 c6bc 43ed f73d
00000070: 98a1 383e 4fb8 3ebd 0d17 a6bd 07b3 aebd
00000080: 9e7f f33d 9841 64bd 5b85 633e 3bce 31bd
00000090: c7a2 033d 3d7a 4dbd 1b81 393e 4b89 48bd
000000a0: 938f 0d3e 3003 843e 70c3 8dbd 6585 2f3e
000000b0: 1f81 553e 60a4 c3bc b8bf 86bd be64 e1bc
000000c0: b60d c2bd 3925 65bc 4157 2ebd f317 113e
000000d0: bba4 4cbd a7a6 3b3e e01f 97bd f184 453e
000000e0: 7a79 6a3e 1d51 a6bd c119 5a3e 91bd 883e
000000f0: 4953 0b3e ab91 2abd 382b 623e 9f82 f4bc

GAT_layers.2.w.weight f4 [1, 128]
0.10238431 -0.22757982 -0.19550832 0.06665603 -0.09424005 -0.0018593499 -0.16743724 -0.21074802
-0.037708864 -0.05113918 -0.09490316 -0.06399379 0.14251447 0.18254295 -0.06986197 -0.14654261
0.015778298 -0.19948629 0.1403431 0.18342333 0.092154965 -0.07356156 0.1580732 -0.17212495
-0.12613901 0.08634811 0.22829756 -0.22928435 -0.18104175 0.09228563 -0.110457465 -0.026123974
-0.032404047 -0.17450336 -0.17387442 0.18322541 -0.026894795 0.17064275 -0.005004231 -0.16717504
-0.12480042 0.046622355 0.038779944 -0.1647712 0.1841398 -0.06580918 0.1605788 0.108984336
0.12257291 -0.016993668 -0.07637861 -0.1896763 0.08785651 0.02106039 0.014815309 -0.047170702
-0.21605173 0.15903287 -0.04271532 0.06682959 0.19430168 -0.069816664 -0.17220649 0.19328949
-0.06787339 -0.15691662 0.05622434 -0.07273629 -0.07476134 0.074724466 -0.15145592 -0.018157192
-0.05255867 -0.17357776 0.10359579 0.17369097 -0.17995633 0.07839769 0.05689986 0.025386767
-0.050841596 -0.13548729 -0.016137088 -0.1278501 -0.14608997 0.047992397 -0.05387017 -0.14955021
0.15991464 0.07135984 0.1292187 -0.06744829 0.058352273 0.08644904 0.15580058 0.19062574
-0.14613324 -0.10279336 -0.20556884 0.15845288 -0.061321683 -0.15084496 0.19830641 -0.058521163
-0.06295752 -0.105009794 0.022444647 0.057894513 -0.09547391 0.029816793 -0.23134878 -0.11858794
0.12937137 -0.21774943 0.0039517255 -0.04616185 -0.046346217 0.1851646 -0.1885923 -9.3679555e-05
0.16259977 0.11801578 -0.10309616 0.045349892 0.040852834 0.11481887 0.15587074 -0.12259857
00000000: ddae d13d af0a 69be 5533 48be f582 883d
00000010: ed00 c1bd 6eb5 f3ba ab74 2bbe 54ce 57be
00000020: 9c74 1abd 5177 51bd 975c c2bd 2d0f 83bd
00000030: 50ef 113e 8aec 3a3e cb13 8fbd 440f 16be
00000040: 7d41 813c 2246 4cbe 1ab6 0f3e 53d3 3b3e
00000050: bebb bc3d 71a7 96bd f1dd 213e 8641 30be
00000060: 962a 01be 47d7 b03d d6c6 693e 84c9 6abe
00000070: 0263 39be 4000 bd3d 8637 e2bd f201 d6bc
00000080: 1bba 04bd 02b1 32be 230c 32be 719f 3b3e
00000090: 7952 dcbc f9bc 2e3e 88fa a3bb ef2f 2bbe
000000a0: 5d97 ffbd 15f7 3e3d b8d7 1e3d c8b9 28be
000000b0: 258f 3c3e f7c6 86bd c56e 243e 2e33 df3d
000000c0: 8107 fb3d 4e36 8bbc 646c 9cbd 813a 42be
000000d0: 1dee b33d d786 ac3c e9bb 723c 1136 41bd
000000e0: aa3c 5dbe 83d9 223e 42f6 2ebd f4dd 883d
000000f0: 05f7 463e 0afc 8ebd e656 30be aeed 453e
00000100: 3401 8bbd c0ae 20be 7e4b 663d c4f6 94bd
00000110: 791c 99bd 2409 993d 4317 1bbe 64be 94bc
00000120: c347 57bd 5ebe 31be 082a d43d 0cdc 313e
00000130: 7946 38be f88e a03d d40f 693d e9f7 cf3c
00000140: 473f 50bd 2ebd 0abe ed31 84bc 23eb 02be
00000150: 9c98 15be ad93 443d f8a6 5cbd b123 19be
00000160: aac0 233e 1c25 923d e851 043e 5422 8abd
00000170: cb02 6f3d 320c b13d 308a 1f3e 6533 433e
00000180: f4a3 15be 5385 d2bd a380 52be 7941 223e
00000190: 722c 7bbd 1a77 1abe d610 4b3e e3b3 6fbd
000001a0: dfef 80bd 600f d7bd d6dd b73c cc22 6d3d
000001b0: d387 c3bd 5942 f43c b2e6 6cbe 3cde f2bd
000001c0: ee79 043e b5f9 5ebe 7a7d 813b 3514 3dbd
000001d0: 88d5 3dbd ca9b 3d3e 571e 41be d475 c4b8
000001e0: 8e80 263e 42b2 f13d 1424 d3bd cfc0 393d
000001f0: 4d55 273d 2826 eb3d 949c 1f3e f614 fbbd

MLP_layers.0.weight f4 [32, 64]
0.057470962 0.09320673 -0.06304462 -0.08976177 -0.065932155 -0.123373896 0.098698854 0.11815107
-0.018073963 0.08896858 0.0405823 -0.07764884 0.0023840077 0.033872787 0.044629335 0.06301252
-0.08602313 0.07181114 0.11629569 -0.10266747 -0.115495354 0.071325175 0.07098835 -0.08522274
-0.09375078 -0.11897778 0.03770282 -0.066898525 0.054974858 0.07046311 -0.06845063 -0.052059542
0.070737265 -0.12039431 0.04288025 -0.033743218 -0.02758668 -0.07303161 -0.08825003 -0.07671059
0.011757079 0.059855245 -0.063060105 -0.066941895 0.018067278 -0.021446556 0.022639193 -0.10354027
0.016009154 0.014809102 0.09178525 -0.050759584 0.08994935 0.054747164 0.07018158 -0.03056679
0.08537928 -0.08399986 -0.070585996 0.049473595 0.08029967 0.029937992 -0.008152728 0.0004764074
0.05916123 0.054181207 0.09263457 0.0377635 -0.09557909 -0.068695955 -0.10162969 -0.13235947
0.0656 0.013936868 -0.047045145 0.009620617 -0.07752817 0.010438671 0.07125479 0.010602316
-0.035444558 0.044213057 -0.12755914 0.025604956 -0.021590466 0.0034462546 0.118385956 -0.12235194
0.02880944 0.061931115 0.11564411 -0.103341095 -0.115899935 0.009284771 0.08778967 -0.05814726
0.08226114 -0.056251213 0.088608995 -0.005137041 -0.107061446 0.017988615 0.09686395 0.052428395
0.09639172 -0.06304423 -0.13296595 0.034947928 0.044922817 -0.026473438 -0.09563943 0.033656053
-0.053415447 -0.003010571 -0.13122937 -0.11405225 0.060090236 0.06223848 0.09264771 -0.12746482
-0.044128716 0.056652173 -0.06301937 -0.028001675 -0.03876253 -0.06403052 0.0017378178 0.020842498
-0.121915095 0.05026216 -0.050259877 0.096521184 0.11786199 0.058065817 0.038737666 -0.06556599
0.12971431 0.009055563 0.13306165 0.15717518 0.04681638 0.15297449 -0.10279587 -0.03424354
0.11632999 0.103743955 0.06403484 -0.015635684 0.07025747 -0.09395938 0.07527527 0.07646887
0.11239254 0.100222185 0.03845796 0.18817209 0.22476612 -0.07902092 0.054941773 -0.11315254
0.16446787 -0.113288835 0.23757963 -0.1033536 -0.022030108 -0.04020544 0.230127 -0.032491926
0.047640134 0.16869864 -0.05077 0.11153592 0.045330483 -0.07975436 -0.06828743 0.058668565
-0.056765273 -0.045873836 -0.09822832 0.13303173 0.12886982 0.13431978 0.04954849 0.123574995
0.20075731 0.06422599 0.1101938 0.022931358 0.05425117 0.039855193 -0.007722515 -0.15725674
-0.10062255 0.020821562 -0.024234831 0.081180625 0.097346686 0.06277506 -0.12212658 0.06458298
-0.05067848 0.03616935 0.039434522 -0.036827896 -0.05153881 0.07018588 0.01911208 0.101463586
0.053665757 0.086989045 -0.054387942 0.016744599 -0.120299324 0.0639205 0.054595217 -0.09776962
0.066878386 0.054197375 -0.003569752 -0.065122746 0.040641002 0.07647298 -0.018430322 0.06492269
0.068031915 0.07534157 0.07653813 0.09534867 -0.11588857 0.046247557 -0.05482305 0.11256276
0.03523054 -0.097574264 0.034298614 0.01046405 -0.10246073 -0.055723697 0.09472306 -0.07222542
-0.009319052 0.11518523 -0.124141335 -0.008840934 -0.004120454 -0.009450669 -0.023641989 -0.016816575
0.05102567 -0.058440894 -0.096954286 -0.08903881 -0.085481234 -0.09273383 -0.13410142 -0.024456695
00000000: ac66 6b3d 2ce3 be3d 8a1d 81bd 05d5 b7bd
00000010: 7007 87bd 74ab fcbd a022 ca3d 30f9 f13d
00000020: d90f 94bc 2935 b63d a039 263d 5b06 9fbd
00000030: 033d 1c3b 31be 0a3d 40cd 363d b50c 813d
00000040: e52c b0bd b811 933d 6f2c ee3d 5343 d2bd
00000050: d488 ecbd ef12 923d 5762 913d 4389 aebd
00000060: 6900 c0bd 9faa f3bd 466e 1a3d 1802 89bd
00000070: 512d 613d f74e 903d d82f 8cbd 633c 55bd
00000080: b3de 903d 4b91 f6bd 33a3 2f3d 5436 0abd
00000090: 76fd e1bc 9991 95bd 6fbc b4bd 711a 9dbd
000000a0: c3a0 403c c62a 753d a825 81bd d518 89bd
000000b0: d401 943c b0b0 afbc d475 b93c ec0c d4bd
000000c0: a125 833c e0a1 723c e8f9 bb3d 48e9 4fbd
000000d0: 5d37 b83d 903e 603d 5cbb 8f3d 3467 fabc
000000e0: 55db ae3d 1e08 acbd 648f 90bd d3a4 4a3d
000000f0: 2774 a43d 8540 f53c 0593 05bc 52c6 f939
00000100: 0c53 723d 1ded 5d3d 32b7 bd3d e6ad 1a3d
00000110: f8be c3bd 77b0 8cbd 3a23 d0bd 3e89 07be
00000120: 4b59 863d 7657 643c 69b2 40bd cb9f 1d3c
00000130: 17c7 9ebd f606 2b3c 08ee 913d 56b5 2d3c
00000140: 502e 11bd c018 353d dd9e 02be 7cc1 d13c
00000150: 7dde b0bc 8fda 613b 5674 f23d a793 fabd
00000160: c601 ec3c 7bab 7d3d d2d6 ec3d 7fa4 d3bd
00000170: f25c edbd 271f 183c 12cb b33d d22b 6ebd
00000180: 8778 a83d ac67 66bd a278 b53d a054 a8bb
00000190: 0843 dbbd dc5c 933c 9b60 c63d 28bf 563d
000001a0: 0669 c53d 551d 81bd 3a28 08be 8f25 0f3d
000001b0: fd00 383d d3de d8bc 9bde c3bd eeda 093d
000001c0: 28ca 5abd 004d 45bb fe60 06be 3a94 e9bd
000001d0: 2e21 763d c7ed 7e3d 15be bd3d 2386 02be
000001e0: 50c0 34bd 1c0c 683d 4d10 81bd c563 e5bc
000001f0: 75c5 1ebd 6f22 83bd 7dc7 e33a e3bd aa3c
00000200: 9fae f9bd b2df 4d3d 4ddd 4dbd e6ac c53d
00000210: a161 f13d 6cd6 6d3d 63ab 1e3d 7647 86bd
00000220: d4d3 043e c95d 143c 5041 083e 88f2 203e
00000230: 88c2 3f3d 58a5 1c3e a486 d2bd f442 0cbd
00000240: 6b3e ee3d b677 d43d b324 833d 6816 80bc
00000250: 26e3 8f3d c76d c0bd ec29 9a3d b69b 9c3d
00000260: 0f2e e63d 4a41 cd3d 1886 1d3d 2fb0 403e
00000270: 1729 663e b8d5 a1bd a00a 613d 85bc e7bd
00000280: 446a 283e fa03 e8bd 1348 733e 0dab d3bd
00000290: 7c78 b4bc 76ae 24bd 6aa6 6b3e 4116 05bd
000002a0: 4d22 433d 56bf 2c3e 34f4 4fbd f26c e43d
000002b0: 75ac 393d 4156 a3bd 48da 8bbd 734e 703d
000002c0: b482 68bd 34e6 3bbd ee2b c9bd 7839 083e
000002d0: 73f6 033e 208b 093e 5cf3 4a3d e314 fd3d
000002e0: 5393 4d3e ea88 833d 49ad e13d 8bda bb3c
000002f0: 7a36 5e3d 333f 233d 270d fdbb e907 21be
00000300: 3213 cebd fb91 aa3c 2088 c6bc 0742 a63d
00000310: b35d c73d 3690 803d 801d fabd 1544 843d
00000320: 3d94 4fbd 5026 143d 1886 213d d9d8 16bd
00000330: 5c1a 53bd 9dbd 8f3d f090 9c3c 24cc cf3d
00000340: a0d0 5b3d 5027 b23d e4c5 5ebd f82b 893c
00000350: 7e5f f6bd c0e8 823d 3c9f 5f3d 703b c8bd
00000360: 89f7 883d 11fe 5d3d 80f2 69bb 135f 85bd
00000370: 2e77 263d de9d 9c3d 30fb 96bc 30f6 843d
00000380: 5154 8b3d ae4c 9a3d 06c0 9c3d 2a46 c33d
00000390: fd56 edbd 146e 3d3d 228e 60bd 4e87 e63d
000003a0: e64d 103d 04d5 c7bd b47c 0c3d 6871 2b3c
000003b0: eed6 d1bd 883e 64bd 2afe c13d ecea 93bd
000003c0: f0ae 18bc 3ce6 eb3d d03d febd 91d9 10bc
000003d0: e004 87bb fbd6 1abc d8ac c1bc eac2 89bc
000003e0: 4b00 513d b85f 6fbd f88f c6bd fb59 b6bd
000003f0: c910 afbd 3ceb bdbd e251 09be 6859 c8bc

MLP_layers.0.bias f4 [32]
-0.07993975 -0.009890365 0.24689664 -0.024225548 -0.0033843573 -0.12558384 0.32088363 0.42512545
-0.01158341 0.37960023 0.3998298 -0.062346466 -0.12016305 -0.13343866 -0.01931101 0.06303729
0.3520102 0.39235234 -0.00477813 -0.029305313 -0.01315398 0.3803511 -0.030498216 -0.009398977
-0.09470146 -0.12783551 0.45884562 -0.09625154 0.22609317 0.32544208 0.45973808 0.29135254
00000000: 74b7 a3bd 330b 22bc 79d2 7c3e a874 c6bc
00000010: 18cc 5dbb 0d99 00be dc4a a43e 0baa d93e
00000020: 58c8 3dbc f65a c23e 7eb6 cc3e 025f 7fbd
00000030: 0c18 f6bd 25a4 08be 2032 9ebc b219 813d
00000040: ae3a b43e 68e2 c83e dc91 9cbb b211 f0bc
00000050: ca83 57bc 61bd c23e 65d7 f9bc 2bfe 19bc
00000060: d7f2 c1bd 50e7 02be d0ed ea3e 871f c5bd
00000070: f884 673e 58a0 a63e ca62 eb3e 292c 953e

MLP_layers.1.weight f4 [1, 32]
-0.13821086 -0.13624378 0.30118704 -0.016639853 -0.028914353 -0.08168181 0.16754234 0.21224244
-0.12792507 0.39534965 0.32776758 -0.07772088 0.17338334 -0.055865746 0.09223578 0.08049737
0.4452797 0.35728106 -0.006995514 -0.09000764 -0.086416736 0.15798344 -0.09260248 -0.12316117
-0.06452995 -0.10720355 0.30685255 -0.1219805 0.20202798 0.24256569 0.30152553 0.23610432
00000000: 2687 0dbe 7d83 0bbe 3035 9a3e 4d50 88bc
00000010: cbdd ecbc cb48 a7bd 3890 2b3e 1556 593e
00000020: cafe 02be 456b ca3e 27d1 a73e 202c 9fbd
00000030: 678b 313e 7bd3 64bd 1de6 bc3d cedb a43d
00000040: b3fb e33e 8bed b63e a03a e5bb ed55 b8bd
00000050: 42fb b0bd 69c6 213e 5ea6 bdbd ec3b fcbd
00000060: 4728 84bd 898d dbbd c71b 9d3e ead0 f9bd
00000070: 6ce0 4e3e 2463 783e 8e61 9a3e 55c5 713e
