SLIC_GAT/last1.pt (torch, 74869 bytes, 12 tensors)

GAT_layers.0.f.weight f4 [32, 82]
000000 0a 82 48 3e c4 f5 54 3b 81 1a 2b 3e 55 0e f0 3d
       0.19580856 0.003249512 0.16709329 0.117214836
000010 49 05 d2 3d 26 17 19 3c 16 57 fd 3d 92 f4 e1 bc
       0.10254914 0.009343898 0.12370126 -0.02758244
000020 ba b8 8d bb 7b a2 7a be 91 f2 19 3e 70 c1 25 3e
       -0.0043249996 -0.24476044 0.15033938 0.16187072
000030 78 27 69 be 3d dc 85 3d 13 4d 56 be 4d 96 4c 3e
       -0.22768962 0.06536148 -0.20927839 0.1997921
000040 c2 a7 7c bd 01 b7 60 3e 24 0e 26 3e 44 ba 0d bd
       -0.061683424 0.2194481 0.16216332 -0.034601465
000050 df 8f a4 3d 92 25 f2 bd af 0f 45 bd c4 81 31 be
       0.08035254 -0.11823572 -0.04811066 -0.17334658
000060 68 09 bf 3d 91 ec 16 3e 07 a7 08 3d 99 5b 61 3e
       0.09327966 0.1473868 0.033362415 0.22007598
000070 d3 45 29 3e 87 dd 18 3e e4 c5 5e be 43 85 2b 3e
       0.16530542 0.14928256 -0.21755177 0.16750054
000080 cd c3 56 be 0f ba c5 bc 88 8e 18 bd 5c 3f 2a be
       -0.2097313 -0.024136571 -0.037245303 -0.16625732
000090 3f 4d de ba 36 97 a8 3d ae a9 48 3e fe b9 49 3e
       -0.0016960277 0.08231966 0.19595978 0.19699857
0000a0 d7 fe 41 3e b5 5d 8e 3d 90 4e 0b be 76 12 2c be
       0.1894487 0.06951467 -0.13604188 -0.16803917
0000b0 ca 75 e7 3d 91 ff d5 3d 38 b5 12 be 8a 94 2e be
       0.11301763 0.10449136 -0.14326942 -0.1704885
0000c0 16 9a 16 3e 9c df 30 be 35 f0 61 be 01 51 78 be
       0.14707217 -0.172728 -0.22064288 -0.2424965
0000d0 ce ec 8a bc d8 09 ed 3b 84 31 d0 bd 3c c7 e1 3c
       -0.01695862 0.0072338395 -0.10165694 0.027560823
0000e0 b5 12 49 be f1 ae 6f be b5 2c 71 3c 84 86 01 be
       -0.19636042 -0.23406579 0.014720132 -0.1264897
0000f0 ef df 47 3d 2a 01 31 3e 95 55 4d 3d 42 fb 2e bc
       0.048797544 0.172856 0.050130446 -0.010680022
000100 c4 71 12 3e 7a d5 96 bc 4f e3 54 be 4b 7f 0f be
       0.1430121 -0.01841234 -0.20789836 -0.14013402
000110 b4 e5 8e 3d ec a0 01 be 4a 2a 2a 3c d6 57 05 3e
       0.06977406 -0.12659043 0.010386059 0.13021788
000120 ba f9 6d be 6e e0 58 be 19 75 7a bd d7 b9 50 3e
       -0.23239794 -0.21179363 -0.06114683 0.20383392
000130 09 e9 d9 bc 13 af 18 bd 80 39 38 be 94 e6 2e 3d
       -0.026600378 -0.03727634 -0.17990685 0.042700365
000140 32 21 58 be 04 66 18 3e d4 c3 aa 3d a1 e4 bf 3d
       -0.21106413 0.14882666 0.083381325 0.093697794
000150 61 b9 bc bd 8c af c7 bd 33 69 5b be b8 ff 89 3d
       -0.09215046 -0.0975028 -0.21426849 0.067382276
000160 1f e8 62 3e 4d cb 42 bd 9b 83 08 3e 74 93 01 3d
       0.2215886 -0.047557164 0.13331454 0.031634763
000170 5e 3e 13 3e 95 3a 46 bd 36 3c 5e 3e 08 2b 90 bd
       0.1437926 -0.048395712 0.21702656 -0.070394576
000180 30 f8 d7 3d ff 78 8f bd 31 3e 47 be c0 c9 20 be
       0.10545385 -0.070055 -0.19457318 -0.15701962
000190 f9 f5 58 3d 32 1f 5d 3c 3f 0e 57 be 3a 1e 72 bc
       0.052968953 0.013496207 -0.21001528 -0.014777714
0001a0 a4 71 ba bd 2f 38 2f be 45 47 cd bd c9 38 55 be
       -0.091037065 -0.17111276 -0.10023359 -0.20822443
0001b0 22 54 d4 bc 63 0c af 3c 8e 45 55 3e 4a 68 20 3e
       -0.025919024 0.021368211 0.20827314 0.15664783
0001c0 9c c6 08 3e 99 19 14 be ae 20 e2 bd 6b 8c 80 bd
       0.13357013 -0.1446289 -0.110413894 -0.062767826
0001d0 fa b4 3a be 14 1f 18 3e 57 74 d5 3d df cd 03 bd
       -0.182331 0.14855605 0.10422581 -0.032178756
0001e0 e4 14 06 3e e3 64 b1 bd 8e f8 66 3e 60 55 55 3d
       0.13093907 -0.08661821 0.22555754 0.052083373
0001f0 2f 1a 67 3e 7a c6 5c bc d9 5a 80 bd 60 6f d4 3d
       0.22568582 -0.013475055 -0.06267328 0.103728056
000200 34 36 9e bd ec 98 b2 3c 0d 9f 9a bc 5f e0 38 3d
       -0.07725182 0.021801434 -0.01887467 0.045135852
000210 f1 40 81 3d 14 fe 0c be 9f e7 5b 3d e9 5e 60 3e
       0.06311215 -0.13768798 0.053687688 0.21911205
000220 f1 d3 01 3e da e0 73 bd 92 0a a2 bd 04 47 1f 3e
       0.12678505 -0.059540607 -0.079121724 0.15554434
000230 a3 46 05 be 3c f5 2e 3e ba 58 0f be 6d 6e 12 be
       -0.13015227 0.17085737 -0.1399869 -0.14299937
000240 75 2d d9 bd e8 6d a8 3d a4 ff 3c 3e c8 1b 7d 3d
       -0.10604373 0.08224088 0.18456894 0.061794072
000250 74 c6 31 3e b1 12 6b 3e eb 43 51 3e 4d 1d d7 3d
       0.1736086 0.22956349 0.20436065 0.105036356
000260 91 5a 1e 3e c7 8c 32 be 25 6d 02 be cb 79 92 3c
       0.15464236 -0.17436515 -0.12736948 0.017880341
000270 24 c6 d4 bc db 5a 60 3d 7f f3 9a 3d 55 1d 15 3e
       -0.025973387 0.054774147 0.075659744 0.1456197
000280 87 6d b0 bd cd da 11 3e b2 9c d9 3d d0 96 5f be
       -0.08614641 0.14243622 0.106255904 -0.21834874
000290 00 74 9b bd e5 b3 19 3c 6e 46 c9 bd 5f b0 57 be
       -0.075904846 0.009381269 -0.098278865 -0.21063374
0002a0 94 aa 1f be 5e 58 22 3e 3d c8 26 3e 5e 9a 50 3e
       -0.15592414 0.15854022 0.16287322 0.20371386
0002b0 f6 dd 58 3e 1d a7 db 3c a5 6e 62 3d e5 d3 89 bd
       0.21178421 0.026813084 0.0552813 -0.06729869
0002c0 fa 2e 05 be d4 55 1a be 0f d0 cf bd 01 d5 bd 3d
       -0.13006201 -0.15071803 -0.10147106 0.09269143
0002d0 fd d7 08 3e b9 9c 23 be 69 7d 99 3a 36 01 bf bc
       0.13363643 -0.15977754 0.0011710349 -0.023316007
0002e0 b9 27 0f be 16 65 47 bd 97 fd 3d be 07 87 56 3d
       -0.13979997 -0.048680387 -0.18553768 0.052374866
0002f0 00 e7 01 3e 8f cc e8 bd df 5a 4e 3c 72 c1 3e be
       0.12685776 -0.113671415 0.012594908 -0.18628481
000300 1a c3 a4 3d 03 b3 3b bd 07 96 30 bd 7d cc 31 be
       0.08045025 -0.045825016 -0.043111827 -0.17363162
000310 74 54 ef bb ec e0 44 3e 1c 81 97 bd 37 0a 66 3e
       -0.007303769 0.19226426 -0.073976725 0.22464834
000320 4a 96 14 be 45 9c 95 3d 0c ef 68 be ef 5f d0 3d
       -0.14510456 0.07305197 -0.22747439 0.10174548
000330 11 2a 49 3d 18 02 52 be b2 fc 77 bd d5 5b cd 3d
       0.049112383 -0.20508611 -0.060543723 0.10027281
000340 21 bc 3a 3e a4 d3 41 bd 3c c6 4b 3e ab c7 7d 3c
       0.18235828 -0.047320977 0.19899839 0.015489499
000350 8f 4c 04 3d 7d d0 01 3e 44 6b 33 3e 3c 5f ca bc
       0.032299574 0.12677188 0.17521387 -0.024703614
000360 81 69 1c bd 89 bd 06 3e c6 7d 26 3d 0e 08 8e 3d
       -0.038186554 0.1315824 0.04064729 0.0693513
000370 f7 9a 90 bd ba ef b1 3d 64 1b 98 bd 74 d3 54 bd
       -0.07060807 0.08688302 -0.07427099 -0.05195947
000380 df 30 d5 bd fd 5d 13 3e d7 a2 49 be 25 9a e6 3d
       -0.10409712 0.14391322 -0.19691025 0.112598695
000390 2a 49 3a 3e 71 2d c1 3d 78 25 27 be b5 7a c9 bd
       0.18191972 0.094324954 -0.16322887 -0.09837858
0003a0 60 d8 44 be 94 f2 47 3d 03 2d 87 bc 3a 72 54 3e
       -0.19223166 0.048815325 -0.016500955 0.20746699
0003b0 d6 3c 33 be 2a 5d 02 be 8e ca 56 3e 31 51 3b be
       -0.17503676 -0.12730852 0.20975706 -0.18292691
0003c0 35 e8 26 be f2 3e 59 be e9 1e a6 3c e3 b1 19 3d
       -0.16299517 -0.21215418 0.020278411 0.03752316
0003d0 b9 7d 10 3e 75 c3 df bd 98 ae 10 3e 45 91 a8 bc
       0.1411046 -0.10925952 0.14129102 -0.020577082
0003e0 c8 ab 9a 3d a5 e5 06 bd 95 99 21 3d c4 49 04 bd
       0.07552296 -0.03293385 0.039453108 -0.03229691
0003f0 75 b2 01 be 7c 4c 4e 3e c2 48 82 3d a4 db b6 3d
       -0.12665732 0.20146364 0.06361534 0.08928612

GAT_layers.0.f.bias f4 [32]
000000 e7 16 45 bd 5b 06 f0 3d c4 a0 10 3c 7e 3a 71 3d
       -0.048117545 0.11719962 0.008827392 0.058893673
000010 ac 06 8a bd 56 03 7f 3d c4 25 4a 3b 87 9e 1e 3d
       -0.06739554 0.06225904 0.0030845264 0.038725402
000020 45 f9 87 bc 88 f4 37 3c 75 ba 88 3d 75 7c a2 ba
       -0.016598353 0.011227734 0.06676189 -0.001239671
000030 6e 66 39 3d 5a ef c2 bd 19 f3 d6 bd 39 8b ea bc
       0.0452637 -0.09518309 -0.10495586 -0.02863084
000040 1b 38 ce bd 2a 5c 80 bd 81 06 a1 bd 94 96 a6 3d
       -0.10069295 -0.06267579 -0.07862569 0.08134189
000050 5c 8c 82 3d 25 39 91 bd 9b 47 0e bd e1 d9 34 3d
       0.06374428 -0.070909776 -0.034736257 0.044153098
000060 f5 69 42 bd 0b 4c aa bd ce 1e b5 3c 54 5b c5 3d
       -0.04746433 -0.08315285 0.022109415 0.0963656
000070 e6 7b 92 3c c9 78 89 3d dc 92 d6 3d 2e 01 79 3d
       0.017881345 0.06712491 0.1047723 0.06079214

GAT_layers.0.w.weight f4 [1, 82]
000000 93 56 37 3e 7c d0 8e 3d c8 87 6a be 3d 3e dc 3d
       0.17904119 0.06973359 -0.22903359 0.107540585
000010 e2 1c 2c be 60 4e 3e bd b1 63 ec bd 8a cf d6 bd
       -0.16807893 -0.046461463 -0.11542452 -0.10488804
000020 ff 0f 40 be ed 19 02 bd 47 f5 6f be 2e 3b 01 be
       -0.18756102 -0.031763006 -0.2343341 -0.12620232
000030 78 7d 86 3a 3b a3 c4 bd 87 60 5d 3e 24 98 09 3d
       0.0010260781 -0.09601446 0.21618854 0.03359236
000040 62 fa 71 bd 99 f4 6e 3e 66 1b 82 3e f4 14 6e be
       -0.059076674 0.23335494 0.25411528 -0.2325018
000050 17 d3 f9 3d ee 4b 3e bc 28 09 e0 bc 56 7c 12 3c
       0.12198465 -0.011614783 -0.027348116 0.008940777
000060 05 58 82 be ab d4 f1 bd 19 3b 40 be 42 ab 47 bd
       -0.2545778 -0.11808141 -0.18772544 -0.04874731
000070 17 3d 64 3e d9 8e 86 3e ff 28 8c 3d cf 92 00 be
       0.22288929 0.2628086 0.06843757 -0.12556003
000080 da ce 77 3e 0d a9 5b 3e 3f 38 05 3d ff 2e e7 bd
       0.24200001 0.21451207 0.032524344 -0.11288261
000090 80 0a 25 bd 56 96 b3 bd c0 8e 06 be 2e 32 35 bd
       -0.040293217 -0.08768909 -0.13140392 -0.04423731
0000a0 1d 78 3b be bc ad 6c be 4a e5 46 be ca 93 33 3e
       -0.18307538 -0.2311315 -0.19423404 0.17536846
0000b0 ad 89 49 be 1d cf 1e be 9a cb 49 3e 4c 67 a5 bd
       -0.19681425 -0.15508695 0.19706574 -0.08076343
0000c0 04 4c a0 3d 64 e1 9d bd e7 51 6b 3d 1b 22 84 3d
       0.07826999 -0.077090055 0.057451155 0.064518176
0000d0 c8 ab a2 bc 6e 20 d3 ba 46 22 84 bd a9 5a 0d 3e
       -0.019857302 -0.0016107687 -0.0645185 0.13804115
0000e0 03 df 5f be 8d 9f d5 3b 52 7f 39 bc 19 b3 27 3e
       -0.21862416 0.006519264 -0.011321859 0.16376914
0000f0 1f 68 a0 3d 41 e1 fb bc ac e0 1b be 04 73 87 be
       0.078323595 -0.030747058 -0.15222424 -0.26454937
000100 03 4c 02 be 06 66 cb bc 33 45 d5 3d fe d0 ed bd
       -0.12724309 -0.024828922 0.10413589 -0.11612128
000110 65 de 1e 3d cc 91 29 be c8 8f 72 3c 4a d0 f5 3d
       0.03878631 -0.16559523 0.014804788 0.120026186
000120 b8 5b 89 be 06 74 24 be 58 17 45 3e 02 c4 99 3d
       -0.26827788 -0.16059884 0.19247186 0.07508089
000130 94 b5 2d 3e ac 93 25 3d 0e e1 05 be 26 f6 28 be
       0.16963798 0.040424034 -0.13074133 -0.16500148
000140 c7 5d 70 3d 3c ca 0b 3e
       0.058683183 0.13651365

GAT_layers.1.f.weight f4 [64, 64]
000000 8b da f3 3d de 41 52 be e5 b5 d0 3d 83 7d f1 bd
       0.11906918 -0.20532939 0.10190944 -0.117915176
000010 d7 27 b5 3d 35 71 61 3d 20 6b 59 bd 8e a8 d0 3c
       0.088454895 0.055039603 -0.053080678 0.025470998
000020 2d 78 a3 bd df 23 2b be 5d 4b 88 bd e8 04 d2 bd
       -0.07981906 -0.16712902 -0.066549994 -0.10254842
000030 d7 e3 52 3e 48 59 2a be 3b 62 2e 3e ac 40 4b 3e
       0.20594727 -0.1663562 0.1702966 0.19848889
000040 19 17 d9 3c 1b 6b 9c bd 2f 70 1a 3e d2 e8 5e bd
       0.026500272 -0.07637616 0.15081857 -0.054421254
000050 3c ea 8f bd 7e 53 18 be 7d 97 03 be 7c 81 41 be
       -0.070270985 -0.148756 -0.12850757 -0.1889705
000060 64 00 05 be b8 cd 60 3e 90 d0 01 3d 72 6e 89 bd
       -0.1298843 0.21953475 0.03169304 -0.06710519
000070 ad d1 bd 3d eb 42 45 be 6d 7f 36 be 9a 1a 24 3d
       0.09268508 -0.19263808 -0.17822047 0.04006443
000080 6e 58 5a bd ce 99 f5 bd 18 6f 47 3d f4 ed 1b 3c
       -0.05330699 -0.119922265 0.04868993 0.009517182
000090 aa 5b 30 3e a6 cc 4f be e7 d0 53 be 4e aa eb 3c
       0.17222467 -0.20292911 -0.20685159 0.028767731
0000a0 08 94 c7 bb a7 ee 55 be a1 61 25 be 20 2d 3e 3e
       -0.0060906447 -0.2089182 -0.16150524 0.18571901
0000b0 76 20 39 bc 64 a9 37 3e 16 39 76 3d 6d fd 30 be
       -0.011299243 0.17935711 0.060113035 -0.17284174
0000c0 0f 2c 61 3e 31 47 f9 3c fe 9a f6 bd 06 12 12 be
       0.21989463 0.030429455 -0.12041281 -0.14264688
0000d0 47 35 54 3e 87 2b 4f 3e fd e7 cd 3d bf cd 1b be
       0.20723449 0.20231448 0.10054014 -0.15215205
0000e0 1a 0a d6 3d 81 f7 1a 3e 56 1f 2d 3e 88 05 c2 bd
       0.104511455 0.15133478 0.16906485 -0.09473711
0000f0 56 14 aa bd 7f c5 2d bd fa e1 31 be db 7f b3 bd
       -0.0830466 -0.042424675 -0.1737136 -0.08764621
000100 59 bf fd bd 98 dd 22 3e 1c 59 82 bd 7f e5 09 be
       -0.12390012 0.15904844 -0.063646525 -0.13466452
000110 eb 65 bf 3d ac 1f 07 3d bd 69 4c 3e 93 9c b8 bd
       0.09345611 0.03298919 0.19962211 -0.09014239
000120 57 52 1c be 93 f8 36 3e ed 1d 20 be 51 8e d8 bd
       -0.15265785 0.17868261 -0.15636416 -0.1057402
000130 08 09 12 3e e5 dc 5c 3d 17 d7 66 3d d9 fc 5e 3d
       0.14261258 0.0539216 0.05635747 0.054440353
000140 66 14 2a 3e cf 12 f1 3c 19 57 60 3d 71 8b 54 be
       0.16609344 0.029427914 0.054770563 -0.20756318
000150 a3 1e 9d bd e5 39 96 bd 63 b3 bf 3d f6 64 18 be
       -0.07671859 -0.07335261 0.09360387 -0.14882264
000160 53 ff 48 3e 6d 79 12 be 94 67 c9 3d c6 76 85 3d
       0.19628648 -0.14304133 0.09834209 0.06516795
000170 53 a0 3c 3e 72 44 0e 3e 86 90 95 bd 23 e1 4f 3e
       0.18420534 0.13893297 -0.07302956 0.20300727
000180 ca 23 b7 3d 06 fe a9 3d b2 51 55 be 8f 7d 44 be
       0.08942373 0.08300404 -0.20831946 -0.19188522
000190 dc 62 6b 3d e5 cf 9e 3d 9d ad 3d 3d c8 86 1b 3e
       0.057467327 0.077544965 0.04630815 0.15188134
0001a0 b2 94 a5 bc 0a 71 4d be 35 0d 08 3e 04 d9 6d 3d
       -0.020212505 -0.20062652 0.13286288 0.05806829
0001b0 15 6e f4 bd e2 3d 37 bc e6 5e 2b be ae bd 5b 3d
       -0.11935059 -0.011184188 -0.1673542 0.05364769
0001c0 f3 fa 03 3e 41 fa 2d ba bc f0 00 be 9e ea 16 3e
       0.12888698 -0.0006636717 -0.12591833 0.14737937
0001d0 2e 69 d1 3d 67 2b e8 3c 05 a4 79 3d 34 6a aa 3d
       0.102251396 0.028341008 0.060947437 0.08321038
0001e0 31 42 b2 bd 9a 3c 30 be 3f e8 87 3c 36 ae 58 3e
       -0.08704031 -0.17210618 0.016590236 0.21160206
0001f0 3c 8d 56 be f4 77 0a 3c 8e b7 12 be 9c 37 23 3e
       -0.20952314 0.008451451 -0.14327833 0.15939182
000200 8e 4a 36 3e 55 52 bb bd 8d 83 06 3e 78 82 aa 3b
       0.17801878 -0.09146563 0.1313612 0.0052035414
000210 20 8c 63 be 7a 80 27 3e 63 38 c4 3d 46 af 8e 3d
       -0.22221422 0.16357604 0.095810674 0.069670245
000220 e9 51 8e 3d 28 31 0e 3d ff f5 e6 bc 27 69 42 3e
       0.06949217 0.034714848 -0.028193472 0.18985425
000230 64 3d ea bd 1f e7 1e be 62 de da 3d b6 ab fa 3d
       -0.114374906 -0.15517853 0.106869474 0.122397825
000240 ca 90 37 bd 25 61 50 be cb 0d bb bd 99 dd 5a 3d
       -0.044815816 -0.20349558 -0.0913349 0.05343399
000250 5a f8 e3 3d 41 18 24 3d 74 96 90 bd 8c f2 c1 bd
       0.11131354 0.040062193 -0.07059947 -0.0947009
000260 49 64 f9 3d b2 be 44 3e 11 af 26 be ab 39 86 3c
       0.12177331 0.1921337 -0.1627772 0.01638492
000270 f7 f7 4a 3e 67 39 b6 3d bb 04 2a 3e 9c 36 a8 3d
       0.19821154 0.088976674 0.16603367 0.08213541
000280 67 ca 8f 3c c5 37 50 3e 57 e7 87 bd f2 a3 97 3d
       0.017552568 0.20333774 -0.066359214 0.07404317
000290 97 7d ae bc b4 47 27 be 91 6c 49 3d 3f 56 a0 bc
       -0.02130012 -0.16335946 0.049175803 -0.019572375
0002a0 1c 91 b7 3d 86 39 b3 bd 8e e3 1b 3e ec 1a e7 3d
       0.08963224 -0.08751206 0.15223524 0.11284432
0002b0 30 7e e2 bd df 23 9a bd 01 0b b4 3d 78 77 dc 3c
       -0.110592246 -0.07526373 0.08791161 0.026912436
0002c0 93 46 89 bb 48 9e fc bd 47 b6 83 bd b6 c4 5b be
       -0.0041893213 -0.12334877 -0.06431251 -0.21461758
0002d0 99 59 2b 3d d7 9d b6 bd a2 66 20 be 95 5e b2 bd
       0.041833494 -0.08916824 -0.15664151 -0.08709446
0002e0 3f 65 87 3d fe cb 5a be de ec 13 be 53 fa 0b 3e
       0.06611108 -0.2136688 -0.14445826 0.1366971
0002f0 8c f5 00 be 0e 1a 26 3e a1 dc 07 be 4c 1b a3 bd
       -0.12593669 0.16220877 -0.13267757 -0.07964191
000300 96 ae a0 3b 1c 44 5a be 13 53 f7 bd 6a 13 48 3e
       0.0049036248 -0.21315044 -0.12076392 0.19538656
000310 e1 37 13 bd 82 a5 48 3d 8d 77 95 3d e2 ec 2d 3d
       -0.035941962 0.048985966 0.07298193 0.042462237
000320 5c 7b b8 3c bb f3 09 3e a6 9c f5 3d 5c a0 1d 3e
       0.02251976 0.13471882 0.11992769 0.15393203
000330 2d e6 38 3e e5 89 2e 3e bb d9 c9 bc 24 05 54 bd
       0.18056555 0.1704479 -0.024639955 -0.051762715
000340 76 cd eb bd 41 84 89 3c 09 91 f7 3c 57 f4 69 3d
       -0.11513798 0.016786696 0.030220525 0.057117786
000350 e3 27 f6 3d 0b 73 38 be 82 3e 16 3e 1d ad 17 3a
       0.120193265 -0.18012635 0.14672282 0.0005785989
000360 77 96 4e 3e 94 ab 15 3e 84 99 89 3d 04 25 09 be
       0.20174585 0.14616233 0.06718734 -0.13393027
000370 7b b1 b2 ba 5d f6 20 3d c9 a2 dc bd 58 c7 18 3e
       -0.0013633216 0.03929745 -0.10773236 0.14919794
000380 46 ee 2c bd e9 b1 8f 3d 6e f3 51 3e b5 b9 05 3e
       -0.042219423 0.070163555 0.20503017 0.13059123
000390 42 17 39 3e 1c e3 42 be 80 f8 0d 3e 94 57 ec bd
       0.18075278 -0.19031948 0.13864326 -0.11540142
0003a0 f0 21 2d 3e 06 39 a1 bd 44 ec 94 bd aa e0 ca bd
       0.16907477 -0.078722045 -0.072716266 -0.099061325
0003b0 d7 98 39 3e 16 b5 e5 3d df f5 41 3e d2 9d 14 3e
       0.1812471 0.1121618 0.18941449 0.14513329
0003c0 0a 8c ab 3d 84 fb 43 be 8c 63 7d 3d bc 0d f1 bd
       0.0837632 -0.19138914 0.061862513 -0.11770198
0003d0 fc b1 83 3d 51 79 4c be 50 92 c4 bd 3b ce 18 be
       0.06430432 -0.19968154 -0.095982194 -0.1492242
0003e0 a2 95 2b be 5a fa be bc 21 52 08 be 8d 35 e5 bb
       -0.16756299 -0.023312736 -0.1331258 -0.006994909
0003f0 3f 51 2c 3d 95 7c aa bd 56 ff bc 3d 7f 2d 30 bd
       0.04206967 -0.083245434 0.09228389 -0.04301214

GAT_layers.1.f.bias f4 [64]
000000 7f 04 7c 3d d4 ff 20 3e c2 86 a9 3d 26 a6 e6 bd
       0.061527725 0.1572259 0.08277656 -0.11262159
000010 f4 97 4d bd 85 ad db 3d 76 26 67 3d f7 a9 bd 3c
       -0.050193742 0.107264556 0.056433164 0.023152335
000020 32 88 00 be 7a 3c 2a 3e bd 0c a1 bd 3b bb a3 3d
       -0.12551954 0.16624632 -0.07863758 0.07994696
000030 44 88 1a 3e 65 7f 98 3d f9 99 1e bd 28 ad 76 bd
       0.15091044 0.074461736 -0.03872106 -0.06022373
000040 0d ae a3 3d e4 bc f0 3d 73 9f a3 3d 9e fc 0f 3e
       0.07992182 0.11754778 0.07989397 0.1406121
000050 c8 a8 c2 3d 64 c8 df 3d 9b ad 0c 3e c9 34 8b 3d
       0.09504849 0.10926893 0.137381 0.06797177
000060 ff 34 d1 3d 49 55 29 3e 9f bf 99 3d b5 b4 90 bd
       0.10215186 0.1653644 0.07507252 -0.07065717
000070 2c 80 68 bd e4 b7 b6 bd ee 3f a3 bd c3 14 bc 3d
       -0.05676286 -0.08921793 -0.07971178 0.091836475
000080 e6 df 93 bd 8a 22 c8 bd d1 4e 88 3d 36 3f a9 bd
       -0.072204396 -0.09772213 0.06655658 -0.0826401
000090 df c4 d2 bb d1 10 24 3e 23 c6 53 3d 9d bd e8 bd
       -0.0064321603 0.1602204 0.05170263 -0.11364291
0000a0 cf 77 e2 bd 80 fa 66 bd 86 92 26 3e 45 b9 9c 3d
       -0.11058008 -0.05639124 0.16266832 0.07652525
0000b0 f8 1f 1b 3e c9 67 06 bd de a6 d8 3d 32 d1 df 3d
       0.15148914 -0.03281382 0.105787024 0.10928573
0000c0 43 c3 ca 3d e9 e2 1e 3e 38 6b f4 bd da 7f 1e 3d
       0.099005245 0.15516247 -0.11934513 0.038696148
0000d0 cb c7 b6 bb d1 e5 c1 3d e5 f1 15 bd 34 17 88 3d
       -0.0055780164 0.09467662 -0.03660764 0.06645051
0000e0 41 d8 99 bc d4 ea 1b 3e 49 27 c2 3d bf dd b6 bd
       -0.018779876 0.15226299 0.09480149 -0.089290135
0000f0 78 2e 3d 3e 44 d1 ed bd 50 ce 0f 3e 13 8a f0 3d
       0.18474758 -0.1161218 0.14043546 0.117450856

GAT_layers.1.w.weight f4 [1, 64]
000000 12 80 3a 3e 18 18 13 be 2c c3 90 be 6c 60 58 3b
       0.18212917 -0.1436466 -0.28273904 0.0033016456
000010 d6 80 13 3e c8 ae 6e be 09 fb 6d be d5 1e 1f be
       0.14404616 -0.23308861 -0.23240294 -0.15539105
000020 c6 cb c9 bd d2 47 0e be d8 35 10 3e 41 f2 18 bd
       -0.0985332 -0.13894585 0.1408304 -0.037340406
000030 ae d9 db bb 5e dc 90 be 9d fd 34 3e 10 d4 d2 3d
       -0.006709299 -0.28293127 0.17674871 0.10294354
000040 5d 3b 7b bd 6f af 8f 3d bd 49 46 be 83 c1 35 3d
       -0.06133591 0.07015883 -0.19364066 0.044374
000050 f0 0d 36 3e 63 85 97 3e 24 a3 06 be ba 37 fb 3d
       0.17778754 0.29593953 -0.1314817 0.122664884
000060 31 74 ae 3d 38 bb 45 3e d7 55 2d 3e aa 51 82 3e
       0.085182555 0.193097 0.16927277 0.2545293
000070 69 b0 11 3e 5e f0 95 be a5 cb 79 be 14 d4 3f 3e
       0.14227451 -0.29284948 -0.2439409 0.18733245
000080 e0 b3 0f 3c a9 9b 71 bd 32 23 2c 3e 90 da 8f be
       0.008770913 -0.05898634 0.16810301 -0.28096437
000090 66 e5 7c be 98 27 48 3e 40 5d 80 3e a5 c6 83 bd
       -0.24696884 0.19546354 0.25071144 -0.06434373
0000a0 47 6c 09 3e 64 5a cc bc 00 f5 8e bb e3 a6 37 3e
       0.13420211 -0.024945445 -0.0043627024 0.17934756
0000b0 07 6d 97 be 62 b5 09 3e 3f ac 32 3d 84 13 1f 3c
       -0.2957537 0.13448098 0.043621298 0.009709243
0000c0 42 81 18 be 33 55 4d be 98 24 4f 3e a8 37 f7 3d
       -0.14893058 -0.20052032 0.20228803 0.120711625
0000d0 d6 1a 51 3e b1 3c c3 bc 5d c0 63 be c2 ea 51 be
       0.20420393 -0.02383265 -0.2224135 -0.20499709
0000e0 f4 3b 1e 3e 0f 37 09 bd e9 5f 50 3e 47 74 61 be
       0.15452558 -0.033499774 0.20349087 -0.22017013
0000f0 f1 e3 8c be 18 7e 6a be 22 dc 87 3e 78 43 1b be
       -0.27517655 -0.22899663 0.26535136 -0.15162456

GAT_layers.2.f.weight f4 [64, 128]
000000 3e 88 dc bc 55 3e 33 be 87 14 96 bd 67 ac 4a bc
       -0.026920434 -0.17504247 -0.07328134 -0.0123702055
000010 54 ad df bd 19 61 40 bd a6 ba 98 3d 07 a9 d7 bc
       -0.109217316 -0.0469676 0.07457475 -0.026325716
000020 de 2f 92 3d c9 97 28 bd 9e a6 da bc 3e f9 49 bc
       0.07138036 -0.04116038 -0.026690777 -0.01232749
000030 03 b2 93 3d 6f dd 44 bd 4c 0a 4e bd b3 df c2 bd
       0.072116874 -0.048062738 -0.05030279 -0.095153235
000040 70 14 96 3d 99 45 03 be 95 e7 1a 3c c8 73 4a 3d
       0.07328117 -0.12819518 0.0094546275 0.049426824
000050 ac 8a 27 be 22 4b 40 be e6 ce a0 3d 8d 2a f2 3d
       -0.16361493 -0.18778661 0.07851963 0.11824522
000060 5e 63 d0 3d 4d 12 fc 3d dd f4 82 3d 2a fd 87 bd
       0.10175203 0.12308178 0.0639436 -0.06640084
000070 3d 0a 90 bd 6b cd d2 3c 8c 35 fb 3c 3b 90 1a 3e
       -0.07033203 0.025732717 0.030665182 0.15094082
000080 e5 83 db 3d 25 c8 cc bc 0b 8b 23 3e cf 77 a0 3d
       0.10718516 -0.02499778 0.1597101 0.07835352
000090 1b e9 07 bd 74 92 19 3e 1a 6a ed bd 97 10 23 be
       -0.03318129 0.14997274 -0.11592503 -0.15924297
0000a0 46 c5 84 3d 3e ff b1 3c 29 c9 0f 3d ca da 28 be
       0.064829394 0.021728154 0.03510395 -0.16489711
0000b0 af d2 13 be 14 79 e4 3d 71 1d b1 3d f8 7c b8 bd
       -0.14435838 0.11155906 0.08648194 -0.09008211
0000c0 54 c0 f1 bd bf f0 97 3d 70 d7 84 3d 44 a9 66 be
       -0.11804262 0.074189655 0.06486404 -0.22525507
0000d0 b7 bb 00 3e d5 58 9e bd 40 09 43 3c d7 88 6e 3c
       0.12571608 -0.07731787 0.011904061 0.014558992
0000e0 97 cf 40 bb 6b b8 80 bd 1e 4d ef bd da a4 cd 3c
       -0.0029420608 -0.06285175 -0.11684631 0.025103021
0000f0 b2 ce 7b 3d 11 30 51 bd 2b 80 0f 3e 82 20 ce 3c
       0.061476417 -0.05107123 0.14013736 0.025161985
000100 89 18 31 be 94 b5 21 3e 35 c3 5b 3b c1 c7 e4 bd
       -0.17294516 0.15791923 0.00335331 -0.111709125
000110 c4 ff 00 be 67 10 0a be 7e af 71 3d 78 e2 19 be
       -0.12597567 -0.1348282 0.059005253 -0.15027797
000120 83 2d 0b be 11 23 8e 3d 98 f3 17 3e 2e 3e a6 3d
       -0.1359158 0.06940282 0.14839017 0.081173286
000130 c4 17 ee bd 53 6b bf bc e7 62 fd bd 12 36 0f b9
       -0.11625627 -0.023366606 -0.1237238 -0.00013657685
000140 a2 7c 9a bd 7e 17 41 be 84 0a d9 3a 59 85 86 bd
       -0.07543303 -0.18856618 0.001655892 -0.06568403
000150 53 ac 7e 3d 1c e3 32 be 14 09 09 be ad db aa 3d
       0.06217606 -0.17469448 -0.1338237 0.08342681
000160 85 c2 d9 bd 69 ce 25 3d 8f ef a2 3d 64 0f dd bd
       -0.10632805 0.04048005 0.079558484 -0.10793951
000170 8d 76 ce bd 37 aa e5 bd 75 e1 b3 3d 3a 8b ee 3c
       -0.100812055 -0.112141065 0.08783237 0.029119123
000180 e1 3c ae 3d 59 95 1a be f1 9b 25 be bb f4 92 3c
       0.085077055 -0.15096034 -0.16172768 0.017938962
000190 5f e0 3c bc 8d 0a 9c 3c 3e db 85 3d e4 0c e8 bd
       -0.011528104 0.019048 0.06535958 -0.11330584
0001a0 3b 7a d4 3c 93 c9 1e 3e 8c c3 a2 bd 9a 5e 09 3e
       0.02593719 0.15506582 -0.07947454 0.13414994
0001b0 f8 38 30 bd 4f b4 03 bd 6d e3 da bd 16 06 f5 bd
       -0.04302308 -0.032154378 -0.10687909 -0.119640514
0001c0 3d 9b 84 3d 6e 0c 6a 3d 72 cb 33 be 56 d0 0e 3e
       0.06474922 0.05714076 -0.17558077 0.13946661
0001d0 57 b1 07 be 53 e8 1d be bf 56 1d 3d 85 22 8b bc
       -0.13251244 -0.15420656 0.038412806 -0.016984234
0001e0 33 43 27 3e a0 a2 a6 bc 32 62 e0 3d 17 bd 22 3e
       0.16334228 -0.020341218 0.10956229 0.15892445
0001f0 c3 56 1a be dd 6a fc bd 1e de cb bd 4a ca b8 bd
       -0.1507216 -0.1232507 -0.09954475 -0.090229586
000200 1c 14 6d 3d 32 e9 e7 bd b2 76 b1 bd 2b f5 1b be
       0.057880506 -0.11323775 -0.086652175 -0.15230243
000210 b5 9e a5 3d 81 1f 68 3d ee c5 a4 3d c1 aa 29 3e
       0.080869116 0.05667067 0.080455646 0.16569044
000220 1f 8d 55 3d 41 4e 26 3e 13 f7 b4 bd 8f 44 7e bc
       0.052136537 0.16240789 -0.08836188 -0.015519275
000230 8b 32 94 bd d4 ce 7b 3a 9a 58 75 bc 99 65 9c bc
       -0.07236203 0.000960571 -0.014974738 -0.019091414
000240 be d7 e9 3d b1 36 af 3d 9c d1 3b 3e 58 a2 09 bd
       0.11418103 0.085553534 0.18341678 -0.03360209
000250 6e cb f4 3d 10 8d be bc cc 32 a8 bb 19 a2 30 3e
       0.11952864 -0.023260623 -0.0051330086 0.17249335
000260 9d a3 86 3d 09 da 17 bd 77 57 c6 3d 78 21 9a 3d
       0.065741755 -0.03707317 0.09684651 0.07525915
000270 78 d1 bb 3b 5d e0 09 3e d5 06 93 bb 96 7f c6 bd
       0.0057317577 0.13464494 -0.0044868984 -0.09692304
000280 1b 3e cc 3d 5a f4 6b 3d 95 8e 34 3e 72 14 36 be
       0.09972783 0.05760608 0.17632516 -0.17781237
000290 56 78 5b 3d 03 6b 49 3e 22 37 0d 3d 9e 07 e8 bd
       0.05358156 0.19669728 0.034476407 -0.11329578
0002a0 87 24 51 3d 93 29 13 3e f9 ac 66 3e fb 3c bd 3d
       0.051060226 0.14371328 0.22526921 0.09240147
0002b0 47 44 84 3b 12 2f b5 3d b0 88 04 3e 97 eb 5d 3e
       0.0040364596 0.088468686 0.12942767 0.21671902
0002c0 aa 03 00 3e c4 48 2e 3e d4 79 cd bd 2e 0f 2b 3e
       0.12501398 0.17019945 -0.100330025 0.1670501
0002d0 ef 51 c7 bc 72 82 81 3d c7 8e e8 3d 3e 6f 24 3e
       -0.024331061 0.063237086 0.113553576 0.1605806
0002e0 84 09 5a 3d 42 09 1f 3e 7b 90 10 3d f5 dd e5 3d
       0.05323173 0.15530875 0.035294037 0.112239756
0002f0 1f 73 61 3d 83 74 ed 3c 14 15 92 bc 64 a4 cf 3d
       0.05504143 0.028986221 -0.017832316 0.10138777
000300 d3 a5 f4 bd f4 ed b8 bd d8 3c b4 bb 15 82 a9 3d
       -0.11945691 -0.09029761 -0.005500417 0.08276764
000310 0b 79 12 be 89 5f 06 3e 17 52 98 bd f0 f4 8b 3d
       -0.14303987 0.13122381 -0.074375324 0.068338275
000320 aa 5c 26 be f8 6d 4f 3e 90 6b 24 be 97 b4 3e 3e
       -0.16246286 0.20256793 -0.16056657 0.18623577
000330 0a 29 00 3d f3 a1 c0 bc 7a e5 0a be b6 bf af bc
       0.031289138 -0.023514723 -0.13564101 -0.02145372
000340 4a 28 9c bd 7a f4 16 3e 87 90 51 3e 97 e7 b7 bd
       -0.07624872 0.14741698 0.20465289 -0.08979719
000350 d8 d4 d1 bd 7f 53 e9 3d 70 3a 18 3a f4 e1 15 3e
       -0.10245675 0.11392879 0.0005807048 0.14636976
000360 e3 fd 0e 3d 77 87 d7 3d 3e 35 84 3d 93 70 b7 3d
       0.034910094 0.10523885 0.06455468 0.08957019
000370 61 c0 be bd 83 98 35 3d dc c8 1d be 26 d6 5c 3e
       -0.09314037 0.0443349 -0.15408653 0.21566066
000380 dd 2b 22 3e 6c 3e 9c bc ce d1 d2 3d de 38 77 bb
       0.15837045 -0.019072734 0.10293923 -0.0037723104
000390 d0 95 21 be db a8 88 bd 04 cc 20 3d 4a 2d a2 3d
       -0.15779805 -0.066728316 0.039257064 0.079187945
0003a0 57 b8 83 bd 35 07 20 be 10 cc 05 3e e7 20 c9 ba
       -0.064316444 -0.1562775 0.13066125 -0.0015344889
0003b0 b3 ad 68 bd ff 99 bd 3d 86 76 5c 3d f1 8e 68 3e
       -0.056806277 0.09257888 0.05382397 0.22710778
0003c0 f0 b5 cf bc f4 8c ed 3d be b5 1d bd 47 8a cc bc
       -0.02535531 0.1159915 -0.0385034 -0.02496828
0003d0 1a a6 d3 bc 62 67 4f 3d 2b 1d f1 3d 8f 49 b0 bb
       -0.02583604 0.050635703 0.117731415 -0.0053798626
0003e0 c1 a2 6d 3d 22 dd 28 bc 7b 54 16 bc 2a 84 00 3d
       0.058016542 -0.010306628 -0.009175415 0.03137604
0003f0 2d 57 dc bd 18 31 10 bd 94 7a c6 3d 33 16 21 3e
       -0.10758815 -0.03520307 0.09691349 0.15731125

GAT_layers.2.f.bias f4 [64]
000000 7d 56 fc 3c 3e 1b e3 3d 77 20 67 bd 38 a2 f0 3d
       0.03080296 0.110891804 -0.056427445 0.11749691
000010 d7 78 00 bd 82 ca 6d bd 76 d2 f1 3d 73 b7 04 3e
       -0.03136524 -0.058054455 0.1180772 0.12960605
000020 10 5e d5 3d bf 59 9f bd ba b2 d6 3d 47 be 22 bd
       0.104183316 -0.077807896 0.10483308 -0.039732244
000030 5a 2a 9c bd d1 ff b2 bd c7 df 2d 3d d2 70 0f bd
       -0.076252654 -0.08740199 0.04244974 -0.035019703
000040 fa 72 12 3e a1 d3 1e 3d 2b e4 a8 3d 48 95 84 3d
       0.14301673 0.038776044 0.082466446 0.06473786
000050 c9 fb ee 3d 28 25 65 3d 34 f6 21 3d c7 53 98 3d
       0.11669118 0.055943638 0.03954144 0.07437854
000060 46 ec ac 3d 9b 1e 37 3d 76 ad fe 3d a7 28 c9 3d
       0.08443503 0.044706922 0.12435429 0.09822207
000070 aa 26 62 bd 95 ad de 3d 0f ab d6 3d 61 f8 f5 3d
       -0.055212654 0.10872952 0.104818456 0.12010265
000080 99 ce 09 3e 0d 56 bb bd 4b 85 e1 3d 2e 1c 9f ba
       0.13457717 -0.09147272 0.11011752 -0.0012139136
000090 70 52 97 bd b4 1f 06 bd b6 b3 c6 bc c4 25 97 3d
       -0.073887706 -0.03274508 -0.024255615 0.0738025
0000a0 5d cd e8 3c aa 7a 2a bd 86 22 50 bd 41 65 84 3d
       0.028418237 -0.041620888 -0.050814174 0.06464625
0000b0 ab 93 21 bd 38 0b 4b bd d8 50 99 3d 28 dd 8b 3d
       -0.039447468 -0.049571246 0.07486123 0.068292916
0000c0 02 cb af bb f3 53 ff 3b 44 e7 34 bd 4c 5c f4 3d
       -0.0053647766 0.00779199 -0.044165865 0.11931667
0000d0 ab ae e5 bb 7e 2c ca 3d e2 fe 73 bd 28 63 34 3d
       -0.0070093474 0.098717675 -0.059569247 0.044039875
0000e0 7c b7 84 bd 95 b4 46 bd 4f 84 b2 bc a7 e2 ae 3c
       -0.06480309 -0.04851206 -0.021791605 0.02134831
0000f0 73 ad e6 3d 03 d4 98 bd ea f5 94 3d 2a 6e 09 3e
       0.112635516 -0.07462313 0.07273467 0.1342093

GAT_layers.2.w.weight f4 [1, 128]
000000 4c 48 21 bc d5 9e 3e be ae 83 bb bc 87 94 f7 3c
       -0.009843897 -0.18615277 -0.022889938 0.03022219
000010 26 68 56 3d c7 0f 5e 3d 1c b7 30 3e e0 3a 86 bd
       0.052345417 0.054214265 0.1725735 -0.06554198
000020 57 8e 07 3d 38 e1 00 3d 87 95 8b bd ad cd 87 bc
       0.03309473 0.031464785 -0.068156295 -0.016577566
000030 4c ce ed 3d c2 f1 09 3d f5 88 27 3d 85 a1 5d bd
       0.11611614 0.033677824 0.040902097 -0.054109115
000040 9b 5f 4f bd f1 9d 5a 3e 45 4b fc bd 1a c7 09 3e
       -0.050628286 0.21349312 -0.12319044 0.13454857
000050 89 93 21 be 60 ef c1 bd d4 35 2a be 95 87 26 be
       -0.15778936 -0.09469485 -0.16622096 -0.16262658
000060 55 88 49 3e 05 a8 ae 3c 89 11 e6 3b eb c5 a9 3d
       0.19680913 0.021320352 0.0070211333 0.08289703
000070 b2 ed 05 3e 99 c3 4c be 3c a0 e0 3d 06 6b 15 3e
       0.13078955 -0.1999649 0.10968062 0.14591607
000080 71 b8 13 be ad 6d ab 3c 17 7e 54 3c bc 86 fc 3d
       -0.14425828 0.02092632 0.012969515 0.12330386
000090 98 12 25 3e 97 ba 58 3e b0 14 87 bd d8 6b 82 bd
       0.16120374 0.21164928 -0.06595743 -0.06368226
0000a0 e0 3b 62 3e f0 6c e7 bd 13 d5 ee 3d e4 29 3e be
       0.22093153 -0.11300075 0.116617344 -0.18570668
0000b0 0f f2 36 3e 41 88 b3 3d fb 89 34 3e b6 dd 23 3e
       0.17865776 0.08766223 0.1763076 0.16002545
0000c0 05 cd f8 3d 7c 59 06 be 67 af 4c be 1c 88 04 3e
       0.12148479 -0.13120073 -0.19988786 0.12942547
0000d0 20 90 a4 bd 9a c9 a3 3c 67 2c c4 3d 96 2f 18 3d
       -0.08035302 0.019993592 0.095787816 0.037154756
0000e0 62 df 19 be b6 d3 35 be d0 b4 14 be d7 88 38 bc
       -0.1502662 -0.17756543 -0.145221 -0.011263094
0000f0 3b 90 2d be 20 b1 de bd 88 37 3c 3e ee ce 3f 3d
       -0.16949551 -0.10873628 0.18380558 0.046828203
000100 ac ef 18 bc 32 af 44 be c7 4a 74 3d d2 40 64 be
       -0.009334486 -0.19207457 0.059641626 -0.22290352
000110 31 cf cc 3d 90 7a e4 ba 22 48 9e bc 3c 41 37 3e
       0.10000456 -0.0017431546 -0.019321505 0.17895979
000120 4e 50 a9 bd 7b a7 2b 3e e1 d1 a2 bd d7 15 a3 bc
       -0.0826727 0.16763107 -0.079501875 -0.019907875
000130 b6 34 2b be 0a 1d 96 3d 56 4d 85 bd b6 cf 4d 3e
       -0.16719326 0.073297575 -0.06508891 0.20098767
000140 ca 40 3d be cf 30 09 3d 3c 86 d5 3c d9 51 ec bc
       -0.18481746 0.033493813 0.026064985 -0.028847622
000150 7c 06 09 be e4 77 55 be 5d 9b 51 3e 7e c8 28 be
       -0.1338138 -0.20846516 0.20469423 -0.16482732
000160 39 97 9b bd b5 2c d7 bd 8f 52 95 3d a8 a8 55 bd
       -0.07597203 -0.10506574 0.072911374 -0.052162796
000170 82 10 32 be 73 9f 4d be f6 4d c3 3d 5f 62 2b be
       -0.1738911 -0.20080356 0.09536354 -0.16736744
000180 c0 86 1d 3e 1b d5 17 3d d4 70 45 be fc 3b 5c bd
       0.15383434 0.037068468 -0.19281322 -0.053768143
000190 22 b9 f4 3c 76 a8 4d be 93 a2 b3 3d b0 25 22 be
       0.029873434 -0.20083794 0.08771243 -0.15834689
0001a0 c2 5e 20 3e bc 6a 3d 3e 69 5d 1a 3e 5f 3f ff 3d
       0.15661147 0.18497747 0.15074696 0.12463259
0001b0 7e fc 49 3e 98 0d 23 be c9 32 ee 3d e4 d9 a0 bb
       0.19725224 -0.15923154 0.1163078 -0.004908787
0001c0 2e 59 cc 3d 89 c8 2e 3e c3 cd 2b 3e 96 81 11 3e
       0.09977947 0.17068686 0.1677771 0.1420959
0001d0 2b fd 0b be 6a 27 43 bc 92 55 bd bc 9d ca 42 3e
       -0.13670795 -0.0119112525 -0.023112092 0.19022603
0001e0 15 9d 1f be 45 9d 26 3d bb ff 0c be e5 fc e9 bd
       -0.15587266 0.040677328 -0.13769428 -0.11425189
0001f0 e4 7b 01 3d 63 cf 53 3e 17 79 3e be 8c 66 a2 bc
       0.031612292 0.2068458 -0.1860088 -0.019824289

MLP_layers.0.weight f4 [32, 64]
000000 59 94 fd 3c 67 7e 49 bd 74 21 c5 3d a6 70 d2 3d
       0.030954527 -0.049192812 0.09625521 0.10275392
000010 98 d1 10 bd 52 07 f9 bd 06 f6 99 bd 16 80 9a 3d
       -0.035356134 -0.12159599 -0.07517628 0.07543962
000020 d3 04 35 bd a8 54 ff 3c f5 6f 3f 3d 68 8f 5c 3d
       -0.044194054 0.031168297 0.04673763 0.0538477
000030 00 16 a1 bd 00 8e 39 3a 58 72 e8 3d ec ed d8 3d
       -0.07865524 0.00070783496 0.11349934 0.10592255
000040 d1 1a 80 bd 50 63 7f 3c 58 d5 d4 3d 70 12 aa bd
       -0.06255115 0.015587643 0.103922546 -0.08304298
000050 9d ea 8b bc 82 c0 c4 3d d3 4b a3 bb f2 f7 de bd
       -0.017079646 0.096070305 -0.004983404 -0.108871356
000060 ea 29 b5 bd 35 fd 82 bc 84 d7 ca bd 01 d8 a5 3c
       -0.08845885 -0.01598988 -0.099043876 0.0202446
000070 ca 58 f4 bd 2d 31 5f 3d 38 19 7d 3d 5e 5a ae 3d
       -0.11930998 0.054490257 0.06179163 0.0851333
000080 b6 bd be bd 90 9e 68 3c a7 b9 05 be 90 a6 84 bc
       -0.09313528 0.0141979605 -0.13059102 -0.016192704
000090 24 eb 4f 3d 86 5d cf 3d b6 e2 9f 3d c6 ed c6 bd
       0.050761357 0.1012526 0.078069136 -0.097133204
0000a0 77 2c 54 3c fa 1b d5 bd 08 af 1c bd 55 9b 04 be
       0.012950054 -0.10405727 -0.03825286 -0.1294988
0000b0 8c fa 23 bd 08 99 c3 3c b9 42 ae 3c 71 e1 2f 3d
       -0.040033862 0.023876682 0.02127205 0.042939607
0000c0 ac fc 8c 3d 60 fd 42 bd 3c a2 9e bd a5 2e 80 bd
       0.06884131 -0.04760492 -0.077457875 -0.06258897
0000d0 a6 da 9b 3d c6 d6 b6 3d 30 35 e3 bd 59 63 14 3d
       0.07610063 0.089276835 -0.11094129 0.036227558
0000e0 50 cf 25 bd 9f 8b b9 bc 5e 16 fd bd e3 98 87 bd
       -0.04048091 -0.022649584 -0.12357782 -0.06620958
0000f0 78 3b 44 bc 28 28 af 3c e1 61 05 3d 64 b2 04 bd
       -0.011977069 0.021381453 0.032564048 -0.03239669
000100 80 a1 9a 3d d7 9c cf 3d 48 6a 10 3d 03 30 0c 3d
       0.07550335 0.10137337 0.035257608 0.034225475
000110 70 f6 25 bd 70 76 ea bc df 4f 72 bd 3a 9b 93 3a
       -0.040518224 -0.028620929 -0.059158202 0.0011261471
000120 c5 6a 42 3d c6 9a c5 3d 35 e6 b0 bc 46 1e c2 bd
       0.047465105 0.09648661 -0.021594146 -0.094784304
000130 ac 4e d0 3d 6c a2 52 bd 17 5a b5 3c ec 9d 72 bd
       0.101712555 -0.05142443 0.022137685 -0.059232637
000140 65 6c 74 3c 2a 4a e0 bd 6b 57 0b be 3b e1 9c bd
       0.014918421 -0.10951646 -0.13607566 -0.07660147
000150 4a d6 f0 bd 1b 1b 0b 3c 21 28 09 bd c9 3e 5b 3d
       -0.117596224 0.008490349 -0.033485536 0.053526673
000160 eb d3 0c be 5b 0f d2 bb 1c 7d e8 bd 44 2a b1 3d
       -0.13752715 -0.006410522 -0.11351988 0.0865064
000170 80 cb 32 3d 83 ed 02 be 53 16 4f bd d1 63 55 bd
       0.043651104 -0.12785916 -0.0505584 -0.052097145
000180 60 5d cc bd 38 00 49 3d 76 b2 10 bb 7c 3a 03 bd
       -0.09978747 0.049072474 -0.0022079027 -0.032038197
000190 e0 3b 93 3b a0 ac a5 3d f8 70 e5 bc 35 cc 24 bd
       0.0044932216 0.08089566 -0.02800797 -0.04023381
0001a0 70 49 72 bd f0 fc 41 3c 80 3e a8 ba 66 82 52 3c
       -0.059152067 0.01184009 -0.0012836009 0.012848472
0001b0 36 b1 92 bd fc e3 9c bd 01 52 d0 3d ef da bf bd
       -0.071627066 -0.07660672 0.10171891 -0.0936793
0001c0 1a 88 da 3d 74 65 95 bd 8c 97 45 bd 48 5c 66 3d
       0.106704906 -0.07294741 -0.04824023 0.05624035
0001d0 64 7e 87 bd a8 cc b0 bd 30 46 4a bc 35 da 85 3c
       -0.06615904 -0.08632785 -0.012345836 0.0163394
0001e0 a0 99 19 3c e2 be 44 bc e0 2f ff 3d e7 27 c2 bc
       0.009375006 -0.012008401 0.12460303 -0.023700668
0001f0 e1 dd ff bd e6 89 f9 3d f2 48 26 3d e0 77 14 bd
       -0.12493492 0.12184505 0.04059691 -0.036247134
000200 2c 32 5d bd a3 fa 1e bd 60 7a 03 3d e1 fe e5 3d
       -0.054002926 -0.038813245 0.032099128 0.11230255
000210 29 35 79 bd 26 8f 55 3c 32 36 83 3d 3b b4 eb 3d
       -0.060841713 0.0130346175 0.06406821 0.115089856
000220 e0 c5 8b bc 7c 4e d1 3c 70 ce 60 bd bf 5f ca bc
       -0.017062128 0.02555012 -0.054884374 -0.024703858
000230 b6 70 9d bd 8f 6d c9 3d 6f b9 a0 3c 78 29 ca bc
       -0.076875135 0.0983535 0.019619672 -0.024677977
000240 a5 31 b4 3c 9d 8e f4 3d e9 c3 80 bd 18 47 35 3d
       0.021996329 0.11941264 -0.06287367 0.044257253
000250 7e 98 53 bd 90 b5 f5 bd 00 2b 1b ba 2e 64 98 bd
       -0.0516591 -0.11997521 -0.0005919188 -0.07440983
000260 e5 b6 e3 3d 98 4c 78 3b 32 b7 02 bc f0 45 e6 bd
       0.11118869 0.003788745 -0.0079782475 -0.11243808
000270 6a 34 ec bd aa e6 84 3d c9 53 87 bd 3c fc e6 bd
       -0.11533435 0.06489308 -0.066077776 -0.11278579
000280 c5 1f 8b 3d 05 f2 61 3d ef 2a a4 bd 00 05 b1 bb
       0.06793169 0.05516245 -0.080160014 -0.0054022074
000290 83 2f 86 3d a1 4c 82 bc 50 da 33 bc 79 9e d4 bd
       0.06552031 -0.01590568 -0.010977343 -0.10381789
0002a0 45 73 dd bd e3 d3 bf bd d8 11 d5 bc 48 b6 cd bd
       -0.108130015 -0.09366586 -0.026009485 -0.10044533
0002b0 56 e5 9d bd f8 77 f8 bc 08 39 ef bb 8b 55 a6 bd
       -0.07709758 -0.030330643 -0.0073005 -0.08121785
0002c0 5e a8 6a 3d 14 09 5f bb 4b b8 98 3d d8 a0 a5 3b
       0.057289474 -0.003403251 0.07457026 0.0050545745
0002d0 f8 61 47 3d 40 59 d6 3b 8e 83 54 bd dd 86 c2 ba
       0.048677415 0.006541401 -0.051883273 -0.0014841218
0002e0 95 89 8c bd 59 52 de bd d4 fb c6 3c 51 87 61 3d
       -0.06862179 -0.1085555 0.024290003 0.05506069
0002f0 be 9e 88 3c ba c9 a9 bd f5 df 70 bd 5e 17 ea 3d
       0.016677257 -0.082904294 -0.058807332 0.11430238
000300 96 3e 6c bd 4f 67 a5 3d 13 32 ab 3c 29 26 05 3e
       -0.057676874 0.08076345 0.0208979 0.13002838
000310 88 3f 4d 3d 84 ed 88 bd 7f b0 df 3d 72 9a f3 3d
       0.050109416 -0.066859275 0.10922336 0.118946925
000320 d6 3f 24 3e 8b 5e f5 bd f3 bb 6e 3d ce 2c cc bd
       0.16039976 -0.11980923 0.05828471 -0.09969483
000330 60 99 24 bd 22 9b df 3d 1f 30 c5 bd 83 d8 c0 3d
       -0.040185332 0.10918261 -0.09628319 0.09416296
000340 aa 8f 07 3e d2 81 eb bc 2b 3c 76 3d e8 62 73 bd
       0.13238397 -0.028748427 0.060115974 -0.059420496
000350 24 d2 87 bb 4a 89 ec bb 89 ad d4 3c 65 df 09 bd
       -0.0041449238 -0.0072185146 0.025961654 -0.03366031
000360 9e 67 23 3e cb 4a 3b 3e 64 8f eb 3d 4d b1 a6 3d
       0.15957496 0.1829025 0.11501959 0.08139286
000370 e1 31 88 38 73 19 8b 3d 6e 27 51 bb d0 e9 9a 3c
       6.494276e-05 0.067919634 -0.003191437 0.018910319
000380 f2 ec da 3d 0c ac f5 3d 6c ee bd bb 30 2e 6b bc
       0.10689725 0.11995706 -0.0057962444 -0.014354274
000390 7f 12 42 bd e8 b8 9b 3c 71 bf 32 bd d9 20 c6 3d
       -0.04738092 0.019009069 -0.043639604 0.09674234
0003a0 68 a2 f3 bb 6c 33 ef bc 90 6e 3a bd fc 43 f7 3d
       -0.007435132 -0.029199325 -0.045515597 0.12073514
0003b0 53 2e fc 3d 58 9d 94 bd b2 2f 03 bd ed 57 d3 3d
       0.12313523 -0.072565734 -0.032027908 0.10319505
0003c0 83 40 a4 3c bd 94 b7 3d 7f 1b 15 3e 35 06 05 3e
       0.020050293 0.089639165 0.1456127 0.12990649
0003d0 b0 4d 07 3d 53 81 3d 3e 4c a1 15 3d 30 c7 19 bd
       0.033033073 0.18506365 0.036530778 -0.037543476
0003e0 fc f4 93 bd 64 33 4f 3b f1 1c 87 bd 18 33 ab 3d
       -0.072244614 0.0031616325 -0.06597317 0.08359355
0003f0 2b e8 20 3d 91 c4 d9 3d f9 c8 3f 3c 25 ce 98 3d
       0.039283913 0.10633195 0.01170563 0.07461194

MLP_layers.0.bias f4 [32]
000000 10 c7 99 bd df d1 e0 3d 63 4f cf bd fe b0 4a bc
       -0.07508671 0.1097753 -0.10122564 -0.0123713
000010 ce d5 73 bd f4 a5 4f 3d a5 e8 31 3e 99 49 fc bc
       -0.059530072 0.050695375 0.17373903 -0.030796813
000020 af 34 b0 3c ce 80 0d be 05 d8 90 3d 92 9d c8 bd
       0.021509496 -0.13818666 0.070724525 -0.09795679
000030 8b 6e 00 3d 69 5a fe 3d 67 63 df 3c 3b a0 be 3d
       0.031355422 0.12419588 0.027269078 0.09307905
000040 4d 57 99 3d b8 65 bb 3c 31 fa a3 3d 88 7f a5 bd
       0.074873544 0.022875652 0.080067046 -0.08080965
000050 50 73 58 bc 43 ec a4 bc cc 15 fd bd 9a ce 1b 3e
       -0.013211086 -0.02013219 -0.12357673 0.15215531
000060 44 05 1d bd 50 e6 33 bc 14 a5 a0 3d e7 f2 ce bc
       -0.0383351 -0.010980204 0.07843986 -0.02526231
000070 49 58 6c 3d 8e 78 ad 3d c0 e2 a8 bd b8 42 a2 bd
       0.057701383 0.084702596 -0.08246374 -0.07922882

MLP_layers.1.weight f4 [1, 32]
000000 a8 e1 01 be 8b 3f 1b bd 06 34 d2 bd f5 80 53 3e
       -0.12683737 -0.037902396 -0.10263829 0.20654662
000010 c5 57 a7 bd 02 00 81 3d fc c6 99 3d 08 c2 cf bd
       -0.081710376 0.062988296 0.075086564 -0.101444304
000020 03 02 12 be 7f 2a ad bc 50 ee c7 3d 14 22 dc bd
       -0.1425858 -0.021138428 0.097622514 -0.107486874
000030 c0 b7 06 3e f0 1d 51 3e a8 0f d7 3d f8 a7 0e be
       0.13156033 0.20421576 0.10501033 -0.13931262
000040 3b a5 38 3e ff fa b8 bd 93 89 38 3e ae f7 d8 bc
       0.1803178 -0.09032249 0.1802123 -0.02648529
000050 17 1f 0f bc 14 7a 7b bc 36 cc 0d bc 71 a1 e8 3d
       -0.00873544 -0.01534893 -0.008654645 0.113589175
000060 df e9 27 be 0b 33 ce 3d f1 10 91 bd 01 b5 b0 3d
       -0.16397808 0.100683294 -0.070833094 0.08628274
000070 ce 34 e1 bd 9c be e8 bd 6c e2 6a bd cd 49 4e bd
       -0.109964 -0.11364481 -0.05734484 -0.05036335
