SLIC_GAT/last7.pt (torch, 80373 bytes, 12 tensors)

GAT_layers.0.f.weight f4 [32, 124]
000000 28 b2 31 3e 4d 4b 48 bd d0 23 a2 bd 32 95 19 bd
       0.17353117 -0.048899937 -0.07916987 -0.0374958
000010 c9 f5 d4 bb bd e0 48 3e 5f e3 f9 bd 16 c3 22 bc
       -0.0064990264 0.19616981 -0.12201571 -0.009934207
000020 fd 6f 6d 3d 50 ef 9f 3d b7 ab fd 3c 2b f6 55 bd
       0.05796813 0.07809317 0.03096567 -0.052236717
000030 ba fe 6f bd 0e 6f ee bd b4 99 5b 3d 69 f4 24 3e
       -0.058592536 -0.11642276 0.05361338 0.1610886
000040 11 d8 31 be 20 17 2c 3d 4b 63 90 bd 99 27 da bb
       -0.17367579 0.04201424 -0.07050189 -0.0066575524
000050 77 83 85 bd ca f9 06 be bc 11 1e 3d d6 e2 30 3e
       -0.065192156 -0.13181224 0.03859113 0.17274031
000060 b0 92 bc bd 31 2d 12 be 3d 5e 26 3e 5b 08 01 be
       -0.09207666 -0.14275052 0.16246887 -0.12600844
000070 2b 3d 28 be fc 2b 04 3e 7b 09 fc bd af 04 8a bd
       -0.16429584 0.12907404 -0.12306496 -0.067391746
000080 f0 e7 36 3e 0e fe 82 3d 89 75 5f bc 17 46 1c bd
       0.17861915 0.06396113 -0.013638862 -0.03815278
000090 06 c3 3c 3e e7 dd 22 3e b5 bd 09 3e ad 87 d1 bd
       0.1843377 0.15904962 0.13451274 -0.10230956
0000a0 4c 0c 1d 3d b2 7f 62 3c 41 ea 08 be 39 29 32 be
       0.038341805 0.01382439 -0.13370611 -0.17398538
0000b0 36 2a 29 be 79 14 1d 3e 8f 6a 19 be 3d cb bc bd
       -0.16520008 0.15339841 -0.14982055 -0.09218452
0000c0 3b 2e a4 bd a8 f2 31 3e f5 1b 1c be e7 d5 bc bd
       -0.0801663 0.17377722 -0.1524504 -0.09220486
0000d0 20 7c 91 bd 72 fb 04 be 89 1a 3c 3e 7e 5c 4d 3e
       -0.07103753 -0.12986544 0.18369497 0.20054814
0000e0 7e 38 7f 3d 33 76 13 be ad 1d 6a bd 3f ed 2b 3e
       0.062309735 -0.14400558 -0.057157207 0.16789721
0000f0 11 47 06 be 49 c4 27 3e 50 d6 11 be e8 09 25 be
       -0.13113047 0.1638347 -0.1424191 -0.1611706
000100 3c 42 08 be 75 82 f5 3d 56 cc c6 bd ae 8c 33 3e
       -0.13306516 0.11987773 -0.09706943 0.17534134
000110 17 16 fc bd fb 14 a9 bd dd a9 12 3e 59 dc ce 3d
       -0.12308901 -0.08255955 0.1432261 0.10100622
000120 9d fc 1a be aa 05 b0 3d 61 19 d8 3a 7c 1c b0 bd
       -0.15135427 0.0859483 0.0016487056 -0.08599183
000130 e9 20 3d 3e 99 ad 23 be 3a a6 c1 3d e1 38 09 bc
       0.18469585 -0.15984191 0.09455533 -0.008375377
000140 73 1d 89 3c 1c f2 50 be 0a a6 b3 3d f9 e3 0b 3e
       0.016737675 -0.20404857 0.08771904 0.13661183
000150 ea eb f4 3d 16 e6 26 be df 22 97 3d 0a c8 27 3e
       0.119590595 -0.16298708 0.07379698 0.16384903
000160 25 b1 f9 bd 65 36 44 3e 7b fa 93 3d 30 14 c2 bd
       -0.12191991 0.19161375 0.0722551 -0.09476507
000170 f3 19 60 3d 8c ef 27 be f5 70 9c 3c 5b a1 09 be
       0.054712247 -0.16399974 0.01909683 -0.13440458
000180 1b 3d 32 bc b3 46 63 3c b8 4b 20 3e 5d f4 30 3e
       -0.0108788265 0.0138718365 0.15653884 0.17280717
000190 31 6c 1d 3e d7 c9 f3 bd 62 c5 27 bd cf 99 fd 3d
       0.15373303 -0.11903732 -0.040959723 0.12382852
0001a0 a5 8f 30 bd 86 62 fa 3d ca a4 11 3d d4 ff d5 3d
       -0.04310574 0.12225823 0.035557546 0.10449186
0001b0 98 ed fa 3d 1d d9 1f be 18 03 30 be d9 95 ac bd
       0.12252349 -0.15610166 -0.1718868 -0.08427019
0001c0 32 4e 44 bd 1c 09 e6 bd 70 4e ce 3c e3 6a 4c 3e
       -0.047926135 -0.11232206 0.025183886 0.19962649
0001d0 f5 27 3a be 23 dd c5 3d 23 3d 20 be 2a 8c cb bd
       -0.18179305 0.09661319 -0.15648322 -0.099388435
0001e0 53 e5 cc 3d bf ac 6e bc 8e 0d 26 be 39 8e 55 3e
       0.100046776 -0.014567553 -0.16216108 0.20855035
0001f0 53 02 36 be 5e 09 59 3c 99 78 33 3e aa b0 1a 3e
       -0.17774324 0.013246862 0.17526473 0.15106454
000200 ee c5 21 be 6b a4 40 3e da 1a 2f bc 46 e9 1b be
       -0.1579816 0.1881272 -0.010687554 -0.15225706
000210 10 da 4b 3d 9d 61 e1 3c e9 13 d9 3c 60 d7 1f 3e
       0.049768507 0.027512366 0.026498752 0.15609503
000220 cd 7e 33 3e f6 46 b0 bd a6 11 cc 3d ca 21 24 3e
       0.1752884 -0.08607285 0.09964304 0.16028515
000230 49 d4 12 be 57 93 f2 bd ec 25 cc bd 89 1f 3d 3e
       -0.14338793 -0.11844509 -0.099681705 0.18469061
000240 eb 2d e7 bc b3 5d 16 be 6c d1 26 3e 42 19 fe bd
       -0.028220138 -0.14684181 0.16290826 -0.12407161
000250 cc bd 33 bd e3 1f a0 bd d0 8e b7 bd b8 c6 39 be
       -0.043882176 -0.07818582 -0.08962786 -0.18142211
000260 23 ae 9e bd f5 09 16 3e 36 c9 36 bd f9 70 c2 3c
       -0.07748058 0.14652236 -0.044625483 0.02373551
000270 7b b4 71 3d 27 fb 37 be 9b f3 4b 3d a6 43 09 bd
       0.05901001 -0.17966901 0.049792867 -0.03351178
000280 21 7d 16 bd 31 a5 9c bd 3b d0 24 3c f6 f2 36 3d
       -0.036740426 -0.07648695 0.010059412 0.0446653
000290 fb 5f 0f be 17 2e 1f 3d 1d 7a 3e 3e d0 bc 36 3e
       -0.14001457 0.038862314 0.1860127 0.17845464
0002a0 a2 16 46 3c 20 e5 46 be be df 2f 3e c4 6f 71 bc
       0.012090357 -0.19423342 0.17175195 -0.01473612
0002b0 af e8 10 be 56 4c b6 bd 9a 6e 40 3e b0 9a 37 3e
       -0.14151262 -0.08901279 0.18792191 0.17930102
0002c0 2c b9 73 39 46 9d 1b be bf ae 39 be 0c 09 13 3e
       0.00023243268 -0.15196714 -0.18133067 0.1435892
0002d0 44 8f 1e be 5c 5a 38 be 0f 47 ea 3d 40 23 a1 bd
       -0.15484339 -0.1800322 0.114393346 -0.078680515
0002e0 f1 d3 60 3d 35 fb 20 bd a0 42 e6 bb b6 04 63 bd
       0.054889623 -0.03930207 -0.0070269853 -0.055424415
0002f0 50 8b bb 3d 1a 14 a6 3d 16 67 a4 bd d8 36 04 be
       0.09157431 0.08109303 -0.080274746 -0.12911546
000300 c9 89 00 be e0 ba 3c be 89 2e 3d 3e 6d 14 8f bd
       -0.12552561 -0.18430662 0.18474783 -0.06986318
000310 f0 b7 0e 3e d7 f6 11 3e 14 b7 f8 bd 96 8b 44 be
       0.13937354 0.14254318 -0.121442944 -0.19193873
000320 9f d7 4d ba 16 6b f4 bd be 22 c4 3d 6c 9e a3 bd
       -0.00078522594 -0.119344875 0.09576939 -0.07989201
000330 c2 4c f6 bd 6d 36 54 bd 5a 15 ca bd 72 0d 0e 3e
       -0.12026359 -0.051809717 -0.09867354 0.13872316
000340 f3 fe 40 be 41 29 0c be 2e 7f 16 3e 75 51 74 3c
       -0.18847255 -0.13687612 0.14696953 0.014911999
000350 a3 89 82 bd bb 82 94 bd c3 b1 14 be 44 12 1e be
       -0.06373908 -0.07251497 -0.14520936 -0.15436655
000360 e7 59 13 3e 9f 6f 3f be e9 21 1f be 00 1c b3 3c
       0.14389764 -0.18694924 -0.1554028 0.021863937
000370 4d 2f b2 3d 2d 2d 9b bd 74 cd 97 bd 14 5e 18 be
       0.08700428 -0.07576976 -0.07412234 -0.14879638
000380 9b 77 c0 bd f8 11 7f 3d 99 69 30 bd 1d 86 49 3c
       -0.09397813 0.062272996 -0.043069456 0.0123000415
000390 ec 60 40 3e 6f 75 f7 3b b8 fd 1d 3e ca c7 9e bd
       0.18786973 0.007551841 0.15428817 -0.077529505
0003a0 d4 62 2f 3c 94 11 42 3e e8 ec 45 3e 17 67 03 3e
       0.010704715 0.18952018 0.19328654 0.12832294
0003b0 1b e6 2e be 7e d3 08 3e c4 36 95 bc 5d 8e 38 3e
       -0.17079966 0.13361928 -0.01821459 0.18023057
0003c0 ca 67 1a 3e fb e7 cf 3d 21 58 9a 3d 24 d2 4a 3a
       0.15078655 0.10151669 0.075363405 0.0007737002
0003d0 a9 e2 23 bd b0 6c fd bc 61 78 a8 bd b0 7b 89 bd
       -0.04001108 -0.030935615 -0.082260855 -0.06713045
0003e0 7a a6 44 3e f5 69 96 3d ca cd 22 3e b6 f8 f3 3d
       0.19204131 0.073444284 0.15898815 0.11912672
0003f0 f3 82 28 be b6 16 97 bd f6 b2 3a 3d 4f b8 78 3c
       -0.16456203 -0.07377379 0.045580827 0.015180661

GAT_layers.0.f.bias f4 [32]
000000 57 9e c4 3d ce 9f d7 3b 65 8b 07 3d 8b 90 89 3d
       0.096005134 0.0065803295 0.03309192 0.067170225
000010 23 de 90 bd e4 94 7c 3d a5 da a8 3d 78 49 94 3b
       -0.07073619 0.06166543 0.08244828 0.0045253597
000020 2a 6c af bd f5 21 b9 bc e4 1b b0 3d 59 5a ef bc
       -0.085655525 -0.0225992 0.0859907 -0.029217886
000030 1e 5d 96 bd 73 58 8c 3c a7 e0 97 bd 0f db 36 bc
       -0.073419794 0.01713202 -0.07415896 -0.011160626
000040 23 63 ea 3c 36 2e 28 bd f4 d0 aa bd 82 75 90 bd
       0.028611725 -0.041059695 -0.08340636 -0.07053663
000050 66 ae b7 bc 34 dd 84 bd 6c 67 a3 bc 3e 08 85 3d
       -0.022422027 -0.06487504 -0.019946776 0.06495713
000060 84 85 f2 bc 74 64 c2 3d 57 53 ae 3d 5d 8c 98 bd
       -0.02960468 0.09491816 0.085119896 -0.07448647
000070 bc df ec bc 49 fd ab bd b8 db 9e bc e5 2c d8 3c
       -0.028915279 -0.0839792 -0.01939188 0.026388595

GAT_layers.0.w.weight f4 [1, 124]
000000 48 25 1e be b5 2c 2b bd 0a 1b 95 3d e5 58 9c 3d
       -0.15443909 -0.041790683 0.07280548 0.07634143
000010 e8 dd 1f bc 26 46 b8 bd 15 a4 50 3e 67 ec 1b be
       -0.009757496 -0.08997755 0.20375092 -0.15226899
000020 3f 25 1e be e6 51 c9 3c 89 5e 56 3e 12 c1 06 3e
       -0.15443896 0.024575185 0.209345 0.13159588
000030 54 02 6a 3d 9e 10 95 bd c5 65 3b 3d ad de 31 3e
       0.057131127 -0.0727856 0.045751352 0.173701
000040 73 03 ba 3d 28 83 41 bc e9 13 51 be 7c cd f9 3d
       0.09082689 -0.011811055 -0.20417751 0.12197396
000050 61 5d 73 3d f8 96 42 3d 48 e0 4b be a4 c3 09 3e
       0.059415225 0.047507256 -0.19909775 0.13453537
000060 9d a5 be bd 76 3b bd bc a2 10 c4 bd 6e 98 52 be
       -0.09308932 -0.023099642 -0.09573485 -0.2056596
000070 8a b1 50 bc 70 9c b0 3d 07 c2 20 be 52 7e 70 bc
       -0.012737641 0.08623588 -0.15699016 -0.014678555
000080 bb cb 41 be a5 8d 75 bd 8f b7 38 bd 4a cd 0d 3e
       -0.18925373 -0.059949536 -0.04509693 0.13847843
000090 7f 25 91 bc 64 8c 66 3d 5f 5d 5e be 2d d8 4f 3d
       -0.017718075 0.05628623 -0.21715306 0.05074327
0000a0 f0 16 42 3e 1a 91 b2 bd 2e e3 08 bc 6f 2b 95 bd
       0.18954062 -0.08719082 -0.008354945 -0.07283675
0000b0 12 a3 1b be 97 60 34 3e 4d ef 9a 3d 70 74 59 bd
       -0.15198925 0.17614971 0.07565174 -0.05308956
0000c0 34 63 10 3e f3 bb 4c 3e be a5 56 be b5 31 3c be
       0.14100343 0.19993572 -0.20961663 -0.18378337
0000d0 1d ca 01 3d 56 40 63 bb 3e e0 0d be 15 a9 45 3e
       0.03168689 -0.0034675798 -0.13855073 0.19302781
0000e0 52 0e 42 bd cd aa ca bd e5 d0 2b be 4c ba 24 3e
       -0.04737694 -0.09895859 -0.16778906 0.16086692
0000f0 1c 0e 4b be bf 39 36 be b3 0e b9 3c 2e b6 e8 bd
       -0.19829601 -0.17795466 0.022590017 -0.11362873
000100 d0 d2 df 3d be f0 31 3d bf ea 18 be 6a 40 23 be
       0.10928881 0.04344248 -0.14933299 -0.15942541
000110 4e 50 e6 bd be c7 d1 bd fa 1e 36 be 91 5b 5f 3e
       -0.11245786 -0.10243176 -0.17785254 0.21812274
000120 29 71 57 be e2 d7 04 3e 17 52 ed 3d 5d 10 10 be
       -0.21039261 0.12972978 0.11587923 -0.14068742
000130 7b 49 3e 3e e2 b1 05 be e5 55 2a bd f8 fe 50 3e
       0.18582718 -0.13056138 -0.04158582 0.20409763
000140 ef 99 5c be 9f 47 ca bc 72 09 e6 3c 08 c8 d1 bd
       -0.21543096 -0.024692355 0.028080676 -0.10243231
000150 2a 0d 9d 3d 79 e2 18 3d 72 69 6a bd 1a a7 ac 3c
       0.076685265 0.037325356 -0.057229467 0.021075774
000160 5a d1 e4 3d 45 e2 03 3e 00 e1 8d bc e5 61 2d 3e
       0.11172743 0.12879284 -0.017319202 0.16931875
000170 7c 9c 19 be d7 a6 42 bd 8c d0 0f be 4e 1b 1e 3d
       -0.150011 -0.047522392 -0.14044398 0.03860026
000180 8a aa 62 bd ad d2 09 3e f5 d7 84 3d b6 3d a8 bd
       -0.05533842 0.13459273 0.06486503 -0.082148954
000190 f4 ee 99 bd 31 14 13 be b2 6a 2f 3e 91 fd 4b 3d
       -0.0751628 -0.14363171 0.17130545 0.049802367
0001a0 d2 7f 8d 3d b8 5c bd 3d 42 ea 41 bd e8 a0 f3 3d
       0.069091454 0.092462 -0.047342546 0.11895925
0001b0 c4 6a 5d bd dd cc d1 bd 2c 35 ce bd ae 35 fb bd
       -0.054056898 -0.10244153 -0.100687355 -0.12266098
0001c0 46 42 54 be 99 fb aa 3d 73 ac 38 bd cd 03 6e 3d
       -0.20728406 0.0834877 -0.045086335 0.058109093
0001d0 d4 76 97 3d de bd 5b be 1b e2 4c bd ad 4d cd 3d
       0.073957115 -0.21459147 -0.05002032 0.10024581
0001e0 0b 5a bc bd 9f 62 6f bd 12 33 42 be 2b 08 fa 3d
       -0.09196862 -0.05844366 -0.18964794 0.12208589

GAT_layers.1.f.weight f4 [64, 64]
000000 5e f7 60 be da e2 fa 3d 64 47 38 3e 36 2c c9 3d
       -0.21969363 0.122503 0.17995983 0.09822886
000010 29 db c3 bc c9 60 02 be 7c 13 ec 3c 30 a4 51 be
       -0.023908215 -0.12732233 0.028817885 -0.20472789
000020 31 31 4b bd f3 00 a6 bc bc 89 a5 bd d3 3d f3 bd
       -0.04960746 -0.020264124 -0.08082911 -0.118770264
000030 10 48 1b 3e 17 bd 09 bd 58 03 b3 bd 5b 5f 9a 3d
       0.15164208 -0.033627596 -0.08740872 0.07537719
000040 3d 56 02 be 47 86 2a be 44 84 5f be e3 3b fd 3d
       -0.1272821 -0.16652785 -0.21827799 0.12364938
000050 ab 0c 82 bc 73 ed 02 3d de eb c2 3d 7a 45 52 3d
       -0.015875181 0.03196473 0.09517644 0.05133579
000060 ba 0c 1b 3e 4f 08 b0 bc bf 9c 18 3d da 0e a6 bd
       0.15141574 -0.021488337 0.03725886 -0.081083015
000070 26 cf ed bd 44 ba b1 3d fc 4c 5a be 24 bb f0 3c
       -0.11611776 0.086781055 -0.2131843 0.02938611
000080 66 a1 15 be 67 cd 0e 3e dd 0c 18 3e af 48 8c 3d
       -0.1461235 0.13945542 0.14848657 0.06849801
000090 0c 1a 26 3d 86 89 fc 3a a6 f9 64 3d c9 5f a7 3d
       0.040552184 0.0019267059 0.055902146 0.081725664
0000a0 c9 fc bd 3d 31 fc df bb af ee 38 bd d3 1d 4f 3e
       0.092767306 -0.0068354835 -0.0451495 0.20226221
0000b0 ae 81 be bc 34 6c e5 bd 5e 6d 5d 3c d4 03 51 be
       -0.023255195 -0.11202279 0.013514845 -0.20411617
0000c0 00 d0 06 3e 16 85 ae 3d 8d 42 2a 3e b7 01 81 bd
       0.13165283 0.08521478 0.1662695 -0.06299155
0000d0 ce 1a c2 bb d2 95 29 be 92 fb a9 3d 4a bb 5a be
       -0.0059236055 -0.16561058 0.08299936 -0.21360508
0000e0 a6 b8 35 3e 25 4e 6a 3d 5e eb 25 bd c2 87 3a 3d
       0.17746219 0.05720343 -0.040507667 0.045539625
0000f0 b1 7b 91 bc 00 06 4b 3e 4d 87 0b 3e b3 8b 53 3e
       -0.017759176 0.19826508 0.13625832 0.2065876
000100 16 b0 2b bd 6c 29 4a be c0 da c2 3d 15 9a 0b be
       -0.041915976 -0.19742364 0.095143795 -0.13632996
000110 79 94 0d 3e e4 d1 90 3d 6f e0 c9 bd e0 8b 69 bd
       0.13826169 0.070712835 -0.098572604 -0.05701816
000120 0d 91 01 be 0b ce bf 3d b1 c0 3c be 8d 7c f7 3d
       -0.12652989 0.093654715 -0.18432881 0.12084303
000130 30 f0 e4 bd 1f c2 10 bd 1f c1 2d bc 74 f7 81 3d
       -0.11178625 -0.03534138 -0.010605126 0.06346026
000140 c5 10 2c 3e 7c e9 c7 bd 72 ef 2c 3e 25 4b 01 3e
       0.16803272 -0.097613305 0.16888216 0.12626322
000150 96 ae da 3d 40 30 4a 3e 0e 70 ca bd c0 f5 86 3c
       0.10677831 0.19744968 -0.09884654 0.016474605
000160 3b 34 e1 3d 9b 6a a1 bd bf c4 90 3d 4c 43 27 3e
       0.1099629 -0.078816615 0.07068776 0.16334265
000170 79 29 f3 3b cf fb 08 be 53 ae 69 be d3 f4 8f 3c
       0.0074207154 -0.13377307 -0.22820406 0.017572796
000180 3c 5e 83 3d 09 8b 5d 3e d9 9c 10 be b4 3c 51 3e
       0.06414458 0.21635069 -0.14122333 0.20433313
000190 8c ef 03 3e fc 33 0f 3e 01 2e 5e 3d 4d 97 94 39
       0.12884349 0.13984674 0.05424309 0.00028341488
0001a0 c4 c2 e2 3c ed 48 31 bd e7 be bd 3d f2 5a dc 3b
       0.027680762 -0.043282438 0.09264927 0.0067247087
0001b0 da b0 34 3e 83 fc 25 bd a9 75 49 be 1d a8 23 bd
       0.17645589 -0.040524017 -0.1967379 -0.039955247
0001c0 b8 0c f4 bb ea e3 d2 3c 64 6e c3 3d e7 73 8a bd
       -0.0074478053 0.025743444 0.0954254 -0.06760388
0001d0 2a 79 4e be 02 31 65 be 45 40 04 be fe 44 a0 bd
       -0.20163408 -0.22381976 -0.12915142 -0.07825659
0001e0 45 5f d6 bd 76 14 0e 3d 43 67 14 3e 50 32 45 3d
       -0.1046739 0.03468748 0.14492516 0.048143685
0001f0 f5 98 6b bd 0d 61 52 be 3d dc 4a 3d aa 3b b5 3d
       -0.057518918 -0.20544834 0.04952644 0.08849271
000200 4f cb a6 3d 68 d8 9d 3d 50 7d 35 be ee 5c 22 be
       0.08144247 0.07707292 -0.17723584 -0.15855762
000210 bf 27 5b bc 60 e0 d0 3d 89 b7 20 3c ae d4 36 be
       -0.013376175 0.10199046 0.009809383 -0.17854568
000220 a3 a0 8a bb 9c 33 15 3e 03 b2 3c 3e 30 49 86 3d
       -0.004230575 0.14570469 0.18427281 0.06556928
000230 a2 62 b3 3d 79 a6 27 3e 7b 0f a3 bd 3e d2 28 3e
       0.08759047 0.16372098 -0.07961937 0.16486451
000240 da 0b 23 bd 27 6e d0 3d f5 ec 2b be be f8 4d 3d
       -0.039806224 0.1017726 -0.1678961 0.050286047
000250 50 3a 3a 3e 86 99 9c 3d 7a cd e4 3d 19 4d 1b 3e
       0.18186307 0.0764647 0.11172004 0.15166129
000260 c0 db 2c be 24 29 11 be d7 e7 99 3d 9e 90 58 be
       -0.16880703 -0.1417585 0.07514923 -0.21148917
000270 41 66 15 be 3f 2e 13 3e 48 c2 b7 bd 14 f0 4e be
       -0.14589788 0.1437311 -0.08972603 -0.2020877
000280 70 2b 08 be ca 66 d5 bd e5 cb b7 3d 5b 67 3d be
       -0.1329782 -0.10419996 0.08974437 -0.18496458
000290 bd 4f 90 3d a8 b2 1c be a3 cc 50 be 5f 7b fc 3d
       0.07046459 -0.15302527 -0.20390563 0.12328219
0002a0 5f 95 e3 3d 2c 61 57 be 2e 9e 6b 3d 2a d5 91 bc
       0.11112475 -0.21033162 0.0575239 -0.01780184
0002b0 95 0f ff 3d 5c 06 57 3e c2 27 57 3c 6c 4b 40 3d
       0.12454144 0.2099852 0.013132038 0.046946928
0002c0 15 70 c1 bd 97 a0 20 3e c4 fb 41 be 66 15 54 be
       -0.09445206 0.1568626 -0.18943697 -0.20711288
0002d0 2d ba 19 be 4b 8f 53 bd fe 6a 00 3e ed 2b c1 3d
       -0.15012427 -0.051650327 0.12540814 0.09432206
0002e0 ba ff 35 bd 56 ed 3e 3e 9e 8d 68 3e aa 76 41 3e
       -0.044433333 0.18645224 0.22710273 0.18892923
0002f0 53 a6 95 3d 9c f4 20 be a2 fd a0 3c 75 6a 36 3e
       0.073071145 -0.15718311 0.019652192 0.17814048
000300 93 a4 bc bb 82 66 00 3d eb cf d2 bc cb a2 55 3e
       -0.0057569235 0.03134776 -0.025733909 0.20862882
000310 7a 14 12 be c5 6c 48 3e 9a b8 10 be d0 32 d2 bc
       -0.14265624 0.19572742 -0.1413292 -0.025658995
000320 1b 0d b9 bc f6 6c d5 bd f1 17 e2 3c 8c 9f 98 bd
       -0.022589257 -0.10421173 0.027599307 -0.07452306
000330 af ef b5 3d 1d ea 3c be 15 61 45 be 63 0d 52 be
       0.08883607 -0.18448682 -0.19275315 -0.20512919
000340 5a b5 09 be 4e f6 4a bd f5 72 92 bd 75 ce 34 bc
       -0.13448086 -0.0495513 -0.071508326 -0.011035551
000350 aa fe 0d be c2 32 1e be f5 6c 99 bd 4c 4e 9c 3d
       -0.13866678 -0.1544905 -0.07491485 0.076321214
000360 0e f8 3b 3e 02 14 da 3d a7 ab f9 3c d7 fb 31 be
       0.18356344 0.106483474 0.030477358 -0.17381226
000370 45 9b c9 bc f0 8b 3d be 49 11 eb bd 0e e6 53 3e
       -0.024610171 -0.18510413 -0.11477906 0.20693228
000380 7c 6c 06 3e 0a e9 4b 3e 2e a5 4f be ef 7b fe 3d
       0.13127321 0.19913116 -0.20277855 0.12425982
000390 67 94 9c 3d 16 1d 63 be 27 ca c5 bd 9b 84 bf 3d
       0.07645493 -0.22179064 -0.09657698 0.09351464
0003a0 2a 57 ce bd 75 c8 96 bd 60 9f e9 3d e4 21 03 3e
       -0.10075219 -0.07362453 0.114073515 0.12805897
0003b0 ee 51 0f be 6a 52 c9 3c a9 fa 94 3d 05 4f c6 3d
       -0.13996097 0.02457543 0.07274372 0.096830405
0003c0 0f f4 32 3d 79 d4 3a bd 51 e2 32 bd 42 4b 3f 3e
       0.043689784 -0.045612786 -0.043672863 0.18681052
0003d0 d5 a0 8b bd 2f 84 33 be ea 54 26 3e 94 b0 00 3e
       -0.06817786 -0.17530893 0.1624333 0.12567359
0003e0 0f 7b 06 bd 42 c5 0c bd ba a1 f8 3c 84 3e 55 be
       -0.0328322 -0.034367807 0.030350555 -0.20824629
0003f0 97 4e 01 be 9c 7c 55 3e 54 dd 44 3d b5 6d 39 bc
       -0.12627636 0.20848316 0.048062637 -0.01131766

GAT_layers.1.f.bias f4 [64]
000000 6f 03 d0 bd c5 19 b1 3d ea ab 4f 3e a5 04 c9 bb
       -0.10156905 0.08647493 0.20280424 -0.006134587
000010 74 bc 9d bd e7 04 1e 3e d3 f2 b4 bc b3 02 21 3e
       -0.0770196 0.15431558 -0.022088444 0.15723686
000020 58 0c 48 3e 49 53 28 3e 68 39 c3 bd 63 1d ac bd
       0.19535959 0.16438021 -0.09532434 -0.084040426
000030 c8 55 ba bc ae 8f 20 3e 46 33 43 bc e5 fc 01 3e
       -0.022745982 0.1567981 -0.01191408 0.12694128
000040 96 14 85 bc 60 48 46 bd 40 8c 19 3e b8 61 52 3e
       -0.016245168 -0.048408866 0.14994907 0.20545089
000050 a1 f3 a2 bd 41 09 dc 3d 80 b0 f8 bc 6d ba ab bc
       -0.07956625 0.107439525 -0.0303576 -0.020962918
000060 70 5b e9 bd 68 04 66 bd b0 da 28 bc de c0 e9 bd
       -0.113943934 -0.056156546 -0.010306045 -0.114137396
000070 64 66 14 bd df a8 f7 3d f3 28 e0 bd 9b 56 ff bc
       -0.03623046 0.120927565 -0.109453104 -0.031169226
000080 f9 b2 cc bc 4c e8 3c 3e 8b c1 a7 bd 48 b7 ba bd
       -0.024987685 0.18447989 -0.08191212 -0.091169894
000090 01 4f c3 3d 4d 6e 2a bd 11 8c 40 3e 6b a1 c2 bb
       0.09536553 -0.041609097 0.18803431 -0.0059396527
0000a0 06 fd c4 bd 60 98 7f bc 6d 17 84 bd 94 3c 5d bd
       -0.09618573 -0.015600294 -0.064497806 -0.05401285
0000b0 01 67 8c bd 35 f5 39 3e fc 54 d1 3d ae 6f df bd
       -0.06855584 0.18159945 0.102212876 -0.10909973
0000c0 99 8d 1e 3e fd 1f 16 3e a8 92 2b 3e f4 2c 3c 3e
       0.15483703 0.1466064 0.16755164 0.18376523
0000d0 53 4d 0a bd 62 25 36 bd 43 c9 e7 3d 54 22 63 3d
       -0.03376515 -0.044469245 0.113176845 0.05545266
0000e0 78 8b 56 bc d4 e8 25 bd 59 c6 d7 bd 32 9b 0e 3e
       -0.013094775 -0.040505245 -0.10535879 0.1392639
0000f0 a1 78 b3 bc 17 35 0e 3e 4f 67 5f bd cf 57 02 3e
       -0.021908106 0.1388744 -0.054541882 0.12728809

GAT_layers.1.w.weight f4 [1, 64]
000000 d7 fb 2f be f8 e3 16 3e a7 42 7c bd 71 c3 e6 3d
       -0.17185913 0.147354 -0.061587002 0.11267746
000010 fa 6c 42 be 32 a6 a2 3d 37 c4 7c 3e 20 3b 5e be
       -0.18986884 0.079418555 0.24684225 -0.21702242
000020 5e 48 2d 3e 70 c8 54 bd 69 9d 48 3e cd 84 fb 3d
       0.16922137 -0.051948965 0.19591297 0.12281189
000030 51 05 04 3e 9b 43 8f be 2e 8e 60 be aa c9 a3 bd
       0.12892653 -0.27981266 -0.21929237 -0.07997449
000040 d1 95 1b be 24 45 6c 3e cf 29 81 3e 5c 53 5d 3e
       -0.15193869 0.2307325 0.2522721 0.2161383
000050 96 a0 ed bd 0c e2 f6 3d a8 3e 15 3c dd de 47 be
       -0.11602895 0.12054834 0.009109177 -0.1951861
000060 38 b2 49 be 93 a7 05 be 64 36 18 3e a4 c0 9a be
       -0.19696891 -0.13052206 0.14864498 -0.30225098
000070 6b c4 4b bd 79 82 49 bd 6a af 7d be c2 7c e4 3c
       -0.049747866 -0.049196694 -0.24773946 0.02789152
000080 ea 98 a4 bc 74 da 29 3e 63 ce 9a be 66 e2 01 3e
       -0.020092446 0.1658724 -0.30235586 0.1268402
000090 45 de 0b be 25 4f 87 3c 9c c2 86 3d 52 54 28 3e
       -0.13659008 0.016517231 0.065800875 0.16438416
0000a0 9b 46 aa bc f4 76 a3 bd 4b 5a 2c 3e 3f aa 37 bb
       -0.02078562 -0.07981673 0.16831319 -0.0028025059
0000b0 49 73 37 3e 5d c4 fe bd 67 f0 75 3e 2b ce 8c be
       0.17915072 -0.12439797 0.24017487 -0.27501044
0000c0 12 8f 88 bc 0a e9 d1 bc 13 ca 82 3e 3c 15 88 be
       -0.016669784 -0.025623817 0.25544795 -0.265787
0000d0 49 0d 08 be 4c ef 08 be 7e 9d 8e 3e df f3 9a be
       -0.13286318 -0.13372535 0.27854532 -0.30264184
0000e0 ba 44 8c 3e 79 bb 12 be e0 9e 8a 3e 3e 0f 98 be
       0.27396184 -0.14329328 0.27074337 -0.2969913
0000f0 23 b0 a9 3c 33 c0 3c 3d 35 b8 1c 3d 2e 44 66 3e
       0.020713871 0.046081733 0.03826161 0.22486946

GAT_layers.2.f.weight f4 [64, 128]
000000 36 c4 00 3d 5e e7 13 3d fc 4c 00 be a9 fd 35 bc
       0.03143712 0.03610932 -0.12529367 -0.011107841
000010 a4 70 b7 bd a5 57 1c 3e ee d2 04 be 05 f9 f8 bd
       -0.08957031 0.15267809 -0.12971088 -0.12156872
000020 0d 09 e1 bd b5 bb fe 3c 03 89 1f 3e a3 29 88 3c
       -0.109880544 0.031095365 0.1557961 0.016621416
000030 80 29 f8 bd d4 10 86 bd e7 35 27 be 8d 3c 4a 3d
       -0.121172905 -0.065461785 -0.16329156 0.049374152
000040 3a c0 b0 3d 67 da 07 3e c3 a3 e8 3d 13 3e bd bc
       0.08630414 0.13266908 0.1135936 -0.023100888
000050 e4 77 de 3d b5 51 1b 3c 61 32 d7 bd eb 9f 9c bd
       0.10862711 0.00947993 -0.10507656 -0.076476894
000060 29 02 90 bd c5 0c 03 3e c8 61 9b bd 1b ce 11 be
       -0.07031662 0.1279784 -0.0758701 -0.14238779
000070 21 00 e4 bd 4a 92 8f bd 4e 4c 20 3e f4 a4 04 3d
       -0.11132837 -0.07010324 0.15654108 0.032383874
000080 a7 09 68 3d 56 41 ee bd 27 5c 22 3d 3a fd c3 bd
       0.05664983 -0.116335556 0.039638665 -0.095697835
000090 25 f6 a3 3c cc 7d 17 be b9 1c 2f 3e 8f 7b aa bd
       0.020014832 -0.14794081 0.171008 -0.08324348
0000a0 eb 67 2b be 29 f3 13 be 1a b8 a3 3d 1f 7b 14 bd
       -0.1673886 -0.14448227 0.07994099 -0.03625023
0000b0 a6 8d 9a 3d 97 03 f4 3d 31 ae 27 3c 82 5b 69 3d
       0.075465485 0.11914747 0.010234402 0.056972034
0000c0 82 dd 87 3d 5b c6 32 be eb 3f 53 bd 56 fc 97 bd
       0.06634046 -0.17458479 -0.05157463 -0.07421176
0000d0 8c 94 04 3e 88 a5 6b 3a a8 0c d0 bd 99 4f 84 3d
       0.12947291 0.00089892047 -0.10158664 0.064604945
0000e0 00 5a 27 3e 47 dc 84 3d ac ee c9 bd 42 3f d9 bd
       0.16342926 0.06487327 -0.09859976 -0.106077686
0000f0 6b 0e ac 3d c8 fc 12 bd d0 93 cd bd 1d be f8 3d
       0.084011875 -0.035885602 -0.100379586 0.12145636
000100 d6 4e fc 3d b1 41 ed bd f4 88 2c 3e e2 82 a6 3d
       0.12319724 -0.11584795 0.16849118 0.08130433
000110 fb 96 19 be 4b 74 22 bd 71 5f cb bd 66 a0 8b 3c
       -0.14999 -0.039661687 -0.099303134 0.017044257
000120 3b f9 cc bd f9 1f 0f be 03 18 82 3d 42 24 87 3d
       -0.100084744 -0.1397704 0.06352236 0.065987125
000130 23 31 04 3d 30 9b f1 bc 6c a3 04 3e 41 5a 08 3e
       0.032273423 -0.029492944 0.12952965 0.13315679
000140 fc ae e6 3d 41 bb a4 bd a5 14 11 bd 8e 4e c7 bd
       0.11263844 -0.08043528 -0.03542008 -0.0973178
000150 2d dc fc bd 76 77 31 bd d0 d7 69 bd 66 bd b4 3c
       -0.12346683 -0.043326817 -0.05709058 0.022062968
000160 0d aa ce bc 79 f7 05 3d 29 bc 45 3d ae 58 86 bd
       -0.02522757 0.03270671 0.048275147 -0.06559883
000170 94 ab 1d 3e d4 4a 70 bd d0 2f 2b bc 05 19 e7 3d
       0.15397483 -0.05866511 -0.010448411 0.11284069
000180 87 dc ac bd 3e ef d8 3d 2c 08 94 3c a5 da 25 bd
       -0.084405 0.10592507 0.018070303 -0.04049172
000190 c3 7c f8 3d 52 a8 e0 bd 18 9a a8 3a 7d 74 ae bd
       0.121331714 -0.109696046 0.0012863306 -0.08518312
0001a0 50 0e 1d 3e ab ab 19 3e ec 53 35 be 50 bc f6 bd
       0.15337491 0.15006892 -0.17707795 -0.120476365
0001b0 c5 b3 7d bd 71 c5 a6 bd fb 15 98 bd 01 f6 de 3d
       -0.06193902 -0.08143128 -0.074260674 0.10886765
0001c0 5d 15 d0 3c 47 94 13 3d bf 65 f6 bd 8c 5c c3 3d
       0.025400812 0.03603008 -0.12031125 0.09539136
0001d0 a7 a9 98 3d 5d fb e6 3c 45 06 a8 bd 4d 57 80 bd
       0.074542336 0.028196031 -0.08204321 -0.06266651
0001e0 0d a5 98 3d 33 63 c9 3c b5 cf 38 bd 10 8b 24 3e
       0.07453356 0.024583435 -0.04511996 0.16068673
0001f0 9a 6c 63 3d 68 67 38 be 90 fb e7 bc a4 bf e0 3c
       0.055523492 -0.18008196 -0.028318197 0.027435131
000200 78 d2 44 3d 52 24 03 be cb 9b 83 be 7c ad b3 bd
       0.04805228 -0.12806824 -0.25704798 -0.08773324
000210 cc bb 8c bc 76 2b 55 be 0a d0 e7 3d e0 1d 29 bd
       -0.017179392 -0.2081736 0.11318977 -0.041288257
000220 da 66 04 be b0 cd c4 bd 76 de 2f 3d 17 28 26 be
       -0.1292986 -0.09609544 0.042936765 -0.1622623
000230 7b e7 b2 bc e9 a4 6d be b7 1f 26 3e d1 d6 f4 bd
       -0.021838894 -0.2320744 0.16223036 -0.119550355
000240 83 aa 8e bc 8f 54 1b be 75 94 25 bd 46 12 78 bb
       -0.01741529 -0.15168975 -0.040424783 -0.0037852689
000250 7a d3 1e 3c 6c 56 ca bc e8 64 f4 bd 91 0a 07 be
       0.009693975 -0.024699412 -0.11933309 -0.13187625
000260 8d 06 26 ba 03 f1 87 3c 74 d9 64 bd f5 12 10 3e
       -0.00063333736 0.016594416 -0.055871442 0.14069732
000270 1a 87 24 3d 4f da 5d 3d 50 51 ff 3d 1f b5 11 be
       0.040167905 0.054163273 0.12466681 -0.14229248
000280 c2 96 ab 3d 77 e9 8c be 04 8f 17 bb 1d df 5f bd
       0.08378364 -0.2752187 -0.0023126015 -0.054656137
000290 33 65 da bc f1 97 9e 3d e8 7e 8b be d6 47 a5 bd
       -0.026659584 0.07743824 -0.2724526 -0.08070342
0002a0 ce ee 3d bd 60 28 e0 bd 81 cb 8b bb 84 22 bd bd
       -0.04637032 -0.10945201 -0.004266203 -0.09235099
0002b0 53 ce 51 3c d9 5e 84 be 13 bf 6a be c0 9d 31 be
       0.012805539 -0.25853613 -0.22924452 -0.17345333
0002c0 bf d4 82 be bd e4 81 be 44 1f e1 bd 53 f1 72 be
       -0.25552937 -0.25369826 -0.109922916 -0.2372487
0002d0 3c e4 d0 bd ce 9d d6 3d ce e1 37 be e2 93 ac bd
       -0.10199782 0.104793176 -0.17957231 -0.08426644
0002e0 25 23 2b 3e f7 65 d3 3d 88 93 46 bc 7a 83 e8 bd
       0.16712625 0.103221826 -0.012120135 -0.11353202
0002f0 14 af 14 3e b4 97 58 be a1 6c f4 3c d5 9e 62 be
       0.14519912 -0.2115162 0.029836955 -0.22130902
000300 cf f3 ea 3b 51 15 82 3d 8e 34 33 3e bc 9a 02 3d
       0.0071701775 0.06351722 0.17500517 0.031885847
000310 f3 f2 1d be b6 54 d7 3d 2f 19 05 3e e0 1b c5 bd
       -0.15424709 0.10514204 0.12997888 -0.09624457
000320 17 e3 eb 3c 70 19 1a 3e 03 4d 1b 3d 16 ba 97 3d
       0.028794808 0.15048766 0.03791524 0.0740854
000330 96 b2 be 3d 8e 88 03 3c a3 d0 98 3d 03 c5 3f bd
       0.09311406 0.008028163 0.07461669 -0.046818744
000340 36 eb 02 3b a9 93 81 bd c8 bf 27 3c 10 12 68 3e
       0.0019976622 -0.06326992 0.010238595 0.2266314
000350 a8 f8 a2 bd 02 75 11 3e a4 92 c1 3d 5e 5f e2 3d
       -0.07957584 0.14204791 0.094517976 0.11053346
000360 22 20 c1 3d 05 16 72 3d e9 5a 1f bd a2 0d 95 3c
       0.09429957 0.05910303 -0.038905058 0.018194977
000370 48 7d 2e be 74 4e 0e 3e 4a f0 19 3e df 83 86 3d
       -0.17039979 0.13897115 0.15033069 0.06568121
000380 ce fa 85 3d 6f ed 45 3e 42 f2 4f 3d 35 bb e7 bc
       0.06541978 0.19328855 0.050768144 -0.02828751
000390 7d 4b 29 3e a4 29 fb 3d 6a bf e6 3d 2f 98 02 3c
       0.16532703 0.12263802 0.11266978 0.007970854
0003a0 49 5f 82 3d ae b7 75 bd d6 8c a0 3d 08 a2 a1 bd
       0.063658305 -0.059989624 0.07839362 -0.07892233
0003b0 f0 9f 90 bd 1c 71 64 3e 3e d0 10 3e a2 43 c6 bd
       -0.07061756 0.22308773 0.14141938 -0.09680869
0003c0 16 db 09 bd 32 91 94 3c ad 6e 7c 3c 06 8e 37 3d
       -0.033656202 0.01813564 0.015407247 0.04481318
0003d0 63 89 32 be 27 7a 4e 3d df bc f0 3d 42 7d dd 3d
       -0.17435221 0.050409462 0.11754774 0.10814907
0003e0 43 d1 1c be bc f0 96 bb ef e4 b9 bd 69 78 88 3d
       -0.15314202 -0.0046063345 -0.09076869 0.066635914
0003f0 d9 ff ee bc 45 18 0a 3e 6d 91 c0 3d 88 10 57 3e
       -0.029174732 0.1348582 0.09402738 0.210024

GAT_layers.2.f.bias f4 [64]
000000 2f 53 23 bc ff 96 71 3e 71 1d 06 3e 9a 4d 45 bb
       -0.009968563 0.23592757 0.13097169 -0.0030106069
000010 34 20 10 3e a6 2d 10 3e c8 b4 ce bd 66 42 91 bd
       0.14074785 0.14079913 -0.10093075 -0.070927426
000020 a0 bd 8a bd 9c 92 1c bd c8 6d 9c 3d 79 bd 1f 3e
       -0.06774449 -0.038225755 0.076381266 0.15599622
000030 b3 a7 eb 3d 49 9e 90 3e 5d 63 d3 3d 92 f8 9e bd
       0.115065955 0.28245762 0.103216864 -0.07762255
000040 7e cd c0 3d 28 f4 b8 bc ca 0b 35 3d d6 13 2c 3d
       0.094141945 -0.02257736 0.044200696 0.042011105
000050 ea 8f 6a 3d 5b 10 fd 3d 41 d4 3e bd ac 44 1f 3e
       0.057266153 0.12356635 -0.04658914 0.1555354
000060 58 9e 07 3e 0d c2 f4 bc 1b d8 13 3e 3d ef 78 3e
       0.13243997 -0.029877687 0.14437906 0.24310012
000070 c5 21 14 3d 73 c5 c3 3d 12 be e0 ba d9 c3 12 bd
       0.036165018 0.09559145 -0.0017146489 -0.035831306
000080 d4 40 b9 3d df 22 74 bc 77 3c 1a bd 54 a1 a9 bd
       0.09045568 -0.014900892 -0.03765532 -0.08282724
000090 25 b4 45 bd f2 1e 16 bc bc 1a 0c 3e f4 37 99 bd
       -0.048267502 -0.009162651 0.13682073 -0.07481375
0000a0 c8 8b eb 3d 7e fb 3b bd e2 75 11 3e f4 19 f3 3d
       0.115012705 -0.04589414 0.14205125 0.118701845
0000b0 67 1a 91 3c 4e fa 0f 3e 81 67 9c b9 f5 c9 35 3c
       0.017712785 0.14060327 -0.00029831755 0.011095514
0000c0 cc 19 2b 3e f1 e4 5b bd 98 05 fe 3d 95 bb 8b bd
       0.1670906 -0.053685132 0.12403411 -0.06822888
0000d0 33 de 75 bd 24 5a 01 3e 97 ac 54 3c d3 03 b2 bd
       -0.06002636 0.12632042 0.012980602 -0.08692136
0000e0 3a e6 c5 3d e7 97 b5 3d f4 da 9c bc 8e de da 3d
       0.09663053 0.08866864 -0.019147374 0.1068698
0000f0 a3 66 28 bb a5 5e fe 3d bd fd 2e bc cf df c6 3d
       -0.0025695942 0.12420396 -0.010680613 0.09710657

GAT_layers.2.w.weight f4 [1, 128]
000000 d9 a2 e8 3d f1 81 ed bd 39 90 d4 bd a4 e3 45 3e
       0.11359186 -0.1159705 -0.10379071 0.1932512
000010 b7 73 52 bd 00 f3 fd bd 09 21 0b 3d 71 ec cc 3d
       -0.051379886 -0.12399864 0.03396705 0.10006035
000020 8a 1c 4a bb a5 ce 3f bd 55 76 a5 bd d5 69 d5 3d
       -0.0030839765 -0.04682793 -0.08079211 0.104205765
000030 01 1b 54 be 46 a5 56 3c 2e d1 12 3e 86 ae fa 3d
       -0.20713426 0.013100928 0.14337608 0.12240319
000040 95 f0 e5 3c f6 3b 2f 3c f6 14 7e bd bd d4 fa bd
       0.02806882 0.010695448 -0.06203171 -0.12247608
000050 12 41 e1 3d 3c b2 05 bc c7 56 92 3d 2c f8 5e 3e
       0.10998739 -0.00816017 0.07145458 0.21774358
000060 76 04 83 3c ee 45 39 be b8 c6 01 be b5 a8 b4 bc
       0.015993338 -0.18093082 -0.12673461 -0.022053102
000070 8e 49 2a be 58 6a 98 3d c1 9f 52 be 3c f0 37 3e
       -0.16629621 0.074421585 -0.20568754 0.17962736
000080 13 dd 4f be 96 b5 60 3e f7 a6 cf bd 14 86 89 3d
       -0.20299177 0.2194427 -0.10139268 0.067150265
000090 2c 19 ba 3c e3 f1 49 3e 38 e4 1f 3e 33 2b 09 3e
       0.022717081 0.19721179 0.15614402 0.13395385
0000a0 9a 8f de 3d a3 b7 16 3e 2f 63 0c 3e 10 cd bc 3d
       0.108672336 0.1471849 0.1370971 0.092188
0000b0 4a 3f 2e 3e ed d4 cf bd 03 02 3b bd f3 95 54 bc
       0.1701633 -0.10148034 -0.045656215 -0.012975204
0000c0 55 8c d8 3d fa 3f 4e bd 24 c6 15 3e b1 91 8d 3c
       0.10573641 -0.05035398 0.14626366 0.017281385
0000d0 ba 28 11 3e d6 34 ad 3b 4c 3a 3b 3c 17 7f 11 3d
       0.14175692 0.0052858396 0.011427473 0.035521593
0000e0 84 b0 1e be 19 d6 4e 3e af bd 64 3d 1a d6 ef 3a
       -0.15497023 0.2019886 0.05584496 0.001829806
0000f0 d8 7b 0a 3e fc 88 fa 3d 71 f8 ac bd 44 9f 4f 3e
       0.13523805 0.12233159 -0.08445824 0.20275599
000100 2e a4 38 3e 3c 15 c4 3d df 23 09 be 94 78 5e be
       0.1803138 0.09574363 -0.1339259 -0.21725684
000110 9f c7 84 3d 17 1a 1a 3e cb 20 41 3c fa 07 3e 3e
       0.06483387 0.15049015 0.011787604 0.1855773
000120 68 5d 3f 3d 55 d9 23 3e e9 b6 02 3e d1 db ac 3d
       0.04671994 0.16000874 0.12765087 0.08440364
000130 a9 da b2 bb 55 b3 87 3b 3d b6 97 bc b7 fb 0a bd
       -0.005458195 0.004141251 -0.018519515 -0.03393146
000140 b2 cc 23 be 7e 58 a7 3d 26 20 bc 3d ee c0 1c 3e
       -0.15996054 0.081711754 0.09185819 0.15307972
000150 81 8e 67 3d ba 6f e4 bd c2 e4 e5 3d 92 c4 82 3d
       0.056532387 -0.11154123 0.11225273 0.06385149
000160 6b 9f 4f be 57 26 53 be a0 65 fa 3c c1 c4 9f bd
       -0.20275657 -0.20620094 0.030566037 -0.078012
000170 b0 5a 23 be 32 70 48 3e 01 9b 42 3d 38 05 b9 bb
       -0.15952563 0.19574049 0.047511104 -0.005646374
000180 3b ba ed 3d 7b 24 a2 bd b4 22 47 be 1e 71 8c bc
       0.11607786 -0.07917114 -0.19446832 -0.017143782
000190 92 34 47 3d a9 09 78 3d 54 d3 41 3e 2b 15 48 be
       0.04863412 0.060556088 0.18928272 -0.19539325
0001a0 e6 6d 15 be cd 40 3f be c5 86 56 3c 97 30 b0 3d
       -0.14592704 -0.18677063 0.013093655 0.08603018
0001b0 7a ee 92 bd 05 1c 2f 3e 7a 19 ae bd 0f c5 1d 3e
       -0.07174392 0.17100532 -0.08500953 0.15407203
0001c0 a1 d3 b0 bd 7f a0 a4 3c 40 58 76 bd 1e f2 59 bd
       -0.08634115 0.020096062 -0.060142756 -0.053209417
0001d0 b4 f1 6b 3d 59 3b 28 bd 35 3e f9 3c d6 10 00 be
       0.057603553 -0.041072223 0.03042517 -0.12506422
0001e0 e8 29 e3 bd bf f5 11 be ce fb 83 3d 24 56 9b 3d
       -0.11091977 -0.14253901 0.06444512 0.075847894
0001f0 b6 0b f6 bd 0e fb de 3d 39 05 da bd 81 69 fc 3d
       -0.120139524 0.10887729 -0.106455274 0.12324811

MLP_layers.0.weight f4 [32, 64]
000000 27 f0 2a 3d ef 91 2c bb db 60 a9 3c c0 fd c0 3d
       0.041732933 -0.00263321 0.020676067 0.09423399
000010 5b ac 2c 3c 6a b1 4f 3b 11 f1 81 3d 6c b1 4b bd
       0.01053914 0.003169144 0.06344808 -0.04972975
000020 b4 de 10 bd 28 a3 9e bd 0b 6d 93 bd 7c d6 8a bc
       -0.035368636 -0.07745963 -0.07198533 -0.016947977
000030 23 ab cc bd 51 14 75 bd dd 6b c4 bd b6 1f cb 3d
       -0.09993579 -0.05983383 -0.09590886 0.09918158
000040 dd 96 cd bd 8c 62 36 3d 3c 54 29 bd 16 f2 bf bd
       -0.100385405 0.044527575 -0.041340098 -0.09372346
000050 7f a9 72 bd 3a b2 5c bc ba 68 c6 3d 7b 24 e7 3d
       -0.059243675 -0.013470227 0.09687944 0.11286255
000060 00 0e b7 39 94 29 f8 bd 46 fd c0 bd cc 23 bb 3d
       0.0003491491 -0.121173054 -0.09423308 0.09137687
000070 6c 13 d9 3d ab d8 43 bc c8 09 b7 bc 7c e7 2c 3d
       0.105994076 -0.011953513 -0.022343531 0.04221295
000080 9d aa 7f bd 3e ef 81 bd 2c 6d c2 bd f1 8f 8b 3d
       -0.06241857 -0.0634446 -0.09493479 0.06814564
000090 8f 30 36 bd b4 ab 0f bd 91 7b cd bd eb ca 33 3d
       -0.044479903 -0.03507586 -0.10033334 0.04389469
0000a0 43 ae af bc 8e b8 e0 3d 39 56 dd bc 48 32 80 bd
       -0.0214454 0.10972701 -0.027018653 -0.062595904
0000b0 41 8a a8 bd 7b de dc 3d 19 ae b0 bd fc fb d6 3d
       -0.08229495 0.10784622 -0.086269565 0.10497281
0000c0 11 8f 23 bd 0c e4 f9 3d a5 e0 ff 3c 96 52 ea bd
       -0.03993136 0.122016996 0.031235049 -0.11441533
0000d0 d3 d0 65 3c 60 34 da 3c ce e8 b5 bd 40 e4 d2 3d
       0.014026838 0.026636302 -0.088822946 0.102974415
0000e0 fb 3f 32 bd c2 e6 b6 bd 9e df 80 3d 60 24 9f bd
       -0.043518048 -0.08930732 0.062926516 -0.0777061
0000f0 20 15 f9 bc 8f a3 80 bc 19 9f a4 bd 7e 12 b0 ba
       -0.030405581 -0.01570299 -0.08038158 -0.0013433245
000100 d6 2f a3 3d e5 3d 8a 3f e4 71 c8 3d 0c de 77 bd
       0.07968108 1.0800139 0.09787348 -0.060514495
000110 5c 3b 8d 3b ba 55 81 3d 79 ed 8b bd 74 f0 e6 bd
       0.0043100547 0.06315179 -0.06832404 -0.112763315
000120 e3 79 73 bd a0 cc f8 3d 5b e0 28 3e ae 7c 39 3d
       -0.059442412 0.12148404 0.16491835 0.04528492
000130 fa 30 df bc a9 05 81 3f cd 83 3e 3d 64 39 49 3d
       -0.027245034 1.0079852 0.046512414 0.049126998
000140 87 fd 1f 3c 40 85 8f 3b 0f dc 99 3d 0d 93 95 bc
       0.0097650355 0.0043798983 0.07512676 -0.018258596
000150 dc ab 0e 3e 9b 0a b9 bc 71 fa 8b 3d 1a e7 49 3d
       0.13932747 -0.022588065 0.06834877 0.04929266
000160 7e 16 15 3d c3 5e bb 3d 5e 28 0c 3e 10 a8 b2 3f
       0.036398403 0.09148934 0.13687274 1.3957539
000170 bc 2c bf 3b cf e2 16 3e fb 83 47 3b 83 a3 24 3d
       0.00583419 0.14734958 0.0030443657 0.040195
000180 50 78 6d bd 4e b6 df 3d d8 e9 58 bd ff 8c d8 bd
       -0.057976067 0.10923444 -0.052957386 -0.10573768
000190 7f 4f e3 3d 7c b5 1f 3d a4 20 40 3d 95 15 0f bd
       0.11099147 0.038991436 0.04690613 -0.03493269
0001a0 79 5c fb 3d f2 74 73 bd 61 70 a3 3d 87 43 81 3d
       0.12273497 -0.0594377 0.07980419 0.06311708
0001b0 6a ef 9b 3d d1 d9 ef bc da 06 f2 3d ca 00 27 3e
       0.07614024 -0.029278668 0.11817713 0.16308895
0001c0 2f 30 01 3e 65 ca 83 bb 6e 05 75 3d ad 50 2d bd
       0.12616037 -0.00402193 0.05981963 -0.042313267
0001d0 ed 8e 70 bc 8f 2d fa 3c 89 48 e9 3d df e1 ae 3d
       -0.014682514 0.030539302 0.11390788 0.08539175
0001e0 8b f5 37 3e fc 4b e6 3d 2d a2 57 bd 5a bb 45 bd
       0.17964761 0.112449616 -0.052644897 -0.048274375
0001f0 6f 74 14 bd d5 4c 3c 3e a0 84 1c 3c 8e 9e ea bc
       -0.036243852 0.18388684 0.009553105 -0.028640058
000200 a0 a0 40 3c 80 45 11 bb 60 6c 7a bd 58 63 58 bd
       0.011757046 -0.002216667 -0.06113851 -0.052829117
000210 4a 3d 97 bd 08 51 69 bd a8 ea 8d bc 0e 57 f8 bd
       -0.07384737 -0.056962043 -0.017323807 -0.12125979
000220 c8 1f 09 bd 26 0b bf 3d c2 33 86 3d c2 a1 c3 3d
       -0.033477575 0.09328298 0.06552841 0.09552337
000230 9c ac cf 3d ca b3 e7 bd b8 c7 9c bd 8c ca 3f bd
       0.101403445 -0.11313589 -0.07655281 -0.046824023
000240 d0 c9 6d 3d 60 71 be 3d a2 2b b0 bd f0 47 a5 bd
       0.05805379 0.09298968 -0.08602072 -0.080703616
000250 00 15 dc 3d 58 7f b9 bd 04 20 c6 3d b0 fb 43 bc
       0.10746193 -0.09057492 0.09674075 -0.011961862
000260 b0 23 c3 bc 16 2b 8f bd 58 f6 35 3d 00 1f 0f 3a
       -0.023820728 -0.0699064 0.044424385 0.00054596364
000270 9a cd 9a bd 1c 7e 4e bd e0 29 c7 bc e0 88 0d bd
       -0.07558747 -0.050413236 -0.02431196 -0.034554362
000280 4e d8 fc 3d a0 c9 fe bc e8 63 32 3d 00 e7 bb 3d
       0.12345944 -0.031102002 0.04355231 0.09174919
000290 c4 cb 04 bd 7e 75 a9 bd 80 f0 58 bc a4 6f a5 3d
       -0.03242089 -0.08274363 -0.013240933 0.080779344
0002a0 3e ec be bd ce e4 a3 bd 00 05 13 3d 26 4d f0 3d
       -0.09322403 -0.080026254 0.03589344 0.11733465
0002b0 be be c1 bd 04 cd 09 3d e0 eb 84 bc 70 6c d2 bd
       -0.09460209 0.033642784 -0.016225755 -0.10274589
0002c0 48 e9 f2 bd d0 0a 58 bc ee 9b d9 bd b6 72 e9 bd
       -0.11860901 -0.013186172 -0.10625444 -0.113988325
0002d0 30 6c 14 bc e8 85 4d 3d b8 d4 70 3d 34 1f 56 bd
       -0.009058997 0.05017653 0.058796614 -0.05227585
0002e0 d4 5b 8a 3d 64 b3 54 3d 60 dd 63 bd cc ec 36 3d
       0.06755796 0.051928893 -0.05563104 0.04465942
0002f0 5c e7 a1 3d 80 9d d3 3b 40 05 d0 bd 58 5f 28 3d
       0.079054564 0.0064579844 -0.10157251 0.041106552
000300 ce bc 69 bd 4f 38 7a 3f 8a 04 2d 3e 0a de 9f 3c
       -0.057064824 0.9774217 0.16896263 0.019515056
000310 17 f4 93 3d 58 3d f3 3d e5 3f 37 3d 1c b5 1b 3d
       0.07224291 0.11876935 0.04473867 0.038014516
000320 e3 8e 9b 3c 52 9b 41 3d 89 09 30 bd 67 ca 27 3d
       0.018989032 0.047267266 -0.042977843 0.04096451
000330 60 b3 cf 3c ce a1 5f 3f 3f fb 30 3e f4 cc 9c bd
       0.025354087 0.8735627 0.17283343 -0.07656279
000340 ac f6 af 3d 80 90 49 bb 02 5d 21 bc d8 42 a0 bc
       0.08591971 -0.0030756295 -0.009848835 -0.019563124
000350 02 d5 ff 3c 11 0d 3c 3e ba 6b 4a bd 6d 07 8a 3d
       0.0312295 0.1836436 -0.049419142 0.067396976
000360 11 dd 28 3e 71 95 f3 3d 53 a9 09 3e 16 9f a3 3f
       0.1649058 0.11893738 0.13443498 1.2782924
000370 84 3a 14 3e e6 51 ea 3b 2c 44 ef 3a 65 c1 69 bd
       0.14475447 0.0071508763 0.001825457 -0.0570692
000380 5d 22 e1 3d 82 45 c7 3d c4 87 20 bd a9 48 2b bd
       0.109928824 0.097300544 -0.039191976 -0.04181734
000390 15 26 35 3d 28 dc 9a 3c fd 9c 2b 3e b4 92 6f bd
       0.04422577 0.018903807 0.16759105 -0.058489516
0003a0 e0 a5 f3 3d e8 e7 d1 bd 0c 74 05 3e 98 dd 3e 3e
       0.118968725 -0.10249311 0.1303255 0.18639219
0003b0 19 55 e6 bd a3 a8 ff 3b 7b 14 a6 3b 97 71 68 3b
       -0.112467 0.0078020855 0.0050683594 0.0035468095
0003c0 d9 98 0c 3e fd 89 dc 3c aa 46 07 3e e3 3e b7 bd
       0.13730182 0.026921267 0.1321055 -0.089475416
0003d0 94 40 be bd 29 9d fc 3d 10 f4 c8 3d 3f c0 a9 ba
       -0.09289661 0.123346634 0.09812176 -0.001295097
0003e0 e6 a7 35 3d 8d c1 62 bc 69 f1 d7 bd 77 1c f5 3d
       0.044349574 -0.013840091 -0.10544092 0.1196832
0003f0 66 b1 bb 3b 41 c7 09 3e b5 a1 1d bd 84 a4 21 bc
       0.0057279347 0.13454916 -0.038484294 -0.009865884

MLP_layers.0.bias f4 [32]
000000 55 1e bf 3c ae d2 24 3e 90 0c 25 3c 1c c9 51 bd
       0.023329893 0.16095993 0.010073796 -0.051217183
000010 79 fa 61 3d 98 1e 23 3e 46 b5 a0 3d b3 13 d8 3d
       0.05517051 0.1592964 0.07847075 0.10550632
000020 2b 06 dc bd 78 d1 c0 bd 6d 21 a2 3d a8 04 65 bd
       -0.10743364 -0.09414953 0.07916532 -0.055912644
000030 ae b4 9e bd c1 ce 23 3e 20 ee 4e bd d8 ec a4 bd
       -0.07749306 0.15996839 -0.050520062 -0.08052987
000040 61 2d 17 3e 9d 81 c1 bd 7c 55 11 bd 1b 08 2e 3e
       0.14763404 -0.0944855 -0.035481915 0.1699528
000050 06 a8 c3 bd 45 28 8e bc 00 2c 01 3c 11 25 4a bc
       -0.09553532 -0.017353186 0.007884026 -0.012337939
000060 00 b2 b0 3d 0b 8e db 3d 85 71 9f bc 38 d1 0d bd
       0.08627701 0.10720452 -0.01946331 -0.034623355
000070 a1 be 0c be af e4 0c 3d 96 98 f1 bd 7a b4 ea bc
       -0.13744594 0.034397777 -0.117966816 -0.028650511

MLP_layers.1.weight f4 [1, 32]
000000 9b 10 1c 3d 1d 7f 4f 3e 22 83 ff bd df fa 67 3e
       0.038101774 0.20263334 -0.124761835 0.22654293
000010 f7 2d ea bd ff 0b 69 3e 40 b7 49 3e 85 3a 1c be
       -0.11434548 0.22758482 0.1969881 -0.15256698
000020 61 54 4a bd 26 e9 8e bd e8 d3 89 3d 7d 33 be 3a
       -0.049396876 -0.06978063 0.06729871 0.0014511194
000030 bd 78 f1 bd 89 b4 06 3e aa 08 ae bd bd c1 26 3e
       -0.11790607 0.13154806 -0.08497746 0.16284843
000040 bd 7d 53 3e 3f 56 a8 bd 33 44 c4 3d ee 4f 6a 3e
       0.20653434 -0.08219575 0.095833205 0.22882053
000050 e1 d6 2e be 93 95 e2 bd 93 ab 93 bd 46 3e 13 be
       -0.17074157 -0.11063685 -0.072104596 -0.14379224
000060 17 35 f8 3d 68 ec 03 be f9 ef a9 bd db 90 19 3e
       0.12119501 -0.1288315 -0.08297724 0.14996664
000070 1a bc d2 3b 99 3f 5f bd c2 ed e9 3d fe 92 c3 bd
       0.006431115 -0.05450401 0.11422302 -0.09549521
