SLIC_GAT/last4.pt (torch, 74869 bytes, 12 tensors)

GAT_layers.0.f.weight f4 [32, 82]
-0.19962043 -0.089112364 -0.12571374 0.097342126 0.21963793 -0.052974354 0.1551851 0.20369604
0.05992764 -0.14065428 -0.061615027 -0.12736416 -0.22658524 0.027516505 0.072910324 0.05102084
-0.05933758 0.1703861 -0.049010463 -0.047620628 0.17354234 0.045519855 0.18104802 0.03755346
0.089396104 0.014919907 0.068214074 0.042624 -0.026210278 -0.14112243 -0.13104609 -0.22757256
-0.0074419673 -0.17048478 -0.040905524 -0.18495095 -0.1600694 -0.0205367 0.22254261 -0.11788195
-0.14482948 -0.08859233 -0.041544136 0.056036625 -0.101634055 -0.03605901 -0.209165 -0.2130229
-0.21878113 -0.13892867 0.051053736 -0.11151432 -0.17963476 -0.11379035 0.1465713 -0.15710782
0.15997946 -0.17246239 -0.011653819 0.05357699 0.07985118 0.055249214 -0.13255604 -0.18004203
-0.06856448 -0.15032223 0.09898156 0.13227604 -0.20056754 -0.1874241 -0.17115839 0.00091159943
-0.21792254 -0.022819752 -0.078743696 -0.1491655 0.11295032 0.08558646 0.066016786 0.18272106
0.19867904 0.10000308 0.024092173 0.03611195 0.08488851 -0.036268663 0.068774395 0.16765197
0.1545694 -0.07524965 0.16366814 0.10731353 0.19888115 -0.15677346 0.16192038 0.12922512
0.2098725 -0.016667737 -0.032747217 -0.16494124 0.08313528 -0.14146617 0.20190647 0.120271
-0.20585588 0.19292104 -0.11755587 0.09010564 0.078623705 -0.08432489 0.2200321 0.18814974
0.11001522 -0.04791184 0.1109666 0.045220364 -0.18724382 0.1968391 0.041207112 0.053549126
0.14648539 -0.006412034 0.072818525 0.059888862 -0.11340093 -0.007193027 -0.21799566 0.18838915
-0.12161037 0.020704323 0.12387175 0.06581028 -0.1400456 0.0381533 0.074512646 -0.20317693
0.09688812 -0.07290337 0.2206948 0.14647986 0.018665288 0.17049323 0.08333684 -0.07483685
-0.07943348 -0.020137277 0.076963164 0.20553184 0.009520751 -0.2090394 0.09146464 0.18918604
-0.15323433 0.091782704 -0.13346376 0.19182976 0.051191546 0.08180034 0.2135759 0.10984439
0.18084072 -0.057207864 0.08503225 -0.10933943 0.12969804 0.15334216 0.1090868 0.16075346
0.07736843 0.03377005 0.044046834 0.099071726 -0.2159899 -0.15416089 -0.2285041 -0.13630176
-0.022305299 -0.024091184 -0.19527549 -0.08344102 -0.15803559 0.051058475 -0.14500104 -0.108133316
0.04873888 0.1644586 -0.1266581 -0.045083523 0.1790442 0.20781839 -0.16037671 0.059560593
0.09278385 0.119684584 0.16226761 0.17810681 0.084928624 0.020610332 -0.10704979 -0.17175934
-0.039592933 0.056796588 0.13880955 0.17064245 0.22862093 -0.09762846 0.06007119 0.10925217
0.23006524 -0.1013272 -0.025719179 0.14480783 -0.18210697 -0.021105593 0.2053773 0.21038781
-0.18833022 -0.15347145 -0.1474965 -0.10097665 -0.16815768 -0.2073925 -0.17596506 0.19486634
0.11043141 0.17070921 -0.13551168 -0.15888506 -0.035685077 -0.12874584 -0.13369271 -0.18929316
0.04627858 -0.22390379 0.15520272 0.2133331 -0.12404193 0.12965505 0.15413326 -0.1864972
-0.22160996 -0.20592086 0.18024647 -0.039138097 0.18489662 -0.008465678 -0.053603224 -0.13470142
-0.11168096 0.10210349 -0.065422885 -0.1377175 0.023865025 -0.035915922 -0.09107016 0.01633098
00000000: 4c69 4cbe 8b80 b6bd 1abb 00be 4f5b c73d
00000010: c4e8 603e a3fb 58bd d8e8 1e3e b295 503e
00000020: af76 753d ad07 10be 0a60 7cbd c06b 02be
00000030: f605 68be 4b6a e13c 0252 953d 3afb 503d
00000040: f60b 73bd b279 2e3e 32bf 48bd d90d 43bd
00000050: 15b5 313e 0773 3a3d a764 393e a8d1 193d
00000060: 4e15 b73d a072 743c d2b3 8b3d 8196 2e3d
00000070: f0b6 d6bc 6682 10be f230 06be c808 69be
00000080: bfdb f3bb 9093 2ebe 8d8c 27bd c863 3dbe
00000090: 3ce9 23be 953c a8bc 36e2 633e 186c f1bd
000000a0: 2e4e 14be e56f b5bd 2f2a 2abd a986 653d
000000b0: 8425 d0bd 9db2 13bd 5a2f 56be ad22 5abe
000000c0: 2908 60be 5143 0ebe b91d 513d 9f61 e4bd
000000d0: 2df2 37be ea0a e9bd c916 163e dfe0 20be
000000e0: a8d1 233e fb99 30be a9ef 3ebc 8c73 5b3d
000000f0: 0489 a33d 004d 623d c5bc 07be f05c 38be
00000100: 896b 8cbd 12ee 19be d8b6 ca3d 5f73 073e
00000110: 9461 4dbe 1aec 3fbe 2544 2fbe 67f8 6e3a
00000120: 1627 5fbe 7df0 babc 6044 a1bd d7be 18be
00000130: 7f52 e73d f447 af3d cf33 873d 3b1b 3b3e
00000140: 8572 4b3e 6ace cc3d f35c c53c 20ea 133d
00000150: 07da ad3d 738e 14bd 97d9 8c3d f5ac 2b3e
00000160: 7147 1e3e 7d1c 9abd 9f98 273e 32c7 db3d
00000170: 80a7 4b3e 3989 20be 75ce 253e 9753 043e
00000180: d1e8 563e c78a 88bc f221 06bd 5be6 28be
00000190: d442 aa3d 82dc 10be 92c0 4e3e a450 f63d
000001a0: e2cb 52be 188d 453e 22c1 f0bd 4e89 b83d
000001b0: 7705 a13d 87b2 acbd 1850 613e 53aa 403e
000001c0: a94f e13d 353f 44bd 7542 e33d fd38 393d
000001d0: d8bc 3fbe 3090 493e cac8 283d 5456 5b3d
000001e0: 4400 163e 0a1c d2bb e121 953d 064e 753d
000001f0: bf3e e8bd 7cb3 ebbb 413a 5fbe 16e9 403e
00000200: dc0e f9bd 1d9c a93c 79b0 fd3d 8ac7 863d
00000210: 1d68 0fbe a246 1c3d 169a 983d 9d0d 50be
00000220: 476d c63d 5d4e 95bd d1fd 613e d1fe 153e
00000230: f2e7 983c c795 2e3e 81ac aa3d 1044 99bd
00000240: 05ae a2bd eef6 a4bc dd9e 9d3d f076 523e
00000250: edfc 1b3c 6d0e 56be d051 bb3d fcb9 413e
00000260: 76e9 1cbe 92f8 bb3d b9aa 08be 056f 443e
00000270: 3aae 513d f086 a73d a4b3 5a3e 18f6 e03d
00000280: 4f2e 393e cb52 6abd 6325 ae3d 5aed dfbd
00000290: 90cf 043e ba05 1d3e e668 df3d 8e9c 243e
000002a0: 5773 9e3d 7752 0a3d 746a 343d 1ee6 ca3d
000002b0: 752c 5dbe 5adc 1dbe fbfc 69be b092 0bbe
000002c0: 9ab9 b6bc e05a c5bc 4cf6 47be 20e3 aabd
000002d0: 15d4 21be b122 513d 277b 14be 0075 ddbd
000002e0: 6ba2 473d d667 283e a9b2 01be 80a9 38bd
000002f0: 5d57 373e 58ce 543e cb39 24be cff5 733d
00000300: 7605 be3d 311d f53d 7b29 263e a261 363e
00000310: 0fef ad3d 00d7 a83c ec3c dbbd aee1 2fbe
00000320: 332c 22bd 8aa3 683d 1724 0e3e e5bc 2e3e
00000330: 9b1b 6a3e 6ef1 c7bd 350d 763d 9abf df3d
00000340: 3996 6b3e a384 cfbd 07b1 d2bc 8148 143e
00000350: 407a 3abe a3e5 acbc 6d4e 523e e76f 573e
00000360: a3d9 40be 9f27 1dbe 5309 17be d9cc cebd
00000370: 8731 2cbe b35e 54be 2f30 34be 0b8b 473e
00000380: dd29 e23d 65ce 2e3e 93c3 0abe c4b2 22be
00000390: 842a 12bd f3d5 03be bee6 08be 11d6 41be
000003a0: 9c8e 3d3d 0947 65be 76ed 1e3e fe73 5a3e
000003b0: b209 febd 4bc4 043e 1cd5 1d3e 1ff9 3ebe
000003c0: b9ed 62be ebdc 52be 8892 383e 454f 20bd
000003d0: 8a55 3d3e a1b3 0abc 0e8f 5bbd 2bef 09be
000003e0: fdb8 e4bd a21b d13d 6ffc 85bd d105 0dbe
000003f0: 9680 c33c 931c 13bd fe82 babd 8cc8 853c

GAT_layers.0.f.bias f4 [32]
-0.025671668 -0.061650492 0.04405417 0.0048071034 -0.023548685 0.05279357 -0.055066086 0.078302234
-0.09153348 -0.07225666 0.07530275 -0.07786607 0.05495082 -0.095771976 0.01799027 0.031816643
0.043176573 0.0624065 -0.09287127 0.010464446 -0.0010452206 -0.020967705 0.027958691 -0.10955288
0.06669393 -0.08335196 -0.02600499 -0.082774326 -0.10919361 -0.068242215 0.07550343 0.06539302
00000000: 644d d2bc 3a85 7cbd 2572 343d e884 9d3b
00000010: 2ce9 c0bc 123e 583d fa8c 61bd ec5c a03d
00000020: e875 bbbd 4dfb 93bd 5438 9a3d 3f78 9fbd
00000030: 1c14 613d 1924 c4bd 5560 933c 2b52 023d
00000040: ebd9 303d f59d 7f3d 4b33 bebd 1173 2b3c
00000050: c9ff 88ba 77c4 abbc a009 e53c 435d e0bd
00000060: d496 883d 6fb4 aabd 6b08 d5bc 9685 a9bd
00000070: e6a0 dfbd 93c2 8bbd 8ba1 9a3d c7ec 853d

GAT_layers.0.w.weight f4 [1, 82]
-0.13673718 -0.23184635 0.028198572 0.24679616 0.1770969 0.08860588 0.04721193 -0.1511239
0.26836348 -0.058811035 0.022342212 -0.02315329 -0.26317397 0.09227609 0.16571026 -0.024863211
0.10328636 0.15349615 -0.08078128 -0.16735625 -0.25178117 0.031624645 -0.17408803 0.18369675
-0.19538586 -0.2186553 -0.058254957 -0.119716175 -0.18603046 0.0004072753 -0.019549793 0.05489519
-0.21774654 0.15441352 -0.14460672 -0.14730518 0.07138401 0.13628538 -0.0069532613 0.2604324
0.06440102 -0.06135147 0.2693143 -0.025249008 -0.22911784 -0.12711816 -0.056671273 0.04471673
0.0850822 0.09304899 0.1470669 0.15128608 0.14717777 -0.22200428 0.2662194 -0.059356358
0.1418892 -0.2300894 0.107169256 -0.02945967 0.061011355 0.1838698 -0.10534397 -0.116131194
-0.13573314 -0.09117956 0.11975991 -0.045830432 0.16224971 -0.2534366 -0.017734963 0.26376355
-0.17849267 0.07804775 -0.08199854 0.23898637 -0.22070615 0.04215967 0.025465589 0.2684197
0.02797267 -0.18455057
00000000: d504 0cbe 2169 6dbe b100 e73c 22b8 7c3e
00000010: e458 353e 0077 b53d 4c61 413d 39c0 1abe
00000020: f066 893e d7e3 70bd 0407 b73c f8ab bdbc
00000030: bdbe 86be 3ffb bc3d f3af 293e efad cbbc
00000040: cd87 d33d 182e 1d3e a870 a5bd 705f 2bbe
00000050: 76e9 80be d888 013d 2244 32be 001b 3c3e
00000060: 3b13 48be 2de7 5fbe c09c 6ebd c12d f5bd
00000070: c57e 3ebe 9187 d539 e326 a0bc c7d9 603d
00000080: f3f8 5ebe 941e 1e3e c913 14be 2bd7 16be
00000090: c831 923d 658e 0b3e 2fd8 e3bb 6557 853e
000000a0: afe4 833d ae4b 7bbd 90e3 893e 02d7 cebc
000000b0: de9d 6abe 432b 02be 2320 68bd e428 373d
000000c0: 943f ae3d 7890 be3d b598 163e bdea 1a3e
000000d0: c5b5 163e 1755 63be e94d 883e a71f 73bd
000000e0: 674b 113e 8e9c 6bbe 8e7b db3d 6855 f1bc
000000f0: 0be7 793d 5d48 3c3e 94be d7bd 31d6 edbd
00000100: a1fd 0abe 59bc babd af44 f53d b1b8 3bbd
00000110: ca24 263e 71c2 81be ea48 91bc 040c 873e
00000120: c8c6 36be 80d7 9f3d daee a7bd d8b8 743e
00000130: cb00 62be 9eaf 2c3d 369d d03c 4f6e 893e
00000140: f126 e53c d3fa 3cbe

GAT_layers.1.f.weight f4 [64, 64]
-0.090355165 -0.20765044 -0.13541733 -0.07726427 -0.20584589 -0.16568103 0.15049373 -0.06755993
0.21572323 -0.06028 0.09228495 0.17429645 0.07778067 0.069353975 -0.09718569 -0.13978504
0.18313956 0.14010662 -0.1036312 -0.18445101 0.08085404 0.17842782 0.030272687 0.20272203
0.020803854 -0.015454976 0.02969143 0.019469628 -0.037212957 -0.12964788 0.043424003 0.1300096
-0.13670115 0.112612516 -0.19947521 -0.09882798 0.121521406 0.16558799 -0.10320054 0.174714
-0.09160409 -0.015610246 0.02211645 -0.07133677 0.16271792 0.04855616 -0.09317202 -0.073002495
0.020459399 0.15467775 0.20795275 0.10570027 0.030769804 -0.13039891 0.05006819 0.16095598
0.08938891 -0.17222525 0.2001668 -0.012371145 0.021279007 -0.08755666 0.1634964 0.1310421
-0.043448083 -0.14691325 -0.081811376 -0.06688126 -0.12624161 -0.18683231 0.21055336 -0.12641425
-0.18726575 -0.14210267 0.009497689 -0.18787432 -0.1553319 0.15664911 0.05759818 -0.078318074
-0.10486722 0.1195861 0.040478203 -0.19094382 0.026385585 0.08055582 -0.020825818 0.045195807
-0.10029366 0.017445127 0.03371558 -0.09520158 0.0413253 0.14474444 -0.1909214 -0.0638314
0.11615064 0.04904197 0.11775716 0.13598055 -0.018678771 0.20012166 0.16025749 0.089706264
0.16070302 -0.07278567 0.04512318 0.18788093 -0.12554683 0.06933679 0.02494807 0.17402738
-0.10052824 0.19680187 0.078690924 0.047884982 0.15339215 0.09902968 -0.081149206 -0.1849079
0.15738125 0.059933793 -0.18011238 0.13706571 -0.19334574 -0.14544688 0.016236309 -0.12419887
0.20029815 -0.03513208 -0.17325798 0.09061256 0.042736694 0.045702834 -0.06200555 -0.17911915
-0.05831744 -0.06772046 -0.0018900752 0.18211886 0.21098971 0.055458385 -0.015749453 0.03526444
-0.17725483 0.123986945 0.008243164 -0.1561595 0.08205283 -0.13788246 -0.14603578 0.045500416
-0.16975206 0.022720417 -0.203284 0.011193615 0.08906085 0.09417854 -0.11276252 0.104785025
-0.21527825 -0.13913439 0.05414254 -0.21144485 0.10527823 0.18083414 0.17674577 0.1307917
0.12006389 0.18414216 -0.004277523 -0.1573222 0.13899983 -0.15213245 -0.21021828 0.010532962
0.17511165 0.14493115 -0.06994664 -0.19250213 -0.096750006 0.08347119 0.09624778 0.13152292
0.10172286 -0.1483568 -0.03684979 -0.0019609851 -0.05289467 -0.17168269 0.04758949 0.12260512
0.0068647773 0.03978096 0.019991368 -0.19141744 -0.16183147 0.023923378 0.008597064 0.04649795
-0.17944355 0.11683421 -0.20521954 0.07034282 0.16967605 0.03460472 0.121713944 -0.030610379
-0.10864003 0.13528119 0.14978126 -0.056676287 -0.1340775 0.0024059936 -0.18962614 0.19772984
-0.073383495 0.051528778 0.030916868 0.17336121 0.14167434 0.14600796 0.20078786 0.087567374
0.06751029 -0.18856406 -0.058240503 0.08769774 -0.16108389 -0.008285749 -0.07451756 0.082458675
-0.010745839 0.13576016 -0.021908065 0.17225747 -0.0341897 -0.114988595 0.020258678 0.08892542
-0.10284999 0.16245267 0.025109818 0.042976983 0.06428848 -0.010901935 -0.050810006 -0.21543567
0.13607816 0.01165191 0.088778615 0.007624172 -0.052754033 -0.18102369 -0.15063137 0.20133406
00000000: 210c b9bd 51a2 54be d7aa 0abe bb3c 9ebd
00000010: 44c9 52be 4aa8 29be 071b 1a3e dc5c 8abd
00000020: 8de6 5c3e 29e8 76bd e4ff bc3d c57a 323e
00000030: 794b 9f3d 7509 8e3d 4b09 c7bd cf23 0fbe
00000040: f088 3b3e 1c78 0f3e 983c d4bd bae0 3cbe
00000050: ce96 a53d c8b5 363e 6dfe f73c 5d96 4f3e
00000060: d86c aa3c de36 7dbc 713b f33c c57e 9f3c
00000070: 9d6c 18bd 6ac2 04be 5edd 313d 3d21 053e
00000080: 63fb 0bbe 64a1 e63d 3b43 4cbe 5366 cabd
00000090: 37e0 f83d e68f 293e ce5a d3bd 3ae8 323e
000000a0: ed9a bbbd 1ec2 7fbc 8f2d b53c 0319 92bd
000000b0: 879f 263e d3e2 463d f9d0 bebd 5582 95bd
000000c0: 789a a73c d863 1e3e 91f1 543e 6279 d83d
000000d0: f510 fc3c 4b87 05be 4d14 4d3d a5d1 243e
000000e0: 8811 b73d d15b 30be 87f8 4c3e 58b0 4abc
000000f0: 5051 ae3c e850 b3bd 9a6b 273e e62f 063e
00000100: 9ef6 31bd 6d70 16be b98c a7bd 0bf9 88bd
00000110: 7b45 01be f850 3fbe 4d9b 573e bd72 01be
00000120: 98c2 3fbe 5d83 11be 329c 1b3c 2062 40be
00000130: 530f 1fbe a068 203e 12ec 6b3d 3a65 a0bd
00000140: a0c4 d6bd 8fe9 f43d 79cc 253d c786 43be
00000150: 9526 d83c 73fa a43d e89a aabc 3d1f 393d
00000160: c366 cdbd 15e9 8e3c 5919 0a3d 0cf9 c2bd
00000170: b844 293d e337 143e e680 43be 09ba 82bd
00000180: 63e0 ed3d 3ce0 483d aa2a f13d 7c3e 0b3e
00000190: 3904 99bc b1ec 4c3e 8a1a 243e ebb7 b73d
000001a0: 558f 243e a710 95bd 15d3 383d dc63 403e
000001b0: 598f 00be 7200 8e3d e55f cc3c 3c34 323e
000001c0: c0e1 cdbd 6e86 493e b528 a13d 0b23 443d
000001d0: d512 1d3e 13d0 ca3d 8e31 a6bd 7f58 3dbe
000001e0: 8d28 213e 237d 753d 616f 38be f45a 0c3e
000001f0: 6dfc 45be 07f0 14be 0202 853c fa5b febd
00000200: f51a 4d3e a8e6 0fbd 8a6a 31be 1493 b93d
00000210: ac0c 2f3d e532 3b3d 88f9 7dbd 036b 37be
00000220: 45de 6ebd 06b1 8abd 66bc f7ba 5e7d 3a3e
00000230: b00d 583e 5528 633d ff04 81bc 7271 103d
00000240: 4a82 35be deec fd3d 560e 073c 47e8 1fbe
00000250: 500b a83d 0f31 0dbe 678a 15be a55e 3a3d
00000260: 7cd3 2dbe 2b20 ba3c ae29 50be 6d65 373c
00000270: 8965 b63d aee0 c03d 09f0 e6bd 8899 d63d
00000280: e771 5cbe 3f79 0ebe 91c4 5d3d 0085 58be
00000290: 1d9c d73d 962c 393e d8fc 343e 42ee 053e
000002a0: 0fe4 f53d c38f 3c3e 772a 8cbb 1219 21be
000002b0: f955 0e3e 9cc8 1bbe 7643 57be 7292 2c3c
000002c0: 7850 333e d568 143e 2f40 8fbd 471f 45be
000002d0: de24 c6bd f1f2 aa3d 8e1d c53d f2ad 063e
000002e0: 1354 d03d d8ea 17be ceef 16bd df83 00bb
000002f0: 15a8 58bd 96cd 2fbe 32ed 423d 6518 fb3d
00000300: edf1 e03b 5cf1 223d f0c4 a33c ef02 44be
00000310: 26b7 25be f6fa c33c b3da 0c3c a274 3e3d
00000320: 0dc0 37be c646 ef3d 1225 52be e50f 903d
00000330: 8fbf 2d3e aebd 0d3d 2945 f93d 9ec2 fabc
00000340: aa7e debd 2787 0a3e 4260 193e 6525 68bd
00000350: 9d4b 09be e0ad 1d3b 5b2d 42be b179 4a3e
00000360: 164a 96bd d70f 533d 5f45 fd3c 9a85 313e
00000370: 1413 113e 1c83 153e 559b 4d3e 8656 b33d
00000380: d642 8a3d f016 41be 988d 6ebd df9a b33d
00000390: 2df3 24be f3c0 07bc aa9c 98bd 18e0 a83d
000003a0: 510f 30bc b604 0b3e 8b78 b3bc 4364 303e
000003b0: 800a 0cbd 247f ebbd 87f5 a53c 881e b63d
000003c0: 04a3 d2bd fe59 263e 1bb3 cd3c a208 303d
000003d0: aea9 833d 089e 32bc 271e 50bd 2b9b 5cbe
000003e0: 1358 0b3e a7e7 3e3c 90d1 b53d 31d4 f93b
000003f0: 9d14 58bd 465e 39be 1c3f 1abe 842a 4e3e

GAT_layers.1.f.bias f4 [64]
0.085271135 -0.10265885 0.10802519 0.017807037 0.026266275 0.05781331 -0.015967501 0.0009496063
-0.12206447 0.009873378 -0.011216995 0.10366207 -0.08459835 0.0056888848 0.054656506 0.11304558
0.07922515 -0.035031796 -0.09358242 -0.12509769 0.08771023 0.02999677 -0.077425495 -0.071596324
0.02184795 -0.06836246 -0.0058065653 0.07925142 0.016246216 -0.023407847 -0.061478525 0.06345612
-0.016742706 -0.08288154 -0.024993112 -0.10384588 -0.025377855 0.11412658 -0.0750733 -0.10333536
-0.01174067 -0.11411771 -0.076202795 0.09469797 -0.036795367 0.0066624014 0.04783097 -0.07245188
0.10958746 0.02747483 -0.114788145 -0.013548529 -0.059502896 -0.08199668 0.06344284 -0.061161816
-0.090430915 0.1071817 0.013781673 -0.074881494 -0.049534738 -0.057052866 0.03380908 -0.11425278
00000000: a2a2 ae3d ce3e d2bd 503c dd3d 10e0 913c
00000010: 5f2c d73c a6cd 6c3d 47ce 82bc 00ef 783a
00000020: f0fc f9bd f3c3 213c 7dc7 37bc c84c d43d
00000030: e641 adbd d369 ba3b 80df 5f3d 7184 e73d
00000040: cc40 a23d 807d 0fbd 24a8 bfbd 9c19 00be
00000050: 6ca1 b33d c9bb f53c 4291 9ebd 18a1 92bd
00000060: 79fa b23c 9e01 8cbd 0045 bebb 924e a23d
00000070: c916 853c d0c1 bfbc e8d0 7bbd 48f5 813d
00000080: 0028 89bc ccbd a9bd 5bbe ccbc 26ad d4bd
00000090: 38e5 cfbc 32bb e93d 08c0 99bd 7da1 d3bd
000000a0: f05b 40bc 8cb6 e9bd 3610 9cbd 02f1 c13d
000000b0: bdb6 16bd 4650 da3b 68ea 433d a761 94bd
000000c0: 646f e03d e512 e13c 0c16 ebbd a6fa 5dbc
000000d0: 4fb9 73bd e0ed a7bd 52ee 813d d084 7abd
000000e0: d833 b9bd 1482 db3d 87cc 613c 785b 99bd
000000f0: f0e4 4abd 44b0 69bd 647b 0a3d 5dfd e9bd

GAT_layers.1.w.weight f4 [1, 64]
0.10277039 0.22302662 -0.114801444 -0.026116662 -0.19885518 0.24156305 0.09481306 -0.24869786
0.023586895 0.2925581 -0.09392581 -0.09688338 -0.25973254 -0.027309673 -0.03727077 0.22229703
0.21354525 0.036978208 0.18647052 -0.17992267 0.07084434 0.11648018 -0.26628533 -0.06669788
-0.22668798 -0.037696972 -0.16371998 0.0864604 0.0008266059 -0.14318205 0.2744404 0.009946105
0.03823292 -0.14052823 -0.18643223 0.10206304 -0.22257043 -0.06685015 -0.14723225 0.118582346
-0.21336398 0.22033289 -0.19955698 0.25462902 -0.27266747 -0.08956194 0.15595537 0.24323504
0.11072705 -0.19854721 0.096393846 -0.09552232 -0.058001854 -0.19826564 -0.063825734 -0.052880358
-0.13914812 0.062373955 0.06834843 -0.23203675 0.04808805 -0.019353002 -0.25410226 0.04560771
00000000: 4879 d23d 1761 643e 051d ebbd 9cf2 d5bc
00000010: b1a0 4bbe 4e5c 773e 592d c23d a7aa 7ebe
00000020: 4e39 c13c 2dca 953e 2d5c c0bd cb6a c6bd
00000030: aafb 84be 89b8 dfbc 3ca9 18bd d5a1 633e
00000040: 9bab 5a3e 7676 173d 21f2 3e3e a63d 38be
00000050: d616 913d 298d ee3d 8d56 88be e698 88bd
00000060: e520 68be 2468 1abd 36a6 27be 2612 b13d
00000070: 95b0 583a 519e 12be 7483 8c3e fdf4 223c
00000080: 1f9a 1c3d a2e6 0fbe 17e8 3ebe 6d06 d13d
00000090: 81e9 63be bbe8 88bd 0dc4 16be 4ddb f23d
000000a0: 167c 5abe f29e 613e aa58 4cbe bc5e 823e
000000b0: 129b 8bbe 406c b7bd c4b2 1f3e 9b12 793e
000000c0: ddc4 e23d f64f 4bbe 236a c53d 35a1 c3bd
000000d0: 5a93 6dbd 2606 4bbe 11b7 82bd 1399 58bd
000000e0: d87c 0ebe d57b 7f3d 43fa 8b3d 0b9b 6dbe
000000f0: faf7 443d 308a 9ebc b119 82be 26cf 3a3d

GAT_layers.2.f.weight f4 [64, 128]
0.12608673 0.12680389 -0.011139008 0.0847386 0.0047938535 0.14376585 -0.07287086 -0.012119411
0.046020743 0.040435538 0.011227638 0.046438303 -0.045436222 0.017163372 0.071989074 0.070852384
-0.14432968 0.046292532 0.07908367 -0.030508608 -0.118401475 -0.03664097 -0.03314839 0.14485821
0.15679573 -0.0056622135 -0.13510753 -0.15417826 -0.04588411 -0.1475296 -0.16712654 0.16917595
0.1203608 0.14782545 0.06419832 -0.097119555 -0.035631873 -0.11377643 -0.0066491137 -0.146132
0.048019294 0.0813552 -0.055064507 -0.022806473 -0.051308308 0.1045148 -0.094815835 -0.17866604
-0.099373 0.14636147 -0.13795051 -0.12833777 0.11245848 0.09116869 -0.05804879 0.07022133
-0.05663156 -0.15020624 0.15253067 0.15868527 -0.11646169 -0.11882539 0.0039235977 0.13853537
-0.060113564 -0.09289757 -0.0988664 -0.056030735 -0.033075444 -0.0068444856 0.12561949 0.05669573
-0.10078467 0.082419634 0.15435062 0.035701476 -0.053881213 0.099417545 0.015875096 0.15834111
0.14305213 0.05031678 0.16413553 0.15759124 -0.06320767 0.15935822 0.1345909 -0.010194248
-0.10120198 0.010839542 -0.10057136 -0.0014713254 -0.11672675 0.06295424 0.12942806 -0.056635123
-0.03726066 -0.0466731 0.057949077 -0.026747182 -0.036074605 0.07056443 -0.15134083 0.0915442
0.013537547 0.09546115 0.13918135 -0.13131778 0.040317286 -0.113004416 0.078974366 0.14598346
-0.13552618 0.00905488 0.104847215 -0.016559195 -0.05993264 0.056509923 0.1540874 -0.12385378
0.018703822 -0.135719 -0.042390086 0.031154865 -0.099874206 -0.07615021 0.07574897 0.14380717
0.045335237 0.009566281 0.16149977 0.06996598 -0.0020867537 -0.020923445 -0.06372001 -0.020422129
-0.12889642 -0.027645972 0.086773954 -0.015904915 0.07791451 -0.11518213 0.11774404 0.100527756
0.06226356 -0.063700855 -0.07790527 0.13602541 0.038403448 -0.16840391 -0.13485356 0.007993992
-0.1648077 0.07408971 0.032813177 -0.027773846 -0.03893193 -0.0078035733 0.027893247 0.07416503
-0.055308443 0.029452702 0.024675379 0.12598272 0.10737957 0.16613215 -0.17642413 0.07397364
-0.10835792 -0.056764808 0.11083544 -0.13830857 -0.10094014 -0.15731946 -0.05853622 -0.1654608
-0.084880084 -0.12978384 -0.022189135 -0.0021911093 -0.036828127 0.01947707 0.060351927 0.08871009
-0.16941714 -0.010417795 -0.114697844 -0.15359026 -0.06700314 0.15527828 -0.083959706 0.08510136
-0.058392454 0.10743813 -0.15507615 0.010322521 0.12986168 0.16727407 -0.030349545 -0.1284489
-0.17436437 -0.151471 0.16078874 0.15564759 0.094955966 -0.17388979 0.109350294 0.023911403
0.038722903 -0.17503461 -0.009212458 -0.14735022 -0.122017734 0.060634688 -0.11502732 -0.16931349
0.115466535 0.06596601 -0.010606086 0.10654883 -0.10360846 -0.08024718 0.1484328 0.061788227
-0.04857007 -0.15741597 0.032016303 -0.13261919 -0.1015793 0.085186765 -0.12785387 0.11380298
0.14350635 -0.09303091 -0.09019052 -0.104525365 0.052032538 0.12965429 0.083046146 0.12275181
-0.14644264 -0.14750336 -0.112877876 0.10471041 -0.089289635 -0.15552182 0.065530024 -0.08235614
0.08988799 0.16791746 -0.16357702 -0.030582827 0.12824713 -0.08409293 0.15269093 -0.100335374
00000000: e11c 013e e1d8 013e 6380 36bc 6e8b ad3d
00000010: c215 9d3b 5b37 133e 513d 95bd 7e90 46bc
00000020: 3f80 3c3d bc9f 253d 21f4 373c 1736 3e3d
00000030: 551b 3abd 339a 8c3c 026f 933d 0e1b 913d
00000040: 29cb 13be 3d9d 3d3d 9ff6 a13d 30ed f9bc
00000050: 797c f2bd d714 16bd 9bc6 07bd b655 143e
00000060: 0f8f 203e 178a b9bb a159 0abe e8e0 1dbe
00000070: faf0 3bbd 0012 17be 3823 2bbe 763c 2d3e
00000080: b97f f63d 8e5f 173e 697a 833d 9ee6 c6bd
00000090: baf2 11bd 9e03 e9bd cfe0 d9bb a1a3 15be
000000a0: e1af 443d 8e9d a63d 528b 61bd a4d4 babc
000000b0: a928 52bd db0b d63d ce2e c2bd 3bf4 36be
000000c0: 1284 cbbd c8df 153e e642 0dbe fa6a 03be
000000d0: a250 e63d a6b6 ba3d 91c4 6dbd 33d0 8f3d
000000e0: 7ff6 67bd aacf 19be 0031 1c3e 647e 223e
000000f0: 7783 eebd ba5a f3bd 8691 803b 37dc 0d3e
00000100: a439 76bd 1541 bebd 787a cabd 7c80 65bd
00000110: 1e7a 07bd b547 e0bb 65a2 003e c839 683d
00000120: 3168 cebd a0cb a83d 170e 1e3e b63b 123d
00000130: 8cb2 5cbd 6d9b cb3d 7d0c 823c 2c24 223e
00000140: 427c 123e f818 4e3d 2513 283e 995f 213e
00000150: 0673 81bd cd2e 233e 32d2 093e c605 27bc
00000160: fc42 cfbd 5698 313c 5bf8 cdbd 7dd9 c0ba
00000170: 6f0e efbd 27ee 803d ca88 043e 3bfa 67bd
00000180: a29e 18bd 4b2c 3fbd 035c 6d3d e81c dbbc
00000190: f7c2 13bd 1584 903d 17f9 1abe 877b bb3d
000001a0: 96cc 5d3c 2381 c33d 8e85 0e3e 2b78 06be
000001b0: bd23 253d dc6e e7bd 50bd a13d b07c 153e
000001c0: 60c7 0abe eb5a 143c 23ba d63d 26a7 87bc
000001d0: ee7b 75bd f376 673d 16c9 1d3e 0da7 fdbd
000001e0: c238 993c ecf9 0abe 3aa1 2dbd 7d38 ff3c
000001f0: d98a ccbd a4f4 9bbd 4722 9b3d 3042 133e
00000200: 71b1 393d e4bb 1c3c 3260 253e 534a 8f3d
00000210: ebc1 08bb a567 abbc a37f 82bd 4f4c a7bc
00000220: 6cfd 03be ce79 e2bc 8bb6 b13d 064b 82bc
00000230: a591 9f3d 9ce4 ebbd ca23 f13d 7fe1 cd3d
00000240: 1308 7f3d 9875 82bd cc8c 9fbd 3f4a 0b3e
00000250: ef4c 1d3d 1372 2cbe 0d17 0abe 3cf9 023c
00000260: 5ac3 28be 59bc 973d 1c67 063d fa85 e3bc
00000270: 1677 1fbd 1eb5 ffbb 6180 e43c d6e3 973d
00000280: 1b8b 62bd cb46 f13c 0524 ca3c 9d01 013e
00000290: d2e9 db3d 8c1e 2a3e 87a8 34be 7e7f 973d
000002a0: c2ea ddbd 3782 68bd b1fd e23d c3a0 0dbe
000002b0: b4b9 cebd 5a18 21be adc3 6fbd 8e6e 29be
000002c0: 9cd5 adbd 0ee6 04be fdc5 b5bc b798 0fbb
000002d0: 17d9 16bd 608e 9f3c 9533 773d a3ad b53d
000002e0: b07b 2dbe 66af 2abc b4e6 eabd c446 1dbe
000002f0: f138 89bd 4501 1f3e 11f3 abbd 9f49 ae3d
00000300: ed2c 6fbd 8608 dc3d 48cc 1ebe cb1f 293c
00000310: 76fa 043e e549 2b3e 9c9f f8bc 1c88 03be
00000320: 938c 32be 371b 1bbe cea5 243e 1562 1f3e
00000330: 4678 c23d 2a10 32be 0cf3 df3d d9e1 c33c
00000340: e89b 1e3d 463c 33be d9ef 16bc fae2 16be
00000350: 6fe4 f9bd 145c 783d 7293 ebbd 8460 2dbe
00000360: b879 ec3d 3019 873d 26c5 2dbc 4636 da3d
00000370: ac30 d4bd a258 a4bd c5fe 173e a715 7d3d
00000380: 69f1 46bd a731 21be 8723 033d 53cd 07be
00000390: cf08 d0bd 6676 ae3d 20ec 02be 8911 e93d
000003a0: 54f3 123e fd86 bebd cfb5 b8bd 6511 d6bd
000003b0: 1220 553d 18c4 043e 1914 aa3d 4d65 fb3d
000003c0: 0ff5 15be 1f0b 17be 842c e7bd 6972 d63d
000003d0: 7cdd b6bd 1d41 1fbe 9b34 863d 56aa a8bd
000003e0: 3217 b83d 8ef2 2b3e bc80 27be d688 fabc
000003f0: 3753 033e ea38 acbd 035b 1c3e a27c cdbd

GAT_layers.2.f.bias f4 [64]
0.026185367 -0.07442366 0.07248982 0.031126698 0.06175882 0.07861976 -0.05989681 0.062153116
-0.010425225 0.017150518 -0.002354893 0.022807462 -0.070602596 -0.07709629 0.045796834 0.0031218643
-0.0026807948 0.03795835 -0.03358198 -0.016011398 -0.044913962 -0.03261378 0.065671004 -0.06144173
0.05046628 0.024082944 -0.045950003 -0.0049080555 0.05098165 0.06719519 -0.017269116 0.05719752
-0.08229811 -0.06708146 -0.059157643 0.02116225 0.087035425 -0.03261666 0.03845311 0.048048202
0.029817248 -0.0200252 0.048076108 0.058490463 -0.036684018 -0.0761515 -0.023979539 0.002487212
-0.03510358 -0.06965763 -0.027721869 -0.08780612 0.07467937 -0.010130228 0.025878172 -0.00947145
-0.038647193 0.07476704 0.040640377 0.04311235 -0.04796246 -0.08090042 -0.026594812 0.055730578
00000000: b282 d63c 6f6b 98bd 8b75 943d 6bfd fe3c
00000010: d1f6 7c3d 6603 a13d 5c56 75bd 4494 7e3d
00000020: 90ce 2abc 3e7f 8c3c 8c54 1abb b7d6 ba3c
00000030: 1898 90bd a9e4 9dbd 7695 3b3d 3198 4c3b
00000040: 46b0 2fbb 377a 1b3d 428d 09bd 562a 83bc
00000050: b4f7 37bd 0796 05bd 857e 863d 53aa 7bbd
00000060: bbb5 4e3d 9849 c53c 1236 3cbd c1d3 a0bb
00000070: 22d2 503d a29d 893d f677 8dbc f247 6a3d
00000080: e98b a8bd 0162 89bd 494f 72bd 745c ad3c
00000090: a13f b23d 0c99 05bd 0281 1d3d 31ce 443d
000000a0: 4d43 f43c e30b a4bc 74eb 443d b293 6f3d
000000b0: fb41 16bd 51f5 9bbd bd70 c4bc 7e00 233b
000000c0: c6c8 0fbd a9a8 8ebd f918 e3bc b2d3 b3bd
000000d0: 7ff1 983d 41f9 25bc 76fe d33c 242e 1bbc
000000e0: 854c 1ebd 761f 993d 8676 263d 9396 303d
000000f0: 4974 44bd 1faf a5bd 5ddd d9bc bf45 643d

GAT_layers.2.w.weight f4 [1, 128]
-0.16359279 -0.16098104 -0.09386718 0.02774184 0.030502893 0.013580836 0.017481841 -0.09693104
0.076016866 -0.15280743 0.15802766 -0.10316131 -0.10564759 0.093489505 0.08253057 0.09100759
-0.052885033 -0.022322053 -0.06770273 -0.045642402 -0.050612815 0.17081872 0.12799034 0.18693997
-0.09358037 0.20318925 -0.2075512 -0.18694589 0.020017978 0.15174924 -0.20832182 -0.10199681
-0.16209169 -0.03776188 0.08207229 0.0056887087 0.0038446514 -0.11923989 -0.0898768 0.09970213
-0.019786831 0.074450925 0.12910368 0.061381824 0.048709627 -0.07165898 0.15408319 0.07108492
-0.12177004 -0.14687887 0.11038278 -0.10235765 0.12112496 0.16662933 -0.19728476 0.05453287
0.16474037 -0.089350015 0.19866441 -0.15720828 -0.15626891 0.10443603 -0.07172926 -0.031702384
-0.14787242 0.024194878 -0.0110421255 -0.0016530332 -0.052317645 0.042081244 -0.15576765 -0.052158307
-0.055649493 0.014150643 -0.032367658 0.08149749 0.006100618 -0.13444372 0.009875677 0.16525224
0.030755488 0.22080731 0.17538945 0.065625586 -0.05666685 0.12222578 0.03312265 -0.0073597603
0.010378099 -0.009051618 -0.0027914941 0.11334643 -0.0128183905 0.08195216 0.004706968 -0.0992329
-0.12324552 -0.12140486 0.19941129 0.20226239 0.010930762 0.058125224 -0.09919332 -0.1612685
0.12059489 0.19146024 -0.06724318 -0.16281098 -0.11672644 -0.026438978 -0.16626441 0.12473193
-0.09870676 0.16755968 0.1698653 0.18707678 -0.11533418 -0.20260459 -0.20285423 0.014692012
-0.12582761 0.014284162 0.17717648 -0.01155136 -0.10153854 0.1391722 0.18790834 0.020204376
00000000: de84 27be 37d8 24be 703d c0bd db42 e33c
00000010: 34e1 f93c 2882 5e3c 1436 8f3c c883 c6bd
00000020: bbae 9b3d 8d79 1cbe 01d2 213e 3d46 d3bd
00000030: c35d d8bd 6d77 bf3d ca05 a93d 3062 ba3d
00000040: fa9d 58bd bddc b6bc bba7 8abd 87f3 3abd
00000050: 624f 4fbd 1aeb 2e3e e60f 033e 316d 3f3e
00000060: 11a7 bfbd d810 503e 4d88 54be be6e 3fbe
00000070: befc a33c 2764 1b3e 5152 55be b4e3 d0bd
00000080: 5dfb 25be 33ac 1abd 8415 a83d 5968 ba3b
00000090: 8cf6 7b3b 0b34 f4bd 5411 b8bd a130 cc3d
000000a0: fe17 a2bc ba79 983d c133 043e 826b 7b3d
000000b0: bf83 473d f1c1 92bd fcc7 1d3e f894 913d
000000c0: 9262 f9bd 6a67 16be 5e10 e23d e3a0 d1bd
000000d0: 5d10 f83d e1a0 2a3e 0405 4abe dc5d 5f3d
000000e0: b3b1 283e 24fd b6bd af6e 4b3e 35fb 20be
000000f0: f504 20be 8fe2 d53d cae6 92bd 5cda 01bd
00000100: de6b 17be 5634 c63c 08ea 34bc 97aa d8ba
00000110: 074b 56bd 625d 2c3d 8e81 1fbe f3a3 55bd
00000120: b9f0 63bd 19d8 673c f393 04bd 28e8 a63d
00000130: b1e7 c73b 9dab 09be 97cd 213c e237 293e
00000140: eff2 fb3c 501b 623e 4b99 333e b566 863d
00000150: 801b 68bd 8251 fa3d 9eab 073d 252a f1bb
00000160: e708 2a3c 3d4d 14bc 80f1 36bb 2c22 e83d
00000170: 3a04 52bc 89d6 a73d e93c 9a3b 9e3a cbbd
00000180: 2668 fcbd 1ca3 f8bd 7932 4c3e df1d 4f3e
00000190: f016 333c b714 6e3d de25 cbbd 9223 25be
000001a0: 74fa f63d 270e 443e cbb6 89bd ecb7 26be
000001b0: 460e efbd 8e96 d8bc 3841 2abe 7473 ff3d
000001c0: c526 cabd c494 2b3e 2bf1 2d3e 0e91 3f3e
000001d0: 5434 ecbd 9477 4fbe 05b9 4fbe c4b6 703c
000001e0: f4d8 00be 1e08 6a3c c06d 353e ea41 3dbc
000001f0: 70f3 cfbd 2883 0e3e 0b6b 403e a683 a53c

MLP_layers.0.weight f4 [32, 64]
0.098390326 -0.08828789 -0.012435696 0.12490503 -0.015300218 0.029326752 0.05079974 -0.065403335
0.044390596 0.031487506 -0.022161731 0.10213804 0.060780026 -0.0075114965 -0.11836094 0.12277927
0.120607994 0.068701595 0.035864633 -0.061573952 -0.03700494 0.006824285 0.035407834 -0.06213204
-0.08459646 0.12944226 -0.10420242 0.0053565437 -0.099513985 0.09905292 -0.06361041 0.0052250624
-0.046834573 -0.116538584 0.1066535 -0.11338196 0.10987623 -0.086125195 0.09806517 0.074413955
-0.111124516 -0.09005277 -0.07367054 -0.04771251 -0.08649823 0.016356833 -0.04917896 -0.1040314
0.118174985 -0.079698265 0.038042456 0.0003184455 0.1209535 -0.07951103 -0.028007384 0.060978472
0.01531784 0.11377483 0.031167854 0.05795312 0.023292186 -0.06679943 0.07540897 -0.05953975
-0.103843085 0.09459679 -0.10324667 0.028382959 0.037217755 0.09906788 0.0058587627 -0.104363784
0.121033184 0.05171792 0.036182955 0.10280811 0.043405786 0.028737232 -0.026034018 0.07337872
0.03546385 0.06715496 0.039807737 0.0033425689 -0.025163887 0.03857921 -0.031519897 0.014638864
-0.008195706 0.071355194 -0.06837188 -0.11630743 -0.06674979 0.05089659 -0.07040746 0.019589886
0.09120876 -0.11897953 -0.11852689 -0.09830484 0.054175846 -0.07383388 0.01673603 0.029272737
0.08480321 -0.02841857 -0.009043768 0.021527035 0.1053469 -0.01566157 -0.10280469 0.064720765
0.027168468 0.040191732 0.10033955 0.028166741 0.012004957 0.045887157 0.0021127465 0.07203141
0.06416984 0.053511858 -0.007969631 0.06607825 0.09289458 0.05417171 0.0031486594 0.093813494
-0.03813548 0.08766514 0.0057907603 -0.032769643 0.025763454 -0.10173948 0.017642366 -0.007817368
-0.072603196 -0.024015335 -0.10851963 -0.09019467 0.005057682 0.046498567 -0.0013132187 0.039485887
0.10599843 -0.06930572 0.0046646185 0.025157943 0.114911765 0.113887385 0.03303482 -0.116182625
0.00143624 -0.037413355 0.111718714 -0.009494581 0.11201817 0.09169777 -0.0046106367 -0.056595534
0.071412 0.020756215 0.059010535 0.054979105 -0.09112336 0.019641088 0.105017975 0.10456447
0.010600842 0.019067734 -0.09931646 -0.04125073 0.04894123 -0.11238295 0.007821015 -0.005852431
0.11919902 0.09924434 -0.054847475 -0.02587734 0.005334571 -0.007045786 -0.09668386 -0.04035455
-0.040593248 -0.04401238 -0.035278395 -0.013279819 0.06798622 0.052559633 0.0955179 0.04777816
0.09854565 0.008800998 0.048401404 -0.049238 0.044070315 0.06971221 0.016399805 -0.08571612
0.08784875 -0.08867035 0.089949146 -0.00040544246 0.058524814 -0.10005543 0.035705324 -0.102529965
0.018479137 -0.04971272 -0.029127358 -0.023160726 0.10424782 0.08505155 -0.049993172 0.050199006
0.09532979 0.05672186 -0.018237647 0.11378754 0.03695856 -0.0018572178 -0.11674419 0.020638302
-0.027736416 0.05503516 -0.018719435 0.004144756 -0.09819655 -0.055703018 -0.0040524006 0.058873896
-0.008101745 -0.10026087 0.10507268 0.06370894 -0.016850797 -0.008329269 0.05931281 -0.02741234
-0.04192926 -0.049126092 0.081483565 -0.040603 -0.074639186 -0.077144906 0.027440805 0.004393056
0.034210473 -0.019133851 0.0041302647 -0.0028993688 -0.05015927 -0.034248173 0.10090144 0.020162836
00000000: de80 c93d 48d0 b4bd 17bf 4bbc 35ce ff3d
00000010: c4ad 7abc a83e f03c 6313 503d 2ff2 85bd
00000020: ead2 353d 0bf9 003d 858c b5bc c02d d13d
00000030: 7af4 783d 0023 f6bb 3867 f2bd b373 fb3d
00000040: 5301 f73d 6cb3 8c3d cbe6 123d f834 7cbd
00000050: 7e92 17bd 409e df3b ce07 113d 2a7e 7ebd
00000060: e940 adbd 838c 043e 1468 d5bd f285 af3b
00000070: fdcd cbbd 42dc ca3d 2d46 82bd 0037 ab3b
00000080: 9cd5 3fbd c8ab eebd 266d da3d cd34 e8bd
00000090: ca06 e13d 6862 b0bd 64d6 c83d 5866 983d
000000a0: 4095 e3bd 966d b8bd 94e0 96bd 316e 43bd
000000b0: fc25 b1bd c4fe 853c e16f 49bd 6a0e d5bd
000000c0: ba05 f23d d838 a3bd 68d2 1b3d 08f5 a639
000000d0: 78b6 f73d aed6 a2bd be6f e5bc 90c4 793d
000000e0: adf7 7a3c c702 e93d ba53 ff3c 4060 6d3d
000000f0: 41cf be3c 24ce 88bd 0570 9a3d f4df 73bd
00000100: afab d4bd f6bb c13d fd72 d3bd 6183 e83c
00000110: a571 183d 1ae4 ca3d ddfa bf3b aebc d5bd
00000120: 3fe0 f73d 2bd6 533d 9434 143d 0f8d d23d
00000130: 44ca 313d 586a eb3c 4b45 d5bc 9547 963d
00000140: 8b42 113d 8a88 893d 700d 233d 000f 5b3b
00000150: 7f24 cebc 3c05 1e3d 021b 01bd d9d7 6f3c
00000160: 4847 06bc ac22 923d 8e06 8cbd 9732 eebd
00000170: 1db4 88bd f178 503d c931 90bd f87a a03c
00000180: a9cb ba3d 8aab f3bd 3abe f2bd 0c54 c9bd
00000190: 7ee7 5d3d 3836 97bd 001a 893c 61cd ef3c
000001a0: 4ead ad3d 10ce e8bc 502c 14bc 7759 b03c
000001b0: 1ec0 d73d b14c 80bc 448b d2bd 528c 843d
000001c0: 6890 de3c 16a0 243d d27e cd3d f0bd e63c
000001d0: 70b0 443c 2cf4 3b3d 0176 0a3b 3485 933d
000001e0: 7a6b 833d 402f 5b3d 0e93 02bc 0954 873d
000001f0: 833f be3d 28e3 5d3d bd59 4e3b 4a21 c03d
00000200: f333 1cbd c889 b33d 6bc0 bd3b 7639 06bd
00000210: e10d d33c ca5c d0bd b986 903c 6b14 00bc
00000220: fcb0 94bd cfbb c4bc 8a3f debd fcb7 b8bd
00000230: e9ba a53b 4875 3e3d 4f20 acba f4bb 213d
00000240: b415 d93d 28f0 8dbd a8d9 983b 0818 ce3c
00000250: dc56 eb3d ca3d e93d 854f 073d 28f1 edbd
00000260: 3840 bc3a bf3e 19bd c8cc e43d 298f 1bbc
00000270: c869 e53d 0acc bb3d d314 97bb b8d0 67bd
00000280: 7440 923d f008 aa3c 08b5 713d c531 613d
00000290: e29e babd 59e6 a03c aa13 d73d e625 d63d
000002a0: 27af 2d3c f033 9c3c 6e66 cbbd 87f6 28bd
000002b0: 9976 483d 0829 e6bd b723 003c c0c5 bfbb
000002c0: 9e1e f43d 9e40 cb3d bfa7 60bd b7fc d3bc
000002d0: a0cd ae3b 56e0 e6bb 3002 c6bd d04a 25bd
000002e0: 1b45 26bd 5346 34bd 1480 10bd 9993 59bc
000002f0: 5c3c 8b3d c548 573d e49e c33d 08b3 433d
00000300: 4dd2 c93d 1032 103c 8d40 463d c9ad 49bd
00000310: 1383 343d 46c5 8e3d e258 863c ef8b afbd
00000320: 0cea b33d cd98 b5bd 4237 b83d 9191 d4b9
00000330: b7b7 6f3d dce9 ccbd bf3f 123d 3bfb d1bd
00000340: 8f61 973c 919f 4bbd 7f9c eebc 90bb bdbc
00000350: e27f d53d 822f ae3d a4c5 4cbd 799d 4d3d
00000360: 443c c33d 2e55 683d 1e67 95bc 7109 e93d
00000370: dc61 173d e36d f3ba 9417 efbd a811 a93c
00000380: 7b37 e3bc 8c6c 613d 8059 99bc bcd0 873b
00000390: 461b c9bd d928 64bd 00ca 84bb c125 713d
000003a0: 2ebd 04bc 9255 cdbd 5830 d73d d579 823d
000003b0: af0a 8abc 7c77 08bc fdf1 723d d88f e0bc
000003c0: 04be 2bbd 7138 49bd dbe0 a63d 554f 26bd
000003d0: 6edc 98bd 26fe 9dbd 8acb e03c a0f3 8f3b
000003e0: 4820 0c3d 98be 9cbc 2c57 873b 5603 3ebb
000003f0: cf73 4dbd d047 0cbd 6aa5 ce3d 882c a53c

MLP_layers.0.bias f4 [32]
-0.07522097 -0.009690204 -0.097171664 -0.048151687 -0.010888281 -0.0099971965 0.1711268 -0.0074240016
-0.069161884 0.0981828 -0.057182074 0.09186698 -0.12090102 0.04008427 0.1446076 -0.11692114
0.0299533 0.1677587 0.20410953 -0.018654428 -0.0064271116 -0.033508644 0.10197753 -0.010110977
0.12032216 0.1475161 0.108142525 -0.06362662 -0.08614919 0.2117991 -0.0058737947 -0.06707261
00000000: 740d 9abd a9c3 1ebc f001 c7bd b43a 45bd
00000010: c364 32bc 48cb 23bc dd3b 2f3e 0a45 f3bb
00000020: bfa4 8dbd 1014 c93d c037 6abd c124 bc3d
00000030: f49a f7bd 672f 243d 0414 143e 5a74 efbd
00000040: 9f60 f53c f0c8 2b3e 1702 513e 2cd1 98bc
00000050: 859a d2bb 5c40 09bd 98d9 d03d 83a8 25bc
00000060: 776b f63d 760e 173e d479 dd3d ac4e 82bd
00000070: fd6e b0bd dde1 583e f678 c0bb 5d5d 89bd

MLP_layers.1.weight f4 [1, 32]
0.03570179 -0.05955883 0.08626005 0.09314781 -0.087352045 -0.012917176 0.07115478 -0.020254217
0.036947675 0.16729064 -0.14667562 0.16397677 -0.0076320353 -0.17559691 0.08164447 -0.012698972
-0.08452326 0.12430386 0.03480704 -0.037782025 -0.09604532 0.09618813 0.15460189 -0.15310523
0.039742194 0.04033614 0.16539042 -0.14290074 0.07967843 0.11493667 -0.15309954 0.07805654
00000000: 0a3c 123d f6f3 73bd 1ca9 b03d 47c4 be3d
00000010: a1e5 b2bd 90a2 53bc 99b9 913d 2cec a5bc
00000020: 7256 173d 3d4e 2b3e 2232 16be 87e9 273e
00000030: 2716 fabb adcf 33be 3735 a73d 590f 50bc
00000040: 881a adbd 0693 fe3d d491 0e3d 53c1 1abd
00000050: 69b3 c4bd 48fe c43d f54f 1e3e 9ec7 1cbe
00000060: b6c8 223d 8237 253d 1b5c 293e 9254 12be
00000070: 722e a33d eb63 eb3d 20c6 1cbe 1bdc 9f3d
