SLIC_GAT/last3.pt (torch, 74869 bytes, 12 tensors)

GAT_layers.0.f.weight f4 [32, 82]
0	0xbe056352	-0.13026169
1	0x3b0154cc	0.001973438
2	0xbe68b515	-0.22725327
3	0x3cabe8a8	0.020984963
4	0x3d55012c	0.05200307
5	0x3e40587a	0.18783751
6	0xbd0cc3ee	-0.03436654
7	0xbdb153aa	-0.08658536
8	0x3e13c442	0.14430335
9	0x3e036805	0.12832649
10	0xbd5a4e64	-0.053297415
11	0xbe72aa8e	-0.23697874
12	0xbdeb5b35	-0.11492006
13	0xbd8a3f1e	-0.0675032
14	0xbe289165	-0.16461714
15	0xbdbb052c	-0.09131846
16	0xbe55e279	-0.20887174
17	0xbd9411e0	-0.07229972
18	0xbe2db2a8	-0.16962683
19	0xbe1badd0	-0.15203023
20	0xbd23f5f4	-0.04002948
21	0x3ccfb1ed	0.025353396
22	0xbe1b4f62	-0.15167001
23	0xbdbe175c	-0.09281799
24	0x3de84893	0.113419674
25	0x3d303c10	0.04302603
26	0xbe689a19	-0.22715034
27	0xbe320403	-0.17384343
28	0xbe53e644	-0.20693308
29	0xbe332226	-0.17493495
30	0xbd609860	-0.054832816
31	0x3ca29c65	0.019849965
32	0x3d87cb8f	0.066306226
33	0x3d92a5b0	0.07160509
34	0x3e059413	0.13044767
35	0xbd42b175	-0.047532517
36	0xbe6da965	-0.2320915
37	0xbe602254	-0.21888095
38	0xbd86fbab	-0.065909706
39	0x3d473fed	0.04864495
40	0x3e174722	0.14773229
41	0xbdd29296	-0.10281865
42	0xbe284f49	-0.16436495
43	0x3db03bc1	0.08605147
44	0x3e292db8	0.16521347
45	0xbe14fd35	-0.14549716
46	0x3e42de43	0.19030099
47	0x3e54e931	0.2079208
48	0xbe63485b	-0.2219557
49	0x3e061d71	0.13097169
50	0x3d8d72ce	0.06906663
51	0x3e15d7e3	0.14633135
52	0xbdbcbebf	-0.092160694
53	0x3b8d0ad7	0.0043042707
54	0xbc5ce0c2	-0.013481321
55	0xbe2f0028	-0.17089903
56	0xbda7ab11	-0.08186925
57	0xbe2b6ed7	-0.16741501
58	0x3e29de22	0.16588643
59	0xbe5a75d6	-0.21334013
60	0xbb8b3fc4	-0.004249545
61	0xbe0aaa93	-0.13541631
62	0xbe2d2aea	-0.16910902
63	0xbd75b7e4	-0.059989825
64	0xbdc3919e	-0.09549259
65	0xbe360800	-0.1777649
66	0xbdfaf7ca	-0.12254293
67	0x3d7d50de	0.0618447
68	0x3e57cc0d	0.21073933
69	0xbd10941a	-0.03529749
70	0xbe598889	-0.2124349
71	0x3d19653b	0.037450057
72	0x3de30cc4	0.11086419
73	0xbcf05e0c	-0.02934172
74	0xbdf1c77a	-0.11805625
75	0x3e24073f	0.16018389
76	0x3e437966	0.19089279
77	0xbe4a3fa3	-0.19750838
78	0x3c32108e	0.010868205
79	0x3de7f283	0.11325552
80	0xbdead471	-0.11466301
81	0xbde8d0bf	-0.1136794
82	0xbe22c192	-0.15894154
83	0x3dfe2340	0.12409067
84	0x3db9865d	0.09058831
85	0xbe2543b5	-0.1613911
86	0xbe251a5a	-0.16123334
87	0xbdae6053	-0.08514466
88	0xbd2a787c	-0.04161881
89	0x3e3b931e	0.1831784
90	0x3e3dc160	0.18530798
91	0x3ddb0e23	0.10696056
92	0xbdc155a6	-0.09440164
93	0x3e34da69	0.17661442
94	0x3c6dde63	0.014518353
95	0x3dcd77da	0.100326255
96	0x3dc42330	0.09577024
97	0x3db8e405	0.09027866
98	0xbe17a972	-0.14810732
99	0xbd270fc4	-0.04078652
100	0xbe0ca05b	-0.13733046
101	0xbdb20c4e	-0.08693753
102	0xbd9d0371	-0.07666672
103	0xbcc404c1	-0.023928048
104	0x3e03c56c	0.12868279
105	0x3de62a88	0.11238581
106	0xbd8571e5	-0.06515864
107	0xbe458379	-0.19288434
108	0x3da84cd5	0.082177795
109	0x3dabd4b8	0.08390182
110	0xbdb4b339	-0.088232465
111	0x3d8aa9a3	0.06770637
112	0xbdd89759	-0.10575742
113	0xbd75fc85	-0.060055275
114	0x3e15798b	0.14597146
115	0x3e392e6d	0.18084116
116	0xbd1f7c97	-0.038937178
117	0xbdbc496c	-0.091936916
118	0x3b94d9e5	0.0045425766
119	0xbd9d63f1	-0.07685078
120	0xbe55ebe4	-0.20890766
121	0xbe195bce	-0.14976427
122	0x3df3ae48	0.11898476
123	0x3de6de35	0.112728514
124	0xbd4ca500	-0.049962044
125	0xbdcc6a87	-0.09981256
126	0xbd8fc2c2	-0.07019569
127	0xbca5b87e	-0.020229574
128	0x3e1be487	0.15223895
129	0x3ddf2d4b	0.10897311
130	0x3e0add57	0.13560997
131	0xbe12b99d	-0.14328618
132	0xbdcc34ce	-0.09971009
133	0x3e1564f2	0.14589289
134	0xbe69cb65	-0.22831495
135	0x3dd5f5c0	0.10447264
136	0x3d15e0e6	0.036591433
137	0x3d23aba2	0.039958604
138	0xbce0fd3e	-0.027464505
139	0xbd77707b	-0.060410004
140	0x3e49b0cc	0.19696349
141	0xbe4143f0	-0.18873572
142	0xbe17827d	-0.14795871
143	0xbdfb67eb	-0.1227568
144	0x3d512454	0.051060036
145	0x3d9a471f	0.075330965
146	0x3e0580a7	0.13037358
147	0x3e55b4d6	0.20869765
148	0xbe57f9d7	-0.210914
149	0x3d134370	0.035952985
150	0x3da4ed04	0.0805302
151	0xbd90c1d8	-0.07068223
152	0xbe214d5a	-0.15752164
153	0x3d61171b	0.054953676
154	0x3d9109ca	0.07081945
155	0x3e33370e	0.1750147
156	0xbb0492e5	-0.0020229158
157	0x3ccdaaa6	0.025105786
158	0x3e2ca5d0	0.16860127
159	0x3d0b493b	0.034005385
160	0xbc98d00c	-0.018653892
161	0x3e2dbcf9	0.16966619
162	0xbe1e9185	-0.15485199
163	0x3e0a6862	0.13516381
164	0xbe0794d1	-0.13240363
165	0x3e1c24b7	0.1524838
166	0xbd5dd5ea	-0.054159082
167	0x3e4f6a12	0.20255306
168	0xbd5a1bcd	-0.05324917
169	0x3bed1ca6	0.007236081
170	0x3d879784	0.06620696
171	0xbdfc949f	-0.12333035
172	0x3df96829	0.1217807
173	0x3e5e2d14	0.21696883
174	0x3e64018b	0.22266214
175	0x3e67d416	0.22639498
176	0x3d91d0dd	0.07119916
177	0x3d3b24f9	0.045689557
178	0x3dbb4e27	0.09145766
179	0x3d7aa483	0.061192047
180	0xbdfe64bf	-0.124215595
181	0x3e0172c2	0.12641433
182	0x3e07f749	0.13277926
183	0x3cbfb629	0.02340229
184	0x3e0709b9	0.13187303
185	0x3dec6e14	0.11544433
186	0xbe33a42b	-0.17543094
187	0x3e088777	0.13332926
188	0xbdbdf1bd	-0.092746235
189	0xbe3ee67c	-0.1864261
190	0x3e0e2737	0.13882147
191	0xbe0f3acb	-0.13987271
192	0x3e0bb753	0.13644151
193	0x3db7a0b8	0.089662015
194	0xbcb84db2	-0.022497986
195	0x3e1975fd	0.14986415
196	0xbe38349b	-0.17988817
197	0x3db2d69e	0.08732341
198	0x3dc5ef53	0.09664788
199	0xbe132b60	-0.14372015
200	0x3dae81de	0.08520864
201	0xbd63bfbe	-0.05560278
202	0xbcbef4b5	-0.023310045
203	0x3cdfed24	0.027334757
204	0xbe1115f6	-0.14168534
205	0xbe3713d2	-0.17878655
206	0x3d619057	0.055069294
207	0xbe05a44b	-0.13050954
208	0x3db0e8ee	0.08638178
209	0xbe682575	-0.22670539
210	0x3da67503	0.08127787
211	0xbd2238dd	-0.03960501
212	0xbd0f2d3c	-0.03495525
213	0x3d5870eb	0.052842062
214	0xbbb84cf3	-0.0056244074
215	0x3e23e8a0	0.16006708
216	0x3e443e23	0.19164328
217	0x3dea139e	0.11429523
218	0xbe36c965	-0.17850263
219	0x3d43c92c	0.047799274
220	0xbe15a93d	-0.1461534
221	0x3db22944	0.08699277
222	0x3e1f5b35	0.15562136
223	0xbd8dc7f3	-0.06922903
224	0xbdb603c5	-0.08887438
225	0x3e3f1577	0.18660532
226	0x3e3ba5f1	0.1832502
227	0x3dafb5dc	0.08579609
228	0x3d47d124	0.048783436
229	0x3e25d2e1	0.16193725
230	0x3dfc5960	0.123217344
231	0x3d0f00b3	0.034912776
232	0x3e038d06	0.12846765
233	0x3e1313c8	0.14363015
234	0x3d6f7cbf	0.058468577
235	0xbe64a8f9	-0.22330083
236	0x3e431376	0.19050393
237	0x3dda08fa	0.106462434
238	0xbe1f733d	-0.15571304
239	0x3e514532	0.20436552
240	0xbe1cb792	-0.15304402
241	0xbe48d830	-0.19613719
242	0x3db1d032	0.08682288
243	0x3cf44749	0.029819148
244	0x3dfdd5fa	0.123943284
245	0xbe611bd2	-0.21983269
246	0x3e2d0fd0	0.16900563
247	0x3d492683	0.049108993
248	0x3e53a4e6	0.20668373
249	0xbdc05e09	-0.09392936
250	0x3d52f829	0.051506195
251	0xbdfc0f90	-0.12307656
252	0xbe00851d	-0.12550779
253	0x3e69263f	0.22768496
254	0xbe3afbaf	-0.18260072
255	0xbd8682ba	-0.06567903

GAT_layers.0.f.bias f4 [32]
0	0xba801c0a	-0.0009773981
1	0x3dc0d0d9	0.094148345
2	0x3da41a0f	0.08012783
3	0x3a45e127	0.0007548504
4	0x3d580387	0.05273774
5	0x3db31c32	0.08745612
6	0xbd4af7bc	-0.049552664
7	0x3cf6b67f	0.030116318
8	0x3cb2a628	0.021807745
9	0xbcf5f6eb	-0.030024966
10	0xbdb12fd0	-0.08651698
11	0xbced9cc0	-0.029005408
12	0x3dda1d12	0.10650076
13	0xbcd34b13	-0.025792634
14	0xbcdcaedb	-0.026938846
15	0xbcf30fee	-0.029670682
16	0xbb070e14	-0.0020607756
17	0xbd1df2a9	-0.038561497
18	0x3d4c503d	0.04988121
19	0xbd05668d	-0.032568503
20	0x3dd9a0fd	0.10626409
21	0x3d76a533	0.06021614
22	0x3d9848ba	0.074357465
23	0x3d7e8586	0.062139057
24	0xbd99ed1e	-0.0751593
25	0x3d262953	0.040566754
26	0x3d9e4bba	0.077292874
27	0xbdcee2ec	-0.10101876
28	0xbc592297	-0.013252876
29	0xbdaf4575	-0.0855817
30	0x3dbc1cb6	0.09185164
31	0xbcfbddaf	-0.030745355

GAT_layers.0.w.weight f4 [1, 82]
0	0xbdb9a6dd	-0.0906503
1	0x3c90aa7b	0.017659416
2	0xbe546c22	-0.20744374
3	0xbce9eb54	-0.028554596
4	0x3e252590	0.1612761
5	0xbd895be9	-0.067069836
6	0x3e877e40	0.2646351
7	0x3e46371a	0.19356957
8	0x3e6e300e	0.23260519
9	0x3e599fec	0.21252412
10	0xbde49acb	-0.11162337
11	0x3e28a294	0.16468269
12	0xbd1874c4	-0.03722073
13	0xbd1b8810	-0.037971556
14	0x3d3d6b67	0.046245005
15	0xbc89ddd1	-0.016829403
16	0xbc4990bf	-0.012302577
17	0x3e5c73b3	0.21528511
18	0x3ddfd37b	0.109290086
19	0x3d8a77f2	0.06761159
20	0xbcbd6fe8	-0.02312465
21	0x3dd7f763	0.10545232
22	0xbe10e5ff	-0.14150237
23	0xbe0d69ca	-0.13809887
24	0x3e57b84c	0.21066397
25	0x3da58535	0.08082048
26	0x3c0a5f44	0.008445565
27	0x3e875787	0.26433966
28	0xba3d2cac	-0.00072164345
29	0xbda6ace1	-0.08138443
30	0x3d911fdc	0.07086155
31	0xbc36bf56	-0.0111540165
32	0xbce1136c	-0.027475081
33	0x3e89796c	0.2685045
34	0xbdc1058d	-0.09424887
35	0xbe6d4661	-0.23171379
36	0x3e27c831	0.1638496
37	0xbe6673bf	-0.22505091
38	0xbd68efc9	-0.056869302
39	0xbd9e265b	-0.077221595
40	0x3d578248	0.05261448
41	0xbde40597	-0.11133879
42	0x3e12fd78	0.14354503
43	0xbe724cb4	-0.23662072
44	0x3dbb3212	0.091404095
45	0x3e5e4905	0.21707542
46	0xbda12766	-0.07868843
47	0x3e48d487	0.19612323
48	0x3e5b0727	0.21389447
49	0xbe6aef65	-0.22942884
50	0xbcb97066	-0.022636604
51	0x3c3a55e0	0.011373013
52	0x3d6703c2	0.056400068
53	0xbe83de7c	-0.2575568
54	0x3e85df38	0.26146865
55	0xbe06a36a	-0.13148275
56	0xbe581c4c	-0.21104544
57	0x3dbe47b7	0.09291022
58	0x3e070dd4	0.13188869
59	0x3e3acea7	0.18242894
60	0x3dc0c329	0.09412224
61	0x3e86254f	0.2620034
62	0x3e6534fd	0.22383495
63	0xbe3e1650	-0.18563199
64	0xbe848f4e	-0.25890583
65	0xbdf88910	-0.121355176
66	0x3e00808b	0.12549035
67	0x3d370dd0	0.044690907
68	0x3d89f715	0.0673658
69	0x3e66e02a	0.2254645
70	0x3db83c2f	0.08995854
71	0x3e144b80	0.14481926
72	0xbdea4715	-0.11439339
73	0xbd2e1978	-0.042504758
74	0xbe40a2aa	-0.18812051
75	0xbc80f297	-0.015740676
76	0xbda693e0	-0.08133674
77	0xbe53a67a	-0.20668975
78	0x3e5466ac	0.20742291
79	0x3dd89ac5	0.10576395
80	0x3e0179f2	0.12644175
81	0x3e2b7728	0.16744673

GAT_layers.1.f.weight f4 [64, 64]
0	0xbde0c73c	-0.10975501
1	0x3e384a1d	0.17997022
2	0x3e0f3144	0.13983637
3	0x3dc35243	0.095371746
4	0x3d03fab5	0.032221515
5	0x3cb3486c	0.02188512
6	0x3e001028	0.12506163
7	0xbe15a1b9	-0.14612474
8	0xbda43c04	-0.080192596
9	0x3d96a0b3	0.0735487
10	0xbd2465c7	-0.040136125
11	0x3d8aaaf3	0.06770887
12	0x3de6d3a9	0.1127084
13	0x3d98f720	0.0746901
14	0x3da30d70	0.079615474
15	0xbe313d37	-0.17308508
16	0xbd3b012e	-0.045655422
17	0xbe47a46d	-0.19496317
18	0xbd82ae89	-0.06380946
19	0xbddcd4d7	-0.107827835
20	0xbd3ba09c	-0.045807466
21	0xbddf8a7c	-0.10915086
22	0xbd3bf281	-0.045885567
23	0xbd76b7a3	-0.060233723
24	0x3e598292	0.21241215
25	0x3d768260	0.06018293
26	0x3db499ff	0.08818435
27	0x3e489331	0.19587399
28	0xbe138809	-0.14407362
29	0x3e3034b3	0.17207603
30	0x3cc2b024	0.023765631
31	0x3e33fe96	0.17577586
32	0x3e3c590a	0.1839334
33	0xbdb0ff7a	-0.08642478
34	0xbe404d12	-0.187794
35	0x3e5034c7	0.20332633
36	0xbe4e4df5	-0.20146926
37	0x39aff040	0.000335576
38	0x3df75c0c	0.120781034
39	0xbddf1415	-0.10892502
40	0xbda0f271	-0.07858742
41	0x3e08abf4	0.13346845
42	0xbe1b4910	-0.1516459
43	0x3e51baef	0.20481466
44	0x3ddde784	0.10835174
45	0xbe55e3d1	-0.20887686
46	0x3e21b660	0.15792227
47	0x3d852d4c	0.0650278
48	0xbd8cba5c	-0.06871483
49	0xbc9804b1	-0.018556925
50	0x3d312a4a	0.04325322
51	0x3d7174dc	0.058949336
52	0xbc025cd4	-0.007956702
53	0x3e036b17	0.1283382
54	0x3e31eb38	0.17374885
55	0x3d24caf7	0.040232625
56	0x3d9f28df	0.077714674
57	0xbe1e1307	-0.15436946
58	0x3dfb0e08	0.122585356
59	0x3e4edf09	0.20202269
60	0x3b43f78d	0.002990219
61	0x3ce7bce7	0.028288318
62	0xbd0f0be2	-0.03492344
63	0xbdc15b2b	-0.09441217
64	0xbe01942b	-0.12654178
65	0xbe2195e1	-0.1577983
66	0x3c6cecd9	0.014460766
67	0xbe41d400	-0.18928528
68	0xbc9ec5e0	-0.019381464
69	0x3e2e32e9	0.17011608
70	0xbe346db5	-0.17619975
71	0x3bf87c99	0.0075832126
72	0xbda2a9db	-0.079425536
73	0x3d1a7cac	0.037716553
74	0x3e10a9bb	0.14127247
75	0xbd927dbe	-0.0715289
76	0xbc94aded	-0.01814934
77	0x3dd58836	0.10426371
78	0xbdad5db8	-0.08465141
79	0x3de8ade7	0.11361294
80	0x3d314cf5	0.043286283
81	0x3de8b03b	0.11361738
82	0xbd941785	-0.072310485
83	0x3d0dd942	0.03463102
84	0x3e1e9acf	0.15488742
85	0x3e3a8789	0.18215765
86	0xbe2d4c43	-0.16923623
87	0xbd62ba90	-0.0553537
88	0x3e30bbf1	0.17259194
89	0xbe487927	-0.19577466
90	0xbe48b54b	-0.19600408
91	0xbe3c414e	-0.18384287
92	0x3da6a0d7	0.081361465
93	0x3d18c47d	0.03729676
94	0xbd37344f	-0.04472762
95	0xbd6a66a1	-0.05722678
96	0xbdb92e0e	-0.09041987
97	0xbe3cfe7e	-0.18456456
98	0x3e24cf91	0.16094805
99	0xbdb5fdc2	-0.08886291
100	0x3e2d3e74	0.16918355
101	0x3e0d8d2b	0.13823383
102	0xbdaf07c6	-0.085464045
103	0xbe2e1ed2	-0.17003945
104	0xbd80f282	-0.06296255
105	0x3dbb8053	0.09155335
106	0xbe1a8e3e	-0.15093324
107	0x3e52e45b	0.20594923
108	0xbd62a09c	-0.05532895
109	0xbde08745	-0.109633006
110	0xbdfa422a	-0.12219651
111	0xbd88dd69	-0.06682856
112	0x3d994ec8	0.074857295
113	0xbe21061e	-0.1572499
114	0x3b6f1a3e	0.0036484147
115	0x3dea5ddc	0.114436835
116	0xbdca3c1b	-0.098747455
117	0x3dfdeaef	0.12398326
118	0xbe06954a	-0.13142887
119	0x3e4cf1d7	0.2001413
120	0xbcfc440e	-0.03079417
121	0x3e2995b6	0.16561016
122	0x3e06e00a	0.13171402
123	0x3d4a2cae	0.049359016
124	0xbdb57385	-0.08859924
125	0xbe0860cb	-0.13318174
126	0xbda4f1d7	-0.0805394
127	0xbd4c074a	-0.04981164
128	0xbe46ecf6	-0.19426331
129	0x3e2a795d	0.16647859
130	0x3e1f7a90	0.15574098
131	0x3d3ad8b1	0.04561681
132	0x3e43457f	0.1906948
133	0xbd54c05f	-0.051941272
134	0xbe254d83	-0.1614285
135	0xbe22e839	-0.15908898
136	0x3de03ea1	0.109494455
137	0x3c894268	0.016755298
138	0xbc1c390d	-0.009535086
139	0xbe4fa44b	-0.20277517
140	0x3c996813	0.018726384
141	0x3d65fea8	0.056151062
142	0x3dceb4e9	0.100930996
143	0x3e177fc4	0.14794832
144	0xbe498a4a	-0.1968166
145	0x3de9adc7	0.114100985
146	0xbd42b511	-0.04753596
147	0xbca56fba	-0.020194877
148	0xbda740b3	-0.08166637
149	0xbe47df49	-0.1951877
150	0xbd8e1804	-0.06938174
151	0xbd608498	-0.05481395
152	0xbdbe133c	-0.092810124
153	0xbe0faa0c	-0.14029711
154	0xbe3ebf9d	-0.18627782
155	0xbdf7c264	-0.12097624
156	0xbe0ac4a8	-0.13551581
157	0xbd86b622	-0.06577708
158	0xbdb4ad4b	-0.088221155
159	0xbe3705ba	-0.17873278
160	0xbc467aaf	-0.012114211
161	0xbd9e3b22	-0.077261224
162	0x3ca54ca7	0.020178152
163	0xbd4c200e	-0.049835257
164	0x3e45f948	0.19333375
165	0x3d92e943	0.071733974
166	0xbe068d8a	-0.1313993
167	0xbd5b050e	-0.053471617
168	0x3d7f62b1	0.06234998
169	0x3e4f03fe	0.20216367
170	0xbdc14e04	-0.094387084
171	0xbd6299af	-0.055322345
172	0x3e15539e	0.14582679
173	0xbdb10ac7	-0.08644634
174	0x3e23205e	0.15930316
175	0x3ad02adf	0.0015881917
176	0xbe44e672	-0.19228533
177	0x3e2dfda6	0.1699129
178	0x3d36135b	0.044452053
179	0xbd6d9aba	-0.058008887
180	0x3d39fb19	0.04540548
181	0x3dfc35c0	0.123149395
182	0x3e53357c	0.20625871
183	0x3e031769	0.12801899
184	0xbda1204d	-0.07867489
185	0xbdedc1ea	-0.11609252
186	0x3c451ccf	0.012030794
187	0x3e179d35	0.14806063
188	0x3deb6aa0	0.114949465
189	0xbd8d9d79	-0.06914801
190	0xbd227855	-0.03966554
191	0xbd282bbf	-0.041057345
192	0x3e0832b5	0.13300593
193	0xbd412c88	-0.04716161
194	0x3d9f5fc1	0.077819355
195	0x3dc70aee	0.097188815
196	0xbbaf386f	-0.0053473036
197	0x3e138049	0.14404406
198	0x3e4aa0c0	0.19787884
199	0xbe3beada	-0.18351308
200	0x3d9f6fd9	0.07785005
201	0xbe53ab05	-0.20670708
202	0xbd31b017	-0.043380823
203	0xbd7b3581	-0.061330322
204	0x3d440885	0.047859687
205	0xbe4ae2e6	-0.19813117
206	0xbddf0433	-0.10889473
207	0xbdefd17c	-0.11709878
208	0xbdeece5e	-0.11660455
209	0x3e127f64	0.14306408
210	0xbe57ba69	-0.21067204
211	0xbdb7116d	-0.089388706
212	0xbe2b4da5	-0.16728838
213	0xbd06a8f8	-0.032875985
214	0x3e17a5f3	0.14809398
215	0x3e209660	0.15682364
216	0xbdeb1e09	-0.11480338
217	0x3e0a156b	0.13484733
218	0xbe0ff638	-0.14058769
219	0x3e4fa11d	0.20276304
220	0xbe2fb6b8	-0.17159545
221	0xbd488308	-0.048953086
222	0x3e483d7f	0.19554709
223	0xbe544277	-0.2072848
224	0x3ce9afae	0.028526153
225	0xbd0e81e3	-0.03479184
226	0xbdad767e	-0.08469866
227	0xbe357246	-0.17719373
228	0x3d9fa934	0.07795945
229	0xbe147304	-0.14497
230	0xbb7cc2d2	-0.003856827
231	0x3e1ff9ce	0.15622637
232	0x3d9379d2	0.0720097
233	0x3c552363	0.013008925
234	0xbcc236bc	-0.02370774
235	0xbdc94018	-0.09826678
236	0x3de0c83f	0.10975694
237	0x3d6716ed	0.056418348
238	0x3c8999cd	0.01679697
239	0xbe461812	-0.1934512
240	0xbe4b3b6c	-0.19846886
241	0x3c50b283	0.012737873
242	0xbd96d0e6	-0.07364063
243	0xbd8d89e8	-0.06911069
244	0x3c1d4803	0.009599688
245	0xbe2fb872	-0.17160204
246	0xbe178c3b	-0.14799587
247	0x3cb0a1d6	0.021561544
248	0xbddf5e47	-0.10906654
249	0xbcc06917	-0.02348761
250	0xbd89295d	-0.066973425
251	0x3d527dd5	0.051389534
252	0x3e5b5007	0.21417247
253	0x3e2e2460	0.17006063
254	0xbe54cd92	-0.20781544
255	0xbe292d3a	-0.16521159

GAT_layers.1.f.bias f4 [64]
0	0x3dfffada	0.12499018
1	0x3dccc6d4	0.09998861
2	0x3d0fe98f	0.03513485
3	0x3dc83a92	0.097767964
4	0xbc91c857	-0.017795725
5	0x3bb2cde0	0.005456671
6	0xbdd88a98	-0.1057331
7	0x3d663517	0.056202974
8	0xbd805118	-0.062654674
9	0xbd9f9a85	-0.07793144
10	0x3db84390	0.089972615
11	0x3dbc6328	0.091986
12	0xbd8cfa23	-0.06883647
13	0x3dfd0658	0.123547256
14	0xbdfdf491	-0.12400163
15	0xbd6198cf	-0.05507737
16	0x3dc78c48	0.097435534
17	0x3c959778	0.018260702
18	0xbd19bc83	-0.037533294
19	0x3b4ea382	0.0031530564
20	0x3d64c2e8	0.05584994
21	0xbd226fe3	-0.039657485
22	0xbd0bdfdc	-0.034149036
23	0x3cbcbe7e	0.023040053
24	0xbd809d08	-0.06279951
25	0x3dca2848	0.09870964
26	0x3d7c1050	0.061538994
27	0x3d63e7ba	0.055640914
28	0x3d65e2c3	0.05612446
29	0x3d546374	0.05185266
30	0xbbcba8a0	-0.00621517
31	0xbcd58b06	-0.026067268
32	0xbdd57654	-0.1042296
33	0x3d18df4a	0.03732232
34	0x3d0ccf44	0.03437735
35	0xbdbf053d	-0.09327171
36	0xbc39c411	-0.01133825
37	0x3dd7db70	0.10539901
38	0x3da35a75	0.07976238
39	0x3d83ecb4	0.06441632
40	0xbd54f2ac	-0.051989242
41	0x3dd51afd	0.10405538
42	0x3d831f66	0.06402473
43	0xbdd11af0	-0.10210216
44	0xbd5240b4	-0.051331237
45	0xbdc9fa90	-0.09862244
46	0x3dce9884	0.10087684
47	0x3dfd543c	0.12369582
48	0xbd2a57b4	-0.041587546
49	0x3c1e7c89	0.009673246
50	0xbdc8b49f	-0.09800076
51	0x3dafea9e	0.085896716
52	0x3c885930	0.01664409
53	0xbbecbf65	-0.0072249644
54	0x3c615f30	0.013755605
55	0x3d24ea34	0.040262416
56	0x3d84dcfb	0.06487461
57	0xbdd3dbf7	-0.10344689
58	0x3d45267c	0.048132405
59	0x3da18cae	0.07888161
60	0xbbb0108f	-0.0053730677
61	0x3d053ecc	0.03253059
62	0x3de61808	0.11235052
63	0x3df680c4	0.12036279

GAT_layers.1.w.weight f4 [1, 64]
0	0x3e566649	0.20937456
1	0x3e74ebf1	0.2391813
2	0xbe72841b	-0.23683207
3	0x3e18b062	0.14911035
4	0x3e48c1eb	0.19605224
5	0x3dce9624	0.10087231
6	0xbe5876e2	-0.211391
7	0x3e549389	0.20759405
8	0xbe1c996a	-0.15292898
9	0xbe4ad538	-0.19807899
10	0x3ddd8584	0.10816482
11	0xbe594f2b	-0.21221606
12	0x3d76a627	0.06021705
13	0xbe47d39e	-0.1951432
14	0x3e9975c6	0.29972667
15	0xbdf9a5a8	-0.121897995
16	0xbc5637f6	-0.013074866
17	0x3e8409e3	0.25788793
18	0xbe7f6ceb	-0.24943893
19	0xbd9272a4	-0.07150772
20	0xbe8c83b5	-0.27444234
21	0xbe54edbd	-0.20793815
22	0xbe1561a2	-0.14588025
23	0xbe997c43	-0.29977617
24	0xbe3fe593	-0.1873992
25	0xbe08a2d5	-0.13343365
26	0xbdc8e354	-0.098089844
27	0xbe8143a9	-0.25246933
28	0xbd482352	-0.04886181
29	0x3d18f42d	0.03734224
30	0xbe859280	-0.26088333
31	0x3e92b999	0.28657225
32	0xbe29bfa4	-0.16577011
33	0xbe5a775e	-0.21334597
34	0xbe7552b1	-0.23957326
35	0xbe413ac9	-0.18870081
36	0xbe0a72ee	-0.13520405
37	0xbe93eb59	-0.28890494
38	0xbe2a0dad	-0.1660678
39	0x3e00907e	0.1255512
40	0xbcd44cef	-0.025915591
41	0x3e190a49	0.1494533
42	0x3bb42bcc	0.005498385
43	0x3e51aa60	0.20475149
44	0x3e552460	0.20814657
45	0x3e99a233	0.3000656
46	0x3e1687a3	0.14700179
47	0xbe99afd2	-0.30016953
48	0x3dad753a	0.08469625
49	0xbe961502	-0.29312903
50	0xbe7c8a76	-0.24662194
51	0xbd1fc536	-0.039006434
52	0x3e592e3b	0.21209042
53	0x3e2f5c1d	0.17124982
54	0xbdfcfa38	-0.12352413
55	0x3e9a4550	0.30131006
56	0x3ab85463	0.0014063235
57	0xbddd0583	-0.10792067
58	0xbd949f74	-0.07256976
59	0xbd05bd87	-0.03265145
60	0xbd3e787a	-0.046501614
61	0xbd8a76fc	-0.06760976
62	0x3d91972b	0.07108911
63	0xbe910edb	-0.28331646

GAT_layers.2.f.weight f4 [64, 128]
0	0x3d92fd57	0.07177227
1	0xbb0c6b8a	-0.0021426403
2	0xbddb357b	-0.1070356
3	0x3cbc2378	0.022966132
4	0x3b8af26e	0.0042403257
5	0xbdcf3288	-0.1011706
6	0xbd93f675	-0.07224742
7	0xbe1adaf0	-0.1512258
8	0xbd236f5e	-0.03990113
9	0x3d74057c	0.059575543
10	0x3dd36e21	0.1032374
11	0x3cd038a0	0.025417626
12	0xbb1b4478	-0.0023691934
13	0xbdf67cb2	-0.120355025
14	0xbd680db0	-0.05665368
15	0x3e01dfdc	0.12683052
16	0xbcb3e290	-0.02195862
17	0x3d3ee053	0.04660065
18	0xbd4b4329	-0.049624596
19	0x3d0e80c1	0.034790758
20	0x3d44b239	0.04802153
21	0x3e2d4df0	0.16924262
22	0xbbfa5d65	-0.007640528
23	0x3d5cd2fa	0.05391214
24	0xbe222411	-0.1583407
25	0x3e0e7123	0.13910346
26	0x3d6d90aa	0.05799929
27	0xbdfe9322	-0.12430407
28	0xbd61b6c6	-0.055105947
29	0x3e2340a5	0.15942629
30	0x3e25c558	0.16188562
31	0x3c3ad1ce	0.01140256
32	0xbdecb1fb	-0.115573846
33	0xbd06d307	-0.032916095
34	0x3de89bfb	0.11357876
35	0x3cd0c4a7	0.025484396
36	0x3daf8311	0.08569921
37	0xbdffb189	-0.12485034
38	0xbe2d8515	-0.16945298
39	0xbde29d75	-0.11065189
40	0x3b197cdd	0.0023420372
41	0x3dd38afb	0.10329243
42	0xbd6b8a33	-0.057504844
43	0xbe29a8df	-0.16568325
44	0xbd130000	-0.035888672
45	0xbe16bbdd	-0.14720102
46	0xbd547a74	-0.051874593
47	0x3d25f48d	0.040516425
48	0x3da1b8e4	0.07896593
49	0x3e156b29	0.1459166
50	0x3cadff00	0.021239758
51	0xbc8c2b32	-0.01711044
52	0x3e14b397	0.14521633
53	0xbcc52178	-0.02406381
54	0x3cc160b9	0.023605691
55	0xbe0a9011	-0.1353152
56	0xbde460eb	-0.11151298
57	0x3e008aac	0.12552899
58	0x3d472b0f	0.04862505
59	0xbe192f99	-0.14959563
60	0xbe00d258	-0.1258024
61	0x3e176220	0.14783525
62	0xbdc6c1c7	-0.09704929
63	0x3dc8b5db	0.09800311
64	0x3e2185d9	0.15773715
65	0x3c459901	0.012060405
66	0xbda10634	-0.07862511
67	0xbdb5ecc5	-0.08883051
68	0x3dd68033	0.10473671
69	0xbdeeca4f	-0.11659681
70	0xbe14ce6f	-0.14531873
71	0x3df07ad3	0.11742177
72	0x3d2e9cc5	0.042629976
73	0x3de8c52e	0.11365734
74	0x3dcc5b95	0.099784054
75	0x3debd1af	0.11514603
76	0x3dd64602	0.10462572
77	0xbd963d89	-0.07335956
78	0xbc2460fc	-0.0100328885
79	0xbd4aba42	-0.049494036
80	0xbc212b81	-0.009837032
81	0x3d0795a4	0.033101693
82	0x3e1d5795	0.15365441
83	0x3e25dbef	0.1619718
84	0xbe270471	-0.16310288
85	0x3e00c654	0.12575656
86	0xbd93f6cb	-0.072248064
87	0xbe09616b	-0.13416068
88	0x3daa3f6f	0.0831288
89	0xbe32fdac	-0.1747958
90	0xbd968968	-0.07350427
91	0x3dfb9bae	0.12285553
92	0x3dd7d95b	0.10539504
93	0x3d94f683	0.07273581
94	0x3da111d4	0.078647286
95	0xbd36f4a2	-0.044666894
96	0x3da7e10e	0.08197223
97	0xbdce58ff	-0.100755684
98	0x3d0eca3d	0.03486084
99	0xbe1749c0	-0.14774227
100	0x3da1a14e	0.078920946
101	0x3da273b0	0.07932222
102	0x3e24f2ae	0.161082
103	0xbd82e4a1	-0.06391264
104	0xbe2b2524	-0.16713387
105	0x3c79162e	0.015203042
106	0xbd062696	-0.032751642
107	0x3d28551f	0.041096803
108	0xbd0488af	-0.032356914
109	0x3e19e2d0	0.15027928
110	0xbe2967b0	-0.1654346
111	0x3e1963b9	0.14979447
112	0x3d888a1c	0.06666967
113	0xbcbe212a	-0.023209173
114	0xbe13323c	-0.14374632
115	0xbd892689	-0.06696803
116	0x3e23c71a	0.1599392
117	0xbd1fdba6	-0.039027832
118	0xbb8dd9a5	-0.0043289238
119	0x3e033e80	0.1281681
120	0x3e0129fb	0.1261367
121	0xbd6a79d4	-0.05724509
122	0xbca2966d	-0.01984712
123	0xbe2bfaa3	-0.16794829
124	0x3e253cf3	0.16136532
125	0x3dffe191	0.12494195
126	0x3e1ba1e6	0.15198478
127	0xbde55b19	-0.11199016
128	0x3ca7b96c	0.020474158
129	0xbd785d24	-0.0606357
130	0xbe28cebb	-0.16485111
131	0xbe014f86	-0.12627992
132	0xbe1c449b	-0.15260546
133	0x3de5d609	0.112224646
134	0xbdb3a5ba	-0.08771844
135	0x3df5d0f5	0.12002746
136	0x3dbf6ef9	0.09347338
137	0xbd99526a	-0.07486422
138	0x3e24e5dc	0.1610331
139	0xbda1e376	-0.07904713
140	0xbe2bb26d	-0.16767283
141	0xbd8c9214	-0.068638
142	0x3e238304	0.15967947
143	0xbe12bc3b	-0.14329617
144	0x3e2e9000	0.17047119
145	0x3d5e8b5f	0.054332133
146	0xbdf6c932	-0.12050094
147	0xbd3c2483	-0.045933258
148	0xbc15e74e	-0.009149386
149	0x3e2db3d8	0.16963136
150	0xbe2650bd	-0.16241737
151	0xbd9401f9	-0.07226939
152	0x3dfb03d7	0.12256592
153	0xbda2fda4	-0.07958534
154	0x3de547da	0.11195345
155	0xbd83ad9d	-0.064295985
156	0xbde168af	-0.11006295
157	0xbbaa2211	-0.0051920493
158	0x3dd23d22	0.102655664
159	0x3e034d4f	0.1282246
160	0x3e138dca	0.14409557
161	0x3d4aef66	0.049544714
162	0x3dfb8ed5	0.122831024
163	0xbd2bc709	-0.04193786
164	0x3e2ab655	0.16671117
165	0xbcc6a1e7	-0.024247123
166	0xbe2fb292	-0.17157963
167	0x3e2f86fd	0.17141338
168	0xbbf07be6	-0.0073389886
169	0x3e1abbf9	0.15110768
170	0xbd1eb042	-0.03874231
171	0xbe19cef3	-0.15020351
172	0x3e2f44a9	0.17116036
173	0xbe061206	-0.13092813
174	0xbe10b78b	-0.14132516
175	0x3dd91098	0.10598868
176	0xbdb53111	-0.08847249
177	0xbe1d4b44	-0.15360743
178	0x3e244564	0.16042095
179	0xbdbb641a	-0.09149952
180	0x3e345e5c	0.1761412
181	0xbd2254ee	-0.039631777
182	0xbe026512	-0.12733868
183	0xbd879c97	-0.06621664
184	0xbc5fb6f7	-0.013654462
185	0x3dcd0cd0	0.100122094
186	0x3df48d61	0.119410284
187	0xbdd9c660	-0.1063354
188	0xbe2104a4	-0.15724427
189	0x3bf2f9e2	0.0074150423
190	0xbe236921	-0.15958072
191	0x3e08ed9d	0.13371892
192	0xbe1deee1	-0.15423156
193	0x3daefbd5	0.08544127
194	0xbdca839c	-0.09888384
195	0x3d319193	0.04335172
196	0x3dc0f078	0.09420866
197	0xbe039810	-0.12850976
198	0xbe2f0635	-0.17092212
199	0xbe2bd2ef	-0.16779684
200	0xbe32c45d	-0.17457719
201	0xbda07cfe	-0.0783634
202	0x3cb11b11	0.021619352
203	0x3e1a4bb4	0.15067941
204	0xbe25fc80	-0.16209602
205	0x3e278487	0.16359149
206	0xbdd8baef	-0.1058253
207	0x3d4900d3	0.04907305
208	0x3e1a7603	0.1508408
209	0x3c886527	0.016649796
210	0xbe1da5fc	-0.1539535
211	0xbd768054	-0.060180977
212	0xbdd1c268	-0.10242158
213	0xbdde721a	-0.10861607
214	0x3de75b98	0.11296767
215	0x3d1c3782	0.038138874
216	0xbe062975	-0.13101752
217	0x3d72b666	0.05925598
218	0xbd3bb595	-0.045827467
219	0xbdee3976	-0.116320536
220	0xbe2dd2b6	-0.16974911
221	0x3e0a3e67	0.13500367
222	0xbc3a92f1	-0.011387573
223	0x3e05db33	0.13071899
224	0x3d9e62dc	0.077337
225	0x3db5797d	0.08861063
226	0xbe293fb4	-0.16528207
227	0x3dd5f0a2	0.10446288
228	0x3e218513	0.1577342
229	0x3b596641	0.003317252
230	0x3de454b4	0.11148968
231	0xbce481ed	-0.027893985
232	0xbc29d11a	-0.010364795
233	0x3d5806f4	0.052741006
234	0xbe0a5d85	-0.13512237
235	0xbc920a6a	-0.017827231
236	0xbcd39784	-0.025829084
237	0x3e0bb2a3	0.13642363
238	0x3e0b3174	0.13593084
239	0x3c8ae839	0.016956436
240	0xbd3507e3	-0.044196974
241	0xbd902335	-0.07037965
242	0xbc49aac0	-0.012308776
243	0x3c4a22c8	0.012337394
244	0x3d650f92	0.055923052
245	0x3d0ceb4e	0.03440409
246	0xbbec5d3f	-0.0072132642
247	0xbe16a17d	-0.1471004
248	0x3e192b97	0.14958034
249	0xbdf8e24c	-0.12152538
250	0xbe26ff36	-0.16308293
251	0x3e09f5b9	0.13472642
252	0x3d7d1ff3	0.061798047
253	0x3e0da3db	0.13832037
254	0xbe315955	-0.17319234
255	0x3de4a074	0.111634165

GAT_layers.2.f.bias f4 [64]
0	0xbd248c8f	-0.04017311
1	0xbd918db1	-0.071071036
2	0xbac566dd	-0.0015060563
3	0xbd232091	-0.03982598
4	0x3b42d555	0.0029729207
5	0xbd1ee462	-0.03879202
6	0xbda79745	-0.08183149
7	0x3c5afff9	0.013366693
8	0xbd776b0a	-0.060404815
9	0x3d93f9df	0.072253935
10	0x3d618d83	0.055066597
11	0x3da1ddb5	0.079036154
12	0xbbebe073	-0.0071983873
13	0xbccf15a4	-0.025278874
14	0x3da18fee	0.078887805
15	0x3d659318	0.056048483
16	0xbd7fe305	-0.062472362
17	0xbd6d0999	-0.05787048
18	0x3cf0a850	0.029377133
19	0xbd9c7001	-0.076385505
20	0xbd21fcc3	-0.039547693
21	0xbd7edc69	-0.06222192
22	0xbd5c863c	-0.053838953
23	0xbd8bfbb9	-0.06835122
24	0x3d822129	0.06353981
25	0x3d93bcb3	0.07213726
26	0x3acff3c2	0.0015865492
27	0x3da260a6	0.079285905
28	0x3d8a3d06	0.067499205
29	0xbb3dacd8	-0.0028942134
30	0x3d9870dd	0.07443402
31	0x3d9871cc	0.0744358
32	0xbc957db2	-0.018248413
33	0x3da2afb3	0.07943668
34	0xbd1b39f7	-0.037897076
35	0x3d9b3de6	0.075801656
36	0x3cbfd125	0.023415158
37	0xbd305a94	-0.043055132
38	0x3ca21fb8	0.019790515
39	0x3da0b38d	0.078467466
40	0xbbb3fc64	-0.005492734
41	0x3d777396	0.060412966
42	0x3d0d7811	0.034538332
43	0x3d72a25e	0.059236877
44	0xbc285e47	-0.010276384
45	0x3d95f3f9	0.07321925
46	0xbdb1d9c2	-0.08684112
47	0xbc146ac4	-0.009058658
48	0x3d1fac19	0.038982484
49	0x3ca6623a	0.02031051
50	0x3c77b813	0.01511957
51	0xbc8a5e86	-0.016890775
52	0x3cd3f6c7	0.025874509
53	0x3ada915c	0.00166754
54	0xbdabcae3	-0.08388307
55	0x3d10745c	0.03526722
56	0xbc6b3580	-0.014356017
57	0xbda25012	-0.079254285
58	0x3d7070a6	0.05870118
59	0x3a1c4fa9	0.0005962798
60	0xbcb78e62	-0.02240676
61	0x3b28484c	0.0025677858
62	0xbd582ab5	-0.052775104
63	0xbd845e7c	-0.06463334

GAT_layers.2.w.weight f4 [1, 128]
0	0xbd05bc95	-0.03265055
1	0xbe016cf3	-0.12639217
2	0x3e2f992e	0.17148277
3	0x3e1fb572	0.1559656
4	0x3e341b15	0.17588456
5	0x3d23f123	0.040024888
6	0x3cf931a0	0.03041917
7	0x3e20acc8	0.15690911
8	0x3dc92161	0.0982082
9	0xbc79de68	-0.01525078
10	0xbe084b4c	-0.13309973
11	0xbe26f286	-0.16303453
12	0xbcf1e241	-0.029526832
13	0xbddaa7cb	-0.10676535
14	0x3decf97a	0.115710214
15	0x3d9cd951	0.07658637
16	0x3e4d018c	0.20020121
17	0xbe16559d	-0.14681096
18	0xbdc0f305	-0.09421352
19	0xbe10bcfc	-0.14134592
20	0x3e30d298	0.17267835
21	0x3e50b890	0.20382905
22	0x3dda68b5	0.106645025
23	0xbcc71e5a	-0.024306465
24	0x3daabcae	0.08336769
25	0x3e01f1af	0.12689851
26	0x3e2bf950	0.16794324
27	0xbe1b4c5a	-0.15165845
28	0x3d8c9013	0.068634175
29	0x3dccd7a7	0.1000207
30	0x3deafb71	0.1147374
31	0x3dfaae05	0.12240223
32	0xbe3b07c4	-0.18264681
33	0xbe179a26	-0.14804897
34	0x3d8c3f19	0.068479724
35	0xbdb1981c	-0.08671591
36	0xbdf180d6	-0.11792152
37	0x3b2c8549	0.0026324561
38	0xbe3dd2ac	-0.18537396
39	0xbc5c887f	-0.013460278
40	0x3d0e6bb8	0.034770697
41	0x3e04a6ce	0.12954256
42	0xbd18dcbb	-0.03731988
43	0xbe03eaea	-0.12882581
44	0x3d35553a	0.04427073
45	0xbd955c68	-0.07293016
46	0xbe0b4e0d	-0.13603993
47	0x3cc1047b	0.023561707
48	0x3e1b2fe8	0.15154994
49	0x3e11bc2a	0.14231935
50	0x3de46ae7	0.111532025
51	0xbdde0353	-0.10840478
52	0x3e31373e	0.1730623
53	0x3d842aee	0.06453501
54	0x3dac6d52	0.08419289
55	0x3e323242	0.17401984
56	0x3e16a09f	0.1470971
57	0xbbaf69e6	-0.0053532002
58	0xbd4eb05b	-0.050461154
59	0x3dbdf85c	0.092758864
60	0xbe17d131	-0.14825894
61	0xbd85f67a	-0.06541152
62	0xbdf27940	-0.11839533
63	0xbd87e7ac	-0.06635985
64	0xbdcb7140	-0.0993371
65	0x3d191d30	0.03738135
66	0x3bee756d	0.007277182
67	0xbdc3f1d7	-0.09567612
68	0x3e281e39	0.16417779
69	0x3db9a4cd	0.090646364
70	0xbe45d21d	-0.19318433
71	0xbc8dceb6	-0.017310482
72	0x3e2fa5ca	0.17153087
73	0xbde7fd32	-0.1132759
74	0x3decdcba	0.11565538
75	0x3d759a61	0.05996168
76	0xbd940e55	-0.07229296
77	0xbdf8132f	-0.12113034
78	0xbde9a547	-0.11408477
79	0x3d699bfa	0.057033516
80	0xbdc2e831	-0.09516943
81	0x3ddaa67f	0.10676288
82	0x3c542218	0.012947582
83	0xbe522a54	-0.2052396
84	0xbda0fa5b	-0.078602515
85	0x3e092c27	0.13395749
86	0xbd0be650	-0.03415519
87	0x3e2c92f4	0.16852933
88	0xbdd96021	-0.10614038
89	0xbe21c828	-0.1579901
90	0xbdf8e4e0	-0.121530294
91	0x3e4853a6	0.1956316
92	0xbe2cb24e	-0.16864893
93	0xbe2aed87	-0.16692172
94	0xbc1fd8b4	-0.009756256
95	0xbdf1c90d	-0.118059255
96	0x3e39f600	0.18160248
97	0xbd383216	-0.04496964
98	0xbdbbae83	-0.09164145
99	0x3e0ac1e7	0.1355053
100	0xbd87c1d1	-0.066287644
101	0xbe57293e	-0.21011826
102	0x3c9cd1d2	0.019143019
103	0x3dfdb5da	0.12388201
104	0xbdf1bfe9	-0.11804182
105	0x3dab3cef	0.083612315
106	0xbdc84dbf	-0.09780454
107	0xbe52dc76	-0.20591912
108	0xbdaafbca	-0.08348806
109	0x3d781744	0.060569063
110	0xbe0b5dfa	-0.13610068
111	0xbc2d50c4	-0.010578338
112	0x3db954ca	0.09049375
113	0xbde3f04a	-0.11129816
114	0xbdb6f54d	-0.08933506
115	0x3d2a6003	0.04159547
116	0x3d2e42fc	0.04254435
117	0xbdcaf571	-0.099100955
118	0xbe497732	-0.19674376
119	0xbe24960f	-0.16072868
120	0xbe04c113	-0.12964277
121	0xbde717cf	-0.11283838
122	0xbe35d626	-0.17757472
123	0xbe558eea	-0.20855299
124	0xbdc1dedf	-0.094663374
125	0x3d8887eb	0.06666549
126	0xbd9b73ee	-0.07590471
127	0x3e5755d5	0.21028836

MLP_layers.0.weight f4 [32, 64]
0	0xbd2f3ffd	-0.042785633
1	0xbbb57f60	-0.005538866
2	0xbccfe804	-0.025379188
3	0x3d8024c4	0.062570125
4	0x3d927f3a	0.07153173
5	0xbd6b6398	-0.057468027
6	0x3df465d7	0.11933487
7	0xbc8cf2b7	-0.01720558
8	0x3de370a8	0.11105472
9	0xbd9df9be	-0.0771365
10	0xbd054d14	-0.03254421
11	0x3c702b50	0.014658764
12	0x3cd474f8	0.025934681
13	0x3dba13e2	0.090858236
14	0x3d903891	0.07042039
15	0x3de93dd0	0.11388743
16	0xbdc2c3e0	-0.095100164
17	0x3dd63657	0.10459583
18	0x3dcd0ab2	0.100118056
19	0x3dd3d21f	0.10342812
20	0x3dbeba0a	0.09312828
21	0xbdb02260	-0.086003065
22	0x3de3d28e	0.111241445
23	0x3d663d24	0.056210652
24	0xbd537170	-0.051621854
25	0xbda43864	-0.08018568
26	0x3dcf71e0	0.10129142
27	0xbcd0f930	-0.025509447
28	0xbdb7cbeb	-0.08974441
29	0x3d859d90	0.06524193
30	0xbd11d104	-0.035599723
31	0xbd82504c	-0.06362972
32	0xbd38d3ef	-0.04512399
33	0xbda3358e	-0.07969199
34	0xbd232718	-0.039832205
35	0xbc9f62e0	-0.019456327
36	0x3c80034c	0.015626572
37	0xbd9992e2	-0.07498719
38	0x3d313c24	0.043270245
39	0x3bdaa6a0	0.0066726953
40	0xbdf55185	-0.11978439
41	0x3d4b7428	0.049671322
42	0x3d840ed5	0.064481415
43	0x3dffcfe5	0.124908246
44	0x3d4f0cfb	0.05054949
45	0x3d549164	0.051896468
46	0xbde5d577	-0.11222356
47	0xbd5564f3	-0.052098226
48	0x3dd3b198	0.10336608
49	0x3d9a9154	0.075472504
50	0x3d9e5f1c	0.077329844
51	0xbdf79271	-0.12088478
52	0x3de7b8e8	0.11314565
53	0x3d3f0b9c	0.04664193
54	0xbd35ae6d	-0.0443558
55	0xbdf64de8	-0.12026578
56	0xbd631274	-0.05543752
57	0xbd33ab7c	-0.043864712
58	0x3d088dcc	0.033338353
59	0xbdf40850	-0.11915648
60	0x3ccd9738	0.02509652
61	0x3d3da72b	0.046302002
62	0xbdafe656	-0.08588855
63	0x3c23f380	0.010006785
64	0xbdd95b67	-0.10613137
65	0xbdad9ef2	-0.08477582
66	0xbddfe6d5	-0.109326996
67	0x3cf95528	0.030436113
68	0xbc93cb06	-0.018041145
69	0xbd88b844	-0.06675771
70	0xbd5b9c70	-0.053615987
71	0x3dda3dfb	0.10656353
72	0x3d9c1099	0.07620353
73	0x3d868b23	0.06569507
74	0x3d994c88	0.074853
75	0x3dd1763c	0.102276295
76	0x3d698734	0.057013705
77	0x3dcd582b	0.10026582
78	0x3d2d666f	0.042334016
79	0xbdb67038	-0.08908123
80	0x3db4bc34	0.088249594
81	0x3c0d78eb	0.008634786
82	0xbd8cf07c	-0.06881806
83	0xbd609e11	-0.054838244
84	0xbd044684	-0.03229381
85	0x3d5fa5a0	0.05460131
86	0x3dead83c	0.11467025
87	0x3d1ba930	0.038003147
88	0xbd7d11ec	-0.06178467
89	0xbda9502c	-0.08267245
90	0x3dba5312	0.09097876
91	0x3dbb589c	0.0914776
92	0x3dab6f18	0.08370799
93	0x3dcdeb12	0.10054602
94	0xbdebad1e	-0.11507629
95	0xbdc7f2e4	-0.097631246
96	0x3d2bf83f	0.041984793
97	0xbcebd040	-0.028785825
98	0xbdf949a9	-0.12172253
99	0xbd6feca8	-0.058575302
100	0x3b195d56	0.002340158
101	0x3d2adc6c	0.041714117
102	0xbb820f60	-0.003969118
103	0xbd088a3c	-0.033334956
104	0x3d19b87d	0.037529457
105	0xbd9875ba	-0.074443296
106	0x3df123fc	0.117744416
107	0x3d9bb82e	0.07603489
108	0xbddc95bc	-0.10770747
109	0xbca4f896	-0.020138066
110	0xbdc2b9ca	-0.09508093
111	0xbdf64aa8	-0.12025958
112	0x3daa28a8	0.08308536
113	0x3d61c8b1	0.055123035
114	0xbddcd9b8	-0.10783714
115	0x3d9cdfe4	0.07659891
116	0x3dc6d944	0.09709409
117	0xbdf05a38	-0.11735958
118	0x3d9c87b5	0.076430716
119	0xbdbae5d0	-0.091258645
120	0xbd31cc00	-0.04340744
121	0x3aeea200	0.0018206239
122	0xbd25980c	-0.040428206
123	0x3dc5b57b	0.09653755
124	0xbd23c448	-0.03998211
125	0xbdf93937	-0.12169116
126	0xbde8ef6e	-0.113737926
127	0xbc1c3950	-0.009535149
128	0x3dc598e2	0.09648301
129	0xbbeb6060	-0.0071831197
130	0x3d0093d4	0.03139098
131	0xbde74dde	-0.11294149
132	0x3dea7534	0.11448136
133	0xbd9561e4	-0.07294062
134	0xbd7adaac	-0.061243698
135	0xbd804d22	-0.06264712
136	0xbd1eeacc	-0.03879814
137	0x3db417e4	0.08793619
138	0x3d29a19c	0.04141389
139	0x3df59acc	0.11992416
140	0x3d169518	0.03676328
141	0xbc082f70	-0.008312091
142	0xbd5bf2f8	-0.05369851
143	0xbd4f759c	-0.05064927
144	0xbbdf0b00	-0.006806731
145	0x3d95386e	0.07286154
146	0x3d0b4d8c	0.0340095
147	0xbdf5f814	-0.12010208
148	0xbd74510c	-0.059647605
149	0x3c93a8c8	0.018024817
150	0x3c7d5d10	0.015464082
151	0xbd10e374	-0.035373166
152	0x3da63a30	0.08116567
153	0xbd881338	-0.06644291
154	0xbc576b90	-0.0131482035
155	0xbd9a9a0a	-0.07548912
156	0xbdf1b32a	-0.11801751
157	0x3cc7d608	0.02439405
158	0xbc91c850	-0.017795712
159	0x3d177494	0.036976412
160	0xbcc507b8	-0.024051532
161	0x3c8a5ef8	0.016890988
162	0x3d111db8	0.035428733
163	0xbbaa9440	-0.005205661
164	0x3df763cc	0.120795816
165	0x3d59320c	0.053026244
166	0xbca14618	-0.019686744
167	0xbcd27fc8	-0.025695696
168	0xbd0928b8	-0.033486098
169	0x3dc222c4	0.09479287
170	0xbd151e04	-0.03640558
171	0xbdf9f9e2	-0.122058645
172	0x3d036074	0.032074407
173	0x3daa8842	0.0832677
174	0xbdefc970	-0.11708343
175	0xbdadea8a	-0.084920004
176	0xbd277380	-0.040881634
177	0x3dc5bcf0	0.096551776
178	0x3dd54268	0.104130566
179	0x3df5d592	0.12003626
180	0x3d35a904	0.04435064
181	0xbdb15c9c	-0.08660242
182	0xbdec7cf8	-0.115472734
183	0xbd806328	-0.062689126
184	0x3d513fcc	0.051086232
185	0x3deffd42	0.11718227
186	0x3cd65428	0.026163176
187	0xbc22aad0	-0.00992842
188	0x3d3e8804	0.046516433
189	0x3d583c04	0.05279161
190	0x3d4704b0	0.048588455
191	0x3cdfee80	0.027335405
192	0xbd814e9a	-0.0631382
193	0xbdee8b2a	-0.11647637
194	0xbd714d88	-0.05891183
195	0xbdcf3e84	-0.10119346
196	0x3d06d7a8	0.03292051
197	0x3de1325c	0.109959334
198	0x3c9679a0	0.018368542
199	0x3d630d34	0.055432513
200	0xbd57ad80	-0.052655697
201	0x3d9eb854	0.077500015
202	0x3cb53818	0.022121474
203	0xbc920b50	-0.01782766
204	0xbd613a08	-0.054986984
205	0xbcf8d998	-0.030377194
206	0x3ad2e000	0.0016088486
207	0xbddb1d14	-0.106989056
208	0x3bf4a8e0	0.0074664205
209	0x3da90342	0.082525745
210	0x3bce2460	0.0062909573
211	0x3d8e5cac	0.069512695
212	0xbccf7460	-0.025324047
213	0xbdae89bc	-0.085223645
214	0xbd1381d8	-0.0360125
215	0x3de6c804	0.11268619
216	0x3dc02e26	0.09383802
217	0x3d619f10	0.055083334
218	0x3d539548	0.051656038
219	0xba50b200	-0.00079610944
220	0xbc4bb690	-0.012433663
221	0x3d80be38	0.06286281
222	0xbdaf9fd8	-0.0857541
223	0x3bdfe660	0.0068328828
224	0xbc915338	-0.017739877
225	0xbd4f5c34	-0.05062504
226	0xbc0724c0	-0.008248508
227	0xbdf14bf2	-0.117820635
228	0x3dac0428	0.0839923
229	0x3dadb4c2	0.084817424
230	0x3dc6f82c	0.09715304
231	0xbde7231a	-0.11285992
232	0x3cf64f08	0.030066982
233	0xbd92c21a	-0.07165928
234	0x3d1c23d4	0.038120106
235	0xbcdeb058	-0.027183697
236	0xbd14093c	-0.03614162
237	0x3db2d7fc	0.08732602
238	0xbcfd6b38	-0.030934915
239	0x3c157c70	0.0091239065
240	0x3d27a414	0.04092796
241	0xbd01fdac	-0.03173606
242	0xbd840060	-0.06445384
243	0xbdb012f2	-0.085973635
244	0x3ded3718	0.11582774
245	0x3dcd7118	0.100313365
246	0xbbff9cc0	-0.0078006685
247	0xbd715624	-0.05892004
248	0x3d2df590	0.042470515
249	0xbd3ec7f4	-0.04657741
250	0xbdc49b60	-0.09599948
251	0xbdea79e0	-0.11449027
252	0x3d6e3ab4	0.058161452
253	0xbceebf60	-0.02914399
254	0x3da2c1aa	0.07947095
255	0xbdc7b9f0	-0.09752262

MLP_layers.0.bias f4 [32]
0	0x3e50a51c	0.20375484
1	0xbc9b9feb	-0.018997153
2	0x3c161e10	0.009162441
3	0x3e3b82f3	0.18311672
4	0xbd5fe610	-0.054662764
5	0xbd52b380	-0.051440716
6	0xbde2fab3	-0.11082973
7	0x3e1ea670	0.15493178
8	0x3da3e895	0.08003346
9	0xbcb35b61	-0.021894159
10	0xbd17815d	-0.036988605
11	0x3e1a0ead	0.15044661
12	0xbdb95a04	-0.09050372
13	0x3db1cc98	0.08681601
14	0x3d014d5c	0.031567916
15	0xbdc191f4	-0.094516665
16	0x3e062179	0.13098706
17	0x3cf900d6	0.030395906
18	0x3dd767b3	0.10517826
19	0xbdd564b2	-0.10419597
20	0x3db43103	0.08798411
21	0xbbfb6e2a	-0.0076730447
22	0xbd2d0024	-0.042236462
23	0x3e1bec2d	0.15226813
24	0xbd424c95	-0.047436316
25	0xbc1849c8	-0.009294935
26	0x3cc34ddd	0.023840839
27	0x3e4a9736	0.19784245
28	0x3e2ee126	0.17078075
29	0x3d2f3446	0.04277446
30	0xbd596842	-0.053077944
31	0xbd48dc2b	-0.049038094

MLP_layers.1.weight f4 [1, 32]
0	0x3d6b8196	0.05749663
1	0xbe3021e7	-0.17200433
2	0xbcc97668	-0.024592593
3	0x3dfabc3c	0.12242934
4	0x3e2a916b	0.16657035
5	0xbe0cfdc3	-0.13768677
6	0xbbb79a2d	-0.005603096
7	0x3d20ff1c	0.03930579
8	0x3dcf8594	0.101329
9	0x3d018fd6	0.031631313
10	0x3d957c87	0.07299142
11	0x3e108563	0.14113383
12	0x3e2f97c0	0.17147732
13	0x3d7fd6c9	0.062460694
14	0xbc94c5f1	-0.018160792
15	0xbe0ebffc	-0.13940424
16	0x3dfa5ed7	0.122251205
17	0xbd6a7e87	-0.057249572
18	0x3e14755e	0.14497897
19	0x3e22f10c	0.15912265
20	0x3e72818f	0.23682235
21	0xbd51d162	-0.051225074
22	0x3d8ed49d	0.069741465
23	0x3e6f5a41	0.23374273
24	0x3dc330bb	0.09530779
25	0xbda3356e	-0.07969175
26	0xbe10e950	-0.14151502
27	0x3d137b4f	0.036006268
28	0x3be35e77	0.0069387513
29	0xbbd4ae0e	-0.0064904755
30	0xbcf7afed	-0.030235255
31	0xbd846939	-0.06465382
