SLIC_GAT/last3.pt (torch, 74869 bytes, 12 tensors)

GAT_layers.0.f.weight f4 [32, 82]
00000000: b2f1 7b3d 9aff 6cbe 4b45 3f3d c8f9 623d
00000010: 2a4f a9bd ed6a 4ebc 143a 2b3d 2e94 a8bd
00000020: 90be ae3a 0094 413d b0ce 563d 375c e7bd
00000030: cb3c 523e 659a c53d 901c 373e eca6 413e
00000040: 912a 25be 9b13 9a3d 81ff 0c3e 2ee1 543e
00000050: 0c13 3a3e 1fe5 2f3e c04a c6bd a37a 053e
00000060: f415 71be 2140 0b3e 6035 fabd 65fa 6e3c
00000070: e814 e3bd 2cce e33c 1c14 11be 5bf9 313e
00000080: ef06 41be b1f1 31bd d1db c73d 1303 52be
00000090: b28b 103e 958c 5c3d 9e7d 32be c139 05be
000000a0: 5ad6 433c 2d4a c03c 9db1 36be bc47 fd3d
000000b0: 368b a9bd 5330 583e af52 433e d8bb 17be
000000c0: 4d1a 15be 71a0 443e 6c26 11be ddb1 1c3e
000000d0: 47c3 60bd 8183 bb3a a2ab 0c3b 9584 46bd
000000e0: edfe 4b3d a8fb 8cbd 16da 6f3d 5d1d 503e
000000f0: 09e5 d73d 5096 82bc c553 5bbe 6893 1ebd
00000100: f363 5fbe b691 883c 63e0 013e 0c6e 29bb
00000110: efe2 383e 6ba6 d3bd 3370 1e3e f111 503e
00000120: 357f b23d 2993 893c 5144 153e 5f58 93bd
00000130: 4eb1 313a 918a 8b3d 9b5a 43be ac9b 5fbe
00000140: 186f 67bd f45f c53d 8a6d 663c 5f0e 953d
00000150: 0de0 453d b528 11be 94e3 29be f645 113e
00000160: 2c64 3abc 84e8 633d 8647 393d 12f2 643e
00000170: 1d13 0dbe 1eec aa3d 710a 253e a3b4 da3b
00000180: e62d dbbd 3066 b83d 2a8f 1abd 70a0 5dbe
00000190: 7eb6 08be c22e a9bd 9f3f 53be ba1f 08be
000001a0: c352 a63d 63da 09be d9a2 59bc d1cb b23c
000001b0: e28d 15be 7ae0 fd3d 4df3 2abd b842 a9bd
000001c0: db7e 313e 3b03 e4bd d519 0cbe adeb 79bd
000001d0: bba0 5dbc 7eb6 debc 3a54 2cbe 9928 e03d
000001e0: e827 253d 08ce c1bc 129c 2c3e da28 cd3d
000001f0: ccbe 153e a151 44bc 8790 b53c 5ad2 67bd
00000200: d50f dfbd f382 05be 69a1 483e 5869 dcbd
00000210: c53c 0bbe 1992 f03d e196 79bc a91e e53d
00000220: 5a10 44bd 1ecb 4abd 03ab ec3c 9ae8 463e
00000230: 7b2e 803c 3d31 0abe eccd 9dbd 20bb 4d3e
00000240: 18d7 923d 8494 95bd 1ea8 51be 5873 193d
00000250: 038b f339 5f8b 553e 7fee fd3d 67b6 3b3e
00000260: ce4d aebd 9bf6 0bbe 618f 3fbe c0ed cbbd
00000270: 94ed 17bd 70f3 fcbd 90f5 09be c37b dd3d
00000280: 5b61 cb3a 0928 583e c17d 33be 6dcf 25be
00000290: 77dd a9bd f3c6 623e 2909 37be f5e0 ff3c
000002a0: 463f 0fbe 5361 cf3c 8da0 5ebe 4318 87bd
000002b0: 681b 54be 1483 113e 8bad 48be 7fca 123d
000002c0: 6240 0fbe 23f8 cfbd 6dc6 12bd aa6a 8c3d
000002d0: 9d19 24be 9518 0a3e b9c8 5ebd c723 433e
000002e0: c804 29bd 3f42 1d3e 3d23 253e 7360 d03d
000002f0: e993 753d 5149 353e 0b5c 853c 51bd fbbd
00000300: e11b e6bc 3192 5dbe f0a5 66be 05d5 5dbe
00000310: 33f7 ea3d b8d9 d7bd 1b34 5abe f9d5 b3bd
00000320: c5ee fdbd be5e 163e c9a3 1bbe 532a 21be
00000330: ce82 393d c52c 2e3e 4823 f4bd eb98 8c3d
00000340: 212a 5f3e c862 7b3b 3f1e 843d b027 1f3e
00000350: a335 533e 12af 16be 556c 963d a465 0abe
00000360: 9fc6 18be 5ebe 0fbd 0913 00be 237c 463e
00000370: 6a18 25be 70d4 dcbd b56c 94bd 00eb a9bc
00000380: 899b 5e3e 661b 36bd 0608 763d 8d06 b4bd
00000390: f977 9c3d ae5a 69bd 1fb9 613d 6e84 6e3d
000003a0: 6c42 54be beb1 2f3e 0101 ffbd 6b03 67bd
000003b0: 0a9c bebb dfc6 cabc 94e0 10be 1ec4 723d
000003c0: f615 bbbd fb91 58bc a3e7 2c3e e66b 30be
000003d0: 5bbf 63be 4f6a fb3d 70cc 9fbc e9f0 f5bd
000003e0: f2d6 103d 3205 e7bc 091a f5bd b204 50bd
000003f0: 3670 05be d845 2fbe 0fb2 62be 9303 bfbd
0.061509795 -0.2314438 0.046696942 0.05541399 -0.082670525 -0.012598735 0.041803434 -0.08231388
0.0013331939 0.047260284 0.052443206 -0.112968855 0.20531003 0.09648589 0.1788199 0.18911332
-0.16129519 0.07523271 0.13769342 0.20789024 0.18171328 0.17177247 -0.09682226 0.13035063
-0.2354353 0.13598682 -0.12217212 0.014586066 -0.11087972 0.027808271 -0.14167827 0.17380278
-0.18850301 -0.043443386 0.097587235 -0.20508985 0.1411579 0.053845007 -0.17430732 -0.13010313
0.011952961 0.02347287 -0.17841192 0.12367198 -0.082785055 0.21112184 0.1907451 -0.1481775
-0.14560814 0.19201829 -0.14174813 0.15302224 -0.05487373 0.0014306159 0.0021464606 -0.048466284
0.049803663 -0.06883937 0.058557592 0.20323701 0.10541732 -0.015940815 -0.21418674 -0.038714796
-0.21815471 0.016671043 0.12683253 -0.0025852947 0.18055318 -0.10334476 0.15472488 0.20319344
0.08715669 0.016793804 0.14576842 -0.0719459 0.00067784346 0.06813539 -0.19077532 -0.21836728
-0.05650243 0.09637442 0.014064202 0.07278132 0.048309375 -0.14175685 -0.1659072 0.14186844
-0.011376422 0.055641666 0.045234226 0.22357967 -0.13776822 0.08345817 0.16117264 0.0066743656
-0.10702114 0.09003866 -0.03773419 -0.21643233 -0.13350865 -0.082608715 -0.20629738 -0.13293353
0.08121254 -0.13462214 -0.013283455 0.021825703 -0.14604905 0.12396331 -0.041735936 -0.08264679
0.17333548 -0.11133429 -0.13681729 -0.061015774 -0.013527091 -0.027186628 -0.16829005 0.109452434
0.04032126 -0.023657814 0.16856411 0.100175574 0.14623564 -0.0119823525 0.022163643 -0.05659709
-0.108916916 -0.13038234 0.19592823 -0.1076228 -0.135974 0.11746616 -0.015233726 0.111874886
-0.047867157 -0.049510114 0.028890138 0.19424668 0.015647164 -0.13495345 -0.07705292 0.20090914
0.07169932 -0.07303718 -0.20474288 0.037463516 0.00046452144 0.20853947 0.12399005 0.183313
-0.08510934 -0.13668291 -0.18707038 -0.099574566 -0.037091807 -0.123511195 -0.13472581 0.10814621
0.0015516685 0.21109022 -0.1752844 -0.16192408 -0.08294194 0.22146206 -0.17874588 0.031235198
-0.1398898 0.025314962 -0.21740933 -0.065964244 -0.2071358 0.14210159 -0.19597451 0.035837647
-0.13989404 -0.1015475 -0.035833765 0.06856282 -0.16025396 0.1348594 -0.054390643 0.19056617
-0.041264325 0.15357302 0.16126724 0.10174646 0.05995551 0.17703749 0.016279241 -0.122919686
-0.028089466 -0.21637799 -0.22524238 -0.21663292 0.11472931 -0.105395734 -0.21308939 -0.087810464
-0.12399057 0.14684579 -0.15199198 -0.15738802 0.04529076 0.17009266 -0.11920792 0.06865104
0.21793415 0.0038358439 0.064510815 0.15542483 0.2062593 -0.14715222 0.073448814 -0.13515335
-0.14919518 -0.035093658 -0.12507261 0.19383292 -0.16122594 -0.10782707 -0.07247297 -0.02074194
0.2173902 -0.044459723 0.060066245 -0.08790312 0.076400705 -0.056971245 0.055108186 0.058231764
-0.20728463 0.17157647 -0.12451363 -0.056399744 -0.005816941 -0.024753032 -0.1414817 0.059269063
-0.09135048 -0.013218398 0.16885237 -0.1722866 -0.22240965 0.12276136 -0.019506663 -0.120088406
0.035361238 -0.02820072 -0.119678564 -0.050785728 -0.13031086 -0.17116487 -0.22138236 -0.093268536

GAT_layers.0.f.bias f4 [32]
00000000: c067 97bd e943 ca3d 77c1 f03c 4826 e23b
00000010: c0f9 4ebd 6bed 4abd fc7e 9cbd 9bad 22bd
00000020: bc9b c1bd f3a4 563d 5a64 983d 3950 86bd
00000030: d466 c6bb 69ee 803d 0f74 e9bd 1732 d4bd
00000040: ffee c63d 824d 1dbc 76c0 a6bd d40c 4d3d
00000050: 8453 efbb 547b be3d 030f 5e3d 7d09 92bb
00000060: c144 d9bd f209 8bbd d014 92bc 66c7 2fbd
00000070: 150d 173c bf1e c13d c4f6 d43d 8c9b 41bb
-0.073928356 0.09876234 0.029389126 0.006901536 -0.05053115 -0.049542826 -0.07641408 -0.039716344
-0.09453532 0.0524034 0.074410155 -0.0655827 -0.0060547385 0.06295473 -0.113990895 -0.103611164
0.09713554 -0.009600999 -0.08142178 0.050061062 -0.007303657 0.09300867 0.054213535 -0.0044566975
-0.10608817 -0.06789006 -0.01783219 -0.04291477 0.009219428 0.094296925 0.10398629 -0.0029542176

GAT_layers.0.w.weight f4 [1, 82]
00000000: 15f0 69be 0022 fb3d 5a2d a2bd 4595 173e
00000010: 8b6c 1a3e 57d6 a73d 1359 0ebd 2206 5cbe
00000020: 50d5 003d e232 94be 53b6 5b3e 366f 413e
00000030: 6f79 6e3e 6a52 ce3d 3640 353d 7ffa 7c3e
00000040: 204a 71be b63a 9ebd 7908 8d3d 0f9c e53d
00000050: 7918 6a3d 8086 863d 72a9 a8bd ebc4 7c3d
00000060: 189c e73d 5f15 863d 94d3 043e 0050 4f3e
00000070: 77d9 7b3e 0f69 1b3e d368 0b3e 2385 67be
00000080: f699 68be c5fa f7bd fba7 823e 7dff e43d
00000090: 2aaf 223e 1440 93be 08f7 d2bd 2698 18be
000000a0: 140d c7bd f6cf 5dbd 291b 463d f8dc 6d3e
000000b0: b0ab 9c3b b60c 82be aa55 ef3c c7e9 e93d
000000c0: d743 173e 041b 893e ce15 043e 2dee 2f3d
000000d0: 3e7b 10be a056 9dbd cbd8 4abd 4d4f 833e
000000e0: daff 5f3e 7a92 1ebe b72e 64be ad47 7dbc
000000f0: 6a72 0bbe fcfc 013e a93b 0d3e c25f 68bd
00000100: 2fbb 073e cd1f 10be 74ee 7dbe 2ed7 6d3e
00000110: a4c2 53be 8f24 6f3e c672 133e 46fe 1f3e
00000120: 2bb2 37be 6fb9 23be a79f de3d fbf2 31bd
00000130: b9ed 573e 5cb4 0ebe 9e28 813e 5e90 1b3e
00000140: a933 9d3d 9c3e 8dbd
-0.2284549 0.12262344 -0.079188064 0.14803036 0.15080468 0.08195179 -0.034752917 -0.21486714
0.03145343 -0.2894507 0.2145627 0.1889008 0.2328851 0.10074313 0.04425069 0.24704932
-0.23563433 -0.07726042 0.06886382 0.112114064 0.057152245 0.065686226 -0.08235444 0.061711233
0.113090694 0.06547045 0.12971336 0.20245361 0.24594675 0.15176795 0.13614206 -0.22609381
-0.22714981 -0.12108377 0.25518784 0.11181543 0.15887132 -0.28759825 -0.10301024 -0.1490179
-0.09719291 -0.054153405 0.048365746 0.23228824 0.004781209 -0.25400323 0.029215652 0.114215426
0.14771973 0.26778424 0.12898943 0.04295175 -0.14109513 -0.07682538 -0.049523156 0.2564644
0.21874943 -0.15485564 -0.22283445 -0.015458983 -0.13617864 0.12694162 0.1379229 -0.056731947
0.13254999 -0.14074631 -0.24797994 0.23226616 -0.20679718 0.2335379 0.14399251 0.15624341
-0.1793906 -0.15988706 0.10870295 -0.043444615 0.21086778 -0.13935989 0.252263 0.1519179
0.07675869 -0.068967074

GAT_layers.1.f.weight f4 [64, 64]
00000000: dea5 8ebe 1013 e83b 8acb 033e 21bc 17be
00000010: f275 21be 9099 3fbe 69f8 f03d 58b7 c7bc
00000020: 5c3d a6bd 3f16 ec3d 35cd a8bc 8ea7 a4bd
00000030: c735 d43d a898 263e 1b81 503e 71d8 383e
00000040: 5edc 553e ab60 23be 679e a6bd 2b64 5c3e
00000050: 50e5 43be 43ad c4bd 4cbd 76be a648 f33c
00000060: 751d 22be 8e5c bdbd ace6 6abe 5da5 53bd
00000070: d951 183d 2ced 523e 668e 6f3a b44b 56be
00000080: 0fdc 2dbd 8b45 383d c6cd 55be 0fab 173d
00000090: 83cd ce3d f47c 0abe a2b3 3c3e 2dec c93d
000000a0: 9e91 61bb 482c 97bd ab3a c13d 44bc c5bc
000000b0: be51 7d37 65a3 4e3e 0028 31be 5cae 393e
000000c0: 11ed 88bd 67c4 1fbe 72e5 193e 7460 64bd
000000d0: 0769 a63b d218 ecbc becb 113e cba9 ebbd
000000e0: 4076 08bd f4ad 0dbe 42fa cdbc 4a48 973d
000000f0: c473 2b3e 1dfa 2ebe 39ed ef3d c747 34bd
00000100: 09a0 9bbe 824d 623d 9b0b 4e3d e366 d8bc
00000110: 9386 45bd 8ba4 5dbe d4fd e73d 347f 833c
00000120: b6e3 9e3d a096 f23c 1118 23be 373e 133d
00000130: 1168 383d f5cd 473c 385f 08be c56c 1e3d
00000140: 0b28 973d 0f5a 4e3e 1051 1a3e 50b6 aebc
00000150: 8104 0cbe d895 1f3a 587f 5abe a673 8b3d
00000160: 403b a53d 2a4a c33b 28c2 753d fdbf 333e
00000170: c7ed 26be a4d2 5cbe a5a0 25be 715b fa3d
00000180: b0c6 a8bc 2837 a7bd 9318 193e 3ab5 f33d
00000190: 52c4 dd3d fa1b 43be 0101 553e 9225 37bd
000001a0: 8201 393e 72e3 413e 77cd 96bb 4b97 d93d
000001b0: d864 373e a9b2 ecbd ce76 b13d 4a36 523e
000001c0: b1b1 a7bd 93e5 55be 584b 33bd 98da 1cbd
000001d0: 0f70 2ebe 1353 b8bd 42db 08be 5738 883d
000001e0: 3089 d4bc ec7f 343e 2fcc 5a3d 874d 7f3c
000001f0: 1e50 e8bd 1b36 c13d c2f3 d53d 7acb 4ebe
00000200: 3461 4b3d e615 4b3e c7c5 173e 9fa8 1cbe
00000210: 6c41 3ebe 499a 553e 3d7a 90bd aa27 5d3e
00000220: ba6f 8bbc 77e2 533e 12a6 2ebe d254 02bd
00000230: 2257 55bd d0d3 e4bd c3cf 37be 39cd 49be
00000240: b0b7 d93d ba9a d3bd b3dd 28be be8e 8ebd
00000250: e499 37be 47ca 00be 1449 34be 2914 353e
00000260: d63e 513d 6f26 293e 90f8 1a3e b7cb 37be
00000270: 90ad 4bbe 3ab9 2dbe 9932 21bd fb20 d83d
00000280: 817f ce3d e73d ed3d fb00 b43d 7448 2dbe
00000290: e22a 84bd 715f 31bd 11bf febc 21d0 3a3e
000002a0: 7459 a53d 3b95 313e 010f 8eba 0afa 33be
000002b0: d3ae 2b3e b44d 0ebe 9aec 69bd 344c ce3d
000002c0: cff0 b53d 0601 44bd dfcd cf3d 0fcc 4d3d
000002d0: 4ba3 7fbd 22b3 07be 1ca0 0fbe ce0f e1bd
000002e0: 149e 0f3d af7c 5a3e 5342 34be fc56 243e
000002f0: 544e f53d c52e 823d a881 3abe e90b 8fbd
00000300: 41c0 91be fe96 233e d71f 3cbe fc6c 403e
00000310: 9533 f6bd 4c21 05be b785 44bd 0c11 c13d
00000320: b166 3bbe 7db8 cc3d 5181 b7bd 915c 1bbd
00000330: 0cb8 cc3d 1d5c e13b 1dfa 413e 93bd 4abd
00000340: eb5c b23d e8da c3bd d37d 04be b08a 483d
00000350: f629 793e 25f5 9e3d 80b9 bebd 5708 53bd
00000360: 833c 33bd c8fc 1e3e de26 093e cfb6 f83d
00000370: 87a6 e6bd 7b3d af3d f0fc 0bbe c2b6 503e
00000380: 5523 8cbe d2d6 b2bd 8d39 383e 73e3 13be
00000390: f066 cdbd 55d9 74be 56e9 9d3d 2256 883b
000003a0: b23d 7c3e 95a0 293e 158e 05be 0351 3fbe
000003b0: 25b7 d6bd 5b53 8c3e ef29 673e 9885 d83d
000003c0: af8b 35bd ff60 00bd 19f7 863d 2467 483e
000003d0: 2729 0bbe ea4f febd 6216 313e d6d1 563e
000003e0: 835f 51be dbb7 14be 2fd0 923d 9c2f 08be
000003f0: 0707 ba3d 1959 edbd aecf 0f3e 328b 4d3e
-0.27860922 0.0070823506 0.12870613 -0.14817859 -0.15767649 -0.18710923 0.117661305 -0.024379417
-0.08117172 0.115276806 -0.020605663 -0.08039771 0.1036182 0.16269171 0.2036175 0.18051316
0.20884845 -0.15954845 -0.081356816 0.21522586 -0.19130445 -0.096033596 -0.24095649 0.029697727
-0.1583155 -0.09246169 -0.22939557 -0.051671375 0.03718743 0.20598286 0.00091383455 -0.20927316
-0.042446192 0.044988196 -0.20879278 0.03702837 0.10097792 -0.13524228 0.184279 0.098595
-0.003441907 -0.07381493 0.09435018 -0.024137624 1.5099007e-05 0.20179518 -0.17300415 0.18132919
-0.06685842 -0.15602265 0.15028933 -0.055756047 0.005078438 -0.028820429 0.14237878 -0.11506995
-0.033315897 -0.13835889 -0.025143746 0.07386835 0.1674338 -0.17087598 0.117151685 -0.044013765
-0.30395535 0.0552497 0.050304037 -0.026416248 -0.048224043 -0.216448 0.11327711 0.016051866
0.07758276 0.02961284 -0.1592715 0.035948005 0.04502112 0.0121951 -0.13317573 0.03867795
0.073806845 0.20151542 0.15069985 -0.021327168 -0.13673593 0.0006087697 -0.2133764 0.068091676
0.08067942 0.005959769 0.059999615 0.17553706 -0.16301642 -0.21564728 -0.16174562 0.12224472
-0.020602554 -0.08164817 0.1495078 0.118998006 0.10828461 -0.19053641 0.20801164 -0.044713564
0.18066981 0.1893442 -0.00460213 0.1062456 0.17909563 -0.11557514 0.08665238 0.20528522
-0.08188189 -0.20888357 -0.043773025 -0.038294405 -0.17034934 -0.0900022 -0.1336489 0.06651371
-0.025944322 0.17626923 0.05341738 0.015582449 -0.11343406 0.09434148 0.10446884 -0.20194808
0.049653247 0.19832572 0.1482154 -0.15298699 -0.18579644 0.20859636 -0.07054565 0.21597162
-0.017021049 0.20691858 -0.17055538 -0.031819172 -0.05208505 -0.111732125 -0.17950349 -0.19707192
0.10630739 -0.10332246 -0.16490822 -0.0696082 -0.17929798 -0.12577163 -0.17606002 0.17683472
0.051085316 0.16518568 0.15133882 -0.17948805 -0.19890428 -0.1696519 -0.039354894 0.105531655
0.10082913 0.115840726 0.087892495 -0.1692217 -0.06453492 -0.04330391 -0.031096967 0.18243457
0.080737025 0.17342083 -0.0010838212 -0.17575851 0.16765909 -0.13896829 -0.057110406 0.10073128
0.08883821 -0.04785254 0.10146689 0.050243434 -0.062411588 -0.13251927 -0.1402592 -0.10989343
0.035062864 0.21336626 -0.17603426 0.16048807 0.119778305 0.06356577 -0.18213522 -0.069846936
-0.2846699 0.15975568 -0.18371521 0.18791574 -0.12021557 -0.13000983 -0.047979083 0.094270796
-0.18300892 0.09996126 -0.08960212 -0.037930075 0.09996042 0.006877436 0.18943067 -0.0494972
0.08709129 -0.095632374 -0.12938623 0.048960388 0.24332413 0.07761601 -0.09312725 -0.051521625
-0.04375888 0.15526116 0.13393733 0.12144243 -0.11262231 0.08556648 -0.13670707 0.20382217
-0.27370706 -0.0873238 0.17990704 -0.14442234 -0.100293994 -0.2391103 0.07710521 0.0041606585
0.2463291 0.16565163 -0.13042481 -0.18683247 -0.10484151 0.27407345 0.2257459 0.10572356
-0.044322666 -0.031342503 0.06590099 0.19570595 -0.13589917 -0.12417586 0.17293695 0.20978484
-0.20446591 -0.1452326 0.07168614 -0.13299412 0.090833716 -0.1158926 0.14044067 0.2007263

GAT_layers.1.f.bias f4 [64]
00000000: ff1d ec3d 27f3 3d3e 4e70 babd cbc8 133e
00000010: 3089 0cbe f86a ef3d 3bbf 573e 740e 2d3e
00000020: bbf2 14be 50a2 abbd 653b 97bd 66e2 ccbd
00000030: b39a 263e 0b70 0e3e 0ae5 383e 13fa e23d
00000040: 8e8a 07bd 294a dfbc 9bbe 18bc 123f 103e
00000050: 92de c8bd 31e9 153e c848 a43d d34e 0e3e
00000060: d49b 1c3e 4bc1 69bb fa15 1cbd 6d36 ef3d
00000070: 60d1 a1bb 89f8 5a3e a01b 3e3e a548 223e
00000080: e4f8 ccbd ce61 8fbc f80c 2fbd 6f66 ec3d
00000090: d698 4abd 1c34 2c3e edad 84bd 5d97 5bbc
000000a0: 2b8d 26bd 59db d1bd e332 2e3e 1e4c 003e
000000b0: 075e e2bb 9644 3dbd 6b0e aebd 5591 ec3d
000000c0: 6149 37bb fb8a 9f3d b184 663e bd90 223e
000000d0: a77a 1bbd 567b 1b3e e92f 10bd 8c27 d5bd
000000e0: 83e6 293e 97a4 53bd 2e2b 643e b97d f33d
000000f0: 71c1 a1bc 19a8 0c3e 556c 86bd 4506 ecbd
0.11529159 0.18549787 -0.09103452 0.14432065 -0.13724208 0.116903245 0.21069042 0.16900045
-0.1454572 -0.08380568 -0.073843755 -0.100041196 0.1626995 0.13909929 0.18056121 0.11082854
-0.03309112 -0.027257042 -0.009322788 0.1408656 -0.09808077 0.14639737 0.080216944 0.13897257
0.15293819 -0.003566819 -0.038106896 0.11680303 -0.0049382895 0.21383871 0.18565226 0.15848024
-0.100084096 -0.017502692 -0.042736977 0.11542975 -0.049462162 0.16816753 -0.06478486 -0.013402787
-0.040661972 -0.10246915 0.17011599 0.12529036 -0.0069081816 -0.046207987 -0.08498844 0.115511574
-0.0027967321 0.0779018 0.22511555 0.15875526 -0.037958767 0.15183768 -0.03520194 -0.104079336
0.1659184 -0.051670637 0.22282097 0.11889214 -0.01974556 0.13735999 -0.065636314 -0.11524633

GAT_layers.1.w.weight f4 [1, 64]
00000000: bdac 76be 63f8 5fbd bd4b fdbd a7a2 3c3a
00000010: 572b a33d 961e 863b 855e 87be cd59 79bc
00000020: 90c2 2e3e 3da0 e53d f1b5 e03d 1a75 a2bd
00000030: 45ad 6cbd 9a05 94be 5736 b33d 2901 313c
00000040: 4695 153e a001 ed3d d0e3 59be 2da9 993d
00000050: 50d0 3f3e 1b9b 3fbe a762 fe3d 0f04 75be
00000060: bb8e 8dbe 681c 2c3e 06c8 9ebe fa85 ecbd
00000070: 4aff 0fbe 4460 44be 36eb d2bd 3c7d 853e
00000080: 59b5 793e dede 8f3c 31a9 a0bd affe 8c3e
00000090: b2db 5e3d 0124 b03e a441 89be 27cc a0be
000000a0: 1c93 51be eb2b 18bd c535 5e3c 299c 023e
000000b0: 1e3e 67be 1701 b93d 1080 87be b106 4a3e
000000c0: eacb a13d bbe8 83be 7735 4ebe 9d08 b23c
000000d0: 6a4c d73c 9feb 2c3d b1a0 8abd 657f 623e
000000e0: 327d 353e 048a 6d3e e360 8dbe 626f 373d
000000f0: a8ec 95be 8c60 b4bd 9c36 05be d69f 8dbd
-0.24089332 -0.05468024 -0.123679616 0.0007195868 0.07967251 0.0040930016 -0.264393 -0.015219164
0.17066407 0.11212204 0.109722026 -0.079324916 -0.05778243 -0.28910524 0.08750599 0.010803499
0.14607725 0.115725756 -0.2127831 0.07502971 0.18731809 -0.18711512 0.1242116 -0.2392733
-0.27647957 0.16807711 -0.3101198 -0.115489915 -0.14062229 -0.19177347 -0.10298769 0.2607211
0.24385585 0.017562326 -0.07844771 0.27538058 0.054408737 0.3440247 -0.26807892 -0.31405756
-0.20466274 -0.03715126 0.013562624 0.12754883 -0.2258229 0.09033411 -0.2646489 0.19729115
0.07900222 -0.25763497 -0.20137583 0.021732623 0.026281554 0.042216893 -0.06768931 0.2211891
0.1772354 0.2319718 -0.2761298 0.044783957 -0.29282117 -0.08807477 -0.13009113 -0.06915252

GAT_layers.2.f.weight f4 [64, 128]
00000000: c99f f2bc b0f2 863c 6c0d dd3d 6100 0f3d
00000010: 413d 74bd 79cc d3bd a115 2dba dac2 bebd
00000020: 11c4 2a3d 0962 323e 7927 1fbe 1648 b3bd
00000030: 2344 d63c d56c 1cbe 8083 983d a1ea 47be
00000040: e4e6 f13d 7130 093d d689 153e e241 32be
00000050: 5430 babb 0d4b 10be feb8 ecbd d055 cfbd
00000060: 9469 52be 73bf b53c f4a7 e93d 8c93 1ebe
00000070: 811b 1abe 2c3d 103e 042d bf3d 7a74 27be
00000080: f210 c83d 5961 053e d9f4 113e 8bf0 3b3d
00000090: 038e 093e 26f5 ab3d d9d1 2dbe 67f6 d83d
000000a0: 747d e6bd 1e0f 1dbd 86f8 ae3c 3fc1 8c3d
000000b0: 88cd ea3d 50e9 f33d 9c03 353d 9779 18bd
000000c0: 9532 a2bd 5855 afba 91b3 5b3d 782a 52be
000000d0: 2c76 863d f3f5 29be 2462 37be d53c cc3d
000000e0: e0f9 debd 3655 033e 6b9b bb3d 73af eabc
000000f0: 7daa 353d 066a b9bd d8b2 81bd b523 c4bc
00000100: 047b 0d3d 8375 7bbc 1cc4 33be 3641 f6bd
00000110: 7276 623c 5a15 45be 4643 19bc 744d 2bbe
00000120: 2970 1fbe 0723 20be bd6a f0bb e11a 3abd
00000130: 337e 813d a32d cd3d 6fad 02be 2b72 c13d
00000140: 5ba7 a43d 79b2 46be a733 0b3e f432 1dbe
00000150: b4d7 15bd e4c2 37bd 3492 493b 57ee b13d
00000160: 282e 13bd b4b6 573d 0c0e af3d 79c2 06be
00000170: a06f c8bc ba8a 2ebe f8d8 3a3d 17e9 273e
00000180: 1066 afbd 7ca1 c5bc fd96 e33d 5804 133e
00000190: e600 85bd 585b fb3c a0e0 0bbe d12b 45bd
000001a0: 8e5c 23be 8025 1e3e 398f 6f3d 52c2 ac3d
000001b0: 2f8f 9abc ef3d 233c 21c1 8b3d 5366 6dbc
000001c0: fb74 1d3e 0964 62bc 7d76 1cbd af72 14be
000001d0: def7 cabd 25d5 0b3e 85bb abbb 265e 05be
000001e0: 001c c6bd 7fca 2bbe adab 03be afa0 0bbd
000001f0: 4881 0bbe b568 133e 9bdc 2bbd 4913 28bd
00000200: 5b77 0bbd 20f2 1b3e 0775 acbd b656 323e
00000210: bdc2 9a3b cbf7 623e 0b91 0cbd dc6d 863e
00000220: 4a30 0dbe bba6 b93d 6991 de3c 67fd 7bbd
00000230: 15d9 cb3d b73a 093e 018d 763e 779f 233d
00000240: 18cc f0bd 1bfc d6bd c583 cabc 44e6 653e
00000250: 0d6a 8dbd f237 173d d262 363e a9d4 b6bc
00000260: 1b0a 8a3d 56a4 20be 20a8 eebd 1f60 83bd
00000270: 18ad b3bd e6ac 8dbb afee 2bbd a167 303e
00000280: d94f aebd 4349 8dbd a81c 0b3e 843a 523e
00000290: c175 e0bd 909b 5c3e 1c91 643d 3cfa 873d
000002a0: 104d 7fbd f3ce 8cbd 357a 203e a01e 033e
000002b0: fb51 0a3e a1ef dfbd a22c bb3d c2b5 e53b
000002c0: fbc4 37be dd68 d23d ca84 6abd aeb7 c93d
000002d0: 5be0 6ebd 2f36 88bd 7e65 cf3d 22c3 c23b
000002e0: 4130 1e3d cd8b 40bd 4e57 803e 1c4d ec3b
000002f0: 856b c73d c39a 74bc 90f9 a93c 96b6 70bd
00000300: f226 5d3e 2286 dabc 5a50 23bd 0b77 05bc
00000310: bb98 94bd ce94 643e 61c2 463d 9091 233e
00000320: ebf9 aabd 13ff af3c 75a4 f23b 50cd 35bd
00000330: 0df7 183e 91fb e43d 8d5c b2bd 9697 92bd
00000340: d746 ad3d 3c18 14be 60ee fc3d 0507 8abd
00000350: 8891 c6bd 45aa 0fbc 2b78 3b3e ea38 6a3d
00000360: 0467 0e3e 1c26 143e c14a ab3d fbfa 013e
00000370: 203f 30be 9848 213e 1616 683e 53ab 41bd
00000380: 4921 dc3d 08e0 e4bd bcc7 2cbe 08c4 913d
00000390: de25 303d 93d5 0b3e 67df cb3d b749 0bbd
000003a0: 7b7e 013e f5e0 9dbd 3b0f be3d 894a 803e
000003b0: ad72 2b3e ec91 86bd 172f a8bd 8ce7 d93d
000003c0: 82f7 ddbd ab30 923c 1e1b c9bd 3ce1 9b3d
000003d0: 886e c43d 4e73 4f3d eb7c 04be 676a 00bd
000003e0: 2640 2f3e 014a 70bc 05ed 423e a80a af3c
000003f0: 90ae 9bbd a081 963c 3651 2dbe 1128 0cbe
-0.029617207 0.016473144 0.10793576 0.03491247 -0.05962873 -0.103417344 -0.0006602649 -0.09314509
0.04169089 0.1742021 -0.15542401 -0.08753984 0.026155537 -0.15275891 0.07446957 -0.19523098
0.11811617 0.033493463 0.14603361 -0.17407945 -0.0056820307 -0.1409113 -0.11558722 -0.10123789
-0.20548087 0.022186017 0.11408988 -0.15485972 -0.15049554 0.14085835 0.09334758 -0.16353026
0.09768857 0.13025416 0.14253558 0.045883697 0.1343308 0.08396368 -0.16974582 0.105938725
-0.11254397 -0.038344495 0.02135874 0.06872796 0.11464983 0.11909735 0.044192895 -0.037225332
-0.07919804 -0.0013376875 0.053638045 -0.20524013 0.06565508 -0.16597728 -0.17908531 0.0997254
-0.108875036 0.12825474 0.09160503 -0.028648114 0.044352043 -0.090534255 -0.0633294 -0.023942808
0.034541145 -0.015347841 -0.17555279 -0.12024157 0.013822185 -0.19246426 -0.009354418 -0.16728765
-0.1557013 -0.15638362 -0.007336943 -0.04543579 0.06322899 0.1001847 -0.12761472 0.09445604
0.08039733 -0.1940402 0.13593923 -0.15351468 -0.036582664 -0.044863597 0.003075731 0.08688038
-0.03593269 0.052664474 0.08547601 -0.13160123 -0.02446729 -0.17045107 0.045617074 0.1639751
-0.08564389 -0.024124853 0.11112783 0.14357126 -0.06494312 0.030683205 -0.13659906 -0.04813749
-0.15953276 0.15443993 0.058486197 0.08435501 -0.018867103 0.009963497 0.06823946 -0.014489728
0.15376656 -0.013817796 -0.038198937 -0.14496873 -0.09910558 0.13655527 -0.00524086 -0.13024196
-0.09673309 -0.16776465 -0.12858458 -0.034088787 -0.13623536 0.14395411 -0.041958433 -0.041034017
-0.034049373 0.15229082 -0.08420759 0.1741589 0.0047229216 0.22164838 -0.03431801 0.2625569
-0.13787952 0.090650044 0.027168946 -0.06152096 0.099535145 0.13401304 0.24077226 0.039947
-0.11757678 -0.10497304 -0.024721036 0.2245112 -0.06904993 0.036918588 0.17811134 -0.022318201
0.06740209 -0.15687689 -0.11653161 -0.06414818 -0.087732494 -0.0043235896 -0.041975673 0.17227031
-0.085113235 -0.06898739 0.1358515 0.20530134 -0.1095996 0.21543717 0.05580245 0.06639525
-0.062329352 -0.0687541 0.15671618 0.12804651 0.13507836 -0.109343775 0.091393724 0.0070101926
-0.17946236 0.10273907 -0.057255544 0.09849487 -0.05831943 -0.0665096 0.1012678 0.005943672
0.038620237 -0.047008324 0.25066608 0.0072113406 0.097373046 -0.014929476 0.020748883 -0.058767878
0.21596888 -0.026675288 -0.03987155 -0.008146058 -0.072556935 0.2232239 0.048525218 0.15973496
-0.08348449 0.021483934 0.0074048587 -0.044385254 0.14937992 0.11180795 -0.08709059 -0.07157819
0.08460777 -0.1446237 0.12350154 -0.0673962 -0.09695727 -0.008768623 0.18307559 0.057183184
0.13906485 0.14467663 0.083638676 0.12693398 -0.1721158 0.15750349 0.22664675 -0.047282528
0.10748536 -0.11175543 -0.16873068 0.07117468 0.043004863 0.13655691 0.0995472 -0.034005847
0.12645905 -0.07708923 0.09280249 0.25056866 0.16742964 -0.06570801 -0.08212107 0.10639867
-0.10838224 0.017845472 -0.09819625 0.076113194 0.09591395 0.050647072 -0.12938277 -0.031351473
0.17114314 -0.014666081 0.19035728 0.021367386 -0.076016545 0.018372357 -0.16925511 -0.13687159

GAT_layers.2.f.bias f4 [64]
00000000: 4de9 803d 2617 1d3e 32eb 673d 4f69 433e
00000010: e261 89bb b222 8dbc ab07 083e d743 313e
00000020: c426 263e 1f96 4a3e 194e 2dbd 272a 34b9
00000030: a7ed 1e3e c743 b7bd 6b3f 1b3e b997 433e
00000040: 7dc5 a53d 8731 4e3e 6417 6cbd 7620 453e
00000050: 3f60 b03d be5c 7c3d 85c8 74bd 0a06 2a3e
00000060: 37d2 9fbd b70f 273d 106b 5db9 4a40 0d3e
00000070: a02d 453d 1aa7 013e 15ff 89bd 10f8 7cbd
00000080: b8e5 613e 97ed 9abd ad34 093e 1a86 ebbc
00000090: 8db2 a3bd cf24 f5bc bb90 213d eae9 ff3c
000000a0: 9446 283e 38c6 bb3d 8e3b 513e eef5 853d
000000b0: bb2e 2e3f 1088 38bc 9a50 8e3e d0f3 c3bd
000000c0: 7c49 e03b 1f08 c6bd 4476 3e3e c705 d73d
000000d0: e4c2 22bd ce35 203e de47 a8bd 5d16 5b3c
000000e0: 408c 073e 1320 b23d 151a 183e c234 0fbd
000000f0: 135c d73d 03b5 8f3d 04a5 f9bc 99f6 773d
0.062944986 0.15340862 0.056620784 0.19083141 -0.0041925767 -0.017228458 0.13284175 0.17311035
0.16225725 0.19783829 -0.042310808 -0.0001718184 0.15520345 -0.089484744 0.15160911 0.19100846
0.080943085 0.2013608 -0.057639495 0.19250664 0.086121075 0.061611883 -0.059761543 0.16603866
-0.07803767 0.04078647 -0.00021116086 0.13794056 0.048139215 0.126614 -0.06738106 -0.06176001
0.22060287 -0.07564848 0.13399 -0.028750468 -0.0799304 -0.029924778 0.039444666 0.031239469
0.16433173 0.091686666 0.20432875 0.06541048 0.68040055 -0.011262909 0.2779587 -0.09567988
0.0068446975 -0.09669518 0.18599802 0.10499149 -0.039736643 0.15645525 -0.082168326 0.013372031
0.13237095 0.08697524 0.148537 -0.034962423 0.10515609 0.07016947 -0.030474193 0.06053791

GAT_layers.2.w.weight f4 [1, 128]
00000000: 525b 09be fcdc 103e a79b 593e 298a 12be
00000010: d8fb 1a3d 68eb 263e 40b0 e03d 64d8 27be
00000020: ca11 063e 61ce 953d c642 0e3e 136a 4bbe
00000030: 8cfd 343e 8a04 2b3e 7447 2e3e 2623 9e3d
00000040: 9745 a33d 3448 2e3e d786 253e 53b4 8abc
00000050: 1240 113e 24ef a63e 7d13 983e 73aa 45be
00000060: d18b 433c c5f2 333e 2645 29be 0539 45be
00000070: 781c b3bc 5650 c8bd cf84 5abd b8e9 e63d
00000080: dda2 08be d72e 2e3e c2f1 083e 3644 a43e
00000090: 9a00 803a 5a7d 853d 2d59 96bd 6f5d 3b3e
000000a0: 4e70 4ebe 5b56 debd c273 a63d 6b95 ac3e
000000b0: 317e 19be 89fc 1cbe c646 5cbe f30b e43d
000000c0: 8474 e43d 2577 c23d acd8 75bd 8c5b b63d
000000d0: 630e dfbd 4c4f e83d d83e 19be ae51 323e
000000e0: e42e 46be b282 31be 23ba e3bd 5f07 403c
000000f0: a0ee 48be 9331 143e 5864 86bd 208b 10bd
00000100: 548b 2abe 02ca d8bb 4a09 1c3e 23e9 6c3d
00000110: 030f 60be cf50 55be cb53 333e 2598 7c3b
00000120: d2d1 29bd a5a1 2d3e 7d8d b43d c139 43bb
00000130: 4747 893d e335 0fbe a588 8f3d 729d 1bbe
00000140: c9e2 4b3e bd7b 62be b3cd 2fbd c2bf e2bc
00000150: 2193 f43d 9cb1 e4bd 9da7 bd3d d216 d5bd
00000160: f067 4abe fe38 273e 925e 9a3d 72e1 63be
00000170: a340 46be fffb 163e 7289 8fbd 90b7 3cbe
00000180: 50bf 2fbe 6343 273e bf0f 2bbe b56c 6c3e
00000190: 2345 acbd b358 e33d 221a 60be 6b0f 17be
000001a0: 085d 9cbc 81a5 bc3d f422 29bd f6b8 573e
000001b0: ef0f 09be 7e47 03be bd57 233d 189d 5c3e
000001c0: f877 ee3b dc60 3cbe ba49 d93d 0ed8 b53d
000001d0: 1b97 133d 50e5 75bd 5c28 113e c430 c13c
000001e0: 4d17 d83d 9e26 3f3e a2c3 23be 97ab 9c3c
000001f0: 16a8 f33d 9405 433e a789 f239 7a16 9f3d
-0.13413742 0.14146799 0.21250783 -0.14310516 0.037837833 0.16300738 0.10971117 -0.1639114
0.13092723 0.07314754 0.1389266 -0.19864683 0.17674845 0.1670095 0.17019445 0.07721548
0.079722576 0.17019731 0.16164719 -0.016931688 0.14184597 0.32604325 0.29702368 -0.19303302
0.01193519 0.17573078 -0.16530284 -0.19260032 -0.02186416 -0.09780948 -0.053349312 0.11275047
-0.13343377 0.17010055 0.13373473 0.3208329 0.0009765804 0.065180495 -0.07341228 0.18297361
-0.20160028 -0.10856315 0.08127548 0.33707747 -0.14989544 -0.1533071 -0.21511373 0.11135092
0.11155036 0.09495381 -0.060021088 0.0890418 -0.10891416 0.1134325 -0.14965379 0.17413971
-0.19353825 -0.17335013 -0.11119487 0.011720507 -0.19622278 0.14472036 -0.06562108 -0.03528893
-0.16654712 -0.006615878 0.15237918 0.057839524 -0.21880727 -0.20831607 0.17512433 0.0038542834
-0.041459866 0.16956194 0.08816049 -0.0029789063 0.06703048 -0.139854 0.07008485 -0.1519678
0.1991073 -0.22117515 -0.04292078 -0.027679328 0.11942125 -0.11166689 0.09260485 -0.10404743
-0.19766212 0.16330335 0.07537569 -0.2225397 -0.19360594 0.14744566 -0.070086375 -0.18429399
-0.17162824 0.163343 -0.16705225 0.23088343 -0.08411624 0.111009024 -0.21884969 -0.14751975
-0.01908733 0.09211255 -0.0412931 0.21066651 -0.13384984 -0.12820241 0.039878596 0.21544302
0.007277485 -0.18396324 0.10609765 0.088791 0.036032777 -0.060033143 0.14175552 0.023582824
0.10551319 0.18667075 -0.15992597 0.01912479 0.11897294 0.19045097 0.00046260396 0.07767959

MLP_layers.0.weight f4 [32, 64]
00000000: 42e6 73bc 1ab1 bf3b 44a0 1dbc 320b bdbd
00000010: 41fc 0cbd 5a6e f33c 0a39 fbbd 3711 cd3c
00000020: 66a1 ccbd 4c3c 563d 0838 f9bd ed60 a73d
00000030: 173d c0bd bffc 813d 84d0 72bd 0d66 fabd
00000040: cdfb 143d 9b4f bdbd 9c5b cd3d dbac ecbd
00000050: 0756 01be de56 843d 43e3 85bb dd65 d13d
00000060: 780e cb3c 8595 9c3d dc53 b63d acaf 1d3d
00000070: 4f15 42bc 176a e43c 9c8f 64bd 26f2 7c3d
00000080: f872 fa3b 34a1 2cbd 6b0d 97bd 63d3 f33d
00000090: 62a5 61bd 625d 023d 5316 373d 25e5 f2bd
000000a0: edf5 5ebd 9e4a b43d 1f9c 95bd 956e 8ebd
000000b0: 2380 8fbd 11db bebd ef34 ba3d 7178 563d
000000c0: 46a0 a2bd 0025 2bbd 6cd3 843d 1c5b 683d
000000d0: 13ce 34bd 6fe9 c4bd 478a 8c3d 3455 7d3c
000000e0: ab9d b6bd 6ac2 803d 4620 d5bd 7dd3 98bd
000000f0: f2d8 efbd e1f4 c4ba d049 7ebd cc68 debd
00000100: daef 313e c221 7fbc ffaa 513d 320c 213e
00000110: de42 843d 26bd 93bc 33f1 fbbc d296 a13d
00000120: b6f5 933c 058c 163e bb0f 433b 02c4 bb3d
00000130: 7274 223e 297f 27bd 8505 9e3d 78a7 943d
00000140: b042 043e 29c9 1f3f e941 0ebe 61e1 8ebc
00000150: 7825 ad3d 67a4 b6bc a187 06be 2283 763c
00000160: 9b8a ba3d d311 ab3d a2b3 a3bc 4abb aa3b
00000170: 567d 3bbd c5a9 833d 36a5 aebd cd44 49be
00000180: 8e3d 923e 4ef0 453c 77e1 c9bc 4cf6 9fbd
00000190: 96c6 02bd 26e0 dcbd cf68 fd3c a8ec 143e
000001a0: e443 c13d af34 143f b938 2f3e 5a00 9c3d
000001b0: 395f 6e3f b78e b2bd 8fe1 313e 8927 e43d
000001c0: b303 17bd e29f b93d f1fc 023b 44e8 d23c
000001d0: 5cce 06bd 2bb6 073e 9930 33be 3cd6 b1bd
000001e0: e4df de3d 77e0 ed3d 2805 56bd aed3 2dbb
000001f0: e4fe 96bb 2648 463d b63b 18be 3346 023e
00000200: 492e adbc 61d0 2d3d 537a 2e3d 00fe 00be
00000210: e422 a53d 7473 f1bb 51ce 4fbc 6fea ca3d
00000220: 4ffe aebd 8d97 a73d 71af 03be f5c1 39bd
00000230: 3f48 c1bd c68c 06be a30a 853c 1985 aabd
00000240: ae77 92bd 7b45 71bd 13b0 4e3c e6ba 00be
00000250: 7ffe 64bd 078a 08be 1170 e2bd 8ede e23d
00000260: b00f f8bd 7d90 4ebd 1596 63bd 1fd6 ce3c
00000270: cd16 09be 04cf 8b3d 229d febd 6887 fabd
00000280: 7b88 f2bd 1bec 973d 1a77 bb3d f007 ce3d
00000290: 3298 6f3d 153b d6bd 1db0 edbd 4289 e7bd
000002a0: 20dc c93d e595 e8bd 40d0 0f3d a610 4ebd
000002b0: ba76 58bd 9e3c 00be d350 f53c 4cd7 a63c
000002c0: 0b91 35bc a86c 463d 1c7d 1bbd 2f6b b7bd
000002d0: 8137 aa3c 3e9a ebbd d3f4 bfbc cadf a0bc
000002e0: c92b aabc c047 a4bd 78f7 d53d ded7 3b3d
000002f0: 05d6 52bd 4bc6 483d f7d0 533d 3603 4e3d
00000300: c11c 893d e533 6a3d b0bd a5bc 152c 9f3d
00000310: 696c 543d da7f c03d 049f 93bd 92bc 893d
00000320: 2763 c23d 54be 623d e605 c93d 0ea6 aebd
00000330: 9c2e a13b 8f4b d8bc 9922 9f3d d720 303d
00000340: a2dc d53d 3b28 dbbd 1885 ed3c c283 f6bd
00000350: a99c 8abd c133 43bc 4ea0 aebd 4bab bfbd
00000360: 50b8 6c3d c99d df3d 0d11 74bd 0f06 4bbc
00000370: 72f8 8cbd ca07 afbd 045d f9bd acc6 71bd
00000380: a567 04be a09c e93c 4379 e1bd 4097 4dbc
00000390: 666e f23d 802e 98ba 924e 0ebd c86e 84bd
000003a0: 8bd3 e0bd 7267 8bbd cef1 c83d 8edb 90bd
000003b0: d4ba 853d 90b5 4bbc 15c7 583d 9aed a23d
000003c0: 305c 98bc 10c1 19bc 1c23 8cbd 3adf 85bc
000003d0: 1c3d 99bd c61f b5bd 6900 e53d c67a 19bd
000003e0: c703 1cbd b0ea edbd ee6a 9cbd 84d9 5abd
000003f0: f53f 9abc e861 1b3d 409d e2bb bee6 03bd
-0.014886441 0.0058499696 -0.00962073 -0.09230651 -0.034420256 0.029715706 -0.12266739 0.025032623
-0.09991722 0.052303597 -0.1216889 0.08172784 -0.09386652 0.063470356 -0.059280887 -0.12226496
0.03637295 -0.09243699 0.10027239 -0.11556407 -0.12630473 0.06461881 -0.0040859296 0.10224507
0.024787173 0.07645706 0.08902714 0.038497612 -0.011845901 0.027882619 -0.05580102 0.06175437
0.0076431 -0.042145923 -0.07375606 0.11905553 -0.055089362 0.031827338 0.044699024 -0.11860112
-0.05443375 0.088032946 -0.07305168 -0.069546856 -0.07006862 -0.09319127 0.090921275 0.052360956
-0.07940726 -0.041783333 0.06485638 0.056727514 -0.04414184 -0.096148364 0.06862312 0.015462209
-0.089167915 0.062870815 -0.10406546 -0.07462213 -0.11711301 -0.0015026593 -0.06208211 -0.10859832
0.17376652 -0.015572013 0.051188465 0.15727308 0.064580664 -0.018034529 -0.030754661 0.07890095
0.0180615 0.1470185 0.0029764015 0.09168245 0.15864733 -0.040892754 0.077158965 0.07258505
0.12916064 0.6241632 -0.1389233 -0.017441453 0.08454412 -0.02229519 -0.13137676 0.015045913
0.09108468 0.08353009 -0.019983117 0.005210315 -0.045773827 0.06428865 -0.08527605 -0.19655152
0.28562587 0.012081219 -0.024643643 -0.07810649 -0.031927668 -0.107849404 0.030933766 0.14543402
0.09436777 0.5789289 0.17111482 0.076172546 0.9311405 -0.08718627 0.173712 0.11140353
-0.036868762 0.09063698 0.001998719 0.025745519 -0.032911643 0.13253085 -0.17499007 -0.0868344
0.108825475 0.11615079 -0.05225101 -0.0026523876 -0.004608022 0.04840865 -0.14866528 0.12722091
-0.021140235 0.042435054 0.042597126 -0.12596893 0.080632955 -0.0073684994 -0.012683467 0.09907996
-0.08544599 0.08183203 -0.12859894 -0.045350987 -0.09437608 -0.13139638 0.016240424 -0.083261676
-0.07151733 -0.058904152 0.012615222 -0.12571296 -0.05590677 -0.13333903 -0.11056531 0.11077605
-0.12112367 -0.050430764 -0.05556305 0.025248585 -0.13387604 0.068265945 -0.124323145 -0.12232858
-0.11842438 0.074180804 0.09153576 0.10060108 0.058494754 -0.10460488 -0.116058566 -0.11305477
0.09856439 -0.11356715 0.035110712 -0.050308846 -0.0528476 -0.12523124 0.029945767 0.020366333
-0.011081944 0.048443466 -0.03796111 -0.089559905 0.02077842 -0.11504029 -0.023432171 -0.019637961
-0.020772832 -0.08021498 0.104475915 0.045860164 -0.051473636 0.049017232 0.051712956 0.05029603
0.066949375 0.057178397 -0.020232052 0.0777208 0.0518612 0.09399386 -0.07208064 0.0672542
0.09491568 0.055357292 0.09815578 -0.08527766 0.0049188863 -0.026403217 0.07770271 0.04300007
0.10442473 -0.10701033 0.028994128 -0.120368496 -0.06768162 -0.011914195 -0.085266694 -0.093588434
0.05779296 0.10918767 -0.059586573 -0.012391581 -0.06883325 -0.085464075 -0.121759444 -0.05902736
-0.12930162 0.028517067 -0.11009457 -0.012548268 0.11837463 -0.0011610538 -0.0347429 -0.06466442
-0.109778486 -0.0680684 0.098117456 -0.07073127 0.06529775 -0.012433425 0.052924234 0.07955475
-0.018598646 -0.009384409 -0.06842634 -0.016341794 -0.07482359 -0.08843951 0.11181719 -0.0374706
-0.03808954 -0.11617029 -0.07637583 -0.053430095 -0.018829325 0.037935168 -0.0069157183 -0.032202475

MLP_layers.0.bias f4 [32]
00000000: 5306 ac3d 0019 3a3d f471 bdbd aece 11bc
00000010: f304 463e 1d39 763c 6904 703d d9c0 7cbd
00000020: 54a6 0c3e fd02 5a3d 7c9b a6bc bef1 813d
00000030: 6af3 573e 042f 573e afcb 01bd 83ef c93d
00000040: c24f 82bd 37d1 2c3e b2a7 d93a ccee 82bd
00000050: 7ce0 07be 3300 4e3e 3890 be3d 66c7 cbbd
00000060: f00e ff3d 323a b23d 0392 8c3c 79d1 9e3d
00000070: 6620 56bc aa9a dd3c decd e4bb 64e3 5cbd
0.08399644 0.045433998 -0.092502505 -0.008899374 0.19337825 0.015028265 0.058597956 -0.06170735
0.13735324 0.053225506 -0.020337813 0.06344937 0.21088949 0.21014029 -0.03168839 0.09860136
-0.06362869 0.16876684 0.0016605763 -0.06393203 -0.13269228 0.20117263 0.09304851 -0.099501416
0.12454021 0.08702506 0.017159468 0.077547975 -0.013069248 0.027051289 -0.006982549 -0.053927794

MLP_layers.1.weight f4 [1, 32]
00000000: e2b4 b33d 20d0 7e3d 69ba cdbd 4ed1 59bd
00000010: 6d7c 023e 8505 d03c 61ec f0bb 700c e1bd
00000020: 5014 4b3e 2886 2abe 461f eebd df33 603d
00000030: 6372 2d3e d0b2 ef3d 9569 febd d35b 043e
00000040: f4c8 99bd 5bc7 963d b608 00be 1955 3abe
00000050: 6f3a a83b 7674 e63d 657c 753e 9fff ea3d
00000060: 14b5 cb3c a4cc 37bd 3c0b 6abd 720f 37bd
00000070: 4613 1c3e 6ff9 b33d c633 cdbd c1fd 4cbd
0.08774735 0.062210202 -0.100453205 -0.053178124 0.12742777 0.025393257 -0.0073523973 -0.109887004
0.19831967 -0.16652739 -0.11627059 0.054736968 0.16938166 0.11704028 -0.12422482 0.12925653
-0.07509032 0.07362243 -0.12503323 -0.18196525 0.005133919 0.11252682 0.23973234 0.11474537
0.024866618 -0.044872895 -0.05713962 -0.044692464 0.15241727 0.0878781 -0.100196406 -0.050046686
