SLIC_GAT/last5.pt (torch, 80373 bytes, 12 tensors)

GAT_layers.0.f.weight f4 [32, 124]
00000000: 0b1f 2f3e a9dc 10be e38e 36be 0a89 20be
00000010: b6e5 e2bd 616e 17be 9a58 253d f063 2f3e
00000020: 2c4b 033e 6339 8dbb fb8e e33d 43d1 903c
00000030: beac c63c 20b3 973d ac7a 09be 573a 7b3c
00000040: 4e18 f4bc eb7b 7dbd f3ef 033e 2133 92bd
00000050: 510d dbbd c80c 10bd 0199 1ebe 348d dcbd
00000060: 72c9 013d 9c2f 33bc 08ec 86bd e13b 53bd
00000070: 2b85 e6bd 1b20 203c 905f 083d 5d83 cc3c
00000080: 9391 a9bd c54a ff3d e5a9 dfbd af8e 273e
00000090: 41a1 81bc 4c7f 263e c1b3 d63c 8ffe 0ebe
000000a0: 0f30 22be 0d5d d73c 379d 6c3a 3ab7 913d
000000b0: 4f3b 47be bbfc 42be babc dbbd b1c1 26be
000000c0: 0f49 793c 6bcb a13d b3f8 a6bd 4b1c c5bd
000000d0: cbe1 383e 355c a8bd 348c 1b3e 194b 333e
000000e0: 31ef 8fbd ac7a bfbd 8f1e ffbd 35a3 47be
000000f0: 77d7 b33a c167 563d 2a38 afbc db97 bbbd
00000100: 53ce 86bb aefc f23c af79 05be c28b d83c
00000110: 13c4 a33d 4592 febd 1461 943d 77bd f73d
00000120: fdde 62bd 1fca 19be 4fa3 7cbd 4e76 3ebe
00000130: 613c b13d b406 44be b105 233e 36ac 84bd
00000140: 47ab 953d 114d adbd 13d5 6ebd 5b77 0dbd
00000150: b871 cb3d f4a7 f7bc eed8 f13d c44b a43d
00000160: 73a1 e33d 7501 45be 1a92 733d 951f fb3d
00000170: ba24 3cbe ec07 353d e6e1 3fbe eb55 9a3d
00000180: 3894 46be 6a15 bd3c 0a8d 4bbd 1056 8abc
00000190: 18e4 47bc 9a16 3fbe aa61 4ebd b808 d9bd
000001a0: f786 27be 7ecf 0e3e 2efc 2dbe 1837 243e
000001b0: 8482 15be c95e d13d 9760 e23d 4224 693d
000001c0: 5280 d1bc 36fa afbd 2dd1 043e 1c23 e73d
000001d0: 76e2 59bd 5934 2a3e 0d1b 05be f59f e9bd
000001e0: 6f04 8dbd 1b79 ffbd b94d 203e 49e7 113e
000001f0: 11cb ddbc 24a0 dfbd b33e 323e 5cf5 febd
00000200: 4755 ecbd df28 133e 6971 a4bd c132 dbbd
00000210: 10e6 f93d b4e0 2a3e df4d d23d ceb7 343d
00000220: 0453 de3d 7265 413d c71c 9d3d cc3b 7cbc
00000230: f62e 293e c54c 7e3d 3920 0abe f374 36be
00000240: 107a 17be a36a 233e 9ae1 ccbc 8168 293b
00000250: 031a e2bd fdec c03c 91f1 1e3e b7d6 c63d
00000260: 4fb8 3cbe cd4b c93d a9bc 34be 6928 25bd
00000270: 7592 13be 3bba b43d e5b1 d2bd 2fac 68bd
00000280: 846c 433d 479e 2d3e 3dd5 443e 3ed9 743d
00000290: 7405 3e3e 2307 11be 24ad f43c c104 06be
000002a0: 1f84 a1bd 36d3 22bc fcb8 1dbe 990a da3d
000002b0: 2da7 18bd 5f9c bbbd 7b6d 453e dcd0 f4bc
000002c0: 6e6d 9a3d 64f9 1abe a02a 793c a7a1 ccbd
000002d0: e9c7 553d acce c13d 888a b23d d57c 0b3e
000002e0: 3247 f0bc 6bff a73d 66fe 63bd bf3a c4bd
000002f0: c930 10be d5f7 04bd 04f9 2dbd c5aa 1d3d
00000300: f223 c6bd 27a2 323e 64f5 afbd f995 52bc
00000310: 9a7e 173c 7fa4 3abe 100f a53d 53b1 eebd
00000320: cc8c 45bd 0e1d 6e3d 75cf 09be 0b7d 0f3e
00000330: 1ea2 9abd 08a0 0f3e 516b d23b 2f2f 4fbc
00000340: 43a9 2ebd 4672 283e d0c1 bfbc 04db 84bd
00000350: bdcf dbbd 3c61 fc3d 4bb8 203e 2152 2b3e
00000360: 1216 283e a0e8 d93d b815 88bd 6ee8 31be
00000370: 5040 ce3c b8b3 183e d951 e3bd ff86 943a
00000380: 9754 183e 93aa 0e3e 6724 893d 2dd7 223e
00000390: ac3d d23d 08ad 473d 266c cdbd ac07 003e
000003a0: 8416 3fbe 0d7f 8abc 5f4f d7bd b161 a33c
000003b0: 2fab 21be 08e9 0f3e 7660 443d 9ee9 e1bd
000003c0: e86b ac3c 66f2 47bd 1cee 383a 7de9 8d3d
000003d0: 683d 403e 2804 7abc 2e7b 113d 104a 37be
000003e0: c859 2dbe 7122 09be 0209 28be 704f 34be
000003f0: b3fa 06be 9ac9 6abd 01ce ab3d e249 33be
0.17101686 -0.14146675 -0.17827944 -0.15677276 -0.1107897 -0.147882 0.0403677 0.17127967
0.12821645 -0.0043098195 0.11111256 0.017677909 0.024252292 0.07407212 -0.13425702 0.0153337335
-0.029796746 -0.061885756 0.12884502 -0.07138658 -0.10695899 -0.03516844 -0.15488054 -0.1076912
0.031686254 -0.010936644 -0.06587988 -0.051570777 -0.112558685 0.00977328 0.03329426 0.024964983
-0.08279719 0.12465433 -0.10921077 0.16363023 -0.015823962 0.16259497 0.02620876 -0.13964294
-0.15838645 0.026289487 0.00090261124 0.07115026 -0.19456218 -0.19041722 -0.10729356 -0.16284825
0.015215172 0.07900127 -0.08152904 -0.09624537 0.18054883 -0.08220712 0.15190202 0.17509116
-0.07028044 -0.0934957 -0.124570005 -0.19495852 0.001372083 0.05234504 -0.021389086 -0.091598235
-0.004113951 0.029661503 -0.130347 0.02643383 0.079963826 -0.124302424 0.07245079 0.120966844
-0.05538844 -0.1501851 -0.06167918 -0.18599817 0.086540945 -0.19143182 0.1592014 -0.06478159
0.07308059 -0.08461965 -0.058308672 -0.034537654 0.099337995 -0.030231453 0.11808954 0.08022264
0.11114778 -0.19238837 0.059465505 0.12261883 -0.18373385 0.044197008 -0.18738517 0.07535919
-0.19392478 0.0230815 -0.049695052 -0.01688674 -0.012200378 -0.18660966 -0.05038611 -0.10597366
-0.16360079 0.1394634 -0.1699073 0.16036642 -0.14600569 0.10223157 0.11053579 0.056919344
-0.025573883 -0.08592646 0.12970419 0.112859935 -0.053194486 0.16621532 -0.129986 -0.114074625
-0.06885611 -0.12474271 0.15654649 0.14248385 -0.027074369 -0.10919216 0.1740673 -0.12449142
-0.11539703 0.1437106 -0.08029444 -0.1070304 0.12202084 0.1668728 0.10268759 0.044120602
0.10855678 0.047215886 0.076715045 -0.015395116 0.1652182 0.062084932 -0.13488854 -0.1781805
-0.14792657 0.15958647 -0.025009919 0.0025849643 -0.110401176 0.023550505 0.15521838 0.09708922
-0.18429683 0.09828911 -0.17650093 -0.04032174 -0.14411338 0.08824583 -0.10287837 -0.056804832
0.04771091 0.1695491 0.19221969 0.05977749 0.18556768 -0.14162879 0.029867716 -0.13087751
-0.07886528 -0.009938052 -0.15402597 0.106465526 -0.037268806 -0.09160685 0.19280045 -0.029884748
0.07540403 -0.15134197 0.0152079165 -0.0999177 0.052192602 0.09463248 0.08717829 0.13621838
-0.029330824 0.08203014 -0.055662535 -0.095815174 -0.1408111 -0.032462914 -0.042473808 0.038492937
-0.09674825 0.17444669 -0.085917264 -0.012853139 0.009246493 -0.18226813 0.080595136 -0.11654916
-0.048229977 0.058133177 -0.13458045 0.14012544 -0.07550453 0.14025891 0.0064214845 -0.012645527
-0.04264189 0.16449842 -0.023407847 -0.064870864 -0.10732982 0.123232335 0.15695302 0.16730548
0.16414669 0.10640073 -0.066447675 -0.17373821 0.025177151 0.14912307 -0.110995956 0.0011331736
0.14876018 0.13932256 0.06696396 0.15902396 0.10265669 0.048749 -0.10030393 0.12502927
-0.18660933 -0.016906286 -0.10513186 0.019944044 -0.15787958 0.14053738 0.047943555 -0.11030887
0.021047547 -0.048815154 0.0007054524 0.069293 0.18773425 -0.01525978 0.035517864 -0.17899346
-0.1692878 -0.13392045 -0.16409686 -0.17608428 -0.13181572 -0.05732117 0.083889015 -0.17508653

GAT_layers.0.f.bias f4 [32]
00000000: b2a5 8abc b9b5 c7bc 1251 e2bc eed2 483d
00000010: c6b2 84bd 80c3 ce3c 19b9 1a3d f903 983d
00000020: 6644 a1bd 4892 8a3d 12e8 b3bd 5f34 f93a
00000030: dd0a b3bd 7437 2ebd b4d3 013d 3415 313c
00000040: 3372 45bd 8858 afbd 5593 283d 13f1 913d
00000050: bf0e 84bb 2f56 883d a00d 323c ec4c 783d
00000060: 969c 4a3d 9093 56bc 011c aebd 2dda 82bd
00000070: b0d3 213d faee f53c 5b43 dbbc 55e2 b53d
-0.016924713 -0.024378644 -0.027626548 0.049029283 -0.06479411 0.025239706 0.03777418 0.07422633
-0.07874374 0.06766182 -0.08784498 0.00190128 -0.087423064 -0.042533353 0.031696036 0.010808278
-0.048204612 -0.08561808 0.04115613 0.071260594 -0.004030078 0.06657063 0.010867506 0.060620233
0.04946574 -0.013096705 -0.08501435 -0.0638927 0.03950852 0.03002118 -0.026765516 0.0888106

GAT_layers.0.w.weight f4 [1, 124]
00000000: fcdc a7bc ea0a 6bbd 8876 b73c c2e3 e0bc
00000010: 9285 8abb 17e1 62bd cdaf 2d3e 4ebb 59be
00000020: 2954 db3d fb82 1fbe aa44 023d ca90 1fbe
00000030: 6339 3dbe 8b01 0d3e fd1c 443e 75d2 acbd
00000040: aea5 97bd 89cd 0bbd 1bf7 473d 8f65 1c3e
00000050: 4811 03be b8ba f8bd db4a 56bd 41c1 3bbe
00000060: 1749 a6bd d255 36bc 7589 cd3d 25c4 59be
00000070: 5143 433d 7062 f23d b49b 1bbe aa13 3c3e
00000080: 5a0b 2cbe 7a1d d53d 5974 a9bd 3e3c 39be
00000090: d39a b03d 47a5 05be 0249 0fbe 8aa5 1cbe
000000a0: 0209 4a3e 1304 deba c34e bfbd c02d 2e3e
000000b0: cf46 0bbe f266 0a3e 8096 4f3e a674 163e
000000c0: 6bd6 3e3e 4202 e23d c19a 8f3c eeae da3c
000000d0: 1379 413e 61b1 0b3e a22b 17be bdcb a4bd
000000e0: 7bf9 eb3d afd6 bd3d d6f5 f23c 7712 0dbe
000000f0: 4c0b 27bd abe3 0f3e 91af 6e3d 9608 bd3d
00000100: bbb9 e63d 9245 89bd 2880 453c edb6 21bd
00000110: 0bda c1bc 77d0 333e 94ef 593e 3b9c 6dbd
00000120: 7423 153e e8fa 06bb 92cf 0f3e 724e e53c
00000130: 4921 d3bd 3a81 c73d 3ad9 16bc 810c 313d
00000140: a09d 053e c6d5 513c 859c ae3d 76f4 22bd
00000150: 8488 7ebd 6780 4bbc 0a87 0dbe c9a8 bdbd
00000160: 5512 f9bc 15f8 c53d 9425 483e a3ba 473e
00000170: eb9a e1bd 5bb1 5bbe 2d83 c23d 0f8e 023e
00000180: 9d48 f3bd a2e1 c9bd 8303 30be 3d4f a63c
00000190: 5a14 09be 1e84 9b3d a8c2 d23d 18aa 903c
000001a0: d3c1 c93d 645e 183e 6657 223e 3e7d 2b3e
000001b0: e3b1 673d e151 48be a38f 773d 24ce 593e
000001c0: a1ec 9a3d e748 033d a4e8 583e 11e7 b63d
000001d0: 53a9 483e 0d83 d9bc be61 693d 443b 373e
000001e0: dd77 113e 5144 1d3e 3e9a c63c 1c12 33be
-0.020491116 -0.057383455 0.022395387 -0.027452353 -0.0042273486 -0.055390444 0.16961594 -0.21262857
0.10709412 -0.15577309 0.031803764 -0.15582576 -0.18478923 0.1377012 0.19151683 -0.08438579
-0.07404648 -0.03413156 0.048819643 0.15273117 -0.12799561 -0.12144989 -0.05231748 -0.1833544
-0.081194095 -0.01112886 0.100359835 -0.2126623 0.04767162 0.11835182 -0.15196115 0.18366876
-0.16801205 0.10406013 -0.08274145 -0.18089387 0.086232804 -0.1305133 -0.13992694 -0.15297523
0.19729999 -0.001693847 -0.093411945 0.1700964 -0.1360123 0.13515833 0.20272255 0.14692935
0.18636481 0.11035587 0.017529847 0.026694741 0.18893842 0.13641883 -0.14762738 -0.080466725
0.11522194 0.09269463 0.02965824 -0.13776575 -0.040782258 0.14051692 0.058272902 0.09230153
0.11265894 -0.067027226 0.012054481 -0.039481092 -0.023663541 0.17559992 0.21282798 -0.05801032
0.14564306 -0.002059633 0.14044026 0.027991507 -0.10309083 0.09741445 -0.009207064 0.043224815
0.1304841 0.012807315 0.085259475 -0.039783917 -0.06214191 -0.01242075 -0.13821045 -0.09260709
-0.03040425 0.096664585 0.19545585 0.1950479 -0.110158764 -0.21454374 0.09497676 0.12749504
-0.11879084 -0.09857489 -0.1718884 0.020301456 -0.1338667 0.07593559 0.10291034 0.017659232
0.09851422 0.14879757 0.15853652 0.16746995 0.05656613 -0.19562484 0.060439717 0.21270043
0.07564665 0.032051947 0.21182495 0.08930791 0.19595842 -0.026551748 0.05697798 0.17893702
0.1420588 0.15358092 0.02424347 -0.17487377

GAT_layers.1.f.weight f4 [64, 64]
00000000: d42f f0bd 2e1e c5bc 9a61 0e3d 08be d63d
00000010: 113a 09be bc4e c6bd 1c7f 80bd d2db f63c
00000020: 3ac9 4a3e 22db d5bd 14b7 bcbd 0e65 98bc
00000030: 4164 3dbe b558 fdbd 6a82 ad3d 27e0 233e
00000040: a22e 0fbd 9aa2 55be ede4 29be 9963 6d3c
00000050: 4133 c93d d6c6 a6bb e3e0 bebd b3c8 093d
00000060: 893e b1bc cab9 fe3d fb3e acbc 1eee e43d
00000070: 2650 2cbd 964a 1d3e a76e 9cbd 66ad ae3d
00000080: f4cd 4dbb 0a9a 5bbe 5370 17be 5408 95bd
00000090: 2db8 63bd 08c8 e83d db85 cdbc 8dcf 21be
000000a0: 25e7 063e f840 36be e305 39be 5167 d5bc
000000b0: b84e 133e 1dc2 493e 64a0 353d 62a0 0c3e
000000c0: a286 fabd f60e 2fbe 84c5 4a3e 5892 1b3c
000000d0: d853 333e 5254 113e 5cad 54be b322 c6bd
000000e0: 865d 95bd 9d47 77bd 4fd5 5e3c bac8 1ebe
000000f0: 4d24 86bd b2bc 1b3d e599 ca3d 1125 a43c
00000100: 762c 37be 8988 143e 5403 03be 9683 773d
00000110: 5cbb 123e 2602 933d 3967 14be 92bf fc3d
00000120: d3c1 49be 8a91 39be 7e2a ea3d fb3d 2bbe
00000130: 736e 29bb 23cc 59be 09e4 1d3e 67c3 823d
00000140: 17a2 153e 7e2a 8c3d 415d 13be cd3f b83c
00000150: bbbd e23d 3ad1 163d 939e 58be df8c 22bd
00000160: 6f3c b3bd 4a80 32bd 5428 183e b162 d9bd
00000170: 9f7f 52bd 364a 3fbe 80f7 9a3d 5ffb 4c3b
00000180: 6e92 313c 8355 9f3d 26af 143e cd29 b8bd
00000190: 0c3d 5b3d 8065 1bbe e713 ad3d 5b1d b6bd
000001a0: 80ee 3e3e 81f9 52be 2105 523e 4734 9fbd
000001b0: 31c4 703d 71a6 023d 5fae d2bd a739 f23d
000001c0: 0899 df3c 5b5b 313e 8021 0a3e 4281 8f3d
000001d0: 5767 a0bd 65a3 4ebe c34c a83a 330d bcbd
000001e0: 0614 5abe f9d0 3a3e fe63 83bc 1959 59be
000001f0: 4e10 38be f87a c63d 6c17 31be a5d1 8ebc
00000200: 3674 e4bb 063b 303d 5e79 1ebd 8fed 023e
00000210: cc87 49be 87ed 15be 8d7c 533e 84e0 e1bb
00000220: 8c24 0ebd 9906 44be 1f80 1f3c 39da debd
00000230: db5b 993d 6eca 3a3e 8468 543e 0b13 0dbd
00000240: 0abc 123e 8739 973d 8549 2bbe a67b aabd
00000250: 1abb 38bd 0484 0bbe 1a09 49bd f022 f6bd
00000260: db0e 35be 105a 8e3d b1c4 03bd 4ff1 4ebe
00000270: 2474 5c3e 057e c2bd c6f0 2c3e b023 4c3e
00000280: 72bf 053e 0b71 26be d24a 2e3d 7bec f63d
00000290: 043d f4bd da75 803d 114a 88bd 4db4 b43d
000002a0: 5cd8 523e bf5f f8bd 2a57 d6bd 4f5a babd
000002b0: b430 99bd 7d92 273d 8b84 d2bc 9423 943c
000002c0: 34a5 70bd 2203 90bb 5506 383e 23e5 ffbc
000002d0: 0010 c3bc 158f 91bd 1e22 653d e244 2c3e
000002e0: e37f 42be 3f9e 60bc b545 39be 1f20 2d3d
000002f0: 58c6 483e c029 1abd 11dc 53be 337e 0f3e
00000300: 5241 503e e355 b43d 8686 11be 71a7 0c3e
00000310: 73dc 98bc 7d82 0e3e b460 f5bd 7e2e 203d
00000320: 412b a73d c769 193e bbd0 1c3e 0107 8d3d
00000330: b291 4fbd ce9e 06bd fcdc 81b9 aadc c13d
00000340: 4001 77bd db5a e43d 5004 493e e7ec 6f3c
00000350: b7e1 073e 01d8 eebd 704a 383d acdd 8b3d
00000360: 897c 0abe 80ef 073b 7000 e53d 5c2e 323e
00000370: 807e 463b 7cc6 07be 46ab 3e3e 9358 4dbe
00000380: 4b53 423e 5a4e a9bc b649 b9bd d79f 82bc
00000390: 38b3 7abd 8db6 523e 3763 febc 65fc 40bd
000003a0: 3e8b 0fbd 66a4 1cbe f138 9e3d 1a07 53be
000003b0: 18c4 d8bd a259 ca3c 10e5 3a3d a1e5 8ebd
000003c0: a264 9b3d 4ac2 2abe 4ead 7cbd a883 b4bd
000003d0: 9667 6c3d 9fa6 0d3e 74c3 2dbe 6198 413e
000003e0: 99ab 94bd d2a3 15bd cb06 09bd ef57 acbd
000003f0: 06c4 85bd 0427 243b 16ef 38be 2518 1c3a
-0.117278725 -0.024062242 0.03476105 0.10485464 -0.13401057 -0.09682986 -0.06274244 0.030134115
0.19803324 -0.10442187 -0.09214607 -0.018602874 -0.18495275 -0.12370435 0.0847214 0.16003476
-0.034956582 -0.20862809 -0.16591235 0.014489078 0.09824229 -0.005089621 -0.093202375 0.033638667
-0.021636264 0.1243778 -0.021026125 0.1117823 -0.042068623 0.15360484 -0.07638293 0.08529167
-0.0031403275 -0.2144548 -0.14788942 -0.07276979 -0.055595566 0.11366278 -0.025088241 -0.1580183
0.13174112 -0.17798221 -0.18068652 -0.026050242 0.14385498 0.19702955 0.044342414 0.13733056
-0.122327104 -0.17095551 0.19801909 0.00949534 0.17512453 0.14192322 -0.20769256 -0.09674587
-0.07293229 -0.06037103 0.013600661 -0.15506259 -0.065498926 0.03802175 0.09892634 0.020037206
-0.17888054 0.14505209 -0.12794238 0.060428225 0.14329284 0.07178144 -0.14492501 0.12341227
-0.19702844 -0.18121925 0.11433886 -0.16722862 -0.0025853186 -0.21269278 0.1541902 0.06384926
0.14612614 0.06844042 -0.14391042 0.02249136 0.110713445 0.036820628 -0.21154241 -0.039685126
-0.08751761 -0.043579377 0.14859134 -0.10614527 -0.05139124 -0.18680653 0.07566738 0.0031277759
0.010838134 0.07779982 0.14519939 -0.08992348 0.053525016 -0.15175438 0.08451062 -0.08892318
0.18645668 -0.2060299 0.20509769 -0.07773643 0.058780853 0.031897012 -0.10287165 0.118274026
0.02729465 0.17320006 0.13489342 0.07007076 -0.078322105 -0.20179518 0.001284026 -0.09182205
-0.21296701 0.18243779 -0.01603889 -0.21225394 -0.1797497 0.09691423 -0.17294091 -0.01743395
-0.0069718612 0.04302504 -0.038689964 0.12785934 -0.19680709 -0.1464139 0.20652981 -0.0068932194
-0.034702823 -0.19143142 0.009735136 -0.108814664 0.07488223 0.18241283 0.20742995 -0.03444199
0.14329544 0.07384019 -0.16727264 -0.08324365 -0.04510031 -0.13624579 -0.049080946 -0.120183825
-0.17681448 0.06950772 -0.03217 -0.2020924 0.21528679 -0.094966926 0.16888723 0.19935489
0.13061312 -0.1625406 0.042551823 0.12056824 -0.119257 0.062724784 -0.06654752 0.08823452
0.20590347 -0.12127637 -0.10465844 -0.09099256 -0.074799925 0.040911186 -0.025697967 0.018083371
-0.0587513 -0.0043949047 0.17971165 -0.03123719 -0.02381134 -0.07107369 0.05594074 0.16823152
-0.18994097 -0.013709604 -0.18092997 0.04226696 0.19606912 -0.037637472 -0.20689417 0.14012985
0.20337418 0.08805444 -0.14211473 0.13735749 -0.018659806 0.13916965 -0.11981335 0.03910684
0.08162547 0.14981757 0.15314 0.068861015 -0.050676055 -0.03286629 -0.00024769444 0.094659165
-0.060303926 0.11150142 0.19630551 0.014643884 0.13269697 -0.11662293 0.044992864 0.0682939
-0.13524069 0.0020742118 0.11181724 0.17400497 0.0030287802 -0.1325931 0.18620023 -0.2005332
0.18977086 -0.020667244 -0.09047262 -0.015945358 -0.061206073 0.2057745 -0.031053169 -0.047115702
-0.0350449 -0.15297088 0.077257045 -0.20608178 -0.10584277 0.024700943 0.045628607 -0.06977392
0.075875536 -0.16675678 -0.061688714 -0.08814174 0.057715975 0.13833092 -0.1696909 0.18905784
-0.07259292 -0.036533184 -0.033453744 -0.084152095 -0.06531529 0.002504767 -0.18059954 0.00059545255

GAT_layers.1.f.bias f4 [64]
00000000: 3f4b d9bd 072f b93d 7881 cf3d cff0 b13b
00000010: f286 37bd dcf9 a23d bce0 8abd 2289 b63d
00000020: 354e fdbd a8ed 50bd e883 02bd 9881 be3d
00000030: fad7 3c3d 00e7 013a 2700 ca3d 9522 c83d
00000040: 6b15 c5bd 3bdc 613d b03b 6c3d 5892 b83d
00000050: 763f fabd 4037 81bd 13e3 9ebc aee8 a1bd
00000060: dcc9 89bd f2cc 933d b046 9a3c dfe9 e9bd
00000070: 0dc6 7dbd d62b d7bd 57fa 9cbd d776 c73d
00000080: 829c d1bd f8cb e03d b8f6 dabd 685b 123d
00000090: 2e49 953d f4ae b13d 604e 8e3d dea9 fd3d
000000a0: 34ba adbd 2006 a7bd 0d4b 94bd 06df 3bbd
000000b0: c817 ddbd d160 4f3d 3d6d 2b3d 585a 3f3d
000000c0: 9c37 8fbd 30bb 71bd b6f9 cfbd bb91 b33d
000000d0: c4df a3bd fe76 f7bd ec12 2cbd 77d8 f5bd
000000e0: 29bd f23d e8cc d3bd 14de 0fbd c055 dfbd
000000f0: 449d 4d3d fe29 63bd 30a5 1e3c fae7 c43d
-0.10610055 0.09042173 0.10132116 0.005430318 -0.04480643 0.07957813 -0.06781146 0.08912875
-0.123684324 -0.051007897 -0.031864077 0.09302062 0.04610441 0.0004955381 0.0986331 0.09772221
-0.09623226 0.05514167 0.05767411 0.09012288 -0.122191355 -0.06309366 -0.019395387 -0.07905708
-0.06727955 0.072168246 0.018832535 -0.114215605 -0.061956454 -0.10506408 -0.07664936 0.09739464
-0.102349296 0.10976404 -0.10691589 0.035731703 0.072893485 0.08675948 0.069485426 0.12385915
-0.08482781 -0.08155465 -0.07240877 -0.04586699 -0.107955515 0.05062944 0.041852225 0.046717018
-0.069930285 -0.059016407 -0.101550505 0.0876803 -0.08001664 -0.12083243 -0.042010233 -0.12004178
0.11852486 -0.10341817 -0.0351239 -0.109050274 0.05019881 -0.05545997 0.009682938 0.096145585

GAT_layers.1.w.weight f4 [1, 64]
00000000: 6a57 29bd b7a0 0dbe 8e58 fb3d 621c 82bd
00000010: 80b1 90be a9ba 963c 341e f1bd 7c1c 4e3e
00000020: 1925 413e 2029 d2bd a2ab 7cbe 6761 63be
00000030: 5928 633e 89e3 10be ed67 9b3e 8b7b 923e
00000040: cc35 7dbe efa3 07be 7070 ff3d b5a6 533d
00000050: 57dd 9ebd 17bd d539 b18d 81be e0f0 f73d
00000060: b7fb 51be a8b6 fc3d 8810 0f3e f6e8 f03c
00000070: e29a 2d3d a652 9e3e b500 36be ee81 543e
00000080: 0b2e 303c b9a7 58be 222f 203e c12f 5d3e
00000090: 577e 1ebc e4db 11be 4a43 0ebe a276 2d3e
000000a0: 77ca 0dbe 2489 bdbd a283 f73d f460 843e
000000b0: b6aa df3d 98f3 cc3b d3d6 4d3e 84cc 89be
000000c0: aede 97be daf7 983e 3ae2 f63d 3504 313e
000000d0: 2108 b13d 3609 e6bd 031a bfbd aa5b 243e
000000e0: a2de 63be dce0 76bd 8140 7f3e 6ac7 71bd
000000f0: 3a5c 01be 6550 40be c9c8 39be ce43 353d
-0.04134313 -0.13830839 0.1227275 -0.0635307 -0.28260422 0.018399553 -0.11773339 0.20128053
0.18861808 -0.1026175 -0.24674848 -0.22205125 0.2218336 -0.14149298 0.30352727 0.2860988
-0.24727553 -0.1324613 0.124726176 0.051672656 -0.07757061 0.0004076741 -0.25303414 0.1210649
-0.20506178 0.123395264 0.1397115 0.02940796 0.042384036 0.3092243 -0.17773707 0.20752689
0.010753165 -0.21157731 0.1564298 0.21600248 -0.009673676 -0.14244038 -0.13892856 0.16939786
-0.13846765 -0.09254673 0.12085654 0.2585522 0.109212324 0.0062546246 0.2010148 -0.26913846
-0.2966208 0.29876596 0.12054868 0.17286761 0.086441286 -0.112322256 -0.09331133 0.16050592
-0.22252896 -0.060273036 0.2492695 -0.059028067 -0.12632838 -0.18780668 -0.18143 0.044254117

GAT_layers.2.f.weight f4 [64, 128]
00000000: 865b 8cbd d1b6 163e fe32 2fbe 1514 cc3c
00000010: d8fb 8bbd f45e 843d c7de eebd bc37 b0bc
00000020: ff28 1a3e 646f cebc 16db 34bd 8355 2dbe
00000030: 4040 f13d e621 cebd 9b89 123e ab45 10bd
00000040: 542c 8d3d f075 2e3e 952a 17bd 4d98 c0bc
00000050: bd4c b43d 52e8 933d 06a5 d1bc d911 dcbd
00000060: aec0 02be 9ef6 c1bd 37aa 783d 8b9b 1dbe
00000070: f893 2a3e 3446 27be 64e9 0ebd ee12 363d
00000080: 2c51 cbbb d60d 2dbe c872 9e3c e196 523d
00000090: ee40 87bd f71e 2e3e e11e 59bd a4db eabd
000000a0: 9665 923d 823a 113e 3a19 07be 21c2 d43d
000000b0: bedf ffbd 3a29 e43d 9da1 a23d c2f8 08be
000000c0: 7285 5f3d e533 a4bd 7eb6 1fbe 4bc8 ddbd
000000d0: 2325 033e c35d bdbd 845f 00bd 2e53 d03d
000000e0: eb84 dc3d f773 213e 3d9a 913d d80f b1bd
000000f0: a207 6e39 9ee0 f73d aaa0 013e ce8f 1a3e
00000100: 7546 19be 5047 13b9 83eb 173d c4fc d63d
00000110: 9335 293e 3710 283e 21d2 053e ff21 c8bc
00000120: 3c49 91bd dd0e 9d3d 94d0 1bbe 7264 9d3d
00000130: 06c4 01be 0474 8e3c 1acd b6bd 22fc 72bd
00000140: 555b 2d3d 5462 dabd 896a 0ab8 7e01 293e
00000150: 7eed 54bd 1538 dfbc b0f0 e1bc 993f c3bd
00000160: a28e 00bd e68c 023d d0b7 94bd f117 bf3d
00000170: 0b66 253e f151 5ebd 7266 3f3d 9aba 1bbe
00000180: e69d 113e 6c10 2f3e 9800 923d de50 003d
00000190: 798e 5b3d 4ee2 253e cec9 86bd 7fe2 353d
000001a0: b2c4 6e3d f940 403d d120 0fbe 7a9e 363e
000001b0: dab5 073e c3c7 d8bd 6856 803d 4a92 81bc
000001c0: dc05 9fbd bdfa 153e 235e bd3d eae7 15be
000001d0: e507 e0bd 1756 0c3e 873a e5bc a548 e6bd
000001e0: 50dc 05be c26d e7bd 540b 153e 9400 943d
000001f0: db99 ba3d 07e8 32be 677f bfbd df8a 843c
00000200: 5e0f b73d 7566 86bd 1ba1 a1bc 5333 1e3e
00000210: a329 15be cecc 0a3e a18f 183c abd8 38bd
00000220: de62 a1bd 7aae 0b3e c12e 793d 1402 fe3d
00000230: 67de 79bd 9166 193d 5262 37bc 6473 39bd
00000240: 98c4 d3bd 0764 2ebd be86 143d 9e7e a03b
00000250: 745d 053e c531 2b3b 4746 e83d 704b 9abd
00000260: efa3 b6bc e300 d43d 32c1 c63d 91ac e33d
00000270: dfbe d5bd 2bf2 0f3e 5c04 11be 2f09 c5bd
00000280: f259 1ebd 2c3e ed3d d02e eebd f34a a73d
00000290: 5d41 d23d a2dd c43d 0414 103e 194c bcbd
000002a0: 73c7 a2bd e754 bcbd 0626 213d 4c0d 903c
000002b0: e4c9 33be c61d 1b3e ef0a ea3d 2110 df3d
000002c0: bc31 26be 0cdf 57bc 228f 443a a277 f63d
000002d0: 1873 d03d 5b94 f73d d415 273e b219 c23d
000002e0: 1e55 233e c416 153e 0699 783a 3880 1dbe
000002f0: 49f0 02be 21f6 54bd 4af7 2abe ecdd 4a3d
00000300: 0767 173e 4b01 8b3b e343 323e ddb1 37bd
00000310: 04c7 df3d 2a94 17bc c016 08be de87 433d
00000320: 5831 b1bc b34d fbbd cc49 a5bd a41a a63d
00000330: 5d9a 2cbe 21aa 2e3e be76 0e3e 422d fe3c
00000340: bd0b 1c3e 9ce4 60bd a93a 093e 43f7 4c3d
00000350: 4d27 23be efa0 0fbd 15e3 0e3e ba22 113d
00000360: 8cee aa3d c3d9 30be 64dc f13a 78bc 89bc
00000370: b66f 0ebe 1bbe 24be a853 4ebd 9c16 c3b9
00000380: 41c7 94bd afed fb3d a21e ba3d ec61 ad3d
00000390: 1f8a 1b3e f681 073c c20d 193c c62a a53c
000003a0: 260d 13bd e4e5 b23b d0c4 c63a 5698 ec3d
000003b0: 964f 183e 7266 cc3d 9745 a83c ba19 663d
000003c0: 8332 703d b49a 933d e521 1dbe 85d0 e7bd
000003d0: 7f1f 09bd 23f4 2a3e 37f6 a0bd 7e8b 533d
000003e0: 7089 de3d 5e03 6ebd 2ace 1dbe 42d3 babd
000003f0: 76ea 333d 6f33 a9bd a3fc bbbd 3ee0 ac3d
-0.06853394 0.14718176 -0.17109296 0.02491192 -0.06835145 0.06463423 -0.11663585 -0.021510951
0.15054701 -0.0251996 -0.04415425 -0.16927151 0.11779833 -0.10065059 0.14310305 -0.03522269
0.068932205 0.17037177 -0.036905844 -0.023510123 0.08803699 0.07222046 -0.025591385 -0.10745592
-0.12768814 -0.094708666 0.060709205 -0.15391366 0.16658008 -0.16335374 -0.034890547 0.044451647
-0.006204745 -0.16899809 0.019341841 0.05141342 -0.06604181 0.17004 -0.053007964 -0.114676744
0.07148282 0.14182475 -0.13193217 0.1038859 -0.12493847 0.11140676 0.079409815 -0.13376144
0.054570623 -0.080177106 -0.15596959 -0.108292185 0.12807135 -0.09246399 -0.03134109 0.10172115
0.107675396 0.15766893 0.07109497 -0.086456 0.00022700292 0.12103389 0.12658945 0.1509392
-0.14968283 -0.00014045578 0.037089836 0.1049743 0.16524343 0.16412435 0.13068439 -0.024430273
-0.070940465 0.076688506 -0.15216285 0.07685174 -0.12672433 0.017389305 -0.08925839 -0.059322484
0.04232343 -0.10663286 -3.3000983e-05 0.16504475 -0.051984303 -0.027248422 -0.027580589 -0.09533615
-0.031386025 0.031872652 -0.07261622 0.09330738 0.16152208 -0.054277364 0.04672856 -0.15207902
0.1422039 0.17096108 0.071290195 0.03132712 0.05360267 0.1619961 -0.0658146 0.044405457
0.058293052 0.046936963 -0.13977362 0.17833892 0.13252965 -0.105849765 0.06266481 -0.015816826
-0.077647895 0.1464643 0.09246471 -0.1463925 -0.10939006 0.13704716 -0.02798201 -0.112443246
-0.13072324 -0.113002315 0.14555103 0.07226673 0.09111377 -0.17471324 -0.09350472 0.0161795
0.08938478 -0.06562511 -0.019730141 0.15449266 -0.14566664 0.1355469 0.009311588 -0.045128506
-0.078801855 0.13640776 0.060835604 0.1240274 -0.061003115 0.03745133 -0.011192875 -0.04527606
-0.10340232 -0.042575862 0.036261313 0.0048979064 0.13023931 0.0026122194 0.11341529 -0.0753392
-0.022294967 0.10351732 0.09704818 0.11116899 -0.104367964 0.14057223 -0.14161819 -0.09620892
-0.038659997 0.11584124 -0.116300225 0.08168592 0.10266373 0.096125856 0.14070135 -0.09194202
-0.07948198 -0.09195881 0.039342903 0.017584465 -0.17557484 0.15148076 0.11427867 0.10891748
-0.1622991 -0.013175737 0.0007498135 0.12034537 0.101782024 0.120888434 0.1631692 0.09477557
0.15950438 0.14559466 0.00094832515 -0.15380943 -0.12786974 -0.05199254 -0.16695896 0.049528047
0.14785396 0.0042420975 0.17408709 -0.044847358 0.10926631 -0.009251634 -0.13289928 0.047736995
-0.021629974 -0.12270679 -0.08070716 0.0811055 -0.1685576 0.17057087 0.13912484 0.03102744
0.15238853 -0.05490552 0.13401283 0.050040495 -0.15932961 -0.035065588 0.13953812 0.03543351
0.083462805 -0.1727057 0.0018452522 -0.016813502 -0.13909802 -0.16088144 -0.05037275 -0.00037210144
-0.07264567 0.12301194 0.09087874 0.08465943 0.15189408 0.008270731 0.009341659 0.020161998
-0.03590121 0.005459534 0.0015164856 0.11552493 0.1487411 0.099804774 0.020540996 0.05617688
0.05864192 0.07207242 -0.15344961 -0.11319069 -0.033477303 0.16694693 -0.07859462 0.051646702
0.10866058 -0.05810868 -0.15410677 -0.091223255 0.04392477 -0.08261763 -0.09179046 0.08441208

GAT_layers.2.f.bias f4 [64]
00000000: b606 4f3e 8ad5 86bd 0419 433e b8f5 813e
00000010: bd3c acbd 4ac6 543e eb52 5b3e c354 ecbc
00000020: 82a9 7fbc e847 473e 74a5 0abc d3ec 53bd
00000030: 9b8e 8ebd 0662 323e cbd4 71bd 813a e1bc
00000040: 816f 763e b9ed 863e e766 263e 6d24 c8bb
00000050: 9e32 81bc cd7d acbd 5c8f aebc 1bc8 5f3e
00000060: 9bdc 893e aef0 5c3e 1578 843e cea7 523e
00000070: 8555 533e d294 503e 4416 9cbd 3bb2 763e
00000080: 1a5a 8e3e 411f ebba 98da 523e 8732 9fbd
00000090: 9edc 37bd f977 a3bc dd91 81bd 1516 a23d
000000a0: f564 06bd 7e1b 393e e2a3 60bc 0aa2 f8bb
000000b0: ccc6 6d3e 732c 34bc 6aa4 1ebc 7238 873e
000000c0: a5dd 523e a54d 5e3e 19a2 6bbd 62e3 783e
000000d0: 76df 4fbc 7b3d f9bb ac6b 403e bcf7 fcbc
000000e0: f73e 503e 873d aabc b196 733e 0147 1b3e
000000f0: 1131 9ebd 8d87 5c3e 20ea 4dbd 3210 57bc
0.20217404 -0.06583698 0.19052511 0.2538278 -0.084100224 0.20778766 0.2141835 -0.028849011
-0.015604379 0.19461024 -0.008462299 -0.051739525 -0.069607936 0.17420205 -0.059040826 -0.027493717
0.24065973 0.26353243 0.16250192 -0.006107858 -0.015771206 -0.08422432 -0.021308593 0.21853678
0.2692612 0.21576187 0.25872865 0.20571825 0.20638092 0.2036927 -0.07621434 0.24091427
0.27803117 -0.0017938392 0.205912 -0.07773309 -0.04488813 -0.019954668 -0.06326649 0.07914368
-0.032811124 0.18076894 -0.013710948 -0.007587676 0.23220366 -0.010996926 -0.009682754 0.26410252
0.20592363 0.21709307 -0.057527635 0.2430549 -0.012687555 -0.007606206 0.18791074 -0.030879848
0.20336519 -0.020781292 0.23787953 0.15163805 -0.077242024 0.21536084 -0.050272107 -0.01312642

GAT_layers.2.w.weight f4 [1, 128]
00000000: 7552 39bd 098b 953d b44f 3a3d 25f9 1d3e
00000010: 395c 7ebd 5f5b 82bd 152d c1bd 20e7 9a3c
00000020: 3057 19be 9e9b 26be 2b68 51be b800 2c3e
00000030: 2fbe 29be 1d8c 713d c8e5 53be 8401 003e
00000040: 4cfa b43d 7b72 a43d 1d0a d73d 6ed9 45be
00000050: 564f 73bc 40d2 043e 1582 093e 0159 4e3e
00000060: e52e 50be ae55 cc3d 4a4c 243e d516 fe3c
00000070: 610f 16be c6bb 1bbe 690c 463d 73c7 1dbe
00000080: 456b 43be 78de 983d 5bf1 aabd 58e0 33bd
00000090: 9b84 073d 1407 d83d a6db 3dbe 3311 d83c
000000a0: aee3 4ebe b0fb 50be 5bc2 493e ffb9 f13d
000000b0: f318 8a3d 7f9d a6bd aa6e 32be 6f73 b53d
000000c0: 244c 153d b766 163e 7645 a43d 75f0 4abe
000000d0: e65a 793d d025 573e 5f7f 49be 5aca 443e
000000e0: 317e 8a3d 1374 99bc 87d1 3bbd 0176 203e
000000f0: 7e01 f13c 02f7 6abd 5c92 1c3e d8d1 363e
00000100: 1055 16be 90a5 32be 4fa0 083e c01f 843d
00000110: 3a62 113e 2b11 3abe 3696 ad3d 4005 573e
00000120: bc13 943d 1778 543e 4185 9e3d 1925 333e
00000130: 9001 a9bd 4658 49be aed4 6dbb 5a7a 8c3d
00000140: 0d51 85bd 186b e9bd 70ff b33d 0cc1 1fbe
00000150: 59f3 cbbd 773a dcbd 4df3 193e 27d8 8c3c
00000160: a651 d83b c5d4 0b3d 9bea f0bd a0b1 11be
00000170: ce3c 28be 2ed3 09be f48f f9ba c917 173e
00000180: 0ba4 43be a475 93bd 2bd6 53be 51d6 58be
00000190: 0658 e43d 778a 60be ff5f 1ebe ee10 1fbe
000001a0: 54c7 4d3a 03ea 553c b6cf 10be 1325 cbbd
000001b0: 904a 8d3a 1b44 883c 27ea 05be 6162 2bbd
000001c0: b64d 5b3e 3272 2d3d e2f9 d13d a9b8 053d
000001d0: 4883 133e 910c 413d c3b0 693c 0041 9fbb
000001e0: 2622 ca3d 3aee 8d3d 6d5f fc3d 6423 e3bc
000001f0: bb12 c93c 0031 17be c0eb 2e3e 7bc5 763d
-0.045244653 0.073019095 0.045486167 0.15427072 -0.06209967 -0.06365084 -0.09432427 0.018909037
-0.14974666 -0.16270301 -0.20449893 0.16797149 -0.16576456 0.058971513 -0.20693123 0.12500578
0.08836803 0.08029648 0.10499976 -0.19321224 -0.014850458 0.12970829 0.13428529 0.2015114
-0.20330389 0.099772796 0.16044727 0.031016747 -0.14654304 -0.15208349 0.04835168 -0.15408115
-0.19083889 0.074643075 -0.08346816 -0.043915123 0.033085447 0.10548225 -0.1854082 0.026375389
-0.2020404 -0.20408511 0.19703047 0.11803054 0.0674304 -0.08135509 -0.17425027 0.08859908
0.036449566 0.1468762 0.08021061 -0.1981829 0.060877703 0.21010518 -0.19677494 0.19217816
0.0676235 -0.018732106 -0.045854118 0.15670015 0.029419657 -0.05736447 0.15290207 0.17853487
-0.14680886 -0.1744597 0.13342403 0.06451368 0.14197627 -0.18170612 0.08475916 0.20998096
0.072303265 0.20748936 0.0774026 0.1749462 -0.08252251 -0.1966258 -0.0036290097 0.06859274
-0.065096 -0.1139738 0.08788955 -0.15600985 -0.09958524 -0.10753339 0.15034218 0.017192913
0.00660153 0.03413846 -0.117634974 -0.14227915 -0.16429445 -0.13459465 -0.0019040094 0.14755167
-0.19105546 -0.072001725 -0.20687167 -0.21175505 0.11149602 -0.2192782 -0.15466307 -0.15533802
0.00078498316 0.013056281 -0.14141735 -0.09919181 0.0010779668 0.016634038 -0.13077603 -0.04184187
0.21416363 0.042345233 0.102527395 0.03264681 0.14405549 0.047131125 0.014263335 -0.0048600435
0.098697945 0.06930204 0.123228885 -0.027726837 0.024545064 -0.14764786 0.17082119 0.060246926

MLP_layers.0.weight f4 [32, 64]
00000000: f130 d63d 12cc 8a3d 3394 333d 9bbb f8bd
00000010: 9657 883d a202 2c3d 69cc 733d 82c6 48bc
00000020: b39b 193c a0f2 cabc 1d2e 89bd edce d93d
00000030: 1542 c7bb e9f3 ff3d 1205 643d d895 ed3c
00000040: 771b ef3d 7e77 a0bd ed18 e03d 0c48 993d
00000050: 349b d7bc 6dde 96bd 9a50 743b 7bb8 653d
00000060: d46e 1d3d 403a 01bd 3bfa 91bd 5ee9 0d3e
00000070: 05b6 2c3e f923 8bbd d6ed babd 9572 c43c
00000080: ba93 da3d 303f 513d dfeb af3c f567 9a3d
00000090: 70b6 02bd 6dfd fbbd b699 84bd 3146 ae3c
000000a0: 2ce8 febd a5e4 173e d745 3f3d 1ab2 a3bd
000000b0: c966 8fbd 689e d5bd 84a9 a43d ff8a f43d
000000c0: 354c e53d c1be 943c 90a6 14bd e753 183e
000000d0: e447 103d 60e2 babd 8a64 8c3d f0c2 0dbc
000000e0: caf6 5f3d 59be 3bbd 471f 513e fa8f 123d
000000f0: 3cdc a83d 191e 663e 4005 2fbb 553f a33d
00000100: 2290 6dbd d087 af3d 6f90 f1bc 9b0b e53d
00000110: eee5 e9bd c8a3 c0bd d730 963c 527a 5a3d
00000120: 00d7 dd3d 03aa e63d cdc5 b63d a978 1c3d
00000130: f23a 633c 72df d23d d686 58bd 5882 06bd
00000140: f14f 40bc fc3f f3bd da9e 863c 1222 e0bd
00000150: 5922 7e3b 1e2e bdbd 1ba4 97bd dd1f 293c
00000160: 685d 643d 1baa dc3c 797d 903d 1887 153d
00000170: 77fa 96bc fe1e b3bd da1a 083d 617f 47bd
00000180: ce20 82bd db3b 843d 068d 1d3d bf72 dabc
00000190: 708a 9b3c 6b72 0e3d 2442 503d 7920 ac3d
000001a0: 85b3 bbbd ac42 5cbc b3e0 76bd c834 d2bc
000001b0: bfc7 8f3d f06e 8f3c 44e1 b43d 2e0d 323d
000001c0: d3a5 b4bc 25a7 cdbd cad5 c73d 51fa 21bb
000001d0: 1c04 e63d 7c71 bcbd 54ac ddbb 98db c13d
000001e0: e266 8bbd 108b c6bd 0353 a3bd 0aa0 3a3d
000001f0: 38f2 713d 9576 743d b8a3 cebc 0d38 f0bd
00000200: f731 b53c 52a1 8ebc 4208 a5bc 7425 773d
00000210: 605a 8dbc 47ba f6bb 00a6 2b3a 5fd7 bc3d
00000220: 08df 923d c29d 08be fe30 bb3d 1ca4 b43c
00000230: 1d12 873d 4bd4 0f3d 2e12 d9bd f8bd 9d3c
00000240: 1040 eabd 06aa d23c 0578 c23c 701b 3b3d
00000250: 0a8a 123d f362 ccbd 615b d63b bc0a bebc
00000260: e7d5 98bd 3510 593d c37b 8c3c d77a ffbd
00000270: fc67 8e3d 743a 05be d2f9 693d 0a93 93bd
00000280: b2e2 8ebd 6aaa 31bd f860 b63d f68f 1f3b
00000290: 28ac 803d ee4b 52bd d070 b7bc e724 babd
000002a0: eff0 e63d a29a b0bd f5aa f3bd 3097 c7bd
000002b0: 305f 9dbd 6cf2 d43d 80b8 71bd 4976 99ba
000002c0: 5d4d dc3d 3fd7 763d 4ed5 cc3d d7f9 67bd
000002d0: 15e5 92bd 3254 803d 3ba1 a33d 23d8 90bb
000002e0: a189 173d 405a b03d 8b3a b73d 50c6 02be
000002f0: d0e7 1d3c 0990 c8bd 88c5 ef3c 39ac 463c
00000300: 1ce8 b1bd 2c86 c0bd a426 7dbd 9bb1 77bd
00000310: 40db 6b3d eeaf eabd 70dc edbc c865 e53d
00000320: 44c7 c2bd 6ed8 bd3d b200 91bd d4f3 f0bd
00000330: c09d 66bd 1eaf cc3d 2eec 6e3d e027 a73b
00000340: 20e5 16bd 648f a2bd 5a58 2a3d 8402 0dbd
00000350: 8219 f43d 5665 02bd 5043 c43d 1413 c03d
00000360: a050 953b 8eac 99bd a8c2 b33d 90d4 043c
00000370: de28 853d d2d8 c1bd e6ac bc3d 6e8b e4bd
00000380: c90a d5bc 0070 98bb e19e 6cbc 20e8 f5bd
00000390: a835 8ebd 44ad 983d 0c00 91bd 347c 80bd
000003a0: 1eee c43d c099 c83c 5a55 76bb 56dd eebd
000003b0: 6ace 30bd 66ae a13d 1230 ef3d 70ad fabd
000003c0: 90ee 803d e67e a1bd f8a7 9cbc e030 31bc
000003d0: 03eb 60bd 2051 69bd 40d6 ebbd 6e85 28bd
000003e0: 10e6 cc3c e7cc 9d3c d026 2dbd e147 143d
000003f0: 127b aa3d c047 4bbb 00ab 7cbd 3a34 febd
0.104585536 0.067772046 0.043842506 -0.12145158 0.06657331 0.0419947 0.059521113 -0.012254359
0.0093755005 -0.024773896 -0.066982485 0.10635171 -0.0060808756 0.12497694 0.055668898 0.029002115
0.116751604 -0.07835291 0.10942254 0.07484445 -0.026319124 -0.07366643 0.0037279488 0.056084137
0.038435772 -0.031549692 -0.07127806 0.13858554 0.1686631 -0.067939706 -0.09127395 0.023980418
0.10672708 0.05108565 0.021474777 0.075393595 -0.031912267 -0.123041965 -0.064746305 0.021273704
-0.12446627 0.14833315 0.046697464 -0.079929546 -0.070020266 -0.10430604 0.08040145 0.11940574
0.11196176 0.018157365 -0.03629166 0.14875756 0.03522481 -0.09125209 0.06855114 -0.008652434
0.054678716 -0.045835827 0.20422088 0.035781838 0.082451314 0.22472419 -0.002670601 0.07971064
-0.057998784 0.08570826 -0.029487817 0.11183854 -0.11420809 -0.09406239 0.018333836 0.05333931
0.108320236 0.11262896 0.08924446 0.038201008 0.013869034 0.10296525 -0.052862965 -0.03283915
-0.0117378095 -0.118774384 0.016433168 -0.109439984 0.0038777797 -0.09237312 -0.074043475 0.010322538
0.05575314 0.026936581 0.07055182 0.03650579 -0.018429978 -0.08746146 0.033228733 -0.048705462
-0.06353913 0.06456729 0.03846457 -0.026666043 0.01898691 0.034777086 0.050844327 0.08404631
-0.091651 -0.01344363 -0.060272884 -0.025659934 0.070205204 0.017508954 0.088320285 0.0434696
-0.022051727 -0.10041646 0.09757574 -0.002471585 0.112312526 -0.09201333 -0.006764928 0.09465712
-0.06806733 -0.09694493 -0.079748176 0.04556278 0.05906889 0.0596834 -0.025224552 -0.11729441
0.022118552 -0.017410908 -0.02014554 0.060338452 -0.017255008 -0.00752953 0.0006547868 0.09220766
0.07171446 -0.1334143 0.09140204 0.02205091 0.06595252 0.035114568 -0.105991706 0.019255623
-0.11438 0.02571584 0.02373887 0.045680463 0.035776176 -0.099798106 0.006541655 -0.023198478
-0.07462674 0.05299397 0.017148858 -0.12474602 0.06953427 -0.1301058 0.057123013 -0.0720578
-0.069768324 -0.04337541 0.08905214 0.0024347282 0.06282836 -0.051341943 -0.02239266 -0.0908907
0.11276423 -0.08623244 -0.11897842 -0.097456336 -0.07684171 0.10397801 -0.059013844 -0.0011708225
0.107569434 0.06026387 0.10001622 -0.05663475 -0.071726 0.06266059 0.07989737 -0.0044202968
0.036996488 0.08610964 0.08946713 -0.12770963 0.009637788 -0.097930975 0.029268995 0.012126022
-0.086868495 -0.09400591 -0.06180443 -0.060472112 0.05758214 -0.11459337 -0.029035777 0.11201054
-0.09510663 0.09269796 -0.07080211 -0.117652565 -0.056302786 0.099943385 0.058330707 0.005101189
-0.036839604 -0.07937506 0.041588165 -0.034426227 0.11918928 -0.031834923 0.09583151 0.09378639
0.0045567304 -0.07503615 0.08777362 0.0081073195 0.065019354 -0.09465183 0.09212665 -0.111594066
-0.02600612 -0.0046520233 -0.014442177 -0.12007165 -0.06943828 0.07454923 -0.07080087 -0.0627369
0.0961573 0.024487376 -0.0037587495 -0.1166331 -0.0431656 0.07894592 0.116790906 -0.12240112
0.06295502 -0.07885532 -0.019123062 -0.010814875 -0.054911625 -0.056962132 -0.11515474 -0.041142873
0.025012046 0.019262744 -0.042273343 0.03620136 0.08324255 -0.0031018108 -0.061686516 -0.12412305

MLP_layers.0.bias f4 [32]
00000000: 3562 743d b861 c5bd b303 0cbe f9b0 e0bc
00000010: 47cd a23e 2f1c 72bc 428f babd 0127 623c
00000020: aa7c 3e3c 4890 843e 5b98 b23c 3619 823e
00000030: 1d42 24bc a74f 8ebd 861e 8e3e 217d d2bd
00000040: e1b5 2b3e 6661 82bc 92cd e9bd 060b 5cbd
00000050: b654 a73d 0bbc 433d e6dd c1bd 38d7 19bd
00000060: f082 8ebc 9512 00bc 70a4 613d 0b06 d13c
00000070: e0b1 a33e 87cc 993e d8e0 733d 0958 4fbc
0.05966397 -0.09637779 -0.13673286 -0.027428137 0.3179724 -0.014777227 -0.091093555 0.013803245
0.011626402 0.25891328 0.021801164 0.2540986 -0.010025528 -0.06948786 0.27757663 -0.10277773
0.167686 -0.015915584 -0.114161626 -0.05372145 0.08170454 0.047786754 -0.09466152 -0.037558764
-0.01739642 -0.00781693 0.05508846 0.025515577 0.31971645 0.30038854 0.0595406 -0.012655267

MLP_layers.1.weight f4 [1, 32]
00000000: e07f 0f3e 7b47 953d 312c 60b9 5380 253e
00000010: 1283 833e 4229 06be 1ffc a9bc fcdf 69bd
00000020: 6f30 f0bd 21db 253e c938 8cbd 8b63 103e
00000030: f821 b8bd dfd1 2dbd 5c3a 783e 86b1 17be
00000040: 661d 183e 7625 50bb 8c6b 55bd d28b 693d
00000050: 6cdf ef3d 8fbc f8bc f41c b8bd 765e e83d
00000060: f22b 0f3e 30a0 93bd 56b8 623e 18e9 823e
00000070: b1d0 653e 4bec a53e 8285 2a3e e112 213e
0.14013624 0.072890244 -0.00021378767 0.16162233 0.25685936 -0.13101676 -0.020750104 -0.057098374
-0.11727988 0.16196872 -0.068467684 0.14100473 -0.08990854 -0.042436477 0.24241012 -0.14813814
0.14854965 -0.003176061 -0.052104518 0.05701811 0.11712536 -0.03036335 -0.08989897 0.11346142
0.13981608 -0.07208288 0.22140631 0.2556846 0.2244289 0.3240684 0.16652492 0.15729858
