SLIC_GAT/last2.pt (torch, 74869 bytes, 12 tensors)

GAT_layers.0.f.weight f4 [32, 82]
0	0xbcf3963c	-0.029734723
1	0xbe5a4759	-0.2131628
2	0xbd3a6bfa	-0.04551313
3	0x3e4c8813	0.19973783
4	0x3e081f83	0.13293271
5	0xbd18388e	-0.03716331
6	0xbdbbd8d6	-0.091722175
7	0x3e2b51a1	0.16730358
8	0xbdebf8bf	-0.11522054
9	0x3ca934e7	0.020655109
10	0x3d00d232	0.031450458
11	0x3d9faa03	0.07796099
12	0x3e29aebe	0.16570565
13	0x3e4b2297	0.19837414
14	0x3e33fcda	0.17576924
15	0xbdcd1a64	-0.10014799
16	0xbdd19db0	-0.10235155
17	0xbe644b33	-0.22294311
18	0x3dded738	0.108808935
19	0x3e1e4dbe	0.15459344
20	0xbe682dfb	-0.2267379
21	0xbd774a3d	-0.060373534
22	0xbdfc205a	-0.12310858
23	0x3e2aa3ca	0.16664043
24	0xbe223e78	-0.15844142
25	0x3cd4aec7	0.025962247
26	0x3d2d0a66	0.042246245
27	0x3e1435f5	0.14473708
28	0x3df162d2	0.117864266
29	0xbc8147db	-0.015781334
30	0xbcc4fa53	-0.024045145
31	0xbdd8b364	-0.10581091
32	0x3dc2d454	0.095131546
33	0xbca9a659	-0.020709204
34	0x3d89212e	0.06695782
35	0xbd2a1f7b	-0.04153393
36	0x3d81af8e	0.063323125
37	0x3debda90	0.11516297
38	0xbcedd537	-0.029032333
39	0x3db1e0d8	0.08685464
40	0xbe4754d2	-0.1946595
41	0x3da309bc	0.07960841
42	0x3dc5eb83	0.09664061
43	0xbe3c1544	-0.18367487
44	0xbd17c419	-0.037052248
45	0xbd06c37b	-0.03290127
46	0x3e6402a9	0.2226664
47	0xbda39dd6	-0.07989089
48	0x3d10233a	0.035189845
49	0x3c71055c	0.01471075
50	0xbc8e0617	-0.017336888
51	0x39cc2a69	0.0003894151
52	0xbe1e264c	-0.15444297
53	0x3ddfd5a8	0.109294236
54	0xbd5ad9ac	-0.053430244
55	0x3dfef7e7	0.12449627
56	0x3c878758	0.01654403
57	0x3d0ed5a0	0.034871697
58	0x3e139dd9	0.14415683
59	0x3e66223f	0.22474001
60	0xbd97380a	-0.073837355
61	0x3e09316b	0.13397758
62	0x3e311198	0.17291868
63	0x3ceaf54e	0.028681424
64	0x3c8b1620	0.016978323
65	0xbde7118b	-0.11282643
66	0xbdbacba9	-0.09120876
67	0xbe135b3f	-0.14390276
68	0x3e00ee98	0.12591016
69	0xbe0a7449	-0.13520922
70	0x3e5fcebe	0.2185621
71	0x3d3b3552	0.045705147
72	0x3e3aa29d	0.18226095
73	0xbdebb596	-0.11509244
74	0x3d569d41	0.052396063
75	0xbe0eda67	-0.13950501
76	0x3de78743	0.11305096
77	0xbde6cd47	-0.11269622
78	0xbe6511df	-0.22370099
79	0xbc85d9b5	-0.016339162
80	0x3db53381	0.08847714
81	0x3d802d17	0.062586
82	0x3e5f8c66	0.21830902
83	0x3c78ad60	0.015178055
84	0x3e1e8517	0.15480457
85	0x3e2c2540	0.16811085
86	0x3d902f9a	0.07040329
87	0xbe25d2aa	-0.16193643
88	0xbe4b388c	-0.1984579
89	0xbc4ba712	-0.012429969
90	0xbacf26d3	-0.0015804417
91	0x3e17ef7e	0.14837453
92	0x3dbdd1cf	0.092685334
93	0x3d26589b	0.040611845
94	0xbe27dda3	-0.16393141
95	0x3e3acd63	0.18242411
96	0xbe5724fb	-0.210102
97	0xbe0e30a4	-0.13885742
98	0x3dfe93b8	0.12430519
99	0xbd1aa1d4	-0.037751988
100	0xbd05158e	-0.03249126
101	0xbd1d6ef4	-0.03843589
102	0xbe49f953	-0.19724016
103	0xbe56ab19	-0.20963706
104	0xbd9ca578	-0.07648748
105	0x3e322a43	0.17398934
106	0x3c6ac9c6	0.014330333
107	0xbce2f1c1	-0.027703168
108	0x3e5a7766	0.2133461
109	0x3c464bbc	0.012103017
110	0x3d7d8935	0.06189843
111	0x3d9cc15f	0.0765407
112	0xbe53ebcd	-0.2069542
113	0xbde67810	-0.11253369
114	0xbe63b007	-0.22235118
115	0x3e239f78	0.15978801
116	0xbe35f3b2	-0.17768744
117	0xbe3c9d3e	-0.18419358
118	0xbda001b5	-0.078128256
119	0x3e62fd3a	0.22166911
120	0xbe55e640	-0.20888615
121	0xbdeb834d	-0.11499653
122	0xbe480b32	-0.1953552
123	0xbe1187da	-0.1421198
124	0x3d05c9a5	0.032663006
125	0xbe598349	-0.21241488
126	0xbd11dbd9	-0.035610054
127	0x3d1f3ce2	0.03887642
128	0x3db66e1e	0.08907722
129	0xbcfecfb9	-0.03110491
130	0xba94dda0	-0.0011357553
131	0xbe4d2ca5	-0.20036562
132	0x3d7a49d6	0.06110557
133	0xbd48151b	-0.048848253
134	0xbe00dca2	-0.12584165
135	0xbe486e6b	-0.19573371
136	0xbd01e54b	-0.03171281
137	0x3dd96f18	0.106168926
138	0xbdace0f2	-0.084413424
139	0x3e3b3934	0.1828354
140	0xbe233c2d	-0.15940924
141	0x3e328a18	0.17435491
142	0x3d8eba0a	0.06969078
143	0x3db0f6e2	0.08640839
144	0x3dcc59ab	0.0997804
145	0x3ca6239d	0.020280654
146	0xbe2195e3	-0.15779833
147	0xbe000cf3	-0.1250494
148	0x3dd31390	0.103064656
149	0x3de56bce	0.11202203
150	0x3d53cc9a	0.051708795
151	0xbd3a76f6	-0.045523606
152	0x3dafd011	0.085846074
153	0xbcc9ca00	-0.024632454
154	0xbdaac4f6	-0.083383486
155	0xbe65c5aa	-0.22438684
156	0x3d0e3627	0.034719612
157	0xbdc9ec32	-0.09859504
158	0xbe1872cb	-0.1488754
159	0xbe2d5047	-0.16925155
160	0x3e677875	0.22604544
161	0x3e5c93c0	0.21540737
162	0x3e52c6b5	0.20583613
163	0x3def2648	0.116772234
164	0xbd49ff83	-0.04931594
165	0x3e1a2f9b	0.15057223
166	0xbe23434d	-0.15943642
167	0x3cff4b35	0.031163791
168	0xbda06dfa	-0.07833476
169	0x3df145ed	0.117809154
170	0x3ddf5280	0.109044075
171	0x3c5da45c	0.013527956
172	0x3e596a64	0.21231991
173	0xbc6908ec	-0.014223319
174	0xbe2ed351	-0.17072798
175	0x3d883cd7	0.06652229
176	0x3d46704d	0.048446942
177	0x3dfff7a4	0.124984056
178	0x3e09778e	0.13424513
179	0x3c995551	0.01871744
180	0xbdc33faa	-0.09533627
181	0x3e49fc78	0.19725215
182	0xbc35b7e4	-0.011091206
183	0xbe14d2b4	-0.14533502
184	0x3d9ab5d4	0.07554212
185	0x3e2331d1	0.15936972
186	0x3e12fe62	0.14354852
187	0xbe0e4b27	-0.13895856
188	0xbe054c6e	-0.13017437
189	0x3decc6d5	0.11561362
190	0xbd911344	-0.07083753
191	0xbe52bfe4	-0.20581013
192	0x3d56ec7d	0.052471627
193	0x3d12c4ca	0.035832204
194	0x3e184f1e	0.14873931
195	0xbe057c43	-0.13035683
196	0xbe487419	-0.19575538
197	0x3d2207be	0.039558165
198	0xbe48ae3a	-0.19597712
199	0xbe36414a	-0.17798343
200	0x3e55c0db	0.2087435
201	0x3d0bac13	0.03409965
202	0x3d487e52	0.048948593
203	0xbcf8c568	-0.030367568
204	0xbe147b71	-0.14500214
205	0x3d91b265	0.07114104
206	0xbe32cede	-0.17461726
207	0x3d40e4f6	0.047093354
208	0xbd1ea7bb	-0.03873418
209	0x3e27079d	0.16311498
210	0x3e634d68	0.22197497
211	0x3e5fa759	0.21841182
212	0xbd0b68a1	-0.03403533
213	0xbdce5be4	-0.100761205
214	0x3e65a92a	0.22427812
215	0x3dc08d74	0.0940198
216	0x3dd3ac32	0.10335578
217	0x3e6166d5	0.22011884
218	0x3e5eac60	0.21745443
219	0xbcd40409	-0.02588083
220	0xbd196914	-0.037453726
221	0xbc0bf348	-0.0085418895
222	0xbe05b446	-0.1305705
223	0xbe5287a2	-0.20559552
224	0xbcaf78b1	-0.021419855
225	0x3d2df8d2	0.04247362
226	0xbd63cd7a	-0.05561588
227	0x3d3a2602	0.045446403
228	0x3e630d40	0.22173023
229	0xbe1c2550	-0.15248609
230	0x3cd84e5d	0.026404554
231	0x3c47c81c	0.012193706
232	0xbe1ccbeb	-0.15312164
233	0x3b0e6714	0.002172892
234	0x3d994d5c	0.07485458
235	0x3d1a95e6	0.03774061
236	0xbca5da5f	-0.020245729
237	0xbe48ebeb	-0.19621246
238	0x3e41fd03	0.18944173
239	0x3d9b6d73	0.07589235
240	0xbcfaa4d4	-0.030596174
241	0xbcdf9959	-0.027294802
242	0xbc2b4858	-0.01045426
243	0xbddad950	-0.1068598
244	0x3d39b2d7	0.04533657
245	0xbe078be2	-0.13236955
246	0xbcd01857	-0.025402231
247	0xbdb80041	-0.089844234
248	0xbdf35052	-0.11880554
249	0x3da2f5e7	0.079570584
250	0xbe1641fa	-0.14673606
251	0xbe476878	-0.19473445
252	0xbe1508b8	-0.14554107
253	0x3df2dd1c	0.118585795
254	0xbe3dd816	-0.18539461
255	0x3db83bbb	0.08995768

GAT_layers.0.f.bias f4 [32]
0	0x3d62677a	0.055274464
1	0xbd648f15	-0.055800516
2	0xbc5a6df2	-0.013331877
3	0xbd2ee8b0	-0.042702377
4	0xbc5de8da	-0.013544286
5	0x3d570023	0.052490365
6	0x3cbff918	0.023434207
7	0x3d1ae5ac	0.03781669
8	0x3d6f7983	0.058465492
9	0x3d7851b1	0.060624782
10	0xbab56322	-0.0013838748
11	0xbdc40a4a	-0.09572275
12	0x3dc330bc	0.0953078
13	0xbbd2fb55	-0.0064386525
14	0xbdd565e9	-0.104198284
15	0x3ddf345c	0.10898659
16	0x3c44157b	0.011968012
17	0x3d56d575	0.052449662
18	0x3dc921e6	0.09820919
19	0xbdc2ae18	-0.09505862
20	0xbd4243b2	-0.04742784
21	0x3c5787c1	0.013154925
22	0x3c654168	0.013992645
23	0xbc766e55	-0.015040954
24	0x3db443ff	0.08802032
25	0x3d7d42c0	0.061831236
26	0xbd8bc534	-0.06824723
27	0xbd8b88b4	-0.068131834
28	0xbd4cc265	-0.049990077
29	0x3db94824	0.09046963
30	0x3db8f271	0.09030617
31	0xbdf6c327	-0.12048941

GAT_layers.0.w.weight f4 [1, 82]
0	0xbd13715c	-0.03599678
1	0xbe840774	-0.25786936
2	0xbe486a01	-0.19571687
3	0xbddb6522	-0.10712649
4	0xbe2b395b	-0.16721098
5	0x3d9aa120	0.075502634
6	0xbe43bd6d	-0.19115229
7	0x3e6f981c	0.23397869
8	0x3e6866f7	0.22695528
9	0x3e3aa06c	0.18225259
10	0xbdeba128	-0.115053475
11	0xbd1f8d61	-0.03895319
12	0x3c9464f6	0.018114548
13	0x3dd4ffa1	0.1040032
14	0xbdc71f98	-0.09722823
15	0xbc968389	-0.018373268
16	0xbe736986	-0.23770723
17	0xbc8d2987	-0.017231716
18	0x3e2b91cd	0.16754837
19	0xbbd3c4b8	-0.0064626597
20	0xbe3d35b0	-0.18477511
21	0xbe81e5b6	-0.25370568
22	0xbda64e6f	-0.08120429
23	0x3e28fc61	0.16502525
24	0x3de8b48b	0.11362561
25	0xbd1e607f	-0.038666245
26	0x3da2f828	0.07957488
27	0x3d1f1b61	0.03884447
28	0x3e2da9eb	0.1695935
29	0xbe55e9a8	-0.20889914
30	0x3d88a0d1	0.06671298
31	0x3e73f22d	0.23822851
32	0x3caafaca	0.020871539
33	0x3da6678b	0.08125218
34	0x3e5cc651	0.21560027
35	0xbe1ce9e3	-0.15323596
36	0x3e7a1767	0.2442299
37	0xbd330cdb	-0.04371343
38	0x3e35df01	0.1776085
39	0xbe01aee3	-0.1266437
40	0xbe497f62	-0.19677499
41	0xbceed1b1	-0.029152723
42	0x3dd195a7	0.10233622
43	0x3d1fc72c	0.039008304
44	0x3e68b6b3	0.22725944
45	0x3e530294	0.20606452
46	0xbe3bcd21	-0.18339969
47	0xbd191816	-0.037376486
48	0x3e74ea23	0.23917441
49	0x3d6ae206	0.05734446
50	0x3de1af5c	0.11019775
51	0x3e1dc06b	0.15405433
52	0x3e897dac	0.26853693
53	0x3da70de7	0.081569485
54	0xbdd97eed	-0.10619912
55	0x3dfb805e	0.122803435
56	0x3df5cb37	0.12001651
57	0xbd7bdaaa	-0.06148783
58	0xbdd38fcc	-0.103301615
59	0xbe19fec1	-0.15038587
60	0xbdacb4a7	-0.08432894
61	0x3dd6e77f	0.10493373
62	0x3d981341	0.074255474
63	0xbe6d0410	-0.23146081
64	0x3d869cd8	0.06572884
65	0xbe57064f	-0.209985
66	0xbce614e0	-0.028086126
67	0x3e332349	0.17493929
68	0xbe3b283e	-0.1827707
69	0x3d9028f5	0.07039062
70	0x3d37a652	0.04483635
71	0x3d6186a3	0.05506004
72	0xbe22419c	-0.1584534
73	0xbe082619	-0.13295783
74	0x3e88b17f	0.2669792
75	0x3e50f8f4	0.20407468
76	0x3e28e609	0.16494001
77	0xbb08eb23	-0.0020892106
78	0xbe070c44	-0.13188273
79	0x3df8be40	0.12145662
80	0xbe495af8	-0.19663608
81	0x3e37f357	0.1796392

GAT_layers.1.f.weight f4 [64, 64]
0	0xbe327d61	-0.17430641
1	0x3df515a2	0.11967017
2	0x3e5aae8f	0.21355651
3	0x3cb03b37	0.02151261
4	0xbd1a0228	-0.037599713
5	0x3e245482	0.16047862
6	0x3e163291	0.14667727
7	0x3e0cc381	0.13746454
8	0xbe45e3b3	-0.19325142
9	0x3dc62e45	0.09676794
10	0x3b564eb5	0.0032700722
11	0xbcb8233a	-0.022477735
12	0x3df519e8	0.11967832
13	0x3e2709d1	0.16312338
14	0xbe2a6e2b	-0.16643588
15	0x3dc63185	0.09677414
16	0x3e5caa28	0.21549284
17	0x3e158ced	0.1460454
18	0x3bd76aba	0.006574002
19	0xbd208df2	-0.03919787
20	0x3e1f5d16	0.15562853
21	0x3de6c00e	0.112671
22	0xbe3ceba5	-0.18449266
23	0x3e04a33f	0.12952898
24	0xbbeae24f	-0.0071680914
25	0x3db18efb	0.086698495
26	0x3e4a9fc6	0.19787511
27	0xb9846f1d	-0.00025259788
28	0x3be2fad5	0.006926874
29	0xbdbb0488	-0.09131724
30	0xbdc60bce	-0.0967022
31	0x3e5493cc	0.20759505
32	0xbe54e73a	-0.20791331
33	0xbd206683	-0.039160263
34	0x3da5fefc	0.08105275
35	0xbd674348	-0.05646065
36	0xbde42880	-0.11140537
37	0xbd9d2179	-0.076724
38	0x3d57750c	0.05260186
39	0x3d60006c	0.054687902
40	0x3de70ba0	0.11281514
41	0x3df1d3ee	0.118080005
42	0xbe150623	-0.14553122
43	0x3e2ae06e	0.16687176
44	0x3d9a982b	0.07548555
45	0x3df9e0a5	0.12201051
46	0xbe115f05	-0.14196403
47	0xbd1d084e	-0.038337998
48	0xbe0f46e9	-0.13991894
49	0x3d7e81ee	0.06213563
50	0x3dd4d462	0.10392071
51	0x3ddf3c0e	0.109001264
52	0xbd8175ce	-0.063212976
53	0x3e18f876	0.1493853
54	0xbe406f43	-0.18792443
55	0xbd64b01a	-0.055832006
56	0xbcc26dc8	-0.023733988
57	0xbda864e4	-0.08222368
58	0xbdb2e690	-0.087353826
59	0x3de9c52c	0.11414561
60	0xbdaf8e41	-0.08572055
61	0xbd913fe9	-0.07092268
62	0xbe4fc2b8	-0.20289123
63	0x3c104764	0.008806083
64	0xbda9e661	-0.082958944
65	0xbe0a0eb6	-0.13482174
66	0xbd8f4d1f	-0.069971316
67	0x3e1e9b9f	0.15489052
68	0xbe073d5b	-0.13206999
69	0x3b002cd6	0.0019557974
70	0xbceee108	-0.029160038
71	0x3ce3b223	0.027794903
72	0xbe35563c	-0.17708677
73	0xbdbc8aa8	-0.09206134
74	0xbda95904	-0.082689315
75	0x3e54c8f6	0.20779786
76	0xbdf5305f	-0.11972117
77	0x3e67aae8	0.2262379
78	0x3e3a5228	0.18195403
79	0xbd6b4023	-0.057434212
80	0x3d940b5f	0.07228731
81	0x3e570bbf	0.21000575
82	0xbdf69a00	-0.12041092
83	0x3d9ecbe9	0.077537365
84	0x3e302fd0	0.17205739
85	0xbdff5be2	-0.12468697
86	0x3e4a96f8	0.19784153
87	0xbc676e87	-0.014125473
88	0x3e510f36	0.20415959
89	0xbe59ea00	-0.2128067
90	0x3d7bd141	0.061478857
91	0x3b425951	0.0029655288
92	0x3e670c97	0.22563396
93	0xbe31a01c	-0.17346233
94	0x3e046132	0.12927702
95	0xbe1bd9b7	-0.1521977
96	0x3e38bdd8	0.1804117
97	0x3d887654	0.06663194
98	0x3e5b2cbe	0.21403787
99	0x3d11f605	0.035635013
100	0x3e2c2ba2	0.1681352
101	0xbdabcd2e	-0.08388744
102	0xbe5a947c	-0.21345705
103	0xbe36fb9c	-0.17869419
104	0xbcbd990b	-0.023144266
105	0x3db2056d	0.08692441
106	0xbe122f89	-0.14275946
107	0xbd830a6c	-0.06398472
108	0xbd738e48	-0.05946186
109	0xbe00134f	-0.12507366
110	0xbd6b9872	-0.05751843
111	0x3d44a498	0.04800853
112	0x3e0904ef	0.13380788
113	0x3e1a1717	0.1504787
114	0xbd27dbb8	-0.040981025
115	0x3cb503c6	0.022096526
116	0x3dfc66c0	0.123242855
117	0xbdc1498e	-0.094378576
118	0xbd192193	-0.037385534
119	0xbd2efd38	-0.042721957
120	0x3e56e518	0.2098583
121	0x3dbdf743	0.09275677
122	0x3bd46d6a	0.0064827697
123	0xbe129aac	-0.14316815
124	0x3b5df76b	0.0033869396
125	0x3dc2a0fc	0.095033616
126	0x3dbae288	0.09125239
127	0x3db40811	0.08790601
128	0x3e033054	0.12811404
129	0xbc63d707	-0.013906247
130	0x3e1cfc5b	0.15330641
131	0x3e2b34c1	0.16719343
132	0x3e00173a	0.1250886
133	0x3e135a2f	0.14389871
134	0xbe268319	-0.16260947
135	0x3c2d51f0	0.010578617
136	0x3dbfc6c3	0.09364083
137	0xbe35bcb0	-0.1774776
138	0x3de15284	0.11002067
139	0xbe27677b	-0.16348068
140	0xbe4b078b	-0.19827096
141	0x3e01c8ee	0.12674305
142	0x3e2a6767	0.16641007
143	0x3e3181f1	0.17334725
144	0x3e4044ae	0.18776199
145	0x3e099398	0.13435209
146	0xbe2663bc	-0.16248983
147	0xbe07ea88	-0.1327306
148	0x3e571610	0.2100451
149	0xbe4510c1	-0.19244672
150	0xbe065eb3	-0.13122062
151	0x3ca84e8d	0.020545268
152	0xbe3090b7	-0.17242704
153	0x3e3cc3be	0.18434045
154	0x3dc7d058	0.09756535
155	0x3dceb772	0.10093583
156	0xbde20b49	-0.11037309
157	0xbc6ee056	-0.014579853
158	0xbdae5dfb	-0.08514019
159	0x3e00f1f0	0.12592292
160	0xbe19ae67	-0.15007935
161	0xbdbae443	-0.09125569
162	0x3ca711b1	0.020394178
163	0xbd897e32	-0.06713523
164	0x3e547ebe	0.20751473
165	0xbe547dc3	-0.207511
166	0xba2dc443	-0.00066286715
167	0x3dfa3fcc	0.122191995
168	0xbc74ad05	-0.014933829
169	0xbe3cdffa	-0.18444815
170	0x3db1ee79	0.08688063
171	0x3e1b24d0	0.15150762
172	0xbdaf7c3a	-0.08568616
173	0x3c6ba144	0.01438171
174	0xbdfa820f	-0.12231838
175	0xbdbf6cab	-0.09346899
176	0xbe5332b5	-0.20624812
177	0x3e4acf98	0.19805753
178	0xbd9878f1	-0.07444943
179	0x3e111403	0.1416779
180	0xbe055904	-0.13022238
181	0x3e45b96f	0.19309019
182	0x3e0b9c7e	0.13633916
183	0xbe2625fc	-0.16225427
184	0xbe05230d	-0.13001652
185	0xbdbc494f	-0.0919367
186	0x3e40feb0	0.18847156
187	0xbc361cc1	-0.011115254
188	0x3d61d815	0.055137713
189	0x3e1cb18d	0.15302105
190	0xbe412eaf	-0.18865465
191	0x3e298d74	0.16557866
192	0xbe429060	-0.19000387
193	0xbb984ce5	-0.0046478384
194	0xbe3e3866	-0.18576202
195	0x3dee6070	0.11639488
196	0x3dc43ca5	0.095818795
197	0x3da5426c	0.080693096
198	0x3e09fc43	0.13475136
199	0x3cf00e62	0.029303733
200	0xbe296482	-0.16542247
201	0x3e04bf14	0.12963516
202	0xbe23d31b	-0.15998499
203	0x3dcab90a	0.09898575
204	0x3e44a2ca	0.19202724
205	0x3d8b7d99	0.06811065
206	0x3e43d53c	0.19124311
207	0x3d601942	0.054711588
208	0xbe02c98a	-0.12772194
209	0x3e4c1f64	0.1993385
210	0xbc1c197b	-0.009527559
211	0x3afa7e95	0.0019111211
212	0xbdd76c8a	-0.10518749
213	0xbdfa5829	-0.122238465
214	0x3da6370a	0.081159666
215	0xbe06ee9f	-0.13176964
216	0xbdaff001	-0.08590699
217	0x3db6ef23	0.089323305
218	0x3dd0841d	0.101814486
219	0x3e2e0f6a	0.16998067
220	0x3e383072	0.1798723
221	0xbd3037c3	-0.04302193
222	0x3d1769eb	0.036966246
223	0x3c34ed98	0.011042975
224	0x3e13aa78	0.14420497
225	0x3ca0e1f3	0.019638991
226	0xbdd30c17	-0.1030504
227	0x3cc02de0	0.023459375
228	0xbdb6d897	-0.0892803
229	0x3da0ba99	0.07848091
230	0x3e11c866	0.14236602
231	0x3af75573	0.001887007
232	0xbdde375b	-0.10850402
233	0x3e2962b9	0.16541566
234	0xbc454d6a	-0.012042383
235	0xbd86a123	-0.06573703
236	0xbdb1e35a	-0.08685942
237	0x3dbc3ddc	0.09191486
238	0x3e5974b2	0.21235922
239	0xbdbfdb5c	-0.09368011
240	0x3df4d8c2	0.11955406
241	0xbde62447	-0.11237388
242	0xbcc768d9	-0.024341987
243	0x3ca7e6bc	0.020495765
244	0x3d8116bf	0.063031666
245	0x3d13efce	0.036117367
246	0xbe5a966c	-0.21346444
247	0xbdfc5ba4	-0.123221666
248	0x3d64d9b3	0.055871677
249	0x3d6782f6	0.05652138
250	0xbcaeb025	-0.021324227
251	0xbc4cff13	-0.012511986
252	0xbe39ff20	-0.18163729
253	0x3ce4983c	0.027904622
254	0x3db3f212	0.087864056
255	0xbdb62b96	-0.08895032

GAT_layers.1.f.bias f4 [64]
0	0x3d949f9c	0.072570056
1	0x3d265820	0.040611386
2	0xbd7b3d74	-0.061337903
3	0x3dcb92f6	0.0994014
4	0x3d5acfd3	0.053420853
5	0x3c592460	0.013253301
6	0x3d814515	0.063120045
7	0x3d9cf1e1	0.07663322
8	0x3ca5d655	0.020243803
9	0x3dcc9514	0.09989372
10	0x3de5ffc2	0.112304226
11	0xbcf93e18	-0.030425116
12	0x3daf35cd	0.085551836
13	0x3d7349b0	0.059396446
14	0x3d2f4041	0.042785887
15	0xbd819e90	-0.063290715
16	0x3c811d6b	0.015761098
17	0xbdffdd44	-0.12493375
18	0xbdc73cf6	-0.09728424
19	0x399f4d11	0.00030384262
20	0xbd7964c1	-0.060887102
21	0xbde2ae31	-0.110683806
22	0xbdf97890	-0.121811986
23	0x3b618095	0.0034408916
24	0x3d8fdf26	0.07024984
25	0xbd08260c	-0.03323941
26	0x3def8a7e	0.11696337
27	0x3d0eabd0	0.034831822
28	0xbdba9338	-0.09110111
29	0xbdfb1f32	-0.122618094
30	0xbdaeb16e	-0.08529936
31	0xbcf89490	-0.030344278
32	0x3d95dc37	0.07317393
33	0xbacbbf00	-0.0015544593
34	0x3d8d5ad2	0.06902088
35	0x3cc66578	0.024218306
36	0xbd98cde9	-0.07461149
37	0x3da2aafd	0.0794277
38	0xbd6b9084	-0.057510868
39	0x3bfeb3a4	0.0077728797
40	0x3d99698b	0.07490834
41	0x3d99b74a	0.07505663
42	0x3dd42072	0.10357751
43	0x3df632f1	0.12021435
44	0xbcc043d0	-0.023469836
45	0xbcfd7578	-0.030939803
46	0x3dabd61f	0.0839045
47	0x3c780cb5	0.015139748
48	0x3c6c89f0	0.014437184
49	0x3d02e7bc	0.03195928
50	0x3b18ddbb	0.002332552
51	0x3dd23c81	0.102654465
52	0x3d140b56	0.036143623
53	0x3d7407b8	0.059577674
54	0x3d8d486c	0.06898579
55	0xbca4599d	-0.020062262
56	0xbdf06c5b	-0.11739417
57	0x3df5f5f6	0.12009804
58	0xbd368148	-0.044556886
59	0x3d2fb5ef	0.042898115
60	0xbd163810	-0.03667456
61	0xbd8474f4	-0.064676195
62	0xbdc7fdec	-0.09765229
63	0xbbdae8d2	-0.0066805864

GAT_layers.1.w.weight f4 [1, 64]
0	0xbd0d6810	-0.03452307
1	0xbc51efcc	-0.01281352
2	0x3e99ee86	0.3006479
3	0x3e85cb26	0.26131552
4	0x3e8c0bdc	0.27352798
5	0x3d774576	0.060368977
6	0x3e451f5c	0.19250244
7	0xbe53af39	-0.20672311
8	0x3e76e8ee	0.24112293
9	0x3deae65d	0.114697196
10	0xbe8129c3	-0.25227174
11	0xbdf87fd3	-0.121337555
12	0x3e149648	0.14510453
13	0x3e742b70	0.23844695
14	0x3dd2f374	0.10300341
15	0x3e8ebe13	0.2787939
16	0xbd8936f2	-0.06699933
17	0xbe7eff03	-0.24901967
18	0x3cedc3b4	0.029023983
19	0x3d91e069	0.07122881
20	0x3e55a712	0.20864514
21	0x3d36cbfa	0.04462812
22	0xbe964570	-0.29349852
23	0x3d3bad34	0.045819476
24	0xbe472163	-0.1944633
25	0xbc4f3612	-0.012647169
26	0xbe49f00a	-0.19720474
27	0xbe0aa20c	-0.13538378
28	0x3e174973	0.14774112
29	0xbc63000d	-0.013854993
30	0x3e4f5f89	0.20251288
31	0x3e5176bd	0.20455451
32	0x3e82b457	0.25528213
33	0xbe171630	-0.14754558
34	0xbe38532c	-0.18000478
35	0xbe14d1ae	-0.14533111
36	0xbe6dfafe	-0.23240277
37	0x3e5b99ef	0.2144544
38	0x3e99c3ff	0.30032346
39	0x3c5f640f	0.013634696
40	0x3e8a5fca	0.27026206
41	0xbe18b57b	-0.1491298
42	0xbd155047	-0.03645351
43	0x3e1c2a74	0.1525057
44	0x3dbd8ee0	0.09255767
45	0x3da439c2	0.08018829
46	0xbd84ffad	-0.06494079
47	0xbe1284e4	-0.14308506
48	0x3c9d6408	0.019212738
49	0x3e9af39e	0.3026399
50	0xbdc315a1	-0.0952561
51	0xbdab4a5f	-0.083637945
52	0x3d9e108f	0.07718002
53	0xbe50b08c	-0.20379847
54	0x3e95b3e3	0.29238805
55	0xbe90fa41	-0.2831593
56	0xbe1731bd	-0.14765067
57	0x3e869214	0.26283324
58	0x3db9fd4d	0.090815164
59	0xbe0a7d7d	-0.13524432
60	0xbe6cbe5a	-0.23119488
61	0x3e6cf3f4	0.23139936
62	0x3e31b997	0.17355953
63	0xbc3e95c1	-0.011632384

GAT_layers.2.f.weight f4 [64, 128]
0	0x3e032217	0.12805973
1	0x3c574360	0.013138622
2	0x3d919ce6	0.07110004
3	0x3d4b706c	0.04966776
4	0x3d8780e9	0.066163845
5	0xbbef1f78	-0.0072974525
6	0x3e2172eb	0.15766494
7	0xbdf5b9f2	-0.11998357
8	0xbb93c74b	-0.0045098416
9	0x3b8106ba	0.0039375694
10	0x3dd7422a	0.10510667
11	0x3d5a4ed9	0.05329785
12	0x3e11fb15	0.14255936
13	0x3e1069c1	0.14102842
14	0x3df00450	0.117195725
15	0x3dcff6d0	0.101544976
16	0xbdd4aced	-0.103845455
17	0x3de5044a	0.11182459
18	0xbda623a0	-0.08112264
19	0xbdbe87a2	-0.09303214
20	0x3dd821aa	0.10553296
21	0x3d749300	0.059710503
22	0x3d1761b2	0.036958404
23	0x3d57810d	0.052613307
24	0xbd272e04	-0.04081537
25	0xbe10ee70	-0.14153457
26	0xbdbab665	-0.0911682
27	0xbdcb12c1	-0.099156864
28	0x3e187bcc	0.14890975
29	0xbd4e88f5	-0.05042358
30	0xbd1dd29a	-0.038530923
31	0xbdadeb6e	-0.0849217
32	0x39bd4c6e	0.00036105834
33	0xbdd62f61	-0.104582556
34	0x3db9bb44	0.09068921
35	0xbd923ee2	-0.071409
36	0x3e124f79	0.14288129
37	0x3d6c1072	0.05763287
38	0x3dee1ede	0.11626981
39	0x3db4fa8b	0.0883685
40	0xbe0240c7	-0.12720023
41	0x3df680c5	0.120362796
42	0x3d53d087	0.05171254
43	0xbe307cc3	-0.17235093
44	0xbe154111	-0.14575602
45	0xbdb300b8	-0.087403715
46	0x3e219617	0.15779911
47	0xbe1b19c9	-0.15146555
48	0xbca50755	-0.020145098
49	0x3dd19549	0.10233552
50	0xbc4d8359	-0.012543523
51	0xbc460141	-0.01208526
52	0x3d1a8175	0.037721116
53	0xbe254f26	-0.16143474
54	0xbdcaa3a7	-0.098944955
55	0xbe308549	-0.17238344
56	0x3dcb5f8c	0.099303335
57	0xbd087d43	-0.033322584
58	0x3afe93e9	0.0019422743
59	0x3e1927cd	0.14956589
60	0x3d299861	0.041405085
61	0x3c4b301a	0.012401605
62	0x3d42deab	0.047575634
63	0x3e000b16	0.12504229
64	0x3e29c0be	0.16577432
65	0x3d727f8b	0.059203666
66	0x3d1226bb	0.035681468
67	0x3d585b1b	0.05282126
68	0xbd9c1ff1	-0.0762328
69	0xbcfd849a	-0.030947018
70	0x3e08f2da	0.1337389
71	0xbe2a1071	-0.16607834
72	0x3dce7388	0.100806296
73	0xbde24879	-0.11048979
74	0x3abf0fa6	0.0014576807
75	0x3cee84e1	0.029116096
76	0xbca809f8	-0.020512566
77	0xbe13c29e	-0.1442971
78	0x3e1c804e	0.1528332
79	0xbd507a08	-0.050897628
80	0x3d5a9fc4	0.05337502
81	0xbcd4b099	-0.025963115
82	0xbd5ee728	-0.054419667
83	0x3e0686ae	0.13137314
84	0xbdf8d2ea	-0.12149604
85	0xbe15eb81	-0.14640619
86	0xbddb4dfe	-0.10708235
87	0xbd2cb723	-0.04216684
88	0xbdc41def	-0.09576022
89	0xbd91c9ba	-0.071185544
90	0xbd8a987f	-0.067673676
91	0xbc0b1498	-0.008488797
92	0x3dc1a183	0.09454634
93	0xbd25bbfa	-0.04046247
94	0xbdf3c098	-0.11901969
95	0x3e1da3b3	0.15394478
96	0x3d28b59d	0.041188825
97	0x3e1b4c2c	0.15165776
98	0x3e229584	0.15877348
99	0x3c6b0226	0.014343774
100	0xbd98ecbc	-0.074670285
101	0xbd54d34f	-0.051959332
102	0xbce69dcd	-0.028151417
103	0x3ca33093	0.019920623
104	0x3db9aab5	0.09065763
105	0x3e246cd0	0.16057134
106	0x3cc8d841	0.02451718
107	0xbe2994b0	-0.16560626
108	0xbdeee4e4	-0.11664751
109	0x3dc503cb	0.09619864
110	0xbe1c02b6	-0.15235409
111	0xbd1c2253	-0.03811867
112	0x3e12919e	0.14313361
113	0x3ddb3504	0.10703471
114	0x3ded9a07	0.11601644
115	0x3e0d8ff7	0.1382445
116	0x3de6ed0e	0.11275683
117	0xbd28c428	-0.041202694
118	0x3e08dee3	0.13366275
119	0xbe1f31f7	-0.15546404
120	0x3df5dd1b	0.12005063
121	0x3dc9296d	0.098223545
122	0x3d23ac30	0.039959133
123	0x3ddddd89	0.1083327
124	0xbd697526	-0.056996487
125	0xbdd6aede	-0.10482572
126	0xbbcc151d	-0.006228103
127	0x3ab95d7f	0.0014142244
128	0xbe1c59ab	-0.1526858
129	0xbcd9bb48	-0.02657856
130	0xbdbc09af	-0.091815345
131	0x3d95fd80	0.07323742
132	0xbda96380	-0.08270931
133	0xbdb2d8ee	-0.08732782
134	0xbcff1a9d	-0.03114062
135	0x3e21ffb6	0.15820202
136	0xba41f7de	-0.0007399301
137	0xbd8682cf	-0.065679185
138	0xbde2a0d1	-0.110658295
139	0xbe1df353	-0.15424852
140	0x3e0c3a6a	0.13694158
141	0xbe20fe15	-0.15721925
142	0x3d9deaf1	0.07710827
143	0x3e26d596	0.16292414
144	0x3e02c4dd	0.1277041
145	0xbcfe4205	-0.03103734
146	0xbd875c6b	-0.06609424
147	0xbd61f60a	-0.05516628
148	0xbdd33e88	-0.10314661
149	0x3e13fd06	0.1445199
150	0xbc88bebc	-0.016692512
151	0x3e079534	0.1324051
152	0xbd2028d6	-0.039101444
153	0x3cd5824b	0.026063105
154	0xbcc0e774	-0.023547865
155	0x3d1a238a	0.03763155
156	0xbc2244d8	-0.009904109
157	0x3e1feeea	0.15618482
158	0xbd6b81e9	-0.05749694
159	0x3e046227	0.12928067
160	0x3d4693c9	0.048480783
161	0x3debfa6e	0.11522375
162	0x3d39be58	0.04534754
163	0xbe01c747	-0.12673675
164	0xbd4e109e	-0.050308816
165	0xbe17e1bc	-0.14832205
166	0xbe2fd679	-0.17171659
167	0x3e1c1577	0.15242563
168	0x3d69c9d4	0.057077244
169	0x3ad64c2c	0.0016349605
170	0x3ddc3682	0.10752584
171	0x3e2d54f6	0.16926941
172	0x3db8ff95	0.090331234
173	0x3c93e2da	0.018052507
174	0xbd8fbb92	-0.07018198
175	0x3e110e70	0.14165664
176	0xbdeb32d6	-0.114843056
177	0x3e057c18	0.1303562
178	0xbd55a3ae	-0.05215805
179	0xbe311e76	-0.17296776
180	0x3e1065b4	0.14101297
181	0x3e213900	0.157444
182	0xbc43096d	-0.011904103
183	0x3dd890df	0.10574507
184	0x3d3f0eb0	0.046644866
185	0xbd38bba7	-0.045100834
186	0x3d85874f	0.06519949
187	0x3cbb77d3	0.022884285
188	0xbe118d27	-0.14214002
189	0x3c7188c6	0.014742082
190	0x3dd65fd9	0.104675
191	0xbdfe538a	-0.124182776
192	0x3d6e3f9b	0.058166128
193	0xbe2b7a2c	-0.16745824
194	0xbd1bedfd	-0.03806876
195	0xbdc6344b	-0.09677943
196	0xbde443f5	-0.11145774
197	0x3ddc68fa	0.1076221
198	0xbd67412b	-0.056458633
199	0xbe2cf5a2	-0.16890576
200	0xbdd21b83	-0.10259154
201	0x3c348f7b	0.011020537
202	0x3e33ed09	0.1757089
203	0x3e159672	0.14608172
204	0xbd301cf9	-0.04299638
205	0xbe097c39	-0.13426293
206	0x3e0038be	0.12521645
207	0xbd06f855	-0.03295167
208	0xbd491c3f	-0.049099203
209	0xbdcd651f	-0.10029053
210	0x3ddcf135	0.10788194
211	0x3e152443	0.14564614
212	0x3dfad66f	0.12247931
213	0xbdeca7ea	-0.115554646
214	0xbe2797dd	-0.16366525
215	0x3d44957f	0.047994133
216	0xbdfd6051	-0.123718865
217	0x3d7fa403	0.062412273
218	0x3d12f8e3	0.035881888
219	0xbcf33f9f	-0.029693423
220	0x3e0a1fc5	0.13488682
221	0x3df8a0e7	0.12140065
222	0x3dabec1b	0.08394643
223	0x3d7aa306	0.061190628
224	0xbdff68dc	-0.12471172
225	0x3dd89e16	0.105770275
226	0x3e0db472	0.13838366
227	0x3d6277f9	0.055290196
228	0x3dbc7b88	0.09203249
229	0x3c00927f	0.007847427
230	0x3d8e9066	0.069611356
231	0xbd89f8a8	-0.067368805
232	0xbd5653c6	-0.052325986
233	0xbe089c1c	-0.13340801
234	0x3e203fe2	0.1564937
235	0x3dbfe6aa	0.093701676
236	0x3df18c69	0.11794359
237	0xbd9f7d2a	-0.07787545
238	0xbdf76876	-0.12080471
239	0xbd33ed33	-0.043927383
240	0x3ceb9a0b	0.028759977
241	0x3cbb6c06	0.022878658
242	0x3d59a22e	0.053133182
243	0x3db5541d	0.08853934
244	0xbe2717ac	-0.16317624
245	0x3d8187f9	0.06324763
246	0xbe090fdd	-0.13384958
247	0xbd714ff1	-0.05891413
248	0xbe17a2dd	-0.14808221
249	0x3dcbf203	0.099582694
250	0x3db420e8	0.08795339
251	0xbd9160a7	-0.07098513
252	0x3d5d44e3	0.054020774
253	0xbe1d4698	-0.1535896
254	0x3e187b9d	0.14890905
255	0xbe0da18c	-0.13831156

GAT_layers.2.f.bias f4 [64]
0	0xbd2e6245	-0.042574186
1	0x3cf890c2	0.030342463
2	0xbd553fe8	-0.0520629
3	0xbdb4935a	-0.088171676
4	0xbc6ad873	-0.014333832
5	0xbc989014	-0.01862339
6	0xbd9caede	-0.07650541
7	0x3d608ae0	0.05481994
8	0xbd707ada	-0.05871091
9	0x3d3baced	0.04581921
10	0xbb6147a1	-0.003437497
11	0xbc82719a	-0.01592331
12	0x3b210baf	0.0024573614
13	0x3d209f74	0.039214566
14	0x3d45a95b	0.048257213
15	0xbc82c05f	-0.01596087
16	0xbd1ef40e	-0.038806967
17	0xbd5b8be0	-0.053600192
18	0xbc8a7921	-0.016903462
19	0x3d317a66	0.04332962
20	0xbbec069a	-0.0072029354
21	0xbd1cf601	-0.038320545
22	0xbc48dbed	-0.012259466
23	0xbd0aae1a	-0.033857442
24	0xbd87e4d0	-0.066354394
25	0x3d8790fc	0.066194504
26	0x3cf04bcb	0.029333016
27	0xbd7046d3	-0.058661293
28	0xbbf52362	-0.0074810246
29	0xbcea812a	-0.028626043
30	0xbd859f8e	-0.06524573
31	0xbca60578	-0.02026628
32	0x3da57c90	0.08080399
33	0xbd308250	-0.043093026
34	0x3b85fbcf	0.004088856
35	0xbdac2ce1	-0.084069975
36	0x3d31502c	0.04328935
37	0xbcd513d0	-0.026010424
38	0x3daa1f6f	0.08306777
39	0xbd532d3b	-0.051556807
40	0xbcb8820a	-0.022522945
41	0xbd7b72c3	-0.061388742
42	0x3c621e6f	0.013801201
43	0x3d2ad3ef	0.041706022
44	0xbd3320bf	-0.0437324
45	0xbbd90294	-0.006622622
46	0xbd1a8ca2	-0.037731774
47	0xbc486a98	-0.012232445
48	0x3d9240b5	0.07141248
49	0x3d2cb1ad	0.042161632
50	0xbd8cb8a5	-0.06871156
51	0x3cb67da4	0.022276707
52	0x3d900ca9	0.07033665
53	0x3d27b2db	0.040942054
54	0xbd248bbc	-0.040172324
55	0x3d4c547f	0.04988527
56	0xbdc58b5f	-0.096457236
57	0x3c0bef7d	0.008540985
58	0xbc9e9884	-0.019359834
59	0x3cf38ba1	0.029729666
60	0xbcfb10c2	-0.03064764
61	0x3d5d365c	0.05400692
62	0xbd98996c	-0.07451138
63	0xbd596471	-0.053074304

GAT_layers.2.w.weight f4 [1, 128]
0	0xbe336720	-0.17519808
1	0xbe322c01	-0.17399599
2	0x3dacf3aa	0.08444913
3	0x3d7905b0	0.06079644
4	0x3dc73db3	0.09728565
5	0xbe4c95f2	-0.19979075
6	0x3d4efd5a	0.050534584
7	0x3e1825a3	0.14858107
8	0x3dea7bf3	0.11449423
9	0xbe06303a	-0.13104334
10	0xbe36fe30	-0.17870402
11	0xbdf4cfdf	-0.11953711
12	0x3d842c22	0.0645373
13	0xbe407e35	-0.18798144
14	0xbe4e6b42	-0.20158103
15	0x3acc0bac	0.0015567443
16	0x3e5047a5	0.2033983
17	0xbe1cdfbd	-0.15319724
18	0x3c7d5342	0.015461745
19	0xbd9ae09b	-0.07562371
20	0xbe55174d	-0.2080967
21	0x3e4a687e	0.19766423
22	0xbe226251	-0.15857817
23	0xbe37a7d8	-0.17935121
24	0x3e113530	0.14180446
25	0x3e0c55a1	0.1370454
26	0xbb54e5b4	-0.0032485547
27	0x3d09b7f4	0.033622697
28	0xbe45cd0d	-0.19316502
29	0x3d4346a7	0.0476748
30	0xbde8a6c7	-0.11359935
31	0x3d15e4f7	0.03659531
32	0x3e1cd74c	0.15316504
33	0xbcc1d4ec	-0.0236611
34	0x3de044ef	0.10950648
35	0x3e303a4b	0.17209737
36	0x3d374345	0.044741888
37	0xbdd3288b	-0.10310467
38	0xbe1ddce1	-0.1541629
39	0x3e4435f2	0.19161204
40	0x3dc14c68	0.094384015
41	0xbe07a3d7	-0.13246094
42	0x3cf83e8b	0.03030326
43	0x3d0c7e53	0.03430016
44	0xbe0c73f8	-0.13716114
45	0xbe50f68c	-0.2040655
46	0xbdfaed01	-0.12252236
47	0x3e508d4a	0.20366398
48	0x3e123d7a	0.14281264
49	0xbd94f807	-0.0727387
50	0xbe229344	-0.1587649
51	0x3c74199c	0.014898684
52	0x3d67d817	0.056602564
53	0xbc2e8f17	-0.010654232
54	0xbd6d3381	-0.057910446
55	0xbd9e58f5	-0.07731811
56	0x3cda0730	0.026614755
57	0x3d958c69	0.07302172
58	0xbdbe6c34	-0.09297982
59	0xbe511c02	-0.2042084
60	0xbe14b343	-0.14521508
61	0x3e1fa06c	0.1558854
62	0x38921d08	6.96723e-05
63	0xbe57334e	-0.21015665
64	0xbe11cb85	-0.14237793
65	0x3e464132	0.19360808
66	0xbe231e59	-0.15929545
67	0x3e224e93	0.15850286
68	0x3dac06c0	0.08399725
69	0x3e20baf9	0.15696324
70	0xbcbec8bd	-0.023289079
71	0xbe556ab4	-0.20841485
72	0x3dd1e4fa	0.10248752
73	0x3e406727	0.1878935
74	0xbbf3c3d2	-0.007439115
75	0x3e222fc0	0.15838528
76	0xbe3ed444	-0.1863566
77	0x3cd53011	0.026023896
78	0x3e07a247	0.13245498
79	0xbe51f291	-0.20502688
80	0xbb195329	-0.0023395515
81	0xbe36554c	-0.17805976
82	0x3e392a2f	0.18082498
83	0xbd862302	-0.06549646
84	0x3de8b78d	0.113631345
85	0x3cc6f38c	0.024286054
86	0xbe16d8a1	-0.14731075
87	0x3e3d31df	0.18476056
88	0xbdd384db	-0.103280745
89	0xbe2eabf4	-0.17057782
90	0x3da01052	0.07815613
91	0x3dc0588e	0.093918905
92	0x3d6d4f49	0.05793694
93	0xbe5ac507	-0.21364222
94	0x3d0cd4eb	0.034382742
95	0x3ddb9a4f	0.107227914
96	0xbd633cfd	-0.055478085
97	0x3dd32868	0.10310441
98	0x3d1ebf1e	0.038756482
99	0x3e4aa047	0.19787703
100	0xbc56bfd8	-0.013107263
101	0x3c21280c	0.009836208
102	0x3d406a71	0.04697651
103	0x3e131e5d	0.14367051
104	0x3d09d583	0.033650886
105	0xbe070719	-0.13186301
106	0xbdffa3d5	-0.1248242
107	0x3e07dba2	0.13267377
108	0x3bfae1a2	0.007656292
109	0xbe061333	-0.13093261
110	0xbe1a3e18	-0.1506275
111	0x3e529117	0.2056316
112	0xbdb2971a	-0.087202266
113	0x3dfd42ae	0.12366234
114	0x3e076c5c	0.1322493
115	0x3c6de0b4	0.014518905
116	0xbe383a93	-0.17991094
117	0xbcdc12b0	-0.02686438
118	0xbe2fe7ae	-0.17178223
119	0x3e33e51a	0.17567864
120	0x3e0861dd	0.13318582
121	0x3e138fe6	0.14410362
122	0xbd8f700a	-0.07003792
123	0xbdb3b006	-0.08773808
124	0x3e25668a	0.16152397
125	0x3d0ae90a	0.03391365
126	0xbe47c36c	-0.19508141
127	0x3a2e0313	0.00066380313

MLP_layers.0.weight f4 [32, 64]
0	0xbdf804ff	-0.12110328
1	0xbd43033c	-0.047610506
2	0x3dcd7885	0.10032753
3	0xbd7d30a8	-0.06181398
4	0x3d27678e	0.04087024
5	0xbd14f6bc	-0.036368117
6	0x3d86f04e	0.06588803
7	0x3d854b3c	0.065084904
8	0x3c9708df	0.018436847
9	0x3de479d2	0.11156048
10	0x3d44b1d0	0.048021138
11	0x3dab6a1c	0.08369848
12	0xbdc8f49a	-0.09812279
13	0x3ddb3744	0.107039005
14	0xbde8d0d6	-0.11367957
15	0xbc840501	-0.016115667
16	0xbdbec3e7	-0.09314709
17	0xbd1afe50	-0.037840188
18	0x3d9181a2	0.071048036
19	0x3dd71dc9	0.10503728
20	0x3df87dec	0.12133393
21	0x3d2f61e6	0.042817973
22	0x3d085450	0.03328353
23	0xbde2c7e2	-0.11073281
24	0xbdf9f074	-0.12204066
25	0xbd7aa7a4	-0.06119503
26	0x3db0ae8a	0.08627041
27	0x3da0cd36	0.07851641
28	0xbe02970e	-0.12752935
29	0x3da75714	0.08170906
30	0x3d181498	0.037129015
31	0xbdec8264	-0.115483075
32	0x3dc0eb96	0.094199345
33	0x3d675f8e	0.056487612
34	0xbdbdefac	-0.092742294
35	0xbd4fa476	-0.05069395
36	0xbd4de7a3	-0.050269734
37	0xbd1f60c3	-0.03891064
38	0xbd12086b	-0.03565256
39	0xbd9e8e64	-0.077420026
40	0x3d3c1b7e	0.045924656
41	0x3de0e93f	0.10981988
42	0x3d0c4be5	0.034252066
43	0x3db7b075	0.089692034
44	0xbda21588	-0.07914263
45	0xbd9bc0fd	-0.07605169
46	0x3c3c8450	0.011506155
47	0xbda9bc49	-0.08287866
48	0xbda70574	-0.08155337
49	0x3d6e4d89	0.058179412
50	0x3d86981c	0.06571981
51	0x3d6a4b39	0.057200644
52	0x3d1a88bb	0.037728053
53	0xbdaa322f	-0.08310353
54	0xbdc22b08	-0.09480864
55	0xbdab725e	-0.08371423
56	0x3ceb9ff6	0.028762799
57	0xbc9229f0	-0.017842263
58	0x3da8f973	0.08250704
59	0xbd7248da	-0.059151508
60	0xbc8e97b8	-0.01740633
61	0x3ccfe9ff	0.025380133
62	0x3dc00eea	0.09377845
63	0x3d4f4fc4	0.05061318
64	0xbdcfa742	-0.10139324
65	0xbd8bc1be	-0.06824063
66	0x3d2d64fc	0.042332634
67	0xbdba3b00	-0.090932846
68	0x3d0d6d48	0.034528047
69	0x3d7fd6d8	0.06246075
70	0xbd3d6664	-0.046240225
71	0xbbffea20	-0.0078098923
72	0x3d96729c	0.07346079
73	0x3d4768e0	0.048684
74	0xbdeb8438	-0.11499828
75	0xbcbfb508	-0.023401752
76	0xbaea8d80	-0.0017894953
77	0x3d86881a	0.06568928
78	0x3db4568e	0.088055715
79	0xbdc03c5e	-0.09386514
80	0xbde6d826	-0.11271696
81	0xbdbe6e06	-0.09298329
82	0x3cef9af8	0.0292487
83	0x3db801fa	0.08984752
84	0xbdb53492	-0.088479176
85	0xbd8438be	-0.06456135
86	0x3da5571a	0.08073254
87	0xbdb4ec80	-0.08834171
88	0x3d355cac	0.044277832
89	0xbdc1d390	-0.094641805
90	0x3d2aa4d0	0.041661084
91	0x3cb712d0	0.022347838
92	0xba7d3a00	-0.0009659827
93	0x3d0b3af8	0.033991784
94	0x3da7e3be	0.08197735
95	0xbc7e3390	-0.015515223
96	0xbd17ca8c	-0.037058398
97	0xbd3f19d0	-0.046655476
98	0xbca0f5c8	-0.019648448
99	0x3dbde156	0.09271495
100	0xbdbdb2fc	-0.09262654
101	0xbd20d284	-0.039263263
102	0x3dec7a74	0.115467936
103	0x3deab2c0	0.11459875
104	0xbd3f1bd0	-0.046657383
105	0x3da7e9b2	0.08198871
106	0xbd946b1a	-0.072469905
107	0xbba28f40	-0.0049609244
108	0xbda58eae	-0.080838546
109	0xbc8e85d0	-0.017397791
110	0x3d8fcde0	0.070216894
111	0xbd03f458	-0.032215446
112	0x3de25bc4	0.11052659
113	0xbdd720a4	-0.105042726
114	0x3d41feec	0.047362253
115	0x3c16e8f0	0.00921081
116	0x3d934f82	0.07192899
117	0x3c839148	0.016060486
118	0x3d640cf4	0.055676416
119	0x3dbe58ac	0.092942566
120	0x3da2959a	0.079386905
121	0xbcc73f08	-0.024322048
122	0xbd0f0b38	-0.03492281
123	0x3cd9eb18	0.02660136
124	0x3de2a530	0.11066663
125	0xbd28dc5c	-0.041225776
126	0x3b5e26c0	0.0033897609
127	0x3ddfe9da	0.109332755
128	0x3a868004	0.001026154
129	0x3d0a21c0	0.033723593
130	0xbd79c1cc	-0.060975835
131	0xbd67760b	-0.05650906
132	0x3d9550d6	0.07290809
133	0x3d871d17	0.06597345
134	0x3cbe8ef8	0.023261532
135	0xbded2a99	-0.115803905
136	0x3cbe3cc2	0.023222331
137	0xbd9b3208	-0.07577902
138	0xbdf4b6f0	-0.11948955
139	0xbdd869bc	-0.10567042
140	0xbd0f7198	-0.03502044
141	0xbddece38	-0.10879177
142	0xbcb0d6d0	-0.021586806
143	0x3dc7f2d3	0.09763112
144	0x3dfe3a2c	0.12413439
145	0xbd236018	-0.039886564
146	0x3d10e354	0.035373047
147	0xbd949d89	-0.0725661
148	0x3c27b034	0.010234881
149	0xbdd166c4	-0.10224679
150	0xbd8fc313	-0.07019629
151	0x3d804c27	0.06264525
152	0x3dc340a2	0.09533812
153	0xbe03c7a5	-0.12869127
154	0xbdd845fa	-0.10560222
155	0x3d865db4	0.06560841
156	0x3d27f450	0.04100448
157	0xbdd2da86	-0.10295586
158	0xbdb1cfbd	-0.08682201
159	0xbdb5cb3c	-0.088766545
160	0xbca863ab	-0.020555338
161	0x3de7f428	0.11325866
162	0x3ce53d6c	0.02798339
163	0xbd87a27c	-0.06622788
164	0x3da60be1	0.081077345
165	0xbd97fc62	-0.07421185
166	0x3da60b56	0.08107631
167	0xbc6553e0	-0.013997048
168	0x3cffdeed	0.031234229
169	0x3ccae576	0.024767619
170	0x3d92a4bf	0.07160329
171	0x3d831d32	0.06402053
172	0xbd9d67bc	-0.076858014
173	0xbbd6c6d5	-0.0065544643
174	0xbd31a89c	-0.04337369
175	0x3d7400a3	0.05957092
176	0x3db7ced4	0.08974996
177	0xbdf69d8b	-0.12041768
178	0xbdb75066	-0.08950882
179	0x3d7f0e26	0.062269352
180	0x3db73d39	0.08947224
181	0xbc38c66f	-0.011277779
182	0x3dda6057	0.106629066
183	0x3d034623	0.03204931
184	0xbdcda7dc	-0.10041782
185	0xbd489160	-0.048966765
186	0xbdbcbc8d	-0.09215651
187	0x3dac8398	0.08423537
188	0xbdb00e1a	-0.0859644
189	0x3dc82c6d	0.097740985
190	0xbd9ef7e0	-0.07762122
191	0xbd83d1ce	-0.064365014
192	0xbdd1b762	-0.102400556
193	0xbc95a538	-0.018267259
194	0x3b3680c0	0.0027847737
195	0xbdf057ec	-0.1173552
196	0x3d8b1e26	0.0679286
197	0x3d7be144	0.061494127
198	0x3cfa9be8	0.03059192
199	0xbd154040	-0.036438227
200	0xbd6ca3d4	-0.057773426
201	0xbd1a22f0	-0.037630975
202	0x3dd31314	0.10306373
203	0x3ddcecb2	0.107873335
204	0xbd39480c	-0.045234725
205	0xbdfc17fc	-0.12309262
206	0xbdb3ad66	-0.087733075
207	0x3db9c47e	0.09070681
208	0x3dd98d16	0.10622613
209	0xbd28c5fc	-0.041204438
210	0x3ce3b918	0.02779822
211	0x3dddf67a	0.10838027
212	0xbc5ff3f0	-0.013668999
213	0xbdde1a7c	-0.10844895
214	0xbdeac18c	-0.114626974
215	0xbd888dce	-0.06667672
216	0xbd272c6c	-0.04081385
217	0xbc92f7d8	-0.017940447
218	0xbdf5308e	-0.11972152
219	0xbd9fdad6	-0.078054115
220	0xbde4b0fa	-0.11166568
221	0x3dca5e5a	0.098812774
222	0xbdb91090	-0.09036362
223	0xbdc96db0	-0.09835374
224	0xbdf8cce2	-0.12148453
225	0xbd42e874	-0.047584966
226	0x3dea4b68	0.11440164
227	0xbc96d6e8	-0.018413022
228	0x3c919548	0.017771378
229	0xbdec074a	-0.11524828
230	0xbdbae174	-0.09125033
231	0xbdf9a4b2	-0.12189616
232	0xbdecb11a	-0.11557217
233	0x3dd0b52e	0.10190807
234	0xbdacd646	-0.08439307
235	0x3df64b70	0.12026107
236	0x3dfc6fb4	0.12325993
237	0xbc65e760	-0.014032215
238	0xbdb4e054	-0.0883185
239	0xbd3ba58c	-0.045812175
240	0xbcb9bd48	-0.022673264
241	0x3d235f28	0.03988567
242	0x3db6d042	0.08926441
243	0xbda3d2fc	-0.079992265
244	0xbdb21cc2	-0.08696891
245	0xbddc6308	-0.10761076
246	0xbdf2a1dc	-0.118472785
247	0xbdb045a0	-0.0860703
248	0x3da7b97c	0.08189675
249	0xbdd1c2a2	-0.102422014
250	0xbc8ca6e8	-0.01716943
251	0x3ca389d0	0.019963175
252	0x3b263ec0	0.0025366992
253	0x3dabfdc8	0.08398014
254	0x3d9d30b8	0.07675308
255	0xbd060ecc	-0.032728955

MLP_layers.0.bias f4 [32]
0	0x3db29087	0.08718973
1	0x3df5ee42	0.12008335
2	0xbcd060e0	-0.025436819
3	0x3e1c02eb	0.15235488
4	0x3e619445	0.22029217
5	0xbd633e68	-0.055479437
6	0xbe000741	-0.12502767
7	0x3cb04ffc	0.021522515
8	0xbd04d292	-0.032427378
9	0xbd7509e8	-0.0598239
10	0xbdcddca7	-0.10051852
11	0x3e067233	0.13129501
12	0x3dd8d04a	0.10586603
13	0xbd7d3c48	-0.061825067
14	0xbc99d67f	-0.018779038
15	0xbd0c8fdf	-0.034316894
16	0xbdf9171f	-0.12162613
17	0x3e050dbf	0.12993525
18	0xbd47157c	-0.048604473
19	0xbd97fbd0	-0.07421076
20	0xbc3e6e32	-0.011622952
21	0xbde1ef90	-0.11032021
22	0xbc2e221c	-0.0106282495
23	0x3d388f53	0.04505856
24	0x3d05877c	0.03259991
25	0xbd13579c	-0.035972223
26	0xbddb780c	-0.107162565
27	0xbd6b723c	-0.05748199
28	0x3dba6e46	0.09103064
29	0x3e26b483	0.16279797
30	0x3bb926ac	0.005650362
31	0x3e4c302f	0.19940256

MLP_layers.1.weight f4 [1, 32]
0	0x3db4e3d9	0.08832521
1	0x3e7b0aaf	0.24515794
2	0xbe0327a7	-0.12808095
3	0x3e10365b	0.14083235
4	0x3dd69e78	0.10479444
5	0xbdceba06	-0.10094075
6	0x3de1f544	0.11033109
7	0xbde809d8	-0.113300025
8	0x3d0512f1	0.032488767
9	0xbd20ffa4	-0.039306298
10	0xbcbbf1f9	-0.02294253
11	0x3db706ce	0.08936845
12	0x3e09de64	0.13463742
13	0xbe1e6a2a	-0.15470186
14	0xbcbb7f49	-0.022887843
15	0x3d9d9470	0.07694328
16	0x3d99d52e	0.07511364
17	0x3e84e041	0.25952342
18	0x3e163b9a	0.14671174
19	0xbd83de46	-0.0643888
20	0xbdbadee2	-0.09124543
21	0x3d8943f6	0.06702416
22	0xbe0964ab	-0.13417308
23	0xbd161eec	-0.036650583
24	0xba80b7c8	-0.0009820396
25	0x3a9898d2	0.0011642224
26	0xbe179a81	-0.14805032
27	0xbe15cb66	-0.14628372
28	0x3e5f804f	0.2182629
29	0x3d6aecd9	0.05735478
30	0xbe04d218	-0.1297077
31	0x3e0fbbde	0.1403651
