SLIC_GAT/last8.pt (torch, 80373 bytes, 12 tensors)

GAT_layers.0.f.weight f4 [32, 124]
0	0x3e11e0f3	0.14245968
1	0xbd4b1820	-0.049583554
2	0x3dcda3e4	0.10041025
3	0x3db8bec3	0.0902076
4	0xbce9f191	-0.02855757
5	0xbe46eecd	-0.19427033
6	0xbdf6e04e	-0.120545015
7	0xbd541660	-0.05177915
8	0x3c856b2c	0.016286455
9	0xbd3b9046	-0.045791887
10	0x3e2ddd1a	0.16978875
11	0x3dda8662	0.10670163
12	0x3e2200d8	0.15820634
13	0xbdf13d5b	-0.11779281
14	0xbe19ee69	-0.15032353
15	0xbe104317	-0.14088093
16	0xbda44283	-0.080204986
17	0xbe4374cd	-0.19087525
18	0xbd9d08f2	-0.07667722
19	0x3e3b4ca0	0.18290949
20	0x3e0b612b	0.13611285
21	0xbe197d95	-0.14989312
22	0xbd48b3f1	-0.04899973
23	0xbdceef9a	-0.10104294
24	0x3cdb1ea2	0.026748005
25	0xbcbf720d	-0.023369813
26	0x3a3bb289	0.00071600877
27	0xbe33bc75	-0.1755236
28	0x3dfcb3c2	0.123389736
29	0xbdb2c507	-0.08728986
30	0xbdf2e5b4	-0.11860219
31	0x3cf2e6c9	0.029651063
32	0x3dd4faa4	0.103993684
33	0xbd966c70	-0.073449016
34	0x3cf4f2d1	0.02990094
35	0xbc2152a0	-0.0098463595
36	0xbd6b87e2	-0.057502635
37	0xbe300c34	-0.17192155
38	0xbd6f2acc	-0.058390424
39	0x3d44e5ea	0.048070826
40	0xbdbe00a0	-0.09277463
41	0x3de7b0f2	0.113130465
42	0x3df0a1a9	0.11749584
43	0xbd62f963	-0.055413615
44	0xbd30dd55	-0.04317983
45	0xbdc8210f	-0.097719304
46	0xbd9ad4fc	-0.07560155
47	0x3df8b07b	0.12143036
48	0xbdfabf4d	-0.12243519
49	0xbe1769a2	-0.1478639
50	0xbdcc24cb	-0.09967955
51	0xbe46c8a7	-0.1941248
52	0x3def9726	0.11698751
53	0x3e2069c4	0.15665346
54	0x3e1252ed	0.14289446
55	0xbddb2212	-0.10699858
56	0x3ab57aad	0.0013845764
57	0xbe12b9d5	-0.14328702
58	0x3dc55157	0.09634655
59	0x3e10edb3	0.14153175
60	0xbdeb97c3	-0.115035556
61	0xbdfa68ac	-0.12226996
62	0xbe2f06c8	-0.1709243
63	0xbe2c9dc5	-0.1685706
64	0x3d4b2589	0.049596343
65	0x3d84aa2f	0.064777724
66	0x3dc09e0f	0.09405147
67	0xbd4df2b3	-0.050280284
68	0xbe0af350	-0.13569379
69	0xbd94a356	-0.07257716
70	0xbebceb94	-0.36898482
71	0x3cca2f4b	0.024680754
72	0x3d2e5e4e	0.042570405
73	0xbe288e23	-0.16460471
74	0xbe3fb8c2	-0.18722823
75	0xbcd08799	-0.025455283
76	0x3d917179	0.07101721
77	0xbdac2b64	-0.084067136
78	0xbda7edb5	-0.08199636
79	0x3e294d0a	0.16533294
80	0xbe8db492	-0.27676827
81	0x3dff97a4	0.12480095
82	0x3df99d8a	0.12188251
83	0xbd1d78de	-0.038445346
84	0xbd994911	-0.074846394
85	0x3e2494bc	0.16072363
86	0x3e1bfe9a	0.15233842
87	0x3d57e42b	0.052707832
88	0x3e424590	0.18971848
89	0xbdd0eede	-0.1020181
90	0xbe2dbc75	-0.16966422
91	0xbe1ca518	-0.15297353
92	0xbdb3426f	-0.087529056
93	0xbe0d6669	-0.13808598
94	0xbe05d315	-0.13068803
95	0xbe479ef1	-0.19494225
96	0x3d5a740d	0.05333333
97	0x3d2c58d8	0.042076916
98	0xbb40b503	-0.0029404766
99	0x3e2a64bc	0.1663999
100	0x3d30fff2	0.04321284
101	0x3e3aab67	0.18229447
102	0xbe1a2360	-0.15052557
103	0x3e2045e9	0.15651669
104	0xbe11315d	-0.14178987
105	0x3d0688ca	0.032845296
106	0x3a8e25be	0.0010844988
107	0xbd9f005b	-0.0776374
108	0xbb2cd68c	-0.0026372997
109	0x3c783941	0.015150369
110	0x3cc074a2	0.023493115
111	0x3dd9b5e3	0.10630395
112	0xbd9b3aa2	-0.07579543
113	0x3e30cb31	0.17265011
114	0x3d05daad	0.03267925
115	0x3d47d961	0.048791293
116	0xbdda866a	-0.10670169
117	0xbea71812	-0.32635552
118	0xbd7d2305	-0.061800975
119	0x3dea8e4a	0.11452921
120	0xbd8f3f38	-0.0699448
121	0xbdc21faa	-0.09478696
122	0xbe2bb8cf	-0.16769718
123	0x3e145f2a	0.14489427
124	0xbdbfe816	-0.09370439
125	0xbddfebb7	-0.10933631
126	0x3da8e67f	0.08247089
127	0x3e3235b9	0.17403306
128	0xbd09960a	-0.033590354
129	0xbde0a966	-0.1096981
130	0x3d26bb99	0.04070625
131	0xbd471cea	-0.04861156
132	0x3e0b6fe2	0.13616899
133	0x3d9f7617	0.07786196
134	0x3dac7d66	0.08422355
135	0xbc327769	-0.010892727
136	0x3d2d76c6	0.0423496
137	0xbe45c7b5	-0.19314463
138	0x3ce9c44d	0.028535986
139	0xbe2a6f77	-0.16644083
140	0xbe3230e8	-0.17401469
141	0x3cb8dc26	0.022565912
142	0x3dda092a	0.10646279
143	0xbe3442bc	-0.17603582
144	0xbdae84aa	-0.085213974
145	0x3da6aa41	0.08137942
146	0xbdeed256	-0.11661212
147	0xbe1f21a1	-0.15540172
148	0xbda208c2	-0.07911827
149	0xbd80c1d1	-0.062869675
150	0xbe3468e7	-0.17618142
151	0x3d72c262	0.05926741
152	0x3dfcdc78	0.123467386
153	0xbd841ade	-0.06450437
154	0x3c8c956b	0.017161092
155	0xbcd16c1f	-0.025564251
156	0x3d6d69d6	0.05796226
157	0x3deea5b8	0.11652702
158	0x3da1936e	0.07889448
159	0xbdeb2a3f	-0.11482667
160	0x3e0712ab	0.13190715
161	0xbe4402cc	-0.19141692
162	0x3c4433cb	0.011975239
163	0xbdb47f57	-0.08813351
164	0xbe07ac89	-0.1324941
165	0x3e36e4bc	0.17860693
166	0x3d7e8be6	0.062145136
167	0x3e3d9714	0.18514663
168	0x3e0bbaab	0.13645427
169	0xbe357b6a	-0.1772286
170	0x3db39e91	0.087704785
171	0x3c88d02f	0.016700832
172	0xbd72a0ec	-0.0592355
173	0xbe097a6b	-0.13425605
174	0x3d3bbbe0	0.04583347
175	0xbd853a63	-0.06505277
176	0x3e0e5926	0.13901195
177	0xbdaec54f	-0.085337274
178	0x3d1a1401	0.037616733
179	0xbe2a335c	-0.16621155
180	0xbe1a6b8a	-0.15080085
181	0xbbbbfeb4	-0.00573715
182	0x3dd8a6d2	0.105786934
183	0x3db7fe93	0.08984103
184	0x3d5c7ecf	0.05383187
185	0xbe1b21e7	-0.15149651
186	0xbd4c61cd	-0.049897958
187	0xbcb7984f	-0.022411494
188	0x3d0b9b6b	0.034083765
189	0xbc80010b	-0.015625497
190	0x3df5bd6c	0.1199902
191	0xbd9eb37e	-0.07749079
192	0xbe1728ee	-0.14761707
193	0x3c29b664	0.010358427
194	0x3d8e5c20	0.06951165
195	0xbe2d0eb5	-0.16900142
196	0xbe14efb3	-0.14544563
197	0x3cde173e	0.027110692
198	0xbd6a0ca4	-0.05714096
199	0x3c8a1abd	0.016858453
200	0x3d663335	0.05620118
201	0x3e2b14d8	0.1670717
202	0x3ddc9ce0	0.10772109
203	0x3c09ccfa	0.008410687
204	0xbd9f6f6f	-0.07784926
205	0x3dddd920	0.10832429
206	0x3deb1699	0.114789195
207	0xbced2d4f	-0.028952269
208	0xbd8cd3b3	-0.06876316
209	0x3dcbe6a0	0.099560976
210	0xbd3ff5a7	-0.04686513
211	0x3d63854a	0.055547036
212	0xbdb44962	-0.08803059
213	0xbcec7bae	-0.028867569
214	0xbd279c98	-0.040920824
215	0x3e3489f1	0.17630745
216	0x3d7dbc63	0.061947238
217	0xbe1ce570	-0.15321898
218	0x3d1c85dc	0.038213596
219	0xbe042a22	-0.12906697
220	0xbdd26686	-0.10273461
221	0x3e41d97a	0.18930617
222	0x3b9092a5	0.0044120126
223	0x3d1724fa	0.036900498
224	0xbdcdeedc	-0.100553244
225	0x3e261996	0.16220698
226	0xbc3d6f02	-0.011562111
227	0xbd921870	-0.07133567
228	0x3da59cb4	0.080865294
229	0x3d287825	0.041130204
230	0xbe06a459	-0.13148631
231	0xbd36e421	-0.044651154
232	0x3df80e58	0.12112111
233	0x3e44299d	0.19156499
234	0x3d3c0afc	0.045908913
235	0xbd9a0f0a	-0.075224
236	0xbd2199d1	-0.03945333
237	0x3d8a695e	0.067583784
238	0x3dbbca2e	0.09169422
239	0xbd910df7	-0.07082742
240	0xbe0cbe70	-0.13744521
241	0xbe17cfc1	-0.14825346
242	0xbe12a9ab	-0.14322536
243	0x3dae2969	0.08503992
244	0xbe2fb264	-0.17157894
245	0xbe316b89	-0.17326178
246	0x3cd5d1bb	0.026100984
247	0xbddee5d1	-0.10883678
248	0xbc854412	-0.01626781
249	0x3d1733cf	0.036914643
250	0xbda054cd	-0.078286745
251	0x3d5e9490	0.0543409
252	0xbe4519c0	-0.19248104
253	0xbd226d02	-0.03965474
254	0x3d84f08f	0.064911954
255	0xbd5968bb	-0.053078394

GAT_layers.0.f.bias f4 [32]
0	0x3cb44776	0.022006731
1	0x3d04d4a9	0.03242937
2	0x3ca36f0e	0.019950416
3	0xbd1d4da1	-0.03840411
4	0xbdd23bc5	-0.102653064
5	0x3d94df1b	0.072691165
6	0x3cfe442f	0.031038372
7	0x3d7d6b00	0.06186962
8	0xbcf21616	-0.029551547
9	0xbdd654b5	-0.10465375
10	0xbc5f02b8	-0.013611488
11	0xbd3b9edc	-0.045805797
12	0x3d186dbe	0.037214033
13	0xbb8a906d	-0.0042286427
14	0x3d2d4cf4	0.042309716
15	0xbd319d76	-0.043363057
16	0xbc32f5d6	-0.01092287
17	0xbd0a976b	-0.03383581
18	0x3d37ecbd	0.044903506
19	0x3c611f16	0.013740322
20	0xbd107805	-0.03527071
21	0xbdb2f013	-0.08737197
22	0x3d84e1c5	0.064883746
23	0xbd39e603	-0.045385372
24	0xbc0a6cb5	-0.008448769
25	0xbde1b3c4	-0.11020616
26	0x3d2eef9b	0.042708974
27	0xbdb187e2	-0.08668496
28	0xbd0fefd2	-0.03514082
29	0x3d8d18e6	0.068895146
30	0xbdc48a47	-0.09596687
31	0x3ad0d807	0.0015933522

GAT_layers.0.w.weight f4 [1, 124]
0	0xbdf49bfc	-0.11943814
1	0xbe2d0e86	-0.16900072
2	0xbe27ad91	-0.16374804
3	0x3e168de9	0.14702572
4	0xbe599495	-0.21248086
5	0xbe415d19	-0.1888317
6	0x3e66032d	0.22462149
7	0x3c130897	0.008974216
8	0x3b0549ae	0.0020338106
9	0xbe1aa851	-0.1510327
10	0x3dbb29ca	0.0913883
11	0x3db76033	0.089538954
12	0xbd9f2efb	-0.07772633
13	0x3ca9f37b	0.020745983
14	0x3e12ce48	0.14336503
15	0xbda26b87	-0.079306655
16	0x3bcc87c8	0.0062417723
17	0xbddf6610	-0.10908139
18	0x3dbdd126	0.092684075
19	0x3d1ea5b7	0.038732257
20	0xbe2c6b8f	-0.16837905
21	0xbbb6e2d6	-0.00558124
22	0xbe026c93	-0.1273673
23	0x3e29bc30	0.16575694
24	0x3c82a736	0.015948873
25	0x3e33f870	0.1757524
26	0xbd8f151e	-0.0698645
27	0xbe13a561	-0.14418556
28	0xbd135a4f	-0.035974797
29	0x3e39d081	0.18145944
30	0xbc5b98e6	-0.013403153
31	0xbd0812b8	-0.033220977
32	0xbd87df3a	-0.06634374
33	0xbe10a65b	-0.1412596
34	0xbd37d1a4	-0.044877663
35	0xbdf4f321	-0.11960436
36	0x3e13a34d	0.14417763
37	0xbe464458	-0.19362009
38	0xbe2a3616	-0.16622195
39	0xbdebb96a	-0.11509974
40	0x3de26df1	0.11056126
41	0x3def13ea	0.1167372
42	0x3cd6bc80	0.02621293
43	0x3e1c69a0	0.15274668
44	0xbcbb8291	-0.022889407
45	0x3cb15bd8	0.02165024
46	0xbd53468f	-0.05158096
47	0xbd647f58	-0.055785507
48	0xbd5fabc0	-0.054607153
49	0x3e590436	0.21193013
50	0xbd67cef9	-0.05659387
51	0x3e0e14c8	0.13875115
52	0xbe5eba99	-0.21750869
53	0x3e25314f	0.16132091
54	0xbd7de26b	-0.061983507
55	0xbdc3c036	-0.09558146
56	0xbe098747	-0.1343051
57	0x3da49452	0.08036102
58	0xbe373d2a	-0.17894426
59	0x3e4f7ee2	0.20263246
60	0x3d4be1c3	0.04977585
61	0x3d3fc8f5	0.046822507
62	0x3d246ae0	0.040140986
63	0x3e436f02	0.19085315
64	0xbe4edd4d	-0.20201607
65	0xbe5d3646	-0.21602735
66	0xbcaa8ea0	-0.020819962
67	0xbe3cdc73	-0.1844347
68	0x3ceb54b6	0.028726917
69	0x3e10e0fa	0.14148322
70	0x3e5b5ac8	0.21421349
71	0x3e5cb7ca	0.21554485
72	0x3c8059fd	0.01566791
73	0xbd89b2d4	-0.06723562
74	0x3e0ac926	0.13553295
75	0x3e378c99	0.17924727
76	0x3e090815	0.1338199
77	0x3b8b4b59	0.0042509255
78	0xbe5bda5b	-0.21470015
79	0xbce6befc	-0.02816724
80	0xbcffaee9	-0.031211333
81	0x3e389e76	0.18029198
82	0x3e6f4077	0.23364435
83	0xbd837da5	-0.06420449
84	0x3e43540f	0.19075035
85	0x3e1a3624	0.15059716
86	0x3e13b583	0.1442471
87	0x3e294c49	0.16533007
88	0xbd420da3	-0.047376286
89	0x3e29dd1f	0.16588257
90	0xbd1ae33b	-0.03781436
91	0x3e11f460	0.14253378
92	0xbe2f0fa6	-0.17095813
93	0x3e364231	0.17798688
94	0x3e44b11c	0.19208187
95	0xbe4678fe	-0.19382092
96	0x3d958a23	0.07301738
97	0xbc9db3f7	-0.019250853
98	0xbda90b18	-0.08254069
99	0x3ddbf9d2	0.10741009
100	0x3df35a01	0.11882401
101	0xbdea4a66	-0.114399716
102	0x3dd3cd85	0.10341934
103	0xbd957bfe	-0.0729904
104	0x3d60ea2f	0.054910835
105	0x3d2d2368	0.042270094
106	0xbd67cf62	-0.05659426
107	0xbe3f36f7	-0.18673311
108	0xbe21fcdb	-0.15819113
109	0xbd9641c3	-0.07336762
110	0xba6fc567	-0.00091465417
111	0x3d1f698d	0.03891902
112	0x3e546a26	0.20743617
113	0xbe437a2e	-0.19089577
114	0x3d636eec	0.055525705
115	0x3e1d7a88	0.15378773
116	0xbe3507e0	-0.17678785
117	0x3dbabae4	0.09117678
118	0xbe1c4a34	-0.15262681
119	0xbdef69b6	-0.11690085
120	0xbd866001	-0.0656128
121	0xbd93be02	-0.072139755
122	0x3e3f0ea9	0.18657936
123	0xbe1820fe	-0.14856336

GAT_layers.1.f.weight f4 [64, 64]
0	0x3ebcb78b	0.36858782
1	0x3d83778c	0.06419286
2	0xbdd243f1	-0.10266865
3	0x3d9f9769	0.07792551
4	0xbdbd27fc	-0.09236142
5	0xbe46555d	-0.19368501
6	0x3da381bc	0.07983729
7	0x3e224f2c	0.15850514
8	0xbd7b5c74	-0.061367467
9	0xbe0bb822	-0.1364446
10	0x3d0989d6	0.033578716
11	0xbe32a51c	-0.17445797
12	0x3dea28c2	0.11433555
13	0x3d57dc09	0.052700076
14	0xbe270c59	-0.16313304
15	0xbdb06fd2	-0.08615078
16	0x3c8bdbaa	0.017072517
17	0x3e7dd3b6	0.24787793
18	0xbe0597fc	-0.13046259
19	0xbe33fbf9	-0.17576589
20	0xbd8c204c	-0.06842098
21	0x3caaf1ac	0.020867191
22	0x3e9d0677	0.30668995
23	0x3d59b4fa	0.05315111
24	0x3cba3056	0.022728126
25	0xbd1d046e	-0.038334303
26	0x3e55eb5a	0.20890561
27	0x3de121c6	0.1099277
28	0xbdff5bbf	-0.12468671
29	0xbdd34ebd	-0.103177525
30	0x3e3a0da8	0.18169272
31	0xbdac08db	-0.084001265
32	0x3ed9cdb4	0.42539752
33	0x3e0bac3d	0.13639922
34	0x3e40aa9f	0.18815087
35	0xbe506545	-0.20351131
36	0xbe17a9f8	-0.14810932
37	0x3e1b37ac	0.15157956
38	0x3e32c548	0.1745807
39	0x3dcab7c8	0.09898335
40	0x3e17f34c	0.14838904
41	0x3dd1825f	0.102299444
42	0x3d1f870d	0.038947154
43	0x3d2c000f	0.041992243
44	0xbe01b079	-0.12664975
45	0x3e2d6b43	0.16935448
46	0xbcfcc1f9	-0.030854212
47	0xbd98e90d	-0.07466326
48	0x3dcfb501	0.10141946
49	0xbcc59c72	-0.02412245
50	0xbc7c395c	-0.015394535
51	0x3e05ff50	0.13085675
52	0xbe016cbd	-0.12639137
53	0x3e5c8c1f	0.21537827
54	0x3e2d6641	0.16933538
55	0x3e42f956	0.19040427
56	0xbe1df900	-0.15427017
57	0xbe504383	-0.20338254
58	0x3dc5fbd7	0.09667175
59	0x3d39e835	0.045387466
60	0x3dc1cc1a	0.094627574
61	0x3df7893b	0.120867215
62	0x3cd98b28	0.026555613
63	0xbcb894c7	-0.02253188
64	0x3f27c15a	0.65529406
65	0xbd9f73b0	-0.077857375
66	0xbe595dab	-0.21227138
67	0x3e11e60c	0.14247912
68	0xbcde14ce	-0.02710953
69	0xbe4a7c65	-0.19774015
70	0x3c5401c8	0.012939878
71	0x3d92b269	0.07162935
72	0xbe455a9c	-0.19272846
73	0xbda0ffd6	-0.07861297
74	0x3d935083	0.07193091
75	0x3c8dc31e	0.017304953
76	0x3db47a04	0.08812335
77	0x3e260be5	0.16215475
78	0x3dd850fd	0.10562322
79	0x3d93e3ee	0.072212085
80	0xbe269d3a	-0.16270915
81	0x3c978b09	0.018498914
82	0xbd4a6e18	-0.0494214
83	0xbb98a4b3	-0.0046583056
84	0x3dc240df	0.094850294
85	0xbe26640a	-0.162491
86	0x3c2839ff	0.010267734
87	0xbd480898	-0.04883632
88	0xbd732d51	-0.05936939
89	0xbd089b2f	-0.03335112
90	0xbe4a099f	-0.19730233
91	0xbdd0ffe3	-0.102050565
92	0x3e522784	0.20522887
93	0x3e0aa040	0.13537693
94	0xbe02df28	-0.1278044
95	0x3e38c674	0.18044454
96	0x3e97996e	0.29609245
97	0x3dabb962	0.08384968
98	0x3d010f92	0.03150899
99	0x3e082184	0.13294035
100	0x3b9ff330	0.004881285
101	0x3cbb3e05	0.022856722
102	0xbe66230f	-0.22474311
103	0xbe033ce9	-0.12816204
104	0xbda48de9	-0.0803488
105	0x3e2c215f	0.16809605
106	0xbe1b10b4	-0.1514309
107	0xbdb0c79b	-0.08631822
108	0xbe89886c	-0.26861894
109	0xbe3b92f0	-0.18317771
110	0xbe3757bf	-0.17904566
111	0x3e585418	0.21125829
112	0xbd49e9bb	-0.04929517
113	0xbe5b4047	-0.21411239
114	0xbcad5dca	-0.021162886
115	0xba157df5	-0.0005702668
116	0x3e52a50a	0.2057077
117	0x3d86a67a	0.06574722
118	0x3d906cf8	0.07052034
119	0xbe4c2a7e	-0.19938084
120	0x3d2c986d	0.042137552
121	0x3e2c9c7d	0.1685657
122	0xbe420c71	-0.18950059
123	0xbe3d9389	-0.18513311
124	0xbe1cf259	-0.15326823
125	0xbe4ebb1f	-0.20188569
126	0x3d13cc03	0.036083233
127	0x3e32b804	0.17453009
128	0x3e2afd79	0.16698255
129	0x3d1a7b4b	0.037715238
130	0xbda13ee2	-0.07873322
131	0x3e0979d9	0.13425387
132	0x3e25a1ca	0.16174999
133	0x3dfa6961	0.12227131
134	0xbe1607cb	-0.1465141
135	0xbdeaa3bc	-0.11457011
136	0xbc0743a7	-0.008255876
137	0xbd5547c9	-0.052070413
138	0x3dea74fa	0.11448093
139	0x3e5ac847	0.21365462
140	0xbc3e53e4	-0.011616681
141	0x3d7e6230	0.062105358
142	0x3d044d59	0.032300327
143	0xbdf153b0	-0.1178354
144	0x3e31f2f2	0.17377833
145	0xbdbe7cfc	-0.09301183
146	0x3db0a687	0.086255126
147	0xbde37364	-0.111059934
148	0xbe551837	-0.20810018
149	0xbe067b66	-0.1313301
150	0x3e2a4b05	0.1663018
151	0xbd89855f	-0.06714892
152	0x3e145089	0.14483847
153	0x3e1af487	0.15132342
154	0xbe00cf5a	-0.12579098
155	0x3d753cff	0.059872624
156	0xbe1445db	-0.14479773
157	0x3d84a15b	0.064760886
158	0xbe03a296	-0.1285499
159	0xbd7d5454	-0.061848
160	0xbe79fa45	-0.24411876
161	0xbda36f37	-0.07980197
162	0xbcc87726	-0.024470877
163	0xbcfb2041	-0.030655028
164	0x3e3cb7b3	0.1842945
165	0x3e5c6c95	0.21525796
166	0xbe0075d3	-0.12544946
167	0xbe035ffe	-0.12829587
168	0xbd21688b	-0.03940634
169	0xbc460b24	-0.012087617
170	0x3e4d549b	0.20051806
171	0xbc01c31c	-0.007920053
172	0xbd0e2501	-0.03470326
173	0xbd8ebd01	-0.069696434
174	0x3daaf608	0.08347708
175	0x3d42f2da	0.047594883
176	0x3e389506	0.18025598
177	0x3e5a9511	0.21345927
178	0x3e562960	0.20914221
179	0x3e33929f	0.175364
180	0xbe11cfdb	-0.14239447
181	0x3d7ed596	0.06221541
182	0xbd4cf9e4	-0.050043
183	0x3e504bf3	0.20341472
184	0x3d6eac99	0.05827007
185	0xbd6f6083	-0.05844165
186	0x3d91a312	0.07111181
187	0x3e3cc8f0	0.18436027
188	0xbd4811b5	-0.04884501
189	0xbe1faeec	-0.15594071
190	0x3e63c7bf	0.22244166
191	0x3e834523	0.25638685
192	0x3e29b05b	0.1657118
193	0xbda3823e	-0.07983826
194	0x3e2074eb	0.156696
195	0x3da7b3e3	0.081886075
196	0x3e3a1f4e	0.18176004
197	0xbde4b676	-0.11167614
198	0x3dc58038	0.096435964
199	0x3e1f689a	0.15567246
200	0xbe17c5e1	-0.14821579
201	0x3b3975ac	0.0028298898
202	0xbdd7fce2	-0.105462804
203	0xbe408695	-0.18801339
204	0x3dbbbd57	0.09166973
205	0xbe16bd77	-0.14720713
206	0xbe3dacc7	-0.1852294
207	0x3da06011	0.07830823
208	0x3dc237a0	0.09483266
209	0x3ba5b7b9	0.005057302
210	0x3da205a7	0.07911234
211	0x3d996185	0.074893035
212	0x3d69af2e	0.05705183
213	0xbd5fbe22	-0.054624684
214	0xbe48609a	-0.195681
215	0x3dafb4f2	0.085794345
216	0x3e3e905e	0.18609759
217	0xbd9614d2	-0.0732819
218	0x3e26974e	0.16268656
219	0x3d7cc441	0.0617106
220	0xbe023acc	-0.12717742
221	0x3d8922de	0.066961035
222	0x3e70640c	0.23475665
223	0x3b392c07	0.0028255002
224	0xbe2d761d	-0.16939588
225	0xbdea9437	-0.11454051
226	0xbdd66da1	-0.10470129
227	0xbe317238	-0.17328727
228	0x3e440419	0.19142188
229	0xbe247405	-0.16059883
230	0x3dbad9e7	0.09123593
231	0xbdee204f	-0.11627256
232	0x3e35479a	0.17703095
233	0xbd8b5f02	-0.06805231
234	0xbe2b6fc2	-0.16741851
235	0xbe185663	-0.14876704
236	0xbe132c1e	-0.14372298
237	0xbcd3ddaf	-0.025862543
238	0x3d5ed045	0.05439784
239	0x3d2d3853	0.042290043
240	0x3d9b35e2	0.07578637
241	0xbda46272	-0.080265895
242	0xbcb018c7	-0.02149619
243	0xbd629673	-0.05531926
244	0xbd0f8a4b	-0.035043996
245	0x3dfdf31b	0.12399884
246	0xbe4589d7	-0.19290863
247	0x3d970717	0.07374399
248	0xbdca1755	-0.098677315
249	0xbdeb950f	-0.1150304
250	0xbe421470	-0.18953109
251	0x3da70ccb	0.08156737
252	0x3d6c5f46	0.057708047
253	0xbe20e9eb	-0.15714233
254	0xbcc9cf75	-0.024635056
255	0x3e531f88	0.20617497

GAT_layers.1.f.bias f4 [64]
0	0x3dd5e8d5	0.104448
1	0x3e20d52c	0.15706319
2	0xbdf925af	-0.12165391
3	0x3c886613	0.016650235
4	0x3dbdf763	0.09275701
5	0xbe096b6e	-0.13419887
6	0x3e21c045	0.15796001
7	0x3e29dca2	0.16588071
8	0xbd769da7	-0.060208943
9	0x3e2a21ff	0.16614531
10	0x3e2cb3a7	0.16865407
11	0xbdc7cb0e	-0.097555265
12	0xbd4fab05	-0.050700206
13	0x3e2a8a4b	0.16654317
14	0x3e364010	0.17797875
15	0xbda997e3	-0.08280923
16	0x3de29819	0.110641666
17	0xbdd3b8c2	-0.10337974
18	0xbcebbada	-0.028775621
19	0x3e1ac9ce	0.15116045
20	0xbccaa328	-0.024736002
21	0x3e504f46	0.2034274
22	0x3df4c9d4	0.11952558
23	0x3dd3c7c2	0.10340835
24	0xbda908e3	-0.08253648
25	0xbd51234a	-0.051059045
26	0xbc030a3e	-0.007998047
27	0xbd045672	-0.032309003
28	0x3e4beeed	0.19915362
29	0x3dbaa2c2	0.09113075
30	0x3dcdfa38	0.10057491
31	0x3e402771	0.18765046
32	0x3dcb23ba	0.09918924
33	0x3e40a580	0.18813133
34	0xbd24e9a7	-0.04026189
35	0xbdbf36f3	-0.093366526
36	0xbdfa9981	-0.1223631
37	0x3e3b0bb6	0.18266186
38	0x3e32f065	0.17474516
39	0x3deaba09	0.11461265
40	0xbc4f68f7	-0.012659303
41	0xbd00c3c5	-0.0314367
42	0x3e28f4cb	0.16499631
43	0x3e24f8a6	0.16110477
44	0x3e05a4d7	0.13051163
45	0xbca9ae19	-0.020712899
46	0x3dc76969	0.09736902
47	0xbde27060	-0.1105659
48	0xbda88419	-0.08228321
49	0x3dc7b8dc	0.09752056
50	0xbbd60920	-0.0065318495
51	0x3e3d8f09	0.18511595
52	0xbca503bf	-0.020143388
53	0x3e0c35ef	0.13692449
54	0xbd9defd9	-0.07711763
55	0x3e442836	0.19155964
56	0xbb3b0810	-0.0028538741
57	0x3e2bed39	0.16789712
58	0xbd8423a5	-0.06452111
59	0xbdc80464	-0.097664624
60	0xbd3089cc	-0.043100163
61	0x3dff72c5	0.124730624
62	0xbc588192	-0.013214486
63	0xbdd5a8c4	-0.1043258

GAT_layers.1.w.weight f4 [1, 64]
0	0xbe2d1f3a	-0.16906443
1	0xbdb85061	-0.08999706
2	0x3e873cfe	0.2641372
3	0xbe4b07b6	-0.1982716
4	0x3d44bdad	0.04803245
5	0xbdf41b66	-0.11919288
6	0x3d77d79b	0.06050835
7	0x3d8eda61	0.06975246
8	0xbe91970b	-0.2843555
9	0x3cdd71b5	0.027031759
10	0x3d39eaea	0.045390047
11	0x3e68e57a	0.22743788
12	0xbd0d7f2b	-0.034545105
13	0x3ddf05ac	0.10889754
14	0xbe6f70ca	-0.2338287
15	0xbe056da4	-0.13030106
16	0xbe189319	-0.14899863
17	0x3e892f0b	0.26793703
18	0xbd3cbff3	-0.046081495
19	0xbe2cc67e	-0.16872594
20	0x3e2020a6	0.15637454
21	0xbe83bc40	-0.2572956
22	0x3e7647b6	0.24050793
23	0xbdfe1f5d	-0.12408326
24	0x3dd07852	0.10179199
25	0x3e010540	0.12599659
26	0xbe054a88	-0.13016713
27	0xbe2a61a5	-0.16638811
28	0xbe352c1e	-0.1769261
29	0x3e3ddc84	0.18541151
30	0x3d39a8ec	0.045327112
31	0x3d5e4652	0.05426628
32	0xbe69766a	-0.22799078
33	0xbe1f1157	-0.15533958
34	0xbe2cbffd	-0.16870113
35	0xbdf6cf06	-0.12051205
36	0xbe708c7b	-0.23491089
37	0xbe7cb83b	-0.24679653
38	0xbc2d6fe9	-0.0105857635
39	0x3d8e598a	0.06950672
40	0x3cf88eda	0.030341554
41	0x3c631cb2	0.013861822
42	0x3bf60a12	0.0075085247
43	0x3e03b8a6	0.12863407
44	0xbe80d753	-0.2516428
45	0x3e8d2444	0.2756673
46	0xbcc4df12	-0.02403215
47	0x3d057fbb	0.032592516
48	0xbe8d0b7d	-0.27547827
49	0x3df53201	0.11972428
50	0xbe3eadc0	-0.18620968
51	0x3e8f8856	0.28033704
52	0xbe7c7f79	-0.24658002
53	0xbe92f05d	-0.28699008
54	0x3e3b1040	0.18267918
55	0xbe8755d4	-0.2643267
56	0xbd4d5219	-0.050127123
57	0xbe5400c1	-0.20703413
58	0xbdb6662a	-0.08906205
59	0x3d58afa2	0.05290187
60	0x3e5c0016	0.21484408
61	0x3e8dedfe	0.27720636
62	0xbe8079a0	-0.25092793
63	0x3da7ddc0	0.08196592

GAT_layers.2.f.weight f4 [64, 128]
0	0xbdc94911	-0.098283894
1	0xbca5de44	-0.020247586
2	0xbc44c33d	-0.012009439
3	0xbdb901f6	-0.09033577
4	0x3d8b5e24	0.06805065
5	0xbddf1eb5	-0.10894529
6	0xbe32414b	-0.1740772
7	0xbe13ec76	-0.14445671
8	0xbe3970d7	-0.18109451
9	0x3de123cf	0.10993158
10	0xbd1b62eb	-0.037936132
11	0xbe2f5425	-0.17121942
12	0x3e0cecab	0.13762157
13	0xbd98a16e	-0.07452665
14	0xbe29f53e	-0.16597459
15	0x3e234057	0.15942512
16	0xbdd4b4ee	-0.10386072
17	0xbe18a728	-0.14907515
18	0xbd674044	-0.056457773
19	0xbe39aaf9	-0.18131627
20	0x3d3226e2	0.043494113
21	0xbdc96f80	-0.0983572
22	0x3d96b17c	0.07358071
23	0xbe33c850	-0.17556882
24	0x3c414d35	0.011798193
25	0xbdb683e6	-0.089118764
26	0x3ab4795a	0.0013769076
27	0x3d0827ae	0.033240966
28	0xbe2ff6ab	-0.1718394
29	0x3d743c3c	0.059627756
30	0xbdf0715b	-0.11740371
31	0xbd167db4	-0.036740974
32	0xbe2bf9aa	-0.16794458
33	0xbe1939e2	-0.14963487
34	0x3d5f201b	0.054473978
35	0x3e0366ee	0.12832233
36	0xbd31c11b	-0.04339705
37	0xbe39ab6b	-0.18131797
38	0xbd52c0a4	-0.051453248
39	0x3c9d0cb1	0.01917109
40	0xbe16cb3f	-0.1472597
41	0xbd87cb4c	-0.06630573
42	0xbda59f1e	-0.0808699
43	0xbdd900b9	-0.10595841
44	0xbe2e1985	-0.17001922
45	0xbd0f43ec	-0.034976885
46	0x3e0b9e2b	0.13634555
47	0x3c10b9ef	0.0088333925
48	0x3e2952ea	0.16535535
49	0x3d9479d4	0.07249799
50	0xbe1124fc	-0.14174265
51	0xbd1c187e	-0.038109295
52	0x3e04ae9e	0.12957236
53	0xbc24df24	-0.0100629665
54	0xbd4ec3d7	-0.050479736
55	0xbe138beb	-0.14408843
56	0x3d15f4ea	0.03661052
57	0x3d88837c	0.06665704
58	0xbdaa3354	-0.08310571
59	0x3cc36395	0.023851195
60	0xbd01a4a1	-0.031651143
61	0x3d6b3394	0.057422236
62	0xbdcf2d79	-0.10116095
63	0xbdda25fd	-0.10651777
64	0xbe0d26af	-0.13784288
65	0xbdf4a7cb	-0.119460665
66	0x3de54a83	0.111958526
67	0x3e267c6a	0.16258398
68	0x3d9f3f34	0.07775727
69	0xbca4be93	-0.020110404
70	0xbd96b082	-0.07357885
71	0xbe03b045	-0.1286021
72	0x3d00d6d8	0.03145489
73	0x3d825fc1	0.0636592
74	0x3b8f8881	0.004380286
75	0x3d8530d8	0.06503457
76	0x3e08550c	0.13313693
77	0x3e1f5a98	0.15561903
78	0xbe2de23f	-0.16980837
79	0x3dac0ab9	0.08400483
80	0x3d196909	0.037453685
81	0xbd132c3b	-0.035930853
82	0x3e2c85f4	0.16847974
83	0xbe382182	-0.17981532
84	0xbe1e505e	-0.15460345
85	0xbdf75749	-0.12077195
86	0xbdd2ba1e	-0.10289405
87	0x3de866b9	0.11347718
88	0x3e1c406e	0.15258953
89	0x3da1db10	0.07903111
90	0xbe343f61	-0.17602302
91	0x3dc309b7	0.09523337
92	0xbd44d1ba	-0.048051573
93	0xbe273317	-0.16328083
94	0xbda5d1c5	-0.08096651
95	0xbdd1798e	-0.10228263
96	0x3d89cb92	0.06728281
97	0x3c410f76	0.011783471
98	0x3e0023b1	0.12513615
99	0xbd20c03e	-0.039245836
100	0xbe5d4d44	-0.21611506
101	0xbd5ad879	-0.0534291
102	0xbd9f1b6b	-0.077689014
103	0xbdbc2d8a	-0.091883734
104	0x3c00dd92	0.0078653265
105	0x3e2ebe87	0.17064868
106	0xbd328a63	-0.043589007
107	0x3d44ea9f	0.048075315
108	0x3d287069	0.041122828
109	0xbc5a9d20	-0.013343126
110	0xbe0b2506	-0.13588342
111	0xbe39f225	-0.18158777
112	0xbda9d7d2	-0.082931176
113	0x3ce5076c	0.02795764
114	0x3ce0e78d	0.027454162
115	0xbe29bd76	-0.1657618
116	0x3c7e7872	0.015531646
117	0x3da5502d	0.08071933
118	0x3d8ec724	0.06971577
119	0xbda48257	-0.08032673
120	0xbc8ff859	-0.017574476
121	0x3e03e7f0	0.12881446
122	0x3e075046	0.13214216
123	0xbd641bed	-0.055690695
124	0xbdc5453f	-0.09632348
125	0xbdf3df1b	-0.11907788
126	0x3d1b8c8a	0.037975825
127	0xbc8e6910	-0.017384082
128	0xbe24a1b1	-0.16077305
129	0xbda7dedf	-0.08196806
130	0xbd01b6c3	-0.031668436
131	0xbe10ff43	-0.14159875
132	0x3ca89206	0.020577442
133	0xbdf448ac	-0.119279236
134	0x3cb241a6	0.02175982
135	0x3db00177	0.085940294
136	0xbca2ea9d	-0.019887263
137	0x3ddc75e1	0.10764671
138	0xbd7daeb3	-0.061934184
139	0x3e3d24e0	0.18471098
140	0x3e44f837	0.19235311
141	0x3d986297	0.074406795
142	0xbdd3dee2	-0.10345246
143	0xbd0e5da3	-0.034757268
144	0xbe135a56	-0.14389929
145	0x3de34f43	0.11099102
146	0xbde58cb3	-0.11208477
147	0xbe2632c7	-0.16230308
148	0x3e0e674f	0.13906597
149	0x3d5c0967	0.053719904
150	0x3dc619f4	0.09672919
151	0xbe33c47c	-0.17555422
152	0x3d13494c	0.035958573
153	0x3e26b5a5	0.1628023
154	0xbe053047	-0.13006698
155	0xbd7533cf	-0.05986386
156	0x3ba2df40	0.004970461
157	0xbdcd886a	-0.100357845
158	0x3c81b3b4	0.01583276
159	0x3d8572e1	0.06516052
160	0x3d7aaea8	0.06120172
161	0x3e1b97a4	0.15194565
162	0xbdc5b158	-0.09652966
163	0x3d89241f	0.06696343
164	0x3e4a5970	0.1976068
165	0x3cb7ec7f	0.022451637
166	0xbb574b3e	-0.0032851244
167	0xbd22c22f	-0.03973597
168	0xbde95430	-0.113930106
169	0x3e2ab536	0.16670689
170	0x3e354e9f	0.17705773
171	0x3e023af1	0.12717797
172	0xbd3eb24a	-0.04655675
173	0x3c090aea	0.0083644185
174	0xbde072b5	-0.10959379
175	0x3dcc023e	0.09961365
176	0x3c75302e	0.0149651
177	0x3d8e424d	0.069462396
178	0x3e20a05d	0.15686174
179	0xbe156bc3	-0.14591889
180	0x3e17c859	0.1482252
181	0xbc75ce1f	-0.015002756
182	0xbdc93906	-0.098253295
183	0x3e46c1b8	0.19409835
184	0xbcc0e6d9	-0.023547577
185	0xbe2d4a3f	-0.16922854
186	0x3e1aa3d3	0.15101556
187	0x3d9bc58d	0.07606039
188	0xbd1cf59b	-0.038320165
189	0x3d3d06ae	0.04614895
190	0x3e222460	0.15834188
191	0x3e027a36	0.12741932
192	0xbdef4055	-0.11682192
193	0x3e2403b7	0.16017042
194	0xbdc43b27	-0.09581595
195	0x3de75def	0.11297213
196	0x3d92bcc1	0.07164908
197	0xbccf228d	-0.02528503
198	0xbdfee67b	-0.124463044
199	0x3e090628	0.13381255
200	0x3d221304	0.039568916
201	0x3df7b516	0.12095086
202	0x3d08a066	0.033356093
203	0x3dc4a4fb	0.0960178
204	0x3dd6a1f9	0.104801126
205	0xbd890d3c	-0.066919774
206	0xbd99bf37	-0.075071745
207	0x3d9077ff	0.070541374
208	0xbce67054	-0.028129734
209	0x3e3084f2	0.17238215
210	0x3e1bccc7	0.15214835
211	0xbd219842	-0.039451845
212	0xbde23882	-0.11045934
213	0x3d694678	0.05695197
214	0x3d9ff484	0.078103095
215	0xbdf2bb75	-0.11852161
216	0x3dba2d3f	0.09090661
217	0x3e17153d	0.14754196
218	0x3e033113	0.12811689
219	0xbdd4d644	-0.103924304
220	0xbe2d6df2	-0.16936472
221	0x3d492f5a	0.049117424
222	0x3e3379bc	0.17526907
223	0x3cfd5823	0.030925816
224	0xbc893880	-0.016750574
225	0xbdac6690	-0.08418
226	0xbe0b74bc	-0.1361875
227	0x3d76e3cf	0.06027585
228	0x3e0bfa61	0.1366973
229	0x3d34a0c6	0.044098638
230	0xbe01f687	-0.12691699
231	0x3b1ca232	0.0023900387
232	0x3e0b6f73	0.13616733
233	0xbdbcb133	-0.092134856
234	0xbcb6a27e	-0.02229428
235	0x3d2ff647	0.042959478
236	0xbe050551	-0.1299031
237	0x3e1fdabb	0.15610783
238	0x3e360b89	0.17777838
239	0xbcf9d572	-0.030497286
240	0xbe1d2392	-0.153456
241	0xbdda0ed0	-0.106473565
242	0xbda73143	-0.08163693
243	0x3d7d4677	0.06183478
244	0x3d833c3a	0.06407972
245	0xbc92e941	-0.01793349
246	0xbe2e19e5	-0.17002065
247	0xbd903948	-0.070421755
248	0x3e217556	0.15767416
249	0x3d9379cd	0.07200966
250	0x3d362d18	0.0444766
251	0x3e08a240	0.13343143
252	0xbcb28ef6	-0.021796685
253	0x3d35c97e	0.04438161
254	0x3e0b2012	0.13586453
255	0x3e7a757c	0.24458879

GAT_layers.2.f.bias f4 [64]
0	0xbd51f8d1	-0.05126268
1	0xbdaa17ea	-0.083053425
2	0x3e05e77f	0.1307659
3	0xbda8addb	-0.08236285
4	0xbdb8ea87	-0.090291075
5	0xbd9e3400	-0.07724762
6	0xbd9a8ad1	-0.075460084
7	0xbd1fb88f	-0.03899437
8	0x3df56cef	0.11983668
9	0x3e1c9276	0.15290245
10	0x3cc5b3e9	0.02413364
11	0x3e0e8b49	0.1392032
12	0x3df80373	0.12110033
13	0x3dd3e586	0.103465125
14	0xbaeb3fae	-0.0017948055
15	0x3e14d236	0.14533314
16	0xbd331fa4	-0.043731347
17	0x3e2fffb4	0.17187387
18	0x3d492671	0.049108926
19	0x3d93d4fc	0.07218358
20	0x3de8e980	0.113726616
21	0x3e8a1add	0.2697362
22	0x3e971e3e	0.2951526
23	0x3e3b51ac	0.18292874
24	0x3dc4bbf5	0.096061625
25	0xbd443c84	-0.047909275
26	0x3d072a93	0.032999586
27	0x3dd3e769	0.10346872
28	0xba3b6e59	-0.0007149927
29	0x3c6d455c	0.014481869
30	0x3da8b193	0.082369946
31	0xbd6fea9a	-0.058573343
32	0x3e36216d	0.17786188
33	0xbd476fd2	-0.048690625
34	0x3d331522	0.043721326
35	0xbd9f594e	-0.077807054
36	0xbcd9b4d1	-0.026575478
37	0x3c4da8f0	0.012552485
38	0x3dc80384	0.097662956
39	0x3e2baec4	0.16765887
40	0x3e0bcde3	0.13652758
41	0x3d46bb08	0.04851821
42	0xbd7a469c	-0.061102495
43	0x3dd0afd9	0.1018979
44	0x3e00a3bd	0.12562461
45	0x3de5eefc	0.11227223
46	0xbd96a271	-0.07355202
47	0x3dc20b22	0.0947478
48	0xbdf3b9ad	-0.11900649
49	0xbac0bd99	-0.0014704942
50	0x3e0e5435	0.1389931
51	0x3d78520a	0.060625114
52	0x3d35285c	0.044227943
53	0x3c9c23fa	0.019060124
54	0x3e0417aa	0.12899652
55	0x3e17e550	0.1483357
56	0xbc688cc8	-0.014193721
57	0x3cd40390	0.025880605
58	0xbd591183	-0.052995216
59	0xbcaeab91	-0.021322044
60	0x3d73a8e9	0.059487257
61	0x3e2d8323	0.16944556
62	0xbc9a1859	-0.018810438
63	0x3df585fb	0.11988445

GAT_layers.2.w.weight f4 [1, 128]
0	0x3d3a0128	0.04541126
1	0x3a496199	0.00076820847
2	0x3d2e3807	0.0425339
3	0xbe6bc8e5	-0.23025854
4	0xbc71fd19	-0.014769816
5	0x3dfb6dd9	0.12276811
6	0xbe2b3304	-0.1671868
7	0x3d9939a0	0.07481694
8	0x3d9f0928	0.07765418
9	0x3e3d5545	0.18489559
10	0xbe0075a2	-0.12544873
11	0x3c943ace	0.018094447
12	0xbe48189a	-0.19540635
13	0xbd504354	-0.05084546
14	0xbe0039c4	-0.12522036
15	0x3e35ba0e	0.17746755
16	0xbdabb0b4	-0.08383313
17	0xbde3463c	-0.110973805
18	0x3e0ebe07	0.13939677
19	0x3e28a3b7	0.16468702
20	0xbcb860b9	-0.022507058
21	0x3dba725b	0.09103843
22	0xbe2299a3	-0.1587892
23	0xbe513492	-0.2043021
24	0xbdcbb5a3	-0.09946754
25	0xbe385eec	-0.1800496
26	0xbe2c3469	-0.16816868
27	0xbdd3d339	-0.10343022
28	0xbe484d78	-0.19560802
29	0x3da3c3fb	0.07996365
30	0x3cd749b2	0.026280258
31	0xbdd67ed3	-0.104734086
32	0x3e7e7f6f	0.248533
33	0x3dc4d553	0.09611001
34	0x3dff9d53	0.12481179
35	0x3dfe7852	0.12425293
36	0xbe01e653	-0.12685518
37	0x3de18725	0.11012105
38	0xbd984dc7	-0.0743671
39	0xbba9da74	-0.0051835123
40	0xbdd7f004	-0.10543826
41	0xb995356a	-0.0002845929
42	0x3d686d4f	0.05674487
43	0x3c1c80ea	0.00955222
44	0x3e85723e	0.26063722
45	0x3dcec235	0.10095636
46	0xbe2717e0	-0.16317701
47	0x3e3a958a	0.18221107
48	0x3c970474	0.01843474
49	0x3e104701	0.14089586
50	0x3d62620d	0.05526929
51	0x3e471265	0.1944061
52	0x3d8d06a9	0.06886036
53	0x3e3f19ad	0.18662138
54	0x3d9c73e5	0.07639293
55	0xbe067749	-0.13131441
56	0x3e0ff22a	0.14057222
57	0xbe02f0d9	-0.12787189
58	0xbd4e51a8	-0.050370842
59	0xbdec8dac	-0.11550459
60	0xbc4b8e30	-0.012424037
61	0xbe0e4b7c	-0.13895983
62	0xbe1870d9	-0.14886798
63	0xbe559913	-0.20859174
64	0xbe455df8	-0.19274127
65	0xbd959f73	-0.07305803
66	0x3dd09b27	0.10185843
67	0xbd2cdae2	-0.04220093
68	0xbd6d349e	-0.057911508
69	0x3d9aa924	0.07551792
70	0x3e055837	0.13021933
71	0xbd93d2d3	-0.07217946
72	0xbe4039c1	-0.18772031
73	0xbdab8865	-0.083756246
74	0xbe525ae4	-0.20542485
75	0x3dd8d6d5	0.10587851
76	0x3d5475a3	0.05187
77	0xbba12ee3	-0.0049189194
78	0xbd31f32b	-0.043444794
79	0x3e0c7554	0.13716632
80	0xbe154aa6	-0.14579257
81	0x3e218d03	0.15776448
82	0x3dbedd38	0.09319538
83	0x3e540b55	0.20707448
84	0x3e0b3c76	0.13597283
85	0xbb59512d	-0.0033159957
86	0x3dbb1d55	0.09136454
87	0x3d4051be	0.046952955
88	0xbc604fe4	-0.013690922
89	0xbd114cd8	-0.035473675
90	0xbdf6ca38	-0.12050289
91	0xbdc4c1a3	-0.09607246
92	0x3e3fa4b0	0.18715167
93	0xbdb3f207	-0.087863974
94	0xbdce40d0	-0.10070956
95	0x3e111def	0.14171575
96	0x3e1c489e	0.15262076
97	0xbe088579	-0.13332166
98	0xbd60c974	-0.05487962
99	0xbe3184a8	-0.1733576
100	0x3e26b19e	0.16278693
101	0x3d4916cd	0.04909401
102	0x3e40c27e	0.18824193
103	0xbd99f899	-0.07518119
104	0xbde080fb	-0.10962101
105	0x3d9a0211	0.075199254
106	0xbe05a56d	-0.13051386
107	0xbe3a8b10	-0.1821711
108	0xbe025129	-0.12726273
109	0xbcb65e8c	-0.02226188
110	0x3d3cf87c	0.04613541
111	0xbe2b5eb4	-0.16735345
112	0x3da618af	0.08110177
113	0xbe3a7fa2	-0.1821275
114	0x3d925751	0.071455605
115	0xbe122ea5	-0.14275606
116	0xbe47b996	-0.19504389
117	0x3d92af26	0.07162313
118	0x3ddda02e	0.108215675
119	0xbcd6ecf4	-0.026236035
120	0x3d3dc93e	0.046334498
121	0xbde3b4e3	-0.11118486
122	0xbde8d1c1	-0.113681324
123	0xbd14d95a	-0.036340095
124	0x3e1a4830	0.150666
125	0xbdd65249	-0.104649134
126	0xbe5e622a	-0.21717134
127	0x3d62c8cd	0.05536728

MLP_layers.0.weight f4 [32, 64]
0	0x3cb670c2	0.022270564
1	0xbe176aca	-0.1478683
2	0x3d095e03	0.033536922
3	0xbbd6a520	-0.006550446
4	0xbd320365	-0.04346027
5	0xbd66db24	-0.056361333
6	0xbca1f587	-0.019770397
7	0x3aa436f7	0.0012528588
8	0xbd740819	-0.059578035
9	0x3d9f3377	0.07773488
10	0xbcbb7901	-0.022884848
11	0x3d5a2d8a	0.053266086
12	0xbd038338	-0.03210756
13	0x3d45059a	0.048101045
14	0xbd36f7cd	-0.044669915
15	0x3e0e8b0c	0.1392023
16	0xbd25044e	-0.04028731
17	0x3e268313	0.16260938
18	0xbd46665a	-0.048437454
19	0x3df42ddd	0.1192281
20	0x3e9bdb1c	0.30440605
21	0x3f9b4245	1.2129599
22	0x3f88d41d	1.0689732
23	0x3e54d68b	0.20784967
24	0x3e0a805d	0.13525529
25	0x3d44c46f	0.048038896
26	0x3d13bdd1	0.036069695
27	0xbcf498bc	-0.029857986
28	0xbbb03550	-0.005377449
29	0xbca39478	-0.019968256
30	0x3dda63e6	0.10663585
31	0x3dacbc4a	0.08434351
32	0xbd31e472	-0.043430753
33	0xbd96f471	-0.07370842
34	0x3d9c11fc	0.07620618
35	0xbdc68635	-0.09693567
36	0x3d0e5e93	0.03475816
37	0x3d5cff26	0.053954266
38	0x3d9f7530	0.077860236
39	0x3c6eb028	0.014568366
40	0x3c8fe259	0.017563986
41	0x3d447a81	0.04796839
42	0xbcc173cd	-0.023614788
43	0x3e5dea30	0.21671367
44	0x3db46117	0.08807581
45	0x3db6eb3c	0.08931586
46	0x3da1de28	0.07903701
47	0x3e33fca7	0.17576848
48	0xbce7c84f	-0.028293757
49	0xbc548dd3	-0.012973267
50	0xbccfcdfe	-0.02536678
51	0x3d5419d5	0.051782448
52	0x3dd6e254	0.104923874
53	0x3e0d5d02	0.13805011
54	0x3dae2372	0.085028544
55	0x3d70e797	0.05881461
56	0x3e1bb67e	0.15206334
57	0xbd0e278d	-0.034705687
58	0x3db99e84	0.090634376
59	0xbdacb30e	-0.084325895
60	0x3daf41a4	0.08557442
61	0x3c99018a	0.018677492
62	0xbdea46fa	-0.11439319
63	0x3d3880bb	0.045044642
64	0x3c897df8	0.0167837
65	0xbdface3d	-0.12246368
66	0x3d24dae6	0.04024782
67	0xbdb7051e	-0.08936523
68	0x3d5eef52	0.054427452
69	0xbdb24001	-0.08703614
70	0x3dd185e6	0.10230617
71	0xbcb421b7	-0.021988733
72	0xbd235761	-0.039878253
73	0x3d616fb3	0.055038165
74	0xbd92d1ba	-0.071689084
75	0x3d00db22	0.03145898
76	0x3de2440d	0.11048136
77	0x3e12dddf	0.1434245
78	0xbcd0c3f0	-0.025484055
79	0x3d453ba0	0.048152566
80	0x3da47f24	0.08032063
81	0x3e45caf4	0.19315702
82	0x3bf7a798	0.0075578205
83	0xb985e3f6	-0.0002553758
84	0x3e7e4a90	0.24833131
85	0x3fca646b	1.5811895
86	0x3f89c4ab	1.0763143
87	0x3d97ca42	0.074116245
88	0x3e0854bb	0.13313572
89	0xbdb8b524	-0.09018925
90	0x3d6e6a1b	0.05820666
91	0xbd69b68e	-0.057058863
92	0x3df834d9	0.12119455
93	0x3cedb8a6	0.029018711
94	0xbdec6c87	-0.115441374
95	0xbdba6bb7	-0.09102576
96	0x3e0d0abd	0.13773628
97	0xba38956b	-0.0007041308
98	0xbdec6b60	-0.11543918
99	0x3d17de5b	0.03707729
100	0xbca60d59	-0.020270037
101	0x3e00d6dd	0.12581964
102	0x3d8000b1	0.06250132
103	0x3d22e3a5	0.03976788
104	0x3c0d6017	0.008628867
105	0xbd15713b	-0.036484938
106	0xbdbbf47b	-0.0917749
107	0x3e41f080	0.189394
108	0x3d991b81	0.07475949
109	0xbdb363cc	-0.08759269
110	0xbd8256f5	-0.06364242
111	0x3dafcc0e	0.08583842
112	0x3d0d332d	0.034472633
113	0x3d90abe4	0.070640355
114	0x3dfe7f76	0.12426655
115	0x3dcbb94c	0.09947452
116	0x3d96a452	0.0735556
117	0x3e40cb6b	0.18827598
118	0x3e6263fa	0.2210845
119	0x3de31394	0.110877186
120	0x3dff06d1	0.12452472
121	0x3d824828	0.06361419
122	0xbb8c9b99	-0.0042910096
123	0xbd643cd3	-0.05572207
124	0x3d6b4cce	0.057446294
125	0x3ddf014f	0.108889215
126	0xbd15955e	-0.0365194
127	0x3e0c5f21	0.13708164
128	0xbd8b8a4b	-0.06813487
129	0x3c2f6667	0.010705567
130	0xbd9e19b1	-0.07719744
131	0xbc235ab0	-0.009970352
132	0xbb1ef5ee	-0.0024255472
133	0x3cb16ab7	0.02165733
134	0xbda17e88	-0.07885462
135	0xbdd997b7	-0.106246404
136	0x3c96efcd	0.018424893
137	0x3d1347b4	0.035957053
138	0x3d48beca	0.049010076
139	0x3a94549f	0.0011316723
140	0x3c63bdb6	0.013900211
141	0x3d878d85	0.066187896
142	0xbdd2bedf	-0.10290312
143	0x3da3fec7	0.08007579
144	0xbd7e164a	-0.062032975
145	0x3dc27efb	0.09496876
146	0x3dadb992	0.0848266
147	0x3d766026	0.060150288
148	0x3e6631e3	0.22479968
149	0x3f62d311	0.8860331
150	0x3f88ff9d	1.0703007
151	0x3e6f8593	0.23390798
152	0x3dee0e74	0.116238505
153	0xbdffd73e	-0.12492226
154	0x3d4891c8	0.048967153
155	0x3d282786	0.041053317
156	0x3bb6f272	0.005583101
157	0x3d829072	0.06375207
158	0xbd1d6de5	-0.03843488
159	0xbcfb0481	-0.030641796
160	0x3e5737bf	0.21017359
161	0xbdc94c1b	-0.09828969
162	0x3d771287	0.060320403
163	0x3df184b4	0.11792889
164	0x3990c3cb	0.00027611697
165	0x3db8c87f	0.090226166
166	0x3d9b259c	0.07575533
167	0x3df72e2a	0.12069352
168	0x3d0d4f82	0.034499653
169	0xbd7d6bbd	-0.061870325
170	0xbd805999	-0.062670894
171	0xbbad58e3	-0.005290137
172	0x3e2699af	0.16269563
173	0x3e51378e	0.20431349
174	0x3de106e4	0.109876424
175	0x3e2882c0	0.16456127
176	0xbd3223d1	-0.04349119
177	0xbdcdc69e	-0.10047649
178	0x3d44676b	0.04795019
179	0xbdae6aba	-0.0851645
180	0xbd4268b0	-0.04746312
181	0x3db90554	0.090342194
182	0x3e74e536	0.23915562
183	0xbda02037	-0.078186445
184	0x3e29663d	0.16542907
185	0x3d755b39	0.05990145
186	0xbde80905	-0.11329845
187	0xbdf3a7f6	-0.118972704
188	0xbbcb97c9	-0.0062131626
189	0x3e565fa3	0.2093492
190	0xbde0c2d6	-0.10974662
191	0x3cd49534	0.025950052
192	0xbcb7d92e	-0.022442427
193	0x3d8528cb	0.06501921
194	0xbc9aa9c1	-0.018879773
195	0x3da16804	0.078811675
196	0xbd7ae57f	-0.06125402
197	0xbdc5b843	-0.09654286
198	0x3cb2063a	0.021731485
199	0xbd4f2767	-0.050574686
200	0x3d679618	0.056539625
201	0x3c927f27	0.017882897
202	0x3d8c5201	0.068515785
203	0x3c87652d	0.016527737
204	0x3d995630	0.07487142
205	0x3e008ba3	0.12553267
206	0xbd8a08db	-0.0673997
207	0x3e13335d	0.14375062
208	0x3e06a1fb	0.13147728
209	0x3da15235	0.07877008
210	0xbdab9ef3	-0.083799265
211	0x3bbd68ba	0.0057803066
212	0x3e22d333	0.15900879
213	0x3ee7477c	0.45171726
214	0xbdc19cf5	-0.09453765
215	0x3e2b416a	0.16724172
216	0xbd8e0686	-0.06934838
217	0xbc26fb24	-0.0101917125
218	0x3da47144	0.08029416
219	0xbdc0be1d	-0.09411261
220	0x3c27dead	0.010245961
221	0x3dc6ee26	0.09713392
222	0xbabd8b00	-0.0014460981
223	0xbd08485c	-0.033272132
224	0xbba789ab	-0.005112847
225	0xbe063f36	-0.1311005
226	0xbc311f98	-0.010810755
227	0xbd823c39	-0.06359143
228	0x3e0076fd	0.1254539
229	0xbd90955a	-0.070597365
230	0x3be6e844	0.007046731
231	0x3dc08364	0.09400061
232	0x3d541fa2	0.05178798
233	0xbd01fc62	-0.03173483
234	0xbdca5c49	-0.09880883
235	0x3e5ffae2	0.21873048
236	0xbda94b9f	-0.08266377
237	0x3dc6b9c6	0.09703402
238	0xbcbbf41b	-0.022943547
239	0x3e217e80	0.15770912
240	0x3d9b0f89	0.075713225
241	0xbd21de9a	-0.03951893
242	0xbdb0604b	-0.086121164
243	0x3da85070	0.08218467
244	0xbd806f5e	-0.062712416
245	0x3d04bafe	0.032404892
246	0x3e19948a	0.1499807
247	0x3d8ef385	0.069800414
248	0x3dd55304	0.104162246
249	0x3de3cd1c	0.11123106
250	0xbd18774b	-0.03722314
251	0x3d227a3a	0.039667346
252	0xbcbb7f4d	-0.02288785
253	0x3cf24c3f	0.029577373
254	0xbd6d0ec8	-0.057875425
255	0x3e25ac73	0.16179065

MLP_layers.0.bias f4 [32]
0	0x3e58384a	0.21115223
1	0x3e713dff	0.23558806
2	0x3e91cee7	0.28478166
3	0x3e79ad17	0.24382435
4	0xbd92076c	-0.07130322
5	0x3e4aac92	0.19792393
6	0x3cd65199	0.026161956
7	0x3e275d7d	0.16344257
8	0xba285e6d	-0.0006422762
9	0xbd194c01	-0.037426
10	0xbc7f6700	-0.015588522
11	0xbc4ece42	-0.012622418
12	0xbb8bf286	-0.0042708544
13	0xbe029dbd	-0.12755485
14	0xbddcb9ec	-0.10777649
15	0x3e5befaf	0.21478151
16	0xbc4c4bee	-0.012469275
17	0x3e7d4b17	0.24735676
18	0xbdc902dd	-0.09814999
19	0xbc232593	-0.009957689
20	0xbe006d94	-0.125418
21	0x3d8a5a34	0.06755486
22	0xbc252de3	-0.010081741
23	0xbdd35f82	-0.10320951
24	0x3d41c90d	0.047310878
25	0xbd987c21	-0.07445551
26	0x3d403c0d	0.04693227
27	0xbe0d2eba	-0.13787356
28	0xbc2fdf7a	-0.010734433
29	0xbde7daa4	-0.11320999
30	0xbc9bbef3	-0.01901195
31	0xbc2e2d6e	-0.0106309485

MLP_layers.1.weight f4 [1, 32]
0	0x3e0ef01d	0.13958783
1	0x3d996bec	0.074912876
2	0x3e85b746	0.2611639
3	0x3d1433f8	0.036182374
4	0x3e1712e4	0.147533
5	0x3deb67a6	0.11494379
6	0xbae0140b	-0.0017095817
7	0x3d9fbbd8	0.077995
8	0xbd8eb358	-0.06967801
9	0xbe239aff	-0.15977095
10	0x3c150fe7	0.00909803
11	0xbd0f5f38	-0.035002917
12	0x3caf4897	0.021396918
13	0xbb65bfa3	-0.0035056851
14	0xbd6d7ff6	-0.05798336
15	0x3e0163fa	0.12635794
16	0xbe21eb03	-0.15812306
17	0x3e05fdaf	0.13085054
18	0x3b0693ba	0.002053483
19	0xbe050a7c	-0.1299228
20	0xbdbe1f5d	-0.09283326
21	0x3dad81e8	0.08472043
22	0xbc6b582b	-0.014364283
23	0xbbeb96f7	-0.0071896273
24	0x3df269f6	0.11836617
25	0xbb0804ca	-0.0020754808
26	0x3e34b703	0.17647938
27	0xbcf30105	-0.029663572
28	0xbe0f6774	-0.14004308
29	0xbde19ff5	-0.110168375
30	0xbe2370d2	-0.15961006
31	0xbdaf8930	-0.08571088
