SLIC_GAT/last1.pt (torch, 74869 bytes, 12 tensors)

GAT_layers.0.f.weight f4 [32, 82]
0	0xbe581ef3	-0.21105556
1	0x3dc44919	0.09584255
2	0x3ba448af	0.0050135474
3	0x3c28eed4	0.010310847
4	0x3d77fc01	0.060543064
5	0xbbde6907	-0.0067874226
6	0x3db8a9a1	0.09016729
7	0x3e2d1a2a	0.16904512
8	0xbdef8fdf	-0.11697363
9	0xbde5c2bc	-0.11218783
10	0xbe0b1199	-0.13580932
11	0xbd9f508c	-0.07779035
12	0x3df1b85f	0.11802744
13	0xbd0ff4d2	-0.03514559
14	0xbd0a4bfc	-0.03376387
15	0x3e0f0815	0.13967927
16	0xbe155a53	-0.14585237
17	0xbbbe9984	-0.0058166403
18	0xbe44ddfe	-0.19225308
19	0xbe604d59	-0.21904506
20	0xbd750539	-0.059819434
21	0xbe1d321e	-0.1535115
22	0xbc1d74d9	-0.009610378
23	0x3debcb18	0.115133464
24	0x3cdb482a	0.026767809
25	0x3e51a881	0.20474435
26	0xbe43cd5e	-0.1912131
27	0xbd382dc6	-0.044965528
28	0x3e3b4a47	0.18290053
29	0xbe4f80b6	-0.20263943
30	0xbd70bf0b	-0.058775943
31	0xbe66932f	-0.22517084
32	0xba2a3590	-0.0006492967
33	0xbde14fa5	-0.11001519
34	0x3decee65	0.11568908
35	0xbb6b1974	-0.0035873326
36	0x3df0f731	0.11765898
37	0x3d4c706d	0.049911905
38	0x3e135e70	0.14391494
39	0x3e0241ee	0.12720463
40	0x3db51c79	0.08843321
41	0x3e218fe2	0.15777543
42	0xbcf47178	-0.029839262
43	0x3e4ae838	0.19815147
44	0x3e4d081a	0.20022622
45	0x3e2ca017	0.16857944
46	0x3e3d5ba7	0.18491994
47	0x38aaa8d0	8.1376755e-05
48	0xbe4b8063	-0.19873194
49	0x3d778550	0.06042987
50	0x3dd1c044	0.1024175
51	0x3d8c241a	0.06842823
52	0xbe4b17e9	-0.1983334
53	0x3dc37403	0.09543612
54	0x3e3d2d5a	0.18474331
55	0xbdeeaaf4	-0.116537005
56	0x3dc30cfa	0.095239595
57	0xbc96076e	-0.01831409
58	0x3dea8cfb	0.11452671
59	0xbe6cde63	-0.23131709
60	0x3e588740	0.21145344
61	0xbd42f549	-0.047597203
62	0xbd8a976e	-0.06767164
63	0x3c352d29	0.01105813
64	0x3c5e9abe	0.013586698
65	0xbd5a2201	-0.053255085
66	0xbe69a93d	-0.22818466
67	0xbe743b5f	-0.23850773
68	0x3e4ee6a8	0.20205176
69	0xbdf1d1f5	-0.11807624
70	0xbe6855d6	-0.22688994
71	0xbe51a8f4	-0.20474607
72	0xbe426b67	-0.18986283
73	0xbe45c7fa	-0.19314566
74	0xbe0d109b	-0.13775866
75	0xbe1afa68	-0.15134585
76	0xbe6bef9e	-0.23040625
77	0xbd89e15c	-0.06732437
78	0xbe58ae50	-0.21160245
79	0x3e18e5dc	0.14931434
80	0xbe69e38c	-0.22840708
81	0x3e21f0e9	0.15814556
82	0x3daa2dbe	0.08309506
83	0x3e2de04c	0.16980094
84	0xbe68d4f4	-0.22737485
85	0xbcc4aff9	-0.024009692
86	0x3e3d47a1	0.18484356
87	0xbe153a0a	-0.14572921
88	0x3e1a98f5	0.15097411
89	0x3d7aace3	0.061200034
90	0x3e237266	0.15961608
91	0x3da0209c	0.0781872
92	0xbe38d3c2	-0.18049529
93	0x3e11e6d7	0.14248215
94	0xbe62e51e	-0.22157714
95	0x3b8bbcad	0.0042644353
96	0x3dd12192	0.10211481
97	0xbdb41171	-0.08792389
98	0xbe62814f	-0.2211964
99	0xbdee2fef	-0.11630236
100	0x3e293a20	0.16526079
101	0x3e15a38d	0.14613171
102	0x3e4e1d87	0.20128451
103	0x3e1313f3	0.14363079
104	0xbe64fc7f	-0.22361945
105	0x3d27ae7b	0.040937882
106	0x3cfa1207	0.030526174
107	0x3dc6803c	0.096924275
108	0xbe72423e	-0.23658082
109	0x3e1c0a88	0.15238392
110	0xbd8b20ac	-0.06793341
111	0xbe564965	-0.20926435
112	0x3d6ee6ba	0.058325507
113	0xbe438b95	-0.19096215
114	0xbdb9c1b5	-0.0907015
115	0x3ded4d7a	0.11587043
116	0x3d6b4a23	0.05744375
117	0x3ba999de	0.005175813
118	0x3e0581e0	0.13037825
119	0x3da9c485	0.08289436
120	0x3d7dc2d4	0.06195338
121	0x3e174bc1	0.14774992
122	0x3e04b218	0.12958562
123	0xbd9548b6	-0.07289259
124	0xbd914bbf	-0.070945255
125	0x3deea022	0.11651637
126	0x3d3d14c9	0.0461624
127	0x3cb17f8f	0.02166727
128	0xbdbe7eee	-0.09301554
129	0x3d800f69	0.06252939
130	0xbdd0332f	-0.101660125
131	0x3d04ef63	0.03245486
132	0x3e4ebf32	0.20190123
133	0xbd14e5a9	-0.036351833
134	0xbe273e29	-0.16332306
135	0xbe42ff21	-0.19042636
136	0xbd549326	-0.051898144
137	0x3d957c4c	0.07299098
138	0x3df011bb	0.11722132
139	0x3c536897	0.012903354
140	0xbd6e96f5	-0.058249433
141	0x3d02f812	0.03197486
142	0x3e443e03	0.1916428
143	0x3df8ba00	0.12144852
144	0x3e1e1c18	0.15440404
145	0x3d457b53	0.048213314
146	0xbe58477e	-0.21121022
147	0xbdfdd08e	-0.12393294
148	0x3db9a526	0.09064703
149	0xbc95e14d	-0.018295908
150	0xbe1f30cd	-0.1554596
151	0x3e49216c	0.19641656
152	0x3e400d17	0.18754993
153	0xbe32295c	-0.1739859
154	0x3d0c18e7	0.034203436
155	0xbe0c12fe	-0.1367912
156	0x3d3c4ebd	0.04597353
157	0x3df60b9c	0.12013933
158	0xbe5752d1	-0.21027686
159	0xbd669be6	-0.05630102
160	0x3e264564	0.16237408
161	0xbe00f35c	-0.12592834
162	0x3dc8444d	0.09778652
163	0x3c9c70e2	0.019096795
164	0xbe11dbbf	-0.14243983
165	0xbd2efa03	-0.0427189
166	0xbe12c394	-0.1433242
167	0xbe22fb55	-0.15916188
168	0xbe1fb18d	-0.15595074
169	0xbe31663d	-0.17324157
170	0xbd0cc9fd	-0.03437232
171	0x3e2a32ca	0.16620937
172	0xbe563d8d	-0.20921917
173	0xbdc4fc1b	-0.09618398
174	0xbd8cab41	-0.068686016
175	0x3deb0e64	0.11477354
176	0xbe606ec4	-0.21917254
177	0x3dd6c4fd	0.10486791
178	0xbe62d83c	-0.221528
179	0x3e2f818f	0.17139266
180	0xbdbe5e2d	-0.09295306
181	0xbd526657	-0.05136713
182	0x3e229eef	0.15880941
183	0x3e4c84ba	0.19972506
184	0xbe132658	-0.14370096
185	0xbdd5b6ca	-0.10435255
186	0x3dc5c5b7	0.09656852
187	0x3dc5ce34	0.09658471
188	0x3dec293d	0.11531303
189	0x3d90d679	0.070721574
190	0xbe05b664	-0.13057858
191	0xbdf0788e	-0.11741744
192	0x3d055fe4	0.03256215
193	0x3ce61a66	0.02808876
194	0xbe1fedf0	-0.1561811
195	0x3e3e3645	0.1857539
196	0xbe66e671	-0.22548844
197	0xbe3d2197	-0.18469845
198	0x3e06aa8c	0.13150996
199	0xbe09a684	-0.13442427
200	0x3d4a3d49	0.049374852
201	0x3e059740	0.13045979
202	0x3e34c44a	0.17653003
203	0xbe686dff	-0.2269821
204	0x3e51c683	0.20485882
205	0x3dbcd938	0.09221119
206	0xbe18394f	-0.14865611
207	0xbcd5eb16	-0.026113074
208	0x3dcff244	0.101536304
209	0xbdd59a4d	-0.10429821
210	0x3d50dfc9	0.05099467
211	0xbd0b28a5	-0.03397431
212	0xbe5294a6	-0.20564517
213	0x3d20ecf5	0.03928848
214	0x3e63d438	0.22248924
215	0x3d5e8d51	0.05433399
216	0x3c4f6d22	0.012660297
217	0x3dd8dbc8	0.10588795
218	0x3d385de7	0.045011427
219	0xbe21aace	-0.15787813
220	0xbd81026c	-0.0629929
221	0x3d72e2fd	0.059298504
222	0x3e169780	0.1470623
223	0xbe093b39	-0.13401498
224	0x3e2b6c1d	0.1674046
225	0xbe298125	-0.16553171
226	0x3c3d9465	0.011571025
227	0x3e355f0c	0.17712039
228	0x3e31c7a3	0.17361312
229	0x3d76cc36	0.060253344
230	0xbd202dfc	-0.039106354
231	0x3d75705d	0.05992161
232	0x3c72ebb9	0.0148267085
233	0x3e56986a	0.20956579
234	0x3ca14fa7	0.019691302
235	0xbb80b4a4	-0.003927784
236	0xbe6dde4d	-0.23229332
237	0x3e437701	0.19088365
238	0x3ceade81	0.028670551
239	0xbe1a693a	-0.15079203
240	0x3c9f1901	0.019421102
241	0x3da97477	0.08274167
242	0xbd2d831c	-0.042361364
243	0xbcb48d86	-0.02204014
244	0x3e18f6ae	0.14937851
245	0x3e59aeca	0.21258083
246	0xbd5609f2	-0.05225558
247	0x3a49924c	0.00076893414
248	0x3d8cf8a2	0.068833604
249	0x3e62f71a	0.22164574
250	0x3c8862d7	0.016648693
251	0xbe677967	-0.22604905
252	0xbcf3c374	-0.029756285
253	0xbe62d571	-0.22151734
254	0xbe23e104	-0.16003805
255	0x3c205ddd	0.009788004

GAT_layers.0.f.bias f4 [32]
0	0x3ccbbe86	0.024871122
1	0x3d90cd91	0.07070459
2	0xbb49a3bb	-0.0030767757
3	0x3a583916	0.00082482526
4	0x3cda321e	0.026635226
5	0xbd3d00ff	-0.046143528
6	0x3d81a477	0.06330197
7	0xbda5fcc8	-0.08104855
8	0x3d23f75f	0.040030833
9	0x3d94d075	0.072663225
10	0x3d12c62a	0.035833515
11	0x3dc5612f	0.09637677
12	0x3d1a4d56	0.03767141
13	0xbc88be6d	-0.016692365
14	0x3db4e089	0.08831889
15	0x3dc0b784	0.09410003
16	0xbd6207aa	-0.05518309
17	0xbc510f5f	-0.012760012
18	0x3dc3c6c9	0.095594
19	0x3d1f8049	0.0389407
20	0x3d10d03d	0.03535484
21	0x3d435baa	0.04769484
22	0xbc8700ea	-0.016479928
23	0x3c8923ad	0.016740644
24	0xbda72156	-0.08160655
25	0xbdab7e78	-0.083737314
26	0xbd38f37e	-0.045154087
27	0xbd77fc7a	-0.060543515
28	0xbd927ed6	-0.07153098
29	0xbbb28dda	-0.005449039
30	0x3d8dfb8d	0.06932745
31	0xbc8c78fc	-0.017147534

GAT_layers.0.w.weight f4 [1, 82]
0	0xbe74b40f	-0.23896812
1	0xbe4c1216	-0.19928774
2	0xbe582589	-0.21108069
3	0x3e299954	0.16562396
4	0x3e7b42a8	0.24537146
5	0xbd157bbd	-0.03649496
6	0x3e8c61c1	0.2741833
7	0xbe3b01cc	-0.18262404
8	0xbce789eb	-0.028264007
9	0xbde630a5	-0.11239747
10	0xbd8b3d1e	-0.067987666
11	0x3de0537b	0.10953423
12	0xbe71cf52	-0.23614243
13	0x3d65c5b2	0.05609674
14	0xbe6e1381	-0.23249628
15	0x3c7f76e4	0.015592311
16	0xbdad2eed	-0.08456216
17	0xbd26e82f	-0.04074877
18	0x3e6ea175	0.23303778
19	0x3dc6fc7f	0.097161286
20	0xbdf3d9d6	-0.11906783
21	0x3e8230fd	0.25428
22	0xbd7ac60d	-0.061224032
23	0xbe459284	-0.19294173
24	0xbc887d8f	-0.016661434
25	0x3de407c1	0.111342914
26	0x3dc3fe54	0.095699936
27	0xbe59631c	-0.21229213
28	0xbd4afb38	-0.049555987
29	0xbdf3801d	-0.1188967
30	0xbe8551e2	-0.26039034
31	0x3dbe55f2	0.092937365
32	0xbcf40ce9	-0.029791312
33	0x3dac1dfa	0.08404155
34	0xbe27fe96	-0.1640571
35	0xbe4c0c6c	-0.19926614
36	0xbd218cf6	-0.03944107
37	0xbe1f194a	-0.15536991
38	0xbe32220c	-0.173958
39	0x3da556ca	0.08073194
40	0xbe7036d7	-0.2345842
41	0x3e5ca643	0.21547799
42	0xbdbdaaec	-0.092611164
43	0xbd51a94a	-0.051186837
44	0x3e1b1bbd	0.151473
45	0xbe236a70	-0.15958571
46	0xbd88b4bd	-0.06675098
47	0x3e14ab50	0.14518476
48	0xbe816080	-0.25268936
49	0x3db2430d	0.08704195
50	0xbe51ab0a	-0.20475402
51	0x3e65226e	0.22376415
52	0xbe80543d	-0.2506427
53	0xbe3a9e58	-0.18224466
54	0x3da29769	0.079390354
55	0x3e882d56	0.2659709
56	0xbd017986	-0.031610034
57	0xbb410aa2	-0.00294558
58	0xbe13f58f	-0.14449142
59	0x3d879a36	0.0662121
60	0xbe0a1e7a	-0.13488188
61	0xbe6bd5e1	-0.23030807
62	0xbe4498a6	-0.19198856
63	0x3e2d3e95	0.16918404
64	0x3dd1d91a	0.10246487
65	0x3da968c6	0.08271937
66	0xbe7b0e23	-0.24517111
67	0x3de40cbb	0.11135241
68	0xbe1a9c6d	-0.15098734
69	0xbd901172	-0.070345774
70	0xbd87582e	-0.06608616
71	0x3e2ced8a	0.16887489
72	0xbde3f4b2	-0.11130656
73	0xbe7dfb25	-0.24802835
74	0x3daad638	0.0834164
75	0xbe1bc1ba	-0.1521062
76	0xbd998568	-0.07496148
77	0xbe1feaab	-0.15616862
78	0x3e1351e1	0.14386703
79	0x3e78ba95	0.24289925
80	0xbe317824	-0.17330986
81	0x3e7d9df0	0.2476728

GAT_layers.1.f.weight f4 [64, 64]
0	0xbc89a014	-0.016799964
1	0x3d91934e	0.07108174
2	0xbe0ae75e	-0.13564822
3	0xbdc1a155	-0.094546
4	0x3e031232	0.1279991
5	0x3d082e12	0.03324706
6	0xbbd0b79a	-0.0063695433
7	0x3d9e323e	0.07724427
8	0x3e16f5fc	0.14742273
9	0x3d4f0836	0.05054494
10	0x3d208679	0.039190743
11	0xbdf072d3	-0.11740651
12	0x3e02c58a	0.12770668
13	0x3e1ea225	0.1549154
14	0xbb27882d	-0.0025563345
15	0xbdf7fba0	-0.121085405
16	0xbe5bcf34	-0.2146576
17	0x3e19ba7d	0.15012546
18	0x3def6211	0.116886266
19	0xbbedb11c	-0.007253779
20	0x3d3a57c3	0.045493852
21	0x3d9b353b	0.07578512
22	0xbe0334c6	-0.128131
23	0x3e412965	0.18863447
24	0xbe5d1bff	-0.21592711
25	0xbc2c71a5	-0.010525142
26	0x3e22feb0	0.15917468
27	0x3dd1bf90	0.10241616
28	0x3da77c29	0.081779785
29	0xbd3db274	-0.046312764
30	0xbdbce80c	-0.09223947
31	0xbe2a81a1	-0.16651012
32	0x3c699c40	0.014258444
33	0x3dda320e	0.106540784
34	0xbdb25097	-0.087067775
35	0xbd7b2fd2	-0.061324902
36	0xbe0b7586	-0.1361905
37	0xbc27c3ee	-0.010239584
38	0xbdf03f87	-0.11730867
39	0xbde3b56d	-0.111185886
40	0xbd26730c	-0.04063706
41	0x3d9f110b	0.077669226
42	0x3c5116f9	0.012761825
43	0xbe45e297	-0.19324718
44	0xbd1998a3	-0.03749908
45	0xbdf4d091	-0.119538434
46	0xbe226e93	-0.15862493
47	0xbcb1a4ff	-0.021685122
48	0xbe0bbe6a	-0.13646856
49	0xbe0200d9	-0.12695636
50	0xbd9097b6	-0.070601866
51	0xbe05fcc0	-0.13084698
52	0xbdf80c11	-0.121116765
53	0x3e1dfe83	0.1542912
54	0xbccb17ba	-0.024791587
55	0xbe4762bf	-0.19471262
56	0x3dbc922d	0.09207568
57	0xbd9e504f	-0.077301614
58	0xbd8cdd7d	-0.06878183
59	0x3c8d3e9e	0.017241772
60	0xbe4ca4d5	-0.19984753
61	0xbe00da5a	-0.12583295
62	0x3dbd57c7	0.09245258
63	0x3cc9cbc4	0.024633296
64	0x3e2b286d	0.1671464
65	0x3e0127fe	0.12612912
66	0xbdfbbb78	-0.12291616
67	0xbe392665	-0.18081053
68	0xbe3441b0	-0.17603183
69	0x3e250dbe	0.16118523
70	0x3e2585c9	0.16164316
71	0xbd692449	-0.05691937
72	0xbe539f30	-0.20666194
73	0x3c8679b3	0.016415453
74	0x3e597f8d	0.21240063
75	0x3b786f9b	0.003790832
76	0x3e1f4df4	0.1555708
77	0xbdd1ecd1	-0.10250247
78	0xbd031984	-0.032006755
79	0x3e114f8f	0.14190505
80	0x3e63d24f	0.22248195
81	0x3e14f2b3	0.14545707
82	0xbe387109	-0.1801187
83	0x3e357290	0.17719483
84	0x3e48bec0	0.19604015
85	0xbc15128a	-0.009098658
86	0x3dc1faec	0.09471688
87	0xbdd42bec	-0.1035994
88	0xbe15dd1d	-0.1463513
89	0xbdab6f42	-0.0837083
90	0x3e5d7ceb	0.21629684
91	0xbe0ebc5a	-0.13939038
92	0xbd6be143	-0.057587873
93	0xbd8e4320	-0.06946397
94	0xbd65ddf7	-0.056119885
95	0x3e219974	0.15781194
96	0x3e480ee0	0.19536924
97	0xbdff44d1	-0.124642976
98	0x3caba534	0.020952798
99	0x3df3e994	0.11909786
100	0x3d961598	0.073283374
101	0xbe4a3d6a	-0.1974999
102	0x3e5e36e0	0.2170062
103	0x3c51586b	0.012777428
104	0x3db7e211	0.089786656
105	0xbded6f8c	-0.115935415
106	0x3d8b937c	0.0681524
107	0x3e4a2fbc	0.19744772
108	0xbe2a585a	-0.16635266
109	0x3d384e02	0.04499627
110	0x3c55a1d4	0.013039071
111	0x3e5fca01	0.21854402
112	0xbd5f61ea	-0.054536738
113	0x3d7de451	0.061985318
114	0xbd89993f	-0.067186825
115	0x3d7d9ea3	0.061918866
116	0xbc31d45b	-0.010853852
117	0xbd9a2721	-0.075269945
118	0xbe424398	-0.18971097
119	0x3de5d811	0.11222852
120	0x3e29ee23	0.16594748
121	0x3e3181b8	0.1733464
122	0x3e629c11	0.22129847
123	0x3e1a1278	0.15046108
124	0xbd213e0d	-0.039365817
125	0x3e27cb07	0.16386043
126	0xbe323e6b	-0.17406623
127	0xbda2fb96	-0.079581425
128	0x3d427a34	0.047479823
129	0xbdcf8453	-0.10132661
130	0xbe47d8a5	-0.19516237
131	0x3e240a0a	0.16019455
132	0x3e44cfd4	0.19219905
133	0xbe29f34d	-0.16596718
134	0xbd89c613	-0.06727233
135	0x3b74da7c	0.0037361672
136	0xbc38dd0a	-0.011283169
137	0xbca1af4e	-0.019736912
138	0xb8b06609	-8.4113395e-05
139	0x3d6e73e9	0.05821601
140	0x3d5371dd	0.05162226
141	0x3e1f9bac	0.15586728
142	0x3e276e87	0.16350757
143	0x3e22d78e	0.1590254
144	0xbe104671	-0.14089371
145	0xbe2bf70e	-0.16793463
146	0x3d130a1e	0.03589832
147	0xbe1bd1ba	-0.15216723
148	0x3c45eda1	0.012080581
149	0x3e0c0729	0.13674606
150	0xbdb55bdd	-0.08855412
151	0x3e5d6867	0.21621858
152	0x3d195440	0.037433863
153	0xbdec7e63	-0.11547544
154	0x3ac1b736	0.0014779333
155	0x3e2998df	0.16562222
156	0xbdbbe61c	-0.09174749
157	0x3d4bc958	0.049752563
158	0x3d68b451	0.056812588
159	0xbd6ce0a4	-0.05783142
160	0xbddc86d1	-0.10767902
161	0x3e519093	0.20465307
162	0x3ddd94bb	0.10819384
163	0xbde03d63	-0.109492086
164	0xbe255cc1	-0.16148664
165	0xbd82f9bb	-0.063952886
166	0xbdfbd06d	-0.122956134
167	0x3e362c2d	0.17790289
168	0xbd95590c	-0.07292375
169	0xbde01115	-0.10940758
170	0xbe17a9b6	-0.14810833
171	0xbe2c5a4f	-0.16831325
172	0xbe25b0a7	-0.16180669
173	0x3d13e4fb	0.036107045
174	0xbcc8dc18	-0.024519011
175	0x3d8e18fa	0.06938358
176	0xbe031659	-0.12801494
177	0x3c74c7dd	0.014940229
178	0xbdebac7f	-0.115075104
179	0xbe2d6e60	-0.16936636
180	0xbd8613cf	-0.06546747
181	0x3cd36948	0.025807038
182	0xbdc9dc0c	-0.09856424
183	0x3cd7d5d4	0.026347078
184	0xbdfbe451	-0.12299407
185	0xbba8e8a6	-0.005154687
186	0x3e3b5c05	0.18296821
187	0x3de8819a	0.113528445
188	0x3e282540	0.1642046
189	0x3dd45fa4	0.103698045
190	0x3e1a77d2	0.1508477
191	0xbe4c6dcb	-0.19963758
192	0xbe28a052	-0.16467407
193	0x3e24929b	0.1607155
194	0xbdb93ac3	-0.09044411
195	0xbd2c1d20	-0.042019963
196	0xbe240b4a	-0.16019931
197	0x3e1678da	0.14694539
198	0xbd948736	-0.07252352
199	0xbdfbedfb	-0.123012505
200	0x3dc42250	0.09576857
201	0x3d038633	0.032110404
202	0xbdc9edc6	-0.09859805
203	0xbd834405	-0.06409458
204	0x3d2322e9	0.039828215
205	0xbe0c6314	-0.1370967
206	0xbe4ee349	-0.2020389
207	0xbd1b0c38	-0.03785345
208	0x3d89f234	0.0673565
209	0xbd808fba	-0.06277414
210	0x3e237955	0.15964253
211	0xbdc26171	-0.09491242
212	0x3d6e7cae	0.058224373
213	0xbe5090d4	-0.20367748
214	0xbe1a51f2	-0.15070322
215	0xbe306605	-0.17226417
216	0xbe276d0b	-0.1635019
217	0x3d9a0278	0.07520002
218	0x3e347582	0.1762295
219	0x3e42c99f	0.19022225
220	0x3e584dd3	0.21123438
221	0x3e1f8748	0.1557895
222	0xbe54d5ad	-0.20784636
223	0xbe1b16c7	-0.15145408
224	0xbe357cba	-0.1772336
225	0xbe294c5d	-0.16533037
226	0x3c92f45c	0.017938785
227	0xbd0f6538	-0.03500864
228	0x3dff082a	0.12452729
229	0xbe0f4b97	-0.13993679
230	0x3d94cec4	0.07266
231	0x3e1a41b7	0.1506413
232	0x3e05c6aa	0.13064066
233	0xbe52eed9	-0.20598926
234	0x3e48090b	0.195347
235	0x3d2daef6	0.042403184
236	0xbd7533a8	-0.059863716
237	0x3d42e7b3	0.047584247
238	0x3de9cd4d	0.11416111
239	0xbdbae597	-0.09125822
240	0x3d6e78dd	0.058220733
241	0xbda1e185	-0.079043426
242	0xbd805baf	-0.06267487
243	0x3e456af6	0.19279084
244	0x3e17a7b0	0.14810061
245	0x3d955317	0.07291239
246	0x3ccb4ac4	0.024815924
247	0xbe3f26f4	-0.18667203
248	0xbc8a007a	-0.01684593
249	0xbdb10c02	-0.086448684
250	0x3d8c746d	0.06858144
251	0xbd9026a1	-0.07038618
252	0xbe531c71	-0.20616318
253	0xbe37d537	-0.17952429
254	0x3dc7a0b7	0.09747451
255	0xbda04ed2	-0.07827534

GAT_layers.1.f.bias f4 [64]
0	0xbcb5ddb0	-0.022200435
1	0xbd078ecc	-0.033095166
2	0xbdcd3340	-0.10019541
3	0xbc87b840	-0.01656735
4	0x3e087e75	0.1332949
5	0x3d973249	0.07382638
6	0x3d9f27fd	0.07771299
7	0xbd5dc14a	-0.054139413
8	0x3e27774a	0.16354099
9	0x3dfc17d7	0.123092346
10	0xbdfeeef3	-0.1244792
11	0xbd04241f	-0.03226101
12	0xbc907dd6	-0.017638128
13	0x3db58ea7	0.088650994
14	0x3e2ea3b4	0.17054635
15	0x3dae7be2	0.085197225
16	0xbb0bae32	-0.0021313545
17	0x3d4a347c	0.04936646
18	0x3d9152d9	0.0709588
19	0x3e069e24	0.13146263
20	0x3db52eb8	0.088468015
21	0x3df5bbe9	0.11998732
22	0x3da3017c	0.079592675
23	0x3d98ac44	0.07454732
24	0x3c8125cd	0.015765095
25	0xbe07c963	-0.13260417
26	0x3d828d40	0.063745975
27	0xbd0fac75	-0.035076577
28	0x3de5facf	0.112294786
29	0xbd907df6	-0.07055275
30	0x3e2fd8cd	0.17172547
31	0x3e23a164	0.15979534
32	0x3dbe4772	0.09290971
33	0x3e1605cf	0.14650653
34	0x3e38105c	0.1797499
35	0xbde336e0	-0.11094451
36	0x3e0bf814	0.13668853
37	0xbc359710	-0.011083379
38	0xbd063e88	-0.03277448
39	0xbdaf4551	-0.08558143
40	0xbdbb11d9	-0.091342635
41	0x3e19fab0	0.15037036
42	0x3e19e0a4	0.150271
43	0x3d8a0b31	0.06740416
44	0x3d99a788	0.07502657
45	0x3d542463	0.051792514
46	0x3df5b7e9	0.11997969
47	0xbbda20e6	-0.006656754
48	0xbc91dabc	-0.017804496
49	0x3e3f7975	0.18698676
50	0x3deacb41	0.11464549
51	0x3e16d26b	0.14728706
52	0xbd891238	-0.06692928
53	0x3cf858d0	0.030315787
54	0xbd2aadb0	-0.041669548
55	0x3e2ef2bf	0.17084788
56	0xbd38d1a1	-0.045121793
57	0x3e317b58	0.17332208
58	0xbd6432fa	-0.055712678
59	0xbca4cbd4	-0.020116724
60	0xbbb4a66b	-0.0055130026
61	0xbd8836ba	-0.06651063
62	0x3e1d56c5	0.15365131
63	0x3d367c42	0.044552095

GAT_layers.1.w.weight f4 [1, 64]
0	0x3e0e2061	0.13879539
1	0xbe9f05e5	-0.31059185
2	0xbe8aabeb	-0.27084288
3	0x3e30fa30	0.17282939
4	0x3d96fcb9	0.07372422
5	0x3e5a2cf8	0.21306217
6	0x3e456f29	0.19280685
7	0x3df8451c	0.121225566
8	0x3e651ab7	0.22373472
9	0x3ddcc568	0.1077984
10	0xbe99b17a	-0.30018216
11	0xbe629c86	-0.22130021
12	0xbe962b1e	-0.2932977
13	0x3dd0c1d2	0.10193218
14	0x3d9dfc27	0.0771411
15	0xbd30137e	-0.04298734
16	0xbe44383b	-0.19162075
17	0x3d7f05c3	0.062261354
18	0xbe61e2c1	-0.22059156
19	0xbe64c22e	-0.22339699
20	0x3d89e75f	0.06733584
21	0xbdd7067d	-0.104992844
22	0x3d590098	0.052979082
23	0xbd3ebf31	-0.046569053
24	0xbdf2d3ab	-0.11856779
25	0x3d3db699	0.046316717
26	0x3dedfa9b	0.11620065
27	0xbe1d7e79	-0.15380277
28	0xbd9529cd	-0.072833635
29	0x3e824ae4	0.25447762
30	0x3d84d387	0.06485658
31	0xbdbbe273	-0.09174051
32	0xbe7fd1d0	-0.24982381
33	0xbe8423f7	-0.2580869
34	0xbe91a3c1	-0.28445247
35	0xbd71d356	-0.059039436
36	0x3e2d12bb	0.16901676
37	0x3dac5ee8	0.084165394
38	0xbe14f784	-0.14547545
39	0x3e1ded59	0.15422572
40	0x3db6826b	0.08911594
41	0xbd6e696f	-0.058206018
42	0xbe95bfee	-0.29247993
43	0x3c5d8a1d	0.013521698
44	0x3d8ab045	0.06771902
45	0x3e2b6836	0.16738972
46	0xbd97eab6	-0.074178144
47	0xbe87ce85	-0.2652475
48	0x3e7ca727	0.24673139
49	0xbdb5eb62	-0.08882786
50	0xbe2ed681	-0.17074014
51	0x3e641a4d	0.22275658
52	0xbe39a220	-0.18128252
53	0xbe5186ec	-0.20461625
54	0xbd8a32a8	-0.06747943
55	0x3c828c79	0.015936123
56	0xbe82df0b	-0.25560793
57	0xbe8d2e5a	-0.27574426
58	0xbe55003f	-0.20800875
59	0xbe51a5f3	-0.20473461
60	0xbd717076	-0.05894514
61	0x3bce86ec	0.006302705
62	0x3e233f64	0.1594215
63	0xbe8dbd0c	-0.27683294

GAT_layers.2.f.weight f4 [64, 128]
0	0xbda99896	-0.082810566
1	0x3dda24d1	0.106515534
2	0xbdd54641	-0.104137905
3	0xbda656cc	-0.08122024
4	0x3de82418	0.11335009
5	0xbd9a9b23	-0.07549121
6	0xbde33fa7	-0.11096125
7	0x3c143b18	0.009047292
8	0x3e2d6ea8	0.16936743
9	0x3de413f3	0.111366175
10	0x3e28f740	0.16500568
11	0xbd41aad4	-0.047282055
12	0x3df4e856	0.11958377
13	0x3ddbe8fb	0.10737797
14	0xbd7e5123	-0.062089097
15	0xbd87c44d	-0.06629238
16	0x3d55f32d	0.052233864
17	0xbdf69f41	-0.12042094
18	0x3d7980b5	0.06091376
19	0x3e55826b	0.20850532
20	0xbdcf9117	-0.101350956
21	0x3d22aec3	0.039717447
22	0x3d1c090c	0.038094565
23	0x3e5e8a5e	0.2173247
24	0xbcf44156	-0.02981631
25	0xbdf7fbdc	-0.12108585
26	0x3c49b28b	0.012310634
27	0xbb86ac02	-0.0041098604
28	0x3e380305	0.17969902
29	0xbd611e10	-0.05496031
30	0x3c251f02	0.010078194
31	0x3b25aa3d	0.0025278472
32	0x3db6d092	0.089265004
33	0x3cdbf589	0.026850479
34	0x3e1eb63f	0.15499209
35	0xbc79da5b	-0.015249814
36	0x3d59b2b9	0.05314896
37	0x3e31c763	0.17361216
38	0xbde3bac4	-0.11119607
39	0xbd346bf7	-0.044048276
40	0x3e047999	0.12937011
41	0xbd09de51	-0.033659283
42	0x3e4045d7	0.18776642
43	0xbbe19564	-0.006884264
44	0x3e3eed0a	0.1864511
45	0xbd0dd48f	-0.03462654
46	0x3e1bb3cb	0.15205304
47	0x3e02e94e	0.12784311
48	0x3d4d75c6	0.050161146
49	0x3e16e8fa	0.14737311
50	0x3e63cee3	0.2224689
51	0xbd9322d0	-0.07184374
52	0x3e1f1a4e	0.15537378
53	0x3e4dc31b	0.20093958
54	0x3e12c898	0.14334333
55	0x3d077725	0.03307261
56	0x3dc9e918	0.09858912
57	0x3ddbc04b	0.10730036
58	0xbd0885f7	-0.033330884
59	0xbdda9f0b	-0.10674866
60	0x3e31384f	0.17306636
61	0xbe2ecc92	-0.17070225
62	0x3e3d0796	0.18459925
63	0xbe01938d	-0.12653942
64	0xbe168e16	-0.14702639
65	0x3c75a855	0.014993747
66	0xbdb2ebfd	-0.087364174
67	0xbe1d4fa3	-0.1536241
68	0x3de9e0ac	0.11419806
69	0x3de7a88a	0.11311443
70	0x3dda8404	0.10669711
71	0x3d41ad3d	0.047284354
72	0x3e0efa10	0.13962579
73	0x3cf44607	0.029818548
74	0x3df74512	0.12073721
75	0xbd869a32	-0.06572379
76	0x3dbd2b12	0.09236731
77	0x3e512902	0.204258
78	0x3e5cec4c	0.21574515
79	0x3e4357ac	0.19076413
80	0x3d782bb1	0.060588542
81	0x3dc9fd28	0.09862739
82	0xbd4882b1	-0.048952762
83	0x3d96410d	0.07336626
84	0x3dec4710	0.115369916
85	0x3cc51739	0.024058925
86	0xbca70350	-0.020387322
87	0xbdee2f19	-0.11630077
88	0xbc8779a0	-0.016537488
89	0xbcfaf248	-0.030633107
90	0xbd602994	-0.054727152
91	0x3d7363a8	0.05942121
92	0x3cba06d6	0.022708338
93	0xbb33aeb6	-0.0027417368
94	0x3d2ff319	0.042956445
95	0x3c1e0f1e	0.009647159
96	0x3dec0a4a	0.115254
97	0x3e2a8fb4	0.16656381
98	0xbd870eab	-0.065945946
99	0x3d7c6e6f	0.061628755
100	0x3dbfc0c9	0.09362943
101	0x3dd21c7c	0.10259339
102	0xbe2e69d9	-0.17032565
103	0xbdebbfe5	-0.1151121
104	0xbdd930f4	-0.1060504
105	0x3e29888f	0.16555999
106	0xbdb66e50	-0.08907759
107	0x3e567c39	0.20945825
108	0x37bc17d1	2.2422437e-05
109	0x3dd3c60b	0.10340508
110	0x3e07b3b3	0.13252144
111	0xbe34b4e2	-0.17647126
112	0x3d84b764	0.064802915
113	0x3dcbc057	0.09948795
114	0x3dc8a4c4	0.097970515
115	0xbda942d9	-0.08264703
116	0x3e0c1b07	0.13682185
117	0x3d2491a6	0.040177964
118	0xbd858fe5	-0.06521586
119	0x3d091824	0.033470288
120	0x3dd61a98	0.10454291
121	0xbd15a93b	-0.036538344
122	0x3d89df17	0.06732004
123	0x3ca659cb	0.020306488
124	0xbdaba8c3	-0.08381798
125	0xba7bdcf7	-0.00096078165
126	0x3e3c2c19	0.18376197
127	0xbd08bf60	-0.033385634
128	0xbd13528e	-0.035967402
129	0x3d491283	0.04908992
130	0xbdf7516c	-0.12076077
131	0x3e03ed3d	0.12883468
132	0x3e04028f	0.12891601
133	0x3e30baed	0.17258807
134	0xbd2b29a0	-0.041787744
135	0xbdc3ba99	-0.09557075
136	0x3e3c722c	0.18402928
137	0xbdcd5871	-0.100266345
138	0x3d97b789	0.074080534
139	0xbe0481e9	-0.12940182
140	0xbd2fe73f	-0.042945143
141	0xbdd72f62	-0.105070844
142	0xbd319454	-0.043354347
143	0xbdc905b1	-0.09815539
144	0xbe332d4f	-0.17497753
145	0x3e29a011	0.16564967
146	0xbde09a16	-0.109668896
147	0x3df1983d	0.11796615
148	0x3e08dee1	0.13366272
149	0x3d45b6da	0.048270084
150	0xbd7f3a80	-0.06231165
151	0x3d2517a7	0.04030576
152	0xbd9f9d39	-0.0779366
153	0xbe0d5930	-0.13803554
154	0xbd4dbc24	-0.050228253
155	0xbe24f097	-0.16107403
156	0xbdd2001e	-0.102539286
157	0x3deb0e96	0.114773914
158	0xbdb63867	-0.08897477
159	0x3e15d594	0.14632255
160	0x3e6e1159	0.23248805
161	0x3dc5b37a	0.09653373
162	0x3dd8337b	0.10556694
163	0xbe2decca	-0.16984859
164	0x3e697c19	0.22801246
165	0xbe22c23f	-0.15894412
166	0x3da23675	0.07920543
167	0xbd6cfbcf	-0.05785733
168	0x3e0d1944	0.1377917
169	0x3e28b174	0.16473943
170	0x3e27f3bb	0.1640157
171	0x3e2901d2	0.165046
172	0x3e27f63b	0.16402523
173	0xbd4416ce	-0.04787331
174	0x3e3ebdc4	0.18627077
175	0x3d41f86a	0.047356047
176	0xbe09928a	-0.13434806
177	0x3e0322f2	0.128063
178	0x3e29cb1c	0.16581386
179	0xbde79888	-0.1130839
180	0x3dfde12d	0.123964645
181	0x3d8153e4	0.06314829
182	0x3df5f9d0	0.120105386
183	0x3dc57d29	0.09643013
184	0xbe39609d	-0.18103261
185	0x3de25e89	0.110531874
186	0x3dbb268d	0.09138212
187	0xbd5915e7	-0.052999403
188	0x3c8948a7	0.016758276
189	0x3d87c2e3	0.066289686
190	0x3df90cc5	0.12160639
191	0x3d715d24	0.058926716
192	0xbe32ca44	-0.1745997
193	0x3e2add1a	0.16685906
194	0xbdce81fa	-0.10083385
195	0x3ba5417e	0.0050432077
196	0x3d39ddf8	0.0453777
197	0x3e1839de	0.14865825
198	0xbb5dab33	-0.0033823967
199	0x3e1140d0	0.1418488
200	0x3ce17ec0	0.02752626
201	0x3db3d957	0.08781689
202	0xbe02327c	-0.12714571
203	0x3d955fc1	0.07293654
204	0xbdecbe3b	-0.11559721
205	0x3e06cc53	0.13163881
206	0x3d70e1d1	0.058809105
207	0x3ce5e660	0.028063953
208	0xbdda8dad	-0.10671554
209	0x3e625166	0.22101364
210	0x3be16043	0.0068779304
211	0x3e483884	0.19552809
212	0xbdef82cc	-0.116948694
213	0x3d8c45e8	0.06849271
214	0x3df52d7a	0.119715646
215	0xbd4d39c3	-0.050103914
216	0x3e13ddc3	0.14440064
217	0x3d8b32a3	0.067967676
218	0x3e617f97	0.22021328
219	0xbe116a6a	-0.1420075
220	0x3e6d500d	0.23175068
221	0xbd13590d	-0.035973597
222	0xbd9de13a	-0.07708974
223	0x3e38d6df	0.18050717
224	0xbdc9362c	-0.098247856
225	0x3da8f885	0.08250526
226	0x3e54868a	0.20754448
227	0x3e29171b	0.1651272
228	0x3da5655e	0.08075975
229	0x3dbc00de	0.09179853
230	0xbc20760b	-0.009793769
231	0xbe00386e	-0.12521526
232	0x3e0656b4	0.13119012
233	0xbd97cfcb	-0.0741268
234	0x3e250024	0.16113335
235	0xbd6ab568	-0.05730191
236	0xbbb8491c	-0.0056239497
237	0x3d82fe22	0.06396128
238	0x3dd8dcb7	0.10588973
239	0x3dfb18ca	0.122605875
240	0x3e0f4d01	0.13994218
241	0xbceadbde	-0.028669294
242	0xbab61d19	-0.001389417
243	0x3b88228a	0.004154508
244	0xbd941c30	-0.07231939
245	0x3de7eaa4	0.11324051
246	0xbd9a86fa	-0.07545276
247	0x3d20f5fa	0.03929708
248	0xbda14879	-0.07875151
249	0x3da84d93	0.08217921
250	0xbe30daeb	-0.1727101
251	0xbc2614b5	-0.010136773
252	0xbd3868a6	-0.045021676
253	0xbddb74dd	-0.10715649
254	0x3e2eb69d	0.17061849
255	0xbdaddf40	-0.08489847

GAT_layers.2.f.bias f4 [64]
0	0x3dedf6dd	0.11619351
1	0x3b761ade	0.0037552635
2	0xbd62a53d	-0.055333365
3	0x3c9a5d8c	0.018843435
4	0xbc89d9d8	-0.016827509
5	0x3d061fdc	0.032745227
6	0x3e0a29ad	0.1349246
7	0x3ddd31a4	0.10800484
8	0x3de4e2b1	0.111760505
9	0xbd45a30b	-0.048251193
10	0x3d6254ac	0.05525653
11	0xbbfb4dd1	-0.0076691885
12	0x3ce77ee5	0.02825875
13	0x3dcc1d65	0.09966544
14	0x3e0e1e77	0.13878809
15	0x3dd0a979	0.10188574
16	0xbd94db61	-0.07268406
17	0x3e0b0c00	0.13578796
18	0x3d2857b4	0.041099265
19	0xbda0fef9	-0.07861132
20	0xbdabe39c	-0.083930224
21	0xbbe3433e	-0.006935506
22	0x3b4b6dfa	0.0031040893
23	0xbda5b58c	-0.08091268
24	0x3dccf351	0.100073464
25	0x3dcb76fe	0.09934805
26	0xbd899588	-0.06717974
27	0xbcffd458	-0.031229183
28	0x3d3de952	0.04636509
29	0x3e0efc49	0.13963427
30	0xbd71a63e	-0.05899643
31	0xbc8fa1d8	-0.017533228
32	0xbd09cbc3	-0.033641588
33	0x3cb5bc1d	0.022184426
34	0xbcfc3182	-0.030785326
35	0x3d100d98	0.035169214
36	0xbd79f2f7	-0.061022725
37	0x3e1aceac	0.15117902
38	0x3de4e4ad	0.11176429
39	0xbd34c4bf	-0.044132944
40	0x3df0374a	0.117292956
41	0x3d0740e9	0.033020888
42	0xbdb33bf5	-0.0875167
43	0xbda5de9d	-0.08099101
44	0x3da88865	0.0822914
45	0x3dc43ed8	0.09582299
46	0x3da90a4e	0.082539186
47	0xbd9e41eb	-0.077274166
48	0xbdbecde2	-0.09316613
49	0x3d8ed9c5	0.0697513
50	0xbcb0bb12	-0.021573577
51	0xbd8299b1	-0.063769706
52	0x3ded84fb	0.1159763
53	0x3dc26fb2	0.094939604
54	0xbd886c5b	-0.06661292
55	0xbd7625d2	-0.060094662
56	0xbd5f2533	-0.054478835
57	0x3dbee2c2	0.09320594
58	0xbd7dcee9	-0.061964903
59	0xbcd1eb24	-0.02562482
60	0x3e0b45d3	0.13600855
61	0xbc143bb9	-0.009047442
62	0xbd8e009d	-0.06933711
63	0x3dbe5b23	0.09294727

GAT_layers.2.w.weight f4 [1, 128]
0	0xbe4d5e7f	-0.20055579
1	0xbdcec93d	-0.10096977
2	0xbe35ccac	-0.17753857
3	0xbdb32201	-0.0874672
4	0x3dd1cdcf	0.10244333
5	0x3f10f183	0.5661852
6	0x3f026960	0.5094204
7	0xbd47d07d	-0.048782814
8	0x3f370b2e	0.71501434
9	0xbd69df77	-0.05709788
10	0x3e313eb8	0.17309082
11	0xbddc8366	-0.1076725
12	0x3d5d1f13	0.053984713
13	0x3f27e6c0	0.6558647
14	0x3db5ceb7	0.08877318
15	0x3eeb169b	0.45915684
16	0xbe633e67	-0.22191773
17	0x3d843c25	0.06456784
18	0x3e3d87a8	0.1850878
19	0x3f6354c1	0.888012
20	0x3ee760e3	0.45191106
21	0x3d0e1fd0	0.034698308
22	0x3f1e3b62	0.6180936
23	0x3f1e81e5	0.61916953
24	0x3da4a6ee	0.08039652
25	0x3dded1cf	0.108798616
26	0x3e668704	0.22512442
27	0x3df8aa7a	0.12141891
28	0x3d0097b9	0.031394694
29	0x3ca223f6	0.019792538
30	0x3e16cfe4	0.14727741
31	0x3ec4fdb7	0.3847482
32	0x3b546769	0.003241027
33	0x3d1640f9	0.036683057
34	0x3e4afcfa	0.19823065
35	0x3d080b5e	0.033213966
36	0x3e47b1b4	0.19501382
37	0x3e3eecf9	0.18645085
38	0xbc8bb1b7	-0.017052514
39	0x3d13aaff	0.036051746
40	0xbcb4d41d	-0.0220738
41	0x3ef43b09	0.4770129
42	0x3e539506	0.20662317
43	0xbd853ce0	-0.065057516
44	0x3eade3e1	0.3396292
45	0x3f405c7b	0.75141114
46	0x3f0fcf53	0.56175727
47	0xbcdcbae1	-0.02694458
48	0xbb5baffa	-0.0033521638
49	0x3e2acdd9	0.16680087
50	0x3e101874	0.14071828
51	0x3f2f1612	0.6839305
52	0x3e2e7a33	0.17038803
53	0x3c7e949d	0.015538362
54	0x3da7fd3c	0.082025975
55	0x3f61d728	0.8821893
56	0x3dbcdd0c	0.09221849
57	0x3f46f675	0.77719814
58	0x3c407a53	0.011747914
59	0x3bf92e3d	0.007604389
60	0xbe3a45b9	-0.1819066
61	0xbe36644e	-0.178117
62	0x3e66113b	0.2246751
63	0x3f4b3781	0.7938157
64	0xbcfa615d	-0.030564005
65	0xbdb32d97	-0.0874893
66	0x3dbffe6f	0.09374701
67	0x3dec2780	0.115309715
68	0xbe086a92	-0.13321903
69	0xbc2b5141	-0.010456384
70	0xbd54c263	-0.051943194
71	0x3dce5cae	0.10076271
72	0x3dfe587f	0.12419223
73	0xbdcd84ae	-0.10035072
74	0x3e21c4e0	0.15797758
75	0x3cfc9f9f	0.030837832
76	0x3dad3233	0.0845684
77	0x3a3e97b0	0.0007270528
78	0x3d8d3794	0.06895366
79	0x3e2f7667	0.1713501
80	0xbe42dada	-0.19028798
81	0x3e21832e	0.15772697
82	0xbd884f49	-0.066557474
83	0xbd97d589	-0.074137755
84	0xbe37284e	-0.17886469
85	0x3e0a6d19	0.1351818
86	0xbe264a7f	-0.16239356
87	0x3e5d762a	0.21627107
88	0x3db67f18	0.0891096
89	0x3e042cef	0.12907766
90	0xbdce0928	-0.1006034
91	0xbe238f55	-0.15972646
92	0xbe30c1a1	-0.17261364
93	0x3e3cc763	0.18435435
94	0x3e2214a1	0.15828182
95	0xbd472599	-0.04861984
96	0xbde2bc3b	-0.11071058
97	0x3cd9e3a1	0.0265978
98	0x3e2c9389	0.16853155
99	0x3db56225	0.0885661
100	0x3d90c367	0.0706852
101	0xbe04db71	-0.12974335
102	0x3e098630	0.13430095
103	0x3d2b641d	0.041843522
104	0x3de4462f	0.11146199
105	0xbca4bd51	-0.020109804
106	0x3dc83e26	0.09777479
107	0x3cb8d42b	0.022562107
108	0x3e2b285d	0.16714616
109	0xbdf3220b	-0.118717276
110	0x3d674e5a	0.056471206
111	0xbe125105	-0.14288719
112	0xbcbee682	-0.023303274
113	0xbdaddd0f	-0.08489429
114	0x3e306d82	0.17229274
115	0xbe3fa2ae	-0.18714401
116	0x3e06a9f0	0.13150764
117	0x3e41d436	0.18928608
118	0x3e45effd	0.1932983
119	0x3e18c03b	0.1491708
120	0xbc818645	-0.015811095
121	0xbe22ffa2	-0.15917829
122	0x3dec13a2	0.11527182
123	0xbe6201e8	-0.2207104
124	0xbdbb2cf4	-0.091394335
125	0x3e3e1550	0.18562818
126	0xbe0bbd61	-0.13646461
127	0x3d4c7ed7	0.04992565

MLP_layers.0.weight f4 [32, 64]
0	0x3de95bf4	0.11394492
1	0xbd1ef31c	-0.038806066
2	0x3d0045f0	0.031316698
3	0x3dc576a8	0.096417725
4	0xbd2c1a8c	-0.042017505
5	0x3d874984	0.06605819
6	0x3cf66d08	0.030081287
7	0xbcb44758	-0.022006676
8	0xbdfc75b2	-0.12327136
9	0x3d5d7c28	0.054073483
10	0xbdf76b54	-0.12081018
11	0xbd5616d8	-0.05226788
12	0x3c32dbc0	0.01091665
13	0x3ab16380	0.0013533682
14	0x3c82da58	0.015973255
15	0xbd9f5266	-0.07779388
16	0xbdd6e928	-0.1049369
17	0x3d2cf6d8	0.042227596
18	0xbdfe29c2	-0.124103084
19	0xbd45cf40	-0.048293352
20	0x3c7a1ad0	0.015265182
21	0x3d8b3c2e	0.06798588
22	0x3d73f298	0.059557527
23	0xbd7f1348	-0.062274247
24	0x3db04826	0.08607511
25	0xbd733794	-0.059379175
26	0x3db3c2a4	0.08777359
27	0x3d98f068	0.07467729
28	0xbde4b37a	-0.11167045
29	0x3c0faa80	0.008768678
30	0xbd5e1180	-0.054215908
31	0xbd663078	-0.056198567
32	0x3cfb18f0	0.03065154
33	0xbd9717d6	-0.07377593
34	0xbd535658	-0.051596016
35	0xbd8d13b6	-0.06888525
36	0x3d73dbd4	0.059535816
37	0x3db8c174	0.09021273
38	0x3da25a0a	0.0792733
39	0x3d9f1d24	0.0776923
40	0xbd976dfa	-0.07394023
41	0x3d8f33ae	0.06992279
42	0xbdd5b5be	-0.10435055
43	0xbc117d40	-0.00887996
44	0xbc23e840	-0.010004103
45	0xbc9a7680	-0.018855333
46	0xbd4d2c38	-0.050091
47	0x3c946ef0	0.018119305
48	0xbd870866	-0.06593399
49	0x3dea3ae6	0.11437015
50	0x3d2b1ea8	0.041777283
51	0xbdf1960a	-0.11796196
52	0xbd3c5470	-0.045978963
53	0x3b59bfc0	0.0033225864
54	0x3df79e78	0.120907724
55	0x3dc4cb8c	0.09609136
56	0x3de386d8	0.11109704
57	0xbd646c48	-0.055767328
58	0xbd6d5f84	-0.05795242
59	0x3cd768d8	0.02629511
60	0xbd94bbc6	-0.072623774
61	0xbcd81758	-0.026378319
62	0xbdf45dd6	-0.1193196
63	0xbd8d5a48	-0.069019854
64	0xbd149374	-0.036273435
65	0x3e184186	0.14868745
66	0xbccf6f68	-0.025321677
67	0xba921eec	-0.0011148131
68	0x3b8677c0	0.004103631
69	0x3dfe2ed9	0.12411279
70	0x3dcf5c3b	0.101250134
71	0x3d914182	0.07092573
72	0x3e3bc8bc	0.18338293
73	0x3c9db002	0.019248966
74	0xbda2afa4	-0.07943657
75	0xbd8c7b13	-0.06859412
76	0x3c8feff1	0.017570468
77	0x3e139879	0.14413632
78	0x3e33b9fb	0.17551415
79	0x3d1a5355	0.037677128
80	0xbd6c55b7	-0.05769893
81	0xbd72a17f	-0.059236046
82	0x3b6c61a0	0.0036068931
83	0xbdd38f69	-0.10330088
84	0xbd16df44	-0.036834016
85	0x3d80ce1e	0.06289314
86	0x3df0955a	0.117472365
87	0xbdc0daac	-0.09416708
88	0x3dab51f5	0.083652414
89	0x3db1f84f	0.08689939
90	0xbccbc7f4	-0.024875619
91	0xbcf2a0af	-0.029617636
92	0x3e34b0dd	0.17645593
93	0x3c2b000d	0.010437024
94	0x3da68798	0.08131331
95	0xbddf7fa9	-0.10913021
96	0xbdf07b0b	-0.117422186
97	0x3c0698e0	0.008215159
98	0x3d57a451	0.05264694
99	0x3e1de2aa	0.15418497
100	0xbe025725	-0.12728556
101	0x3dd588fa	0.10426517
102	0x3e203b41	0.15647604
103	0x3d349e50	0.04409629
104	0x3e14d7be	0.14535424
105	0x3d50b89f	0.05095732
106	0xbd1232be	-0.035692923
107	0xbd9eb091	-0.07748521
108	0xbd03d9ad	-0.032190014
109	0x3d1263eb	0.03573982
110	0x3d1d2341	0.0383637
111	0x3a6156fd	0.0008596031
112	0x3d012a71	0.031534616
113	0x3d2c2db8	0.04203579
114	0xbd5126e3	-0.051062476
115	0x3c6d3580	0.014478087
116	0xbd175e7f	-0.036955353
117	0xbd4cd4d4	-0.050007656
118	0xbd09eea3	-0.033674847
119	0xbd46370b	-0.048392337
120	0xbda60a97	-0.081074886
121	0x3dd9826d	0.1062058
122	0xbdfaed05	-0.12252239
123	0xbdca270a	-0.09870727
124	0x3e0a29cf	0.13492511
125	0x3d84c6f2	0.06483258
126	0xbe00f552	-0.12593582
127	0x3c235728	0.00996951
128	0x3e311404	0.17292792
129	0x3e31d125	0.17364939
130	0x3dfe9ce8	0.12432271
131	0x3d4eb285	0.05046322
132	0x3d7e629c	0.06210576
133	0x3df22e33	0.11825218
134	0x3dc3e20d	0.095646
135	0x3ce47762	0.027888957
136	0x3cfed3c8	0.031106845
137	0xbd6bdc8c	-0.057583377
138	0xbda8ef53	-0.082487725
139	0x3c82e5a6	0.015978646
140	0x3c9e3886	0.019314062
141	0x3d678fbb	0.056533556
142	0x3e35c099	0.17749251
143	0x3dcce485	0.10004524
144	0xbda6771b	-0.08128186
145	0x3dd58572	0.10425843
146	0xbccb8e8b	-0.024848243
147	0xbbbc773d	-0.005751519
148	0xbdc1b7ea	-0.09458907
149	0xbda13b36	-0.07872622
150	0x3e188e02	0.14897922
151	0xbd8828d3	-0.066484116
152	0x3dcc9e15	0.09991089
153	0x3d6fe2e7	0.058566
154	0xbd6f28a6	-0.058388375
155	0xbd33f1ae	-0.043931656
156	0x3d9fa2ac	0.07794699
157	0x3cd3bf2d	0.025847996
158	0xbd39c71c	-0.0453559
159	0xbb5ab0a1	-0.003336944
160	0x3d59a0d6	0.0531319
161	0xbc9a5c18	-0.018842742
162	0x3dedb657	0.11607044
163	0x3de144fa	0.10999484
164	0xbccf5ff6	-0.025314312
165	0xbd2d754c	-0.04234819
166	0xbd5a4e50	-0.05329734
167	0xbdf6fff2	-0.120605364
168	0x3d1659f4	0.03670688
169	0x3da980e5	0.08276538
170	0x3df014cc	0.11722717
171	0xbcbf97c7	-0.023387803
172	0x3e320d03	0.17387776
173	0x3cedb973	0.029019093
174	0x3c91ca1d	0.01779657
175	0x3d74bd93	0.059751105
176	0x3d8ebe8b	0.06969937
177	0xbc0aaa57	-0.008463464
178	0xbdb369e5	-0.08760432
179	0xbde8ee26	-0.11373548
180	0x3e0d6109	0.13806547
181	0x3b0e5b71	0.0021721984
182	0x3d32698c	0.04355769
183	0xbd82037f	-0.06348323
184	0x3d0d17e7	0.034446623
185	0x3dad9934	0.08476487
186	0xbe001493	-0.12507848
187	0x3dedffee	0.1162108
188	0x3e373c77	0.1789416
189	0xbd81e9b8	-0.063434064
190	0xbcb3535e	-0.021890339
191	0x3d869997	0.06572264
192	0x3ddd325f	0.10800623
193	0xbddf47aa	-0.10902341
194	0xbcd96060	-0.026535213
195	0xbdb54c86	-0.08852486
196	0xbd630874	-0.055427983
197	0x3d4a1815	0.049339373
198	0xbb6e1acc	-0.003633189
199	0x3d8a9a23	0.067676805
200	0x3cda9520	0.026682436
201	0x3d3c73e8	0.046008974
202	0x3d56a20e	0.05240064
203	0xbd843144	-0.06454709
204	0x3c5c660b	0.013452063
205	0xbdf0c896	-0.11757009
206	0xbdb67ce2	-0.08910538
207	0xbdb7b06f	-0.08969199
208	0xbd90ade6	-0.070644185
209	0x3d8eacdb	0.06966563
210	0x3d70c83f	0.05878472
211	0x3d4a26d4	0.049353436
212	0x3de79ec4	0.11309579
213	0x3da33574	0.0796918
214	0xbd68c519	-0.056828592
215	0xbdd1757c	-0.102274865
216	0xbc83f72b	-0.01610907
217	0x3da3409c	0.07971308
218	0xbd135030	-0.035965145
219	0x3da7ec3f	0.08199357
220	0xbc54b5bd	-0.012982783
221	0xbd1f092e	-0.038827114
222	0x3dd5f594	0.10447231
223	0x3d455d63	0.048184764
224	0x3dbab34e	0.09116231
225	0xbbe4a617	-0.0069778073
226	0xbd8ddfd4	-0.069274575
227	0xbd571044	-0.052505746
228	0x3d000a94	0.031260088
229	0x3d410d60	0.047131896
230	0x3cc92a93	0.024556434
231	0x3d38c238	0.045107096
232	0xbdbd0359	-0.09229154
233	0xbe09bc7e	-0.1345081
234	0x3db622fa	0.0889339
235	0xbdd3bf26	-0.10339193
236	0x38e07a09	0.00010703883
237	0xbde9a558	-0.1140849
238	0x3d3ba7e2	0.045814402
239	0xbdd12d9c	-0.102137774
240	0xbdad5abc	-0.08464572
241	0x3de73b51	0.112906106
242	0x3c166df7	0.009181491
243	0x3cc915e8	0.024546579
244	0x3d7f352f	0.06230658
245	0xbd93b25b	-0.07211753
246	0x3dad1e96	0.084530994
247	0xba4c8400	-0.0007801652
248	0x3d9cbb8c	0.07652959
249	0x3d04c08a	0.032410182
250	0x3df572be	0.11984776
251	0xbc17b3e0	-0.009259194
252	0xbc511908	-0.012762316
253	0xbdfd4792	-0.123671666
254	0x3c960628	0.018313482
255	0xbd341173	-0.043961953

MLP_layers.0.bias f4 [32]
0	0x3d88710a	0.066621855
1	0x3de93a15	0.113880314
2	0x3da19a30	0.07890737
3	0xbd9fd364	-0.078039914
4	0xbcfe35f5	-0.031031588
5	0x3dc474ea	0.09592612
6	0xbca0a0e9	-0.019607978
7	0x3cbdcb53	0.023168242
8	0xbd48c7f6	-0.049018823
9	0x3b39e41e	0.0028364728
10	0x3d27f8d0	0.04100877
11	0xbd91fc31	-0.0712818
12	0x3d61f6f4	0.055167153
13	0x3ce200bd	0.027588243
14	0xbd3db940	-0.046319246
15	0x3de95ff2	0.11395253
16	0xbdd28747	-0.10279708
17	0x3d292657	0.04129633
18	0xbddd999c	-0.10820314
19	0x3d9a49b7	0.07533591
20	0x3dbad606	0.09122853
21	0x3daadf93	0.08343425
22	0x3e0aa7f6	0.13540635
23	0xbdec4e17	-0.11538332
24	0xbda5828e	-0.08081542
25	0x3d9397fa	0.072067216
26	0xbdac4d7e	-0.08413218
27	0xbca1ba95	-0.01974229
28	0x3b8de639	0.004330423
29	0x3d90d63c	0.07072112
30	0xbc998d7a	-0.01874422
31	0x3e18ad90	0.14909959

MLP_layers.1.weight f4 [1, 32]
0	0xbe1e7ad6	-0.15476546
1	0x3e2f5eb8	0.17125976
2	0x3e3ca6a2	0.1842294
3	0xbd3ff0d5	-0.046860535
4	0xbd6cc1cf	-0.057802018
5	0x3e63f11c	0.22259945
6	0xbd23afb7	-0.039962497
7	0x3b4e6dcd	0.0031498552
8	0xbd8395f8	-0.06425089
9	0xbdd06ca5	-0.10176972
10	0xbd230560	-0.039800048
11	0x3dce6051	0.10076965
12	0xbdb5ca58	-0.08876485
13	0xbc828676	-0.015933257
14	0xbe04965e	-0.12947986
15	0x3dd31553	0.10306802
16	0xbcb31c07	-0.02186395
17	0x3d630b7a	0.055430867
18	0x3df232a0	0.11826062
19	0x3e451ddb	0.1924967
20	0x3e007383	0.12544064
21	0xbe0eb422	-0.13935903
22	0x3e695a31	0.22788312
23	0xbd4ab2be	-0.049486868
24	0x3c9c4dc2	0.019080047
25	0x3e2b49ec	0.16727418
26	0xbaa27805	-0.0012395388
27	0xbe0fb13a	-0.1403245
28	0x3e74b048	0.23895371
29	0xbda9dd14	-0.082941204
30	0xbbbb659e	-0.005718901
31	0x3d86b1d6	0.06576888
