SLIC_GAT/last1.pt (torch, 80373 bytes, 12 tensors)

GAT_layers.0.f.weight f4 [32, 124]
0	0xbcdae9af	-0.026722757
1	0x3d8474fd	0.06467626
2	0x3e24bbd2	0.16087273
3	0xbd07af39	-0.03312609
4	0xbda77c28	-0.08177978
5	0xbd2e769e	-0.04259359
6	0xbdefe088	-0.11712748
7	0x3d5d5fdc	0.054046497
8	0x3e5595cd	0.20857926
9	0xbdd2d865	-0.1029518
10	0xbd84a6fe	-0.06477164
11	0x3dec7bfc	0.11547086
12	0x3c715d89	0.014731773
13	0x3e2db20f	0.16962455
14	0xbd840a4c	-0.064472765
15	0xbe1cfef0	-0.15331626
16	0xbd94ef06	-0.072721526
17	0x3e062154	0.13098651
18	0xbaecb8e0	-0.0018060468
19	0xbe045449	-0.12922777
20	0x3d8dc63f	0.06922578
21	0x3de7f5d0	0.11326182
22	0xbc2e570a	-0.010640869
23	0xbb9f5e48	-0.004863534
24	0xbdd5a776	-0.10432331
25	0xbc9cd098	-0.019142434
26	0xbe2042c9	-0.15650477
27	0xbe32ac44	-0.17448527
28	0xbd56b78a	-0.05242113
29	0x3e40fb2a	0.18845811
30	0xbdb7c004	-0.08972171
31	0xbd1f5453	-0.038898777
32	0xbe0862fc	-0.1331901
33	0xbdd7716d	-0.10519681
34	0xbbccd973	-0.006251508
35	0xbe40784f	-0.18795894
36	0x3dee82d2	0.11646046
37	0x3c38d891	0.011282102
38	0x3d9bd244	0.07608464
39	0x3e12b555	0.14326985
40	0x3e2136ba	0.15743533
41	0x3e3f28be	0.18667886
42	0xbe2383fd	-0.15968318
43	0x3dd5a1e7	0.10431271
44	0x3d8a3b1f	0.06749558
45	0x3d4da8a7	0.050209668
46	0x3c06e8d6	0.008234223
47	0xbdcd48d0	-0.100236535
48	0x3de16aeb	0.11006721
49	0xbd21c383	-0.039493095
50	0x3e15bd1e	0.14622924
51	0xbe27223d	-0.16321655
52	0x3df0e525	0.11762456
53	0x3e12550d	0.14290257
54	0x3d92d7e4	0.07170084
55	0x3e118255	0.14209874
56	0x3c08d830	0.008352324
57	0xbd5dee95	-0.054182608
58	0x3d69891e	0.05701553
59	0xbe1156c7	-0.14193259
60	0xbd18b99c	-0.037286386
61	0x3e0070ba	0.12543002
62	0xbe036fae	-0.12835571
63	0x3d3e4e89	0.046461616
64	0x3d62c8c8	0.05536726
65	0xbe01eafe	-0.12687299
66	0xbd9126c3	-0.07087471
67	0x3d9b89bb	0.075946294
68	0x3d2a0e47	0.041517522
69	0xbda361ef	-0.07977664
70	0xbe045895	-0.12924416
71	0xbd8b804e	-0.068115816
72	0xbe3f7623	-0.1869741
73	0x3bfc60aa	0.007701953
74	0xbc8af1c8	-0.016960993
75	0xbe11b152	-0.14227799
76	0xbe2e06e7	-0.1699482
77	0x3df922cd	0.12164841
78	0x3d1db27f	0.038500305
79	0x3b71df84	0.0036906907
80	0xbdce7c6a	-0.10082324
81	0x3da058c5	0.078294314
82	0x3e133fbf	0.14379786
83	0x3e08779f	0.13326882
84	0xbe27ec64	-0.1639877
85	0x3e3303c6	0.17481908
86	0xbdffdd1c	-0.12493345
87	0xbe12c9ee	-0.14334843
88	0xbe0dd0bd	-0.13849159
89	0xbce2224d	-0.027604247
90	0xbc04226e	-0.008064849
91	0x3dae1051	0.08499206
92	0xbe305137	-0.17218481
93	0xbe1d6fb6	-0.15374646
94	0x3d09ce13	0.033643793
95	0x3e0e5774	0.13900548
96	0x3e3637e1	0.17794754
97	0x3dffed76	0.12496464
98	0xbba94c7d	-0.005166589
99	0xbda09103	-0.07840159
100	0x3e065b0e	0.13120672
101	0xbd8c78d9	-0.06858987
102	0x3e29e432	0.16590956
103	0xbd1d13a7	-0.03834882
104	0xbe45764e	-0.19283411
105	0x3cb62bd4	0.022237696
106	0x3d43262f	0.047643837
107	0xbe2caf2a	-0.16863695
108	0xbb549767	-0.0032438876
109	0x3db79532	0.089640036
110	0xbe3b28fa	-0.1827735
111	0xbdb408bd	-0.08790729
112	0x3e3a03ad	0.18165465
113	0xbdfb62a6	-0.12274675
114	0x3e4bbc01	0.19895937
115	0x3e01e350	0.12684369
116	0x3c7bf4fb	0.015378232
117	0xbe18009a	-0.1484398
118	0xbe09da88	-0.1346227
119	0x3d2f799a	0.042840578
120	0x3ddb59c3	0.1071048
121	0x3d10a977	0.035317864
122	0xbd9d6f96	-0.07687299
123	0x3dcdedd6	0.10055129
124	0xba475248	-0.00076035084
125	0xbe387ebf	-0.180171
126	0x3d06cdf1	0.032911245
127	0x3d965c0f	0.073417775
128	0xbe39e7b6	-0.18154797
129	0x3ce25fbb	0.027633538
130	0x3d7378f8	0.059441537
131	0x3e04d226	0.1297079
132	0xbd210ad9	-0.039316986
133	0xbe08d3e0	-0.13362074
134	0x3d51c4b1	0.05121297
135	0xbd39e38e	-0.04538303
136	0x3d93fc45	0.07225851
137	0xbdad60e5	-0.08465747
138	0x3e4576a9	0.19283547
139	0x3b4f351a	0.0031617344
140	0xbdb8ad2d	-0.09017406
141	0xbe0ce2de	-0.13758418
142	0x3e2fe4c6	0.17177114
143	0x3d8e3c2f	0.06945073
144	0xbcd43033	-0.02590189
145	0xbc3442e9	-0.011002281
146	0x3cb73d8f	0.02236822
147	0xbe299d39	-0.16563882
148	0xbd9f3e5b	-0.07775565
149	0xbe380293	-0.17969732
150	0xbc95489d	-0.018223101
151	0xbe3b4ced	-0.18291064
152	0xbe12bd56	-0.14330038
153	0xbe0cb2c3	-0.13740067
154	0x3d546216	0.051851355
155	0x3e2f1f8c	0.17101878
156	0x3e479f72	0.19494417
157	0x3e3442a3	0.17603545
158	0xbe0da922	-0.1383405
159	0x3d1da49b	0.038487058
160	0xbe468dea	-0.19390073
161	0xbe00513b	-0.12530987
162	0xbe4028ad	-0.18765517
163	0xbd61b6ba	-0.055105902
164	0xbc40025a	-0.011719311
165	0xbca72f35	-0.020408252
166	0xbdd868aa	-0.10566838
167	0x3cfb0f2e	0.030646887
168	0x3da6afeb	0.081390224
169	0x3e01e672	0.12685564
170	0xbd71ea9b	-0.059061628
171	0x3e446df6	0.19182572
172	0x3d9d6f7f	0.07687282
173	0x3d2a4854	0.041572884
174	0xbdb251d8	-0.08707017
175	0x3d18b288	0.037279636
176	0x3e08cdb4	0.1335972
177	0x3cd7879c	0.02630978
178	0x3e18e609	0.14931501
179	0xbce26368	-0.027635291
180	0x3dd25877	0.102707796
181	0xbe14832c	-0.14503163
182	0xbdf62482	-0.12018682
183	0x3e2c1fe8	0.16809046
184	0x3cd11ae1	0.025525512
185	0xbd6f678b	-0.058448356
186	0x3e017e34	0.12645799
187	0x3d8cd6c9	0.068769045
188	0x3e027a6f	0.12742017
189	0xbe34e8d3	-0.1766694
190	0xbe466c7b	-0.1937732
191	0xbe3258df	-0.17416714
192	0xbd4846f6	-0.0488958
193	0xbe09a923	-0.13443427
194	0x3d74bff8	0.05975339
195	0xbe1ce872	-0.15323046
196	0xbd7feae0	-0.062479854
197	0xbe31aea6	-0.1735178
198	0xbe432180	-0.19055748
199	0xb970d4a3	-0.00022967397
200	0x3d878e10	0.06618893
201	0x3e0ae906	0.13565454
202	0x3e22cd58	0.15898645
203	0xbe31aab5	-0.17350276
204	0x3e0441ed	0.12915774
205	0xbe1ece06	-0.15508279
206	0xbb795009	-0.003804209
207	0xbcfe5384	-0.031045683
208	0x3df1f49c	0.11814234
209	0x3e36f41e	0.17866561
210	0xbc27de3e	-0.010245858
211	0x3e3a4f49	0.18194307
212	0x3ca187df	0.019718109
213	0xbe191e2c	-0.14952916
214	0xbe040a37	-0.12894522
215	0xbe227009	-0.1586305
216	0xbd0b5d60	-0.034024596
217	0xbdba9c91	-0.09111894
218	0x3d857e25	0.06518201
219	0xbe2d21c0	-0.16907406
220	0xbe424d2b	-0.1897475
221	0xbdc85fb2	-0.097838774
222	0xbe118642	-0.14211372
223	0x3e1400f7	0.14453493
224	0x3e0468aa	0.12930551
225	0x3b123396	0.002230858
226	0x3c35e180	0.011101127
227	0xbe0d1506	-0.13777551
228	0xbc6f6278	-0.014610879
229	0xbe15fc31	-0.14646985
230	0xbdfb55eb	-0.12272247
231	0x3e050fd6	0.12994322
232	0x3e1c54ff	0.15266798
233	0x3c10254f	0.008797958
234	0x3dc54af4	0.09633437
235	0xbd87abbd	-0.06624553
236	0x3e16e7a3	0.147368
237	0xbd8eb8b5	-0.06968824
238	0x3ddf99a4	0.109179765
239	0xbe14850e	-0.14503881
240	0x3d85ad07	0.06527143
241	0x3d42921d	0.047502626
242	0x3d94bf5e	0.07263063
243	0xbdf3c13d	-0.11902092
244	0x3e12f27f	0.14350317
245	0x3e2356cb	0.15951078
246	0xbdb0f5ef	-0.08640658
247	0xbad95626	-0.001658146
248	0x3d9fa9cd	0.07796059
249	0x3e05695e	0.13028476
250	0xbd459361	-0.048236255
251	0xbce2bc71	-0.027677746
252	0xbe238ef1	-0.15972497
253	0xbd9820b5	-0.07428113
254	0x3e215eec	0.15758866
255	0xbc641867	-0.013921834

GAT_layers.0.f.bias f4 [32]
0	0xbcb87efd	-0.02252149
1	0xbc1944ef	-0.009354814
2	0xbdaaa6d6	-0.08332603
3	0x3dcf4ee8	0.10122472
4	0x3d9b5818	0.07585162
5	0x3da7cf56	0.08193843
6	0xbda3fc99	-0.080071636
7	0x3abe2052	0.0014505482
8	0xbdae076d	-0.0849751
9	0xbd226a11	-0.039651934
10	0x3b6b9f01	0.0035952928
11	0xbc2919ba	-0.010321075
12	0x3d315a32	0.043298908
13	0x3c4750ca	0.012165258
14	0xbdd77d36	-0.10521929
15	0xbdc1b2ec	-0.09457955
16	0xbc258ce1	-0.010104389
17	0xbd8fee62	-0.0702789
18	0xbd8195cf	-0.06327402
19	0x3bf1611c	0.0073663127
20	0x3c4c380d	0.012464535
21	0x3d2bf28e	0.041979365
22	0x3bbf7a21	0.0058434163
23	0x3c16cebe	0.009204565
24	0x3d24f95d	0.040276874
25	0xbd8185d5	-0.063243546
26	0xbd9799a7	-0.07402354
27	0x3b9e1754	0.0048245583
28	0x3c552731	0.013009832
29	0x3d7496e1	0.0597142
30	0xbd192694	-0.037390307
31	0xbda810eb	-0.08206352

GAT_layers.0.w.weight f4 [1, 124]
0	0xbe531b2e	-0.20615837
1	0xbb93262a	-0.0044906335
2	0xbe309ce5	-0.1724735
3	0xbe533e6d	-0.20629282
4	0x3c067afe	0.008208035
5	0x3e1c9bfd	0.1529388
6	0xbe19a0de	-0.15002772
7	0xbe4c71b6	-0.19965252
8	0xbe52bafd	-0.20579143
9	0x3d14ee8e	0.036360316
10	0xbe178af6	-0.14799103
11	0xbe1949f5	-0.14969619
12	0xbccd013e	-0.025025006
13	0x3dc79c79	0.09746642
14	0x3bca553f	0.006174713
15	0x3c564401	0.013077737
16	0x3d7f05ca	0.06226138
17	0x3d157809	0.036491428
18	0x3e1bd2a2	0.15217069
19	0xbd09570d	-0.033530284
20	0xbd1aff59	-0.037841175
21	0xbca080c7	-0.019592656
22	0x3bed9c18	0.007251274
23	0x3cc12cfe	0.023581024
24	0xbe090975	-0.13382514
25	0xbe5710b5	-0.21002467
26	0xbd61b9ef	-0.05510896
27	0x3e4ee689	0.2020513
28	0xbe1248ab	-0.14285533
29	0xbe48ec41	-0.19621374
30	0x3e5b8840	0.21438694
31	0xbe0de08e	-0.13855192
32	0xbe0b804c	-0.1362316
33	0xbdf23323	-0.1182616
34	0x3aa43c0f	0.0012530106
35	0xbd8b4377	-0.06799977
36	0x3da1fce5	0.07909564
37	0xbd3611bd	-0.04445051
38	0x3c505890	0.012716427
39	0xbd9474b0	-0.07248819
40	0xbda78d0b	-0.08181199
41	0xbe4b8fe2	-0.19879106
42	0x3d257e73	0.040403794
43	0x3e128654	0.14309055
44	0xbe1dd6cb	-0.15413968
45	0xbccb58c1	-0.024822595
46	0x3d5ad6b4	0.053427413
47	0x3dce6d6f	0.100794666
48	0xbe14bde9	-0.1452557
49	0xbdfda0a5	-0.12384156
50	0xbdc41e15	-0.0957605
51	0x3e44a6a5	0.19204195
52	0xbd2a705f	-0.04161107
53	0xbd1eb989	-0.03875116
54	0xbe07a333	-0.1324585
55	0xbccf06ba	-0.025271762
56	0x3e0af260	0.13569021
57	0xbe2193c4	-0.15779024
58	0x3d23c726	0.039984845
59	0xbd0515cb	-0.032491487
60	0xbe2593bc	-0.16169637
61	0xbd7cb7cf	-0.06169873
62	0x3d1ddeab	0.03854243
63	0xbe1cbed5	-0.15307172
64	0xbe2161ba	-0.15759936
65	0x3dd34a0d	0.103168584
66	0xbe0f08ab	-0.1396815
67	0x3e43da72	0.19126299
68	0xbe3509f1	-0.17679574
69	0x3d75d064	0.06001319
70	0x3d92d6bb	0.07169863
71	0xbe3bc16d	-0.18335505
72	0x3e2f2fcf	0.17108081
73	0x3cb28b72	0.021795008
74	0xbe089c55	-0.13340886
75	0x3e1805e6	0.14846
76	0xbd2bdb8a	-0.041957416
77	0x3da9bef7	0.08288377
78	0x3d38a378	0.04507777
79	0x3d838c37	0.06423228
80	0x3e3dcf07	0.18536006
81	0xbdfa3885	-0.122178115
82	0xbda37e81	-0.07983113
83	0x3e1c9dfa	0.15294638
84	0xbe176123	-0.14783148
85	0x3e3d2df6	0.18474564
86	0x3e328316	0.17432818
87	0xbe5e14b6	-0.21687588
88	0xbd5b2d46	-0.053509973
89	0x3d691ac8	0.056910306
90	0xbdf1c367	-0.11804848
91	0xbdc88522	-0.09791018
92	0xbd26fed0	-0.040770352
93	0xbe4a8715	-0.19778092
94	0x3e4e3665	0.20137937
95	0x3e1f5423	0.1555944
96	0xbde21801	-0.11039735
97	0xbdc1f9a9	-0.09471447
98	0x3e20da1a	0.15708199
99	0xbd4c73ee	-0.049915247
100	0x3d52c992	0.051461764
101	0xbe35da10	-0.17758965
102	0x3e13fc8a	0.14451805
103	0x3da89f70	0.08233535
104	0xbcbee3f8	-0.023302063
105	0x3e0942c2	0.13404372
106	0x3d388919	0.04505262
107	0xbe48c2a6	-0.19605502
108	0x3db5b96b	0.08873256
109	0x3d93b618	0.07212466
110	0x3e00e55c	0.12587494
111	0xbe406c72	-0.18791369
112	0x3da765f6	0.081737444
113	0x3ddc5abd	0.107594945
114	0xbdf590c2	-0.11990501
115	0x3d4cfbf4	0.05004497
116	0x3e4ae332	0.1981323
117	0x3ccad24a	0.024758477
118	0xbdbb456a	-0.09144099
119	0x3d5bbaab	0.053644817
120	0xbdea9784	-0.114546806
121	0x3dc89112	0.09793295
122	0xbe4a4edf	-0.1975665
123	0x3da928ee	0.0825976

GAT_layers.1.f.weight f4 [64, 64]
0	0x3d71e3bd	0.05905508
1	0x3d22ff67	0.039794352
2	0x3e54dd75	0.20787604
3	0xbda95b7e	-0.08269404
4	0x3e58db9c	0.21177524
5	0x3df332c1	0.11874915
6	0xbe3b2e43	-0.18279366
7	0xbe1d7f3c	-0.15380567
8	0x3e26fb07	0.16306697
9	0xbdc66ba6	-0.09688501
10	0x3e3c8618	0.18410528
11	0x3dc6d51e	0.09708618
12	0xbe1b532a	-0.15168443
13	0xbdf0abb3	-0.11751499
14	0x3c93a699	0.018023776
15	0x3cad4904	0.02115298
16	0xbe159cf1	-0.1461065
17	0xbd2e7842	-0.042595156
18	0xbda12403	-0.07868197
19	0x3d6dbff1	0.058044378
20	0xbe2694a0	-0.16267633
21	0x3dee3801	0.11631776
22	0x3e15b99d	0.14621587
23	0xbe591f4d	-0.21203347
24	0xbd82696d	-0.063677646
25	0xbddca46c	-0.107735485
26	0xbce4912b	-0.027901253
27	0x3e1284e3	0.14308505
28	0xbdd979c1	-0.10618926
29	0xbe35952c	-0.17732686
30	0x3e0367c6	0.12832555
31	0xbe20a98b	-0.15689676
32	0xbda089fb	-0.07838818
33	0x3ce04b8a	0.02737977
34	0xbe1f67a1	-0.15566875
35	0x3ddab11e	0.10678314
36	0x3c21f0da	0.009884084
37	0xbe240f52	-0.16021469
38	0xbe4e2d24	-0.20134407
39	0x3e3bb40c	0.18330401
40	0xbbf90bec	-0.007600298
41	0xbe45d6d9	-0.19320239
42	0x3e148073	0.14502124
43	0x3dcec9d1	0.10097087
44	0xbe3b7ed9	-0.18310107
45	0x3e036fef	0.12835668
46	0x3dbf5681	0.09342671
47	0xbe48e937	-0.19620214
48	0x3dc52ec4	0.096280605
49	0xbcbe093f	-0.023197768
50	0xbdd33506	-0.10312848
51	0x3dee981c	0.11650106
52	0x3c93726c	0.017998897
53	0x3d999768	0.074995816
54	0xbe2dce41	-0.16973211
55	0xbe3112d4	-0.17292339
56	0x3e073855	0.13205083
57	0x3e29d317	0.1658443
58	0xbe58642e	-0.21131966
59	0xbd8327e6	-0.064040944
60	0xbd403ae4	-0.046931162
61	0xbdff0854	-0.1245276
62	0xbd297e17	-0.041380014
63	0x3d01e474	0.03171201
64	0xbd99ea73	-0.07515421
65	0x3e515bc6	0.20445165
66	0x3e193f66	0.14965591
67	0x3da595a8	0.08085185
68	0x3d77b77e	0.060477726
69	0xbd8495ff	-0.06473922
70	0xbe360734	-0.17776185
71	0x3e598891	0.21243502
72	0x3d8b9354	0.0681521
73	0x3db9cbea	0.09072097
74	0x3c1ee213	0.009697455
75	0xbd29b5e5	-0.041433234
76	0x3dd0b02c	0.10189852
77	0x3d61dff2	0.05514521
78	0xbd0c33f6	-0.03422924
79	0x3e2669fb	0.16251366
80	0x3cd7fdb8	0.0263661
81	0xbda31dbe	-0.07964657
82	0xbd509851	-0.05092651
83	0xbe02de94	-0.1278022
84	0xbca3ca9f	-0.019994078
85	0x3dbca757	0.09211605
86	0x3dd9e790	0.1063987
87	0xbd1ecb04	-0.03876783
88	0x3e05a08f	0.1304953
89	0xbe2f31e6	-0.17108878
90	0xbc8002ac	-0.015626274
91	0x3db7c211	0.08972562
92	0xbda80558	-0.08204144
93	0xbda7dad0	-0.08196032
94	0x3dabf7d5	0.083968796
95	0xbe255515	-0.16145737
96	0xbd91a2f1	-0.07111157
97	0xbd0d6e7e	-0.0345292
98	0x3dd5d3e5	0.10440806
99	0xbdd2131e	-0.102575526
100	0xbd9cf11c	-0.076631755
101	0xbc00b352	-0.007855253
102	0x3e13a262	0.14417413
103	0xbdeb10b2	-0.11477794
104	0x3c1cbde1	0.009566755
105	0xbe08fb9b	-0.1337723
106	0xbe2626fb	-0.16225807
107	0xbca835ec	-0.020533524
108	0x3e3fd2dc	0.1873278
109	0xbc59877d	-0.013276932
110	0xbe657431	-0.22407605
111	0x3d648857	0.055794086
112	0xbe2f9f7c	-0.17150682
113	0xbd8bc268	-0.068241894
114	0xbcaf9d54	-0.021437325
115	0xbd09a869	-0.033607874
116	0xbe205d42	-0.15660575
117	0xbe32913f	-0.1743822
118	0x3dcb4f23	0.099272035
119	0x3d2661c6	0.040620588
120	0x3dbfb360	0.09360385
121	0xbe5b5171	-0.21417786
122	0xbd933171	-0.071871646
123	0x3e5309d7	0.20609222
124	0xbc9d66c1	-0.019214036
125	0x3ce86c99	0.028372096
126	0x3e2efbed	0.1708829
127	0x3e3553eb	0.17707793
128	0xbdd487f0	-0.103774905
129	0x3ddcef44	0.10787824
130	0xbd970abc	-0.07375094
131	0x3d307ca7	0.043087628
132	0x3b198ce4	0.0023429925
133	0xbdde24a0	-0.108468294
134	0x3d8dc160	0.06921649
135	0x3e58a31c	0.21155971
136	0x3d4d1777	0.050071206
137	0xbc2cebdd	-0.010554281
138	0x3e471d4f	0.19444774
139	0xbe4a0051	-0.19726683
140	0x3dfa95fa	0.12235637
141	0x3e076923	0.132237
142	0x3dffc4c8	0.12488705
143	0xbe0f5bae	-0.13999817
144	0xbe17e71c	-0.14834255
145	0x3b587cdd	0.0033033409
146	0xbd215a68	-0.03939286
147	0xbddf8f01	-0.10915948
148	0xbdb87e85	-0.09008507
149	0x3e38e614	0.18056518
150	0xbd4df4a7	-0.050282147
151	0xbe53535c	-0.20637268
152	0x3e57c125	0.21069773
153	0x3e5aed27	0.21379529
154	0xbd6dbf13	-0.05804355
155	0xbd9791f1	-0.07400883
156	0x3de6acf5	0.11263458
157	0xbe21f5e6	-0.15816459
158	0x3e12a1cf	0.14319538
159	0xbd917324	-0.071020395
160	0xbe097718	-0.13424337
161	0xbe0e9573	-0.13924198
162	0x3e139241	0.1441126
163	0x3cf85160	0.03031224
164	0x3de3a3e0	0.11115241
165	0xbe485e85	-0.19567306
166	0x3e01eb76	0.12687477
167	0x3d46e071	0.048553888
168	0x3e3e5ea5	0.18590792
169	0xbdc9e6a3	-0.098584436
170	0x3de954fa	0.11393161
171	0x3dfc5dbd	0.12322567
172	0x3c5fa221	0.013649494
173	0x3e41f8c9	0.1894256
174	0x3e426c55	0.18986638
175	0xbe43dfa2	-0.19128278
176	0xbc8e1d9e	-0.017348107
177	0xbe22ccd6	-0.15898451
178	0x3d699a08	0.05703166
179	0xbbce3971	-0.0062934686
180	0xbc9eed8c	-0.01940038
181	0xbe27e5fd	-0.16396327
182	0x3dfa366e	0.12217413
183	0x3e1ebe65	0.15502317
184	0xbd64725b	-0.05577312
185	0x3d999c05	0.075004615
186	0x3de300a8	0.110841095
187	0xbd08f6cc	-0.03343849
188	0x3c1e55e3	0.009664032
189	0xbe3fc497	-0.18727337
190	0xbe3fca2b	-0.18729465
191	0x3c9a3156	0.018822353
192	0xbd9b2585	-0.07575516
193	0x3d80a908	0.0628224
194	0x3ddf4e4f	0.10903608
195	0xbd725954	-0.05916722
196	0xbe44a540	-0.19203663
197	0xbe0be363	-0.1366096
198	0xbe30a98f	-0.17252181
199	0xbcbe7364	-0.023248382
200	0xbdf58f56	-0.1199023
201	0xbe2f00f4	-0.17090207
202	0xbc637e27	-0.0138850575
203	0x3e589ddf	0.21153973
204	0xbcd863e9	-0.026414828
205	0xbdfdb3ea	-0.123878315
206	0x3e0e1a98	0.13877332
207	0x3dcf54c3	0.10123589
208	0x3d0f2831	0.03495044
209	0xbd2df8af	-0.04247349
210	0xbdf0985d	-0.11747811
211	0xbe465e0b	-0.19371812
212	0xbe5d8fec	-0.21636933
213	0x3e1abcbf	0.15111063
214	0xba7095fe	-0.0009177624
215	0x3d99fb37	0.075186186
216	0x3d4f1c28	0.05056396
217	0xbd3759d1	-0.04476339
218	0xbe40f7e7	-0.18844567
219	0xbe3d4874	-0.1848467
220	0x3e13fb33	0.14451294
221	0xbcdd2869	-0.026996808
222	0xbe5d4c16	-0.21611056
223	0x3da1058d	0.07862387
224	0xbdc63ec4	-0.0967994
225	0xbde8bedf	-0.11364531
226	0x3e3c70c3	0.1840239
227	0x3e15498a	0.14578834
228	0xbdb4e248	-0.08832222
229	0x3d318df0	0.043348253
230	0x3e59ad29	0.21257462
231	0x3da617e9	0.08110029
232	0x3e3970f9	0.18109502
233	0xbd47f79a	-0.048820116
234	0xbddf4579	-0.10901923
235	0xbcd1b775	-0.025600174
236	0x3d44279e	0.047889344
237	0xbde28a7c	-0.1106157
238	0xbdfe45c2	-0.12415649
239	0xbd513e91	-0.05108506
240	0x3e18d114	0.14923507
241	0xbcf2e7a7	-0.029651476
242	0xbce73056	-0.02822129
243	0x3d4b2b44	0.04960181
244	0xbe5c36f5	-0.2150534
245	0xbd633f9b	-0.05548058
246	0x3de610e9	0.11233694
247	0x3e4bb168	0.19891894
248	0xbe57dc06	-0.21080026
249	0xbe546ab5	-0.2074383
250	0xbd5bd633	-0.053671073
251	0xbbb44b0a	-0.0055021094
252	0xbc314f35	-0.010822107
253	0x3d9b0771	0.07569779
254	0xbe036aa0	-0.12833643
255	0x3d683dce	0.056699567

GAT_layers.1.f.bias f4 [64]
0	0xbc2b26f0	-0.010446295
1	0xbc026cdf	-0.007960527
2	0xbdc636c5	-0.09678415
3	0xbd9a456c	-0.075327724
4	0xbdb1e934	-0.08687058
5	0xbcc27b25	-0.02374036
6	0xbdc56055	-0.096375145
7	0xbd41d89f	-0.047325727
8	0xbda767b6	-0.08174078
9	0xbdb18c22	-0.08669306
10	0x3d847cd4	0.064691216
11	0xbd26f328	-0.040759236
12	0xbdc3f3bc	-0.09567973
13	0xbd2c8c4c	-0.042125985
14	0x3d8dc7ee	0.06922899
15	0xbd710eb4	-0.058851913
16	0xbd0296a8	-0.03188196
17	0xbdc37926	-0.095445916
18	0xbd057a73	-0.03258748
19	0x3d90a27e	0.07062243
20	0xbdf9046b	-0.12159046
21	0xbd4ed3a9	-0.050494824
22	0x3ce94735	0.028476337
23	0x3d987873	0.07444849
24	0xbd238838	-0.03992483
25	0x3db4f715	0.0883619
26	0x3e097c1d	0.13426252
27	0xbd746be1	-0.059673194
28	0x3dc9e052	0.09857239
29	0xbd666746	-0.056250833
30	0x3dcef9f2	0.10106267
31	0xbdcd80bc	-0.1003432
32	0x3d4d7042	0.050155886
33	0xbd92b5ac	-0.071635574
34	0x3d60eff4	0.054916337
35	0xbe01d21c	-0.12677807
36	0xbd219d26	-0.03945651
37	0x3d9763b4	0.07392064
38	0xbc999da3	-0.018751925
39	0x3deb9f7a	0.11505027
40	0xbcc457d8	-0.023967668
41	0x3d716ffb	0.058944684
42	0xbdcc99f3	-0.09990301
43	0xbde38485	-0.111092605
44	0xbc389aa8	-0.011267342
45	0x3ddcb35b	0.10776397
46	0xbde59d02	-0.112115875
47	0x3d2a4a08	0.041574508
48	0x3daef25e	0.085423216
49	0x3d4091d8	0.047014087
50	0x3e1b0dba	0.15141955
51	0x3d91dcba	0.071221784
52	0xbce2c172	-0.027680133
53	0x3d4a4698	0.04938373
54	0x3d821dd9	0.06353349
55	0x3d34a97f	0.044106957
56	0xbcb7e678	-0.022448763
57	0x3da48058	0.08032292
58	0x3d8f0e6a	0.06985171
59	0xbd571351	-0.052508656
60	0xbd00d7e8	-0.031455904
61	0xbdb26085	-0.08709816
62	0xbda55457	-0.08072727
63	0xbdb6fb12	-0.089346066

GAT_layers.1.w.weight f4 [1, 64]
0	0xbd1ad710	-0.037802756
1	0x3e517331	0.20454098
2	0xbe78451a	-0.2424511
3	0x3e90342b	0.281648
4	0xbe2dc77d	-0.1697063
5	0xbe712139	-0.2354783
6	0x3e2715ea	0.16316953
7	0x3d2f9e9a	0.042875864
8	0xbe12dc2a	-0.14341798
9	0x3cc39a3d	0.023877257
10	0xbcda6694	-0.026660241
11	0xbe6d6803	-0.23184209
12	0x3d7d2b75	0.061809022
13	0xbde76f30	-0.11300504
14	0xbd33b434	-0.043873027
15	0xbd3bae9c	-0.045820817
16	0xbe0a5088	-0.13507283
17	0x3e7bc05c	0.24585098
18	0xbe5b3254	-0.21405917
19	0x3e71a9f4	0.23599988
20	0x3e8f1a7a	0.27949888
21	0xbe7f0acb	-0.24906461
22	0xbdd01968	-0.10161096
23	0x3c1bb2fd	0.009503123
24	0xbdecf7e4	-0.11570719
25	0xbca8176c	-0.02051898
26	0x3e4b70f4	0.19867307
27	0xbdaed4ac	-0.08536658
28	0xbe19c0e0	-0.15014982
29	0xbdc780b1	-0.09741343
30	0x3e799cb7	0.24376188
31	0xbe837f16	-0.25682896
32	0x3e4ad12e	0.19806358
33	0x3e919e24	0.28440964
34	0xbe389e1f	-0.18029068
35	0x3ccca328	0.024980143
36	0xbdc2ba52	-0.09508194
37	0x3e700751	0.23440291
38	0xbe6e4009	-0.23266615
39	0x3e4121ff	0.18860625
40	0xbcc8cfb6	-0.024513107
41	0xbe140d5c	-0.14458221
42	0xbe177c32	-0.1479347
43	0x3e485601	0.19564058
44	0xbdf5e5b1	-0.12006701
45	0x3e90abc0	0.28256035
46	0xbc865dab	-0.016402086
47	0xbdfe3988	-0.12413317
48	0xbe3f41ff	-0.1867752
49	0x3da8fdc2	0.082515255
50	0xbe924208	-0.28566003
51	0x3e0d298a	0.13785377
52	0xbe06ab47	-0.13151275
53	0x3e00dcc8	0.12584221
54	0xbd9bbf2d	-0.07604823
55	0x3e0d493a	0.13797465
56	0xbd95898b	-0.07301625
57	0xbe9b3df4	-0.30320704
58	0x3e14d106	0.14532861
59	0x3e7c66c0	0.24648571
60	0x3d122e74	0.035688832
61	0xbdff12eb	-0.1245478
62	0xbd2e5343	-0.042559873
63	0xbb5be4be	-0.003355309

GAT_layers.2.f.weight f4 [64, 128]
0	0x3b34dbf0	0.0027596913
1	0xbe32740c	-0.17427081
2	0xbd74057b	-0.05957554
3	0xbd9c82ab	-0.076421104
4	0xbcd739fb	-0.026272764
5	0x3d047488	0.032337695
6	0xbe294ede	-0.16533992
7	0xbdf984fa	-0.121835664
8	0x3e0be622	0.13662007
9	0x3cd8c54c	0.026461266
10	0xbcd4944f	-0.025949625
11	0x3d2bdde8	0.041959673
12	0x3dee7d39	0.11644978
13	0x3e106ba5	0.14103563
14	0xbe11e098	-0.14245832
15	0xbda922a8	-0.08258563
16	0x3db0dd0d	0.08635912
17	0xbda639f3	-0.08116522
18	0xbe122b06	-0.14274225
19	0xbd889515	-0.0666906
20	0xbde93a79	-0.11388106
21	0x3d611f14	0.05496128
22	0x3d74d411	0.059772555
23	0xbd9454a6	-0.07242708
24	0x3bdb53a3	0.00669332
25	0xbce9228d	-0.028458858
26	0x3d8f762a	0.0700496
27	0xbe3251c8	-0.1741401
28	0x3d248b9c	0.040172204
29	0xbc724373	-0.014786589
30	0xbe24f1f9	-0.1610793
31	0x3e2ac3d8	0.16676271
32	0x3d7d674d	0.061866093
33	0x3d5388d8	0.051644176
34	0xbe1f6955	-0.15567525
35	0x3dfcc0fd	0.12341497
36	0xbd423919	-0.047417734
37	0x3d4afc70	0.04955715
38	0xbe09673c	-0.13418287
39	0xbd5aa3c4	-0.053378835
40	0xbccad94d	-0.02476182
41	0xbd5be97a	-0.053689457
42	0x3dbd5034	0.09243813
43	0xbdb25d30	-0.0870918
44	0x3d71f52f	0.059071716
45	0xbe122cb7	-0.1427487
46	0xbd1cf963	-0.03832377
47	0xbe1b1c00	-0.151474
48	0xbe11525a	-0.14191571
49	0x3e300e28	0.171929
50	0x3e33fd40	0.17577076
51	0x3e28eff1	0.1649778
52	0xbbb77b83	-0.0055994405
53	0xbde8ea01	-0.11372758
54	0xbd8d8b25	-0.06911305
55	0xbd8a7afa	-0.06761737
56	0xbe12bfa5	-0.14330919
57	0xbe2d6d66	-0.16936263
58	0xbbaec711	-0.005333789
59	0x3db85202	0.09000017
60	0xbdbee190	-0.093203664
61	0xbd3e9f84	-0.046538845
62	0xbdd1efd9	-0.102508254
63	0xbe24c0ba	-0.16089144
64	0xbd8cbdf9	-0.06872172
65	0xbdff08fe	-0.12452887
66	0xbe2a0162	-0.1660209
67	0xbc67c83f	-0.0141468635
68	0x3e28f0fb	0.16498177
69	0x3e31529d	0.1731667
70	0xbd8333ac	-0.0640634
71	0xbe233ccb	-0.1594116
72	0xbde695f2	-0.112590685
73	0xbd0b5fb9	-0.034026835
74	0xbe261c7d	-0.16221805
75	0xbd3e6cab	-0.046490353
76	0xbe221a75	-0.15830405
77	0xbcb6ec69	-0.022329526
78	0xbbdabde8	-0.0066754706
79	0xbd5af570	-0.053456724
80	0xbd9d9430	-0.0769428
81	0xbd8a0e4a	-0.06741007
82	0xbd203782	-0.039115436
83	0xbdf7505a	-0.12075873
84	0x3dd462ad	0.103703834
85	0xbd8e0297	-0.06934088
86	0x3ac217b0	0.0014808085
87	0x3e335429	0.17512573
88	0x3d86f5e1	0.065898664
89	0x3c9c65ef	0.019091574
90	0xbc4383c2	-0.011933269
91	0x3c63dc82	0.013907554
92	0x3d5baf08	0.05363372
93	0xbd198882	-0.0374837
94	0x3e1f0eff	0.15533064
95	0x3d8ea5db	0.06965228
96	0x3d78e0ba	0.06076119
97	0x3cbaa8f3	0.02278564
98	0x3e29b70c	0.16573733
99	0x3d9f1dd0	0.07769358
100	0x3e14b9be	0.1452398
101	0xbc8683ec	-0.016420327
102	0xbcac40e7	-0.021027042
103	0xbda7041e	-0.08155082
104	0x3d70e84e	0.058815293
105	0x3d5eda26	0.05440726
106	0x3d1b7a39	0.037958357
107	0x3dde0735	0.108412184
108	0xbd87869a	-0.0661747
109	0x3d8ce2bb	0.06879183
110	0xbe315851	-0.17318846
111	0xbd40be60	-0.047056556
112	0xbe1a86e5	-0.1509052
113	0xbdb0f9b1	-0.08641375
114	0x3e231d83	0.15929227
115	0xbc98fc91	-0.01867512
116	0xbd806c14	-0.06270614
117	0x3cca087c	0.024662249
118	0xbe2ff5e6	-0.17183647
119	0xbc9acea3	-0.01889736
120	0x3d52f892	0.051506586
121	0xbdc1da0c	-0.09465417
122	0x3c087a3c	0.008329924
123	0xbdf201a2	-0.11816718
124	0x3e23cbf8	0.15995777
125	0x3de7f027	0.11325102
126	0x3e08daa5	0.13364656
127	0x3e0259b9	0.12729539
128	0x3dd43c0d	0.10363016
129	0xbe0b6a4b	-0.13614766
130	0xbdf75466	-0.120766446
131	0xbdb21f76	-0.08697407
132	0xbdf4b6c7	-0.119489245
133	0xbd23e9d4	-0.040017918
134	0xbc8d0dd1	-0.017218502
135	0xbdb3f076	-0.08786099
136	0x3dcf617a	0.10126014
137	0xbe0ca9b7	-0.13736616
138	0x3d3d3f7f	0.046203133
139	0x3cdbb9db	0.026822021
140	0x3da05101	0.0782795
141	0xbd205da6	-0.03915181
142	0x3dec8a53	0.11549821
143	0xbbc9eb4b	-0.0061620823
144	0x3d4ba66b	0.049719255
145	0xbd10e398	-0.0353733
146	0xbc04d1da	-0.008106673
147	0x3cdc3d9a	0.026884843
148	0xba65e8e0	-0.0008770358
149	0xbe37430c	-0.1789667
150	0xbcf56b47	-0.02995838
151	0x3d3ae65e	0.04562985
152	0xbe05f983	-0.13083462
153	0x3c5c9c9f	0.013465076
154	0xbe0ca8c3	-0.13736252
155	0x3d0d1e5c	0.03445278
156	0xbdda0d06	-0.10647015
157	0x3d8d4ac9	0.0689903
158	0xbdd38cb3	-0.103295706
159	0x3dbd3ad9	0.0923974
160	0x3e21ee83	0.15813641
161	0xbcd295c7	-0.025706185
162	0xbde9d718	-0.11417979
163	0xbcefe23c	-0.029282682
164	0xbc3c9e03	-0.011512282
165	0xbe2d3380	-0.16914177
166	0x3daf70db	0.08566447
167	0x3dacef47	0.08444076
168	0x3d351dd5	0.044217903
169	0xbd8c9f24	-0.06866291
170	0xbdc05c3e	-0.09392594
171	0x3e0cd79c	0.13754123
172	0x3c8e74b8	0.01738964
173	0xbc5dac7f	-0.013529896
174	0x3d5744c1	0.052555803
175	0x3d9b39eb	0.07579406
176	0xbe2c06ea	-0.16799513
177	0xbe329129	-0.17438187
178	0xbd6ea664	-0.05826415
179	0x3e2dc95e	0.16971347
180	0x3e05f86f	0.13083051
181	0xbd1b911d	-0.037980188
182	0xbdce639a	-0.10077591
183	0x3d5d1e02	0.053983696
184	0xbd51831f	-0.051150437
185	0x3e305834	0.17221147
186	0x3e245b7b	0.16050522
187	0x3d99ac15	0.07503525
188	0xbe16faaa	-0.14744058
189	0xbd542d5e	-0.051801078
190	0x3d85d541	0.065348156
191	0x3db286c0	0.08717108
192	0xbdcd3726	-0.10020284
193	0xbdc9bb28	-0.0985015
194	0xbe0e61f3	-0.13904552
195	0xbe168033	-0.14697342
196	0x3e08e4d0	0.13368535
197	0xbb3e8566	-0.002907121
198	0x3e2c111a	0.16803399
199	0x3c19b815	0.0093822675
200	0x3d9dad03	0.07699015
201	0x3e151577	0.1455897
202	0xbdd5192d	-0.104051925
203	0xbc45609d	-0.01204696
204	0x3d465759	0.048423145
205	0xbe0ac4f9	-0.13551702
206	0xbde5e5de	-0.11225484
207	0x3e0e00b9	0.13867463
208	0xbe0f5d87	-0.14000522
209	0x3cf4c7ef	0.029880492
210	0xbe04355b	-0.12910978
211	0x3e16f230	0.14740825
212	0x3e29e64e	0.1659176
213	0x3d8fd3a3	0.070227884
214	0x3d127e7e	0.035765164
215	0x3df3b487	0.11899667
216	0x3df3cd47	0.11904388
217	0x3e03d3c7	0.12873755
218	0xbe0476a6	-0.12935886
219	0x3b2ad5d9	0.0026067405
220	0xbe1b0870	-0.15139937
221	0xbe2eda1b	-0.17075388
222	0xbe10b23e	-0.14130494
223	0x3e277c23	0.16355948
224	0x3da59970	0.080859065
225	0xbc6dee2d	-0.014522118
226	0x3d21ad86	0.039472125
227	0xbd7c7721	-0.061637048
228	0x3c8e546b	0.017374238
229	0xbe1730e3	-0.14764743
230	0x3e1dd716	0.1541408
231	0x3d1c577b	0.038169365
232	0x3e2d684d	0.16934319
233	0x3dbb605e	0.0914924
234	0xbdff95e7	-0.124797635
235	0xbe089bde	-0.13340709
236	0xbdef4c5f	-0.116844885
237	0xbd58b465	-0.052906413
238	0xbce4978a	-0.02790429
239	0xbddd704c	-0.108124346
240	0xbc91cfdb	-0.017799309
241	0x3e2b184b	0.16708486
242	0x3e1286f8	0.14309299
243	0xbb11f21c	-0.0022269553
244	0xbd65499e	-0.05597841
245	0xbdab9cfc	-0.08379552
246	0x3dbb0562	0.09131886
247	0xbcda26ad	-0.02662977
248	0xbe0f50e9	-0.13995709
249	0x3e11da1b	0.14243357
250	0x3dec5fd5	0.11541716
251	0x3bc348cd	0.0059596063
252	0xbdff3831	-0.124618895
253	0x3d3e5c73	0.046474885
254	0xbcdc81bf	-0.026917337
255	0x3e10ea40	0.1415186

GAT_layers.2.f.bias f4 [64]
0	0xbd67633d	-0.056491125
1	0x3d6f06e6	0.05835619
2	0xbd97c5a6	-0.07410745
3	0xbb5c3561	-0.0033601152
4	0x3d29b09a	0.041428186
5	0xbd190c1d	-0.037365068
6	0xbdb05519	-0.08609981
7	0xbcf3e31e	-0.029771384
8	0xbdc4aab0	-0.096028686
9	0x3dab4815	0.08363358
10	0x3d426c34	0.04746647
11	0x3cb82a64	0.02248115
12	0x3d9b9666	0.075970456
13	0x3d5a522a	0.053301014
14	0xbd0f4d32	-0.03498573
15	0xbd3679b1	-0.044549648
16	0xbd8002c4	-0.062505275
17	0xbdc5bc8c	-0.09655103
18	0xbd67c461	-0.056583766
19	0xbd24938e	-0.04017978
20	0x3cc9ba1f	0.024624882
21	0xbd8c1206	-0.06839375
22	0xbb86b095	-0.0041104057
23	0xbdb627b1	-0.08894289
24	0xbd8e243b	-0.06940504
25	0xbd8fbdf4	-0.070186526
26	0xbd7b5e02	-0.06136895
27	0xbc87e38e	-0.016587999
28	0xbcff7180	-0.03118205
29	0x3d05eddd	0.032697547
30	0x3d3d2307	0.046175983
31	0x3c5b4ae3	0.013384554
32	0x3cce7c90	0.02520588
33	0xbd8913e7	-0.06693249
34	0xbd9547a6	-0.072890565
35	0xbc9ee8e8	-0.019398168
36	0x3c1d3fc6	0.009597724
37	0xbd4ff52e	-0.05077093
38	0xbc16fbc8	-0.009215303
39	0xbd2e05cc	-0.042485997
40	0xbd62a163	-0.05532969
41	0xba065809	-0.00051248126
42	0xbcbb7953	-0.022885
43	0xbd68199d	-0.05666505
44	0xbd8111f0	-0.063022494
45	0xbd10028f	-0.03515869
46	0x3da7f2c3	0.082006
47	0x3b83de56	0.0040243072
48	0xbd7c63f1	-0.06161875
49	0x3d2eadbe	0.042646162
50	0xbd028d56	-0.03187307
51	0x3d81bccf	0.063348405
52	0x3dab1ac9	0.08354718
53	0xbd5cde91	-0.053923193
54	0x3d865bcd	0.06560478
55	0xbd682e8b	-0.05668501
56	0x3bcf7d6b	0.0063320897
57	0xbd8ddf41	-0.06927348
58	0xbd07ae1b	-0.033125024
59	0xbd532ee7	-0.0515584
60	0xbd877235	-0.0661358
61	0x3da73251	0.08163894
62	0x3d1e75b0	0.038686454
63	0xbd7abbdb	-0.06121431

GAT_layers.2.w.weight f4 [1, 128]
0	0x3d36ba4a	0.044611253
1	0x3e5458f7	0.20737062
2	0xbdb9d8c9	-0.090745516
3	0x3dec39ed	0.11534486
4	0x3e3bc49a	0.18336716
5	0x3e0ba0fd	0.13635631
6	0x3e264894	0.16238624
7	0xbe14e89c	-0.14541858
8	0xbc32f9d3	-0.010923821
9	0x3e18acfe	0.14909741
10	0x3e21eaef	0.15812276
11	0xbe336e1b	-0.1752247
12	0xbe28ee5e	-0.1649718
13	0xbe0942d5	-0.134044
14	0x3c182f0b	0.00928856
15	0xbe0a5472	-0.13508776
16	0xbcbdcee8	-0.02316995
17	0x3d6734bc	0.056446776
18	0xbe1f1f3e	-0.15539262
19	0x3d631468	0.055439383
20	0xbe58db58	-0.21177423
21	0xbd9da0b1	-0.07696665
22	0xbba1ba9d	-0.004935576
23	0xbd83559f	-0.06412815
24	0xbe146fd8	-0.1449579
25	0x3e354edd	0.17705865
26	0x3d844343	0.06458142
27	0xbd92bc15	-0.0716478
28	0x3e24d667	0.16097413
29	0x3c7559c8	0.014975019
30	0x3b9f847d	0.0048680888
31	0x3ccd2b9f	0.025045214
32	0x3e4f7a2c	0.20261449
33	0xbdd25a96	-0.10271184
34	0x3d8e1581	0.06937695
35	0xbe29cb61	-0.16581489
36	0x3e4452ca	0.19172207
37	0xbc9ed267	-0.019387437
38	0x3e15732f	0.1459472
39	0x3dbb05a7	0.091319375
40	0xbd52b88f	-0.05144554
41	0xbe511f14	-0.20422012
42	0xbe26cc34	-0.16288835
43	0x3e493808	0.1965028
44	0xbce0ad2b	-0.027426323
45	0xbca29c86	-0.019850027
46	0x3e538c41	0.20658971
47	0xbb435582	-0.0029805605
48	0xbe46d3bd	-0.19416709
49	0x3e2415a1	0.16023876
50	0x3dac01e1	0.08398796
51	0xbdae5b9d	-0.085135676
52	0xbe10d0af	-0.14142106
53	0xbe4ce800	-0.20010376
54	0x3dc1eb9c	0.09468767
55	0xbd11373f	-0.035453077
56	0x3c987692	0.018611226
57	0xbdaf141d	-0.08548758
58	0x3e40acfd	0.1881599
59	0x3e586499	0.21132125
60	0x3d7e249a	0.062046625
61	0x3e285848	0.16439927
62	0xbe15525d	-0.145822
63	0x3e54768c	0.20748347
64	0x3da57b6d	0.08080182
65	0x3dbbfd3e	0.091791615
66	0x3c7bdf26	0.015373027
67	0xbde1ac65	-0.1101921
68	0x3e1d1166	0.15338668
69	0x3d30ba6d	0.04314654
70	0xbcd29285	-0.025704632
71	0xbe3f9cba	-0.1871213
72	0xbd4c7989	-0.049920592
73	0x3db0f1c6	0.086398646
74	0xbe2ff770	-0.17184234
75	0x3e52ff4e	0.20605204
76	0x3d17af18	0.037032217
77	0x3d819d51	0.06328834
78	0x3e2f2973	0.17105655
79	0xbe3afd48	-0.18260682
80	0x3e5bd478	0.21467769
81	0x3d44b6e0	0.048025966
82	0x3d87ea60	0.066365
83	0xbdf72d64	-0.120692044
84	0xbd7573a4	-0.059924737
85	0xbbe012b9	-0.0068381694
86	0x3d6b9daa	0.057523407
87	0x3e229ecc	0.15880889
88	0x3df562b2	0.11981715
89	0x3e44a13e	0.19202134
90	0xbde5574b	-0.111982904
91	0x3e020690	0.12697816
92	0x3e1224c7	0.14271842
93	0xbbab331f	-0.0052246
94	0x3b0d7a02	0.0021587615
95	0xbddb53c9	-0.1070934
96	0x3d64fb31	0.055903617
97	0x3d2583cf	0.040408906
98	0xbda9bd7b	-0.08288094
99	0xbe4bb691	-0.19893862
100	0xbe0d8351	-0.13819624
101	0xbe527f7f	-0.20556448
102	0xbd857379	-0.06516165
103	0x3e1df822	0.15426686
104	0x3da8de41	0.082455166
105	0xbe41b031	-0.18914868
106	0xbd2fd067	-0.042923357
107	0x3dfb67f3	0.12275686
108	0x3d755e7a	0.059904553
109	0x3e46205e	0.19348285
110	0x3e24c994	0.16092521
111	0xbd96101a	-0.0732729
112	0xbe427369	-0.18989338
113	0xbe31c451	-0.17360045
114	0x3d9484f9	0.07251925
115	0xbe06063f	-0.1308832
116	0xbe4ee06c	-0.20202798
117	0x3cb9d72c	0.02268561
118	0xbe14540f	-0.14485191
119	0xbdf547dc	-0.11976597
120	0xbdf2cf27	-0.118559174
121	0xbbcdd1e6	-0.0062811254
122	0x3e5c289f	0.2149987
123	0x3d14b603	0.036306392
124	0xbe006b3a	-0.12540904
125	0xbe080918	-0.13284719
126	0xbe58e871	-0.2118242
127	0x3b1f1b07	0.0024277584

MLP_layers.0.weight f4 [32, 64]
0	0xbbe911a0	-0.0071126968
1	0x3df3e4a7	0.11908846
2	0xbbae536a	-0.0053200023
3	0x3d5c9154	0.053849533
4	0x3d698158	0.057008117
5	0xbdb76482	-0.08954717
6	0xbd7e4fdb	-0.062087875
7	0x3c923ec0	0.017852187
8	0xbdfae5d8	-0.122508705
9	0xbc304da0	-0.010760695
10	0x3d97b9d2	0.07408489
11	0x3dfccd64	0.12343863
12	0x3ddd890b	0.108171545
13	0xbdd09418	-0.10184497
14	0x3d5793f8	0.05263135
15	0x3d9a4e77	0.07534497
16	0x3d364ca0	0.04450667
17	0x3d56547e	0.05232667
18	0x3d94904d	0.07254086
19	0x3de34eee	0.11099039
20	0x3d933a70	0.071888804
21	0xbd7fa6a7	-0.06241479
22	0xbd9495c5	-0.07255129
23	0x3dc06a94	0.09395328
24	0xbc84a339	-0.016191112
25	0x3d9e6888	0.077347815
26	0xbdd2ec6c	-0.10299
27	0xbd304f97	-0.043044653
28	0x3becfc6f	0.007232241
29	0xbcd64038	-0.026153669
30	0x3d13ccc5	0.036083955
31	0x3d1b9cd0	0.037991345
32	0xbd6de6df	-0.058081504
33	0x3d1fcd3c	0.039014086
34	0x3d933ae2	0.071889654
35	0x3dbeeaf8	0.093221605
36	0xbd0541fc	-0.03253363
37	0x3dd954a5	0.10611848
38	0xbc9d6cf8	-0.019217
39	0x3ba25134	0.004953528
40	0xbd7a5901	-0.061120037
41	0x3d8b7429	0.06809265
42	0xbdcf6316	-0.10126321
43	0xbe003f44	-0.12524134
44	0xbcfbce07	-0.03073789
45	0x3deefef4	0.11669722
46	0x3de8cdf8	0.113674104
47	0x3d7916c4	0.060812727
48	0xbdb55757	-0.088545494
49	0x3dd50b54	0.10402551
50	0xbd947d2e	-0.07250439
51	0x3d9211c6	0.07132296
52	0xbcb2da48	-0.0218326
53	0x3c96c820	0.018405974
54	0xbd7dc00c	-0.06195073
55	0x3b86d3c0	0.004114598
56	0xbde00388	-0.109381735
57	0xbc7e9e70	-0.015540704
58	0xbdc2ae79	-0.09505934
59	0x3b999f46	0.0046881763
60	0x3da68774	0.081313044
61	0x3c25a53f	0.0101101985
62	0xbda8d2a2	-0.082433
63	0x3d9fa906	0.077959105
64	0x3db37d04	0.08764079
65	0x3b8a1486	0.0042138724
66	0x3c051f94	0.008125205
67	0x3de6930c	0.11258516
68	0x3d40952d	0.047017265
69	0xbd50e35c	-0.050998077
70	0xbd156f1e	-0.036482923
71	0x3d0ba1f4	0.034089997
72	0x3d95a444	0.07306722
73	0xbdb4d24a	-0.08829172
74	0xbd9ed1eb	-0.077548824
75	0xbd18751a	-0.03722105
76	0x3d911b37	0.07085269
77	0xbde9c314	-0.11414161
78	0xbda10be4	-0.07863596
79	0xbdf1c75f	-0.11805605
80	0xbd9c7216	-0.07638948
81	0xbdcbb847	-0.099472575
82	0xbdfc54d4	-0.12320867
83	0xbdc47e02	-0.095943466
84	0x3de2736f	0.110571735
85	0x3dd7ed35	0.105432905
86	0x3d4b5cdd	0.04964911
87	0xbd8eb014	-0.06967178
88	0x3c7df987	0.0155013865
89	0xbdbfef08	-0.093717635
90	0x3d2e95ea	0.042623438
91	0x3d85b0b8	0.06527847
92	0x3da9b24e	0.08285962
93	0x3c8f4100	0.01748705
94	0xbdfb3494	-0.12265888
95	0x3ae4ab00	0.0017445982
96	0xbcc253a2	-0.02372152
97	0x3c6ee34e	0.014580561
98	0x3d9f63ba	0.07782693
99	0xbd62a75b	-0.055335384
100	0x3d65a2e6	0.056063555
101	0xbd649503	-0.05580617
102	0xbdc0497c	-0.09389016
103	0xbb765409	-0.003758671
104	0x3d8adb72	0.06780137
105	0xbd050347	-0.03247383
106	0x3df969be	0.12178372
107	0xbd091aab	-0.0334727
108	0xbdcad9f8	-0.099048555
109	0xbdab9318	-0.08377665
110	0x3c795da0	0.015220076
111	0x3db866ca	0.090039805
112	0x3d5e5b3e	0.054286234
113	0xbd8f3b36	-0.069937155
114	0x3cb3d738	0.02195321
115	0xbdf3186c	-0.118698925
116	0x3d5bbe38	0.053648204
117	0x3cdbdce0	0.02683872
118	0xbda88f3f	-0.08230447
119	0xbcbc2740	-0.022967935
120	0x3d453bc8	0.048152715
121	0x3db63d2e	0.08898388
122	0x3d2e34c0	0.042530775
123	0xbb8df119	-0.0043317196
124	0xbd94ec57	-0.07271641
125	0x3c9e69ec	0.019337617
126	0x3db85a8b	0.09001645
127	0x3db63e52	0.088986054
128	0x3df08162	0.11743428
129	0xbd09ebfa	-0.03367231
130	0x3c87268d	0.016497875
131	0x3da5ca14	0.08095184
132	0x3da852b5	0.082189
133	0x3dadd6ea	0.08488257
134	0xbda917f9	-0.082565255
135	0xbd334d6c	-0.043775007
136	0xbd1a2122	-0.037629254
137	0x3dca801a	0.09887715
138	0xbdaf3cbe	-0.085565075
139	0xbc17a26f	-0.009255036
140	0x3e04d357	0.12971245
141	0x3d88ec87	0.06685739
142	0xbd39d700	-0.045371056
143	0xbc9e50c5	-0.019325623
144	0xbc1f1df0	-0.0097117275
145	0x3d728681	0.059210304
146	0xbbf89983	-0.0075866594
147	0x3d89ba70	0.06725013
148	0x3d9dd95b	0.07707473
149	0xbd85c154	-0.06531015
150	0x3db75fe5	0.08953837
151	0x3cf1a0a5	0.029495547
152	0x3c543cc9	0.012953945
153	0x3d749720	0.059714437
154	0x3dec6fdc	0.11544773
155	0x3d770cbc	0.06031488
156	0x3c3f414e	0.011673285
157	0x3cd10af8	0.025517926
158	0x3dab2d82	0.08358289
159	0x3d0664f8	0.032811135
160	0xbdc9bbed	-0.09850297
161	0xbcbd649b	-0.023119261
162	0x3d840516	0.064462826
163	0xbd4fe728	-0.050757557
164	0x3d126114	0.035737112
165	0x3de0c693	0.10975375
166	0xbce8b988	-0.02840878
167	0xbc0b2fde	-0.008495299
168	0x3de8d102	0.1136799
169	0xbdac74ad	-0.08420692
170	0x3d9ea32e	0.07745968
171	0x3dc0bc0b	0.09410866
172	0xbdc2074c	-0.09474048
173	0x3cc5a990	0.024128705
174	0xbc259480	-0.010106206
175	0xbb8c4340	-0.0042804778
176	0x3ddb877f	0.10719203
177	0x3d8b4252	0.06799759
178	0xbcc80910	-0.024418384
179	0xbd0fd434	-0.035114482
180	0x3d1a7d30	0.037717044
181	0x3c0bcd30	0.008532807
182	0xbdb82c88	-0.08992869
183	0xbca14e68	-0.019690707
184	0x3dd18e96	0.10232274
185	0xbdcddd04	-0.10051921
186	0xbdbdf594	-0.09275356
187	0xbdb70700	-0.08936882
188	0xbc3cf53a	-0.011533076
189	0x3d9dfcab	0.07714208
190	0xbbca8957	-0.006180923
191	0xbde8e468	-0.1137169
192	0xbd93dd36	-0.07219927
193	0x3d6cc198	0.057801813
194	0xbd522ddf	-0.051313277
195	0x3caf87e8	0.02142711
196	0xbd87dbb0	-0.06633699
197	0xbda24824	-0.07923916
198	0xbdf6f9b7	-0.12059348
199	0xbda70642	-0.081554905
200	0xbdb38af4	-0.087667376
201	0x3cfe02b0	0.03100714
202	0x3d89c70c	0.06727418
203	0x3d6d78c4	0.0579765
204	0xbdbcfe36	-0.092281744
205	0x3c3f2321	0.01166609
206	0x3cb86f20	0.022513926
207	0xbd09168c	-0.033468768
208	0x3df0881c	0.11744711
209	0x3ae2be6e	0.0017299184
210	0x3d3689f1	0.044565145
211	0x3da01752	0.07816948
212	0x3de97ec8	0.11401135
213	0xbd8d16f6	-0.06889145
214	0x3d333432	0.04375095
215	0xbd912f4e	-0.07089101
216	0x3c8bb587	0.017054332
217	0xbdf3138a	-0.11868961
218	0xbde5b331	-0.11215819
219	0x3ddd00e9	0.10791189
220	0xbd985665	-0.074383534
221	0x3d0f0a2b	0.034921806
222	0x3d84e514	0.06489006
223	0xbd56cf04	-0.05244352
224	0x3cdba058	0.026809856
225	0x3d259d12	0.040432997
226	0x3da93578	0.082621515
227	0xbda1f3f7	-0.07907861
228	0x3b78dc9e	0.0037973295
229	0xbb53b41f	-0.0032303405
230	0xbb281000	-0.0025644302
231	0xbd75a52f	-0.059971984
232	0xbd968218	-0.07349032
233	0x3d754cee	0.05988782
234	0xbd140ca4	-0.036144868
235	0xbd7ce21e	-0.06173908
236	0x3da2f9b9	0.07957787
237	0xbd25ed20	-0.040509343
238	0xbd7a3008	-0.061080962
239	0x3c481f60	0.012214512
240	0xbd5cc82f	-0.053901847
241	0x3dc45530	0.09586561
242	0xbd824840	-0.06361437
243	0x3d027ce5	0.03185739
244	0xbdc4c362	-0.09607579
245	0x3bb8f780	0.0056447387
246	0x3dceb30b	0.100927435
247	0xbdfb51a6	-0.122714326
248	0xbcae3db8	-0.021269664
249	0xbdbd4272	-0.09241189
250	0x3dad3a2d	0.08458362
251	0x3da39f9d	0.07989428
252	0x3cf4a321	0.029862942
253	0xbd8d615a	-0.06903334
254	0x3da034a1	0.07822538
255	0xbd36aa8c	-0.04459624

MLP_layers.0.bias f4 [32]
0	0xbc393de8	-0.0113062635
1	0x3f6f4b65	0.9347442
2	0xbe229928	-0.15878737
3	0x3f6c0459	0.92194134
4	0x3fbe6443	1.4874347
5	0xbdce564e	-0.10075055
6	0xbc13d4d0	-0.009022906
7	0xbc9f6391	-0.019456657
8	0xbd49eb5a	-0.049296714
9	0xbd26cbd5	-0.040721733
10	0xbc40b6b2	-0.011762308
11	0xbc20526c	-0.009785276
12	0xbe1ed476	-0.15510735
13	0xbe19ac7d	-0.15007205
14	0xbde0417f	-0.109499924
15	0x3fc9ddf2	1.5770857
16	0xbc2da847	-0.0105992025
17	0x3f641513	0.89094657
18	0xbe1829c9	-0.1485969
19	0xbdaf2745	-0.08552412
20	0xbc190266	-0.009338951
21	0x3fb43819	1.407962
22	0x3fb254c8	1.3932123
23	0xbc469f44	-0.012122933
24	0xbc54b0bc	-0.01298159
25	0xbd1dbb4d	-0.038508702
26	0xbcf2d69a	-0.029643346
27	0x3f5a8ee2	0.8537427
28	0xbdf41eba	-0.11919923
29	0xbdaafe3c	-0.083492726
30	0x3fb098d9	1.3796645
31	0xbc1e4f5b	-0.0096624745

MLP_layers.1.weight f4 [1, 32]
0	0xbcab41c8	-0.02090539
1	0x3d9e19f0	0.07719791
2	0xbd97f479	-0.07419676
3	0x3e3d9bb6	0.1851643
4	0x3fbbd9ee	1.4675882
5	0xbd048b3d	-0.03235935
6	0xbc7f2ac7	-0.015574164
7	0xbe27dbb5	-0.16392405
8	0xbc5f428b	-0.013626705
9	0x3d3d336d	0.04619162
10	0xbe22dc27	-0.15904294
11	0xbd7a96f2	-0.06117911
12	0xbc567e43	-0.013091627
13	0xbe2bc57e	-0.16774556
14	0xbdca5234	-0.0987896
15	0x3fb0143b	1.3756174
16	0xbd13b603	-0.03606225
17	0x3df0971c	0.11747572
18	0xbdd6c44f	-0.10486662
19	0xbdc18581	-0.09449292
20	0xbde76528	-0.11298591
21	0x3fb34b41	1.4007341
22	0x3fc558e8	1.5417757
23	0xbdd8e452	-0.10590424
24	0xbcce0a54	-0.02515141
25	0x3e101c5e	0.14073321
26	0x3d02fca5	0.03197922
27	0x3e0d9ae7	0.13828622
28	0x3e1bfda6	0.15233478
29	0x3cd1d632	0.025614832
30	0x3fc905ea	1.570493
31	0xbe0152ae	-0.12629196
